d2calcbot/main/calc_bot/actual_models/dota_model_ver0_3.pth (torch, 8366 bytes, 15 tensors)

branch_t.fc1.weight f4 [5, 9]
000000 54 54 89 bd 0e d3 85 be f3 37 3e be 80 12 87 bd
       -0.067055374 -0.26137584 -0.1857603 -0.065953255
000010 9f 6b 8b 3e 56 ee 79 3e 90 ab 91 bd 5c 38 8f be
       0.27230546 0.24407324 -0.07112801 -0.27972686
000020 db c3 62 be 34 18 5d 3e 86 2b 83 be 43 29 09 3e
       -0.22145025 0.21591264 -0.25619143 0.13394646
000030 5d c7 3e 3e 49 ca 64 be c0 33 89 3e 54 03 a2 be
       0.18630739 -0.2234279 0.26797295 -0.31643164
000040 2f f2 24 3e 47 73 72 3e a5 54 43 3e d5 7e b0 3d
       0.1610801 0.23676787 0.19075258 0.08617941
000050 91 0d 9c bd 64 28 06 3d fe e9 9f 3e b0 34 93 be
       -0.07619775 0.032753363 0.3123321 -0.28751135
000060 cb 90 65 3e 36 e4 ca 3c ef 04 34 3d 94 bf 26 3e
       0.22418515 0.024767023 0.043950018 0.16284019
000070 dc 24 8b bd bd 67 10 3e 80 31 47 be e8 56 ac be
       -0.0679414 0.14102073 -0.19452477 -0.33660054
000080 b8 33 20 3d 53 fe 22 be 12 47 62 be 29 ee f5 3d
       0.039111823 -0.1591733 -0.22097424 0.12008316
000090 46 9b d7 bd 56 17 f0 bd 88 48 3a be c0 66 1f be
       -0.10527663 -0.11723201 -0.18191731 -0.1556654
0000a0 c0 2b 82 be 9e 9d 7e 3e 8d e9 9e 3e e3 01 8b 3e
       -0.25424004 0.24864814 0.3103756 0.27149877
0000b0 9e 7f 3f be
       -0.18701026

branch_t.fc1.bias f4 [5]
000000 32 b4 a1 be 04 4d 09 bd 93 8d 07 3c ab 12 49 be
       -0.3158279 -0.033520713 0.0082735 -0.19636028
000010 06 c8 7b be
       -0.24588022

branch_p.fc1.weight f4 [5, 9]
000000 34 a6 2a be 2e 2a fb bc fe d9 9b be b3 ad 55 be
       -0.16664964 -0.030659761 -0.30439752 -0.20867042
000010 c1 e8 92 3e f2 a4 bd 3c b9 51 98 3e ef 22 af bc
       0.28693202 0.023149941 0.2974985 -0.021378962
000020 d1 2a 14 3e 55 e1 a0 3e e4 7a 4e bd ae 6b 82 3e
       0.14469458 0.31421915 -0.050410166 0.25472778
000030 f9 99 a0 3d f7 5a ae 3d 48 45 6c bd 82 24 3d 3e
       0.07841868 0.08513444 -0.05768326 0.18470958
000040 72 51 94 3e d2 e7 62 bb a8 8f 26 be 9c 83 a4 bd
       0.28968388 -0.003462304 -0.16265738 -0.08032915
000050 10 b1 fd bd e2 4a 2e 3e 6c 81 a6 bd e0 b5 9c be
       -0.123872876 0.17020753 -0.08130154 -0.3060751
000060 3d e5 a3 3e c0 a4 be bd 68 21 40 3d 8c 27 96 3d
       0.32010832 -0.09308767 0.04690686 0.07331762
000070 a0 ff 0d bc 30 c8 a2 bd a8 8d 54 bd 7b 9b 00 be
       -0.008666903 -0.07948339 -0.051892906 -0.12559311
000080 20 81 1d be 5c 76 d7 3d 95 42 86 3e 6d 48 9a 3e
       -0.15381289 0.10520622 0.26222673 0.3013338
000090 f2 5d 2c 3e ce 17 95 3e 52 fb 3e be be 71 5e bc
       0.16832712 0.29119724 -0.18650559 -0.013576923
0000a0 e5 f5 18 3e f6 8f 9a 3e ce bb 8c be b6 1a 9e be
       0.14937551 0.30187958 -0.27487034 -0.30879754
0000b0 cd cf 02 3e
       0.12774582

branch_p.fc1.bias f4 [5]
000000 a6 70 26 3e 34 b4 03 be c4 5b a3 be 0f 9c a5 be
       0.1625391 -0.12861711 -0.3190595 -0.32345626
000010 d6 40 3c 3e
       0.18384108

branch_h.fc1.weight f4 [5, 9]
000000 18 4b 73 3d 14 33 a8 be f6 d3 4c be 88 0e 28 bd
       0.059397787 -0.3285147 -0.20002732 -0.041029483
000010 88 72 01 3d b3 6b 32 be b2 34 64 3e 50 fc 95 be
       0.031603366 -0.17423896 0.22285727 -0.29294062
000020 38 7d 20 3e 00 42 44 be 8e 5c 42 be f0 2c 25 be
       0.15672767 -0.19165802 -0.1898062 -0.16130424
000030 c2 58 54 3e f5 ce 94 3e 2c fe 85 bd 18 32 9b be
       0.20736983 0.29064146 -0.0654262 -0.30311656
000040 40 6d 86 3c 10 24 8f 3d f2 94 5e 3e e9 59 46 be
       0.016409516 0.069893 0.21736506 -0.19370236
000050 d8 d0 67 be b6 0f 37 3d bc 0b 45 3e 87 3c 30 3e
       -0.22638261 0.044692717 0.19242758 0.1721059
000060 e6 98 8f 3e cb 85 17 be 0d cb cd 3b 36 86 2f 3e
       0.2804634 -0.14797132 0.006280309 0.17141041
000070 02 f2 33 3e f2 67 81 be 0e a4 ac 3d a5 2e 33 be
       0.17572787 -0.25274616 0.084297284 -0.17498262
000080 cb 5c 9d bd 85 72 d2 3c 13 95 9d 3e 7d 80 50 3e
       -0.076837145 0.025689373 0.30777797 0.20361514
000090 13 cd 18 be a8 ef 52 bd 20 1c 85 bd a4 ab a9 3d
       -0.1492198 -0.051498085 -0.06499505 0.08284691
0000a0 e8 18 1c be 00 81 5f 3c ac e1 a5 bd a4 39 f3 3d
       -0.15243876 0.013641596 -0.08099684 0.118762285
0000b0 4f f1 96 be
       -0.2948098

branch_h.fc1.bias f4 [5]
000000 b4 4e 9f bd cc 1a 9d be 72 c4 a4 3e 23 33 79 be
       -0.07778683 -0.30684507 0.32181126 -0.24335913
000010 00 7c bb 3c
       0.022886276

self_attention_players.query_projection.weight f4 [10, 10]
000000 43 0b 73 3e ae 1c 92 be 70 84 cc bc ca 0a 43 3e
       0.23734765 -0.28537506 -0.024965495 0.19047084
000010 2f d5 0b be ea ef 92 be 4f 67 9e bd e4 c6 1e be
       -0.13655542 -0.28698665 -0.07734548 -0.15505558
000020 c6 77 30 3e 20 d3 79 3e 99 1c d3 3d 4f fe 1d be
       0.1723319 0.24396944 0.10308189 -0.15429042
000030 98 fd 97 3d 68 b4 8d bd d3 0a d5 3a ed ee 94 3e
       0.07421416 -0.069191754 0.0016253836 0.29088536
000040 c0 37 9f 3e 5f 7c 8e 3e 60 df 2f 3e ff 72 7e be
       0.3109722 0.27829263 0.17175055 -0.24848555
000050 dd 03 a1 3e 77 f2 df bd 37 3e 07 be 77 36 91 be
       0.3144826 -0.109349184 -0.13207327 -0.28361866
000060 a7 1a 3e 3d e0 fe 67 be da 7b bf bc 80 85 f5 bc
       0.046412136 -0.22655821 -0.023374487 -0.029970884
000070 5d d8 82 3e c8 3e ee 3c e2 23 90 be 13 07 d4 bd
       0.25555697 0.02908267 -0.28152376 -0.10352912
000080 a8 20 81 be 7d 15 82 3e 88 8e 4c 3d 98 49 a0 bd
       -0.25220227 0.2540702 0.049940616 -0.07826537
000090 69 c8 0d be d7 8a 95 be 99 e8 94 3e 14 1d bf bd
       -0.13845982 -0.2920749 0.29083708 -0.09331718
0000a0 59 5e 01 3e b5 f6 69 be 66 ff 91 be a9 3a 97 be
       0.12633647 -0.22848018 -0.28515166 -0.29536942
0000b0 13 0b a1 3d 9d cb 83 be f7 ac 92 3e 54 96 a4 bd
       0.0786344 -0.25741282 0.28647587 -0.08036485
0000c0 0f b9 2d be 9e ab 92 be aa 2d 7a 3e dc fb a1 bc
       -0.16965126 -0.2864656 0.24431482 -0.019773416
0000d0 81 54 19 be 36 df 55 be bc d0 4f 3c 7e 55 19 3e
       -0.14973642 -0.2088593 0.0126840435 0.14974019
0000e0 11 29 70 3d 24 3d 04 be 80 01 54 be 72 19 84 3e
       0.058632914 -0.12913948 -0.20703697 0.25800663
0000f0 6f ce 80 3e 17 5f 75 be bc 5d 9f 3d c4 ff b9 3d
       0.25157496 -0.23962055 0.0778155 0.090819865
000100 28 43 6c be 2b cf ce bd d3 a8 95 be a2 e1 69 3e
       -0.23072493 -0.10098108 -0.29230365 0.22839978
000110 a3 14 50 be 99 c3 54 3e ae 81 86 be 2f 43 4d 3b
       -0.20320372 0.2077774 -0.26270813 0.0031320562
000120 82 0b 8a be 08 e2 3b 3d 4d c7 7f bd ac e1 9a 3e
       -0.26961905 0.045869857 -0.062445927 0.302503
000130 4b a9 cb 3c a6 a0 c9 bd 3f a7 a1 be 53 31 75 be
       0.024860999 -0.098450944 -0.3157291 -0.23944597
000140 9c 8c 8f 3e 0d 8c 8d be de 67 a8 bd 92 38 10 3e
       0.28036964 -0.27645913 -0.08222936 0.1408408
000150 9e 9d 28 be 36 20 78 bd cb db fb 3c a0 f8 af bd
       -0.16466376 -0.060577594 0.030744454 -0.08592343
000160 34 6b c7 3d 56 b6 70 3e 49 7b ca 3d 1d dc 82 3e
       0.09737244 0.23507056 0.09886796 0.25558558
000170 0e 63 15 be e8 b4 6f be 0e ff d7 3d 97 8e 10 be
       -0.14588568 -0.23408854 0.10546695 -0.14116894
000180 b8 21 4c 3d 68 66 18 3d 86 f4 e4 bd 6d 70 77 be
       0.049836844 0.037207037 -0.11179452 -0.24163981

self_attention_players.query_projection.bias f4 [10]
000000 d3 98 90 be 12 a3 78 be e3 c1 86 be e6 56 60 3d
       -0.28241596 -0.24280956 -0.263198 0.054770373
000010 43 5d 8a bd 21 ea 45 be 64 9b de 3a 09 c2 13 3e
       -0.067560695 -0.19327594 0.0016983566 0.14429487
000020 aa f7 0d 3e 40 5b 98 be
       0.13864008 -0.29757118

self_attention_players.key_projection.weight f4 [10, 10]
000000 c4 31 63 be 53 75 1c 3c 6b a3 5c be 58 76 36 3d
       -0.22186953 0.009549457 -0.21546714 0.044546455
000010 28 72 45 be 63 42 43 bd b5 38 9f bb a8 08 4a 3d
       -0.19281828 -0.047670733 -0.004859055 0.04932466
000020 a8 a6 3c bd f9 af bb bd 71 f0 75 3e 35 a8 8a be
       -0.046057373 -0.091644235 0.24017502 -0.27081457
000030 4d 23 84 3e ca 8e 93 bd da bd 73 be b8 96 85 3e
       0.25808182 -0.07204969 -0.23802891 0.26091552
000040 2b 41 64 ba d1 34 57 be 70 16 dc bc 1f 2d b7 bd
       -0.00087072205 -0.21016242 -0.026866168 -0.08944153
000050 5e 34 5c be 2c 60 51 be 55 8a 48 be 02 68 70 be
       -0.21504351 -0.20446843 -0.1958402 -0.23477176
000060 a2 8a 86 be 5c 7b a1 be 6a 92 98 3e c0 ce 4d bd
       -0.26277643 -0.31539428 0.29799205 -0.050246
000070 f0 0a 75 3d 1a 36 bd bd 2f 52 dd 3c 67 3f cf 3c
       0.059824884 -0.09238835 0.027016727 0.025298787
000080 48 57 13 3d c4 e4 82 bd db 3f 61 3e 39 8f 8e 3e
       0.03597191 -0.0639129 0.21997015 0.27843645
000090 c3 7f 0b be de 8f 74 3e b6 cb 0c 3e 3c 6f c2 bb
       -0.13622956 0.23883006 0.13749585 -0.0059336703
0000a0 12 51 00 be 1b be 5c be 30 33 da bd 98 87 4d bd
       -0.12530926 -0.21556894 -0.106542945 -0.05017814
0000b0 6b f2 21 3d 6d a8 49 be 26 bb 42 3d a1 d3 9e 3e
       0.03953783 -0.19693156 0.04754176 0.31020835
0000c0 4b ab 92 be ea 8d 7c be 7f 1d 63 bb 7e d1 0f 3e
       -0.2864631 -0.24663511 -0.0034655032 0.14044759
0000d0 e4 21 ad bd c4 27 1e be 4c ac 53 be b2 22 8e bd
       -0.0845373 -0.15444857 -0.20671195 -0.06940211
0000e0 7c 06 9b bd 26 4a 6c 3e a0 c5 7d 3d 2b e4 cb bd
       -0.07569596 0.2307516 0.061956048 -0.09955629
0000f0 98 cb 81 3e a4 5c 64 be b4 0b 33 be fc 9f f8 3d
       0.25350642 -0.22300965 -0.17484933 0.121398896
000100 cf 58 90 be 16 94 5b be 08 f8 86 be 1e ec 3c 3e
       -0.28192756 -0.21443209 -0.26361108 0.18449447
000110 b8 7c 7c 3d a1 89 1e 3e ac 7f 87 3d be 71 36 be
       0.06164238 0.15482189 0.06616148 -0.17816827
000120 d3 e6 39 be 5c 71 7b be 7b 36 78 3e dd a9 9f be
       -0.18154459 -0.24554962 0.24239533 -0.31184283
000130 36 39 c5 bd de fc 01 3e 42 d2 8c be a3 63 2f 3e
       -0.09630053 0.12694117 -0.27504164 0.17127852
000140 b2 be 63 3e 12 23 55 bd fa fc d7 bd a0 0c ce 3d
       0.22240713 -0.0520354 -0.10546298 0.10061002
000150 58 a0 82 3e 30 29 e1 3d 48 d7 76 3e 7c 03 e8 3d
       0.25512958 0.10994184 0.24105561 0.113287896
000160 10 b1 4a 3d 22 d0 8c bd 03 1f 58 3d ab d5 35 3e
       0.049485266 -0.06875636 0.05276395 0.17757289
000170 7c ea 33 3e 0c 58 8f be 2f 69 4e be 26 ed 5c 3e
       0.17569917 -0.27996862 -0.20157312 0.2157484
000180 aa 1f fe bd 20 03 7a bc e7 b7 82 be c0 ee 77 3e
       -0.12408383 -0.015259534 -0.2553093 0.2421217

self_attention_players.key_projection.bias f4 [10]
000000 e5 56 48 3e c8 25 17 3d 6e 2c d2 bd d9 ea 33 be
       0.19564398 0.036901265 -0.102623805 -0.17570056
000010 17 0f 35 bd f2 32 ce 3d 3d 74 00 bd 8c 2e 21 bd
       -0.044203844 0.10068311 -0.031360853 -0.03935103
000020 b3 d7 19 3d 5c 55 89 3e
       0.037559222 0.26822937

self_attention_players.value_projection.weight f4 [10, 10]
000000 7b 94 54 3e 91 49 11 be 67 9b 15 be 16 1c 4e 3e
       0.20759766 -0.1418822 -0.14610063 0.20127901
000010 1e 9c 78 3e e1 13 4f be c8 7b 1e be 58 f5 20 3d
       0.24278304 -0.20222427 -0.15476906 0.039296478
000020 7a 17 a0 bd 00 9a 83 be 8b 37 f7 3d bf 4b ec 3d
       -0.07816978 -0.2570343 0.12071141 0.11537885
000030 61 ec 1a be 18 5b 4d 3d c4 87 3e 3d 5e 23 6b be
       -0.15129234 0.050135702 0.046516195 -0.2296271
000040 38 73 09 3e 1b 56 87 be 30 37 f9 3c 2a d6 72 3e
       0.13422859 -0.2643288 0.030421823 0.2371451
000050 fa 84 a4 be 05 6d ec 3a 70 df 7b bd dd e5 8c 3e
       -0.32132703 0.0018037861 -0.061492383 0.27519122
000060 27 5b 2e 3c b8 e4 2b be d9 08 fb bb 0a 64 46 3e
       0.01064185 -0.16786468 -0.007660967 0.193741
000070 10 52 e8 3d 0a 4b 98 be 4d 04 8c 3e 74 32 75 3e
       0.11343777 -0.2974475 0.2734703 0.23945028
000080 de 68 65 3e 7c 7a 64 be 10 3a 2a be 80 21 8f be
       0.22403285 -0.22312349 -0.16623712 -0.27955246
000090 9e a7 31 3c e8 1c 93 bd ae 2f 53 3e d4 aa 9c 3e
       0.010843186 -0.07183248 0.20623657 0.30599082
0000a0 6f 92 6e be 03 0d 56 be 30 d1 13 3d 9d 22 10 be
       -0.23298047 -0.20903401 0.03608817 -0.14075704
0000b0 78 10 37 bd 85 2f 5f bc e0 91 90 3e 10 73 9e bc
       -0.04469344 -0.013622169 0.28236294 -0.019341975
0000c0 cf 2d 0d be e4 b6 a9 3d f3 dd 90 3e 5f 36 42 3d
       -0.13787006 0.08286837 0.28294334 0.047415134
0000d0 45 e3 8a be 28 74 38 3d 07 b3 22 3e 35 64 ab 3d
       -0.27126518 0.04503265 0.15888606 0.08368722
0000e0 18 de 6e be 1c 6a ab 3d 88 77 28 3e 69 73 36 3e
       -0.2332691 0.08369848 0.16451848 0.17817463
0000f0 e1 cd 87 3e f1 4d e5 bd d5 c9 95 be c4 4b d3 bd
       0.2652426 -0.11196507 -0.29255548 -0.103171855
000100 ee 6e 63 be ec 8b 0d be d4 ff a1 3c c7 ab 97 be
       -0.22210285 -0.13822907 0.019775309 -0.29623243
000110 30 04 bf 3c 75 59 88 3e 99 eb d0 3d a8 64 2f be
       0.023317426 0.2663075 0.10201187 -0.17128241
000120 f8 1a 16 3e 80 1f 7a be 6d 42 42 be 54 12 64 3e
       0.14658725 -0.24426079 -0.18970652 0.22272617
000130 83 bc 00 be e0 dd c0 3c aa f7 29 be 53 bd 2f 3e
       -0.12571912 0.023543298 -0.16598383 0.17162065
000140 ac f0 f5 bb 3a de 06 bd 6f a5 8d be ae 55 71 3e
       -0.007505497 -0.032926776 -0.27665278 0.2356784
000150 57 f8 f8 3c 07 c9 ad bd a3 4f 6e be 3a 73 14 3e
       0.030391855 -0.084856085 -0.23272566 0.1449708
000160 ea 15 7b 3e a3 13 aa 3d 07 cc 70 3e 5d 52 1a be
       0.24520078 0.08304527 0.2351533 -0.15070482
000170 f2 6f 7a 3e ba e7 46 be 3d 75 04 be b8 b8 ab be
       0.24456766 -0.19424334 -0.12935348 -0.33539367
000180 27 57 a9 3e f6 d0 a6 bd 80 80 55 be 82 a3 65 bd
       0.33074304 -0.08145325 -0.208498 -0.056064136

self_attention_players.value_projection.bias f4 [10]
000000 dc f6 ce bd 0a 74 94 3e 52 f3 8a 3e 34 14 65 3d
       -0.101056784 0.2899478 0.27138764 0.05592747
000010 48 c8 b1 3c f1 b0 3b be 68 b3 59 be 90 42 6b be
       0.021701947 -0.18329217 -0.21259844 -0.2297461
000020 9a aa 1b be 56 83 41 3e
       -0.15201798 0.18897757

self_attention_players.output_projection.weight f4 [10, 10]
000000 87 fc 54 bd dd d7 61 3d 02 14 9c 3d 66 f6 62 3e
       -0.05199864 0.055137504 0.07621004 0.22164306
000010 8a 86 33 be 6b e9 31 3e d5 5c 52 be 79 6c 81 be
       -0.17531791 0.17374198 -0.20543225 -0.2527807
000020 fb 4c 95 3e 4c 8f 52 be 08 46 7d bd 42 e4 5c be
       0.29160294 -0.20562476 -0.061834365 -0.21571448
000030 5a 6d 0d 3e c2 19 5b bd 1c fb 2d be 02 ba 19 3e
       0.13811246 -0.05349136 -0.16990322 0.15012363
000040 43 c2 66 be bf cf 41 bd fb 01 3e bd 67 61 28 be
       -0.22535042 -0.047317263 -0.046388607 -0.16443406
000050 1b 1d 69 be a1 0c bc 3d 35 da 8b 3e 34 ba 88 3e
       -0.22765009 0.09182096 0.27314916 0.26704562
000060 9b dd 82 be 04 1b 7f be 4a 50 55 3e 37 11 22 3e
       -0.25559697 -0.2491265 0.20831409 0.1582688
000070 05 5f 32 be 17 06 48 3e 24 00 56 be b1 d3 52 be
       -0.1741906 0.19533573 -0.20898491 -0.20588566
000080 7b 81 ed 3d 8f d9 7a bd d7 a2 77 3e ad 7e 74 bd
       0.11596962 -0.061242636 0.24183212 -0.05969112
000090 72 b5 b8 3d 81 d1 90 3e d7 89 1c be 04 5e 29 3d
       0.09018983 0.2828484 -0.15286957 0.041349426
0000a0 79 af 87 3e 7d 4b 76 3e 10 42 a8 3d de 50 46 be
       0.26501063 0.24052234 0.082157254 -0.19366786
0000b0 bb f7 0f 3e 81 f8 8e be 24 73 2a 3e 4a 1f 0a 3d
       0.14059345 -0.27923968 0.16645485 0.033721246
0000c0 a2 72 69 be f7 a9 41 3d 24 ce 89 be 73 26 c0 3d
       -0.22797635 0.04728123 -0.26915085 0.093823336
0000d0 0f 17 68 bd e1 92 51 bd 49 41 8f 3c a4 0d cf 3d
       -0.056662615 -0.051165465 0.017487185 0.101100236
0000e0 ce 70 f8 3d a5 24 81 3e 19 82 21 3e b5 0b 59 be
       0.12130891 0.2522327 0.15772285 -0.21195872
0000f0 11 02 41 ba 31 09 f4 bb 77 a2 46 3e 53 e7 99 be
       -0.00073626736 -0.0074473848 0.19397913 -0.300593
000100 33 ef 8a be f1 35 40 bd de 40 9a be f5 8b 41 3d
       -0.2713562 -0.046926443 -0.30127615 0.047252614
000110 19 c3 ae bb 98 4b 79 3e c4 d4 31 bc 99 f6 3f 3e
       -0.005333316 0.24345243 -0.01085395 0.18746413
000120 e1 c0 3b be 58 7b b1 3d 46 15 2d be 1d d7 b7 bd
       -0.18335296 0.08666104 -0.16902646 -0.089765765
000130 e5 7c 8d 3e d0 33 47 3e 38 6e 8c 3e 6b 04 a8 bd
       0.2763435 0.19453359 0.2742784 -0.08203968
000140 32 73 9b be 78 33 c3 3d 18 00 2b bc 56 a7 49 be
       -0.30361325 0.09531301 -0.010437034 -0.1969274
000150 1e f9 a0 bc dc 67 e6 3d 3b 05 77 3e 56 28 80 be
       -0.019650038 0.11250278 0.24123089 -0.25030774
000160 b9 dc 6f be e1 63 99 3e 7c 73 c7 bc 16 ea 2f be
       -0.23424043 0.29959014 -0.02434706 -0.1717914
000170 51 57 27 3d cd 3f 75 be bd 9c f2 ba c9 27 02 3d
       0.040854756 -0.2395012 -0.0018509846 0.031776223
000180 61 10 0f 3e 6e 89 f4 bc 62 5a a2 be 8a bb 10 be
       0.13971092 -0.029850688 -0.31709582 -0.1413404

self_attention_players.output_projection.bias f4 [10]
000000 ad f3 98 bd 3c e8 2b be 8c 7f 3f 3e d8 e9 17 3e
       -0.074683525 -0.16787809 0.18700999 0.14835298
000010 d6 d2 dd 3b 19 09 e8 bc fb 0b 0c 3e fb 3e 85 be
       0.0067695184 -0.02832465 0.13676445 -0.26024613
000020 0a da 2a 3e 68 00 7e be
       0.16684738 -0.24804842

fc.weight f4 [1, 70]
000000 15 d1 6f bd 54 ee 38 bb 1f 13 7c bc cd d6 9c bb
       -0.058549006 -0.0028218227 -0.015385418 -0.0047863484
000010 1c 36 d1 3c 6c 71 e9 3c cb eb 80 bd 3c 8b bd 3c
       0.025538497 0.028496467 -0.06294974 0.023137681
000020 d2 32 c1 3d 64 4f 23 bd 3c 93 d4 bc 24 e0 26 3d
       0.09433521 -0.039870635 -0.025949113 0.0407411
000030 83 da 0b bd a7 f8 78 3d 5e 82 e6 3d 74 aa e4 b8
       -0.034143936 0.06078401 0.11255334 -0.000109036366
000040 b5 1c b1 3d 58 c1 bc 3d b1 1d c1 3d 0d 66 90 3d
       0.086480536 0.09216565 0.09429491 0.07050715
000050 96 df 35 3d 1a 9e 59 bd 82 a6 81 bd 1f 4d 80 bd
       0.04440268 -0.053129293 -0.06330587 -0.0626471
000060 3e b3 34 3d 9e 43 21 3d 92 e1 29 bd 0b 1c 75 bc
       0.04411625 0.039371125 -0.041474886 -0.014960299
000070 b1 ad ca 3d fd 4f 89 bd 96 96 46 bd 44 20 b0 bd
       0.0989641 -0.0670471 -0.048483454 -0.08599904
000080 1b 3b 19 3d ee 2c 1b bd c8 f5 75 bc 0d 86 b4 3d
       0.037409883 -0.037884645 -0.015012212 0.08814631
000090 d0 9a f2 bd 9c 6b 25 3d 7a d5 20 bd 60 e3 98 bc
       -0.118459344 0.040385827 -0.039266087 -0.018663108
0000a0 bf eb b5 3d 0e b4 dc bd 24 24 00 3d 8b dc 94 3c
       0.088828556 -0.1077653 0.031284466 0.01817157
0000b0 a0 f5 cf bb 58 5c 06 bc 8e ef 5f 3d 7b 5a 42 bd
       -0.0063464195 -0.008200727 0.054671817 -0.04744957
0000c0 aa e8 73 3d 75 69 b9 3d fa 7a 41 bd 2e 25 52 3d
       0.059548058 0.090533175 -0.04723642 0.05130499
0000d0 91 06 b9 bd 20 44 9d 3d 05 c8 b5 3d 47 2e 92 3d
       -0.090344556 0.076790094 0.08876041 0.07137733
0000e0 7b 6f a8 3d fb 5d 06 3d 4e cf c1 3d 38 b0 46 bc
       0.08224388 0.03280447 0.09463368 -0.012126975
0000f0 d8 2b b2 bd c0 b8 1e bc 2b cd d1 3d d5 78 db bd
       -0.08699769 -0.0096876025 0.10244211 -0.10716406
000100 f8 ae 15 3c 3c 53 9d 3c 71 d3 84 3d e6 e7 13 bd
       0.009135954 0.019204728 0.06485642 -0.036109827
000110 88 cf cb 3d a9 bc cb 3d
       0.09951693 0.099480934
