d2calcbot/main/calc_bot/actual_models/dota_model_ver1_12.pth (torch, 48066 bytes, 23 tensors)

branch_t.fc1.weight f4 [9, 9]
000000 db dc 13 3e 34 1a 61 be fc db 77 3e 1f 99 d1 3d
       0.14439718 -0.21982652 0.24205011 0.10234284
000010 0f 5f d7 3c 49 67 c9 3c b8 09 17 3d be 64 8d 3e
       0.026290445 0.024585383 0.036874503 0.27615923
000020 1e 50 ff bd fe c9 3e be be 0f 02 be 18 5b fd bd
       -0.12466453 -0.18631741 -0.12701318 -0.123708904
000030 ca fd 2b bc de a6 0d be 1a e3 84 3e 0f 99 d2 bd
       -0.01049752 -0.13833186 0.25954515 -0.102831
000040 ee d8 d1 3d 3f a5 57 3d 20 92 44 bd cf 24 02 3e
       0.10246454 0.052647825 -0.04799092 0.12709354
000050 06 96 5c 3e db 90 0a 3e fa 29 24 3e da 1a 2d be
       0.21541604 0.1353182 0.16031638 -0.16904774
000060 78 79 c7 bd ff 31 95 3a 4c 41 6d be 68 4c 90 be
       -0.09739965 0.0011382698 -0.2316944 -0.28183293
000070 4b 02 5a 3e 81 87 4c 3e b6 48 72 3c 4f 66 2e 3b
       0.21289937 0.19973566 0.014787843 0.0026611274
000080 dd 32 09 3e 90 5d 74 3e 16 71 e1 bd 69 d5 c9 bd
       0.13398309 0.23863816 -0.110078976 -0.09855158
000090 71 bb 73 3e 4d 15 7b be 32 65 27 3b 0e 3a b5 3d
       0.23801972 -0.24519844 0.0025542495 0.08848964
0000a0 d6 77 c2 3d 18 90 80 be 60 6b 81 be 39 e7 72 be
       0.09495513 -0.25109935 -0.25277233 -0.23721017
0000b0 58 ee 88 be a4 62 03 3d 32 68 ab bd dd aa a6 3d
       -0.26744342 0.032076493 -0.08369483 0.08138058
0000c0 57 5c 9c be 4e 1b 2a be 02 2d 6a be 61 c7 47 3d
       -0.305392 -0.16611978 -0.22868732 0.048774127
0000d0 fe cd a4 bd 2f 50 ab 3e aa bc 29 be 70 37 95 bd
       -0.080471024 0.33459613 -0.16575876 -0.072859645
0000e0 a3 f5 c9 3d b5 e4 ce 3d 34 f4 9c be 1c 56 0b 3e
       0.098613046 0.10102216 -0.30655062 0.13607067
0000f0 ad 0b 9c 3e a8 bc a4 3e c6 9a 82 3d 1e 92 8b 3e
       0.30477658 0.32175183 0.06377177 0.27259916
000100 1b 90 98 be 82 82 fe 3c 2a a2 a3 be 0c c8 38 bd
       -0.29797444 0.03106809 -0.3195966 -0.045112655
000110 d7 ca 07 3e 5f 10 19 be 09 2c 69 be c7 6b 33 3e
       0.13260971 -0.14947651 -0.22770704 0.17521583
000120 82 b4 83 bd fe 40 a7 3d 4e 14 a2 3e db 88 18 be
       -0.064309135 0.08166693 0.31656116 -0.14895956
000130 2c 24 1f be 8a f8 40 bc 8e 4f 70 3e 8c 5f 40 be
       -0.15541142 -0.011778006 0.23467848 -0.18786448
000140 f2 b6 49 3d
       0.049246736

branch_t.fc1.bias f4 [9]
000000 c1 23 53 be f3 6e f0 3d 3b aa 59 be b8 76 9c 3e
       -0.20619108 0.11739912 -0.21256344 0.30559325
000010 ed 58 b6 bd 04 ec 8e be 3e fc 2d be 74 0e 9d bd
       -0.0890368 -0.2791444 -0.16990754 -0.07668772
000020 cf db 42 bc
       -0.011893227

branch_t.fc2.weight f4 [9, 9]
000000 ce 51 49 be e9 9d 9f 3e cd 28 ca bd 1b 29 0c 3e
       -0.19660112 0.31175163 -0.098710634 0.13687555
000010 10 62 00 3d 64 12 45 be eb 92 55 3e 4a 50 7d be
       0.03134352 -0.19245297 0.20856826 -0.24737659
000020 79 6f 5f be 1c 57 9c 3e ad ee 86 3e 17 5a 3c be
       -0.21819867 0.3053521 0.2635397 -0.18393742
000030 9a eb ff bd b1 53 95 3e 5d 43 99 3e 3e 8d 42 be
       -0.12496109 0.29165414 0.29934207 -0.18999192
000040 25 1a 50 3e 32 f4 15 be 55 3e 8a bd 8c 3e 4d 3e
       0.20322473 -0.14643934 -0.0675017 0.20043391
000050 03 35 2a 3e cd a6 f3 3d c3 74 42 be 56 cb db bc
       0.16621785 0.11897049 -0.18989854 -0.026830357
000060 e3 23 87 3e 42 5f dd bc 66 8c e6 3d cb 0e 20 be
       0.26394567 -0.027022962 0.112572476 -0.15630643
000070 15 97 9c 3e 41 a3 51 bc d0 8e 2a 3e 5b 90 4b be
       0.30584016 -0.01279527 0.16656041 -0.19879286
000080 e9 be 55 be d7 f2 41 be bc 9c f3 3d 9a b5 3b be
       -0.20873608 -0.18940292 0.11895129 -0.18330994
000090 25 5e 87 3d 13 15 85 be 7f c7 d9 bd b0 66 d1 3d
       0.066097535 -0.2599264 -0.10633754 0.10224664
0000a0 a2 78 a1 be 58 b3 63 be 5f db 93 be 72 9f 33 be
       -0.31537348 -0.22236383 -0.28878304 -0.17541292
0000b0 12 4b b4 bc 1a 71 2f 3c 55 33 49 be 76 2b 35 bd
       -0.022008453 0.010708118 -0.19648488 -0.0442309
0000c0 bb d8 a5 3c 3c 6c 55 3e 27 97 9c be e4 6c c4 bb
       0.020244947 0.2084207 -0.3058407 -0.005994426
0000d0 cb 3b 9e 3e c9 93 ad bd 23 75 98 3e 60 84 ea 3c
       0.30904993 -0.084754534 0.29776868 0.028627574
0000e0 0a cd 8d 3e 31 4f 91 3d 99 47 e9 bc 4e ee 5c be
       0.27695495 0.07095183 -0.028476523 -0.21575281
0000f0 94 dc 6a 3e f8 fc 90 3e 89 10 06 3d 2e 1c 81 be
       0.22935706 0.28318 0.032730613 -0.25216812
000100 9b e2 4a be 43 86 9a bd 74 58 11 3e cc ed 80 be
       -0.19813006 -0.0754514 0.14193898 -0.25181425
000110 ca 64 de bd 0a 23 c6 3d 7e 5d e6 3d de f9 4c be
       -0.10859068 0.09674652 0.11248301 -0.20017192
000120 12 5d 7d 3e c7 2c 82 be 83 63 d1 3d 35 f8 05 bd
       0.24742535 -0.25424787 0.102240585 -0.03270741
000130 01 5d 5d 3e ad d6 1a be 68 d3 8c 3d c3 e7 48 3e
       0.2161751 -0.15120955 0.0687626 0.1961966
000140 6c 18 dc 3d
       0.107468456

branch_t.fc2.bias f4 [9]
000000 ac 18 f3 bd d7 1d ef 3d d2 50 a3 3e 99 24 c1 bc
       -0.1186994 0.116756134 0.31897599 -0.023577021
000010 96 e7 fe bb 0a 04 8f bd 5b f4 01 3d 51 d2 48 3d
       -0.007779072 -0.06983192 0.031727176 0.0490287
000020 b1 ec 8b be
       -0.2732902

branch_p.fc1.weight f4 [9, 9]
000000 8b 81 5e 3e 98 8f 02 be 38 76 89 be 91 c9 95 be
       0.21729104 -0.12750089 -0.26848006 -0.29255345
000010 e2 43 94 be d1 12 a4 3d 09 13 81 3e 25 cd 9a 3e
       -0.2895804 0.080114014 0.25209835 0.30234638
000020 ce 90 8d 3e b2 17 ad bc 5e 48 a4 3d 5b d0 2d 3e
       0.2764954 -0.021129463 0.080216154 0.16974013
000030 8a 37 8c bd ca 89 52 be d1 15 d8 39 a5 f6 ea ba
       -0.06846531 -0.20560375 0.00041214985 -0.0017926289
000040 28 fd 22 be 9d 82 53 3e a8 71 3a bd 01 a3 d2 bc
       -0.15916884 0.20655294 -0.045518547 -0.025712492
000050 db 75 68 be f0 0e b1 bd ff 9d 5b 3e bc e4 a8 be
       -0.22701208 -0.08645427 0.2144699 -0.3298701
000060 e8 59 21 be 59 c0 23 be 92 a6 e1 bd 3b 64 60 3e
       -0.15756953 -0.15991344 -0.11018099 0.21913235
000070 81 8c 44 3c 26 52 5b 3e 14 63 52 be 2c 2c 86 3e
       0.011996389 0.21418056 -0.20545608 0.26205575
000080 78 cf 99 3e 4b af 3b 3c cf 6c bf 3d af 05 1a 3e
       0.300411 0.011455367 0.093469255 0.1504123
000090 44 69 21 be c6 ea 61 bd 40 17 2b bc 14 a7 a4 3d
       -0.15762812 -0.055155538 -0.010442555 0.0803968
0000a0 42 6a 81 be c0 c2 37 3e e9 de b4 3d 58 5b 50 3e
       -0.2527638 0.17945385 0.08831579 0.20347345
0000b0 92 47 9c be 42 ce 65 be e4 dd c2 3d f5 c9 8f be
       -0.30523354 -0.22441962 0.095149785 -0.28083768
0000c0 5b 8f 04 3e d4 60 71 be e9 55 c4 bc 85 41 fa bd
       0.12945311 -0.23572093 -0.023966746 -0.12219528
0000d0 14 c9 05 be c8 7e b8 3d 85 f8 82 3e 58 0b 1a be
       -0.13064986 0.090085566 0.2558023 -0.1504339
0000e0 29 e7 88 3d 00 9d 61 3e f8 75 9e bd e7 cc 9b 3e
       0.06684715 0.22032547 -0.077373445 0.30429766
0000f0 5f 08 b5 bd 5b 40 13 be 90 06 5a 3e 7a 28 9b be
       -0.08839487 -0.14380018 0.21291566 -0.3030432
000100 5f fc 3c 3d d5 0d 0e bd a0 f8 3c be a2 28 cd 3d
       0.046139117 -0.03468116 -0.18454218 0.10017516
000110 14 d3 42 be 38 b1 3a 3e b4 a9 2d 3e b9 1a 05 3e
       -0.19025832 0.18231666 0.16959268 0.12998475
000120 1c 02 03 3e ae 1d a5 be c9 fc bf bd ec fa 92 be
       0.12793773 -0.32249206 -0.09374387 -0.28707063
000130 0b 19 31 3d 35 37 4a 3e 9a e3 11 be 40 a3 3d be
       0.043236773 0.19747622 -0.1424698 -0.18519306
000140 94 34 07 bd
       -0.033009127

branch_p.fc1.bias f4 [9]
000000 e2 6e 61 3e 5f 89 cf bd 3d 17 11 3e f7 5a 9b be
       0.22014955 -0.10133623 0.14169021 -0.30342838
000010 cd d3 97 be 59 50 00 3e c5 29 47 3e 32 f4 7f be
       -0.2965378 0.1253065 0.19449528 -0.24995497
000020 12 56 dd 3d
       0.10807432

branch_p.fc2.weight f4 [9, 9]
000000 56 7d 96 3d c9 b5 0e bd 19 7a 94 be 9b 6e 84 be
       0.07348125 -0.034841333 -0.28999403 -0.25865635
000010 71 b1 33 3e 63 e8 a6 3d 2b c8 83 3c 2b 90 b5 bd
       0.17548157 0.08149793 0.016086658 -0.088653885
000020 0e c0 a0 be c6 66 8c 3e 49 c8 11 3e 3f bc c6 3d
       -0.31396526 0.2742216 0.14236559 0.09703874
000030 41 b3 cf bd 3b 6c 29 3e 7f 4d a3 3e 33 1c 98 3e
       -0.10141612 0.16545193 0.31895062 0.29709014
000040 df df 8e 3e d7 ae 82 3c ff af 99 3e c6 fd 91 bd
       0.27905175 0.01595251 0.30017087 -0.071284816
000050 ee c1 52 3e 56 8d 19 be 1d 18 88 be 2d a8 97 be
       0.20581791 -0.14995322 -0.26580897 -0.29620495
000060 12 93 86 be 75 e9 11 3e 98 f5 c6 3c 5d 8c 81 3e
       -0.2628408 0.14249213 0.02428703 0.253024
000070 2f 52 76 3e b5 c6 b8 3c 7a f3 9d 3e 61 44 98 3e
       0.24054788 0.022555688 0.3084982 0.2973967
000080 12 82 5a 3e 84 5c 52 3c db fb 55 be c3 44 24 be
       0.2133868 0.01283944 -0.20896856 -0.16041856
000090 83 36 22 be e3 b3 5a be df 5a aa 3e 52 b0 08 be
       -0.15841107 -0.21357684 0.33272454 -0.13348511
0000a0 bb 26 18 3e 87 81 c8 3d 88 ce db 3d ff e3 02 be
       0.14858525 0.097903304 0.10732752 -0.12782286
0000b0 69 a2 f9 bd e6 a7 67 be 85 91 5e bd 56 4b 03 be
       -0.121891804 -0.22622642 -0.054337997 -0.12821707
0000c0 de 9c 11 3e 30 9d 8e be ec a1 fd 3c 45 07 8c 3d
       0.14219996 -0.278543 0.030961 0.06837324
0000d0 d9 28 ea 3c f6 8e 8b 3e f6 3c 89 3d 45 eb 0a 3e
       0.02858393 0.27257508 0.067010805 0.1356631
0000e0 a1 5a 9d 3d 19 8b 31 3e 73 53 72 be a6 f6 78 be
       0.07683302 0.17338218 -0.23664646 -0.24312839
0000f0 90 ad 8e be 2a c9 a7 bd 91 5e 07 be f5 a2 52 be
       -0.27866793 -0.08192666 -0.13219668 -0.20569976
000100 ab 9d a7 3e e8 bd 22 3e 0d 23 7c 3e ed 35 33 be
       0.3273748 0.15892756 0.24622746 -0.1750104
000110 ef 5e cb bb 59 ac 6c 3a a1 16 44 3e f4 04 65 3e
       -0.0062063853 0.00090283673 0.19149257 0.2236517
000120 1a ea 90 be a6 8a f7 3d 06 8a 7e bd 29 64 b2 bd
       -0.28303605 0.12086992 -0.06214335 -0.0871051
000130 7c 0e 93 be d0 91 26 3e 60 7e 58 be e3 a3 39 3e
       -0.28721988 0.1626656 -0.21141958 0.18128924
000140 e5 16 c7 bd
       -0.09721164

branch_p.fc2.bias f4 [9]
000000 9b 65 08 be 42 7e 03 be 4e 6c 1f 3d d2 94 af bc
       -0.1332001 -0.12841132 0.038921647 -0.021433268
000010 13 e4 8e be 34 3d 14 be 71 a5 23 be ec 26 f5 bd
       -0.27908382 -0.14476472 -0.1598108 -0.119703144
000020 a6 3c 3e 3e
       0.18577823

branch_h.fc1.weight f4 [9, 9]
000000 65 58 9f be 31 d8 c4 bd 9b cf 0c be 80 e9 3c be
       -0.31122127 -0.09611548 -0.1375107 -0.18448448
000010 65 22 31 3e 51 cb 55 3e 26 8d ca 3d 77 40 21 3e
       0.17298277 0.2087834 0.09890203 0.15747248
000020 d9 91 9e 3e 44 07 72 3e 2f 22 43 be cc fd 7a be
       0.30970648 0.23635584 -0.19056009 -0.24510878
000030 9f bc 32 3e 4d a1 84 be d3 28 43 bd dc df 44 be
       0.17454766 -0.25904313 -0.047646355 -0.1922602
000040 1a 80 11 3e cb e3 b6 3d 68 0b a7 3e 28 b0 f3 bd
       0.14209023 0.08930167 0.3262589 -0.118988335
000050 68 45 55 3e b8 be 33 bd 55 69 3e 3e 57 4b 8a be
       0.20827258 -0.043883055 0.18594868 -0.27010605
000060 6b 47 d2 3c 01 66 96 be fd ee 09 be 61 38 0e be
       0.02566882 -0.29374698 -0.13470073 -0.13888694
000070 2e 0b 48 be a6 df 9d 3c f2 47 21 3e 55 c3 3f be
       -0.19535515 0.019271683 0.15750101 -0.18726857
000080 b4 20 a5 3d 82 b0 f5 bc 3b 10 32 3e 5e 17 a2 3e
       0.08062878 -0.029991392 0.17389004 0.31658453
000090 0e 00 46 3d 8c 45 4d 3d 86 df 59 3e cf b0 b9 bd
       0.048339896 0.050115153 0.21276674 -0.09066927
0000a0 00 0c da bd 2d b3 91 3e 02 0f 53 3d 85 37 18 3e
       -0.1064682 0.28457013 0.051527984 0.14864929
0000b0 a8 71 89 3e 06 07 67 3e bf df 60 3e 0f f6 75 bd
       0.26844525 0.22561273 0.21960352 -0.060049113
0000c0 84 f1 4c 3e 82 54 40 be 60 cd a1 bd f3 a6 a5 3c
       0.20014006 -0.18782237 -0.079005 0.02022121
0000d0 5e fb 80 be 63 ee 0d 3e 43 2a 4d be 62 0d a9 3c
       -0.25191778 0.13860469 -0.20035653 0.020636264
0000e0 b5 1f 49 3d a6 ec 2f 3e 57 10 96 be e9 35 9d be
       0.049102504 0.17180118 -0.2930934 -0.30705193
0000f0 61 83 17 3e 9e fa ef bd 75 07 90 3e d3 91 8c be
       0.14796211 -0.11717723 0.2813069 -0.27455005
000100 2e f1 d4 bd dc b7 29 3c 94 bf 14 3d 14 f5 e9 bd
       -0.10397564 0.010358777 0.036315516 -0.11423698
000110 fe 08 26 be 27 6a f5 bd 43 c1 96 be d2 bb 28 be
       -0.16214368 -0.119831376 -0.29444322 -0.16477898
000120 26 3a 9c be 7a e8 3b bc 09 64 7b 3e 42 38 60 bd
       -0.30513114 -0.011469001 0.24549879 -0.05474115
000130 26 62 8e 3e c7 95 2b 3c 7b f2 74 3e ae 99 97 be
       0.27809256 0.010472721 0.23920624 -0.29609436
000140 b1 a8 91 be
       -0.28449014

branch_h.fc1.bias f4 [9]
000000 ae 1e 8a be 12 b2 86 bd ff 84 8c 3e 68 aa 08 3e
       -0.26976532 -0.06576933 0.27445218 0.13346255
000010 d9 82 06 3e c7 95 1a 3e 34 32 3c be 62 2e 8c be
       0.13135852 0.15096198 -0.18378526 -0.27379137
000020 ac 31 72 be
       -0.23651761

branch_h.fc2.weight f4 [9, 9]
000000 7b 04 40 be b6 22 79 3e c3 d9 80 bd bc c9 05 3e
       -0.18751709 0.24329647 -0.06291535 0.13065237
000010 ab e2 c3 bd da e1 92 be 6d 2f a4 3e 98 f8 87 be
       -0.09564718 -0.28687936 0.32067433 -0.2655685
000020 9a 37 10 3d 21 99 b9 bd 75 ee c3 3d 06 90 be bd
       0.035209276 -0.0906241 0.095669664 -0.09304814
000030 e6 52 6a be c9 34 8e be d4 17 50 be 5a 9d 98 be
       -0.22883186 -0.27774647 -0.2032159 -0.2980755
000040 c2 7e 6a 3e a2 a5 ec 3d 0e 9c 6a be 97 74 94 bd
       0.22899917 0.115550295 -0.22911093 -0.072488
000050 94 b2 66 be 6b ab 62 bb 0d 38 a7 be f6 e0 84 3e
       -0.2252906 -0.0034587036 -0.3265995 0.25952882
000060 3f 43 54 3e e2 c3 0a be 62 25 c7 3d 6f 91 a6 3e
       0.20728777 -0.13551286 0.09723927 0.32532832
000070 5f c5 15 bd 8a b0 08 be a0 01 ea bd 05 4a a1 be
       -0.03656518 -0.13348594 -0.11426091 -0.31501785
000080 9e 32 89 be 03 9a 8e be bd ec ba bd 23 20 01 3d
       -0.2679643 -0.27851877 -0.091271855 0.03152479
000090 74 b0 7e be d9 8f 28 be 03 74 66 be bf b4 ec 3c
       -0.24871999 -0.16461124 -0.22505192 0.02889478
0000a0 19 b1 e1 ba 27 a3 7f be f1 b4 80 be 18 44 54 3d
       -0.0017218917 -0.24964581 -0.25138047 0.05182275
0000b0 c5 06 78 3e 6a 58 8e 3e 62 d1 85 3e b0 82 04 bd
       0.24221332 0.2780183 0.2613631 -0.032351196
0000c0 e7 32 43 3d 80 f7 24 3e f5 27 c0 bd 51 d0 7b 3d
       0.047655966 0.16110039 -0.09382621 0.061477963
0000d0 1a 70 39 be bd 27 3d 3c db ba 0f bc 1d 0b 15 bd
       -0.1810917 0.011545119 -0.008772577 -0.03638755
0000e0 f7 f0 3a be f8 c3 51 3e 78 42 97 bd c5 fd a8 be
       -0.18255983 0.20484912 -0.07385725 -0.3300611
0000f0 e9 f4 27 3e e7 4a 87 be d0 fe d5 bd 1b 0c 4f be
       0.1640202 -0.26424333 -0.10448992 -0.20219462
000100 0c a0 53 be 9d 3e 8a 3c 13 d1 8c be 35 97 8b be
       -0.20666522 0.01687556 -0.2750326 -0.272638
000110 bb b0 91 3e 22 28 f8 3d a0 e5 2e 3d 84 f5 d9 bd
       0.28455147 0.1211703 0.042699456 -0.106425315
000120 e6 f6 65 be cd e7 fc bd 4f 5a 90 3d ce 0e 83 bd
       -0.22457466 -0.123489 0.07048475 -0.06399308
000130 c9 2a 7f 3e e5 6a 0f 3e 76 85 81 3e c1 b6 dc bc
       0.24918665 0.14005621 0.25297135 -0.026942613
000140 33 5e 35 3e
       0.17711715

branch_h.fc2.bias f4 [9]
000000 57 2c e1 3d 4b f4 81 3e 4a 20 76 be 22 59 d7 bc
       0.10994785 0.25381693 -0.24035755 -0.026287619
000010 2d 46 11 3e 49 48 23 3d 18 9b 88 be a2 d8 89 3d
       0.14186926 0.03986386 -0.26680827 0.067307726
000020 47 96 fb bd
       -0.122845225

self_attention_players.query_projection.weight f4 [18, 18]
000000 26 7b 65 be 24 02 14 be 5e a6 31 be 1f 6d 36 be
       -0.22410259 -0.14453942 -0.1734862 -0.17815064
000010 ac 1b 62 bc f2 50 48 3c f8 7f 10 be f4 7d fc 3d
       -0.013800543 0.01222633 -0.14111316 0.12328711
000020 74 be 8e 3d b5 09 7d 3c 0d ee 60 be 2d 8f bb bd
       0.0696992 0.015444209 -0.21965809 -0.09158168
000030 03 f6 07 3e 33 59 cd 3d 3d d5 34 bc 12 bb ab 3d
       0.1327744 0.10026779 -0.011037168 0.0838529
000040 ba 3b 0d 3e d1 3d 5f be 74 26 ff bc e0 2e 6f 3c
       0.13792315 -0.21800925 -0.031146266 0.014598578
000050 ff 8e ec 3d b7 4a 4a 3e fd a1 04 bd 3b 3d 2c 3b
       0.11550712 0.19755064 -0.032381047 0.0026281613
000060 59 d8 ae bd 98 69 39 3e 8c d5 09 be 64 84 40 3d
       -0.08537359 0.18106687 -0.13460368 0.047001258
000070 89 1a ef 3d 12 9e 59 3e b3 bd 54 3e 63 e8 68 3c
       0.11674983 0.21251705 0.2077549 0.014215562
000080 43 1b 91 bc ef 59 14 be 79 77 a2 bb 9f ee 06 be
       -0.017713195 -0.14487432 -0.00495809 -0.13176964
000090 13 d9 05 3e c9 71 14 3d 82 21 36 be f4 ce b4 3b
       0.13071088 0.036241326 -0.1778622 0.005517835
0000a0 3a 6f 33 be d8 33 49 be 38 d4 18 3e 80 a0 00 be
       -0.17522898 -0.19648683 0.14924705 -0.12561226
0000b0 49 19 6e be d1 0a c6 3d 80 dd a4 bd a5 69 02 bd
       -0.23251833 0.09670032 -0.0805006 -0.03183903
0000c0 eb 49 4e bd 9c 53 ab bb 8c 38 dc bd c0 18 57 be
       -0.050363462 -0.005228473 -0.10752973 -0.21005535
0000d0 c7 23 56 3e 22 49 0f bb 59 22 41 3e fe e2 1a be
       0.20912085 -0.002186366 0.18860759 -0.15125653
0000e0 2d f8 4e be dc bb 60 bd c1 ed 65 3e 70 5a b9 bd
       -0.20211859 -0.054866657 0.22453977 -0.09050453
0000f0 85 83 04 be 5b 65 5d be 55 b6 bb 3d d4 84 fd 3d
       -0.12940796 -0.21620695 0.091656365 0.123788506
000100 6a cf 68 3e 90 cc bb 3d 1d 14 5e 3e b9 53 21 3d
       0.22735372 0.091698766 0.2168736 0.039386485
000110 38 9e 5d be df cd 0b 3e 6c 5b 67 be c9 22 34 3e
       -0.21642387 0.13652752 -0.22593468 0.17591394
000120 76 02 3c bd e7 40 c0 bd 0b b0 65 3d 84 b6 6a 3e
       -0.045900784 -0.09387379 0.05607609 0.22921187
000130 c0 0d 26 be e5 7a bd 3c 3a c9 4c bc c9 a0 24 be
       -0.16216183 0.02312989 -0.012499148 -0.1607696
000140 6a 22 5d be 96 5d f5 3c cd 9d 4a be f8 9f b4 bd
       -0.21595159 0.029951852 -0.19786759 -0.08819574
000150 78 ed b4 bd 89 18 50 bc a8 71 6a 3e a5 5a 15 3e
       -0.08834356 -0.012701162 0.22894919 0.1458536
000160 54 53 73 be 80 aa c0 3c f2 8a 02 3c 73 f0 16 3d
       -0.23762256 0.0235188 0.007967697 0.036850404
000170 b3 70 3e bd 56 78 9d 3d a5 42 94 bd e3 45 9c 3d
       -0.046494197 0.07688968 -0.07239274 0.07630517
000180 01 39 66 3e 20 22 bc bd 6f 22 81 3d 7e ae 08 be
       0.22482683 -0.09186196 0.06305396 -0.13347813
000190 df b9 f6 bd a7 47 6e 3e 0e 6e 07 3e 3d d6 90 3d
       -0.12047171 0.2326952 0.13225576 0.07072113
0001a0 ae 8a 37 3e 63 a7 60 be 4b 02 68 be f9 5b a7 bd
       0.17923996 -0.21938853 -0.22657125 -0.08171839
0001b0 11 3e 7e 3b 1f a6 a5 3c 80 2f 8e 3d 18 55 09 3e
       0.0038794319 0.020220814 0.06942654 0.13411367
0001c0 96 5c 5c bd e4 ce a3 bd b6 7d 1a 3d ab 81 ad bd
       -0.053799234 -0.07998446 0.037717544 -0.08471998
0001d0 b9 5e 23 3e d7 69 22 be 8b bb c6 3d 81 f6 12 3d
       0.15954103 -0.15860687 0.0970374 0.035879616
0001e0 48 8d 51 3e d4 67 27 3e 04 00 5e 3e 52 33 b6 3d
       0.20464051 0.16348201 0.21679693 0.08896507
0001f0 8b 12 18 be bd 52 93 3d 64 86 01 3e cd fe 50 3e
       -0.14850824 0.071935154 0.12648922 0.20409699
000200 f6 b1 46 3d 49 0b 2a 3d b6 3c 0b be ff 8b 21 3d
       0.04850956 0.04151467 -0.13597378 0.03944015
000210 33 17 10 3e 3c 99 65 3e c7 5f a6 3d 75 07 48 be
       0.1407135 0.22421736 0.08123737 -0.19534095
000220 51 06 3f bc 37 5e 1e be 55 00 6c bd 2e 47 37 3e
       -0.011659221 -0.15465628 -0.057617504 0.17898247
000230 ee f5 19 be f2 91 2c 3c 9e 54 e2 bc b5 e1 90 bd
       -0.15035221 0.010532843 -0.02762824 -0.070743
000240 16 2f b5 bd 58 49 13 3e 6c a5 43 3c 09 cd c5 3d
       -0.088468716 0.14383447 0.011941295 0.09658248
000250 55 30 8a 3d bb 6b 9b bd 18 fc 2b bd dd c8 51 3e
       0.067475 -0.07588907 -0.041988462 0.2048678
000260 b3 49 1b 3e b0 db 2d 3e 92 c2 70 3e b5 48 a1 bd
       0.15164833 0.16978335 0.23511723 -0.07875196
000270 11 73 80 3d 79 e6 3b 3e fa 5d 68 be 73 0f 3f bd
       0.06271947 0.18349637 -0.22692099 -0.046645593
000280 18 a2 56 bd 56 1d 29 3e b5 a0 04 3e a1 00 66 be
       -0.05240068 0.16515097 0.1295193 -0.22461177
000290 61 2e ee bd c8 7b 28 be 64 d8 51 3e 3e 19 3d 3e
       -0.1162994 -0.16453469 0.20492703 0.1846666
0002a0 e8 c2 2e 3e 99 73 ca b9 5e ce 3a 3e bc f2 07 be
       0.17066538 -0.0003861457 0.18242785 -0.1327619
0002b0 ed bf da bd 61 ba de 3c 63 2a 32 bd 4c 3f 44 3e
       -0.10681138 0.027188482 -0.043497454 0.19164771
0002c0 44 3c 9e 3c 49 48 68 bd 45 af 2d be 63 44 22 bd
       0.019315846 -0.05670956 -0.16961391 -0.039616
0002d0 17 ed e5 bd ba 67 db 3c a2 47 63 be 8d 2d d2 3d
       -0.11226862 0.02678286 -0.22195294 0.10262594
0002e0 66 e5 3f 3e 52 16 2c bd c2 90 61 3e ab 74 fb bd
       0.18739852 -0.042013474 0.22027877 -0.12278112
0002f0 37 1b 0a 3d 05 7c 09 3e 8d 1f 50 3e 5e 01 9b 3d
       0.03371736 0.13426216 0.20324536 0.0756862
000300 1c 6f 80 bc 73 7f 51 3c 77 8e 0f 3c 2b f8 f8 3d
       -0.015677981 0.012786734 0.008761994 0.12156709
000310 81 2d 71 3e 0d 25 0b bd fe ae b7 ba 6d b7 ae bd
       0.23552515 -0.03397088 -0.0014013944 -0.085310794
000320 91 17 57 be 5c d9 af bd 2d e1 28 bd f8 44 6b 3e
       -0.21005084 -0.0858638 -0.04123037 0.22975528
000330 27 5a f8 bd 45 37 05 bc ae 28 01 be 35 54 e6 bd
       -0.1212657 -0.008130853 -0.12613174 -0.1124653
000340 69 04 00 3e 33 90 c3 3c d7 a0 0c bc 21 cb 04 be
       0.12501682 0.02387247 -0.008583269 -0.12968113
000350 3a 04 6c be 59 44 d6 3c fa 67 bf 3d 67 5e 84 3d
       -0.23048487 0.026155638 0.09346004 0.06463318
000360 81 71 44 be 59 47 82 3d 4d e5 39 be 5b 39 08 3d
       -0.19183923 0.06361265 -0.18153878 0.033257823
000370 3b cd b1 3d 85 ee 7f bd 14 39 78 bd 66 1a fe 3d
       0.08681723 -0.06248333 -0.06060131 0.12407379
000380 aa 65 ac bc 4d 18 1e be 06 68 58 be ef d6 4f 3e
       -0.021044571 -0.15438958 -0.21133432 0.20296834
000390 96 15 16 3e b9 0c 0c be a1 1d 06 be 73 62 6e 3e
       0.14656672 -0.13676728 -0.1309724 0.23279743
0003a0 57 e9 53 3d 78 8d db b9 78 82 89 3d 52 c3 63 3d
       0.051736202 -0.00041876337 0.06714338 0.055606194
0003b0 55 15 44 bd f6 be 0a be a1 22 65 3e f7 93 27 be
       -0.047871906 -0.13549408 0.22376491 -0.16365038
0003c0 5b 95 57 3e 5c 33 44 be b1 26 6a be e8 b6 e5 3d
       0.21053068 -0.19160217 -0.22866322 0.11216527
0003d0 4e 50 fc bd 48 bf 17 be 27 11 11 b8 ac 50 41 3d
       -0.123200044 -0.14819062 -3.458667e-05 0.047196075
0003e0 0e 2a 2f be 0a 11 25 be eb 22 21 3e 02 38 6c 3c
       -0.17105886 -0.16119781 0.15735976 0.01441765
0003f0 90 67 1a 3d 10 8c b1 3c 36 c1 d1 3d 4a 1a f4 bd
       0.03769642 0.021673232 0.1024193 -0.11919077

self_attention_players.query_projection.bias f4 [18]
000000 1d 94 24 be 2b d0 35 be 50 99 a9 bc 21 3a 3d bc
       -0.16072126 -0.17755191 -0.020702988 -0.011549504
000010 15 4c 12 be d0 e4 c4 bd 4a 34 9c bd 3f 38 3d 3d
       -0.14286835 -0.09613955 -0.07627161 0.04619622
000020 15 02 9a bd 44 c1 12 be 6b d0 19 3d 98 4c 12 3e
       -0.07519928 -0.14331537 0.03755228 0.1428703
000030 8e 19 e1 3d 7b 81 ca bd 32 13 a0 bc 47 f8 02 3e
       0.10991202 -0.09887978 -0.019540403 0.12790023
000040 9d dd 78 bd 21 e8 a4 ba
       -0.060758222 -0.0012581387

self_attention_players.key_projection.weight f4 [18, 18]
000000 f9 8e 12 be b5 a1 53 3e 30 c8 71 3e 2a e6 c1 3d
       -0.14312352 0.20667155 0.23611522 0.094677284
000010 1d 31 f3 bd 87 eb 17 bc 42 3b b1 3d f9 b7 e4 bd
       -0.11874602 -0.009272463 0.08653881 -0.111679025
000020 16 72 06 bd 5b 05 bd bc 2a a2 4a 3e 70 c8 e5 3d
       -0.032823645 -0.023073843 0.19788423 0.11219871
000030 51 17 61 3e 60 e4 c1 bc 53 8d 80 3b 74 65 98 bd
       0.21981551 -0.023668468 0.003923097 -0.07441226
000040 e1 3f 1d be 9a b2 18 3d 59 96 bd 3d 1d ca 31 3e
       -0.15356399 0.037279703 0.09257192 0.17362256
000050 dd 5a 00 bd 2e 86 36 be df b0 34 bc 33 2e 3b be
       -0.031336654 -0.17824623 -0.0110284975 -0.18279342
000060 a7 1c 5d be 6e 42 59 be 24 07 46 bd a4 54 4e bd
       -0.21592961 -0.21216747 -0.048346654 -0.05037369
000070 40 bb e5 3d bc 95 53 bc 96 7a 2c be 8f bc 62 3e
       0.11217356 -0.012914117 -0.16843638 0.22142242
000080 b3 68 27 3d 0b 00 18 be 19 d3 20 3a e1 ab f8 bc
       0.040871333 -0.14843766 0.00061349716 -0.030355396
000090 e5 77 5a be fb 8d 89 3d a2 01 01 be 02 72 20 be
       -0.21334799 0.06716534 -0.12598279 -0.1566849
0000a0 5f d7 e3 bd f1 37 d8 3d c8 34 61 be 54 f1 e6 3d
       -0.11125063 0.10557545 -0.2199279 0.112764984
0000b0 7e 14 a0 bc be 02 aa bb ed b0 04 be 3d 21 48 be
       -0.019541021 -0.005188315 -0.12958117 -0.1954393
0000c0 6e 39 ae 3d 85 4d 37 be c3 2d d7 3d e1 f6 73 bd
       0.085070476 -0.17900665 0.10506775 -0.059561614
0000d0 6d 86 14 be ea 1a 5b bc c4 fe 53 bc 0f a0 11 3e
       -0.14504404 -0.013373116 -0.012939159 0.14221214
0000e0 55 7b 34 be 87 f1 2f be d1 17 1b 3d 03 8e 11 3e
       -0.17625172 -0.17181979 0.03786451 0.1421433
0000f0 ab 06 21 3e 35 f9 96 3d 7a 21 c5 bd 27 4e 2a 3e
       0.157252 0.07371751 -0.09625526 0.16631375
000100 7e b6 b7 bd 73 56 d2 3d 01 83 41 3e e3 cd 4c be
       -0.089703545 0.10270395 0.1889763 -0.20000415
000110 f7 87 27 bd e1 87 fd 3b 9e 43 fd 3d 4b e4 01 be
       -0.04090115 0.0077371453 0.123664126 -0.12684743
000120 29 f7 84 3d e7 c1 d5 bc f6 a8 15 be c7 2e cd 3d
       0.064924546 -0.026093436 -0.14615235 0.10018688
000130 0e 1b 14 be 4e 27 70 be 58 57 41 3d 9f 47 4a 3e
       -0.14463446 -0.23452494 0.047202438 0.19753884
000140 4c 7a ff bd b0 99 34 bd 45 72 70 bd ad 0a 52 be
       -0.12474498 -0.04409188 -0.058702726 -0.20511885
000150 3c a4 4d bc b5 78 60 3e b5 b5 8e bc 99 b3 94 3d
       -0.012551364 0.21921046 -0.017420629 0.07260818
000160 7a 16 1a be d2 5b 6e 3d 84 13 c3 3d 2e 39 44 be
       -0.15047637 0.058193035 0.09525207 -0.19162437
000170 93 b6 1f 3c 5e 52 4a 3e c0 24 ab bd f6 2f c4 bc
       0.009748119 0.19757983 -0.08356619 -0.02394865
000180 c5 3f ce bc 81 0d 00 bd 4b 6f 11 3e 66 f5 36 bd
       -0.025176892 -0.03126288 0.14202611 -0.044667624
000190 2a 22 45 be e8 80 7b bc 87 77 ca bd 08 6f b3 3d
       -0.19251314 -0.015350558 -0.09886079 0.08761412
0001a0 aa 57 db bd 9b b4 a6 bd 27 ea a7 bd e9 e1 af bd
       -0.1071008 -0.081399165 -0.08198958 -0.08588011
0001b0 90 d2 fd 3c f4 d8 bc bd 87 8e 21 3e 57 c7 17 3e
       0.030984193 -0.09221068 0.15777026 0.14822136
0001c0 86 f4 2d bd d8 5f 63 3e 76 d6 7d bd fc a0 01 be
       -0.042469524 0.2220453 -0.061972104 -0.12659067
0001d0 56 68 38 bd 0c a7 f6 bd 4c 92 0f 3e 3d 22 1d 3e
       -0.045021378 -0.120435804 0.14020652 0.15345092
0001e0 54 d6 16 be 03 f0 5f 3e d3 0d 6c bd 73 e7 ae 3b
       -0.14730197 0.21868901 -0.05763037 0.0053376495
0001f0 ef 59 91 bd bc 31 30 be ca a5 41 3d 09 5f 52 be
       -0.070972316 -0.17206472 0.04727725 -0.20544066
000200 24 ab 41 be fb c6 75 be 55 fe 41 3e 16 80 0d bd
       -0.18912941 -0.24001686 0.18944676 -0.03454598
000210 6d 5f 03 be 08 14 49 3e 06 ea 98 3d f9 b7 10 3c
       -0.12829371 0.19636548 0.074665114 0.008832925
000220 5b f0 ad 3d 14 31 62 3d c7 0a 6c 3d c6 4c 65 be
       0.0849311 0.055222586 0.057627466 -0.22392568
000230 26 21 12 be bf c9 e7 3d a3 47 c5 3c 2f dd 5f 3e
       -0.14270458 0.11317777 0.02408201 0.21861719
000240 15 42 53 3e 6a e9 19 be 41 f0 a0 bc 75 8c 66 3d
       0.20630677 -0.15030447 -0.019645812 0.056286294
000250 1b ec 34 3e 57 cc f1 3d 13 1e 58 3e 04 78 34 be
       0.17668192 0.11806553 0.21105222 -0.17623907
000260 08 8b 16 be 6f 74 10 be 44 66 d6 bd eb af 1c be
       -0.14701474 -0.14106916 -0.10468724 -0.15301482
000270 6d 27 98 3d f6 ae af 3d 0a a3 8b 3d ab a6 34 be
       0.07429395 0.08578293 0.068182066 -0.17641704
000280 b4 6c 43 be 25 30 80 bb 7d 9e 55 3d 5a 35 bf bd
       -0.19084436 -0.0039119893 0.0521531 -0.09336348
000290 43 7f 0e 3e 0e 4c 29 3e 0c 7b 70 3e 5c 69 03 be
       0.13915734 0.16532919 0.23484439 -0.1283316
0002a0 16 18 66 bd 96 0e 3f 3e 7d c4 01 3e 15 74 03 3d
       -0.056175314 0.18657908 0.1267261 0.032093126
0002b0 ae 2c 6a 3e 39 e3 dd 3d 4f 82 8f 3d 46 c9 fc bd
       0.22868606 0.10834355 0.07007276 -0.12343077
0002c0 54 07 50 3e 66 a1 88 3b e4 c8 05 bd 1a 22 ee 3d
       0.20315295 0.004169631 -0.032662287 0.11627598
0002d0 be d9 6a be 2c 63 50 3e 71 da c7 3d c3 49 4f 3c
       -0.22934625 0.20350331 0.09758461 0.0126518635
0002e0 49 c0 01 3e ed f9 f8 bc 1c 7b e2 3c b5 dd 4d 3e
       0.12671007 -0.030392611 0.027646594 0.20104106
0002f0 56 d5 1a be 0c cf 5f be 32 26 28 3d 8e 0a 68 bd
       -0.15120444 -0.21856326 0.04105205 -0.05665069
000300 c9 a2 ad bd 78 c5 95 bd 8b 41 d2 3d db c6 25 3e
       -0.084783144 -0.07313055 0.102664076 0.16189139
000310 01 c2 b1 bd 6a f5 0d 3e c5 c5 17 be 52 42 58 be
       -0.086795814 0.1386315 -0.14821537 -0.21119049
000320 5c ce 20 3d 36 f7 1f bd 64 53 65 3e 78 00 6a be
       0.0392593 -0.039054118 0.22395092 -0.22851741
000330 00 5b 4b bc 7c bb 06 be bd de 5c 3e 10 99 68 3e
       -0.012411833 -0.13157457 0.21569343 0.22714639
000340 1e c0 95 3d 8e 9c 28 be 6f 08 47 3e 4c 10 5a 3e
       0.07312034 -0.16465971 0.19436811 0.2129528
000350 40 e3 bb bd 0d 56 6d 3e d6 25 5c 3e dc b9 d2 3d
       -0.09174204 0.23177357 0.21498808 0.10289356
000360 4a 7d 44 3e 81 0f f2 3d e8 ed 7b 3d 6b 72 ba bd
       0.19188419 0.118193634 0.061506182 -0.09103855
000370 96 7c d4 bc b7 2e 16 bd 6e c1 87 3c 51 28 f9 3d
       -0.025938313 -0.036665644 0.016571727 0.12165893
000380 e0 09 5c 3e 78 18 28 be dd af ae 3c 5f 3a 46 be
       0.21488142 -0.16415584 0.021324093 -0.19358204
000390 75 0e 32 be e0 89 d8 3d 4d 17 59 be 52 b0 ff bc
       -0.17388327 0.105731726 -0.21200295 -0.031212006
0003a0 19 9a 37 be f6 b5 0e be ee dd 6e 3e 66 c3 14 3e
       -0.17929877 -0.139366 0.23326847 0.14527664
0003b0 d1 63 8d 3d 21 00 a5 bd 05 f3 61 be af c3 e4 bc
       0.06903804 -0.08056665 -0.22065361 -0.02792534
0003c0 c7 c6 b9 bd 1b 70 6b 3e 16 1a 5d 3e b3 8a d3 bc
       -0.09071117 0.22991984 0.21591982 -0.025822973
0003d0 0d c7 42 be 42 89 9c 3c 84 d2 63 3d 9a 44 28 be
       -0.19021244 0.019108418 0.055620685 -0.1643242
0003e0 79 80 55 bd 0c ed 38 3e 04 d3 ff bd 8c d9 57 be
       -0.052124474 0.18059176 -0.1249142 -0.21079081
0003f0 db dd 54 3e 48 3b 98 3d 42 ce 5a 3e 12 58 2a bd
       0.20787756 0.07433182 0.21367744 -0.041587897

self_attention_players.key_projection.bias f4 [18]
000000 fb 21 5e be 31 36 86 bd 9a 5e 4c 3e df 99 e0 3d
       -0.2169265 -0.06553305 0.19957963 0.109668486
000010 56 45 1a 3e fc 59 69 3d 62 6f 9f 3d 09 81 19 be
       0.15065512 0.05697058 0.077849165 -0.1499063
000020 af 1a 3b bd cd 83 29 3d ad 3b d2 3d 70 11 0d 3d
       -0.045679744 0.04138546 0.102652885 0.034440458
000030 9a 9f e4 bd 10 6a 16 be 19 bb 21 be 40 3c 27 be
       -0.11163254 -0.14688897 -0.15794028 -0.16331577
000040 a9 27 67 3e 26 4e 5b bc
       0.22573723 -0.013385331

self_attention_players.value_projection.weight f4 [18, 18]
000000 41 77 e6 bd 12 95 1d be 3c 26 4a 3e 16 9c 2a bd
       -0.11253215 -0.15388897 0.19741148 -0.04165276
000010 29 cb 4e be ce 06 1e 3e 8d 25 1e be 9f 99 01 be
       -0.20194687 0.15432283 -0.15444012 -0.12656258
000020 6f fb de 3d 52 b6 08 3e 77 44 16 3e a4 47 2a be
       0.10887801 0.133508 0.14674555 -0.16628891
000030 1b aa 04 3e ca 6c 46 3e d6 69 bb 3d 2f 2b 47 3e
       0.12955515 0.19377437 0.09151046 0.19450067
000040 5b 66 3f bd 7a 97 17 3d a9 e8 51 3e e6 57 42 3d
       -0.046728473 0.037009694 0.20498909 0.047447108
000050 7f fa ff 3d 53 80 24 bd 64 d6 69 3e a3 33 d5 3d
       0.1249895 -0.040161442 0.2283569 0.104102395
000060 82 a4 8b 3b d4 12 fe bd d3 ea fe 3c 1f 6e 0b bd
       0.004261554 -0.12405935 0.031117832 -0.034040567
000070 20 d5 b3 bd 5f 24 e8 3d 0c b5 94 bd a4 28 31 be
       -0.08780885 0.11335062 -0.072610945 -0.1730066
000080 76 40 96 bd 59 4e 2b 3e a1 bf 88 3b e5 63 4d 3d
       -0.07336514 0.16729106 0.0041732346 0.050144095
000090 e2 6f 0d be 2c ac d6 3d 08 55 1c 3d 5a 46 44 be
       -0.13812211 0.10482058 0.03816703 -0.19167462
0000a0 a8 38 36 3e 9b 7e 83 bd b6 90 d6 bc 7a 8e 23 3d
       0.1779505 -0.064206325 -0.02619205 0.039930798
0000b0 d8 02 6a be b0 9e 68 3e c1 a6 51 3d 00 f0 d3 3d
       -0.22852647 0.22716784 0.05118442 0.10348511
0000c0 a0 3f 6a 3e 6a 82 1b be 45 01 d8 bd c1 ba 5d 3e
       0.22875834 -0.15186468 -0.10547117 0.21653272
0000d0 87 b2 06 bd 4e 01 50 be 4a b7 d9 bd ec 9f a1 bd
       -0.0328851 -0.20312998 -0.10630663 -0.07891831
0000e0 4d e0 0c be 92 08 16 3d 2c 06 74 3e 24 7a 43 3e
       -0.13757439 0.036629267 0.2383048 0.19089562
0000f0 42 b7 61 be 69 fc 2c 3e 7d 6a c6 bd 58 29 2e be
       -0.22042564 0.16893162 -0.0968828 -0.17007959
000100 51 a9 db bd 59 0d 5b be 73 cf f7 3d a6 8f 5f be
       -0.10725654 -0.2139181 0.12100115 -0.21832141
000110 7e 5b 41 be 29 9d e2 bd b0 d0 a4 3c 5f cf 21 be
       -0.18882558 -0.11065132 0.020119041 -0.15801762
000120 8d 38 30 bd 1a 49 75 bc f4 13 cf 3c de 69 b9 bd
       -0.04302268 -0.014971042 0.02527807 -0.09053396
000130 ec f0 44 be 0f 93 64 bd 9e f2 08 be 5b 76 22 3c
       -0.1923253 -0.05580431 -0.13373801 0.009915913
000140 49 43 1c 3d ad d2 63 3e 31 4f 2c be e8 25 07 be
       0.038150106 0.22248335 -0.16827084 -0.13198054
000150 b1 69 5f 3e 5b 3f 65 3e 84 ae 52 be 87 fb 20 3e
       0.21817662 0.2238745 -0.20574385 0.1572095
000160 d6 bf 29 bd b8 38 4c 3e f7 b7 b1 bd af 32 59 3e
       -0.041442715 0.19943511 -0.08677667 0.2121074
000170 28 c7 07 3e c5 cc 4d be 31 ff 27 3e 32 3b 17 be
       0.13259566 -0.20097645 0.16405942 -0.14768675
000180 57 42 7b bd 92 e5 7d 3d 59 aa 80 3d 9e 36 5f be
       -0.061342563 0.061986513 0.06282491 -0.21798179
000190 18 67 d1 bd 62 d2 48 3e 4a d4 4c 3e 92 38 a9 bb
       -0.10224742 0.19611505 0.20002857 -0.0051642144
0001a0 bc 91 1d 3e 54 dd 46 bd 36 a7 30 bd b5 40 24 bd
       0.15387625 -0.04855092 -0.043128215 -0.040100772
0001b0 3e ce 9f bd 2c fa 98 3d 65 7f 37 be d9 47 17 be
       -0.078030095 0.074695915 -0.17919691 -0.14773501
0001c0 40 9f 04 bd 25 04 f9 3a 6a 97 51 3e 0d 28 05 3d
       -0.032378435 0.0018998428 0.20467916 0.0325089
0001d0 af 1a d9 bc 87 2c cc 3d 0e e3 e4 3d 34 ad 3c 3e
       -0.026501982 0.099694304 0.1117612 0.18425447
0001e0 f2 3d 60 3e 62 a5 24 3e 85 ed b9 3b 90 ba 99 bb
       0.2189863 0.16078714 0.0056740665 -0.0046914294
0001f0 4e 76 5f 3e f4 1f 45 be f9 cb 44 3e c4 ae 72 be
       0.21822473 -0.1925047 0.19218434 -0.2369948
000200 29 f0 1c 3e 0b 09 3a 3e e2 21 cd 3b 0b 3a 0d 3e
       0.15325989 0.18167512 0.0062601427 0.13791673
000210 49 87 40 be 49 b6 27 3e 6e a2 4f 3e e8 a7 f7 3c
       -0.18801607 0.1637813 0.20276806 0.030231431
000220 0a 28 86 3d bc 35 e3 bd 6f ee 4b be e7 c3 0e 3c
       0.065506056 -0.110942334 -0.19915174 0.008713699
000230 34 b5 0a 3e 9f 96 ed bc 12 ec 3f 3e 67 ee dd 3d
       0.13545686 -0.029002486 0.18742397 0.10836487
000240 e0 b8 c6 3c ab ed 64 be b9 94 18 be 35 56 e9 bd
       0.024258077 -0.22356288 -0.14900483 -0.11393396
000250 a2 2d 4b be 9f 3d 53 be 7f f2 a9 bd 69 9e 0d be
       -0.19841626 -0.20628975 -0.082982056 -0.1382996
000260 04 f1 64 be c4 74 38 3c 9f a8 3f be 1a 1d 3a be
       -0.22357565 0.011258308 -0.18716668 -0.18175164
000270 7a 2e 83 3b 00 40 17 be 8b 6e 2c bd f5 d6 44 3e
       0.004003343 -0.14770508 -0.04209761 0.19222625
000280 99 5c c3 3d 6e 13 30 3b f1 b6 ff 3d 9b d5 1c be
       0.09539146 0.002686705 0.12486065 -0.15315859
000290 35 1d d5 3d c7 a1 4a 3e 00 d2 47 3e 9f 82 07 be
       0.104059614 0.19788276 0.19513702 -0.13233422
0002a0 04 ea 2b be ff 4c 9e bd cf 43 48 bd da 02 38 3e
       -0.16788489 -0.077295296 -0.048892792 0.17969838
0002b0 ce 89 3c bd ae 42 63 3c 01 83 9e bd b7 6e 4a 3e
       -0.04602986 0.013870878 -0.07739831 0.19768797
0002c0 49 20 a9 3d 07 e0 8f 3c 8c 1c e0 3c 73 8a 79 3c
       0.08258111 0.01756288 0.027357362 0.015230763
0002d0 5d 17 52 be 01 09 60 bc c2 21 f9 3b fa 07 13 3e
       -0.20516725 -0.013674022 0.007602901 0.14358512
0002e0 4e bd 99 3d a6 6b 45 bd 4a 2f c8 3d 14 d1 40 bd
       0.0750681 -0.048198365 0.09774645 -0.047074392
0002f0 6f 7a 6c 3e 62 e7 36 3e bc ca 92 3d 23 73 6a bd
       0.2309358 0.17861703 0.07167575 -0.05723871
000300 2e 94 0e 3e ab 8c 24 3e 14 ce eb 3d bc 4d 75 bd
       0.13923714 0.16069286 0.11513916 -0.059888586
000310 fb 36 99 bd a4 30 b3 3d 85 90 3f be 53 b3 41 be
       -0.0748119 0.08749512 -0.18707474 -0.18916063
000320 c8 e7 23 bd 51 ce 0c 3e 87 00 2d 3e ed 52 91 3d
       -0.040015966 0.13750578 0.16894732 0.07095895
000330 c9 8c 2f 3e 88 b4 b4 3d d6 51 ac bd 1b f4 54 3d
       0.17143549 0.08823496 -0.084140465 0.05199061
000340 82 01 94 bd 39 5c 24 3e 36 9d 00 3d 5d da 29 3e
       -0.0722685 0.16050805 0.031399928 0.16587205
000350 25 50 34 bd 90 c1 23 3e a8 ea ea bd eb 70 3a 3e
       -0.044021744 0.15991807 -0.114705384 0.18207137
000360 ac 8c d1 bb ec 1b 40 be 51 38 3a 3e 03 61 75 3b
       -0.006394943 -0.18760651 0.18185546 0.0037441857
000370 1f 39 c7 3d 02 73 17 3e 93 2f 97 bd 73 c1 48 3e
       0.09727692 0.14789966 -0.07382121 0.19605045
000380 7c 44 67 bb 84 75 0f be 27 1f cb 3d 5c c8 aa bd
       -0.0035288623 -0.14009672 0.09918051 -0.08338997
000390 2a 37 5e be 2c 9d 72 bd 93 83 4d 3e 56 c4 54 be
       -0.21700731 -0.059231922 0.20069723 -0.20778021
0003a0 fa 1b 72 be 04 a2 a6 bc 0f 69 cf bd a0 e5 21 be
       -0.23643485 -0.020340927 -0.1012746 -0.15810251
0003b0 bb 7e 5a be fd a6 2d bc 3c b2 47 3b 46 f9 b3 3d
       -0.21337406 -0.010598895 0.0030471226 0.087877795
0003c0 6a 8f 36 be 89 64 4d 3e 02 c1 55 bd ca c2 4a 3e
       -0.17828146 0.20057882 -0.05218602 0.19800869
0003d0 17 80 4a 3e d4 fc 31 3e c9 eb 2d 3e 68 2e 50 be
       0.19775425 0.17381603 0.16984476 -0.20330203
0003e0 74 28 2c be 79 53 0e 3e b9 9d b9 3d 05 0c ae 3d
       -0.16812307 0.1389903 0.09063286 0.08498386
0003f0 12 07 93 3d b9 8c 9f bd 64 6a 60 bc ae a3 a0 bd
       0.07179083 -0.077905126 -0.0136972405 -0.078437194

self_attention_players.value_projection.bias f4 [18]
000000 66 7f 14 be f4 9f 2b 3d 03 fc 6a be 85 fc 4e 3c
       -0.14501724 0.04190059 -0.22947697 0.012633448
000010 3d 95 49 be 4d 12 2b be af 16 5e 3d b8 7b c0 bc
       -0.19685836 -0.167062 0.05422085 -0.023496494
000020 00 97 ae bd cb 3d 01 be 71 cb ad 3d 4f e1 9d 3d
       -0.08524895 -0.12621228 0.08486069 0.0770899
000030 93 1c 27 3e 06 2d 6c 3e 58 3b 47 3e 92 ce c1 3d
       0.16319494 0.2306405 0.19456232 0.09463228
000040 6c cb ad bd 4b 66 dc bd
       -0.08486065 -0.10761698

self_attention_players.output_projection.weight f4 [18, 18]
000000 06 89 11 3e f3 42 01 be 7b f2 81 bd 32 88 ca 3b
       0.14212427 -0.12623195 -0.063450776 0.0061807865
000010 4c f3 9b 3b 57 0d 10 3e 0f ab 34 be 2e 8f c4 bd
       0.004759228 0.14067589 -0.17643379 -0.09597622
000020 3e 95 0d be b2 84 19 3e dc 94 29 be ea 90 4a 3e
       -0.13826463 0.14992025 -0.16560692 0.19781843
000030 52 ab 01 3e 8e 39 74 3d 79 be 55 3e 37 57 5c be
       0.1266301 0.0596252 0.20873441 -0.21517645
000040 40 44 21 be 4b 74 72 3d ad 40 1c 3e 5b da cd bd
       -0.15748692 0.059192937 0.15259047 -0.100514136
000050 a7 3e 28 be 83 9b 1a 3e d5 5f 18 be 21 2e 05 be
       -0.1643015 0.15098386 -0.14880307 -0.13005878
000060 bc 62 bc 3d 7a 31 5a 3d 42 07 14 bc e0 3d c0 3d
       0.091985196 0.05326984 -0.0090349335 0.09386802
000070 5a 15 71 be a0 b4 2b 3e 36 a3 43 3e 36 d5 2c 3e
       -0.23543301 0.16768122 0.19105229 0.16878209
000080 79 bb c9 bd 7c 74 10 3e 88 cb fb 3d 07 cd 37 3e
       -0.09850211 0.14106935 0.1229468 0.17949305
000090 b4 9e bd 3d ed 79 6a 3e 00 2b ee bc 93 55 07 3e
       0.09258786 0.22898073 -0.029073238 0.13216238
0000a0 1e bc 78 3d ec 27 e8 bd 87 cd 05 3e 52 06 03 be
       0.060726278 -0.113357395 0.13066684 -0.1279538
0000b0 34 b1 4f 3e f2 b4 56 bd 58 72 00 3e dd 99 d8 3d
       0.20282441 -0.052418657 0.12543619 0.10576222
0000c0 29 68 ed bb d4 40 a7 3d ff 15 05 3e 02 41 13 3d
       -0.007245083 0.08166662 0.12996672 0.03595067
0000d0 af 73 c0 bc 14 2b 45 bd 2a c3 f7 bc d6 ee 0a 3e
       -0.023492662 -0.048136786 -0.030244429 0.13567671
0000e0 3f 34 28 3b 49 b3 bd 3d b5 17 1d 3e 0f 50 42 be
       0.0025665907 0.092627116 0.15341075 -0.18975852
0000f0 22 51 6f 3e b9 5f 22 be 60 9b c0 bb 2f cf aa 3d
       0.23370793 -0.15856828 -0.005877897 0.083402984
000100 d2 5f 56 3d e0 fb 0c be 3a 39 54 3e 4c 23 f3 3d
       0.052337475 -0.13767958 0.20724955 0.11871967
000110 0c 83 9a bd bb d9 55 3e 95 0d a5 3b 8a b0 69 3e
       -0.075445265 0.20883839 0.0050370195 0.2282125
000120 11 d5 1b be 3b 59 f9 3c 05 3e d3 3d 63 e6 ba 3d
       -0.15217997 0.030438056 0.10314564 0.09125974
000130 cb 6e 9a bd c6 ea 2f 3c a8 ec 36 3e 98 3d a5 3c
       -0.07540663 0.010737127 0.17863715 0.020170972
000140 46 3c 63 3e 9d 17 a2 bd 5e d3 0b 3e e0 dc 3b 3e
       0.22190961 -0.0791466 0.13654849 0.18345976
000150 ba c8 12 3e 16 c4 00 3e d2 f6 0f 3e 9d 0d 5a be
       0.14334384 0.12574801 0.14058998 -0.21294256
000160 29 fb 2f bd c3 ed 93 bd 04 ea ba 3d c0 d6 45 3e
       -0.042964134 -0.07223084 0.09126666 0.19320202
000170 f9 4b 41 3e 61 08 5b bd d7 a1 b8 bd d0 95 2b 3e
       0.18876638 -0.053474788 -0.090152435 0.16756368
000180 5a 5b 47 3e 77 9d 06 3e b8 8f 15 be 4e 6a be 3d
       0.19468442 0.13146006 -0.14605606 0.0929762
000190 b1 41 85 bc ab 83 a5 bd 03 65 d5 3c df ed bd bd
       -0.016266676 -0.08081754 0.026049143 -0.09273886
0001a0 c7 70 11 3e b9 14 a0 bd 9a 68 4a 3d 75 14 63 3e
       0.14203177 -0.078164525 0.049416162 0.22175772
0001b0 bd ac ce bd 79 28 59 3e 85 17 8c 3d 04 d6 49 3e
       -0.10091541 0.21206845 0.068404235 0.19710547
0001c0 c6 f7 05 3e 80 75 8a bc 7c 37 64 3d 90 b7 40 3e
       0.130828 -0.016901731 0.055716977 0.18820024
0001d0 cc 79 9b 3d 72 75 ca bd 6c 45 0a 3e 11 92 ba 3c
       0.0759159 -0.09885682 0.13503045 0.022774728
0001e0 83 af 1c be f4 b2 4f be f7 fe 3e 3d c5 04 1a 3e
       -0.15301327 -0.20283109 0.046629872 0.15040882
0001f0 b3 ca 40 be 78 99 5a 3e d0 d5 b9 bc 17 97 a7 3d
       -0.18827324 0.21347606 -0.022684962 0.08183115
000200 c2 25 f4 bb 8a 1e 3a be 38 e2 49 3c 4d 35 c9 3d
       -0.00745079 -0.18175712 0.012322001 0.098246194
000210 aa e4 5f be b6 45 a8 3c e7 72 01 be a1 85 0f be
       -0.21864572 0.020541053 -0.12641488 -0.14015819
000220 3c 70 d5 bd ac 67 66 bd 16 96 89 bd 22 51 32 be
       -0.10421798 -0.056251213 -0.0671808 -0.17413762
000230 f8 66 6b bc 42 5f 65 bd 95 b0 36 be 98 7b c2 3d
       -0.014367811 -0.055999048 -0.17840798 0.0949623
000240 8d e3 dd bb 31 a5 57 be 89 2d 24 3d 63 bb f3 3c
       -0.006771511 -0.2105911 0.04008249 0.029752439
000250 2a b7 2e 3e 46 79 03 be 77 95 3d be ae 6b 11 be
       0.17062059 -0.12839231 -0.18514048 -0.14201233
000260 a8 81 2e bc 67 a1 be 3d 59 5e 97 bc c9 7a 1b 3e
       -0.01065103 0.09308129 -0.018477606 0.15183558
000270 a4 07 5f 3e 13 a4 01 3e b5 50 37 be 08 d0 5b be
       0.21780258 0.12660246 -0.17901881 -0.21466076
000280 9a ba 82 bd 10 49 4e 3e 99 8e b2 3d ab 96 b7 bc
       -0.06383248 0.20145059 0.087186046 -0.022410711
000290 ef 75 21 be 49 36 29 3e c2 6c 24 be 11 bb 1c bd
       -0.15767644 0.16524614 -0.16057113 -0.038264338
0002a0 a9 59 4d be 0f 62 ab bd 1d 1e 71 3e a0 03 51 3e
       -0.20053734 -0.083683126 0.23546644 0.20411539
0002b0 04 2c f5 3d a8 e6 44 bd a5 c6 48 be 9d 0f 5c 3c
       0.11971286 -0.048071533 -0.19607027 0.013431457
0002c0 e1 be b5 bd 55 04 e9 bd 5e f1 0d bd f8 f8 0a be
       -0.08874298 -0.113777794 -0.034654014 -0.13571537
0002d0 7b cd 55 be 85 a3 33 be b5 72 45 be d7 de 0a 3d
       -0.20879166 -0.17542847 -0.19282039 0.033903923
0002e0 46 e2 0b 3e 67 86 56 bd 94 74 5c 3e df 0f 3e 3e
       0.13660535 -0.05237427 0.21528846 0.18560742
0002f0 b0 5e ff 3c 29 a8 47 3e 1c a2 03 3e 89 25 c5 3c
       0.03117308 0.19497742 0.12854809 0.02406575
000300 fe a4 4c 3e 7a 96 16 3d c5 55 c1 3d 27 79 da bd
       0.19984815 0.0367646 0.09440187 -0.10667639
000310 d7 62 39 3e 01 7a 23 3e cf 02 b6 3d 83 36 0e 3d
       0.1810411 0.1596451 0.088872544 0.034719955
000320 8f 8c 73 3c a1 40 55 3e c5 9f bb 3d c2 31 4d be
       0.014865055 0.20825435 0.09161333 -0.20038512
000330 00 a9 29 3e b0 9b 58 3e 44 fa d9 3d 93 9a 49 be
       0.16568375 0.2115314 0.106434375 -0.19687872
000340 0d 4f 4d 3e f9 2e d1 3d 37 2e 6f 3d b3 a9 42 be
       0.20049687 0.102140374 0.058393683 -0.19010048
000350 64 40 75 be f7 65 18 3e f1 ce 41 be ff 3e fb 3d
       -0.23950344 0.14882647 -0.18926598 0.12267875
000360 fe ee 6e be 19 00 12 be 8c cb 2d be a5 9f fb 3d
       -0.23333356 -0.1425785 -0.16972178 0.12286309
000370 2e 0a 7b bd 86 d4 02 3e 67 2f af 3d 22 2e 24 3e
       -0.061289005 0.12776384 0.08553963 0.16033223
000380 31 45 ba 3d 8a 9c 46 3e 43 52 11 be 80 f3 39 3e
       0.090952285 0.19395652 -0.14191537 0.18159294
000390 60 0b 59 be 6e b2 28 be 76 1f 45 be 6d 2f 18 3e
       -0.21195745 -0.16474316 -0.19250283 0.14861841
0003a0 a9 be a3 bd 1d 92 8e bc a4 39 d2 3c d0 63 f5 bd
       -0.0799535 -0.017403657 0.02566225 -0.11981928
0003b0 a7 86 e3 bc bc 55 40 bc a9 3f ac 3d 60 53 6e bd
       -0.027774168 -0.011739191 0.0841058 -0.05818498
0003c0 05 67 7c 3d 9d 5b 30 be ed ee 5b 3e 65 ed 22 be
       0.061621685 -0.17222448 0.21477862 -0.15910871
0003d0 d7 4e 35 3e 59 d5 70 bd d3 2a ab 3b 34 c1 20 be
       0.17705856 -0.058797214 0.005223611 -0.15698701
0003e0 3e e3 2b be a4 0b 05 bd 1c 85 99 bc d4 a1 00 be
       -0.16785905 -0.032481804 -0.01874023 -0.12561733
0003f0 01 8f fe bd c4 6a dd 3d 28 81 5b be 8d a0 07 be
       -0.124296196 0.108113796 -0.21435988 -0.13244839

self_attention_players.output_projection.bias f4 [18]
000000 e1 76 cd 3d 8a 47 52 3e 8e f3 33 3d 10 52 1f 3e
       0.1003244 0.20535102 0.043933444 0.15558648
000010 43 eb 5e 3e 66 ef 36 3e 6c fe a1 bd 71 bf 12 be
       0.21769433 0.17864761 -0.07909855 -0.14330842
000020 f1 af 77 be 1c 63 67 be 56 9e 73 3e 3c a3 69 3e
       -0.2418821 -0.22596401 0.23790869 0.22816175
000030 48 9e 55 3e 83 d8 8e bd 14 a0 fc bc a2 1a 3e be
       0.20861161 -0.0697489 -0.03083805 -0.18564847
000040 12 fd 2c be d7 37 eb bd
       -0.16893414 -0.1148526
