d2calcbot/main/calc_bot/actual_models/dota_model_ver1_11.pth (torch, 48066 bytes, 23 tensors)

branch_t.fc1.weight f4 [9, 9]
0	0x3e170c28	0.14750731
1	0xbe619663	-0.22030024
2	0x3e7a788c	0.24460047
3	0x3dcd9ab4	0.10039273
4	0x3cbd25e5	0.023089359
5	0x3c95f84c	0.018306874
6	0x3d0ad701	0.03389645
7	0x3e8f4463	0.27981862
8	0xbde4cc50	-0.11171782
9	0xbe3dff61	-0.1855445
10	0xbe02674b	-0.12734716
11	0xbdfa6542	-0.12226345
12	0xbc0bed11	-0.008540408
13	0xbe0ad208	-0.13556683
14	0x3e89825a	0.26857263
15	0xbdceedbc	-0.10103938
16	0x3dcd5708	0.100263655
17	0x3d2ee533	0.04269905
18	0xbc6e2849	-0.014535972
19	0x3e0b8085	0.13623245
20	0x3e7dd005	0.24786384
21	0x3e110527	0.14162122
22	0x3e2bc2a0	0.16773462
23	0xbe33969e	-0.17537925
24	0xbdb47758	-0.088118255
25	0x3c3de3f4	0.011589993
26	0xbe59d1d4	-0.2127145
27	0xbe89a09a	-0.26880342
28	0x3e6eb318	0.23310506
29	0x3e599dec	0.21251649
30	0x3cfa9917	0.030590577
31	0x3ca39028	0.0199662
32	0x3e110fc7	0.14166175
33	0x3e8300f9	0.2558668
34	0xbdbec3fb	-0.09314724
35	0xbd90526d	-0.070469715
36	0x3e7384dd	0.23781152
37	0xbe85710a	-0.26062804
38	0x3b018bb2	0.0019767103
39	0x3d9766b4	0.07392636
40	0x3daa6fed	0.083221294
41	0xbe88e888	-0.26739907
42	0xbe87c18c	-0.26514852
43	0xbe811fb4	-0.252195
44	0xbe8c5f0f	-0.27416274
45	0x3ceeb81b	0.029140523
46	0xbdb0a2f2	-0.08624829
47	0x3da1c55a	0.0789897
48	0xbe9c9e77	-0.3058965
49	0xbe297187	-0.16547213
50	0xbe650f81	-0.22369196
51	0x3d479004	0.04872133
52	0xbdaf8518	-0.085703075
53	0x3e9fd9a4	0.31220734
54	0xbe21a1dc	-0.157844
55	0xbd908ece	-0.07058488
56	0x3dda3885	0.106553115
57	0x3dd3be28	0.10339004
58	0xbe9aecc9	-0.30258778
59	0x3e0bd29c	0.1365456
60	0x3e9ede0e	0.3102879
61	0x3ea3ef2c	0.3201841
62	0x3d8ade29	0.06780655
63	0x3e8f8972	0.2803455
64	0xbe9895e0	-0.29801846
65	0x3d1c5ab1	0.038172428
66	0xbea50994	-0.3223387
67	0xbd478700	-0.04871273
68	0x3e01cad4	0.12675029
69	0xbe1a021a	-0.15039864
70	0xbe683557	-0.22676598
71	0x3e40b2a0	0.1881814
72	0xbd761069	-0.060074244
73	0x3da6a856	0.08137576
74	0x3ea4295e	0.3206281
75	0xbe19846d	-0.14991923
76	0xbe1e190f	-0.15439247
77	0xbcc0b1e8	-0.023522332
78	0x3e718805	0.23587044
79	0xbe405a47	-0.18784438
80	0x3d5207a7	0.05127683

branch_t.fc1.bias f4 [9]
0	0xbe4f600c	-0.20251483
1	0x3df00d36	0.1172127
2	0xbe351c3a	-0.17686549
3	0x3ea3915c	0.31946838
4	0xbdb6343b	-0.08896681
5	0xbe90c227	-0.28273126
6	0xbe25c457	-0.16188179
7	0xbd8c0aca	-0.06837995
8	0xbbe226d9	-0.0069016037

branch_t.fc2.weight f4 [9, 9]
0	0xbe4d9f95	-0.20080407
1	0x3ea25254	0.31703436
2	0xbdd4f3da	-0.103980735
3	0x3e062ec5	0.13103779
4	0x3d14bfa4	0.036315575
5	0xbe46ea20	-0.19425249
6	0x3e5065b8	0.20351303
7	0xbe79c85a	-0.24392834
8	0xbe64f21c	-0.22357982
9	0x3e941581	0.28922656
10	0x3e91429e	0.28371137
11	0xbe51ce4d	-0.20488854
12	0xbe14703a	-0.14495936
13	0x3e9bf8b6	0.3046319
14	0x3e95ec43	0.29281816
15	0xbe56c128	-0.20972121
16	0x3e5a719d	0.21332403
17	0xbe2c4627	-0.16823636
18	0xbd85b82a	-0.06529267
19	0x3e4a64ff	0.1976509
20	0x3e2cda97	0.1688026
21	0x3df90248	0.12158638
22	0xbe445737	-0.19173895
23	0xbcc62201	-0.024186136
24	0x3e885404	0.266266
25	0xbced7c9b	-0.02899008
26	0x3debfd32	0.115229025
27	0xbe2151e6	-0.15753898
28	0x3e9d6cb1	0.30746987
29	0xbc6abfe6	-0.014327979
30	0x3e28e85f	0.16494893
31	0xbe4a7253	-0.19770174
32	0xbe57384a	-0.21017566
33	0xbe43639e	-0.1908097
34	0x3df603d2	0.120124474
35	0xbe3d5a33	-0.1849144
36	0x3d80b23e	0.06283997
37	0xbe84b357	-0.25918075
38	0xbddc28ed	-0.107499935
39	0x3dcfc888	0.1014567
40	0xbea2bb17	-0.31783363
41	0xbe692d33	-0.22771148
42	0xbe9549be	-0.29157823
43	0xbe37a5e0	-0.1793437
44	0xbcc2bb64	-0.023770995
45	0x3c0a4e95	0.008441587
46	0xbe459408	-0.1929475
47	0xbd42fbc8	-0.0476034
48	0x3c862af8	0.016377911
49	0x3e5a2d73	0.213064
50	0xbe9cfc57	-0.3066127
51	0xbc117ea5	-0.008880292
52	0x3ea053a1	0.31313804
53	0xbdb471dd	-0.0881078
54	0x3e9a0103	0.30078897
55	0x3cd7ac68	0.026327327
56	0x3e8f0105	0.27930465
57	0x3d95da83	0.073170684
58	0xbcf533b4	-0.02993188
59	0xbe59f207	-0.21283732
60	0x3e6dac38	0.23210227
61	0x3e90d111	0.28284505
62	0x3d101e30	0.03518504
63	0xbe8004e2	-0.25003725
64	0xbe4f3eb0	-0.20238757
65	0xbd923bfd	-0.07140348
66	0x3e15dfd1	0.1463616
67	0xbe8314d9	-0.25601843
68	0xbde7c5bc	-0.11317012
69	0x3dcc0b2f	0.099630706
70	0x3dde72c3	0.10861733
71	0xbe487c35	-0.19578631
72	0x3e818a77	0.25300953
73	0xbe841c9d	-0.2580308
74	0x3dd919ca	0.10600622
75	0xbcf927e9	-0.030414538
76	0x3e5f948c	0.2183401
77	0xbe130bca	-0.14359966
78	0x3d96425f	0.07336878
79	0x3e4b1ed6	0.19835982
80	0x3de53a82	0.111928

branch_t.fc2.bias f4 [9]
0	0xbdf9f4d9	-0.12204904
1	0x3dc6b524	0.097025186
2	0x3ea4a84e	0.32159656
3	0xbccb3d52	-0.024809513
4	0xbc12b329	-0.008953848
5	0xbd934e11	-0.07192624
6	0x3d0da7e0	0.034583926
7	0x3d591d69	0.053006563
8	0xbe87f3fa	-0.26553327

branch_p.fc1.weight f4 [9, 9]
0	0x3e5d4e77	0.21611963
1	0xbe009c27	-0.12559567
2	0xbe875919	-0.26435164
3	0xbe954b77	-0.29159138
4	0xbe921788	-0.28533578
5	0x3da6f07c	0.081513375
6	0x3e821a83	0.25410852
7	0x3e9b2b60	0.3030653
8	0x3e95488a	0.29156905
9	0xbc90ec48	-0.017690793
10	0x3db7e70f	0.08979618
11	0x3e326cab	0.17424266
12	0xbd746527	-0.05966678
13	0xbe4dd7f4	-0.20101911
14	0x3c24c354	0.0100563355
15	0x3c05cc1c	0.008166339
16	0xbe19705c	-0.14984268
17	0x3e60a063	0.21936183
18	0xbd3589ec	-0.044320986
19	0xbcbecb15	-0.023290196
20	0xbe6689a4	-0.22513443
21	0xbdaa90d0	-0.08328402
22	0x3e5d5d10	0.21617532
23	0xbea76710	-0.32695818
24	0xbe1eb41c	-0.15498394
25	0xbe206ac3	-0.15665726
26	0xbde83795	-0.113387264
27	0x3e62afdc	0.22137398
28	0x3c8a7da5	0.016905615
29	0x3e5d4fb7	0.2161244
30	0xbe4de196	-0.20105585
31	0x3e873189	0.2640498
32	0x3e9c7105	0.30554977
33	0x3c875bbd	0.016523236
34	0x3dca74d7	0.09885567
35	0x3e1d832b	0.15382068
36	0xbe22428c	-0.15845698
37	0xbd5d462c	-0.054022
38	0xbba014a7	-0.0048852745
39	0x3da476c2	0.08030464
40	0xbe7cd754	-0.24691516
41	0x3e38322e	0.17987892
42	0x3db72bbf	0.08943891
43	0x3e500d3c	0.20317549
44	0xbe96c2ea	-0.29445583
45	0xbe640067	-0.22265778
46	0x3dd656ec	0.10465798
47	0xbe8d90f2	-0.27649647
48	0x3e0c3ef5	0.13695891
49	0xbe6cb354	-0.23115283
50	0xbc75ecaa	-0.015010038
51	0xbde644c3	-0.11243584
52	0xbdfaf5f6	-0.122539446
53	0x3dd78f67	0.10525399
54	0x3e86424f	0.26222464
55	0xbe11e92a	-0.14249101
56	0x3d86b109	0.065767355
57	0x3e69eba6	0.22843799
58	0xbda0e67b	-0.07856461
59	0x3ea040b1	0.31299356
60	0xbda38809	-0.07984931
61	0xbe0acac4	-0.13553911
62	0x3e663dcf	0.22484516
63	0xbe9a6de9	-0.3016198
64	0x3d4b4174	0.049622968
65	0xbd0ef4b7	-0.034901347
66	0xbe378c3a	-0.17924586
67	0x3dcc35d8	0.099712074
68	0xbe3e257d	-0.18568988
69	0x3e3e9eae	0.18615219
70	0x3e32d525	0.1746412
71	0x3e00fce0	0.12596464
72	0x3e05975a	0.13046017
73	0xbea40bc5	-0.3204023
74	0xbdc65c16	-0.09685533
75	0xbe918122	-0.28418833
76	0x3d234938	0.03986475
77	0x3e4d0126	0.2001997
78	0xbe0f996b	-0.14023368
79	0xbe3a4bac	-0.18192929
80	0xbd19798b	-0.037469428

branch_p.fc1.bias f4 [9]
0	0x3e631b42	0.22178367
1	0xbdbbb7d8	-0.09165925
2	0x3e13ec34	0.14445573
3	0xbe98ce08	-0.2984469
4	0xbe97789b	-0.29584202
5	0x3e09b9a2	0.1344972
6	0x3e501288	0.20319569
7	0xbe7b80d0	-0.24560857
8	0x3de2714b	0.11056765

branch_p.fc2.weight f4 [9, 9]
0	0x3d91151d	0.07084105
1	0xbd04dcc0	-0.032437086
2	0xbe93bbda	-0.28854257
3	0xbe85219e	-0.2600221
4	0x3e3215dc	0.17391151
5	0x3da8c777	0.0824117
6	0x3c6da27c	0.014504071
7	0xbdb231fc	-0.0870094
8	0xbea19dd6	-0.31565732
9	0x3e90d10d	0.28284493
10	0x3e0d9d66	0.13829574
11	0x3db88386	0.09009461
12	0xbdc2eac1	-0.09517432
13	0x3e312131	0.17297818
14	0x3ea19340	0.31557655
15	0x3e9ba44d	0.3039879
16	0x3e8b5e06	0.27220172
17	0x3cbd3adc	0.023099355
18	0x3e982456	0.29715222
19	0xbd879e04	-0.06621936
20	0x3e561b02	0.2090874
21	0xbe1d1bd1	-0.15342642
22	0xbe899214	-0.2686926
23	0xbe9564b9	-0.29178408
24	0xbe884983	-0.26618585
25	0x3e157f3e	0.1459932
26	0x3cabcd7b	0.020972004
27	0x3e83f49f	0.2577257
28	0x3e74b85c	0.23898453
29	0xbc450a95	-0.012026449
30	0x3ea5986d	0.32342854
31	0x3e9ce785	0.30645385
32	0x3e57d5f7	0.21077715
33	0x3cfd7c24	0.030942984
34	0xbe601299	-0.21882094
35	0xbe0f8d54	-0.14018756
36	0xbe234fa8	-0.15948355
37	0xbe5a25f9	-0.21303548
38	0x3eaa8b60	0.3330946
39	0xbe09967f	-0.13436316
40	0x3e18d1b8	0.14923751
41	0x3dcb29c0	0.099200726
42	0x3dda33ca	0.10654409
43	0xbe01bf64	-0.12670666
44	0xbdfb4ca2	-0.12270476
45	0xbe560b05	-0.20902641
46	0xbd6cfd09	-0.0578585
47	0xbe0b1d5f	-0.13585423
48	0x3e181cde	0.14854762
49	0xbe8affb7	-0.2714822
50	0x3cf31bee	0.029676404
51	0x3d9f3d13	0.07775321
52	0x3c91fff4	0.017822243
53	0x3e90b620	0.2826395
54	0x3d855c5d	0.065117575
55	0x3e0a34a7	0.13496648
56	0x3d9ae2b1	0.07562769
57	0x3e32b2db	0.1745104
58	0xbe715d4f	-0.2357075
59	0xbe7a8840	-0.24466038
60	0xbe8e7934	-0.27826846
61	0xbda6b5c5	-0.081401385
62	0xbe071a91	-0.13193728
63	0xbe4a3671	-0.1974733
64	0x3ea584b2	0.323278
65	0x3e1d5c7b	0.1536731
66	0x3e809c23	0.25119123
67	0xbe2d6327	-0.16932355
68	0xbc2c95ac	-0.010533731
69	0x3bcca75a	0.006245536
70	0x3e3e64a7	0.18593083
71	0x3e6ab1b8	0.22919357
72	0xbe90fdec	-0.28318727
73	0x3df82006	0.12115483
74	0xbd7311cb	-0.05934314
75	0xbdb6a028	-0.08917266
76	0xbe9509fe	-0.29109186
77	0x3e26e4fe	0.16298291
78	0xbe5a685e	-0.21328875
79	0x3e3aea63	0.18253474
80	0xbdca2d38	-0.09871906

branch_p.fc2.bias f4 [9]
0	0xbe09b529	-0.13448013
1	0xbdf8ad92	-0.12142481
2	0x3d12829d	0.035769094
3	0x3c425539	0.011861139
4	0xbe8efeb2	-0.27928692
5	0xbe0d39d8	-0.13791597
6	0xbe227110	-0.15863442
7	0xbdea7670	-0.114483714
8	0x3e3b11ef	0.1826856

branch_h.fc1.weight f4 [9, 9]
0	0xbea2e758	-0.31817126
1	0xbdca0faf	-0.09866273
2	0xbe104d0d	-0.14091893
3	0xbe4172fa	-0.18891516
4	0x3e2cc5ad	0.16872282
5	0x3e508a86	0.20365342
6	0x3dbc2441	0.091866024
7	0x3e1bece4	0.15227085
8	0x3e9f8bdc	0.31161392
9	0x3e6bdcfd	0.23033519
10	0xbe4778d7	-0.1947969
11	0xbe800324	-0.25002396
12	0x3e2cb3cf	0.16865467
13	0xbe87727a	-0.26454526
14	0xbd5c425c	-0.053774223
15	0xbe4d29e4	-0.20035511
16	0x3e0ae7d0	0.13564992
17	0x3db5681b	0.08857747
18	0x3ea6f2c6	0.32607096
19	0xbe03f268	-0.1288544
20	0x3e4b8b1e	0.19877288
21	0xbd5e29c0	-0.054239035
22	0x3e348e85	0.17632492
23	0xbe8f29be	-0.27961534
24	0x3c911f19	0.017715024
25	0xbe9b3876	-0.30316514
26	0xbe115056	-0.14190802
27	0xbe12b88b	-0.1432821
28	0xbe473b7c	-0.19456285
29	0x3ca989c6	0.020695578
30	0x3e23ba09	0.15988936
31	0xbe3e0df7	-0.18560015
32	0x3da8d8c5	0.082444705
33	0xbce70009	-0.028198259
34	0x3e3400a8	0.17578375
35	0x3ea20fab	0.3165258
36	0x3d4dd3b2	0.050250717
37	0x3d547a74	0.051874593
38	0x3e5ba900	0.21451187
39	0xbdb5fc65	-0.08886031
40	0xbdd564d7	-0.10419624
41	0x3e92deec	0.286857
42	0x3d5e30f4	0.054245904
43	0x3e1a75f7	0.15084063
44	0x3e89b1ca	0.26893455
45	0x3e69fe60	0.22850943
46	0x3e59b9c3	0.21262269
47	0xbd893124	-0.06698826
48	0x3e4518bc	0.19247717
49	0xbe478b06	-0.19486627
50	0xbdaffc84	-0.085930854
51	0x3c6bc603	0.014390471
52	0xbe8481f0	-0.25880384
53	0x3e07b075	0.13250907
54	0xbe49defe	-0.19713971
55	0x3cac499e	0.021031197
56	0x3d49d3f5	0.049274404
57	0x3e30201e	0.17199752
58	0xbe95aaa2	-0.29231745
59	0xbe9d1191	-0.30677465
60	0x3e188d8f	0.1489775
61	0xbdeef605	-0.11668018
62	0x3e8fa609	0.28056362
63	0xbe8da0ea	-0.2766183
64	0xbdddbb3f	-0.1082673
65	0x3bd8dc64	0.0066180695
66	0x3d04e6c5	0.03244664
67	0xbdf2bf88	-0.11852938
68	0xbe29a46f	-0.16566633
69	0xbdfc35f4	-0.12314978
70	0xbe98a4c1	-0.29813197
71	0xbe2c61c5	-0.16834171
72	0xbe9a7144	-0.3016454
73	0xbbbcec69	-0.005765487
74	0x3e80a659	0.25126913
75	0xbd47a753	-0.048743557
76	0x3e91a1a2	0.2844363
77	0x3c8cce6d	0.017188275
78	0x3e7c1344	0.24616724
79	0xbe944e88	-0.28966165
80	0xbe8b9e92	-0.27269417

branch_h.fc1.bias f4 [9]
0	0xbe8b43f0	-0.2720027
1	0xbd8db693	-0.06919589
2	0x3e875d67	0.26438448
3	0x3e09b6cc	0.13448638
4	0x3e086e1e	0.13323256
5	0x3e133e22	0.1437917
6	0xbe3bdb9d	-0.18345495
7	0xbe8e6ced	-0.2781748
8	0xbe6c464d	-0.23073693

branch_h.fc2.weight f4 [9, 9]
0	0xbe3b0253	-0.18262605
1	0x3e788a92	0.2427161
2	0xbd88944e	-0.06668912
3	0x3e0b71a4	0.13617569
4	0xbde304c9	-0.11084897
5	0xbe9563ad	-0.2917761
6	0x3ea8cc85	0.32968536
7	0xbe82a6c3	-0.25517854
8	0x3d1e4daf	0.038648304
9	0xbdacaa8a	-0.08430965
10	0x3dc58760	0.09644961
11	0xbdca1bb2	-0.09868564
12	0xbe623bb5	-0.22093089
13	0xbea399b1	-0.31953195
14	0xbe567fbd	-0.20947166
15	0xbe91001d	-0.283204
16	0x3e7e6dc4	0.2484656
17	0x3df45a18	0.119312465
18	0xbe69b6b1	-0.22823597
19	0xbd8d8255	-0.069096245
20	0xbe66fb68	-0.22556841
21	0xbac89eea	-0.0015306149
22	0xbea87880	-0.32904434
23	0x3e847282	0.25868613
24	0x3e561825	0.20907648
25	0xbe08ec35	-0.13371356
26	0x3dc5d254	0.096592575
27	0x3ea90a53	0.3301569
28	0xbd326a26	-0.043558262
29	0xbe1209b8	-0.1426152
30	0xbdedd06b	-0.11612018
31	0xbe9eca52	-0.31013733
32	0xbe8be465	-0.2732269
33	0xbe90a224	-0.28248703
34	0xbdc3950a	-0.09549911
35	0x3d246295	0.040133078
36	0xbe80a175	-0.25123182
37	0xbe369887	-0.17831622
38	0xbe694062	-0.22778466
39	0x3cc8d948	0.02451767
40	0x3c28ce0a	0.01030303
41	0xbe7d9260	-0.24762869
42	0xbe85ef52	-0.2615915
43	0x3d28f833	0.041252326
44	0x3e7e7acd	0.24851532
45	0x3e8d88ae	0.2764334
46	0x3e84c4c5	0.25931373
47	0xbcfe2dc2	-0.031027678
48	0x3d390642	0.045171984
49	0x3e275e02	0.16344455
50	0xbdbca6c0	-0.092114925
51	0x3d732915	0.05936535
52	0xbe3b95a2	-0.18318799
53	0x3c3592f9	0.011082404
54	0xbc26b5c8	-0.010175176
55	0xbd2c5f8d	-0.04208331
56	0xbe3c81bc	-0.18408865
57	0x3e4f2f45	0.20232876
58	0xbd8ee01f	-0.069763415
59	0xbea877ea	-0.32903987
60	0x3e24309b	0.16034167
61	0xbe896b19	-0.26839522
62	0xbdca8fa4	-0.098906785
63	0xbe540212	-0.20703915
64	0xbe4c15e7	-0.1993023
65	0x3cb4e9fc	0.022084229
66	0xbe8f5166	-0.2799179
67	0xbe8b2b30	-0.27181387
68	0x3e94403b	0.28955254
69	0x3df27aec	0.11839852
70	0x3d25a32d	0.04043882
71	0xbde55ce5	-0.11199359
72	0xbe6960b3	-0.22790794
73	0xbdfaf898	-0.12254447
74	0x3d982f4f	0.074308984
75	0xbd8b21be	-0.06793545
76	0x3e814e05	0.25254837
77	0x3e1308b9	0.14358796
78	0x3e7f7689	0.24947561
79	0xbcfa2a9d	-0.030537898
80	0x3e321119	0.17389335

branch_h.fc2.bias f4 [9]
0	0x3dc138df	0.094346754
1	0x3e4c0a51	0.1992581
2	0xbe7a2f10	-0.24432015
3	0xbca65d73	-0.020308232
4	0x3e1def20	0.1542325
5	0x3d320e89	0.043470893
6	0xbe864f1a	-0.26232225
7	0x3d8bfda0	0.068354845
8	0xbdf5e4e1	-0.12006546

self_attention_players.query_projection.weight f4 [18, 18]
0	0xbe677019	-0.22601356
1	0xbe15966d	-0.14608164
2	0xbe2e5e30	-0.17028117
3	0xbe39b509	-0.18135466
4	0xbc32aa3d	-0.010904846
5	0x3c1e0299	0.009644174
6	0xbe0c9ae0	-0.13730955
7	0x3e012830	0.12612987
8	0x3d94c50a	0.07264145
9	0x3c4e4560	0.0125897825
10	0xbe63fd10	-0.22264504
11	0xbdb50355	-0.08838526
12	0x3e049a4c	0.12949485
13	0x3dd396df	0.10331511
14	0xbc633cd5	-0.013869484
15	0x3db32e66	0.08749084
16	0x3e14430e	0.14478704
17	0xbe5c0599	-0.2148651
18	0xbcd98a03	-0.026555067
19	0x3c92de01	0.017928125
20	0x3def3603	0.11680224
21	0x3e492b50	0.19645429
22	0xbcfd2a97	-0.030904097
23	0x3a72dc42	0.00092643884
24	0xbdaddb60	-0.08489108
25	0x3e358113	0.17725019
26	0xbe089dbb	-0.1334142
27	0x3d41f87f	0.047356125
28	0x3df201d4	0.11816755
29	0x3e5af58c	0.21382731
30	0x3e53a24c	0.2066738
31	0x3c7f56a0	0.015584618
32	0xbc9d4523	-0.019198006
33	0xbe13818e	-0.1440489
34	0xbbc109de	-0.005891069
35	0xbe05d2f6	-0.13068756
36	0x3e073e5a	0.13207379
37	0x3d17558e	0.036946826
38	0xbe374330	-0.17896724
39	0x3bdb4a90	0.006692238
40	0xbe3459ea	-0.17612424
41	0xbe48613d	-0.19568343
42	0x3e1747da	0.14773503
43	0xbe08d477	-0.13362299
44	0xbe6f1b19	-0.2335018
45	0x3dc7707d	0.09738252
46	0xbda389e3	-0.07985284
47	0xbd06f17b	-0.032945137
48	0xbd49422f	-0.049135383
49	0xbbcf7636	-0.0063312305
50	0xbdd9c33a	-0.1063294
51	0xbe5851d3	-0.21124963
52	0x3e4d1dc0	0.2003088
53	0xbb5d8cae	-0.0033805775
54	0x3e459588	0.19295323
55	0xbe172912	-0.14761761
56	0xbe54436f	-0.20728849
57	0xbd4cdd85	-0.050015945
58	0x3e608546	0.2192584
59	0xbdae61ba	-0.085147336
60	0xbe094c7b	-0.13408081
61	0xbe588dc0	-0.21147823
62	0x3db138ff	0.08653449
63	0x3e02864b	0.12746541
64	0x3e6baca5	0.23015077
65	0x3db13466	0.08652572
66	0x3e6301ee	0.22168705
67	0x3d0c16a5	0.034201283
68	0xbe584b7f	-0.2112255
69	0x3e06dcbb	0.1317014
70	0xbe62c79b	-0.22146456
71	0x3e2f051b	0.17091791
72	0xbd3efd49	-0.04662827
73	0xbdc31775	-0.095259584
74	0x3d6f219e	0.05838167
75	0x3e6861cb	0.22693555
76	0xbe23bfae	-0.15991089
77	0x3cac5525	0.021036694
78	0xbc255e6f	-0.0100933155
79	0xbe282d7c	-0.16423601
80	0xbe5ae8a7	-0.21377812
81	0x3cdc0dff	0.026862143
82	0xbe4df48e	-0.20112821
83	0xbdafec60	-0.08590007
84	0xbdb98f9a	-0.09060593
85	0xbc2aea72	-0.010431873
86	0x3e683d0f	0.22679542
87	0x3e17bc6b	0.1481797
88	0xbe7444c3	-0.23854356
89	0x3cd283f3	0.025697684
90	0x3b813a88	0.003943745
91	0x3d07a668	0.03311768
92	0xbd37407a	-0.044739224
93	0x3d9a3a17	0.07530611
94	0xbd90b73c	-0.07066199
95	0x3d98dbd9	0.074638076
96	0x3e682fc9	0.22674479
97	0xbdc3ae73	-0.09554758
98	0x3d848b31	0.06471861
99	0xbe0a7b96	-0.13523707
100	0xbdfc4512	-0.123178616
101	0x3e700d5c	0.23442596
102	0x3e05cc2d	0.13066168
103	0x3d946fda	0.072478965
104	0x3e35ca1d	0.17752881
105	0xbe5ef035	-0.21771319
106	0xbe6d613e	-0.23181626
107	0xbda3dc55	-0.080010094
108	0x3b31425d	0.0027047612
109	0x3ca48024	0.020080633
110	0x3d8961c0	0.067080975
111	0x3e0b96f0	0.13631797
112	0xbd666d46	-0.056256555
113	0xbd9e98d5	-0.07743994
114	0x3d12ab07	0.035807636
115	0xbda41b4d	-0.0801302
116	0x3e210ee6	0.1572834
117	0xbe207541	-0.15669729
118	0x3dca4128	0.09875709
119	0x3d095b24	0.033534184
120	0x3e53ccc8	0.20683587
121	0x3e24f7f6	0.16110215
122	0x3e606fcc	0.21917647
123	0x3db1edab	0.0868791
124	0xbe157914	-0.14596969
125	0x3d8ed797	0.06974714
126	0x3e04baa0	0.12961817
127	0x3e54568e	0.20736143
128	0x3d32083c	0.043464884
129	0x3d3e0169	0.046388064
130	0xbe107c83	-0.14109997
131	0x3d368dd8	0.044568866
132	0x3e0b6756	0.13613638
133	0x3e6be813	0.23037748
134	0x3d9c2556	0.07624309
135	0xbe435430	-0.19075084
136	0xbbfdb8d6	-0.0077429814
137	0xbe238a20	-0.1597066
138	0xbd583179	-0.052781556
139	0x3e3221de	0.17395732
140	0xbe14dcc9	-0.14537348
141	0x3bbb361d	0.005713238
142	0xbcb4b372	-0.022058222
143	0xbd9ad7eb	-0.07560714
144	0xbdb6887b	-0.0891275
145	0x3e11f6ba	0.14254275
146	0x3c5fb7e2	0.013654681
147	0x3dc255eb	0.09489044
148	0x3d8de3c8	0.069282115
149	0xbd9f3ea3	-0.07775619
150	0xbd2657ba	-0.040611006
151	0x3e47b693	0.1950324
152	0x3e1d0cd5	0.15336926
153	0x3e2be937	0.16788183
154	0x3e6e9f2e	0.2330291
155	0xbd9dcd80	-0.07705212
156	0x3d7a1b99	0.061061475
157	0x3e3da0df	0.18518399
158	0xbe6a1126	-0.22858104
159	0xbd38d61f	-0.045126077
160	0xbd80eb5e	-0.06294893
161	0x3e2ac1b4	0.16675454
162	0x3e06dac6	0.13169393
163	0xbe638b3d	-0.22221084
164	0xbdf44d60	-0.119288206
165	0xbe254daa	-0.16142908
166	0x3e4e8d1a	0.20171013
167	0x3e407c39	0.18797387
168	0x3e2c0d4a	0.16801944
169	0x3a69ef00	0.00089238584
170	0x3e378303	0.17921071
171	0xbe055112	-0.13019207
172	0xbdd6e645	-0.10493139
173	0x3cc5ffc3	0.024169808
174	0xbd25efb8	-0.040511817
175	0x3e410b1e	0.18851897
176	0x3cb8de73	0.02256701
177	0xbd736590	-0.05942303
178	0xbe2838b9	-0.16427888
179	0xbd2e9776	-0.042624913
180	0xbdd498f3	-0.10380735
181	0x3d09fecc	0.03369026
182	0xbe67b947	-0.22629271
183	0x3ddaffa5	0.106932916
184	0x3e3bbb13	0.18333082
185	0xbd1d5773	-0.038413476
186	0x3e5c60a3	0.21521239
187	0xbe0470c0	-0.12933636
188	0x3cf1ad8c	0.029501699
189	0x3e1017a2	0.14071515
190	0x3e55c569	0.20876087
191	0x3d922e16	0.071376964
192	0xbc3838ac	-0.01124398
193	0x3c0c083a	0.008546883
194	0x3c4e5430	0.012593314
195	0x3def1c99	0.116753764
196	0x3e64c19b	0.2233948
197	0xbd1d89b5	-0.038461406
198	0xbc0ecb51	-0.008715467
199	0xbdbba607	-0.091625266
200	0xbe53cb66	-0.20683059
201	0xbdb6bb07	-0.089223914
202	0xbd1cd812	-0.038292
203	0x3e68a704	0.22719961
204	0xbdf02dba	-0.11727472
205	0x3a02c3be	0.00049882743
206	0xbdfbea3c	-0.12300536
207	0xbdf1ca65	-0.11806182
208	0x3df56378	0.11981863
209	0x3cddaa94	0.027058877
210	0xbc45d2ca	-0.012074182
211	0xbe01a4f4	-0.12660581
212	0xbe6ec71a	-0.23318139
213	0x3cf598e0	0.029980123
214	0x3dddc4f7	0.10828584
215	0x3d8b4c26	0.068016335
216	0xbe496e31	-0.19670941
217	0x3d7a16ec	0.061057016
218	0xbe33e321	-0.17567112
219	0x3ce1c282	0.027558569
220	0x3dbd9b08	0.092580855
221	0xbd8b8ee6	-0.06814365
222	0xbd602c89	-0.054729972
223	0x3df99ff3	0.12188711
224	0xbc7b4290	-0.015335694
225	0xbe222984	-0.1583615
226	0xbe5b1c00	-0.213974
227	0x3e55d0c3	0.20880418
228	0x3e101700	0.14071274
229	0xbe06046f	-0.13087629
230	0xbe0c03e5	-0.1367336
231	0x3e744f1d	0.23858304
232	0x3d5fe186	0.054658435
233	0x3bb605fe	0.0055549135
234	0x3d897444	0.06711629
235	0x3d6b1e0b	0.057401698
236	0xbd36c496	-0.044621073
237	0xbe0df549	-0.138631
238	0x3e68c5da	0.22731724
239	0xbe2b9375	-0.16755469
240	0x3e59f713	0.21285658
241	0xbe49bc88	-0.19700825
242	0xbe66b780	-0.22530937
243	0x3de586bc	0.11207339
244	0xbdf957ca	-0.121749476
245	0xbe146870	-0.14492965
246	0xbb4c16fe	-0.0031141634
247	0x3d4f7cfe	0.05065631
248	0xbe3303e5	-0.17481954
249	0xbe22905f	-0.15875386
250	0x3e1b349c	0.15156788
251	0x3c907a71	0.01763651
252	0x3d23d9b7	0.04000255
253	0x3cd112c7	0.025521649
254	0x3dd2368c	0.1026431
255	0xbdf4aff1	-0.11947621

self_attention_players.query_projection.bias f4 [18]
0	0xbe27d914	-0.16391402
1	0xbe372244	-0.17884165
2	0xbca00c53	-0.019537127
3	0xbbd0dc53	-0.006373921
4	0xbe1494e7	-0.14509927
5	0xbdc86856	-0.097855255
6	0xbd9780b4	-0.07397595
7	0x3d51a192	0.051179476
8	0xbd9d42ab	-0.076787315
9	0xbe0fb677	-0.14034449
10	0x3d2bcea7	0.041945126
11	0x3e0ef3eb	0.13960235
12	0x3dd514dc	0.10404369
13	0xbdd12082	-0.102112785
14	0xbca1dea7	-0.01975949
15	0x3e03f33a	0.12885752
16	0xbd792cc8	-0.060833722
17	0xbbde2c9b	-0.0067802197

self_attention_players.key_projection.weight f4 [18, 18]
0	0xbe0ff27e	-0.14057347
1	0x3e562bea	0.2091519
2	0x3e6e79a6	0.23288593
3	0x3dd46d78	0.10372442
4	0xbdf7d3d1	-0.12100948
5	0xbc318607	-0.010835177
6	0x3daae407	0.08344274
7	0xbde3327e	-0.11093615
8	0xbd20938b	-0.039203208
9	0xbcb6ae08	-0.022299781
10	0x3e4ae20b	0.19812791
11	0x3de59d2f	0.11211621
12	0x3e64278d	0.22280712
13	0xbcc96d16	-0.024588149
14	0x3b804b6d	0.0039152415
15	0xbd98c2e2	-0.07459046
16	0xbe1a1dc4	-0.15050417
17	0x3d12e19d	0.035859693
18	0x3db657d5	0.089034714
19	0x3e2e4c38	0.17021263
20	0xbce8bb57	-0.028409643
21	0xbe3ee935	-0.18643649
22	0xbc217413	-0.009854334
23	0xbe388de3	-0.18022875
24	0xbe58fa9b	-0.21189348
25	0xbe59d3ee	-0.21272251
26	0xbd2dee17	-0.04246339
27	0xbd4b210f	-0.049592074
28	0x3de86bc7	0.11348682
29	0xbc4c09b8	-0.012453489
30	0xbe2e4a56	-0.17020544
31	0x3e656d3a	0.22404948
32	0x3d1ed47d	0.038776863
33	0xbe1a11e1	-0.15045883
34	0xbbb07f07	-0.0053862366
35	0xbcf0c020	-0.029388487
36	0xbe567574	-0.20943242
37	0x3d91306f	0.07089316
38	0xbe039648	-0.12850296
39	0xbe18b93a	-0.14914408
40	0xbde52eed	-0.11190591
41	0x3dd20026	0.102539346
42	0xbe65a946	-0.22427854
43	0x3de8335f	0.11337923
44	0xbccd59b3	-0.025067186
45	0xbbd498d7	-0.0064879465
46	0xbe06a6e5	-0.13149603
47	0xbe48d453	-0.19612245
48	0x3db0b1c0	0.08627653
49	0xbe3a725a	-0.18207684
50	0x3ddc774c	0.107649416
51	0xbd698ebc	-0.057020888
52	0xbe0e17d2	-0.13876274
53	0xbc67d173	-0.014149058
54	0xbc645ddb	-0.0139383925
55	0x3e105867	0.14096223
56	0xbe2fc4eb	-0.17164962
57	0xbe37ad95	-0.1793731
58	0x3d275927	0.040856507
59	0x3e11dd50	0.1424458
60	0x3e22c041	0.15893652
61	0x3d95c1a4	0.07312325
62	0xbdb98597	-0.09058683
63	0x3e287f94	0.16454917
64	0xbdbb1af2	-0.09135999
65	0x3dcbf554	0.09958902
66	0x3e3c9407	0.18415843
67	0xbe4e3071	-0.20135666
68	0xbd1c9321	-0.03822625
69	0x3c2d3dff	0.010573863
70	0x3e010e9b	0.12603228
71	0xbdfbb549	-0.12290437
72	0x3d7ad2a7	0.06123605
73	0xbcf40776	-0.029788714
74	0xbe12c509	-0.14332975
75	0x3dbc75fc	0.09202191
76	0xbe12f56f	-0.14351438
77	0xbe6d421f	-0.23169754
78	0x3d529c8f	0.051418837
79	0x3e49bc62	0.19700769
80	0xbdf34592	-0.11878504
81	0xbd31980b	-0.04335789
82	0xbd6b3cc2	-0.05743099
83	0xbe516f89	-0.20452704
84	0xbc659deb	-0.014014701
85	0x3e631b96	0.22178492
86	0xbca0afa4	-0.019615002
87	0x3d903eca	0.07043226
88	0xbe211f38	-0.15734565
89	0x3d70e562	0.058812506
90	0x3dbb73d8	0.09152955
91	0xbe4805fb	-0.19533531
92	0x3c4ff3dd	0.012692419
93	0x3e41da83	0.18931012
94	0xbda8d54d	-0.08243809
95	0xbcacf912	-0.02111486
96	0xbcab5de0	-0.020918787
97	0xbd021a86	-0.031763576
98	0x3e179360	0.14802313
99	0xbd349147	-0.04408386
100	0xbe43f6ee	-0.19137165
101	0xbc6e7764	-0.014554832
102	0xbdcdd2d4	-0.10049978
103	0x3db87b2d	0.09007869
104	0xbddf718d	-0.1091033
105	0xbdaab07e	-0.083344445
106	0xbdb4dee4	-0.088315755
107	0xbdae9917	-0.08525293
108	0x3cdf7746	0.027278554
109	0xbdc44292	-0.0958301
110	0x3e24b197	0.1608337
111	0x3e0f5baa	0.13999811
112	0xbd2983b2	-0.04138536
113	0x3e663ae1	0.22483398
114	0xbd6c889a	-0.05774746
115	0xbe021894	-0.12704688
116	0xbd206128	-0.039155155
117	0xbdf57cde	-0.11986707
118	0x3e10bee3	0.14135318
119	0x3e1ddeab	0.15416972
120	0xbe18c087	-0.14917193
121	0x3e6272a1	0.2211404
122	0xbd74037f	-0.059573647
123	0x3b634e06	0.0034683957
124	0xbd9defb8	-0.07711738
125	0xbe2f5947	-0.171239
126	0x3d517d1f	0.051144715
127	0xbe4e901e	-0.20172164
128	0xbe443211	-0.19159724
129	0xbe6dd1ef	-0.23224615
130	0x3e416f5f	0.18890141
131	0xbd19d841	-0.03755975
132	0xbe07c2da	-0.13257924
133	0x3e49ba7b	0.19700043
134	0x3d8d440d	0.06897745
135	0x3c03c2ec	0.008042078
136	0x3dab4e94	0.08364597
137	0x3d625096	0.055252634
138	0x3d72fb95	0.05932196
139	0xbe67c4b1	-0.22633626
140	0xbe0feba6	-0.14054736
141	0x3dec3fa4	0.11535576
142	0x3d012bc2	0.03153587
143	0x3e5f3572	0.21797732
144	0x3e51c16b	0.2048394
145	0xbe1b7299	-0.15180434
146	0xbc7b6a16	-0.015345117
147	0x3d48342a	0.048877873
148	0x3e373a12	0.17893246
149	0x3df32e42	0.11874057
150	0x3e5a3842	0.21310523
151	0xbe344294	-0.17603523
152	0xbe11844d	-0.14210625
153	0xbe10e776	-0.14150795
154	0xbdd636a3	-0.1045964
155	0xbe1ee546	-0.15517148
156	0x3d906f78	0.07052511
157	0x3db0f2c2	0.086400524
158	0x3d8d96f8	0.06913561
159	0xbe338c8d	-0.17534085
160	0xbe422783	-0.18960385
161	0xba23ea66	-0.00062528846
162	0x3d4b038a	0.049563922
163	0xbdc66d1b	-0.09688779
164	0x3e16b278	0.14716518
165	0x3e2564f8	0.16151798
166	0x3e6ff1e5	0.23432119
167	0xbe03a5d8	-0.12856233
168	0xbd63da7a	-0.055628277
169	0x3e4030d7	0.18768631
170	0x3e03c9a8	0.12869895
171	0x3d12569e	0.035727136
172	0x3e6c2a70	0.23063064
173	0x3dddd80b	0.108322226
174	0x3d8f0b1b	0.0698454
175	0xbdefd911	-0.11711324
176	0x3e49bf3d	0.19701858
177	0xbab335f6	-0.0013672698
178	0xbd0f29d9	-0.03495202
179	0x3df2946d	0.11844716
180	0xbe68b26f	-0.22724317
181	0x3e539266	0.20661315
182	0x3db82cbc	0.089929074
183	0x3c875e7a	0.016524542
184	0x3e01cc9d	0.1267571
185	0xbcf3b900	-0.0297513
186	0x3ce13fcc	0.027496241
187	0x3e4d0515	0.2002147
188	0xbe1d45f9	-0.15358724
189	0xbe62ea05	-0.22159584
190	0x3d22319f	0.039598104
191	0xbd67a30d	-0.05655198
192	0xbdac06c9	-0.08399732
193	0xbda11175	-0.07864658
194	0x3ddd55d6	0.108073875
195	0x3e2ab7b7	0.16671644
196	0xbdaf706a	-0.08566363
197	0x3e0bdb56	0.13657889
198	0xbe18ef1a	-0.1493496
199	0xbe5ababf	-0.213603
200	0x3d431119	0.047623727
201	0xbd2cb4b6	-0.042164527
202	0x3e65f969	0.22458424
203	0xbe6b67c8	-0.22988808
204	0xbc5574d8	-0.013028346
205	0xbe065e8b	-0.13122003
206	0x3e5f3ba7	0.218001
207	0x3e6c1c6e	0.2305772
208	0x3d992b05	0.074789084
209	0xbe2990b9	-0.16559114
210	0x3e461295	0.19343026
211	0x3e609865	0.21933134
212	0xbdc85a30	-0.09782827
213	0x3e67aa6d	0.22623606
214	0x3e5a3255	0.21308263
215	0x3dd747ed	0.10511766
216	0x3e447d65	0.19188459
217	0x3df56a74	0.11983195
218	0x3d56798c	0.05236201
219	0xbdb36034	-0.08758584
220	0xbcdf98a6	-0.027294468
221	0xbd0e3972	-0.034722753
222	0x3c903f07	0.017608179
223	0x3df8e72c	0.121534675
224	0x3e58a158	0.21155298
225	0xbe29acf5	-0.16569884
226	0x3caf352f	0.021387665
227	0xbe45a8c6	-0.19302663
228	0xbe300aab	-0.1719157
229	0x3dcf3a34	0.10118523
230	0xbe548362	-0.20753244
231	0xbcdffcb9	-0.027342187
232	0xbe36a7b1	-0.17837407
233	0xbe1090c6	-0.14117727
234	0x3e6e2690	0.23256898
235	0x3e12a07d	0.14319034
236	0x3d9e8c3f	0.077415936
237	0xbdac0c78	-0.08400816
238	0xbe612164	-0.21985394
239	0xbcf1a549	-0.02949776
240	0xbdbb4807	-0.091445975
241	0x3e6bb3e7	0.23017846
242	0x3e5ffe2f	0.21874307
243	0xbcc163d3	-0.02360717
244	0xbe422c0b	-0.18962114
245	0x3c97ec20	0.01854521
246	0x3d5bb85e	0.053642623
247	0xbe23029d	-0.15918966
248	0xbd69ad88	-0.057050258
249	0x3e348048	0.1762706
250	0xbe007221	-0.12543537
251	0xbe558c28	-0.20854247
252	0x3e5790e4	0.21051365
253	0x3d9fc761	0.078017004
254	0x3e521ca2	0.20518735
255	0xbd1a1b5a	-0.03762374

self_attention_players.key_projection.bias f4 [18]
0	0xbe6061a8	-0.21912253
1	0xbd802024	-0.0625613
2	0x3e49e32b	0.19715564
3	0x3de05f2a	0.10955651
4	0x3e1d6873	0.15371875
5	0x3d760696	0.060064875
6	0x3da529a1	0.08064581
7	0xbe1b6b31	-0.15177609
8	0xbd37c785	-0.04486801
9	0x3d1dded1	0.038542572
10	0x3dd7a672	0.10529794
11	0x3d026143	0.031831037
12	0xbde0d7e5	-0.109786786
13	0xbe19c11d	-0.15015073
14	0xbe1f4112	-0.15552166
15	0xbe252d1c	-0.16130489
16	0x3e6a2e01	0.22869112
17	0xbc277782	-0.010221364

self_attention_players.value_projection.weight f4 [18, 18]
0	0xbdd82ffc	-0.10556027
1	0xbe18571d	-0.14876981
2	0x3e44294a	0.19156376
3	0xbd129fe5	-0.03579702
4	0xbe54ec51	-0.20793273
5	0x3e23995b	0.15976469
6	0xbe241c6d	-0.16026469
7	0xbe02484e	-0.12722895
8	0x3dd29654	0.10282579
9	0x3e0e3567	0.13887559
10	0x3e1b4105	0.15161522
11	0xbe30351f	-0.17207764
12	0x3e0a59d1	0.13510825
13	0x3e40524f	0.18781398
14	0x3dc76259	0.09735555
15	0x3e41c9a4	0.18924576
16	0xbd21e4e7	-0.03952494
17	0x3cff88ca	0.031193156
18	0x3e50f14f	0.20404552
19	0x3d3cd36e	0.046100073
20	0x3e00233c	0.12513441
21	0xbd2452d1	-0.040118042
22	0x3e69a621	0.2281728
23	0x3dd4c4b2	0.10389079
24	0x3ba0debf	0.004909366
25	0xbdfa92a4	-0.12235001
26	0x3cfcc7c4	0.030856974
27	0xbd1294be	-0.035786383
28	0xbdb90104	-0.09033397
29	0x3de8931a	0.113561824
30	0xbd95ec5c	-0.073204726
31	0xbe313ecb	-0.1730911
32	0xbd954888	-0.07289225
33	0x3e2cf87d	0.16891666
34	0x3c89e148	0.016831055
35	0x3d4ee64a	0.05051259
36	0xbe0f409c	-0.1398949
37	0x3dd1d7be	0.10246228
38	0x3d1ff2f8	0.039050072
39	0xbe44f215	-0.19232972
40	0x3e36bb20	0.1784482
41	0xbd85759f	-0.06516575
42	0xbcca7328	-0.024713114
43	0x3d2d2ed1	0.042280976
44	0xbe69959b	-0.22810976
45	0x3e65d70d	0.22445317
46	0x3d42eb7c	0.047587857
47	0x3dd5ebbe	0.10445355
48	0x3e68d486	0.22737321
49	0xbe1ae38c	-0.15125865
50	0xbdd850e4	-0.10562304
51	0x3e606aef	0.21915792
52	0xbc8ed082	-0.017433409
53	0xbe4edc45	-0.20201214
54	0xbdcffb5b	-0.10155364
55	0xbd9aeec1	-0.0756507
56	0xbe1321eb	-0.14368407
57	0x3d2f515e	0.042802207
58	0x3e6d5cf9	0.23179998
59	0x3e4995d2	0.19686058
60	0xbe676ab8	-0.22599304
61	0x3e2d24c2	0.16908553
62	0xbdd3e242	-0.1034589
63	0xbe2a81b6	-0.16651043
64	0xbdd83508	-0.1055699
65	0xbe613e13	-0.21996336
66	0x3e0195d3	0.1265481
67	0xbe661a89	-0.2247106
68	0xbe3a9d95	-0.18224175
69	0xbdec1171	-0.11526764
70	0x3d04e4d7	0.0324448
71	0xbe27e770	-0.1639688
72	0xbd42e29a	-0.047579385
73	0xbca5c665	-0.020236203
74	0x3cee842f	0.029115764
75	0xbdc0bb0c	-0.09410676
76	0xbe416b0b	-0.1888849
77	0xbd748825	-0.05970015
78	0xbe0460d9	-0.1292757
79	0x3c593069	0.013256171
80	0x3d2a0857	0.04151186
81	0x3e5e25c1	0.2169409
82	0xbe32ec6e	-0.17473003
83	0xbe031e6e	-0.12804577
84	0x3e5afd16	0.21385607
85	0x3e68dd17	0.22740589
86	0xbe55c205	-0.20874794
87	0x3e26cfea	0.1629025
88	0xbccb2498	-0.024797723
89	0x3e506020	0.20349169
90	0xbdb25ba2	-0.08708884
91	0x3e599938	0.21249855
92	0x3e093afc	0.13401407
93	0xbe4f68cc	-0.2025482
94	0x3e29cfcd	0.16583176
95	0xbe189f6d	-0.14904566
96	0xbd77a1b8	-0.06045696
97	0x3d78a05c	0.060699806
98	0x3d846fa2	0.06466605
99	0xbe5e99e2	-0.21738389
100	0xbdcdf344	-0.10056165
101	0x3e4a3504	0.19746786
102	0x3e4bd981	0.1990719
103	0xbb64df09	-0.0034922978
104	0x3e1b83e7	0.15187036
105	0xbd4722c2	-0.048617132
106	0xbd62ab41	-0.0553391
107	0xbd1f3489	-0.03886846
108	0xbd9f884e	-0.0778967
109	0x3d97e57a	0.07416816
110	0xbe389fb6	-0.18029675
111	0xbe15fffc	-0.14648432
112	0xbd0a823a	-0.0338156
113	0x3b405728	0.0029348824
114	0x3e50fb29	0.2040831
115	0x3d0aad8f	0.033856925
116	0xbce5779c	-0.028011136
117	0x3dcab707	0.09898191
118	0x3de149b7	0.11000388
119	0x3e3b9d59	0.18321742
120	0x3e60e75b	0.21963255
121	0x3e234726	0.1594511
122	0x3bf08a85	0.0073407316
123	0xbb8f005c	-0.0043640565
124	0x3e6b8d9b	0.23003237
125	0xbe460d7d	-0.19341083
126	0x3e4ad18f	0.19806503
127	0xbe6c7dc5	-0.23094852
128	0x3e15d412	0.1463168
129	0x3e40dcbc	0.18834203
130	0xba23376e	-0.0006226216
131	0x3e145735	0.14486392
132	0xbe47bb33	-0.19505005
133	0x3e25684b	0.16153066
134	0x3e489b38	0.19590461
135	0x3d156885	0.03647663
136	0x3d90aac7	0.07063823
137	0xbdf18c59	-0.11794347
138	0xbe44ee0e	-0.19231436
139	0x3aee4b10	0.0018180329
140	0x3e118a3e	0.14212891
141	0xbd150c12	-0.036388464
142	0x3e3b5db7	0.18297468
143	0x3dcfa177	0.10138219
144	0x3ccd2abe	0.025044795
145	0xbe64eda4	-0.22356278
146	0xbe1aa226	-0.15100917
147	0xbde4f282	-0.11179067
148	0xbe4d9a78	-0.20078456
149	0xbe513dfc	-0.20433801
150	0xbdacf02b	-0.08444246
151	0xbe0c56dc	-0.13705009
152	0xbe677094	-0.22601539
153	0x3c3506b2	0.01104896
154	0xbe410e43	-0.18853097
155	0xbe3c19ee	-0.18369266
156	0x3bb52c04	0.0055289287
157	0xbe19928e	-0.14997312
158	0xbd21c812	-0.039497443
159	0x3e445280	0.19172096
160	0x3ddc286a	0.10749896
161	0x3a61746e	0.0008600418
162	0x3df8a8fb	0.121416055
163	0xbe1f9725	-0.15585001
164	0x3dd4b368	0.103857815
165	0x3e4a4f54	0.19756824
166	0x3e47fcde	0.19530055
167	0xbe06d289	-0.1316625
168	0xbe2c2546	-0.16811094
169	0xbd96824d	-0.07349072
170	0xbd46137f	-0.048358437
171	0x3e363f6d	0.17797633
172	0xbd4025a8	-0.04691091
173	0x3c5ea3b4	0.013588835
174	0xbd9dc64a	-0.07703836
175	0x3e4a2f90	0.19744706
176	0x3daa6160	0.08319354
177	0x3c8b720f	0.01702216
178	0x3cae3220	0.021264136
179	0x3c73ed52	0.014888125
180	0xbe4e24ae	-0.2013118
181	0xbc31fec2	-0.010863962
182	0x3bdf8b91	0.0068220575
183	0x3e144467	0.14479218
184	0x3d9775d5	0.073955216
185	0xbd43f349	-0.047839437
186	0x3dc6aaef	0.09700572
187	0xbd4d805e	-0.05017125
188	0x3e6b0201	0.22949983
189	0x3e393926	0.18088207
190	0x3d955841	0.07292224
191	0xbd6d5c78	-0.057949513
192	0x3e0f3418	0.13984716
193	0x3e23c674	0.15993673
194	0x3deca79d	0.11555407
195	0xbd772689	-0.060339484
196	0xbd8daac2	-0.06917335
197	0x3db1d8ea	0.08683951
198	0xbe41f94c	-0.18942755
199	0xbe436fe8	-0.19085658
200	0xbd292ecb	-0.04130439
201	0x3e0d9f07	0.13830195
202	0x3e2c02f2	0.16797999
203	0x3d94d026	0.07266264
204	0x3e2e38a3	0.17013793
205	0x3dbc0a59	0.09181661
206	0xbdad9b46	-0.08476882
207	0x3d52592d	0.051354576
208	0xbd93d67d	-0.07218645
209	0x3e22f783	0.1591473
210	0x3d0662ed	0.032809187
211	0x3e287e87	0.16454516
212	0xbd2da6cd	-0.0423954
213	0x3e221dec	0.15831727
214	0xbdf5e600	-0.1200676
215	0x3e38fba3	0.18064742
216	0xbbde9d1a	-0.0067936303
217	0xbe414c1c	-0.1887669
218	0x3e3e3a5c	0.1857695
219	0x39c1ea4d	0.00036986396
220	0x3dce86ff	0.10084342
221	0x3e131deb	0.14366882
222	0xbd8ef41c	-0.06980154
223	0x3e45d54a	0.19319645
224	0xb99726f3	-0.00028829984
225	0xbe11c684	-0.14235884
226	0x3dc51dcf	0.09624826
227	0xbda294b3	-0.079385184
228	0xbe625a6f	-0.2210481
229	0xbd6293d4	-0.05531676
230	0x3e495de6	0.19664726
231	0xbe5032bf	-0.20331858
232	0xbe6b3864	-0.2297073
233	0xbc8569e3	-0.016285842
234	0xbdc88c35	-0.09792367
235	0xbe1f8b08	-0.1558038
236	0xbe5b9e09	-0.21447004
237	0xbc15f596	-0.0091527905
238	0x3ad66866	0.0016358017
239	0x3db58977	0.0886411
240	0xbe379224	-0.17926842
241	0x3e4b79fb	0.1987075
242	0xbd5c9d48	-0.053860933
243	0x3e4ce683	0.20009808
244	0x3e4b80a2	0.19873288
245	0x3e30ee92	0.17278507
246	0x3e2eda15	0.17075379
247	0xbe514bba	-0.20439044
248	0xbe2b5477	-0.1673144
249	0x3e0d9655	0.13826878
250	0x3dc4c42e	0.09607731
251	0x3dac0e18	0.08401126
252	0x3d90a8f1	0.07063473
253	0xbda0b0db	-0.078462325
254	0xbc7250c1	-0.014789761
255	0xbd9f3f9c	-0.077758044

self_attention_players.value_projection.bias f4 [18]
0	0xbe0e91ad	-0.13922758
1	0x3d2a874d	0.04163294
2	0xbe6c0b1e	-0.23051116
3	0x3c98edb3	0.018668031
4	0xbe4db0f5	-0.20087035
5	0xbe2c696d	-0.16837092
6	0x3d6229de	0.05521571
7	0xbc86916d	-0.016426766
8	0xbdaab12f	-0.08334576
9	0xbe00dea9	-0.12584938
10	0x3daf1e4a	0.08550699
11	0x3da0d339	0.078527875
12	0x3e22ed4e	0.15910837
13	0x3e6d2e6c	0.2316224
14	0x3e487a5e	0.1957793
15	0x3dc2e849	0.09516961
16	0xbdb6dfac	-0.08929381
17	0xbde19afc	-0.11015889

self_attention_players.output_projection.weight f4 [18, 18]
0	0x3e126838	0.14297569
1	0xbe025357	-0.12727104
2	0xbd7187bc	-0.058967337
3	0x3bdce59f	0.00674124
4	0x3c1e81c5	0.009674494
5	0x3e14485d	0.1448073
6	0xbe3362bf	-0.17518137
7	0xbdc6babb	-0.09703585
8	0xbe0ea5ce	-0.13930437
9	0x3e192e4e	0.1495907
10	0xbe292d0a	-0.16521087
11	0x3e4b9785	0.19882019
12	0x3e026690	0.12734437
13	0x3d75fc10	0.06005484
14	0x3e57072a	0.20998827
15	0xbe5a0955	-0.21292622
16	0xbe21ee10	-0.1581347
17	0x3d6fb68f	0.05852371
18	0x3e1c7429	0.15278687
19	0xbdce02a9	-0.10059101
20	0xbe2bcdfc	-0.16777796
21	0x3e1b56de	0.15169856
22	0xbe1946cf	-0.14968418
23	0xbe089945	-0.13339718
24	0x3dbb64ce	0.09150086
25	0x3d5e8d6f	0.0543341
26	0xbc1268c3	-0.00893611
27	0x3dc15c3d	0.09441421
28	0xbe70d522	-0.23518804
29	0x3e2c54d2	0.16829231
30	0x3e43f901	0.19137956
31	0x3e2d4b0d	0.16923161
32	0xbdc9eb50	-0.098593354
33	0x3e1117de	0.14169261
34	0x3dfbbe0e	0.122921094
35	0x3e3771df	0.17914532
36	0x3dd4004e	0.103516206
37	0x3e5f80cb	0.21826474
38	0xbd30c6b4	-0.043158248
39	0x3e12a520	0.14320803
40	0x3d4e77eb	0.05040733
41	0xbe014df9	-0.126274
42	0x3e105f1e	0.14098784
43	0xbdec13ff	-0.115272515
44	0x3e44a35d	0.19202943
45	0xbd239415	-0.039936144
46	0x3e0c3f73	0.13696079
47	0x3def4111	0.11682332
48	0xbc92c243	-0.017914897
49	0x3dbee3a6	0.09320764
50	0x3e0fcb1a	0.14042321
51	0x3d3a1cf0	0.045437753
52	0xbd0e05d6	-0.034673534
53	0xbd72c48a	-0.059269466
54	0xbd0200cd	-0.031739045
55	0x3e0cac34	0.13737565
56	0xba7cbf9b	-0.00096415885
57	0x3dbb1a97	0.09135931
58	0x3e191986	0.14951143
59	0xbe467ebc	-0.19384283
60	0x3e6d852b	0.23195331
61	0xbe21ff2c	-0.15819997
62	0xbb8a2499	-0.0042157886
63	0x3daa3af3	0.08312025
64	0x3d523dea	0.051328577
65	0xbe0eb856	-0.13937506
66	0x3e53d008	0.20684826
67	0x3df138e7	0.117784314
68	0xbd9e2ca9	-0.07723362
69	0x3e53206e	0.2061784
70	0x3bce5bd2	0.006297567
71	0x3e6b0833	0.22952347
72	0xbe158ce4	-0.14604527
73	0x3cc8c0a6	0.024505924
74	0x3dbebb52	0.09313072
75	0x3dc7ca7e	0.09755419
76	0xbdaa787b	-0.08323761
77	0x3af014de	0.0018316766
78	0x3e3cb369	0.18427815
79	0x3ce5b956	0.028042477
80	0x3e5d12ed	0.21589251
81	0xbd92c443	-0.0716634
82	0x3e12a35a	0.14320126
83	0x3e423447	0.18965255
84	0x3e0c6a03	0.13712315
85	0x3e07872e	0.1323516
86	0x3e15beec	0.14623612
87	0xbe552d3d	-0.20818038
88	0xbd4a04a0	-0.049320817
89	0xbda11410	-0.07865155
90	0x3dae046f	0.084969394
91	0x3e4c7892	0.19967869
92	0x3e46c3df	0.19410656
93	0xbd7709fd	-0.06031226
94	0xbdb66343	-0.089056514
95	0x3e2ccb54	0.16874439
96	0x3e41bead	0.18920393
97	0x3e00f145	0.12592037
98	0xbe0f71c1	-0.14008237
99	0x3db49214	0.08816925
100	0xbcb3bd87	-0.02194096
101	0xbdb43fa9	-0.08801205
102	0x3cd15f19	0.025558041
103	0xbdc80b09	-0.0976773
104	0x3e0c0165	0.13672407
105	0xbdabd4a0	-0.083901644
106	0x3d61c164	0.055116072
107	0x3e6a5c43	0.22886758
108	0xbdcc44d6	-0.09974067
109	0x3e58288f	0.21109222
110	0x3d7ea40b	0.062168162
111	0x3e4b4f71	0.19854523
112	0x3dffb5ae	0.124858245
113	0xbcb9148e	-0.022592809
114	0x3d67375c	0.05644928
115	0x3e43e3e9	0.1912991
116	0x3d996f23	0.07491901
117	0xbdc571d9	-0.09640855
118	0x3e0bfa00	0.13669586
119	0x3cc3476a	0.023837764
120	0xbe1f332a	-0.15546861
121	0xbe4e063a	-0.20119563
122	0x3d420f78	0.047378033
123	0x3e19bf93	0.15014486
124	0xbe42382a	-0.18966737
125	0x3e59344f	0.2121136
126	0xbcc3daf6	-0.02390812
127	0x3da9b103	0.082857154
128	0xbaaa2057	-0.0012979609
129	0xbe3ba381	-0.1832409
130	0x3c946aff	0.018117426
131	0x3dd4cea7	0.10390978
132	0xbe60b50b	-0.21944062
133	0x3c8ed4c5	0.01743544
134	0xbe0060ae	-0.1253688
135	0xbe120d1e	-0.14262816
136	0xbdd8ed1d	-0.10592101
137	0xbd6b0108	-0.05737403
138	0xbd8495cd	-0.06473885
139	0xbe340adc	-0.17582268
140	0xbc789475	-0.015172114
141	0xbd64b6dc	-0.05583845
142	0xbe3538f5	-0.17697509
143	0x3dc566e8	0.096387684
144	0xbb6c196f	-0.0036025902
145	0xbe5ab00d	-0.2135622
146	0x3cfe0b2c	0.031011187
147	0x3d085e79	0.03329322
148	0x3e267760	0.16256475
149	0xbe079f0d	-0.13244267
150	0xbe3ac64d	-0.18239708
151	0xbe0c3443	-0.13691811
152	0xbc5d2c18	-0.013499282
153	0x3dc8489c	0.09779474
154	0xbc737c2c	-0.014861148
155	0x3e1eb5b4	0.15499002
156	0x3e5ba0a6	0.21448001
157	0x3e04e53d	0.12978072
158	0xbe351bed	-0.17686434
159	0xbe5bf32f	-0.21479486
160	0xbd897746	-0.06712203
161	0x3e4aa459	0.19789256
162	0x3dbb5374	0.09146777
163	0xbcd96a10	-0.026539832
164	0xbe295b49	-0.16538729
165	0x3e2dcf3f	0.1697359
166	0xbe2a1d55	-0.16612752
167	0xbd38b10a	-0.045090713
168	0xbe496574	-0.19667608
169	0xbd9fa58f	-0.0779525
170	0x3e6cc994	0.23123771
171	0x3e56a41b	0.20961039
172	0x3dfee1e0	0.12445426
173	0xbd32e6d2	-0.04367716
174	0xbe4da923	-0.20084052
175	0x3c950920	0.018192828
176	0xbdad9daa	-0.08477338
177	0xbde1d672	-0.1102723
178	0xbd206191	-0.039155547
179	0xbe0f949d	-0.14021535
180	0xbe5d282c	-0.21597356
181	0xbe2c625b	-0.16834395
182	0xbe3aeed2	-0.18255165
183	0x3cdbe129	0.026840763
184	0x3e16c52c	0.14723653
185	0xbd3507c3	-0.044196855
186	0x3e551e09	0.20812239
187	0x3e352bac	0.17692441
188	0x3d1d7b4c	0.038447663
189	0x3e3eadae	0.18620941
190	0x3df70301	0.1206112
191	0x3c8d6bf7	0.017263396
192	0x3e56a1e7	0.20960198
193	0x3ce848ea	0.02835508
194	0x3db214a6	0.086953446
195	0xbde7778b	-0.11302098
196	0x3e413e6e	0.18871471
197	0x3e2ac8e4	0.16678196
198	0x3dbe4322	0.09290148
199	0x3cf9f577	0.030512555
200	0x3c8accc4	0.016943343
201	0x3e590aa4	0.21195465
202	0x3dc31c75	0.09526912
203	0xbe4b39ff	-0.19846343
204	0x3e2e2744	0.17007166
205	0x3e5aabee	0.21354648
206	0x3dd151c7	0.10220676
207	0xbe46a702	-0.19399646
208	0x3e50f974	0.20407659
209	0x3dd9e174	0.10638705
210	0x3d6787ec	0.05652611
211	0xbe3ef63e	-0.18648621
212	0xbe70c10b	-0.2351114
213	0x3e1df288	0.1542455
214	0xbe45b6f9	-0.1930808
215	0x3df3582d	0.118820526
216	0xbe6df5c5	-0.23238285
217	0xbe133137	-0.14374243
218	0xbe290d17	-0.165089
219	0x3dfd063c	0.12354705
220	0xbd65a69f	-0.056067105
221	0x3e076a8e	0.13224241
222	0x3db1e5e9	0.0868643
223	0x3e231252	0.15924957
224	0x3db7edd1	0.08980907
225	0x3e4642a0	0.19361353
226	0xbe10dcd4	-0.14146739
227	0x3e3b22be	0.18274972
228	0xbe583364	-0.21113354
229	0xbe283edc	-0.16430229
230	0xbe43baaa	-0.19114175
231	0x3e1aac00	0.15104675
232	0xbda538e8	-0.08067495
233	0xbc94a791	-0.018146308
234	0x3cc1e724	0.023669787
235	0xbdf0edd3	-0.11764111
236	0xbd006784	-0.03134872
237	0xbc5bcbfd	-0.013415334
238	0x3da32f59	0.07968015
239	0xbd7ba936	-0.06144067
240	0x3d729989	0.059228454
241	0xbe306f1b	-0.17229883
242	0x3e5e3097	0.21698223
243	0xbe23cebe	-0.15996835
244	0x3e33b563	0.17549662
245	0xbd79b3bd	-0.060962427
246	0x3bb51223	0.0055258437
247	0xbe2267aa	-0.15859857
248	0xbe2e5a28	-0.1702658
249	0xbd130cb1	-0.035900775
250	0xbc8ab702	-0.016932968
251	0xbdfd8898	-0.12379569
252	0xbdf997e9	-0.12187178
253	0x3dd8a083	0.1057749
254	0xbe60db80	-0.21958733
255	0xbe04f58f	-0.12984298

self_attention_players.output_projection.bias f4 [18]
0	0x3dcef7ab	0.10105833
1	0x3e52776d	0.2055337
2	0x3d636a2d	0.05552118
3	0x3e1de83c	0.15420622
4	0x3e65bb33	0.22434692
5	0x3e30a7d5	0.17251523
6	0xbd9f2393	-0.07770457
7	0xbe1439de	-0.144752
8	0xbe74337a	-0.23847762
9	0xbe627a8c	-0.2211706
10	0x3e6bc09e	0.23022696
11	0x3e6dc4b2	0.23219565
12	0x3e56749d	0.20942922
13	0xbd92d297	-0.07169073
14	0xbce51221	-0.027962746
15	0xbe343630	-0.17598796
16	0xbe2f03fe	-0.17091367
17	0xbde3573d	-0.11100624

fc.weight f4 [63, 126]
0	0xbd25c394	-0.04046972
1	0xbda22ac3	-0.079183124
2	0xbd26c21e	-0.04071247
3	0x3d4a4ecc	0.049391553
4	0x3c5ddfd2	0.013542132
5	0xbd93de30	-0.07220113
6	0x3bf35df5	0.007426972
7	0x3c314da8	0.010821737
8	0x3d577bc7	0.052608278
9	0x3db5d750	0.08878958
10	0x3d3960f4	0.045258477
11	0x3c46cb51	0.012133435
12	0x3d716125	0.058930535
13	0xbce2d54b	-0.027689597
14	0xbd97d274	-0.074131876
15	0x3ca89d00	0.020582676
16	0x3cff1e05	0.031142244
17	0x3c1e3d82	0.009658219
18	0x3b451bf3	0.0030076473
19	0x3d7f36da	0.06230817
20	0xbcc97852	-0.024593506
21	0xbd3d98bc	-0.046288237
22	0x3da1984c	0.078903764
23	0x3da0e70c	0.07856569
24	0x3d901220	0.07034707
25	0x3db2de92	0.08733858
26	0x3c4f57dc	0.012655225
27	0x3cf2f4bc	0.029657714
28	0x3ce9985d	0.028515035
29	0xbda357fe	-0.079757676
30	0xbd529182	-0.0514083
31	0x3b80bbf4	0.0039286558
32	0x3cd5103c	0.026008718
33	0x3d6b8d36	0.057507716
34	0xbda86894	-0.08223072
35	0x3c633d54	0.013869602
36	0xbc51b25a	-0.01279887
37	0xbd8a22f9	-0.06744952
38	0x3d8d3fb1	0.06896914
39	0xbcdc4541	-0.026888492
40	0x3d97e7fa	0.07417293
41	0xbd863a3b	-0.06554075
42	0x3cc80aae	0.024419155
43	0xbc26d1bc	-0.0101818405
44	0xbb2bfd1d	-0.0026243397
45	0x3d51f6ca	0.051260747
46	0xbdb7dfa1	-0.08978201
47	0x3db258da	0.08708353
48	0x3b26c696	0.0025447956
49	0xbd747ee5	-0.05969133
50	0xbd1007de	-0.035163753
51	0xbcdd5174	-0.027016379
52	0x3b9d9a6a	0.0048096674
53	0x3cf7455c	0.03018444
54	0x3d86cea8	0.06582385
55	0x3bb32236	0.0054667247
56	0xbd8f41ab	-0.06994947
57	0xbc817f91	-0.015807899
58	0x3d92ab9b	0.071616374
59	0x3da68adc	0.08131954
60	0xbd2e65fa	-0.04257772
61	0x3cd49062	0.025947753
62	0x3d8ee486	0.06977181
63	0xbcd3e97f	-0.025868176
64	0xbd929609	-0.07157523
65	0x3d869705	0.065717734
66	0xbd563832	-0.052299686
67	0x3ca95e21	0.020674767
68	0xbce40dfd	-0.027838701
69	0xbd039ff4	-0.032134965
70	0xbd94f1d5	-0.07272688
71	0xbd03d78d	-0.032187987
72	0xbd0250cc	-0.031815335
73	0x3d001041	0.0312655
74	0x3d56720b	0.052354854
75	0xbdae3fc4	-0.08508256
76	0x3d08421e	0.03326618
77	0xbcc72e0c	-0.024313949
78	0xbacb18ee	-0.00154951
79	0xbd589b44	-0.052882448
80	0x3d242952	0.04007847
81	0xbd800709	-0.06251342
82	0x3d4ef647	0.050527837
83	0xbd0c2548	-0.03421524
84	0xbc9def34	-0.0192791
85	0x3d52c0e5	0.05145349
86	0x3db21208	0.086948454
87	0x3daf2170	0.085512996
88	0xbd3af2cd	-0.04564171
89	0xbd88a934	-0.06672898
90	0x3cc04f13	0.023475206
91	0xbda32bbf	-0.07967328
92	0xbdb5c464	-0.08875349
93	0x3a1c12a3	0.0005953705
94	0xb9baf30a	-0.00035657763
95	0x3d1b76af	0.037954982
96	0x3d3e1f28	0.04641643
97	0x3ce19586	0.027537119
98	0x3d49a2be	0.04922747
99	0x3c877868	0.016536906
100	0xbcc0565a	-0.023478676
101	0xbd0d523a	-0.034502245
102	0xbc0d6aa4	-0.008631382
103	0xbd8b1ad5	-0.06792227
104	0xbd2758bf	-0.04085612
105	0xbd371cb8	-0.044705123
106	0xbd6717d1	-0.056419197
107	0xbc9ee1af	-0.019394724
108	0x3d607d44	0.054806963
109	0x3daed3e5	0.085365094
110	0xbdaa167c	-0.0830507
111	0x3d5f5b68	0.05453053
112	0xbc4e3062	-0.012584778
113	0x3d336ed0	0.04380685
114	0xbd45c340	-0.048281908
115	0xbc949ade	-0.018140253
116	0x3da41c3a	0.08013196
117	0xbd145569	-0.036214266
118	0xbc6352e6	-0.013874745
119	0xbd6dbd00	-0.058041573
120	0x3d80c511	0.062875874
121	0x3d512cee	0.05106824
122	0x3d0fe97e	0.035134785
123	0x3da2a5d0	0.079417825
124	0xbd1d8da7	-0.03846517
125	0x3ca1217a	0.019669283
126	0xbab63314	-0.001390072
127	0xbd5519b5	-0.05202647
128	0xbd1e8de1	-0.038709525
129	0xbc3c4c96	-0.011492869
130	0xbd8e4edd	-0.06948636
131	0x3d0fb0cf	0.035080727
132	0xbce7d93d	-0.02830183
133	0xbd303cba	-0.043026663
134	0x3d67ddb6	0.056607924
135	0x3cb9ff2a	0.02270468
136	0xbd19b3db	-0.03752504
137	0xbd5e2fdb	-0.054244857
138	0xbdb0f736	-0.08640902
139	0xbd81db7f	-0.06340694
140	0xbda03293	-0.07822146
141	0x3d861a80	0.06548023
142	0xbd6dad74	-0.058026746
143	0xbcb8a2db	-0.022538593
144	0xbcd886aa	-0.0264314
145	0xbd6b8ba5	-0.057506222
146	0x3caaaecf	0.020835308
147	0x3c75f04e	0.015010906
148	0x3d0e523b	0.03474639
149	0xbbf04320	-0.0073322207
150	0xbdacf5a1	-0.084452875
151	0x3b4f9bb5	0.0031678502
152	0xbd4bf2a9	-0.049791966
153	0x3cf23c18	0.02956967
154	0x3bbf8ed7	0.0058458853
155	0xbd6c3b27	-0.0576736
156	0xbdaa2ef8	-0.0830974
157	0xbd852f5a	-0.06503172
158	0x3c3c21f0	0.011482701
159	0x3d826cdf	0.06368422
160	0xbd58963e	-0.052877657
161	0xbdb4b7fe	-0.08824156
162	0xbcede9e5	-0.029042194
163	0x3d8eaa4b	0.069660746
164	0xbd0a3956	-0.033746086
165	0x3db1c616	0.0868036
166	0xbcc19342	-0.023629788
167	0x3d8855c6	0.06656985
168	0x3cc46cd4	0.023977675
169	0x3d917345	0.07102064
170	0xbdb2f8f3	-0.087388895
171	0x3d5465d1	0.051854912
172	0xbda0ee99	-0.07858009
173	0xbc12430d	-0.008927119
174	0xbda8c9d6	-0.08241622
175	0xbda3c0e1	-0.07995773
176	0xbd3d8f59	-0.046279285
177	0xbd76b5e0	-0.060232043
178	0x3d0fea55	0.035135586
179	0x3d48d447	0.04903057
180	0xbd83b851	-0.0643164
181	0xbd56cb79	-0.05244014
182	0x3d07d7a9	0.033164654
183	0xbc4f7a6b	-0.012663464
184	0xbcdc668d	-0.026904369
185	0xbd2d0c45	-0.04224803
186	0x3d80db9f	0.062918894
187	0xbc1d8d92	-0.0096162725
188	0xbd606b22	-0.05478967
189	0x3d9d59b7	0.076831274
190	0xbd14b382	-0.036304004
191	0x3d21eb40	0.039530993
192	0xbd7cea3c	-0.06174682
193	0xbbb08c32	-0.0053878063
194	0x3d42f77a	0.047599293
195	0x3b1f3a00	0.0024296045
196	0x3db32e45	0.087490596
197	0x3d6cd657	0.057821598
198	0x3d9a0ac1	0.075215824
199	0x3d756d34	0.059918597
200	0x3d19e524	0.03757204
201	0xbd98a114	-0.07452598
202	0xbd294e1c	-0.041334257
203	0x3d7583ab	0.05994002
204	0x3daeb8b5	0.08531324
205	0xbce899f8	-0.02839373
206	0x3d8f03fa	0.0698318
207	0xbd43ab91	-0.04777104
208	0x3daa5b68	0.083182156
209	0x3d9ece3f	0.07754182
210	0x3da57ea0	0.080807924
211	0x3ccd4729	0.025058346
212	0x3d46b2a4	0.04851021
213	0x3c96663b	0.018359294
214	0xbdbbd273	-0.091709994
215	0xbc001980	-0.00781858
216	0x3d7fe648	0.062475473
217	0xbd4a0a05	-0.04932596
218	0x3d73a37b	0.05948208
219	0x3d82208b	0.06353863
220	0x3d6bc41b	0.057560068
221	0x3d5c7b28	0.05382839
222	0xbd07429b	-0.033022504
223	0xbd55db56	-0.05221113
224	0x3d7da2a9	0.061922703
225	0xbc923d5e	-0.017851528
226	0x3d1325a5	0.035924572
227	0xbcdff9c6	-0.027340781
228	0xbd14fb73	-0.036372613
229	0xbcbd2bf3	-0.023092246
230	0x3ae93e02	0.0017794969
231	0x3cbca768	0.023029044
232	0x3c793093	0.015209335
233	0x3cddedd1	0.027090939
234	0xbd74fdba	-0.059812285
235	0xbd556040	-0.052093744
236	0x3d0af772	0.03392739
237	0x3d6215aa	0.05519644
238	0x3d8a0e9f	0.0674107
239	0x3d7c7479	0.061634514
240	0xbcf24cfc	-0.029577725
241	0x3d4c5f74	0.04989572
242	0xbced9bd1	-0.029004963
243	0xbd56545f	-0.052326556
244	0xbcb00546	-0.02148689
245	0xbd0d53d8	-0.034503788
246	0xbd865a2c	-0.06560168
247	0xbd0ee3a4	-0.034885064
248	0x3cb29fa1	0.021804633
249	0xbd6db3d7	-0.058032837
250	0xbd264c8d	-0.04060035
251	0xbcfe2cba	-0.031027187
252	0xbca1013a	-0.019653905
253	0xbc8ab77c	-0.016933195
254	0xbbd01c7b	-0.0063510514
255	0x3d09fdbc	0.033689246
