d2calcbot/main/calc_bot/actual_models/dota_model_ver1_9.pth (torch, 48038 bytes, 23 tensors)

branch_t.fc1.weight f4 [9, 9]
0.14811756 -0.22229064 0.24509645 0.09867253 0.02096123 0.016292946 0.031767398 0.27946818
-0.109476656 -0.18573937 -0.12442198 -0.12224559 -0.0056503424 -0.13256174 0.27252567 -0.09809368
0.101828516 0.039177485 -0.008330784 0.13776414 0.25404721 0.14333013 0.1697451 -0.17273033
-0.0864193 0.013071994 -0.2087406 -0.26448414 0.24156673 0.21713486 0.038736913 0.026160987
0.1481281 0.26368618 -0.08669312 -0.0662712 0.23712008 -0.2673978 0.0008723061 0.06736801
0.07901207 -0.27355734 -0.27116686 -0.2581482 -0.2760136 0.028325517 -0.085717425 0.07826633
-0.30539975 -0.16438897 -0.22254372 0.049588107 -0.08641975 0.30918816 -0.15630238 -0.069277
0.10812646 0.10454827 -0.30071935 0.13813373 0.31182837 0.31975433 0.06746384 0.282019
-0.30048436 0.039707832 -0.3245484 -0.051433116 0.12478092 -0.15295075 -0.22805765 0.18834434
-0.05978241 0.0785495 0.32086715 -0.1521646 -0.15519962 -0.027092848 0.2341761 -0.19150667
0.05149226
00000000: 21ac 173e 28a0 63be 90fa 7a3e d314 ca3d
00000010: e3b6 ab3c c978 853c 881e 023d 7416 8f3e
00000020: 4c35 e0bd 7632 3ebe f3d0 febd e55b fabd
00000030: 8226 b9bb 44be 07be 7c88 8b3e 57e5 c8bd
00000040: 788b d03d 9278 203d d77d 08bc 0b12 0d3e
00000050: 7a12 823e 22c5 123e a9d1 2d3e 38e0 30be
00000060: 9afc b0bd eb2b 563c 19c0 55be 776a 87be
00000070: 455d 773e 9a58 5e3e 99aa 1e3d 914f d63c
00000080: e5ae 173e e001 873e 2a8c b1bd 32b9 87bd
00000090: 9bcf 723e 5de8 88be 79ab 643a 3df8 893d
000000a0: 15d1 a13d b50f 8cbe 62d6 8abe 002c 84be
000000b0: a851 8dbe ea0a e83c 9e8c afbd 194a a03d
000000c0: 5b5d 9cbe 9555 28be 80e2 63be e61c 4b3d
000000d0: d6fc b0bd e94d 9e3e bb0d 20be 1ae1 8dbd
000000e0: 6871 dd3d 671d d63d e3f7 99be ee72 0d3e
000000f0: f8a7 9f3e d7b6 a33e 7b2a 8a3d cb64 903e
00000100: 16d9 99be aea4 223d 352b a6be 88ab 52bd
00000110: 248d ff3d 1f9f 1cbe f287 69be 57dd 403e
00000120: 66de 74bd 8fde a03d b348 a43e 09d1 1bbe
00000130: a6ec 1ebe d2f1 ddbc dccb 6f3e 531a 44be
00000140: 8ce9 523d

branch_t.fc1.bias f4 [9]
-0.20186162 0.11687111 -0.17063375 0.32380772 -0.08949376 -0.28359604 -0.1603751 -0.06669403
-0.006525017
00000000: d0b4 4ebe 1f5a ef3d 9dba 2ebe 20ca a53e
00000010: 8148 b7bd 8033 91be 5f39 24be e196 88bd
00000020: cfcf d5bb

branch_t.fc2.weight f4 [9, 9]
-0.19998296 0.31900546 -0.10558756 0.12864581 0.040984396 -0.19139081 0.20338492 -0.23941906
-0.22470577 0.28883037 0.2932928 -0.2150196 -0.15444358 0.31085378 0.29587674 -0.21386479
0.21881792 -0.17789945 -0.06537914 0.19708316 0.16926157 0.12221544 -0.19313596 -0.024653945
0.2663372 -0.03032624 0.11560222 -0.15731338 0.3076847 -0.014469616 0.16469099 -0.19694133
-0.20974188 -0.19067714 0.12074375 -0.1850024 0.062463876 -0.25905386 -0.10766643 0.101323046
-0.31809655 -0.22850631 -0.29184356 -0.18011688 -0.02401078 0.0092554875 -0.19160156 -0.048649415
0.014722133 0.21697092 -0.30419794 -0.008773951 0.31712875 -0.08879272 0.3016 0.025647908
0.28002006 0.07385937 -0.030562418 -0.21219562 0.23293978 0.2819931 0.035903227 -0.24771635
-0.20528002 -0.06858761 0.1492005 -0.25850675 -0.11496235 0.10207455 0.106808715 -0.19287744
0.25619853 -0.25645655 0.104967296 -0.03268668 0.22311136 -0.13823164 0.07488671 0.20353334
0.111789435
00000000: 55c8 4cbe af54 a33e 4a3e d8bd babb 033e
00000010: 41df 273d f4fb 43be 2344 503e 452a 75be
00000020: 4519 66be 93e1 933e 792a 963e 192e 5cbe
00000030: 7526 1ebe 3a28 9f3e 287d 973e 5fff 5abe
00000040: ce11 603e 462b 36be 80e5 85bd 2bd0 493e
00000050: e852 2d3e 174c fa3d 6fc5 45be 12f7 c9bc
00000060: 595d 883e bc6e f8bc dbc0 ec3d c216 21be
00000070: d988 9d3e f811 6dbc c1a4 283e fdaa 49be
00000080: 93c6 56be de40 43be 8048 f73d 4571 3dbe
00000090: 1fda 7f3d b5a2 84be 3880 dcbd 7582 cf3d
000000a0: 8ddd a2be 8ffd 69be 856c 95be 8f70 38be
000000b0: 41b2 c4bc 54a4 173c 3333 44be 9c44 47bd
000000c0: 1a35 713c a02d 5e3e d5bf 9bbe 9ec0 0fbc
000000d0: b35e a23e f5d8 b5bd 516b 9a3e 901b d23c
000000e0: ca5e 8f3e 9543 973d 095e fabc cf49 59be
000000f0: c487 6e3e 6661 903e 430f 133d 5ba9 7dbe
00000100: ed34 52be a977 8cbd 04c8 183e ff5a 84be
00000110: 6171 ebbd 760c d13d 87be da3d aa81 45be
00000120: 742c 833e 464e 83be 18f9 d63d 78e2 05bd
00000130: 4e77 643e 988c 0dbe 345e 993d 0b6b 503e
00000140: dcf1 e43d

branch_t.fc2.bias f4 [9]
-0.12242063 0.09077062 0.32184914 -0.024802623 -0.009111703 -0.07208185 0.035297412 0.055835575
-0.2643072
00000000: abb7 fabd f2e5 b93d 69c9 a43e df2e cbbc
00000010: 4149 15bc a69f 93bd 0594 103d d8b3 643d
00000020: 4653 87be

branch_p.fc1.weight f4 [9, 9]
0.21438736 -0.12654713 -0.2622729 -0.29242408 -0.28329432 0.08070218 0.2533027 0.302208
0.29611865 -0.01718158 0.092305124 0.17678073 -0.05727804 -0.19848609 0.012431393 0.010565718
-0.14731404 0.22334133 -0.044316366 -0.02158849 -0.22363289 -0.0816209 0.21769138 -0.32529107
-0.15332776 -0.154967 -0.115099765 0.22370489 0.02041724 0.21903746 -0.1977569 0.26695946
0.30875698 0.019752968 0.102373086 0.1556144 -0.15947965 -0.056573275 -0.0023033507 0.0779705
-0.24440815 0.17756814 0.08711082 0.20075539 -0.29085895 -0.22294821 0.10577417 -0.27406603
0.13828887 -0.22872683 -0.01366364 -0.11104941 -0.12117717 0.11109542 0.26030898 -0.1411127
0.06660491 0.22989786 -0.07768314 0.3145037 -0.07837406 -0.13407835 0.22772916 -0.30170345
0.051142916 -0.036233857 -0.17769289 0.09847047 -0.18411247 0.18769859 0.17610526 0.124359734
0.13146964 -0.31763852 -0.095577806 -0.2814882 0.041151386 0.20289573 -0.13758457 -0.17917421
-0.03909752
00000000: 5c88 5b3e 9295 01be a248 86be 9cb8 95be
00000010: f40b 91be 2f47 a53d e4b0 813e 02bb 9a3e
00000020: dd9c 973e 63c0 8cbc 780a bd3d 0206 353e
00000030: 619c 6abd f03f 4bbe 0bad 4b3c d51b 2d3c
00000040: 7ed9 16be 97b3 643e 1485 35bd 58da b0bc
00000050: 0500 65be dc28 a7bd 7dea 5e3e 8d8c a6be
00000060: f401 1dbe abaf 1ebe 6db9 ebbd e512 653e
00000070: 0e42 a73c 5b4b 603e c980 4abe e9ae 883e
00000080: 6515 9e3e fad0 a13c fba8 d13d 6259 1f3e
00000090: a24e 23be 61b9 67bd d0f3 16bb ffae 9f3d
000000a0: 2146 7abe 6cd4 353e 2867 b23d d292 4d3e
000000b0: 77eb 94be 894c 64be 21a0 d83d 6252 8cbe
000000c0: 999b 0d3e 5e37 6abe 76dd 5fbc e06d e3bd
000000d0: bc2b f8bd ff85 e33d 3847 853e d97f 10be
000000e0: 2868 883d 586a 6b3e 5718 9fbd a106 a13e
000000f0: 9482 a0bd d64b 09be d531 693e e078 9abe
00000100: 3c7b 513d f469 14bd 20f5 35be e3aa c93d
00000110: fb87 3cbe 0f34 403e f054 343e 51b0 fe3d
00000120: fa9f 063e 84a1 a2be 4cbe c3bd 391f 90be
00000130: 5b8e 283d e6c3 4f3e f8e2 0cbe 7279 37be
00000140: b924 20bd

branch_p.fc1.bias f4 [9]
0.2209682 -0.08932739 0.14612028 -0.29529676 -0.2981475 0.13579579 0.20471247 -0.24399705
0.11325624
00000000: 7d45 623e 47f1 b6bd 8ea0 153e 2331 97be
00000010: caa6 98be 0d0e 0b3e 25a0 513e 5dda 79be
00000020: e3f2 e73d

branch_p.fc2.weight f4 [9, 9]
0.06958271 -0.034015127 -0.28697804 -0.2613245 0.17191887 0.082708985 0.013161025 -0.08590259
-0.31703278 0.2828035 0.14121425 0.089397036 -0.094841644 0.17455429 0.31653738 0.30432355
0.27221677 0.023469329 0.2965868 -0.0645093 0.20959699 -0.15395978 -0.26914507 -0.2910416
-0.2667146 0.14656593 0.020455902 0.25716156 0.23727788 -0.018884836 0.32745042 0.3070165
0.20824564 0.034106854 -0.22059274 -0.1372951 -0.15797499 -0.21199174 0.33286732 -0.13417096
0.14941785 0.09968978 0.10698915 -0.1273573 -0.12222059 -0.2038225 -0.060240813 -0.13987659
0.15204968 -0.26660648 0.026956037 0.081838846 0.013599957 0.28691506 0.062388625 0.133094
0.07772442 0.17413284 -0.23723361 -0.24628818 -0.28041753 -0.079139024 -0.13440126 -0.1975338
0.3227645 0.15220404 0.25279358 -0.16804552 -0.012452812 0.00768785 0.18455136 0.23059137
-0.28177583 0.1258044 -0.05959835 -0.09030839 -0.2881538 0.16556643 -0.21411897 0.18417768
-0.09922744
00000000: 6181 8e3d 7253 0bbd c9ee 92be 53cc 85be
00000010: 800b 303e 5463 a93d 57a1 573c b2ed afbd
00000020: 1f52 a2be 9fcb 903e 789a 103e cb15 b73d
00000030: 563c c2bd 5cbe 323e 3011 a23e 4cd0 9b3e
00000040: ff5f 8b3e c042 c03c 3ada 973e 741d 84bd
00000050: 98a0 563e a2a7 1dbe 62cd 89be 6803 95be
00000060: d18e 88be 6115 163e 2393 a73c aeaa 833e
00000070: f9f8 723e 5fb4 9abc 95a7 a73e 4431 9d3e
00000080: 583e 553e a1b3 0b3d 10e3 61be 1697 0cbe
00000090: 32c4 21be 5d14 59be 966d aa3e 1d64 09be
000000a0: fe00 193e 282a cc3d 211d db3d f469 02be
000000b0: ca4e fabd d8b6 50be 12bf 76bd cf3b 0fbe
000000c0: e9b2 1b3e a580 88be e8d2 dc3c 209b a73d
000000d0: 5bd2 5e3c 88e6 923e 378b 7f3d cb49 083e
000000e0: fb2d 9f3d e14f 323e 5eed 72be f832 7cbe
000000f0: e392 8fbe a413 a2bd 7ca0 09be 4d46 4abe
00000100: 6341 a53e 60db 1b3e 296e 813e 2014 2cbe
00000110: e106 4cbc 5cea fb3b 08fb 3c3e 2520 6c3e
00000120: ec44 90be ded2 003e 661d 74bd 9bf3 b8bd
00000130: e588 93be 3f8a 293e 0142 5bbe 1399 3c3e
00000140: c237 cbbd

branch_p.fc2.bias f4 [9]
-0.13608749 -0.12060776 0.03528494 0.017415877 -0.279028 -0.13403042 -0.16086562 -0.11302989
0.18312287
00000000: 855a 0bbe 3401 f7bd f186 103d beab 8e3c
00000010: c2dc 8ebe 453f 09be f5b9 24be 377c e7bd
00000020: 9084 3b3e

branch_h.fc1.weight f4 [9, 9]
-0.32035357 -0.10020638 -0.14263596 -0.1909744 0.16679932 0.20174906 0.08927948 0.15020421
0.31276217 0.22788791 -0.19850409 -0.2538371 0.16456227 -0.26842526 -0.05769738 -0.20456356
0.13164544 0.088089816 0.32430962 -0.13667788 0.19111775 -0.062122364 0.16863346 -0.28730607
0.010762101 -0.31074718 -0.14473405 -0.14595518 -0.19187035 0.02348836 0.1628411 -0.1828741
0.08527237 -0.025841914 0.17851934 0.31897473 0.049766835 0.05079377 0.21345924 -0.089945726
-0.105170265 0.28588828 0.05337571 0.1498493 0.26833394 0.22905691 0.20547949 -0.07400351
0.1853007 -0.20183545 -0.09291423 0.0084545035 -0.26566556 0.129433 -0.1961494 0.020045556
0.048317418 0.17100346 -0.29319075 -0.3076981 0.14832981 -0.11755784 0.2763895 -0.27767357
-0.11066126 0.0042771315 0.030092556 -0.12091711 -0.16803004 -0.12537576 -0.30046305 -0.16965735
-0.30151662 -0.0040059006 0.25303504 -0.046900637 0.28633168 0.01912309 0.24809091 -0.28778693
-0.26848006
00000000: 6205 a4be 0139 cdbd 290f 12be cb8e 43be
00000010: 71cd 2a3e 4e97 4e3e 29d8 b63d 22cf 193e
00000020: 5d22 a03e 735b 693e a844 4bbe f0f6 81be
00000030: 0383 283e 096f 89be 1754 6cbd 1c79 51be
00000040: 10ce 063e 6f68 b43d e90b a63e 49f5 0bbe
00000050: 5fb4 433e 0574 7ebd 40ae 2c3e c819 93be
00000060: 8653 303c 411a 9fbe 2a35 14be 4675 15be
00000070: a979 44be a96a c03c d1bf 263e 5943 3bbe
00000080: 48a3 ae3d 6cb2 d3bc c6cd 363e a850 a33e
00000090: 4fd8 4b3d 210d 503d 0f95 5a3e 7735 b8bd
000000a0: 8263 d7bd f35f 923e 7da0 5a3d 1872 193e
000000b0: 1163 893e e58d 6a3e 3769 523e 278f 97bd
000000c0: 77bf 3d3e f4ad 4ebe d149 bebd c284 0a3c
000000d0: 5105 88be 168a 043e 63db 48be 9436 a43c
000000e0: 7ce8 453d 881b 2f3e 191d 96be 9b8a 9dbe
000000f0: c5e3 173e 2ac2 f0bd ed82 8d3e 3b2b 8ebe
00000100: 5fa2 e2bd 2e27 8c3b aa84 f63c 64a3 f7bd
00000110: 1110 2cbe 8162 00be 4bd6 99be a8ba 2dbe
00000120: 6360 9abe ee43 83bb cf8d 813e e21a 40bd
00000130: 119a 923e 07a8 9c3c 8b0b 7e3e cf58 93be
00000140: 3876 89be

branch_h.fc1.bias f4 [9]
-0.27358207 -0.07286895 0.2565291 0.13725236 0.13220344 0.13663705 -0.18443732 -0.28057355
-0.2289252
00000000: f312 8cbe 513c 95bd c857 833e e28b 0c3e
00000010: 5760 073e 95ea 0b3e 23dd 3cbe 56a7 8fbe
00000020: 5e6b 6abe

branch_h.fc2.weight f4 [9, 9]
-0.1848027 0.24703681 -0.063865304 0.1340426 -0.11351939 -0.2892287 0.32943612 -0.2547191
0.0355882 -0.08259082 0.09647965 -0.09999923 -0.21919182 -0.329164 -0.21093434 -0.27966306
0.25333634 0.12027651 -0.2294804 -0.066676416 -0.22375719 -0.0026202095 -0.3290888 0.26018047
0.20854819 -0.13409626 0.09457938 0.32792965 -0.04827753 -0.14741197 -0.118866414 -0.30583668
-0.27500436 -0.28652307 -0.0995985 0.045017138 -0.2512782 -0.18695053 -0.23068984 0.024084937
0.016107935 -0.24899195 -0.26544616 0.036847226 0.25256267 0.27616057 0.26037848 -0.030710751
0.04477565 0.16364314 -0.091805 0.05908686 -0.18340525 0.010559652 -0.012102625 -0.048742283
-0.18615326 0.2000567 -0.06451681 -0.32870907 0.15594095 -0.2731019 -0.09471229 -0.21072343
-0.19422437 0.026224472 -0.28355303 -0.27030694 0.2935019 0.11571441 0.03805009 -0.116377406
-0.22880155 -0.12159902 0.0755047 -0.06889091 0.2530657 0.14460586 0.24880262 -0.031206012
0.17276543
00000000: eb3c 3dbe 38f7 7c3e d0cb 82bd 7742 093e
00000010: db7c e8bd c915 94be daab a83e 8b6a 82be
00000020: efc4 113d 6025 a9bd 1f97 c53d 65cc ccbd
00000030: d273 60be 2f88 a8be 2cff 57be ff2f 8fbe
00000040: 4db5 813e 8853 f63d e9fc 6abe a58d 88bd
00000050: 9b20 65be d2b7 2bbb 547e a8be 6036 853e
00000060: a88d 553e 8850 09be d5b2 c13d 65e6 a73e
00000070: a9be 45bd 2af3 16be 3c70 f3bd a096 9cbe
00000080: 5fcd 8cbe 27b3 92be 4cfa cbbd e463 383d
00000090: 89a7 80be f66f 3fbe f539 6cbe c64d c53c
000000a0: caf4 833c bff7 7ebe 8fe8 87be 1eed 163d
000000b0: e54f 813e eb64 8d3e 5450 853e 1d95 fbbc
000000c0: ac66 373d 1192 273e 4304 bcbd 1005 723d
000000d0: 96ce 3bbe 6402 2d3c 174a 46bc fda5 47bd
000000e0: f69e 3ebe aadb 4c3e 6421 84bd 8e4c a8be
000000f0: fcae 1f3e 03d4 8bbe 84f8 c1bd e2c7 57be
00000100: c1e2 46be b4d4 d63c dd2d 91be ac65 8abe
00000110: e245 963e adfb ec3d 69da 1b3d 4757 eebd
00000120: f44a 6abe e808 f9bd 35a2 9a3d ad16 8dbd
00000130: d491 813e 8f13 143e 1dc6 7e3e c0a3 ffbc
00000140: 6ce9 303e

branch_h.fc2.bias f4 [9]
0.09018466 0.18931134 -0.2447638 -0.015863895 0.16093409 0.043756012 -0.25681245 0.069323406
-0.11977614
00000000: bcb2 b83d d5da 413e 5da3 7abe 00f5 81bc
00000010: e8cb 243e 8139 333d ec7c 83be 6ef9 8d3d
00000020: 314d f5bd

self_attention_players.query_projection.weight f4 [18, 18]
-0.22602934 -0.14512382 -0.17105033 -0.18058726 -0.0116911335 0.010386996 -0.13814048 0.12824091
0.07185563 0.014803001 -0.22042418 -0.08916513 0.13028511 0.10263698 -0.013383342 0.08634874
0.14535366 -0.21558893 -0.027908672 0.017097862 0.11731565 0.19587053 -0.03040248 0.00067336933
-0.084129766 0.18349212 -0.13281935 0.045304615 0.1172687 0.21434243 0.20613213 0.016075024
-0.01947983 -0.14331603 0.0018495321 -0.13014299 0.13202775 0.035935026 -0.17782965 0.005414684
-0.17504022 -0.19699569 0.14872417 -0.13598624 -0.23238593 0.09592578 -0.08217612 -0.031803507
-0.05044374 -0.005292266 -0.10749296 -0.21008985 0.1987465 -0.002265996 0.18947491 -0.15025228
-0.20531753 -0.051977478 0.22111806 -0.086781286 -0.13180766 -0.20819895 0.08845954 0.12535812
0.2286945 0.08848862 0.21970917 0.036121923 -0.21296236 0.1338776 -0.21866336 0.17292096
-0.046096016 -0.09480276 0.057469744 0.2278914 -0.16081992 0.022204313 -0.010713071 -0.15842026
-0.21467893 0.026562842 -0.20076472 -0.08681218 -0.08962378 -0.01133279 0.22791865 0.14748715
-0.2328173 0.024773948 0.0062248153 0.033990085 -0.044934 0.07550506 -0.07078298 0.07452509
0.2261511 -0.09924042 0.06456683 -0.134668 -0.12343232 0.23423977 0.13087407 0.07227774
0.17757486 -0.21812807 -0.23476319 -0.08024177 0.0030557725 0.020518709 0.06701961 0.13641346
-0.056349892 -0.07753895 0.035567116 -0.08338656 0.15713234 -0.15523745 0.09969394 0.033466887
0.2068862 0.1610708 0.21899517 0.0865673 -0.15063657 0.069691546 0.12824693 0.20699526
0.0430671 0.0468145 -0.14152308 0.04513391 0.13598819 0.23219118 0.07583841 -0.19024518
-0.006644017 -0.16010799 -0.05240599 0.17359416 -0.14490342 0.0055306284 -0.02248237 -0.07591829
-0.08893259 0.14166728 0.015114443 0.093357414 0.07077694 -0.07936695 -0.03939005 0.19398342
0.15490364 0.1664454 0.23100707 -0.075584956 0.059559774 0.18662332 -0.23009102 -0.043822445
-0.064753205 0.16821323 0.13364762 -0.21960248 -0.1230966 -0.15765725 0.1978254 0.1918607
0.16440904 0.0014588726 0.17537042 -0.12964909 -0.10359755 0.02036052 -0.036760893 0.18463343
0.026459804 -0.06297726 -0.16170971 -0.04644365 -0.10426288 0.03281502 -0.22382618 0.10461791
0.18591152 -0.04101113 0.21743077 -0.13497448 0.031929217 0.1401986 0.20779638 0.07383774
-0.013572168 0.0110916 0.010085734 0.11907705 0.22076118 -0.036039706 -0.00863191 -0.09096185
-0.2091529 -0.08699824 -0.040698726 0.22971982 -0.11927971 0.0055176667 -0.12529549 -0.11802104
0.120191954 0.024741208 -0.009843323 -0.1289776 -0.23074229 0.02788708 0.11164067 0.065739654
-0.19408011 0.063170016 -0.17867333 0.03051328 0.08954932 -0.06508192 -0.0575139 0.12537082
-0.018317208 -0.15565374 -0.21124488 0.2058037 0.14370242 -0.13387404 -0.13376676 0.2355983
0.05616804 0.0025629278 0.070352554 0.059478905 -0.046559 -0.13668206 0.22542942 -0.16575713
0.21083671 -0.19848119 -0.22723256 0.11502767 -0.11959579 -0.14687276 -0.0011508355 0.048781082
-0.17306286 -0.1608486 0.1508074 0.015714398 0.04297427 0.027768448 0.09973638 -0.11659602
00000000: 3c74 67be 579b 14be d127 2fbe deeb 38be
00000010: 2b8c 3fbc 382e 2a3c b374 0dbe 9651 033e
00000020: 0b29 933d 4988 723c e0b6 61be 359c b6bd
00000030: 7669 053e 5633 d23d ce45 5bbc 9cd7 b03d
00000040: 97d7 143e 58c3 5cbe baa0 e4bc d110 8c3c
00000050: 3043 f03d 4992 483e 9f0e f9bc 0d85 303a
00000060: 3a4c acbd 5ce5 3b3e cc01 08be 5591 393d
00000070: 922a f03d 957c 5b3e 4d14 533e c5af 833c
00000080: 2a94 9fbc 70c1 12be 006c f23a 3444 05be
00000090: 4832 073e 9b30 133d fa18 36be a96d b13b
000000a0: be3d 33be 3db9 49be 264b 183e fa3f 0bbe
000000b0: 94f6 6dbe bc74 c43d f44b a8bd 6544 02bd
000000c0: 189e 4ebd bf6a adbb 4525 dcbd cb21 57be
000000d0: 3484 4b3e 1b81 14bb b605 423e bcdb 19be
000000e0: c23e 52be 56e6 54bd c66c 623e 63ba b1bd
000000f0: 96f8 06be 1b32 55be 462a b53d e15d 003e
00000100: e42e 6a3e 8639 b53d 71fb 603e 95f4 133d
00000110: ce12 5abe 3617 093e 4ae9 5fbe 3112 313e
00000120: 2dcf 3cbd f327 c2bd 6565 6b3d 5d5c 693e
00000130: faad 24be d2e5 b53c e085 2fbc ec38 22be
00000140: cbd4 5bbe 519a d93c 4495 4dbe 96ca b1bd
00000150: ac8c b7bd 2bad 39bc 8263 693e df06 173e
00000160: a967 6ebe bcf2 ca3c 89f9 cb3b 3039 0b3d
00000170: b70c 38bd 66a2 9a3d abf6 90bd 9ca0 983d
00000180: 2794 673e 903e cbbd 9d3b 843d 68e6 09be
00000190: 16ca fcbd 8ddc 6f3e da03 063e 5a06 943d
000001a0: 2fd6 353e f75c 5fbe c365 70be cc55 a4bd
000001b0: 5b43 483b da16 a83c 9441 893d f8af 0b3e
000001c0: 25cf 66bd becc 9ebd d3ae 113d 93c6 aabd
000001d0: 4de7 203e 91f6 1ebe 562c cc3d 9314 093d
000001e0: fad9 533e beef 243e 4540 603e 324a b13d
000001f0: 7940 1abe 71ba 8e3d 2a53 033e 91f6 533e
00000200: 2167 303d 90c0 3f3d 6deb 10be 56de 383d
00000210: 7d40 0b3e 86c3 6d3e 2b51 9b3d a2cf 42be
00000220: 0eb6 d9bb 59f3 23be aaa7 56bd abc2 313e
00000230: 9061 14be 463a b53b f22c b8bc 0c7b 9bbd
00000240: 4a22 b6bd 3a11 113e 92a2 773c 2c32 bf3d
00000250: 80f3 903d 248b a2bd 7657 21bd 97a3 463e
00000260: 0f9f 1e3e aa70 2a3e 1e8d 6c3e 49cc 9abd
00000270: f3f4 733d 2f1a 3f3e fb9c 6bbe 2a7f 33bd
00000280: 549d 84bd 1740 2c3e ecda 083e 79df 60be
00000290: 121a fcbd e770 21be be92 4a3e 2277 443e
000002a0: d85a 283e a437 bf3a 4e94 333e bbc2 04be
000002b0: f42a d4bd 1bcb a63c 9792 16bd 8c10 3d3e
000002c0: 3bc2 d83c 39fa 80bd 3b97 25be b23b 3ebd
000002d0: c787 d5bd 0b69 063d b132 65be ea41 d63d
000002e0: 975f 3e3e 49fb 27bd 2ca6 5e3e c036 0abe
000002f0: 36c8 023d 3990 0f3e 93c8 543e 3e38 973d
00000300: cc5d 5ebc 8bb9 353c a23e 253c abde f33d
00000310: 380f 623e 5f9e 13bd db6c 0dbc 354a babd
00000320: 2e2c 56be 222c b2bd b5b3 26bd ac3b 6b3e
00000330: ec48 f4bd 8bcd b43b 764d 00be 04b5 f1bd
00000340: 3327 f63d 13ae ca3c e445 21bc b412 04be
00000350: b547 6cbe 7273 e43c dda3 e43d 83a2 863d
00000360: f0bc 46be 485f 813d 24f6 36be fcf6 f93c
00000370: a265 b73d ab49 85bd b293 6bbd 3561 003e
00000380: f80d 96bc b263 1fbe 9450 58be 35be 523e
00000390: ba26 133e 4716 09be 27fa 08be ae40 713e
000003a0: 7510 663d cbf6 273b 0015 903d 27a0 733d
000003b0: a6b4 3ebd 62f6 0bbe f8d6 663e 3dbc 29be
000003c0: 94e5 573e a73e 4bbe a7af 68be a193 eb3d
000003d0: a3ee f4bd d065 16be a2d7 96ba acce 473d
000003e0: 6437 31be 7fb5 24be 416d 1a3e 7bbb 803c
000003f0: ca05 303d a87a e33c 9642 cc3d e5c9 eebd

self_attention_players.query_projection.bias f4 [18]
-0.16309783 -0.1793778 -0.0206079 -0.008327055 -0.14424947 -0.09762243 -0.07388088 0.051526
-0.07820032 -0.13651876 0.03940148 0.14193763 0.10705648 -0.10015721 -0.01684719 0.12862796
-0.06263084 -0.0031800184
00000000: 1e03 27be d0ae 37be e6d1 a8bc 336e 08bc
00000010: 22b6 13be 45ee c7bd dc4e 97bd ed0c 533d
00000020: 7d27 a0bd 93cb 0bbe 7263 213d 1958 113e
00000030: 6e40 db3d 391f cdbd 1e03 8abc 0cb7 033e
00000040: 9944 80bd db67 50bb

self_attention_players.key_projection.weight f4 [18, 18]
-0.13975985 0.20974843 0.23324107 0.10277098 -0.119985044 -0.011533035 0.082646385 -0.11184007
-0.038263243 -0.022209553 0.19785444 0.10995374 0.22200096 -0.025100712 0.0048390655 -0.07438516
-0.15009965 0.03636234 0.088519566 0.1698876 -0.029263886 -0.18623872 -0.010241644 -0.17996322
-0.21152335 -0.2120614 -0.042661056 -0.04948828 0.113937445 -0.010629308 -0.16923471 0.22465886
0.037807852 -0.15067911 -0.005864095 -0.03037568 -0.20913813 0.07105962 -0.12739752 -0.14895199
-0.111821316 0.10254547 -0.22442068 0.11272746 -0.025232727 -0.006555595 -0.13191031 -0.19780108
0.08539553 -0.18257137 0.10853772 -0.056806564 -0.13842772 -0.012881103 -0.016047534 0.13927925
-0.17000543 -0.17580505 0.037725955 0.14480154 0.16122541 0.07378984 -0.09402543 0.16457169
-0.09125393 0.10219148 0.18401483 -0.20042746 -0.038986538 0.010087068 0.1244122 -0.12176033
0.06070624 -0.03014245 -0.14431104 0.0919595 -0.14382233 -0.23145518 0.051822804 0.19764559
-0.118827984 -0.0433231 -0.05714293 -0.20277937 -0.013271592 0.22227298 -0.02041432 0.07034511
-0.15765692 0.05775074 0.091017015 -0.19567354 0.011814059 0.18935451 -0.082757704 -0.020880433
-0.020502843 -0.031117551 0.14792638 -0.044078916 -0.1910338 -0.012738253 -0.09968062 0.09058066
-0.10994954 -0.08345515 -0.08868336 -0.086278 0.026744654 -0.0961781 0.16002142 0.14015764
-0.04175956 0.22510827 -0.05731077 -0.12640944 -0.039333537 -0.1198311 0.14174001 0.1560098
-0.14832018 0.22169739 -0.060474165 0.0033230663 -0.07752679 -0.1722032 0.051638525 -0.20144618
-0.1900996 -0.23181827 0.18922722 -0.037747066 -0.13281706 0.19627845 0.06890051 0.0077388613
0.083291985 0.054038852 0.058577616 -0.22675051 -0.14005046 0.11567143 0.03171743 0.21927018
0.20352271 -0.15287024 -0.014697255 0.051928602 0.17653422 0.120308094 0.21462022 -0.17516187
-0.14478797 -0.14072636 -0.10358482 -0.15292224 0.07163984 0.08795416 0.067557566 -0.17669809
-0.19209774 8.008206e-05 0.04696747 -0.098218754 0.14730774 0.16029607 0.23339598 -0.12667638
-0.053778276 0.18791148 0.12917046 0.033011794 0.22812028 0.1084115 0.06893155 -0.12027336
0.20010212 0.0008633919 -0.03307657 0.11767811 -0.22473371 0.20787324 0.08975708 0.017564045
0.12765181 -0.031509746 0.025765758 0.20011576 -0.1539408 -0.21867035 0.042357065 -0.056618445
-0.08296204 -0.07528508 0.10479507 0.16429183 -0.08766972 0.13736382 -0.15158677 -0.21470448
0.04759741 -0.043394774 0.2238652 -0.22835368 -0.0116143385 -0.13115738 0.218616 0.22770369
0.07210709 -0.16576456 0.19244532 0.21606815 -0.09460048 0.22853996 0.21510804 0.10438641
0.19406359 0.12086771 0.052152794 -0.08690147 -0.026493484 -0.036042016 0.016425474 0.12177108
0.21136871 -0.16217367 0.024767745 -0.192976 -0.17081594 0.10493509 -0.21120198 -0.030111901
-0.18056938 -0.1400991 0.23021393 0.14209376 0.07780831 -0.084655955 -0.22080505 -0.027974507
-0.08999745 0.230084 0.21881138 -0.026925098 -0.1927884 0.01843363 0.05250893 -0.16298184
-0.05350306 0.17888997 -0.12348279 -0.20954034 0.21304168 0.07918459 0.20482987 -0.03702824
00000000: 351d 0fbe 4bc8 563e bfd6 6e3e 9779 d23d
00000010: b8ba f5bd 0ef5 3cbc 8242 a93d 680c e5bd
00000020: ebb9 1cbd cff0 b5bc 5b9a 4a3e 6d2f e13d
00000030: 3854 633e 02a0 cdbc 0691 9e3b 3f57 98bd
00000040: b9b3 19be adf0 143d bf49 b53d 04f7 2d3e
00000050: d1ba efbc 5db5 3ebe 92cc 27bc 4748 38be
00000060: 9499 58be a026 59be 5cbd 2ebd 39b4 4abd
00000070: 0958 e93d 8d26 2ebc dd4b 2dbe f90c 663e
00000080: 68dc 1a3d a04b 1abe 9827 c0bb 6bd6 f8bc
00000090: 4e28 56be b587 913d 7f74 02be df86 18be
000000a0: 9302 e5bd 5c03 d23d 89ce 65be a8dd e63d
000000b0: ddb4 cebc 51d0 d6bb 7f13 07be 5e8c 4abe
000000c0: dae3 ae3d fdf3 3abe 0649 de3d 00ae 68bd
000000d0: ffbf 0dbe 430b 53bc 1e76 83bc 389f 0e3e
000000e0: e715 2ebe 3d06 34be 8886 1a3d db46 143e
000000f0: 4618 253e 211f 973d 6890 c0bd 7b85 283e
00000100: 57e3 babd c449 d13d 626e 3c3e db3c 4dbe
00000110: 59b0 1fbd 3b44 253c d3cb fe3d 7b5d f9bd
00000120: 1ba7 783d 4ded f6bc 46c6 13be 4355 bc3d
00000130: 2946 13be 9602 6dbe 2644 543d 9b63 4a3e
00000140: 165c f3bd 9073 31bd b40e 6abd 65a5 4fbe
00000150: 1771 59bc 879b 633e ef3b a7bc 1911 903d
00000160: d170 21be 0a8c 6c3d 2167 ba3d a55e 48be
00000170: c18f 413c 26e6 413e df7c a9bd 710d abbc
00000180: 94f5 a7bc 3cea febc 037a 173e 188c 34bd
00000190: 5d9e 43be 1bb4 50bc 5a25 ccbd 5a82 b93d
000001a0: 392d e1bd 89ea aabd 9f9f b5bd 85b2 b0bd
000001b0: 9b17 db3c 06f9 c4bd a8dc 233e 7c85 0f3e
000001c0: 130c 2bbd c882 663e b3be 6abd 7a71 01be
000001d0: 341c 21bd 026a f5bd 4b24 113e 08c1 1f3e
000001e0: 3fe1 17be a404 633e c2b3 77bd cdc7 593b
000001f0: 5ec6 9ebd 0956 30be eb82 533d e847 4ebe
00000200: 78a9 42be c561 6dbe c8c4 413e ab9c 1abd
00000210: 3201 08be 38fd 483e b61b 8d3d 4696 fd3b
00000220: fd94 aa3d d857 5d3d 15ef 6f3d 4931 68be
00000230: 6369 0fbe 25e5 ec3d 23ea 013d 5d88 603e
00000240: 4268 503e 048a 1cbe c1cc 70bc 16b3 543d
00000250: 63c5 343e 1764 f63d 67c5 5b3e a25d 33be
00000260: 4c43 14be 921a 10be 4724 d4bd a697 1cbe
00000270: e9b7 923d 5021 b43d 9f5b 8a3d 58f0 34be
00000280: 45b5 44be bbf1 a738 f660 403d ea26 c9bd
00000290: d7d7 163e a724 243e 5bff 6e3e 74b7 01be
000002a0: 9c46 5cbd de6b 403e 4345 043e 6037 073d
000002b0: 5d98 693e d906 de3d fc2b 8d3d e151 f6bd
000002c0: 92e7 4c3e 4055 623a 4c7b 07bd 3901 f13d
000002d0: 9820 66be b9dc 543e 8fd2 b73d 79e2 8f3c
000002e0: 28b7 023e 5d10 01bd b612 d33c 25eb 4c3e
000002f0: a8a2 1dbe 1feb 5fbe 9a7e 2d3d bee8 67bd
00000300: 01e8 a9bd 102f 9abd cc9e d63d 1e3c 283e
00000310: 2f8c b3bd 1aa9 0c3e 9039 1bbe 7edb 5bbe
00000320: 80f5 423d b8be 31bd eb3c 653e 8cd5 69be
00000330: 114a 3ebc 1f4e 06be dfdc 5f3e 282b 693e
00000340: e2ac 933d 2fbe 29be 6310 453e f840 5d3e
00000350: e5bd c1bd 6106 6a3e 4845 5c3e 8bc8 d53d
00000360: 9bb8 463e 7d89 f73d 2b9e 553d 66f9 b1bd
00000370: dd08 d9bc cba0 13bd b78e 863c 1e63 f93d
00000380: 0a71 583e db10 26be bae5 ca3c 809b 45be
00000390: 60ea 2ebe 35e8 d63d 5545 58be 3cad f6bc
000003a0: 2ee7 38be 2376 0fbe 33bd 6b3e 0781 113e
000003b0: f759 9f3d 1a60 adbd b81a 62be cb2a e5bc
000003c0: 9550 b8bd 249b 6b3e 1710 603e 0692 dcbc
000003d0: 536a 45be 2002 973c 9b13 573d b6e4 26be
000003e0: 0626 5bbd ef2e 373e 8ce4 fcbd be91 56be
000003f0: 9927 5a3e 882b a23d ecbe 513e ecaa 17bd

self_attention_players.key_projection.bias f4 [18]
-0.2164727 -0.065390885 0.19925006 0.1075192 0.15106218 0.057339653 0.07768905 -0.15070407
-0.046840087 0.03523009 0.10848059 0.02857878 -0.1073003 -0.15395953 -0.15238677 -0.15949914
0.23219605 -0.006756162
00000000: 05ab 5dbe a8eb 85bd 3508 4c3e 0733 dc3d
00000010: 0bb0 1a3e fcdc 6a3d 701b 9f3d 2b52 1abe
00000020: 64db 3fbd 6d4d 103d 122b de3d 0c1e ea3c
00000030: 42c0 dbbd 91a7 1dbe 470b 1cbe be53 23be
00000040: cdc4 6d3e cb62 ddbb

self_attention_players.value_projection.weight f4 [18, 18]
-0.103063434 -0.1474102 0.19049558 -0.03479156 -0.20890923 0.1607329 -0.16140881 -0.12662552
0.10188339 0.14059514 0.15366991 -0.17314857 0.13629381 0.18678772 0.09822132 0.18788798
-0.04239623 0.030025251 0.20212117 0.045266543 0.12550865 -0.040420365 0.22843356 0.103613734
0.005387958 -0.12280838 0.031075798 -0.036703493 -0.09180414 0.11394104 -0.073700435 -0.17276333
-0.07308636 0.16959494 0.019864038 0.050980516 -0.14266686 0.100764416 0.04045511 -0.19364135
0.17972107 -0.06645698 -0.023205105 0.041216306 -0.22689684 0.22264731 0.045035683 0.10586588
0.2258235 -0.14990118 -0.10681792 0.22091244 -0.0136973895 -0.20049077 -0.10232148 -0.07551621
-0.14446123 0.04363535 0.23091714 0.19771083 -0.22665286 0.16905417 -0.10437579 -0.16624397
-0.10598102 -0.22073494 0.12720275 -0.22553153 -0.18131651 -0.11573724 0.035672802 -0.16465786
-0.05132164 -0.023980692 0.033064965 -0.09802309 -0.18498625 -0.0635484 -0.12528542 0.011650305
0.04541527 0.21290687 -0.1788068 -0.124090895 0.20988147 0.23133267 -0.21258694 0.16693723
-0.02457433 0.20747806 -0.08556335 0.21302272 0.13404523 -0.20264071 0.16597128 -0.14916752
-0.060537584 0.060907137 0.0648402 -0.21686946 -0.09945468 0.19749403 0.1991644 -0.0034152677
0.15166627 -0.04889591 -0.05849746 -0.038930893 -0.07957839 0.073518746 -0.18016659 -0.14655028
-0.03379455 0.0028977527 0.20432186 0.033561256 -0.028026532 0.09828621 0.108746976 0.1833523
0.21937986 0.1595346 0.0073879403 -0.0039253845 0.23313124 -0.19318736 0.19697303 -0.23109321
0.14591736 0.18879744 -0.0011213819 0.14533658 -0.1953469 0.16129 0.1953729 0.036294222
0.069899574 -0.118339755 -0.19203556 0.0013756435 0.14268602 -0.03649168 0.18602902 0.10107459
0.023629693 -0.22397836 -0.15113923 -0.11159925 -0.20102154 -0.20412105 -0.08446322 -0.13728638
-0.22628789 0.010625371 -0.18954617 -0.1838178 0.005535661 -0.15014857 -0.039197713 0.19189918
0.110645466 0.0008230921 0.12214639 -0.15570135 0.10356991 0.19778809 0.19508053 -0.13137814
-0.16838479 -0.07214375 -0.048526257 0.17778283 -0.046458773 0.013287588 -0.07669182 0.19712776
0.083542526 0.016743606 0.018668896 0.014520497 -0.20180643 -0.010874571 0.006918245 0.14475583
0.07398997 -0.047937535 0.09708913 -0.051318124 0.2294876 0.18125445 0.07261215 -0.057840466
0.13968879 0.1600635 0.11540173 -0.060240775 -0.06654175 0.08701707 -0.18848522 -0.19047195
-0.041926973 0.13885687 0.16742048 0.07328311 0.16953997 0.093225256 -0.085276216 0.051462203
-0.071464576 0.15851186 0.03349079 0.16388863 -0.041715886 0.15770964 -0.1225966 0.17994133
-0.008542129 -0.1901265 0.18721199 -0.0010329147 0.10223333 0.1422602 -0.06835346 0.19226837
0.0010771378 -0.1435581 0.09450579 -0.07792767 -0.22255857 -0.0538676 0.19523627 -0.20180017
-0.22658463 -0.014770349 -0.09838377 -0.15588576 -0.21445441 -0.009120995 0.0015928323 0.088629775
-0.17924795 0.19790752 -0.053940155 0.20047198 0.19839452 0.17281395 0.17067188 -0.20435207
-0.16736688 0.13831602 0.09886048 0.08410527 0.07121218 -0.07826955 -0.015053435 -0.0775435
00000000: ec12 d3bd b3f2 16be 4611 433e 9881 0ebd
00000010: 4dec 55be 2a97 243e 5a48 25be 1faa 01be
00000020: 3da8 d03d 2cf8 0f3e a55b 1d3e dc4d 31be
00000030: 9b90 0b3e 4845 3f3e 4228 c93d b565 403e
00000040: aba7 2dbd 84f7 f53c daf8 4e3e 6969 393d
00000050: 5785 003e d38f 25bd 7dea 693e 7033 d43d
00000060: 788d b03b f682 fbbd ac92 fe3c 6756 16bd
00000070: cf03 bcbd ec59 e93d 41f0 96bd dfe8 30be
00000080: 4dae 95bd 4caa 2d3e e8b9 a23c f2d0 503d
00000090: 4317 12be 935d ce3d 42b4 253d eb49 46be
000000a0: cd08 383e 991a 88bd a218 bebc 6ed2 283d
000000b0: a557 68be a8fd 633e 5677 383d 36d0 d83d
000000c0: 473e 673e b27f 19be 5bc3 dabd df36 623e
000000d0: 046b 60bc 744d 4dbe ed8d d1bd 3ea8 9abd
000000e0: a5ed 13be fbba 323d 8b75 6c3e b574 4a3e
000000f0: b017 68be 891c 2d3e f9c2 d5bd dc3b 2abe
00000100: 940c d9bd 5708 62be 7041 023e bdf1 66be
00000110: 09ab 39be a507 edbd a51d 123d 129c 28be
00000120: a436 52bd 2873 c4bc 216f 073d 54c0 c8bd
00000130: 096d 3dbe aa25 82bd d24a 00be ece0 3e3c
00000140: 5d05 3a3d 4204 5a3e 2119 37be 5e23 febd
00000150: 2beb 563e 79e2 6c3e 64b0 59be 98f1 2a3e
00000160: 1b50 c9bc 2175 543e d63b afbd a122 5a3e
00000170: 2743 093e 0c81 4fbe 60f4 293e 5fbf 18be
00000180: 42f6 77bd c379 793d f0ca 843d 0713 5ebe
00000190: e5ae cbbd e03b 4a3e c1f1 4b3e afd2 5fbb
000001a0: 674e 1b3e 1447 48bd 089b 6fbd 0076 1fbd
000001b0: fff9 a2bd ff90 963d 977d 38be 4711 16be
000001c0: 276c 0abd 39e8 3d3b c039 513e 8777 093d
000001d0: e697 e5bc 484a c93d bcb6 de3d b5c0 3b3e
000001e0: 1da5 603e 0a5d 233e 8916 f23b 83a0 80bb
000001f0: f5b9 6e3e e8d2 45be 4cb3 493e b3a3 6cbe
00000200: 5c6b 153e 1e54 413e 55fb 92ba 1dd3 143e
00000210: 0509 48be 3529 253e d50f 483e 40a9 143d
00000220: 8227 8f3d 1d5c f2bd f8a4 44be f04e b43a
00000230: 491c 123e 4d78 15bd 647e 3e3e 3200 cf3d
00000240: 0f93 c13c 955a 65be 3ec4 1abe 268e e4bd
00000250: 97d8 4dbe 1c05 51be 0dfb acbd cd94 0cbe
00000260: 03b8 67be 0916 2e3c 6418 42be bc3a 3cbe
00000270: 7d64 b53b 8cc0 19be c88d 20bd 3881 443e
00000280: 179a e23d c7c4 573a e327 fa3d 2d70 1fbe
00000290: 761c d43d f688 4a3e 31c3 473e fe87 06be
000002a0: 106d 2cbe 1ac0 93bd 78c3 46bd b40c 363e
000002b0: 8e4b 3ebd 2fb4 593c 9a10 9dbd dcdb 493e
000002c0: 5818 ab3d e329 893c 83ef 983c 61e7 6d3c
000002d0: 58a6 4ebe 422b 32bc 72b2 e23b df3a 143e
000002e0: 0e88 973d 265a 44bd aad6 c63d f432 52bd
000002f0: ccfe 6a3e c49a 393e aeb5 943d 20ea 6cbd
00000300: 940a 0f3e b0e7 233e be57 ec3d 08bf 76bd
00000310: 0b47 88bd 0136 b23d 4502 41be 140b 43be
00000320: 9ebb 2bbd 7f30 0e3e 4670 2b3e 7515 963d
00000330: e39b 2d3e e2ec be3d 4ca5 aebd 08ca 523d
00000340: 055c 92bd ef50 223e a32d 093d 6cd2 273e
00000350: 47de 2abd a37e 213e ed13 fbbd 8a42 383e
00000360: 49f4 0bbc 85b0 42be 80b4 3f3e de62 87ba
00000370: b55f d13d a8ac 113e e6fc 8bbd 00e2 443e
00000380: bf2e 8d3a e500 13be 408c c13d 8b98 9fbd
00000390: 65e6 63be 46a4 5cbd 04ec 473e b4a4 4ebe
000003a0: cd05 68be 55ff 71bc 6e7d c9bd 84a0 1fbe
000003b0: f099 5bbe 3a70 15bc 95c6 d03a 8783 b53d
000003c0: c68c 37be 45a8 4a3e 5af0 5cbd 8748 4d3e
000003d0: ef27 4b3e 24f6 303e 9cc4 2e3e ab41 51be
000003e0: 3962 2bbe b7a2 0d3e 5d77 ca3d 623f ac3d
000003f0: b1d7 913d c94b a0bd afa2 76bc 20cf 9ebd

self_attention_players.value_projection.bias f4 [18]
-0.13814838 0.041244403 -0.23193139 0.01943354 -0.20482597 -0.16838917 0.055072226 -0.016037766
-0.08322833 -0.12553515 0.08538649 0.07917628 0.1576426 0.23158282 0.19606547 0.09510443
-0.09037371 -0.11040701
00000000: c576 0dbe e4ef 283d 6c7f 6dbe 1633 9f3c
00000010: e6bd 51be 366e 2cbe 6a93 613d a261 83bc
00000020: 9d73 aabd 498c 00be 1ddf ae3d 2c27 a23d
00000030: 106d 213e 0c24 6d3e 63c5 483e 1dc6 c23d
00000040: da15 b9bd 121d e2bd

self_attention_players.output_projection.weight f4 [18, 18]
0.14341143 -0.12775919 -0.05787972 0.007003608 0.010066066 0.14673322 -0.17459346 -0.09720176
-0.13975927 0.149742 -0.16489336 0.1991637 0.12700556 0.060402837 0.21055105 -0.21232438
-0.15852083 0.05832417 0.15265548 -0.10040607 -0.16908933 0.15173304 -0.1502724 -0.13546534
0.091209665 0.054785166 -0.008754449 0.09452801 -0.23524335 0.1682492 0.19162214 0.16912092
-0.09892433 0.1412881 0.12304485 0.17903037 0.105175175 0.21666434 -0.045789197 0.14499344
0.048571542 -0.1298925 0.1425037 -0.11309761 0.19040596 -0.037928384 0.13872354 0.11859098
-0.019600501 0.09495609 0.14194772 0.046908386 -0.036359623 -0.061082676 -0.032429654 0.13811742
-0.0018364993 0.0908471 0.14934607 -0.19564527 0.23110855 -0.15828234 -0.0035074635 0.08270614
0.05075616 -0.13996743 0.20745648 0.117173016 -0.0780588 0.20532243 0.006939344 0.22997123
-0.1454214 0.023940226 0.091226175 0.0983313 -0.08439435 -0.00092812197 0.18475454 0.029239524
0.21529704 -0.07071929 0.14393784 0.1903772 0.13644733 0.13306543 0.14672297 -0.20774466
-0.049983438 -0.07948358 0.084205985 0.2003891 0.19598104 -0.0612081 -0.087946065 0.17160161
0.18858552 0.124640085 -0.1393642 0.08711043 -0.022776749 -0.08887469 0.02622049 -0.09845059
0.1361682 -0.08434786 0.055881634 0.22983474 -0.09978371 0.21119046 0.06076984 0.19867054
0.12417832 -0.024842178 0.05625371 0.19184998 0.074984595 -0.09615339 0.13676995 0.023891924
-0.15550414 -0.20114926 0.047203593 0.14993304 -0.18967013 0.21193057 -0.023856124 0.08274939
9.347857e-05 -0.18335804 0.018786957 0.106157795 -0.21923573 0.01689216 -0.12544547 -0.14287275
-0.105985254 -0.057419464 -0.064719394 -0.17586061 -0.014987751 -0.055622812 -0.17698313 0.09656222
-0.000530533 -0.21665452 0.027227964 0.03637728 0.15905507 -0.13552073 -0.17932887 -0.13342804
-0.016574731 0.10095636 -0.011818248 0.157985 0.21181028 0.1324805 -0.17422548 -0.21352375
-0.07017753 0.19449109 0.09178928 -0.026804734 -0.16705707 0.17021653 -0.16706638 -0.04760726
-0.19650526 -0.07705306 0.23094189 0.21024258 0.12488986 -0.043261822 -0.20124145 0.01860381
-0.08458383 -0.110132344 -0.039519686 -0.140747 -0.2178652 -0.16642413 -0.18238811 0.025119578
0.14788456 -0.044514097 0.2060948 0.17559688 0.040343214 0.1844924 0.11881382 0.015413764
0.21137482 0.026485363 0.0849312 -0.11522451 0.19055173 0.16840476 0.094190754 0.02917762
0.017353782 0.21305951 0.09502225 -0.1972141 0.17151304 0.21421824 0.10090961 -0.19297265
0.20523962 0.10759158 0.055401534 -0.1852887 -0.23371518 0.15568584 -0.1943059 0.11778239
-0.231807 -0.1443717 -0.16410013 0.123943776 -0.055788096 0.13414831 0.08759681 0.15921104
0.089213826 0.19390671 -0.14101227 0.18322767 -0.21161713 -0.16381979 -0.19043957 0.15176405
-0.081201136 -0.01848015 0.02299871 -0.11691961 -0.03225191 -0.013910816 0.07945719 -0.06316041
0.058406908 -0.17236362 0.21766932 -0.16036221 0.174945 -0.061546534 0.006080875 -0.1591838
-0.17106023 -0.036745936 -0.016315442 -0.12336729 -0.12189319 0.10585103 -0.22097787 -0.12970202
00000000: 72da 123e 4ed3 02be 4913 6dbd 867e e53b
00000010: 24ec 243c 3c41 163e a1c8 32be b711 c7bd
00000020: 0e1d 0fbe f855 193e ced9 28be 92f1 4b3e
00000030: bf0d 023e f768 773d b29a 573e 906b 59be
00000040: 4953 22be 53e5 6e3d b851 1c3e b3a1 cdbd
00000050: c125 2dbe e85f 1b3e 02e1 19be 6db7 0abe
00000060: 22cc ba3d 6966 603d d26e 0fbc e797 c13d
00000070: a2e3 70be 8549 2c3e 9838 443e 092e 2d3e
00000080: d798 cabd d4ad 103e f0fe fb3d bd53 373e
00000090: 1566 d73d 42dd 5d3e 748d 3bbd 2979 143e
000000a0: f4f2 463d 8a02 05be 7dec 113e b89f e7bd
000000b0: c8f9 423e cb5a 1bbd 8b0d 0e3e d4df f23d
000000c0: 3b91 a0bc 5778 c23d be5a 113e 0223 403d
000000d0: d4ed 14bd d431 7abd f5d4 04bd a76e 0d3e
000000e0: b1b6 f0ba 0b0e ba3d 2dee 183e 3c57 48be
000000f0: b8a7 6c3e c414 22be 79dd 65bb d661 a93d
00000100: b1e5 4f3d 9f53 0fbe 796f 543e 68f8 ef3d
00000110: 4bdd 9fbd 0b40 523e 7063 e33b 947d 6b3e
00000120: 59e9 14be 4b1e c43c cad4 ba3d ec61 c93d
00000130: f2d6 acbd 364d 73ba 4b30 3d3e ba87 ef3c
00000140: d476 5c3e 46d5 90bd 7164 133e 3ef2 423e
00000150: d9b8 0b3e 4e42 083e 8c3e 163e 04bb 54be
00000160: 6fbb 4cbd 4ac8 a2bd 3074 ac3d cd32 4d3e
00000170: 41af 483e 58b5 7abd 111d b4bd 55b8 2f3e
00000180: 901c 413e 4d43 ff3d 7db5 0ebe f466 b23d
00000190: 4e96 babc ef03 b6bd 5acc d63c 77a0 c9bd
000001a0: ad6f 0b3e 92be acbd 24e4 643d cc59 6b3e
000001b0: 675b ccbd 5042 583e cce9 783d 4a70 4b3e
000001c0: 3451 fe3d d381 cbbc 4a6a 663d 5274 443e
000001d0: 8691 993d 12ec c4bd 6c0d 0c3e ffb8 c33c
000001e0: 7a3c 1fbe 12fa 4dbe 8e58 413d 0c88 193e
000001f0: e338 42be 5404 593e eb6d c3bc 8378 a93d
00000200: ed09 c438 36c2 3bbe 1be7 993c 4269 d93d
00000210: 557f 60be 6d61 8a3c c774 00be 3c4d 12be
00000220: cc0e d9bd ac30 6bbd 9a8b 84bd ce14 34be
00000230: 2f8f 75bc bfd4 63bd 113b 35be 6ac2 c53d
00000240: 7813 0bba afda 5dbe 2e0d df3c 5800 153d
00000250: 55df 223e f2c5 0abe fda1 37be 5ca1 08be
00000260: bbc7 87bc 35c2 ce3d 53a1 41bc d2c6 213e
00000270: cbe4 583e f8a8 073e 2a68 32be f8a5 5abe
00000280: 3db9 8fbd ac28 473e 05fc bb3d 9a95 dbbc
00000290: 0211 2bbe 3e4d 2e3e 7313 2bbe d5ff 42bd
000002a0: ad38 49be ffcd 9dbd 087c 6c3e d549 573e
000002b0: 41c6 ff3d 4f33 31bd 3d12 4ebe 0467 983c
000002c0: 493a adbd 118d e1bd 65df 21bd fb1f 10be
000002d0: 0e18 5fbe 166b 2abe f3c3 3abe 93c7 cd3c
000002e0: 0d6f 173e 6a54 36bd 840a 533e abcf 333e
000002f0: ed3e 253d 93eb 3c3e a954 f33d 038a 7c3c
00000300: a472 583e d5f7 d83c 69f0 ad3d d4fa ebbd
00000310: fe1f 433e 4c72 2c3e 15e7 c03d e705 ef3c
00000320: 8529 8e3c 462c 5a3e 079b c23d 7ef2 49be
00000330: 1da1 2f3e 075c 5b3e b3a9 ce3d 9f9a 45be
00000340: 562a 523e f958 dc3d b8ec 623d 52bc 3dbe
00000350: 0853 6fbe 1c6c 1f3e 20f8 46be e537 f13d
00000360: d05e 6dbe 2dd6 13be dd09 28be 3cd6 fd3d
00000370: 0f82 64bd 2d5e 093e f565 b33d 3808 233e
00000380: bdb5 b63d 7b8f 463e 8565 10be 09a0 3b3e
00000390: 29b2 58be 60c0 27be 9702 43be 0968 1b3e
000003a0: c84c a6bd af63 97bc ca67 bc3c 8c73 efbd
000003b0: 941a 04bd 31ea 63bc 74ba a23d 3f5a 81bd
000003c0: 153c 6f3d 1780 30be b5e4 5e3e fe35 24be
000003d0: c824 333e 3818 7cbd 1442 c73b 1401 23be
000003e0: 6a2a 2fbe e882 16bd f6a7 85bc fda7 fcbd
000003f0: 23a3 f9bd 6dc8 d83d 0648 62be 9bd0 04be

self_attention_players.output_projection.bias f4 [18]
0.10141792 0.20546296 0.057264246 0.15358758 0.22505525 0.17167802 -0.07766916 -0.14477783
-0.23533048 -0.22076765 0.22838771 0.23341176 0.20993182 -0.072286025 -0.027906833 -0.17498778
-0.17107184 -0.110113315
00000000: 33b4 cf3d e264 523e ea8d 6a3d 1046 1d3e
00000010: e274 663e 5dcc 2f3e 0211 9fbd a440 14be
00000020: 79fa 70be ea10 62be 78de 693e 7e03 6f3e
00000030: 5ef8 563e b20a 94bd df9c e4bc ff2f 33be
00000040: 752d 2fbe 1783 e1bd

fc.weight f4 [63, 126]
-0.03980345 -0.08141345 -0.039444696 0.05005639 0.016724702 -0.074874155 0.007012105 0.013108063
0.05161214 0.0886631 0.047114573 0.01090749 0.058795873 -0.03080826 -0.072029725 0.020380426
0.030200467 0.009998048 0.0026102352 0.06496832 -0.024748648 -0.046367403 0.07888162 0.07705392
0.070270576 0.08727804 0.011659856 0.03009887 0.029376162 -0.07990231 -0.049929403 0.004153135
0.02742369 0.057653327 -0.082051754 0.013513142 -0.012046149 -0.066708334 0.06873027 -0.024460336
0.07684061 -0.06332674 0.026693197 -0.013082615 -0.003345043 0.051954653 -0.08903012 0.08737185
0.0018647406 -0.059915073 -0.033724725 -0.027098885 0.0015126673 0.029617941 0.06552998 0.0038606299
-0.07106447 -0.020264046 0.06678541 0.07913308 -0.047537833 0.03039529 0.07122174 -0.025985794
-0.072410025 0.065037966 -0.05389367 0.018775357 -0.028619712 -0.034028657 -0.06940755 -0.031472433
-0.03175592 0.030425053 0.05159516 -0.086117715 0.03085443 -0.025211038 -0.0030178837 -0.04995946
0.040704515 -0.061725233 0.05185714 -0.03357148 -0.019268809 0.0529591 0.08882992 0.08678762
-0.049272526 -0.06793407 0.023726612 -0.07958256 -0.088532194 -0.00026925522 -0.0007084195 0.03735243
0.045683075 0.028227648 0.049207143 0.016918337 -0.02201018 -0.03393862 -0.007003108 -0.065219305
-0.039364185 -0.04230691 -0.06027953 -0.02071788 0.055102542 0.08587081 -0.08286092 0.054234404
-0.013097901 0.043477148 -0.049378123 -0.018570507 0.07972994 -0.035774026 -0.012898292 -0.057393614
0.06596854 0.05282596 0.035600636 0.08169857 -0.04038717 0.018965477 -0.002054911 -0.049791247
-0.039981686 -0.012155984 -0.07267412 0.037758544 -0.027889144 -0.04532733 0.057603195 0.02283183
-0.03936604 -0.053029574 -0.08627388 -0.06031046 -0.08030733 0.06567972 -0.057100385 -0.022877257
-0.02603854 -0.060155306 0.020987373 0.015095978 0.03476592 -0.005824413 -0.08437974 0.0032307804
-0.048790712 0.029125495 0.0049913675 -0.05753293 -0.084573835 -0.065252334 0.010066197 0.06353453
-0.05305224 -0.087889224 -0.02979019 0.0689231 -0.033508107 0.084383674 -0.02629271 0.064360194
0.021705503 0.07391844 -0.0866723 0.05116883 -0.07931904 -0.009208768 -0.08173309 -0.07971923
-0.047700126 -0.06013675 0.038397472 0.049585894 -0.064020544 -0.05084157 0.034277014 -0.008237884
-0.022106206 -0.040079698 0.067843646 -0.014043816 -0.056233067 0.076954536 -0.035467427 0.040212534
-0.06015993 -0.0034914913 0.048376054 0.0043195942 0.0841783 0.05710452 0.075162604 0.06075607
0.03833577 -0.073505275 -0.038951725 0.06082241 0.08675636 -0.031300604 0.06920828 -0.0485494
0.081867225 0.076906614 0.08080982 0.023573983 0.04664342 0.017103659 -0.088108554 -0.006626943
0.062226746 -0.0494157 0.059265487 0.064384975 0.05789858 0.05441841 -0.03230368 -0.05288932
0.061942372 -0.018229574 0.034468483 -0.027899181 -0.037967082 -0.025772225 0.00029435492 0.020656617
0.019050036 0.028403053 -0.06010159 -0.052588344 0.033741478 0.055507246 0.06793548 0.061967887
-0.028470451 0.05030628 -0.028613696 -0.05276084 -0.022457732 -0.035145596 -0.06867832 -0.03664224
0.02133528 -0.06030817 -0.03867173 -0.030327953 -0.020279082 -0.014668345 -0.007656731 0.033065684
00000000: f108 23bd 18bc a6bd c390 21bd ee07 4d3d
00000010: 3e02 893c 9f57 99bd cdc5 e53b 33c3 563c
00000020: 4067 533d 0095 b53d 36fb 403d 54b5 323c
00000030: f1d3 703d 9b61 fcbc 5284 93bd daf4 a63c
00000040: f866 f73c dace 233c 7b10 2b3b 1c0e 853d
00000050: adbd cabc bfeb 3dbd b08c a13d 72ce 9d3d
00000060: 05ea 8f3d d4be b23d fb08 3f3c e891 f63c
00000070: 47a6 f03c d3a3 a3bd c682 4cbd 0617 883b
00000080: a5a7 e03c e525 6c3d c00a a8bd 3a66 5d3c
00000090: 365d 45bc 619e 88bd 75c2 8c3d 0b61 c8bc
000000a0: 9c5e 9d3d 73b1 81bd b1ab da3c 7758 56bc
000000b0: 8238 5bbb 67ce 543d 6c55 b6bd 03f0 b23d
000000c0: 506a f43a 8269 75bd f022 0abd 7bfe ddbc
000000d0: b144 c63a 53a1 f23c 9534 863d 9f02 7d3b
000000e0: 408a 91bd c900 a6bc cac6 883d 8610 a23d
000000f0: 08b7 42bd 8bff f83c b4dc 913d 29e0 d4bc
00000100: b54b 94bd a032 853d 9cbf 5cbd c7ce 993c
00000110: e373 eabc a261 0bbd 8c25 8ebd 3de9 00bd
00000120: 7f12 02bd f63d f93c 7255 533d 7c5e b0bd
00000130: 6ec2 fc3c 6187 cebc b0c7 45bb 4aa2 4cbd
00000140: c7b9 263d 99d3 7cbd 2768 543d 4082 09bd
00000150: 9fd9 9dbc a4eb 583d 76ec b53d b5bd b13d
00000160: fdd1 49bd 0521 8bbd 505e c23c 2efc a2bd
00000170: 5e50 b5bd d32a 8db9 3ab5 39ba ddfe 183d
00000180: 2d1e 3b3d ab3d e73c 6e8d 493d 5398 8a3c
00000190: b14e b4bc 3903 0bbd 547a e5bb b391 85bd
000001a0: 573c 21bd 034a 2dbd abe7 76bd 8bb8 a9bc
000001b0: 34b3 613d 09dd af3d fcb2 a9bd e524 5e3d
000001c0: 9498 56bc 1815 323d b740 4abd 2d21 98bc
000001d0: 7349 a33d c987 12bd 5c53 53bc 9115 6bbd
000001e0: 841a 873d 0960 583d f9d1 113d 9451 a73d
000001f0: 046d 25bd 7d5d 9b3c b0ab 06bb e8f1 4bbd
00000200: d6c3 23bd e429 47bc 2bd6 94bd b4a8 1a3d
00000210: c677 e4bc 26a9 39bd 54f1 6b3d d109 bb3c
00000220: 493e 21bd 8a35 59bd 5cb0 b0bd 1a08 77bd
00000230: 2b78 a4bd 1783 863d 18e2 69bd 1669 bbbc
00000240: c74e d5bc 6965 76bd b6ed ab3c 1f55 773c
00000250: b666 0e3d b8da bebb 49cf acbd 80bb 533b
00000260: c5d8 47bd 9798 ee3c a08e a33b a6a7 6bbd
00000270: 0c35 adbd 04a3 85bd b1ec 243c 641e 823d
00000280: 4e4d 59bd 44ff b3bd 8e0a f4bc 8e27 8d3d
00000290: cc3f 09bd 59d1 ac3d cf63 d7bc 47cf 833d
000002a0: bdcf b13c 8d62 973d 3f81 b1bd 6896 513d
000002b0: 0572 a2bd 5fe0 16bc ae63 a7bd d643 a3bd
000002c0: 3561 43bd f451 76bd ab46 1d3d 941a 4b3d
000002d0: 341d 83bd 403f 50bd 0e66 0c3d 31f8 06bc
000002e0: 1318 b5bc 9c2a 24bd 9cf1 8a3d 0918 66bc
000002f0: a554 66bd 579a 9d3d 4b46 11bd e6b5 243d
00000300: 426a 76bd 81d1 64bb f825 463d 628b 8d3b
00000310: ac65 ac3d 6ee6 693d daee 993d 5bdb 783d
00000320: f805 1d3d ef89 96bd d88b 1fbd eb20 793d
00000330: 52ad b13d 1035 00bd 12bd 8d3d bcdb 46bd
00000340: 01aa a73d 3781 9d3d 9e7f a53d 3a1e c13c
00000350: 2c0d 3f3d f91c 8c3c 4272 b4bd d426 d9bb
00000360: 79e1 7e3d 1e68 4abd 5ec0 723d 45dc 833d
00000370: 1027 6d3d d7e5 5e3d dd50 04bd 79a2 58bd
00000380: 49b7 7d3d 3056 95bc d32e 0d3d d38c e4bc
00000390: 5f83 1bbd 4620 d3bc a653 9a39 1138 a93c
000003a0: d20e 9c3c 85ad e83c 162d 76bd e066 57bd
000003b0: 8134 0a3d 915b 633d c221 8b3d 0ad2 7d3d
000003c0: dd3a e9bc f50d 4e3d 4567 eabc c01b 58bd
000003d0: 47f9 b7bc d4f4 0fbd 38a7 8cbd 2c16 16bd
000003e0: 53c7 ae3c b305 77bd 3f66 1ebd 5472 f8bc
000003f0: 5120 a6bc 8053 70bc 51e5 fabb e26f 073d

fc.bias f4 [63]
0.06467623 -0.06926092 -0.0020669806 0.057446677 0.009426869 0.04786579 0.021502623 0.08179525
0.026639264 -0.020576095 0.06446063 -0.033390753 -0.030497203 0.07786403 0.053685375 0.054870926
0.08292067 0.04059248 0.06555115 0.03438528 -0.047357038 -0.06339658 -0.017717889 0.024909424
0.016236475 -0.020153426 0.010354911 -0.057507932 -0.038444124 0.074363455 -0.0021877382 -0.03977166
-0.032127146 0.047468156 -0.078048594 0.08429608 0.066823505 0.05664979 0.062073376 -0.041578945
-0.07756858 -0.03284046 -0.03360148 -0.039585494 -0.077053435 0.0077427346 0.06552796 0.033602178
-0.0081654 0.050763316 0.079242855 -0.07753549 -0.059771 -0.014919335 -0.01431105 0.06645472
-0.018101176 -0.068664886 -0.035760257 -0.04073076 -0.012762635 -0.040672548 -0.015224171
00000000: f974 843d abd8 8dbd 2e76 07bb 354d 6b3d
00000010: 2873 1a3c eb0e 443d 4526 b03c 4584 a73d
00000020: 963a da3c 338f a8bc ef03 843d bec4 08bd
00000030: 45d5 f9bc 2d77 9f3d 32e5 5b3d 56c0 603d
00000040: 50d2 a93d 4d44 263d ae3f 863d 94d7 0c3d
00000050: 74f9 41bd 11d6 81bd 1b25 91bc d90e cc3c
00000060: 5b02 853c cc18 a5bc a5a7 293c 708d 6bbd
00000070: 9677 1dbd de4b 983d 2860 0fbb 9ce7 22bd
00000080: c197 03bd f86d 423d f1d7 9fbd 6ca3 ac3d
00000090: c3da 883d 9c09 683d a740 7e3d af4e 2abd
000000a0: 47dc 9ebd b883 06bd b5a1 09bd 6624 22bd
000000b0: 31ce 9dbd c4b6 fd3b 8633 863d 70a2 093d
000000c0: 2bc8 05bc 32ed 4f3d 144a a23d edca 9ebd
000000d0: 70d2 74bd 3a70 74bc e578 6abc 6a19 883d
000000e0: eb48 94bc 2da0 8cbd 5979 12bd 4cd5 26bd
000000f0: 5f1a 51bc 4298 26bd cd6e 79bc

fc2.weight f4 [1, 63]
0.1244268 -0.09079282 -0.035782162 -0.019494815 -0.073999494 -0.050435472 -0.07244691 -0.09675126
0.054579854 0.021867193 -0.054984465 -0.08368001 -0.010754902 -0.030053044 0.032441232 0.10234335
0.0254245 0.06453645 0.0847842 -0.062514305 0.07411649 0.07486993 0.0459206 -0.010641582
0.00014327258 -0.047031943 -0.028096002 0.058152057 -0.074574 0.040270492 0.024170548 0.097328655
-0.069431186 0.092968985 0.11626644 0.12519112 0.021216081 0.087797046 0.08614894 0.064394765
-0.09609807 0.015518113 -0.014301116 -0.06351994 -0.063976236 -0.117536545 -0.10544408 -0.08353649
0.040666327 -0.11625597 0.06373742 -0.102948986 -0.03844687 0.09551011 -0.035379656 -0.04696326
0.04463903 -0.0987274 -0.08589517 0.07827665 0.026206264 0.0012118408 0.11708186
00000000: 7ad3 fe3d 96f1 b9bd 5190 12bd 97b3 9fbc
00000010: 0c8d 97bd 6d95 4ebd 0c5f 94bd 8625 c6bd
00000020: 208f 5f3d d422 b33c 6437 61bd 6d60 abbd
00000030: 5435 30bc cd31 f6bc 19e1 043d 6499 d13d
00000040: 0b47 d03c b02b 843d 57a3 ad3d 8007 80bd
00000050: 63ca 973d 6855 993d 3d17 3c3d 085a 2ebc
00000060: 713b 1639 91a4 40bd 9629 e6bc da30 6e3d
00000070: 41ba 98bd acf2 243d 5001 c63c 3f54 c73d
00000080: f031 8ebd 8666 be3d 191d ee3d 1a32 003e
00000090: 59cd ad3c f0ce b33d db6e b03d 67e1 833d
000000a0: 11cf c4bd af3f 7e3c 3a4f 6abc be16 82bd
000000b0: f905 83bd 00b7 f0bd 11f3 d7bd 2e15 abbd
000000c0: bc91 263d 9c17 eebd c488 823d ebd6 d2bd
000000d0: 777a 1dbd ce9a c33d 42ea 10bd 8c5c 40bd
000000e0: 6ad7 363d 9731 cabd cfe9 afbd 824f a03d
000000f0: 85ae d63c a1d6 9e3a 9dc8 ef3d
