d2calcbot/main/calc_bot/actual_models/dota_model_ver1_14.pth (torch, 48066 bytes, 23 tensors)

branch_t.fc1.weight f4 [9, 9]
0	0x3e0ddecb	0.1385452
1	0xbe61bf95	-0.22045739
2	0x3e72b7cf	0.2370293
3	0x3dd02a45	0.10164312
4	0x3d013321	0.0315429
5	0x3d1bd574	0.03804536
6	0x3d1294ec	0.035786554
7	0x3e8b73c9	0.27236775
8	0xbe0af279	-0.13569058
9	0xbe3e2449	-0.18568529
10	0xbe0080fb	-0.12549202
11	0xbdfd6094	-0.123719364
12	0xbc2e769f	-0.010648399
13	0xbe11275b	-0.14175169
14	0x3e7ed8a0	0.24887323
15	0xbdd0079b	-0.10157701
16	0x3dda00ba	0.1064467
17	0x3d79107e	0.060806744
18	0xbdbe90fb	-0.093049966
19	0x3dfe72af	0.12424218
20	0x3e2de23f	0.16980837
21	0x3e0a03e4	0.13478047
22	0x3e26cbce	0.16288683
23	0xbe1c1764	-0.15243298
24	0xbdd05532	-0.101725
25	0xbaab45c8	-0.0013067061
26	0xbe727b33	-0.2367981
27	0xbe981268	-0.29701543
28	0x3e4a20cf	0.19739078
29	0x3e3ddf5c	0.18542236
30	0x3c03a87f	0.008035778
31	0xbbda9dad	-0.0066716284
32	0x3e0f25ad	0.13979216
33	0x3e66f589	0.22554602
34	0xbdfd6aa9	-0.123738594
35	0xbddd8f77	-0.10818379
36	0x3e761ca8	0.24034369
37	0xbe6e2e5f	-0.23259877
38	0x3b99d0da	0.0046940865
39	0x3dcadb69	0.099051304
40	0x3dd8ec48	0.10591942
41	0xbe74a4c4	-0.23890978
42	0xbe77e4bb	-0.24208347
43	0xbe620cbf	-0.22075175
44	0xbe851c1d	-0.2599801
45	0x3d1a22e7	0.03763094
46	0xbda4cd09	-0.0804692
47	0x3db065d2	0.08613171
48	0xbe9b97fa	-0.30389386
49	0xbe2c9fab	-0.16857783
50	0xbe761c0c	-0.24034137
51	0x3d553234	0.05204983
52	0xbd993e21	-0.07482553
53	0x3eb119d5	0.3459002
54	0xbe30c3c6	-0.17262182
55	0xbd96d0ef	-0.0736407
56	0x3dbb6167	0.091494374
57	0x3dd4d8ca	0.10392912
58	0xbe9d30b0	-0.30701208
59	0x3e1252bf	0.14289378
60	0x3e9ac30e	0.3022694
61	0x3ea6d1f8	0.32582068
62	0x3d7a3bee	0.06109231
63	0x3e85f090	0.26160097
64	0xbe9824c0	-0.29715538
65	0x3cabce07	0.020972265
66	0xbea18da6	-0.31553382
67	0xbd1b8a14	-0.03797348
68	0x3e1a4c7a	0.15068236
69	0xbe1988f8	-0.14993656
70	0xbe66bb2b	-0.22532336
71	0x3e2b8578	0.16750133
72	0xbd8d90cd	-0.06912384
73	0x3da53d92	0.08068384
74	0x3e9f8400	0.31155396
75	0xbe182b7f	-0.14860342
76	0xbe1d2489	-0.15345968
77	0x3af74a10	0.0018866677
78	0x3e6e0a5d	0.23246141
79	0xbe415120	-0.18878603
80	0x3d425cf5	0.047451932

branch_t.fc1.bias f4 [9]
0	0xbe5ac5f5	-0.21364577
1	0x3df4698f	0.11934196
2	0xbe8a7a8f	-0.2704663
3	0x3e931e76	0.28734177
4	0xbdb1b111	-0.08676351
5	0xbe8b2e03	-0.27183542
6	0xbe365ff9	-0.17810048
7	0xbdb884d7	-0.09009712
8	0xbc9a5303	-0.018838411

branch_t.fc2.weight f4 [9, 9]
0	0xbe43a1bb	-0.19104664
1	0x3e9c9a70	0.30586576
2	0xbdbdd409	-0.09268958
3	0x3e12af2a	0.14324632
4	0x3cdc0cc0	0.026861548
5	0xbe413527	-0.18867932
6	0x3e5baa32	0.21451643
7	0xbe8044d9	-0.25052527
8	0xbe58fe34	-0.21190721
9	0x3ea6eaf0	0.32601118
10	0x3e72cf5b	0.23711912
11	0xbe22c236	-0.15894398
12	0xbdcae4ca	-0.09906919
13	0x3e88c7a3	0.2671481
14	0x3ea12a64	0.31477654
15	0xbe2bca91	-0.16776492
16	0x3e37e691	0.17959048
17	0xbdf8e8ea	-0.121538
18	0xbd8eecf6	-0.069787905
19	0x3e505a41	0.20346929
20	0x3e2756e5	0.16341741
21	0x3dee0c02	0.11623384
22	0xbe40a5ea	-0.18813291
23	0xbcf8c5ab	-0.030367693
24	0x3e85e3d6	0.26150388
25	0xbccc4eaa	-0.024939854
26	0x3de08ac5	0.10963968
27	0xbe1ef7f5	-0.15524276
28	0x3e9be062	0.30444628
29	0xbc3b15aa	-0.011418739
30	0x3e2c01c7	0.16797553
31	0xbe4c92c2	-0.19977859
32	0xbe53f954	-0.2070058
33	0xbe40bb53	-0.18821459
34	0x3df167c6	0.11787371
35	0xbe3a3184	-0.18182951
36	0x3d89ca42	0.06728031
37	0xbe844caf	-0.25839755
38	0xbddbf454	-0.10739961
39	0x3dceb133	0.10092392
40	0xbe9f3510	-0.3109517
41	0xbe6086d9	-0.2192644
42	0xbe939f83	-0.28832635
43	0xbe2de230	-0.16980815
44	0xbcb75504	-0.022379406
45	0x3c617d0c	0.013762724
46	0xbe4d9a6b	-0.20078437
47	0xbd23ea0d	-0.04001813
48	0x3ccbb9cd	0.02486887
49	0x3e4fe28d	0.20301266
50	0xbe9b8f67	-0.30382845
51	0xbb2207f3	-0.0024723976
52	0x3e9b9e1d	0.30394068
53	0xbda4fd1e	-0.08056091
54	0x3e95f7f6	0.29290742
55	0x3d059938	0.032616824
56	0x3e8bdd73	0.2731739
57	0x3d8a0053	0.06738343
58	0xbcdf67a6	-0.027271103
59	0xbe62445c	-0.2209639
60	0x3e66391c	0.22482723
61	0x3e914daa	0.28379565
62	0x3ceac63b	0.028658977
63	0xbe7fe260	-0.24988699
64	0xbe495558	-0.19661462
65	0xbd9d6037	-0.07684367
66	0x3e0f3447	0.13984786
67	0xbe7f42b2	-0.24927786
68	0xbdd1e32b	-0.10248407
69	0x3dca0ba0	0.098654985
70	0x3de97394	0.11398998
71	0xbe4eb870	-0.20187545
72	0x3e7763d4	0.24159175
73	0xbe7f3b6e	-0.24925014
74	0x3dc7d729	0.097578354
75	0xbd1332c4	-0.035937086
76	0x3e5c30aa	0.21502939
77	0xbe22c0e3	-0.15893893
78	0x3d80fc94	0.062981755
79	0x3e48506c	0.19561929
80	0x3dcfdaae	0.10149132

branch_t.fc2.bias f4 [9]
0	0xbdeaa1c5	-0.11456636
1	0x3e124aa4	0.14286286
2	0x3ea194b9	0.3155878
3	0xbcb8eafb	-0.022572985
4	0xbc15e9bf	-0.009149968
5	0xbd89351c	-0.06699583
6	0x3cd7febc	0.026366584
7	0x3d447c40	0.047970057
8	0xbe9181c5	-0.2841932

branch_p.fc1.weight f4 [9, 9]
0	0x3e64b7e9	0.22335781
1	0xbe0035da	-0.12520543
2	0xbe8a95f0	-0.27067518
3	0xbe94605d	-0.2897977
4	0xbe954921	-0.29157355
5	0x3daadd87	0.08343034
6	0x3e827ddf	0.25486657
7	0x3e9cc088	0.3061564
8	0x3e85f434	0.26162875
9	0xbc8fa4a1	-0.017534556
10	0x3da2b30b	0.07944306
11	0x3e2b5c3c	0.16734403
12	0xbd8c613d	-0.06854484
13	0xbe54e416	-0.20790133
14	0x3a881ca7	0.0010384516
15	0xbad93080	-0.001657024
16	0xbe21ccda	-0.15800801
17	0x3e4c1525	0.19929941
18	0xbd41b2fa	-0.047289826
19	0xbcce2993	-0.025166309
20	0xbe69cee9	-0.22832836
21	0xbdb189b9	-0.08668847
22	0x3e5a181d	0.21298261
23	0xbea925a3	-0.33036527
24	0xbe216b2a	-0.15763536
25	0xbe2444cd	-0.1604187
26	0xbdde716a	-0.10861476
27	0x3e5f6e6f	0.21819471
28	0x3b9d361e	0.004797711
29	0x3e55d5c6	0.2088233
30	0xbe594b0b	-0.21220033
31	0x3e837143	0.2567235
32	0x3e967e74	0.2939335
33	0x3ba55581	0.0050455933
34	0x3db25d2a	0.08709176
35	0x3e1bda12	0.15219906
36	0xbe1bc06d	-0.15210123
37	0xbd5cfa5d	-0.053949703
38	0xbc424230	-0.011856601
39	0x3da8ae83	0.082364105
40	0xbe81ff1b	-0.25389943
41	0x3e3a7762	0.18209603
42	0x3db898da	0.09013529
43	0x3e53a6b1	0.20669056
44	0xbea2dd54	-0.31809485
45	0xbe60fa98	-0.21970594
46	0x3dc6b6e4	0.09702852
47	0xbe921837	-0.285341
48	0x3e077e2e	0.13231727
49	0xbe75dda8	-0.24010336
50	0xbca88b2c	-0.020574175
51	0xbdf3c7c1	-0.119033344
52	0xbe02140a	-0.12702957
53	0x3da6420c	0.08118066
54	0x3e85248f	0.26004454
55	0xbe147905	-0.1449929
56	0x3d8d72af	0.0690664
57	0x3e67189e	0.22567984
58	0xbd9a6f4a	-0.07540758
59	0x3e9e8043	0.3095723
60	0xbda966da	-0.082715705
61	0xbe0e088d	-0.1387045
62	0x3e5422ed	0.20716448
63	0xbe9bc03f	-0.3042011
64	0x3d60a887	0.05484822
65	0xbcd3bc7d	-0.025846714
66	0xbe357fb6	-0.17724499
67	0x3dde90fa	0.10867496
68	0xbe3c1a30	-0.18369365
69	0x3e427e2c	0.18993443
70	0x3e33ef5e	0.1757178
71	0x3e0ae6ff	0.1356468
72	0x3dfbff73	0.123045824
73	0xbea5a71a	-0.3235405
74	0xbdc1dc26	-0.09465818
75	0xbe93ecb7	-0.28891537
76	0x3d2c1f7a	0.042022206
77	0x3e47cd69	0.19511952
78	0xbe1374b5	-0.14399989
79	0xbe407f40	-0.18798542
80	0xbcbb994a	-0.022900242

branch_p.fc1.bias f4 [9]
0	0x3e648260	0.22315359
1	0xbdcf14af	-0.10111367
2	0x3e10b89b	0.14132921
3	0xbe9ebf77	-0.3100545
4	0xbe96abcc	-0.29427946
5	0x3e03807f	0.12841986
6	0x3e4c9e21	0.19982196
7	0xbe78d46d	-0.24299784
8	0x3dd91fa1	0.10601736

branch_p.fc2.weight f4 [9, 9]
0	0x3d9b24a0	0.07575345
1	0xbd252db2	-0.04032678
2	0xbe96181b	-0.29315266
3	0xbe8278e5	-0.2548286
4	0x3e35af1c	0.1774258
5	0x3d9c24d3	0.07624211
6	0x3ca10550	0.019655854
7	0xbdbd1e24	-0.092342645
8	0xbe9ee126	-0.3103115
9	0x3e8f8e90	0.28038454
10	0x3e0aa861	0.13540794
11	0x3dbab5a5	0.09116677
12	0xbdc3cbec	-0.095603794
13	0x3e2f6019	0.17126502
14	0x3ea05455	0.3131434
15	0x3e9b1c52	0.30295044
16	0x3e8bc753	0.2730051
17	0x3cb2f813	0.021846807
18	0x3e9a6da4	0.30161774
19	0xbd99ce32	-0.07510032
20	0x3e4f6669	0.2025391
21	0xbe159802	-0.14608768
22	0xbe86e05c	-0.26343048
23	0xbe9a92d6	-0.30190152
24	0xbe84ca92	-0.259358
25	0x3e0e638d	0.13905163
26	0x3ce187de	0.027530607
27	0x3e8547bd	0.26031294
28	0x3e78a37e	0.24281117
29	0x3d2c67ac	0.042091057
30	0x3e98d108	0.29846978
31	0x3e950bdf	0.2911062
32	0x3e5d9ef5	0.21642669
33	0x3ba69ee8	0.005084861
34	0xbe53b388	-0.20673954
35	0xbe2b8df1	-0.16753365
36	0xbe269961	-0.16269447
37	0xbe5ba96a	-0.21451345
38	0x3eaaebe6	0.333831
39	0xbe089946	-0.13339719
40	0x3e1553a6	0.1458269
41	0x3dc33a15	0.09532563
42	0x3dd9e8fc	0.10640141
43	0xbe01f483	-0.1269093
44	0xbdfc7f2e	-0.12328945
45	0xbe67f600	-0.22652435
46	0xbd3b59c5	-0.045739908
47	0xbdfc383e	-0.12315415
48	0x3e0b6a56	0.13614783
49	0xbe9040c5	-0.28174415
50	0x3d1ca865	0.03824653
51	0x3d816ac4	0.06319192
52	0x3d0981c0	0.033571005
53	0x3e890694	0.2676283
54	0x3d9a30bd	0.07528827
55	0x3e0ab610	0.13546014
56	0x3d9a6243	0.07538273
57	0x3e31be9b	0.17357866
58	0xbe6f910a	-0.23395172
59	0xbe76108c	-0.2402975
60	0xbe8db1d4	-0.27674735
61	0xbdad4b3a	-0.08461614
62	0xbe04c1a1	-0.12964489
63	0xbe52feb0	-0.20604968
64	0x3ea702e1	0.32619384
65	0x3e22046b	0.15821998
66	0x3e7cfeac	0.24706525
67	0xbe32d3aa	-0.17463556
68	0xbbf21bea	-0.0073885815
69	0x3ae08ee5	0.001713243
70	0x3e432a00	0.1905899
71	0x3e65c191	0.22437121
72	0xbe8dc2c0	-0.27687645
73	0x3df9b014	0.12191787
74	0xbd85b144	-0.06527951
75	0xbdaebbd8	-0.08531922
76	0xbe90d4db	-0.28287396
77	0x3e28f166	0.16498336
78	0xbe5560bb	-0.20837681
79	0x3e3687b7	0.17825209
80	0xbdc091df	-0.09402823

branch_p.fc2.bias f4 [9]
0	0xbe056a57	-0.13028847
1	0xbdfaea12	-0.122516766
2	0x3d2cb3a5	0.04216351
3	0xbd350750	-0.044196427
4	0xbe8f8170	-0.2802844
5	0xbe192b3f	-0.14957903
6	0xbe226164	-0.15857464
7	0xbdf3cf35	-0.11904756
8	0x3e417782	0.18893245

branch_h.fc1.weight f4 [9, 9]
0	0xbe9c7459	-0.30557516
1	0xbdc1cd51	-0.09462989
2	0xbe0a8a36	-0.13529286
3	0xbe394c1f	-0.18095444
4	0x3e34b56c	0.17647332
5	0x3e5a904a	0.21344104
6	0x3dda361a	0.1065485
7	0x3e259d66	0.16173324
8	0x3e9f48d7	0.3111026
9	0x3e766d04	0.24065024
10	0xbe41f919	-0.1894268
11	0xbe794d7c	-0.24345964
12	0x3e35ec52	0.1776593
13	0xbe83562a	-0.25651675
14	0xbd30f776	-0.043204747
15	0xbe3d6f25	-0.1849943
16	0x3e15511b	0.1458172
17	0x3dbde57a	0.09272285
18	0x3ea696c4	0.325369
19	0xbde619a5	-0.1123536
20	0x3e5aed7a	0.21379653
21	0xbd18b344	-0.037280336
22	0x3e43f7b7	0.19137464
23	0xbe87f345	-0.26552787
24	0x3ce83fe1	0.028350772
25	0xbe93dd3a	-0.2887972
26	0xbe026b43	-0.1273623
27	0xbe0bc8c3	-0.13650803
28	0xbe456dda	-0.19280186
29	0x3cade7b2	0.021228645
30	0x3e223b94	0.1584304
31	0xbe3e39e6	-0.18576774
32	0x3da97532	0.08274306
33	0xbcebf5bb	-0.028803697
34	0x3e33c5d1	0.1755593
35	0x3ea2e29d	0.31813517
36	0x3d3cba2e	0.046075992
37	0x3d412625	0.047155518
38	0x3e56ae74	0.20964986
39	0xbdc0a815	-0.09407059
40	0xbde385ba	-0.11109491
41	0x3e8fc94c	0.28083265
42	0x3d3f284f	0.0466693
43	0x3e142e9e	0.14470908
44	0x3e8a3a58	0.26997638
45	0x3e652ee9	0.22381176
46	0x3e636fbd	0.22210594
47	0xbd6d7411	-0.057972018
48	0x3e4fe937	0.20303808
49	0xbe3e1a46	-0.1856471
50	0xbd9f0e5d	-0.077664115
51	0x3ca8c859	0.020603346
52	0xbe801e48	-0.25023103
53	0x3e129233	0.14313583
54	0xbe4fdade	-0.20298335
55	0x3c9eeb49	0.019399302
56	0x3d453922	0.04815019
57	0x3e2e9dd7	0.17052399
58	0xbe971973	-0.29511604
59	0xbe9dc896	-0.30817097
60	0x3e15c8fb	0.14627449
61	0xbdf2eef0	-0.1186198
62	0x3e8fb55f	0.28068063
63	0xbe8bf5d3	-0.27335986
64	0xbdcaff89	-0.09912021
65	0x3c657396	0.014004609
66	0x3d255c36	0.040371142
67	0xbde0b421	-0.10971857
68	0xbe237acc	-0.15964812
69	0xbdf2fad6	-0.118642494
70	0xbe951a0d	-0.29121438
71	0xbe260275	-0.16211875
72	0xbe9e69f7	-0.3094022
73	0xbc93abaa	-0.018026192
74	0x3e74ab3c	0.23893446
75	0xbd7c6cac	-0.061627075
76	0x3e8a5b74	0.27022898
77	0x3b358b52	0.002770145
78	0x3e6c331a	0.23066369
79	0xbe9b6f94	-0.30358565
80	0xbe97c3bb	-0.29641518

branch_h.fc1.bias f4 [9]
0	0xbe89d073	-0.26916847
1	0xbd88b8de	-0.066758856
2	0x3e8fe1d0	0.2810197
3	0x3e0ae7fa	0.13565055
4	0x3e029853	0.1275342
5	0x3e1d5363	0.15363841
6	0xbe3db927	-0.18527661
7	0xbe895ba2	-0.26827723
8	0xbe79363a	-0.24337092

branch_h.fc2.weight f4 [9, 9]
0	0xbe408b9d	-0.18803258
1	0x3e79223a	0.24329463
2	0xbd7fb2b7	-0.062426295
3	0x3e0522a8	0.13001502
4	0xbdc32f36	-0.09530489
5	0xbe929109	-0.28626278
6	0x3ea3e298	0.32008815
7	0xbe884742	-0.26616865
8	0x3d0e6599	0.03476486
9	0xbdd106fa	-0.10206409
10	0x3dcc811e	0.09985565
11	0xbda70bda	-0.081565574
12	0xbe78022a	-0.24219576
13	0xbe77ed09	-0.24211515
14	0xbe439490	-0.19099641
15	0xbea2d561	-0.3180342
16	0x3e5213cb	0.20515363
17	0x3dd94b0a	0.10610016
18	0xbe6a6077	-0.22888361
19	0xbd9eb8e7	-0.07750111
20	0xbe67e873	-0.22647266
21	0xbb8c9299	-0.0042899367
22	0xbea63dc8	-0.3246901
23	0x3e84ac88	0.2591288
24	0x3e538cd4	0.2065919
25	0xbe0b6bdc	-0.13615364
26	0x3dcacfc1	0.09902907
27	0x3ea77b47	0.3271124
28	0xbd083aea	-0.03325931
29	0xbe07069f	-0.1318612
30	0xbde1570e	-0.110029325
31	0xbea279be	-0.31733507
32	0xbe8a9002	-0.27062994
33	0xbe8d53f5	-0.27603117
34	0xbdb6ece0	-0.08931899
35	0x3cf48d4b	0.02985253
36	0xbe7bf8f4	-0.24606687
37	0xbe19cda6	-0.15019855
38	0xbe65fb5d	-0.22459169
39	0x3d13c939	0.036080573
40	0xbc75b64f	-0.014997079
41	0xbe82ad53	-0.2552286
42	0xbe750060	-0.23925924
43	0x3d83e3e9	0.06439955
44	0x3e71ef5f	0.23626469
45	0x3e8e28e7	0.2776558
46	0x3e88dcb4	0.26730883
47	0xbd0009be	-0.03125929
48	0x3d490f95	0.049087126
49	0x3e20ceef	0.15703939
50	0xbdbf650c	-0.09345445
51	0x3d82d49b	0.063882075
52	0xbe36e8a2	-0.1786218
53	0x3c1a3220	0.009411365
54	0xbc1a6261	-0.009422869
55	0xbd1445d6	-0.036199413
56	0xbe38fb9e	-0.18064734
57	0x3e50bd38	0.20384681
58	0xbd959cd0	-0.073053
59	0xbea8cc76	-0.3296849
60	0x3e2729b3	0.163245
61	0xbe877029	-0.2645276
62	0xbdd7da9b	-0.105397426
63	0xbe4cd544	-0.2000323
64	0xbe549710	-0.20760751
65	0x3c79b20c	0.015240204
66	0xbe8ba2c6	-0.27272624
67	0xbe8c405c	-0.27392852
68	0x3e909a31	0.2824264
69	0x3dfb1ed6	0.12261741
70	0x3d344831	0.04401416
71	0xbdd60777	-0.104506426
72	0xbe632f79	-0.22186078
73	0xbdfbb4bf	-0.12290334
74	0x3d899250	0.0671736
75	0xbd76b2a9	-0.060228977
76	0x3e7b5dc6	0.2454749
77	0x3e0c7192	0.13715199
78	0x3e83671f	0.25664613
79	0xbcbd6428	-0.023119047
80	0x3e37d7d4	0.17953426

branch_h.fc2.bias f4 [9]
0	0x3de20092	0.11035265
1	0x3e93593e	0.28779024
2	0xbe70ad60	-0.23503637
3	0xbcf5915b	-0.029976537
4	0x3e03267a	0.12807646
5	0x3cf6a51d	0.030108029
6	0xbe88a89c	-0.2669114
7	0x3d84cd43	0.06484463
8	0xbe0163fe	-0.126358

self_attention_players.query_projection.weight f4 [18, 18]
0	0xbe6c2d4e	-0.23064157
1	0xbe0ea387	-0.13929568
2	0xbe235da8	-0.15953696
3	0xbe445343	-0.19172387
4	0x397fa979	0.00024381829
5	0xbafc1fee	-0.001923559
6	0xbe02d63c	-0.12777036
7	0x3de747c6	0.112929866
8	0x3dab4655	0.08363024
9	0x3a9c4095	0.0011921102
10	0xbe69b30b	-0.22822206
11	0xbd9eed92	-0.07760157
12	0x3df3f389	0.11911685
13	0x3de977ad	0.113997795
14	0xbcc852c1	-0.024453523
15	0x3dc91bd7	0.09819763
16	0x3e05423e	0.1301355
17	0xbe51391a	-0.20431939
18	0xbd10f528	-0.03539005
19	0x3c7ad3e5	0.015309309
20	0x3df4cf68	0.11953622
21	0x3e46219d	0.1934876
22	0xbce7fff9	-0.0283203
23	0xbaa50270	-0.0012589227
24	0xbda686ca	-0.08131178
25	0x3e3b517d	0.18292804
26	0xbe059fe3	-0.13049273
27	0x3d2310d6	0.039810978
28	0x3de8542d	0.1134418
29	0x3e5dbdf9	0.216545
30	0x3e505664	0.20345455
31	0x3c94fc8f	0.018186836
32	0xbcacfaf6	-0.021115761
33	0xbe0fa313	-0.14027052
34	0x3a6f2bb1	0.0009123637
35	0xbe029dff	-0.12755583
36	0x3e05a4b9	0.13051118
37	0x3cddc44b	0.027071139
38	0xbe3db68b	-0.18526666
39	0x3c4c2e05	0.012462144
40	0xbe3b5f51	-0.18298079
41	0xbe40b5ba	-0.18819323
42	0x3e12a4ec	0.14320725
43	0xbdea9dd0	-0.114558816
44	0xbe75b862	-0.23996118
45	0x3dd479bf	0.10374784
46	0xbd9bb9f4	-0.07603827
47	0xbd20e631	-0.039282028
48	0xbd30d770	-0.043174207
49	0xbc4eafd5	-0.012615164
50	0xbdcd6466	-0.10028915
51	0xbe5eaf33	-0.2174652
52	0x3e5e8054	0.21728641
53	0xbc1b2232	-0.009468602
54	0x3e3e45bf	0.18581294
55	0xbe17fb6f	-0.14842008
56	0xbe46c8b7	-0.19412504
57	0xbd7fddd6	-0.06246742
58	0x3e6e4ffc	0.23272699
59	0xbdcacbd2	-0.09902157
60	0xbdfa8194	-0.12231746
61	0xbe6702db	-0.22559683
62	0x3dcc0657	0.09962147
63	0x3deb04ad	0.11475501
64	0x3e601d7a	0.21886244
65	0x3dcc3dcb	0.099727236
66	0x3e560528	0.20900404
67	0x3d41ab47	0.047282483
68	0xbe656274	-0.22400838
69	0x3e144f87	0.14483462
70	0xbe6ccbc9	-0.23124613
71	0x3e3c35a4	0.18379837
72	0xbd5f41d3	-0.054506134
73	0xbdd104f2	-0.10206021
74	0x3d86ad22	0.06575991
75	0x3e61555e	0.22005221
76	0xbe1c5641	-0.15267278
77	0x3c5d7a89	0.013517984
78	0xbb40bbd6	-0.0029408834
79	0xbe26038b	-0.16212289
80	0xbe5395be	-0.20662591
81	0x3c94956d	0.018137658
82	0xbe548d93	-0.20757131
83	0xbda0c614	-0.078502804
84	0xbdc84610	-0.09778988
85	0xbb546739	-0.0032410158
86	0x3e6102ae	0.21973678
87	0x3e1fa19a	0.1558899
88	0xbe6e2374	-0.23255712
89	0x3d0736c6	0.03301122
90	0x3c62c75e	0.013841478
91	0x3d120df9	0.035657857
92	0xbd61721b	-0.05504046
93	0x3dae9293	0.085240506
94	0xbda644f3	-0.0811862
95	0x3dae927b	0.08524033
96	0x3e5e1c92	0.21690586
97	0xbdaac1a2	-0.08337714
98	0x3d5efc89	0.054440055
99	0xbdfcca98	-0.12343329
100	0xbdeb37c1	-0.114852436
101	0x3e65852f	0.22414087
102	0x3e1029f4	0.14078504
103	0x3d7e71ae	0.062120132
104	0x3e400d75	0.18755133
105	0xbe69858b	-0.22804849
106	0xbe6b056b	-0.22951286
107	0xbdb8f266	-0.09030609
108	0x3c2e279d	0.010629562
109	0x3ccd49a8	0.025059536
110	0x3d7d351e	0.061818235
111	0x3e10a3ad	0.14124937
112	0xbd7b00a0	-0.061279893
113	0xbd93ff66	-0.07226448
114	0x3cf8afb6	0.030357223
115	0xbda4d219	-0.080478854
116	0x3e1be4bd	0.15223975
117	0xbe1730c8	-0.14764702
118	0x3dda2cfe	0.10653113
119	0x3ce77ebe	0.028258678
120	0x3e5952b0	0.21222949
121	0x3e1fd458	0.15608346
122	0x3e652326	0.2237669
123	0x3da55adf	0.08073973
124	0xbe1c09f8	-0.15238178
125	0x3d83d9a8	0.06437999
126	0x3e0563fa	0.1302642
127	0x3e595dcc	0.21227187
128	0x3d4f41fa	0.05060003
129	0x3d2162c1	0.03940082
130	0xbe089fc9	-0.13342203
131	0x3d156da8	0.03648153
132	0x3e110156	0.14160666
133	0x3e60dc20	0.21958971
134	0x3dab57ef	0.083663814
135	0xbe47d873	-0.19516163
136	0xbc286a23	-0.010279211
137	0xbe1c342e	-0.1525428
138	0xbd74e186	-0.05978539
139	0x3e399a1c	0.18125194
140	0xbe1c4f97	-0.15264736
141	0x3c494f5e	0.012286989
142	0xbd0282a6	-0.031862877
143	0xbd8c5ad6	-0.06853263
144	0xbdba4e9a	-0.09097023
145	0x3e09d336	0.13459477
146	0x3c0ca6cc	0.008584689
147	0x3dcc730f	0.09982883
148	0x3d825527	0.06363898
149	0xbd92d637	-0.071697645
150	0xbd35009e	-0.04419004
151	0x3e54fd24	0.2079969
152	0x3e1785d3	0.14797144
153	0x3e2ff1d1	0.1718209
154	0x3e711d37	0.23546301
155	0xbda833b8	-0.082129896
156	0x3d874fa2	0.06606986
157	0x3e384886	0.17996415
158	0xbe64e096	-0.22351298
159	0xbd4bed4f	-0.049786862
160	0xbd4a726a	-0.04942552
161	0x3e258c09	0.161667
162	0x3e0be2eb	0.13660781
163	0xbe60b39c	-0.21943516
164	0xbdf7845b	-0.12085792
165	0xbe23bf40	-0.15990925
166	0x3e4d3518	0.20039785
167	0x3e413dca	0.18871227
168	0x3e29c8aa	0.16580454
169	0x3ba1b027	0.004934329
170	0x3e360d3b	0.17778485
171	0xbe055f8d	-0.13024731
172	0xbdd97ecf	-0.1061989
173	0x3cb9b57f	0.022669552
174	0xbd1fe21e	-0.039034
175	0x3e3f7098	0.18695295
176	0x3cc3df12	0.02391008
177	0xbd79168a	-0.06081251
178	0xbe2b4028	-0.16723692
179	0xbd35760f	-0.044302043
180	0xbdf581f6	-0.11987679
181	0x3c73ed09	0.014888057
182	0xbe5fa5d6	-0.21840605
183	0x3dca6d5c	0.0988414
184	0x3e435283	0.19074444
185	0xbd37574e	-0.044760995
186	0x3e6619e8	0.2247082
187	0xbdf7f0c9	-0.12106473
188	0x3d18ce1c	0.037305936
189	0x3e09e693	0.13466863
190	0x3e533718	0.20626485
191	0x3da21915	0.0791494
192	0xbc9ceeb8	-0.019156799
193	0x3c8771c4	0.01653374
194	0x3b9b9454	0.0047479067
195	0x3dfeb92f	0.12437665
196	0x3e7407b0	0.23831058
197	0xbcf79e80	-0.030226946
198	0x3b9104ad	0.004425606
199	0xbd9bffbe	-0.07617138
200	0xbe5a0e23	-0.21294455
201	0xbda9a28a	-0.08282955
202	0xbd340a41	-0.04395509
203	0x3e6d9218	0.23200262
204	0xbdffb611	-0.12485898
205	0xbc1ad747	-0.00945074
206	0xbe042113	-0.12903242
207	0xbde8bb46	-0.113638446
208	0x3df5901d	0.11990378
209	0x3cac7f25	0.021056721
210	0xbbbcf039	-0.0057659415
211	0xbe07fd4f	-0.13280223
212	0xbe688aaa	-0.22709146
213	0x3cc494a3	0.023996657
214	0x3db59b13	0.08867469
215	0x3d7bf605	0.06151392
216	0xbe3e991d	-0.18613096
217	0x3d91437b	0.07092949
218	0xbe3e22e7	-0.18568002
219	0x3d194250	0.037416756
220	0x3da91267	0.08255463
221	0xbd6f4ddc	-0.05842386
222	0xbd849f63	-0.06475713
223	0x3dfceea2	0.12350203
224	0xbccf9159	-0.025337862
225	0xbe210f0e	-0.15728399
226	0xbe5f98da	-0.21835652
227	0x3e4b9c3a	0.19883814
228	0x3e19f789	0.15035833
229	0xbe10b023	-0.14129691
230	0xbe00eb03	-0.1258965
231	0x3e6b6737	0.22988592
232	0x3d53d23a	0.05171416
233	0xbb98854a	-0.004654561
234	0x3d8e719f	0.06955265
235	0x3d6f4dab	0.05842368
236	0xbd4b88e5	-0.0496911
237	0xbe08c92d	-0.13357992
238	0x3e63060a	0.22170272
239	0xbe258ea1	-0.1616769
240	0x3e562061	0.20910789
241	0xbe453059	-0.19256724
242	0xbe6c600d	-0.23083515
243	0x3de08801	0.10963441
244	0xbe024d57	-0.12724815
245	0xbe19a6ff	-0.1500511
246	0x3abc023d	0.0014343929
247	0x3d38f3ba	0.04515431
248	0xbe2ca5bd	-0.16860099
249	0xbe25f7eb	-0.16207854
250	0x3e21dac2	0.15806106
251	0x3c4f4aeb	0.012652139
252	0x3d2a0cd1	0.04151613
253	0x3cd207a8	0.025638416
254	0x3dcace31	0.09902609
255	0xbdec75d7	-0.11545914

self_attention_players.query_projection.bias f4 [18]
0	0xbe32f483	-0.17476086
1	0xbe39f0e6	-0.18158302
2	0xbc594422	-0.013260873
3	0xbca04de9	-0.0195684
4	0xbe1c5896	-0.15268168
5	0xbdb3642b	-0.0875934
6	0xbd8c635b	-0.06854888
7	0x3d34f8bf	0.044182535
8	0xbd933a42	-0.07188846
9	0xbe0e0e68	-0.13872683
10	0x3d0b3491	0.033985678
11	0x3e1549f7	0.14578997
12	0x3de9d960	0.11418414
13	0xbdc6a328	-0.09699088
14	0xbc843df2	-0.01614282
15	0x3e07ec2a	0.13273683
16	0xbd89464c	-0.06702861
17	0x3b818558	0.0039526634

self_attention_players.key_projection.weight f4 [18, 18]
0	0xbe090b11	-0.13383128
1	0x3e5f90b9	0.21832551
2	0x3e746747	0.23867522
3	0x3dcc50be	0.09976338
4	0xbde9249c	-0.11383936
5	0xbca22fc2	-0.019798163
6	0x3d9fbb58	0.07799405
7	0xbdeff24c	-0.11716136
8	0xbd0ceba9	-0.03440443
9	0xbcb208bc	-0.02173268
10	0x3e4ee945	0.20206173
11	0x3de4ad5a	0.11165877
12	0x3e6e4b1b	0.23270838
13	0xbcc96a44	-0.024586804
14	0x3a9ee110	0.0012121517
15	0xbd9f16c0	-0.07768011
16	0xbe230807	-0.15921031
17	0x3d024234	0.031801417
18	0x3da984dc	0.08277294
19	0x3e24ec37	0.16105734
20	0xbd035cdf	-0.03207099
21	0xbe3bd780	-0.18343925
22	0xbc8adf2c	-0.01695212
23	0xbe303790	-0.17208695
24	0xbe537abf	-0.20652293
25	0xbe576a38	-0.21036613
26	0xbd413d49	-0.047177587
27	0xbd5d7241	-0.05406404
28	0x3dd7cb8a	0.10536869
29	0xbc2fae58	-0.010722719
30	0xbe38f8ac	-0.18063611
31	0x3e612798	0.2198776
32	0x3d3be2ab	0.045870464
33	0xbe12620f	-0.14295219
34	0x3bcc3b99	0.0062326905
35	0xbcd6be0e	-0.026213672
36	0xbe5053d9	-0.20344485
37	0x3da42bb7	0.080161504
38	0xbe014540	-0.12624073
39	0xbe1ac9e6	-0.1511608
40	0xbdd76175	-0.10516635
41	0x3dc2600d	0.094909765
42	0xbe6b1a9c	-0.2295937
43	0x3de547c9	0.111953326
44	0xbcad4c55	-0.021154562
45	0xba065789	-0.0005124738
46	0xbdf9505a	-0.12173529
47	0xbe4b94a0	-0.19880915
48	0x3dc6ec32	0.097130194
49	0xbe34b758	-0.17648065
50	0x3dcb6b7a	0.09932609
51	0xbd86e48f	-0.06586563
52	0xbe1aa69c	-0.15102619
53	0xbc8b29df	-0.01698774
54	0xbcac7cf3	-0.021055674
55	0x3e075e08	0.13219464
56	0xbe391f38	-0.18078315
57	0xbe2d90c4	-0.16949755
58	0x3ce9f833	0.028560733
59	0x3e1b2476	0.15150627
60	0x3e285ec2	0.16442397
61	0x3d9f3ff1	0.07775868
62	0xbdd0dc05	-0.101982154
63	0x3e2e597c	0.17026323
64	0xbdb02e43	-0.08602574
65	0x3dc86c6a	0.09786303
66	0x3e40e3f2	0.18836954
67	0xbe47bcc2	-0.19505599
68	0xbd3ce220	-0.046114087
69	0x3b251b9d	0.002519346
70	0x3def5606	0.116863295
71	0xbdfaa20f	-0.122379415
72	0x3d64bf09	0.055846248
73	0xbd1bd717	-0.038046923
74	0xbe161b78	-0.14658916
75	0x3dc2a57d	0.09504221
76	0xbe19888f	-0.14993499
77	0xbe66002a	-0.22461
78	0x3d654520	0.055974126
79	0x3e4c3bcf	0.1994469
80	0xbdfcadf6	-0.12337868
81	0xbd43a90d	-0.04776864
82	0xbd86731c	-0.06564924
83	0xbe4f2efe	-0.2023277
84	0xbcc87f2a	-0.024474699
85	0x3e5ecf46	0.21758756
86	0xbc4e1625	-0.012578522
87	0x3d9fb68c	0.0779849
88	0xbe13cbef	-0.14433263
89	0x3d7d9fed	0.061920095
90	0x3daf9be6	0.08574657
91	0xbe50e1e7	-0.20398675
92	0x3c185c4e	0.009299351
93	0x3e449481	0.19197275
94	0xbdb66c24	-0.08907345
95	0xbc5eaed8	-0.013591491
96	0xbc830d53	-0.015997564
97	0xbcf2dffd	-0.029647822
98	0x3e13319c	0.14374393
99	0xbd4649bb	-0.04841016
100	0xbe4c458d	-0.19948407
101	0xbc50bcc4	-0.012740318
102	0xbde3eef1	-0.11129559
103	0x3db04995	0.08607785
104	0xbdd1210b	-0.102113806
105	0xbd9b5fba	-0.07586618
106	0xbd9bdb31	-0.07610167
107	0xbda74507	-0.08167463
108	0x3cb128a8	0.021625832
109	0xbdd5b8ef	-0.10435664
110	0x3e20d253	0.15705232
111	0x3e1264b7	0.14296232
112	0xbd44afa7	-0.048019078
113	0x3e6ddb18	0.23228109
114	0xbd58ff1e	-0.052977674
115	0xbdffc932	-0.12489547
116	0xbd32a29a	-0.0436121
117	0xbdfdb223	-0.123874925
118	0x3e08c5e0	0.13356733
119	0x3e1f6cd0	0.15568852
120	0xbe235fe9	-0.15954556
121	0x3e5e99ad	0.2173831
122	0xbd58d2d7	-0.052935448
123	0x3c2cf922	0.010557445
124	0xbd858055	-0.06518618
125	0xbe2be26f	-0.16785596
126	0x3d6db830	0.058036983
127	0xbe441ad6	-0.19150862
128	0xbe42153b	-0.18953411
129	0xbe6fa106	-0.2340127
130	0x3e48e663	0.19619136
131	0xbd3cfbc3	-0.046138536
132	0xbe0e23ed	-0.13880892
133	0x3e46b3cc	0.19404525
134	0x3d961e49	0.07329995
135	0x3c6389f4	0.013887871
136	0x3dbf7748	0.09348923
137	0x3d537ccb	0.051632684
138	0x3d8fdb9a	0.070243075
139	0xbe626b18	-0.22111166
140	0xbe1891a7	-0.14899312
141	0x3dd9da25	0.10637311
142	0x3c977d85	0.01849247
143	0x3e5c164c	0.2149288
144	0x3e495c0d	0.19664021
145	0xbe2574cf	-0.1615784
146	0xbcba4fb0	-0.022743076
147	0x3d55378d	0.05205493
148	0x3e2eda30	0.1707542
149	0x3e044a59	0.12918986
150	0x3e60dec0	0.21959972
151	0xbe2a84d5	-0.16652234
152	0xbe159c7a	-0.14610472
153	0xbe0d7485	-0.1381398
154	0xbdce6eae	-0.10079704
155	0xbe22311b	-0.15839045
156	0x3d8bf6e5	0.06834201
157	0x3db9975d	0.090620734
158	0x3d8485d7	0.064708404
159	0xbe37f35c	-0.17963928
160	0xbe476b48	-0.19474518
161	0x3b668eb2	0.0035180268
162	0x3d4963b5	0.049167354
163	0xbdcc1352	-0.099646226
164	0x3e1a6017	0.15075718
165	0x3e1f1ae1	0.15537597
166	0x3e729f2c	0.23693532
167	0xbdfebe06	-0.12438588
168	0xbd531955	-0.05153783
169	0x3e4600e5	0.19336279
170	0x3e0c57d7	0.13705383
171	0x3ce9e621	0.028552117
172	0x3e6881ac	0.22705716
173	0x3df17523	0.1178992
174	0x3d8f81ab	0.07007154
175	0xbe058208	-0.13037884
176	0x3e5591fd	0.20856471
177	0x3c180523	0.009278568
178	0xbce156db	-0.027507236
179	0x3ddb308d	0.1070262
180	0xbe681c85	-0.2266713
181	0x3e57a373	0.21058445
182	0x3db1b739	0.08677525
183	0x3cb8369f	0.022486983
184	0x3dfef144	0.124483615
185	0xbd0bde90	-0.0341478
186	0x3cbec56e	0.023287501
187	0x3e4709ac	0.19437283
188	0xbe25eb98	-0.16203153
189	0xbe5d3187	-0.21600924
190	0x3d293bcb	0.04131679
191	0xbd8486c2	-0.064710155
192	0xbdad2abf	-0.08455419
193	0xbd895553	-0.067057274
194	0x3dc85828	0.097824395
195	0x3e212f9d	0.1574082
196	0xbdbca298	-0.092107
197	0x3e163ac1	0.1467085
198	0xbe1bffb2	-0.15234259
199	0xbe60d87e	-0.21957585
200	0x3d510972	0.0510344
201	0xbd447dbc	-0.047971472
202	0x3e658ada	0.22416249
203	0xbe651988	-0.2237302
204	0xbbe53111	-0.0069943746
205	0xbdff22db	-0.1245782
206	0x3e6649cb	0.22489087
207	0x3e628aa6	0.22123203
208	0x3d8cb501	0.06870461
209	0xbe1c3d4e	-0.15257761
210	0x3e45c54f	0.19313549
211	0x3e5020d5	0.20325024
212	0xbdac265e	-0.084057555
213	0x3e7511f3	0.23932628
214	0x3e62318a	0.2208921
215	0x3dbafe5c	0.091305465
216	0x3e45d986	0.1932126
217	0x3dfe12e8	0.1240595
218	0x3d509b5f	0.050929423
219	0xbdaa6dcf	-0.083217256
220	0xbcea9d76	-0.028639536
221	0xbd1fbcab	-0.038998287
222	0x3c5f50fc	0.013630148
223	0x3df018e2	0.11723496
224	0x3e523df3	0.20531444
225	0xbe23f4a7	-0.16011296
226	0x3cc00d96	0.023443978
227	0xbe4eddd3	-0.20201807
228	0xbe327546	-0.17427549
229	0x3de7f77b	0.113265
230	0xbe5edb71	-0.21763398
231	0xbd163bff	-0.03667831
232	0xbe3c9bd6	-0.18418822
233	0xbe04ac4d	-0.12956353
234	0x3e6b7e1a	0.22997323
235	0x3e0c4776	0.13699135
236	0x3da464cb	0.08027037
237	0xbdb71e54	-0.089413315
238	0xbe60ec2d	-0.21965094
239	0xbcc34ece	-0.023841288
240	0xbdb02bab	-0.08602079
241	0x3e71f4de	0.23628566
242	0x3e67751a	0.22603264
243	0xbceca391	-0.028886588
244	0xbe43c6d1	-0.19118811
245	0x3ce18e1b	0.027533581
246	0x3d629f60	0.055327773
247	0xbe2f738c	-0.17133921
248	0xbd3f84c1	-0.046757463
249	0x3e3e2976	0.18570504
250	0xbdf4e53d	-0.11957786
251	0xbe616323	-0.22010474
252	0x3e568531	0.20949246
253	0x3da506ff	0.08057975
254	0x3e4f90da	0.202701
255	0xbd043cf4	-0.032284692

self_attention_players.key_projection.bias f4 [18]
0	0xbe5ef2a3	-0.21772246
1	0xbd85ecff	-0.06539344
2	0x3e4c6315	0.19959672
3	0x3de35ce8	0.11101705
4	0x3e1a5769	0.15072407
5	0x3d671288	0.056414157
6	0x3d9f0ff7	0.07766717
7	0xbe192782	-0.14956477
8	0xbd372e1d	-0.04472171
9	0x3d3434c0	0.04399562
10	0x3dce2011	0.1006471
11	0x3d1368e6	0.03598871
12	0xbde3f7f2	-0.11131276
13	0xbe157212	-0.14594296
14	0xbe23a3a3	-0.15980391
15	0xbe268e82	-0.162653
16	0x3e658bda	0.2241663
17	0xbc6751bb	-0.014118607

self_attention_players.value_projection.weight f4 [18, 18]
0	0xbdea82b7	-0.11450713
1	0xbe1d57db	-0.15365545
2	0x3e4b8ca2	0.19877866
3	0xbd32803b	-0.04357932
4	0xbe4ce4e1	-0.20009185
5	0x3e1d2d4e	0.15349314
6	0xbe1d484f	-0.15359615
7	0xbe00a62a	-0.12563387
8	0x3de34d80	0.11098766
9	0x3e068dc4	0.13140017
10	0x3e157658	0.14595926
11	0xbe2906a2	-0.16506436
12	0x3e0368e0	0.12832975
13	0x3e48021d	0.19532056
14	0x3db8f46e	0.09030996
15	0x3e475651	0.19466521
16	0xbd709f66	-0.058745764
17	0x3d1d40c2	0.038391836
18	0x3e51837b	0.20460312
19	0x3d489c85	0.048977394
20	0x3dff0122	0.12451388
21	0xbd24b517	-0.040211763
22	0x3e69c9f5	0.22830947
23	0x3dd7336e	0.10507856
24	0x3b5985e4	0.0033191377
25	0xbdfcbf2e	-0.12341152
26	0x3d003f23	0.031310212
27	0xbd0cf8ad	-0.034416843
28	0xbdb26201	-0.08710099
29	0x3de6e757	0.11274593
30	0xbd937f73	-0.072020434
31	0xbe3179a1	-0.17331554
32	0xbd951157	-0.07278698
33	0x3e29aa0e	0.16568777
34	0xbbeb988e	-0.007189817
35	0x3d4b8546	0.049687646
36	0xbe0d4a62	-0.13797906
37	0x3ddb0302	0.10693933
38	0x3d189a16	0.037256323
39	0xbe43ea63	-0.1913238
40	0x3e35bcf5	0.17747863
41	0xbd809429	-0.06278259
42	0xbce1dfe5	-0.027572582
43	0x3d263c4b	0.040584844
44	0xbe6a3b6b	-0.22874229
45	0x3e689d2d	0.22716208
46	0x3d55d1f1	0.05220217
47	0x3dd1cb89	0.102438994
48	0x3e6b46fb	0.22976296
49	0xbe1c46ea	-0.15261427
50	0xbdd5e05a	-0.10443182
51	0x3e5ba5f9	0.21450032
52	0xbd33505f	-0.04377782
53	0xbe50e9a4	-0.20401627
54	0xbdec4fb8	-0.11538643
55	0xbdaeb22f	-0.085300796
56	0xbe03a35f	-0.1285529
57	0x3ce0763d	0.02740013
58	0x3e7dbe52	0.24779633
59	0x3e3aa413	0.18226652
60	0xbe59033d	-0.21192642
61	0x3e2f6644	0.17128855
62	0xbdb2cf7c	-0.08730981
63	0xbe35d78c	-0.17758006
64	0xbde6ba14	-0.1126596
65	0xbe51ed90	-0.20500779
66	0x3de62d5e	0.11239122
67	0xbe560d47	-0.20903502
68	0xbe4a9ad8	-0.1978563
69	0xbdd2c77f	-0.10291957
70	0x3c14e886	0.009088641
71	0xbe189ab7	-0.14902769
72	0xbd2c6429	-0.042087708
73	0xbc40905b	-0.011753167
74	0x3cc3f80f	0.023921994
75	0xbdb7affb	-0.089691125
76	0xbe45e781	-0.19326593
77	0xbd5d5a65	-0.054041285
78	0xbe0ad553	-0.13557939
79	0x3c26c701	0.010179282
80	0x3d1955fd	0.03743552
81	0x3e644260	0.22290945
82	0xbe2ad77a	-0.1668376
83	0xbe08a8fd	-0.13345714
84	0x3e60e10c	0.21960849
85	0x3e63ff36	0.22265324
86	0xbe512ac4	-0.2042647
87	0x3e1e9092	0.15484837
88	0xbd50ed47	-0.051007535
89	0x3e4ad830	0.19809031
90	0xbdad8cf9	-0.08474154
91	0x3e58f292	0.21186283
92	0x3e063e36	0.13109669
93	0xbe4bd3aa	-0.19904962
94	0x3e260c14	0.16215545
95	0xbe162123	-0.14661078
96	0xbd7f905b	-0.062393527
97	0x3d7b192d	0.061303306
98	0x3d78bc9d	0.06072675
99	0xbe5d7891	-0.21628024
100	0xbdd087ad	-0.10182128
101	0x3e4767b8	0.1947316
102	0x3e4e2ce6	0.20134315
103	0xbbdfdebc	-0.006831972
104	0x3e1f10f9	0.15533818
105	0xbd487a52	-0.04894478
106	0xbd0541a7	-0.032533314
107	0xbd2a5637	-0.041586127
108	0xbda657c7	-0.08122211
109	0x3d9636fa	0.07334705
110	0xbe35104d	-0.17682
111	0xbe1a188a	-0.15048423
112	0xbcf2b2cf	-0.029626278
113	0xb8076065	-3.2276283e-05
114	0x3e53a080	0.20666695
115	0x3d09c5f2	0.03363604
116	0xbcc12213	-0.023575818
117	0x3dc6ec5d	0.097130515
118	0x3de1ec12	0.11031355
119	0x3e3efed6	0.186519
120	0x3e5e01c7	0.21680366
121	0x3e2743a5	0.16334398
122	0x3b5a85c9	0.0033343902
123	0xbb5ddc29	-0.003385315
124	0x3e545f4e	0.20739481
125	0xbe42af96	-0.19012293
126	0x3e40e09f	0.18835686
127	0xbe78ee99	-0.24309768
128	0x3e20ef7d	0.15716358
129	0x3e3699b5	0.17832072
130	0x3c1f4ddf	0.009723156
131	0x3e08e243	0.13367562
132	0xbe3bf155	-0.1835378
133	0x3e28e96c	0.16495293
134	0x3e52f156	0.20599875
135	0x3ce1f467	0.02758236
136	0x3d7efe0f	0.062254008
137	0xbddaf91b	-0.10692044
138	0xbe4ffaf4	-0.20310575
139	0x3c4cacfd	0.0124924155
140	0x3e069adb	0.1314501
141	0xbcc553a9	-0.024087744
142	0x3e4a144d	0.19734307
143	0x3de5ec66	0.1122673
144	0x3cbf410b	0.023346445
145	0xbe6335c9	-0.22188486
146	0xbe17f26c	-0.1483857
147	0xbdeb8052	-0.114990845
148	0xbe4a23f6	-0.1974028
149	0xbe537e1c	-0.20653576
150	0xbda9a71d	-0.082838275
151	0xbe0c6bcb	-0.13712995
152	0xbe63b587	-0.22237216
153	0x3c33e2bc	0.010979351
154	0xbe3e7850	-0.18600583
155	0xbe399886	-0.1812459
156	0x3b696c13	0.0035617396
157	0xbe166d4c	-0.14690131
158	0xbd2f4a3f	-0.042795416
159	0x3e444163	0.19165568
160	0x3dae3ff0	0.08508289
161	0x3b58132d	0.0032970414
162	0x3dff8d34	0.12478104
163	0xbe1f295b	-0.1554312
164	0x3dd69312	0.1047727
165	0x3e4aa650	0.19790006
166	0x3e47f41a	0.19526711
167	0xbe089353	-0.1333745
168	0xbe2a928b	-0.16657464
169	0xbda87f1a	-0.08227368
170	0xbd49592b	-0.049157303
171	0x3e37f787	0.17965518
172	0xbd3a23ee	-0.04544442
173	0x3c7019d8	0.014654599
174	0xbd9f6ddf	-0.07784628
175	0x3e4b120f	0.19831108
176	0x3da64162	0.081179395
177	0x3c97c30b	0.01852562
178	0x3cc32b66	0.023824405
179	0x3c8062d4	0.015672125
180	0xbe52f582	-0.20601466
181	0xbc488074	-0.012237657
182	0x3bfdf8b6	0.007750596
183	0x3e122c8a	0.14274803
184	0x3d9b298f	0.07576286
185	0xbd4499c6	-0.047998212
186	0x3dc76712	0.09736456
187	0xbd2dd862	-0.042442687
188	0x3e6d93a7	0.23200856
189	0x3e361e0f	0.17784904
190	0x3d900a8e	0.07033263
191	0xbd6a1d81	-0.057157043
192	0x3e0e30c9	0.13885798
193	0x3e24c7dc	0.16091865
194	0x3dece29e	0.11566661
195	0xbd75a1c0	-0.05996871
196	0xbd9367cc	-0.07197532
197	0x3db3fbc7	0.08788257
198	0xbe403a61	-0.1877227
199	0xbe4426ed	-0.19155474
200	0xbd1cdfea	-0.03829948
201	0x3e0bd07f	0.13653754
202	0x3e2e30fb	0.17010872
203	0x3d8d16a5	0.06889085
204	0x3e31dbc2	0.17368987
205	0x3daac5d9	0.08338518
206	0xbdaac5f2	-0.08338536
207	0x3d525bfd	0.051357258
208	0xbd93e63a	-0.072216466
209	0x3e262fd9	0.1622919
210	0x3cf5748a	0.029962797
211	0x3e2b8add	0.16752191
212	0xbd3e329f	-0.046434995
213	0x3e25b74e	0.16183206
214	0xbdf1e44b	-0.118111216
215	0x3e3bf0c7	0.18353568
216	0xba9d224f	-0.0011988374
217	0xbe36711e	-0.17816588
218	0x3e36cad3	0.17850809
219	0x3bdc53bb	0.0067238486
220	0x3dc0bf73	0.09411516
221	0x3e1aafe7	0.15106164
222	0xbd9ec137	-0.077516966
223	0x3e48f78e	0.19625685
224	0xbbd5a472	-0.0065198475
225	0xbe0c2350	-0.13685346
226	0x3dd35be6	0.103202626
227	0xbdb1a5c1	-0.08674193
228	0xbe5aea5a	-0.2137846
229	0xbd803b7e	-0.06261347
230	0x3e50e0ea	0.20398298
231	0xbe585d54	-0.21129352
232	0xbe72483e	-0.2366037
233	0xbcc2302d	-0.023704613
234	0xbdcc0335	-0.09961549
235	0xbe1bf2f2	-0.15229395
236	0xbe59dda0	-0.2127595
237	0xbc3b1190	-0.011417761
238	0x3b825a41	0.0039780443
239	0x3db266d7	0.087110214
240	0xbe3682ee	-0.17823383
241	0x3e4ceb16	0.20011553
242	0xbd51923a	-0.051164843
243	0x3e4ae342	0.19813254
244	0x3e4a3870	0.19748092
245	0x3e329982	0.17441371
246	0x3e2d60cc	0.16931456
247	0xbe4f83c9	-0.20265116
248	0xbe2cbe60	-0.16869497
249	0x3e0e994f	0.1392567
250	0x3db89250	0.09012282
251	0x3daf3d63	0.085566305
252	0x3d6b50df	0.05745017
253	0xbdc4f57c	-0.09617135
254	0xbb47efcf	-0.0030507927
255	0xbdb55a83	-0.08855154

self_attention_players.value_projection.bias f4 [18]
0	0xbe15a618	-0.14614141
1	0x3d2e7f76	0.042602025
2	0xbe69ceff	-0.22832869
3	0x3b75ca04	0.0037504444
4	0xbe47f79c	-0.19528049
5	0xbe29ba92	-0.16575077
6	0x3d5509eb	0.05201141
7	0xbce26ce4	-0.027639814
8	0xbdaf770c	-0.08567628
9	0xbe023037	-0.12713705
10	0x3dade458	0.08490819
11	0x3d99efad	0.07516418
12	0x3e2a99ed	0.1666028
13	0x3e6b9b21	0.23008396
14	0x3e3c2a14	0.18375427
15	0x3dc1821f	0.09448647
16	0xbd95bbed	-0.073112346
17	0xbddba120	-0.107240915

self_attention_players.output_projection.weight f4 [18, 18]
0	0x3e0fab93	0.14030294
1	0xbdfe6c82	-0.1242304
2	0xbd81a86b	-0.06330951
3	0x3b94bfab	0.00453945
4	0x3b8a9179	0.0042287675
5	0x3e0bb4f4	0.13643247
6	0xbe367fb3	-0.17822151
7	0xbdc68e14	-0.09695068
8	0xbe0ba9a8	-0.13638937
9	0x3e18b326	0.1491209
10	0xbe2ab466	-0.16670379
11	0x3e4947d2	0.19656304
12	0x3dffc2b2	0.12488307
13	0x3d713f20	0.05889809
14	0x3e54b012	0.2077029
15	0xbe5c74e1	-0.21528961
16	0xbe1fb3d6	-0.15595946
17	0x3d7b89b5	0.061410625
18	0x3e1a95f3	0.15096264
19	0xbdc9d9a8	-0.09855968
20	0xbe26c9b1	-0.16287877
21	0x3e18dd17	0.14928089
22	0xbe16dc61	-0.14732505
23	0xbe0b4959	-0.13602199
24	0x3db9a73c	0.090651006
25	0x3d55a064	0.052154914
26	0xbbefeddd	-0.0073220567
27	0x3dbfb6dd	0.0936105
28	0xbe720624	-0.23635155
29	0x3e2a709e	0.16644523
30	0x3e402100	0.18762589
31	0x3e2c542e	0.16828987
32	0xbdcb4757	-0.09925716
33	0x3e109e5f	0.14122914
34	0x3dfe9a4a	0.12431772
35	0x3e3a8b23	0.18217139
36	0x3da8a5d1	0.08234752
37	0x3e74818e	0.23877546
38	0xbc9943fb	-0.018709173
39	0x3dfb4861	0.122696646
40	0x3d878422	0.06616999
41	0xbdce6994	-0.10078731
42	0x3df7a43c	0.12091872
43	0xbe0e45d8	-0.13893831
44	0x3e5a11c6	0.21295843
45	0xbd813268	-0.06308442
46	0x3deb6b46	0.1149507
47	0x3dc3c1f7	0.0955848
48	0x3a40227c	0.00073293573
49	0x3d915b41	0.070974834
50	0x3df6d4fa	0.12052341
51	0x3cd20cca	0.025640864
52	0xbc5c60ba	-0.013450796
53	0xbd1e18d8	-0.03859791
54	0xbcea9c55	-0.028638998
55	0x3e0911f0	0.13385749
56	0x3afd52fe	0.0019327102
57	0x3dc0aa0b	0.09407433
58	0x3e1cd05c	0.15313858
59	0xbe3d9292	-0.18512943
60	0x3e70e196	0.23523554
61	0xbe216335	-0.157605
62	0xbbfab176	-0.0076505495
63	0x3dac3e93	0.084103726
64	0x3d5a9eaf	0.05337399
65	0xbe0bc80d	-0.13650532
66	0x3e565a63	0.20932917
67	0x3df43828	0.119247735
68	0xbd98f371	-0.07468308
69	0x3e558df1	0.20854928
70	0x3b6bf843	0.003600613
71	0x3e6770c5	0.22601612
72	0xbe269c02	-0.1627045
73	0x3d26bb34	0.040705875
74	0x3deba677	0.1150636
75	0x3da6c558	0.08143109
76	0xbd8a3d81	-0.06750012
77	0x3ca6a01a	0.020340014
78	0x3e2d0ce0	0.16899443
79	0x3c11b2e4	0.0088927485
80	0x3e6e0c87	0.23246966
81	0xbdb75d68	-0.08953363
82	0x3e00f875	0.12594779
83	0x3e30fc30	0.17283702
84	0x3e1679e7	0.1469494
85	0x3dedcb9b	0.116111
86	0x3e06f9f9	0.13181295
87	0xbe621941	-0.22079946
88	0xbd05a24d	-0.032625485
89	0xbd7d0a55	-0.06177743
90	0x3dbad52f	0.09122693
91	0x3e45c33b	0.19312756
92	0x3e3f2319	0.18665732
93	0xbd5787e0	-0.052619815
94	0xbdbe9718	-0.093061626
95	0x3e321437	0.17390524
96	0x3e45b889	0.19308676
97	0x3e068a21	0.1313863
98	0xbe14b6bf	-0.14522837
99	0x3db87941	0.09007502
100	0xbc8f4cb4	-0.01749263
101	0xbda552fd	-0.080724694
102	0x3d17de17	0.037077036
103	0xbdc2edbd	-0.09518001
104	0x3e0f5d20	0.14000368
105	0xbda4df2b	-0.080503784
106	0x3d4dd8e1	0.05025566
107	0x3e61b931	0.22043301
108	0xbdd0fc2b	-0.10204347
109	0x3e5a1476	0.21296868
110	0x3d90d703	0.0707226
111	0x3e48c500	0.196064
112	0x3e07534a	0.13215366
113	0xbc28780c	-0.010282528
114	0x3d5f69b4	0.054544166
115	0x3e3eb712	0.18624523
116	0x3d9ddfc4	0.077086955
117	0xbdcf019c	-0.10107729
118	0x3e085709	0.13314451
119	0x3cad790b	0.021175882
120	0xbe187950	-0.14890027
121	0xbe520a17	-0.20511661
122	0x3d3817f9	0.044944737
123	0x3e174e98	0.14776075
124	0xbe3f557b	-0.18684952
125	0x3e5b4851	0.21414305
126	0xbcae19c8	-0.021252528
127	0x3da522ba	0.08063264
128	0xbc241183	-0.010013941
129	0xbe38c65e	-0.18044421
130	0x3c31096e	0.010805471
131	0x3dbb82e4	0.09155825
132	0xbe5e6824	-0.21719414
133	0x3cbaa72a	0.022784788
134	0xbe02f09d	-0.12787099
135	0xbe0d0465	-0.13771208
136	0xbdd10ebf	-0.10207891
137	0xbd5ec4b2	-0.054386802
138	0xbd91db4f	-0.07121908
139	0xbe2fbbed	-0.17161532
140	0xbc4c8350	-0.012482479
141	0xbd59bcea	-0.053158678
142	0xbe386ac8	-0.18009484
143	0x3dc06d61	0.09395862
144	0xbbf76efa	-0.0075510712
145	0xbe56eba6	-0.2098833
146	0x3d226a35	0.03965207
147	0x3cecda65	0.028912732
148	0x3e2b269f	0.16713952
149	0xbdf9402c	-0.12170443
150	0xbe3e91fa	-0.18610373
151	0xbe12125f	-0.1426482
152	0xbc211a0b	-0.009832869
153	0x3dbc374d	0.09190235
154	0xbca103e6	-0.01965518
155	0x3e1a4167	0.15064012
156	0x3e608dfc	0.21929163
157	0x3e006119	0.1253704
158	0xbe38212e	-0.17981407
159	0xbe5cf879	-0.2157916
160	0xbd80f109	-0.06295974
161	0x3e4eec49	0.20207323
162	0x3d9599f2	0.07304753
163	0xbc013f21	-0.007888586
164	0xbe12d268	-0.14338076
165	0x3e1b1759	0.15145625
166	0xbe1e11d5	-0.1543649
167	0xbd0f66fd	-0.035010327
168	0xbe5b4463	-0.21412806
169	0xbdc84f24	-0.0978072
170	0x3e801d9e	0.25022596
171	0x3e42edb3	0.19035988
172	0x3dd8d1ef	0.10586917
173	0xbd7cebf5	-0.061748464
174	0xbe413bf7	-0.18870531
175	0x3a18005a	0.0005798392
176	0xbdcf096c	-0.10109219
177	0xbdfc9e7a	-0.123349145
178	0xbca75d57	-0.02043025
179	0xbdf792c9	-0.12088544
180	0xbe56b15f	-0.20966099
181	0xbe3275d1	-0.17427756
182	0xbe45d099	-0.19317855
183	0x3d079516	0.033101164
184	0x3e0b8e6b	0.13628547
185	0xbd7046f2	-0.05866141
186	0x3e5b9fea	0.21447721
187	0x3e3dfbba	0.18553057
188	0x3d03b44d	0.03215437
189	0x3e47d3ee	0.19514439
190	0x3e038543	0.12843804
191	0x3cc28490	0.023744851
192	0x3e49bd4e	0.1970112
193	0x3d17eb98	0.037089914
194	0x3dc1405e	0.09436105
195	0xbdd82baf	-0.10555207
196	0x3e3a030d	0.18165226
197	0x3e24fc06	0.16111764
198	0x3daba995	0.083819546
199	0x3d238466	0.039921187
200	0x3c90d10a	0.017677803
201	0x3e50861c	0.20363659
202	0x3dbc62c9	0.09198529
203	0xbe4f2843	-0.20230202
204	0x3e2487e1	0.16067459
205	0x3e545990	0.2073729
206	0x3de4994a	0.1116205
207	0xbe4db4f6	-0.20088562
208	0x3e48e70f	0.19619392
209	0x3dc83dd5	0.097774185
210	0x3d710c17	0.05884942
211	0xbe46aa86	-0.19400987
212	0xbe7948a9	-0.24344124
213	0x3e155ee2	0.14586976
214	0xbe3cf6fe	-0.18453595
215	0x3e032f2b	0.12810962
216	0xbe703472	-0.23457506
217	0xbe10843d	-0.14112945
218	0xbe2dd85b	-0.16977064
219	0x3df94737	0.12171786
220	0xbd7c1af5	-0.061549146
221	0x3dfb1455	0.122597374
222	0x3dacd4f8	0.08439058
223	0x3e23b4a7	0.15986882
224	0x3dbcec5f	0.09224772
225	0x3e46607e	0.19372746
226	0xbe11da0e	-0.14243338
227	0x3e39394e	0.18088266
228	0xbe5b738a	-0.21430793
229	0xbe28c5b7	-0.16481672
230	0xbe459272	-0.19294146
231	0x3e18cdcc	0.14922255
232	0xbda1c29b	-0.07898446
233	0xbc80d48a	-0.015726347
234	0x3cf06b7a	0.029348124
235	0xbdfd3b45	-0.123648204
236	0xbcf188ed	-0.029484237
237	0xbc0a187b	-0.008428688
238	0x3dac532c	0.08414301
239	0xbd63707a	-0.055527188
240	0x3d85c6fa	0.065320924
241	0xbe2d6f87	-0.16937076
242	0x3e580316	0.21094927
243	0xbe200f84	-0.15630919
244	0x3e3867fa	0.18008414
245	0xbd644973	-0.05573411
246	0x3ba6c120	0.0050889403
247	0xbe1deead	-0.15423079
248	0xbe28fbed	-0.16502352
249	0xbcf9464d	-0.03042903
250	0xbcb58c6f	-0.02216169
251	0xbe04bfb7	-0.12963758
252	0xbe06214c	-0.13098639
253	0x3deb7e2f	0.11498677
254	0xbe56518a	-0.20929542
255	0xbe0dd40f	-0.13850425

self_attention_players.output_projection.bias f4 [18]
0	0x3dc9b4e2	0.09848954
1	0x3e507fc2	0.20361236
2	0x3d09ed98	0.033673853
3	0x3e211934	0.1573227
4	0x3e53ef78	0.20696819
5	0x3e3678ae	0.17819473
6	0xbda47327	-0.08029776
7	0xbe1137d5	-0.14181454
8	0xbe7866f7	-0.24258028
9	0xbe767bad	-0.24070616
10	0x3e72a57f	0.23695944
11	0x3e64611d	0.22302671
12	0x3e5451a6	0.20734271
13	0xbd871b5d	-0.06597016
14	0xbd1b03d7	-0.03784546
15	0xbe47766d	-0.1947877
16	0xbe2b2463	-0.16713099
17	0xbdfe8277	-0.12427228

fc.weight f4 [63, 126]
0	0xbd1f1a1a	-0.03884325
1	0xbd9a3250	-0.075291276
2	0xbd36e3a3	-0.044650685
3	0x3d51ac8f	0.051189955
4	0x3c3b59b4	0.011434961
5	0xbd8a180f	-0.0674287
6	0x3bbb90ea	0.005724062
7	0x3c341f2e	0.010993762
8	0x3d514826	0.051094197
9	0x3db38cd2	0.08767094
10	0x3d2f9966	0.0428709
11	0x3c69293c	0.014231022
12	0x3d6de1e1	0.058076743
13	0xbccb301d	-0.024803216
14	0xbd99f70b	-0.07517823
15	0x3cbde4e4	0.023180433
16	0x3ce4eaec	0.02794405
17	0x3c356314	0.011070985
18	0x3ba0008e	0.0048828786
19	0x3d75e836	0.060035907
20	0xbcd9c5cb	-0.026583573
21	0xbd493254	-0.049120262
22	0x3d9f6ac0	0.07784033
23	0x3da6a7f9	0.08137507
24	0x3d8beaab	0.06831869
25	0x3db7b37e	0.08969782
26	0x3c4e8281	0.012604357
27	0x3cd551a5	0.026039908
28	0x3cc39021	0.023872437
29	0xbda3406c	-0.07971272
30	0xbd622db6	-0.055219375
31	0x3b50e4c2	0.0031874632
32	0x3c9a2f89	0.018821495
33	0x3d648430	0.055790126
34	0xbda87574	-0.082255274
35	0x3c6faaa3	0.014628085
36	0xbc692e67	-0.014232255
37	0xbd836310	-0.06415379
38	0x3d946f41	0.072477825
39	0xbd04dd5a	-0.03243766
40	0x3d8b2aab	0.06795248
41	0xbd998af7	-0.074972086
42	0x3c81fca9	0.015867548
43	0xbc54d3ad	-0.012989921
44	0xbbbe224b	-0.005802428
45	0x3d71c55b	0.059026103
46	0xbdb760cd	-0.0895401
47	0x3db6c50e	0.08924304
48	0x3be4aa2c	0.006978294
49	0xbd4ecca0	-0.050488114
50	0xbd2bf0ba	-0.04197762
51	0xbc8f50f0	-0.017494649
52	0x3c701252	0.014652805
53	0x3ce9bcad	0.02853235
54	0x3d828e3d	0.06374786
55	0x3c12d5ec	0.008962136
56	0xbd818518	-0.06324214
57	0xbc25bd1f	-0.010115891
58	0x3d9c3c0a	0.07628639
59	0x3d97704d	0.073944665
60	0xbd1e68ff	-0.03867435
61	0x3cd421ad	0.025894964
62	0x3d87ae47	0.06625038
63	0xbce3d062	-0.027809326
64	0xbd8cdbe1	-0.06877876
65	0x3d8d73f6	0.069068834
66	0xbd55b865	-0.052177805
67	0x3ca9b961	0.020718278
68	0xbd03644d	-0.032078076
69	0xbd16dcb2	-0.036831565
70	0xbda08be3	-0.07839181
71	0xbd0cd04f	-0.034378346
72	0xbcf29b72	-0.029615138
73	0x3d0b9473	0.03407712
74	0x3d76e71a	0.06027899
75	0xbdb47b65	-0.08812598
76	0x3d0b8365	0.034060854
77	0xbcfbfae4	-0.030759282
78	0xbb9ffc7e	-0.0048823943
79	0xbd716cef	-0.058941778
80	0x3d1efbf4	0.0388145
81	0xbd7fc55d	-0.06244408
82	0x3d489b5a	0.04897628
83	0xbd17d237	-0.03706571
84	0xbc9f1249	-0.019417899
85	0x3d4390ce	0.04774552
86	0x3db322c3	0.08746865
87	0x3da67b92	0.08129038
88	0xbd396fcf	-0.045272645
89	0xbd89b6a0	-0.06724286
90	0x3cb6c320	0.02230984
91	0xbda8e526	-0.082468316
92	0xbdbd4545	-0.09241728
93	0x3c949060	0.01813525
94	0x39f2df89	0.00046324384
95	0x3d20c56d	0.03925078
96	0x3d49352c	0.049122974
97	0x3d02e69a	0.0319582
98	0x3d4b1a02	0.04958535
99	0x3ca6f263	0.02037925
100	0xbce6b559	-0.028162645
101	0xbd1c6f72	-0.03819222
102	0xbb61e071	-0.0034466053
103	0xbd9007ae	-0.07032715
104	0xbd2555cb	-0.04036502
105	0xbd3624ee	-0.044468813
106	0xbd40b901	-0.047051433
107	0xbc897051	-0.01677719
108	0x3d496a35	0.049173553
109	0x3da83c39	0.082146116
110	0xbdb0ec8f	-0.0863887
111	0x3d528a9e	0.051401727
112	0xbbd9c052	-0.006645241
113	0x3d365af8	0.04452035
114	0xbd26622a	-0.04062096
115	0xbc558d7f	-0.013034224
116	0x3da5eee9	0.08102209
117	0xbd11ac02	-0.03556443
118	0xbc8697bf	-0.01642978
119	0xbd7d6ebf	-0.061873194
120	0x3d61167e	0.05495309
121	0x3d34c583	0.044133674
122	0x3d236641	0.03989244
123	0x3d95e74f	0.07319509
124	0xbd24e682	-0.040258892
125	0x3c9a6f98	0.01885204
126	0xbb41b776	-0.0029558814
127	0xbd65642e	-0.056003742
128	0xbd0e55b1	-0.03474969
129	0xbc58e78d	-0.0132388
130	0xbd89acd4	-0.067224175
131	0x3cf79765	0.030223558
132	0xbcda54c7	-0.026651753
133	0xbd30510a	-0.043046035
134	0x3d6dc466	0.05804863
135	0x3cc37f5e	0.023864444
136	0xbd103261	-0.035204295
137	0xbd66af11	-0.0563193
138	0xbdaf244f	-0.08551847
139	0xbd878d21	-0.06618715
140	0xbd9e2e8e	-0.07723723
141	0x3d80b80a	0.06285103
142	0xbd60222d	-0.054720093
143	0xbcc49f3e	-0.024001714
144	0xbce80335	-0.028321842
145	0xbd62ae72	-0.055342145
146	0x3cbad64e	0.022807267
147	0x3c92c685	0.017916927
148	0x3d128a56	0.03577646
149	0xbc24f795	-0.010068794
150	0xbda8d6e3	-0.082441114
151	0x3a5a668e	0.0008331322
152	0xbd4b8b43	-0.049693357
153	0x3d07bff6	0.033142053
154	0x3c2af39a	0.010434056
155	0xbd6c8044	-0.05773951
156	0xbda29042	-0.07937671
157	0xbd83a5c9	-0.064281054
158	0x3c985da9	0.018599348
159	0x3d85da13	0.06535735
160	0xbd5868f2	-0.05283446
161	0xbdb64b05	-0.089010276
162	0xbce2541e	-0.027628
163	0x3d87fec2	0.06640388
164	0xbd186f36	-0.037215434
165	0x3dbd15b2	0.09232654
166	0xbc8e9b1b	-0.017407944
167	0x3d9b97ba	0.07597299
168	0x3d05354d	0.032521535
169	0x3d9715a2	0.07377173
170	0xbdac8b80	-0.08425045
171	0x3d34b105	0.04411413
172	0xbda15f06	-0.078794524
173	0xbc3535d5	-0.011060198
174	0xbdb1c598	-0.08680266
175	0xbdb67ef3	-0.089109324
176	0xbd21c67d	-0.039495934
177	0xbd8eb950	-0.06968939
178	0x3ccf30d4	0.025291838
179	0x3d4f7909	0.050652537
180	0xbd7ee55e	-0.06223046
181	0xbd64f9ce	-0.055902295
182	0x3cd91d9f	0.026503382
183	0xbc95e3e9	-0.018297153
184	0xbd012077	-0.0315251
185	0xbd0ee97d	-0.03489064
186	0x3d71f563	0.05907191
187	0xbc1d50a3	-0.009601745
188	0xbd522314	-0.051302984
189	0x3da15d7e	0.0787916
190	0xbd200cb3	-0.03907461
191	0x3d1449bc	0.03620313
192	0xbd7d6004	-0.061859146
193	0xbbb2df04	-0.0054587144
194	0x3d54347e	0.051807873
195	0x3be80040	0.007080108
196	0x3dbebb36	0.093130514
197	0x3d75b384	0.059985653
198	0x3d959661	0.07304073
199	0x3d6a05b3	0.05713434
200	0x3cf33b53	0.029691374
201	0xbd927630	-0.07151449
202	0xbd2ca37c	-0.0421481
203	0x3d87d9d4	0.06633344
204	0x3db57630	0.08860433
205	0xbcb70b01	-0.022344114
206	0x3d918f94	0.071074635
207	0xbd43bbee	-0.047786646
208	0x3dad8cac	0.08474097
209	0x3da4ab6d	0.080405094
210	0x3da5bed2	0.08093037
211	0x3ceb6abc	0.028737418
212	0x3d446a9f	0.047953244
213	0x3cb8c68d	0.022555614
214	0xbdbc8c3d	-0.09206436
215	0xbbefe9a8	-0.007321555
216	0x3d825916	0.06364648
217	0xbd3e87f2	-0.046516366
218	0x3d815c66	0.06316452
219	0x3d3cbeed	0.04608052
220	0x3d68a5f4	0.05679889
221	0x3d5732e2	0.05253876
222	0xbd12130b	-0.035662692
223	0xbd67f3c6	-0.056628965
224	0x3d7c13a9	0.061542187
225	0xbcb173c2	-0.021661643
226	0x3d2651eb	0.040605467
227	0xbcc1adec	-0.023642503
228	0xbd2a4b06	-0.041575454
229	0xbca9f401	-0.020746233
230	0x3aa3ed2f	0.0012506599
231	0x3cba4a7e	0.022740599
232	0x3bc0d05e	0.0058842143
233	0x3cc878c4	0.024471648
234	0xbd5deb53	-0.0541795
235	0xbd482409	-0.04886249
236	0x3d18ae20	0.037275434
237	0x3d6ee66f	0.058325227
238	0x3d7be7d8	0.0615004
239	0x3d79788e	0.060905986
240	0xbd186d77	-0.03721377
241	0x3d37695a	0.044778205
242	0xbcf50d17	-0.029913468
243	0xbd58f212	-0.05296523
244	0xbc9b01b9	-0.01892172
245	0xbcfb2d37	-0.030661209
246	0xbd6c705a	-0.057724334
247	0xbce55489	-0.027994411
248	0x3c8b9381	0.017038109
249	0xbd546031	-0.051849548
250	0xbd1efce2	-0.038815387
251	0xbcf7a588	-0.030230299
252	0xbcb2629a	-0.021775533
253	0xbcae0747	-0.021243704
254	0xbafc1c57	-0.001923452
255	0x3d008d87	0.03138497
