d2calcbot/main/calc_bot/actual_models/dota_model_ver03.pth (torch, 23582 bytes, 37 tensors)

branch_t.fc1.weight f4 [20, 10]
00000000: b817 5e3e 58b6 80be cd05 0e3e 1ef2 763e
00000010: 5873 923c 0fc9 18be 7c62 123e a13c 2c3e
00000020: 41e8 353d a61f 26be 5e9a a1bd 0601 a63d
00000030: 9104 793e 37e9 45be 87d8 033e 9623 9b3e
00000040: ff06 a93d 77c9 a13e 06cf 963e 7cd2 b6bd
00000050: fc9b 9bbe 75a5 183e 4ed5 b3bc 4201 93be
00000060: 8209 533b f346 8ebe c00e 7fbe 8cb3 9c3e
00000070: 13b1 73bb 1653 7cbe b389 57be 1b15 9cbe
00000080: ae7d 883d c0ee 4ab8 1210 2b3e 3469 d8bd
00000090: 4fd2 be3d 0279 50be 292b 3cbe 94ca 943e
000000a0: 1d6e 923e 79dd 0f3e 3dcb 603e a118 23bd
000000b0: e9f7 163d f0e9 0e3e 0b2b 7d3e affe b3bd
000000c0: d3c4 993e 39be 28be 2a8a 283d 8ac3 153c
000000d0: 7030 983e 00f3 9ebe 287f 9b3e 3dc2 5fbe
000000e0: 6f76 593e 2025 d43c 9039 5b3e 8f6c 393e
000000f0: 7f61 6dbe 4897 b63d 66bb 543e fa35 28bd
00000100: d332 1dbe 04f5 5d3e 1a2d 8c3e 295c bebd
00000110: 9d0b 5b3e 0a81 353e 05c0 2fbe aba8 f13d
00000120: a488 233d 22f3 e13d 19f2 4f3e 8736 8e3d
00000130: 8a95 a93c 3a11 593e 0c51 d3bc 7c2a f63b
00000140: c02c 233e 7164 18be f798 5ebe 93cb 403e
00000150: cb4c 94bd 2ed9 1ebe a875 043e cbb0 1b3c
00000160: e06c b1bd 8341 87be 9060 a03e 1265 93be
00000170: f71c 07be 6ef4 61be 2f5d 7f3e da23 24be
00000180: 1b95 9ebd ed8e 38be 00f5 47bd d6ad 853d
00000190: 5ad2 2dbe 1568 4c3d e1d5 e83c 2edc ea3d
000001a0: 6517 293d 326c 683e 05c1 4d3e cba0 033e
000001b0: a767 973d 2d13 16be 0805 ec3c e621 f83d
000001c0: 8551 f53d 45c6 babc 4b11 883e 25db 17be
000001d0: 4d3c 083e cbf6 20bd f63a e6bc e3f7 a8bd
000001e0: 7d93 6cbe 3d51 93be 7d52 a33d dd2c 323e
000001f0: 0956 89bc c43f df3d 1c37 843e 978d 063d
00000200: 22bc 8bbd 11ec 433e f029 883e 7807 703e
00000210: 5c46 2ebe 3e5a 72be 7ea6 8fbe 6cce 333e
00000220: ae6f 023e 08da b9bd 9960 4f3d c65c 9abe
00000230: 3063 28bd 5bed 553e 8b4c 64be 70f9 883e
00000240: 9195 6b3d a77f 95bd 652a 2d3e 1391 8fbd
00000250: 19c5 a2bc 92e5 8cbe 1d59 03be e95b 583e
00000260: 5b5f fabc 7e57 f7bc c807 9bbe 7519 50be
00000270: 4a33 00be b383 7dbe 8022 873d c551 343e
00000280: 4840 173e a780 1e3e 763f f4bd 590b 123d
00000290: 28fe 773e a929 17bc b01b 76bd 5c1e 833d
000002a0: 06d7 9c3e 7097 903e bf24 283d fa0f 9e3e
000002b0: ba60 39be 4143 653b a48f 03be 43c8 11be
000002c0: 4691 bc3d 4365 6d3e e6f0 223e f8e8 d63c
000002d0: da62 63be adc6 b9bd 5948 983e 2896 893e
000002e0: b618 b83d 00cc 07be 7f55 523e e0de 9dbe
000002f0: 191c bf3d 64de 83be c8f8 53be 96d7 a13d
00000300: 1f01 af3c 9cce 393c 9c47 9c3d b24e 643e
00000310: 647a 9f3e 096b debd b203 8dbe 9465 143d
0.21688735 -0.25139117 0.138694 0.24115798 0.017877266 -0.14920448 0.14295381 0.16820003
0.044410948 -0.1622301 -0.07890771 0.08105664 0.24318148 -0.19327246 0.12875567 0.30300587
0.082532875 0.31599018 0.2945482 -0.089268655 -0.30392444 0.14906867 -0.021952298 -0.28711897
0.0032201712 -0.27788505 -0.2490797 0.30605733 -0.0037184402 -0.2464107 -0.21048622 -0.30484852
0.066645965 -4.8382906e-05 0.16705349 -0.10566941 0.09317457 -0.20358661 -0.1837584 0.29060805
0.28599635 0.14049329 0.21952529 -0.03981841 0.03685752 0.13956428 0.24723451 -0.087888114
0.30032977 -0.16478814 0.04114739 0.009140858 0.29724455 -0.3104477 0.3037045 -0.2185144
0.21236585 0.025896609 0.21408677 0.18107818 -0.23181723 0.08915573 0.20774612 -0.0410671
-0.15351419 0.21675497 0.2737816 -0.09294922 0.21391149 0.17725006 -0.17163093 0.11799749
0.039925233 0.11032702 0.20307197 0.06943994 0.020701189 0.21197978 -0.025795482 0.0075123888
0.1593504 -0.14882065 -0.21738039 0.18827657 -0.072412096 -0.15512535 0.12935507 0.0095026
-0.086633444 -0.2641717 0.3132367 -0.28788048 -0.13194643 -0.22065899 0.2493789 -0.16029301
-0.07743283 -0.18023272 -0.048817635 0.06527297 -0.16974774 0.049903948 0.028422298 0.11467777
0.041282076 0.22697523 0.20093162 0.12854306 0.07392817 -0.14655752 0.028810993 0.121158406
0.11978439 -0.02279962 0.26575693 -0.14829691 0.13304253 -0.03929786 -0.028104287 -0.08250406
-0.23103137 -0.28772917 0.07974718 0.17399926 -0.016764658 0.10900834 0.25823295 0.032849874
-0.06822993 0.19133021 0.26594496 0.23440349 -0.17019027 -0.23667237 -0.2805671 0.17559212
0.12737915 -0.09074789 0.050629232 -0.30148906 -0.041110218 0.20891325 -0.22294824 0.26752806
0.057515685 -0.072997384 0.16910703 -0.070100926 -0.019869374 -0.27518898 -0.12826963 0.21128811
-0.030563047 -0.030193087 -0.30279374 -0.20322211 -0.12519565 -0.2475727 0.06598377 0.17609318
0.14770615 0.15478764 -0.11926167 0.035655353 0.24218047 -0.009226241 -0.060085 0.06402275
0.306328 0.28240538 0.04105067 0.30871564 -0.18103305 0.0034982713 -0.12847763 -0.1423655
0.09207396 0.2318316 0.15912208 0.026234135 -0.22205678 -0.090710975 0.29742697 0.26872373
0.08989088 -0.13261414 0.20540427 -0.30834103 0.09331531 -0.25755608 -0.20700371 0.07902448
0.02136284 0.011340763 0.07630846 0.22295645 0.31148064 -0.10860259 -0.27541882 0.036229685

branch_t.fc1.bias f4 [20]
00000000: bb96 553e f82d 443e 62c7 0d3e de46 ffbd
00000010: 7ff7 933e c4f5 a03e 0acc 143e 36ee 92bd
00000020: 66b5 50be d2c6 813e c5a9 f53d 581a 133d
00000030: 2071 e7bd 8264 f73c 5053 68be d372 82be
00000040: a1c6 99be e806 443e 6b7f 213e aacd f3bd
0.2085828 0.1915816 0.1384559 -0.12464689 0.28899762 0.31437504 0.1453096 -0.071743414
-0.20381698 0.25347 0.119952716 0.035913795 -0.11300874 0.030199293 -0.22688031 -0.2547823
-0.30034354 0.1914326 0.15771262 -0.11904462

branch_t.fc2.weight f4 [10, 20]
00000000: 6a1a 4d3e 141f 9f3d 0188 39be 7c17 3fbe
00000010: aacc 3c3e 4463 0abe 6381 3cbe aa9c 203e
00000020: c4b1 363e a88d 503e 803c 4cbd f8dd a6bd
00000030: c6d5 9bbd 13e5 eebd da7e 243e c0a6 183e
00000040: 90ab 43bd c0f5 0b3e 902a f73d 60e5 6d3d
00000050: 1c80 dc3c 2c54 cc3c 9b68 36be 0596 453e
00000060: 6a79 bcbb c1a3 fe3d b002 44be 75a1 76bd
00000070: a460 f3bd 092f 553e e2fb 0ebd 5e9c 5e3e
00000080: c7ca 543e b69c 5fbe 3d30 eebc 8019 193e
00000090: f3a0 f93d 532c c1bd b51a e8bd 3da8 48bb
000000a0: 182d 4fbe 84e3 01be a491 54be 563c 553d
000000b0: fd12 49be 6409 d23d bd13 ad3d 4563 0e3c
000000c0: 789b edbd 811f 133e aff2 383d 23d4 acbb
000000d0: 1de7 773d 7e96 593e d065 51be 3eea 58bd
000000e0: 3fcd a13d 91cb 52be aa6b f5bd 24c1 2d3e
000000f0: 7edc d2bd 907c 073e a201 4c3e 01e9 42be
00000100: 2540 5abe 9302 c4bd d15a 203e 5e5b 583e
00000110: 6672 e83d a75c 8d3d 6c71 e63d dc70 3bbe
00000120: 722b f0bd f371 b0bc c533 9bbd 3b6f 4dbe
00000130: 8087 463e fbc7 03be fac6 6fbd 3cab 343e
00000140: 6539 cd3c e192 883d 6394 453e ef9b 1dbe
00000150: 8a28 a43d b407 0ebd 2583 d03d e29b 173e
00000160: 264e 3a3e 1dba cfbd 44f0 a63d af32 5b3e
00000170: 3d06 5bbd 3278 4ebd b7ff 4d3e e768 e73d
00000180: f58b 84bc e1d2 b43d bc89 0dbe ecd8 333e
00000190: 6102 a2bd 926d 31bd 8681 063e 9213 063e
000001a0: 0879 ac3d 70f5 2f3e 110a b1bb aad8 d2bc
000001b0: 4575 0d3e ab06 5a3e 52ed 50bd 853e 4dbd
000001c0: d843 943d de9e ae3d 6316 ab3c f2d2 67bd
000001d0: ac72 d6bc 6459 973c 8871 2bbe 2a20 2dbe
000001e0: fd45 1dbe 6006 0dbd c9b4 a03d e554 64bd
000001f0: 163d 393e 5737 28be bd2e d7bd 4eef 913d
00000200: 8971 da3d ab26 b1bc b4c4 d43d 78c6 11be
00000210: 7990 753d e2c8 233c c08b 633e 88ed 1fbe
00000220: c651 22be d2b5 20bd 0036 733d 77ca 54be
00000230: d10c 5a3e d03c ef3b 4860 0fbe 764d 5c3e
00000240: 640c 533e c3b9 0cbc fcfc 91bd 3175 4d3e
00000250: 4ce8 b6bd 2e3c 563e 9996 383e 1903 2c3d
00000260: 613a 453d 9811 873d 65d7 1e3d 6d6f 253e
00000270: b796 473e 4707 df3d 73ed 36be eefb 24be
00000280: 2504 c93d da1d 25be 20ab 9abd 3076 15be
00000290: 7fb2 a93d 7084 333e 0382 283e 58f3 3f3e
000002a0: cbcd 56be 3be6 b03d b64a 38bc 1090 603e
000002b0: d40a b23c f155 143d 9e76 43bd aae6 bf3d
000002c0: c1fc 09be ddcd 2abe eb40 fabd 4a00 12be
000002d0: cba7 243e 35c7 f7bd 044e 09bd 62bf 4b3e
000002e0: 30b5 153e 372d 0b3e 52c4 613e 4b7b 64be
000002f0: c80a 403e 14e0 08bd e081 583e 0319 1c3e
00000300: 2a7b febd 34e6 893d 758b 97bd c118 343e
00000310: cf58 f83d 50a7 193e 24d4 58be 13a7 e63d
0.20029607 0.077695996 -0.18118288 -0.18661302 0.18437448 -0.1351443 -0.18408732 0.15684763
0.1784125 0.20366538 -0.049862385 -0.08147806 -0.076091334 -0.11664786 0.16064015 0.1490736
-0.047771037 0.13667965 0.12068665 0.058080077 0.026916556 0.02494248 -0.17813341 0.19295509
-0.0057517784 0.12433577 -0.1914165 -0.06021257 -0.11883667 0.20818724 -0.034908183 0.21739337
0.20780478 -0.21837124 -0.029075736 0.14951134 0.12188902 -0.09432282 -0.11333219 -0.0030617856
-0.20232046 -0.12684447 -0.20758682 0.052059494 -0.1963615 0.10255697 0.084510304 0.00869066
-0.11601919 0.14367487 0.045153316 -0.005274312 0.06052314 0.21248814 -0.20448995 -0.052957766
0.07900476 -0.20585467 -0.11983426 0.16968209 -0.10295962 0.1323111 0.19922498 -0.19034196
-0.21313532 -0.095708035 0.15659644 0.21128604 0.11349945 0.06902438 0.11252102 -0.18304771
-0.117270365 -0.02153871 -0.07578234 -0.20061962 0.19387627 -0.12869255 -0.05853937 0.17643446
0.025051782 0.0666864 0.19294886 -0.15391515 0.08015545 -0.034675315 0.10181264 0.14805558
0.18193874 -0.1014292 0.08151296 0.21406053 -0.053472746 -0.050407596 0.20117079 0.112993054
-0.016180018 0.088292845 -0.13822073 0.17563218 -0.0791061 -0.043317385 0.13135347 0.13093403
0.084215224 0.1718347 -0.0054028113 -0.02573808 0.13814266 0.21291606 -0.051007576 -0.05010845
0.07239503 0.08526395 0.020884698 -0.056597658 -0.026177727 0.018475242 -0.16742527 -0.16906801
-0.1535873 -0.034429908 0.07846982 -0.055745024 0.18089709 -0.1642736 -0.105069615 0.07125722
0.10666186 -0.021624884 0.10389081 -0.14235866 0.059952233 0.009996625 0.22221279 -0.15617955
-0.15851507 -0.039235897 0.05937767 -0.20780359 0.21293952 0.0073009506 -0.14001572 0.21513924
0.20610195 -0.008589211 -0.07128331 0.20064236 -0.08931026 0.20921394 0.18026198 0.04199514
0.048151378 0.065951526 0.038779635 0.16155787 0.19491087 0.1089006 -0.17864017 -0.16111729
0.09815244 -0.16124669 -0.07552171 -0.14595866 0.082859986 0.1753099 0.16455846 0.18745172
-0.20976941 0.08637663 -0.011248281 0.21929955 0.021733679 0.036214773 -0.047720544 0.093701676
-0.13475324 -0.16680093 -0.12219413 -0.14257923 0.16079633 -0.120985426 -0.033521667 0.19897225
0.14619899 0.13591467 0.22047547 -0.22312658 0.18754113 -0.033416823 0.21143293 0.15243916
-0.124258354 0.06733361 -0.07399646 0.17587568 0.12126314 0.15005231 -0.21174675 0.11262336

branch_t.fc2.bias f4 [10]
00000000: b06d 12be 0452 4f3e 05cc de3c 860f 9a3d
00000010: e702 5b3e 5ce8 da3d 5fa7 7bbd fe6b 2cbe
00000020: 9cdb 22be 4bf7 25be
-0.14299655 0.2024613 0.027196893 0.07522492 0.21387826 0.1068885 -0.061438914 -0.16838071
-0.15904087 -0.16207616

branch_p.fc1.weight f4 [20, 10]
00000000: 32c2 973d ce16 fe3c 4635 a23c c0e7 463e
00000010: fe53 883e 9e52 9c3d fa73 febd d6aa 8abe
00000020: 2377 99be 5f30 963d 1357 71be 06ca febd
00000030: 7f7d 0c3c 251d 3ebe d9d7 d43d c1ec 6f3e
00000040: dc4c 2c3e 2669 e73d 1bb0 a7bc 73a9 5f3d
00000050: df88 6a3e f78f ae3c 2292 943e c57d b33d
00000060: 19f9 9ebd 1978 0d3b 6de5 6d3d cffc 05bc
00000070: 0693 383d d6fc 493d f056 463e 5d10 b43d
00000080: c84d e23d c764 8ebe 4995 7f3c 2248 79be
00000090: c303 69be bfe1 0bbe 5369 6fbe 03e8 86be
000000a0: 862e 39be f090 07bd 1f8a f03c ef11 92be
000000b0: 03cf 9f3e 4b92 2f3e 9580 98be 13ec 3cbe
000000c0: b69f 24be b681 9ebe ab7e 9c3e df65 0e3e
000000d0: 3566 86be ec29 903e 9168 003e f1f6 633e
000000e0: c3c5 71be 3818 663e 181c 21bd 78d7 b0bc
000000f0: dbe1 37bc 52c7 373d 5b3c 223c c368 493e
00000100: 8030 96bc f1c0 203e 39cf 083d f52c 5f3e
00000110: 8b65 303e 6cd5 4ebd c6e1 493e 4610 1bbd
00000120: 9d13 283d 7c63 6b3e 39ca 3a3e 171e 873e
00000130: 1208 973d 0bcf cd3d 5942 20be f48a 3f3e
00000140: b4d5 993e 26af c1bd dfb6 9a3e b14e 07bd
00000150: a331 24be 7de6 bcbd b25c a63e 0349 2cbe
00000160: ec62 6e3d cc24 903e b5a6 08be fcef 203e
00000170: d18c 593e 2e85 87bd 2171 083d a9cb f1bd
00000180: e582 163d ada4 dcbd 92c6 9abd 766c a4be
00000190: 048f 1bbd 1856 33be 7bd6 3bbe a9f7 9fbe
000001a0: 3845 9fbe a2bc 48be 6983 1f3d 21c8 903e
000001b0: 352a 43be f1e2 0e3d 17cc 1e3e 5791 78be
000001c0: f1f0 503e 39ca 6ebe 1f63 74be 7362 0cbd
000001d0: 6bfe 633e 55f6 713e 1b0e 60be 5406 0fbe
000001e0: 69c2 79bd fe67 423e ccdf ad3d 3358 fd3d
000001f0: 8271 18be 3b74 3b3e 266b 4cbd c775 aebd
00000200: 70ae 6fbd 6b76 9bbe 9e83 babd 84c9 38be
00000210: 1ae1 9bbe 9ee7 4fbe 0853 8d3d 2c32 c73c
00000220: e780 38be bcee f3bd d3fd 0e3e 99ac c7bc
00000230: a2f9 a8bd b447 a53d f62b 863d d657 bcbd
00000240: 38e1 0bbe 111c 16bd c466 8cbe a8a2 10be
00000250: 6756 7dbe 97e0 f63b 8ce1 493e 0391 773c
00000260: bd71 76be 4c93 8fbd b82a 99be b9d5 44bd
00000270: 95c2 763e 7ba1 563e 03a6 a63d 9244 493d
00000280: 8ba0 82be e51e 873e 2b9a 4c3e 98ba ccbd
00000290: edaf 913e 04cf 8ebe d245 373e 9533 92be
000002a0: 2ab0 17bd f114 23bd 24ae 59bd 6216 69be
000002b0: c615 36be bb0a aebd 5cfe 73bd 74b0 913e
000002c0: 7f90 983e 66af 103c 7f56 db3d b4de 7ebe
000002d0: 84a4 81be 7a6f c53d 4594 c03b 5d44 13bd
000002e0: 3aa3 4a3e 09ac 293d c723 36be 33f2 dabc
000002f0: 209a c5bd 3e87 a0bd dfa9 fd3d 1084 9fbd
00000300: 6454 9b3e b1a0 bf3c b537 4dbe 8ea9 063e
00000310: f8b9 87bc 8d64 98be e54a e93d 6256 55be
0.07410087 0.031016733 0.019800793 0.19424343 0.2662658 0.076329455 -0.124244645 -0.27083462
-0.29973707 0.07333445 -0.23568372 -0.12440877 0.0085748425 -0.18565805 0.10392732 0.23430158
0.16826195 0.11299352 -0.020469716 0.05460496 0.22903775 0.021308882 0.2901774 0.08764223
-0.07762355 0.0021586476 0.058080126 -0.00817795 0.045062087 0.04931339 0.19369102 0.087921835
0.11049992 -0.27811262 0.015599557 -0.24343923 -0.22755341 -0.13660334 -0.23380022 -0.26348886
-0.18084154 -0.033097208 0.029362736 -0.28529307 0.31212625 0.1714565 -0.297856 -0.1844943
-0.1607655 -0.30958337 0.3056539 0.13906048 -0.26249853 0.28156984 0.12539889 0.2226217
-0.23610596 0.22470176 -0.039333433 -0.021587119 -0.011223282 0.04486782 0.009902085 0.1966887
-0.018333673 0.15698601 0.033400748 0.21794493 0.17226236 -0.050496504 0.19715032 -0.037857316
0.04103433 0.22987169 0.18241204 0.26390144 0.07374586 0.10049256 -0.1565031 0.1870535
0.30045855 -0.09457235 0.30217645 -0.03303403 -0.1603456 -0.0922365 0.32492596 -0.16824727
0.058199808 0.28153074 -0.13344844 0.15716547 0.21245123 -0.06617199 0.033311013 -0.11806423
0.036745925 -0.10773597 -0.075574055 -0.32114 -0.037978187 -0.17513311 -0.18343537 -0.31243637
-0.31107497 -0.19603208 0.038943682 0.28277686 -0.1905907 0.034884397 0.15507542 -0.24274193
0.20404412 -0.2331933 -0.23865937 -0.034273576 0.22265022 0.23629124 -0.21880381 -0.13967258
-0.06097642 0.18984982 0.084899515 0.12370338 -0.1488705 0.18306057 -0.049906872 -0.08518558
-0.058515966 -0.30363783 -0.09107135 -0.18045622 -0.30445176 -0.20303199 0.069006026 0.024315916
-0.18017922 -0.11910769 0.13964014 -0.024374293 -0.08250739 0.08070317 0.06551354 -0.09196441
-0.13660133 -0.03664786 -0.27422154 -0.14124548 -0.24739991 0.0075340974 0.19714946 0.015110257
-0.24066825 -0.070105165 -0.29915404 -0.048055384 0.24097665 0.20960037 0.08137133 0.04913766
-0.2551311 0.26390758 0.19980685 -0.099965274 0.28454533 -0.27892315 0.17897728 -0.2855498
-0.037033238 -0.039814893 -0.05314459 -0.22762445 -0.17781743 -0.084981404 -0.059568748 0.28454936
0.29797742 0.008830881 0.10709857 -0.24889642 -0.25320828 0.09640403 0.00587705 -0.03595387
0.19788828 0.04142383 -0.17787085 -0.026726818 -0.09648538 -0.078382954 0.12385916 -0.07788861
0.30337822 0.023392053 -0.20040782 0.13150617 -0.016568169 -0.29764214 0.11391238 -0.20833734

branch_p.fc1.bias f4 [20]
00000000: 4af5 213e 2f68 c1bd 3fb0 5ebe be19 3abe
00000010: a210 293e d26c 0b3e 60c5 7cbe 957b 8ebe
00000020: ac1c 37be 2fb4 25be b82b ab3d ebfa 6c3e
00000030: fc85 dbbd 6122 e2bd 3832 78bd 8465 853e
00000040: 1cb9 94bd effe afbb 1fd2 993e 0f3b 87bd
0.15816227 -0.094436996 -0.2174692 -0.18173882 0.16510251 0.1361573 -0.24684668 -0.2782866
-0.17882031 -0.16182016 0.08357948 0.23142593 -0.10718915 -0.110417135 -0.060594767 0.26054013
-0.07261869 -0.0053709666 0.30043122 -0.066030614

branch_p.fc2.weight f4 [10, 20]
00000000: 00ff 0a3e 5c73 593e 18cb 623d de1a 603e
00000010: ffbb 49be 30f4 5bbe e839 0d3e 46a2 1abe
00000020: 2fda ddbd c014 aabb 903c cabd f0e1 f13c
00000030: 98cb d23d 52e7 443e 801b f03d 58bd 053e
00000040: a6a0 09be 1a03 b7bd 4899 4b3d f05b 173d
00000050: 9894 be3c 41b5 1cbe 4cf3 ab3d 86b8 383e
00000060: 6800 f93d 4083 5c3e fe7a 423e 9aa6 073e
00000070: 725d 3a3e 409b 5cbc d876 d73d 0865 a03d
00000080: 388e c2bc a0a1 243e f06d a6bd c09e 673d
00000090: 909a 1f3c 709b 073e d0dc b6bc 0820 d43c
000000a0: e0f1 bb3c 9528 6b3d d024 64bd 622a fcbd
000000b0: 2762 a3bd 5dd5 853d e5f5 65bd b1d4 0cbe
000000c0: bfd6 5fbe 4f7f 943d b1e7 58be 14dc 033e
000000d0: 6785 643e c164 ec3d e3ea 0bbe 68c8 3e3e
000000e0: de2b 163e 3834 013e 12f8 41bd 94ed 1e3e
000000f0: b672 173b b1f9 bb3d f661 473d 7778 243e
00000100: 3eaa a4bd 4f46 35be f00c 863d 352d bbbd
00000110: 099b 24be 4195 3e3e 68ce 52be 3e05 dabc
00000120: 1e8f 83bc e2a1 44be d090 4bbe dea3 113e
00000130: 151b 1bbd db37 0fbe 8b9e 3dbe a177 c0bc
00000140: 3092 42be ff47 c63d 4018 98bd e973 543d
00000150: c4c0 0ebe 5679 9abd bb32 e3bd 3831 53be
00000160: e4cd 3abe 4993 98bd f1fe 51be 92bd 47be
00000170: ef7e c9bd 0da2 29be 600c 043e d275 4abe
00000180: e236 31bd aec4 ab3c e9db 093d 4e53 413e
00000190: 8770 13bd c31d f8bd 9a3f 84bd 0f82 063d
000001a0: 4b3f 33be d8aa ecbc 2c2a 26be 0486 5c3e
000001b0: dd03 013e 6d5c 213e 7b74 8ebd fdc0 9dbb
000001c0: 1db3 43be c6d0 3bbd 0af4 333e 6c89 513d
000001d0: b9f3 043e f0ec 93bc 6d8e d33d 20ca 2dbe
000001e0: 2bc4 8abd 5437 0d3e 9fe9 48be e0f4 88bc
000001f0: 6c93 e5bd 5551 3c3e c1e6 013e 86d9 11be
00000200: 08d8 ff3d 7dc2 60bd 27a2 2dbc 1e9b 3ebe
00000210: e684 593e 4049 2fbe 54cf 45be b7dc 48be
00000220: 50f7 4b3c 8573 c63c 3510 4cbe 1d7f 363e
00000230: 55c7 fbbd 69be 38be e24b 33bd e22d 563e
00000240: ecd9 64be cff9 21bd 3a4b b53a 5b93 02be
00000250: 60aa e2bc b68a 55be f997 8b3d e650 983d
00000260: 54eb 14be 4464 8a3d a341 c33d 50d9 c1bd
00000270: 6ebb 13bd 0e4e 48be 1de6 113e 757e e43d
00000280: 4fff d33d 15d1 c7bc 53f6 aabd ba3f 183e
00000290: 307b e03d c317 3a3e 7886 35bd 3192 6b3e
000002a0: 31c0 253d 2ea6 3dbe f642 38be aa8a d8bd
000002b0: 9098 363b cbdd 9fbd 738c f83d 5d8e 9cbd
000002c0: 3244 10bc 3b9b 223d d890 12be 5778 5d3c
000002d0: 90ed 9e3d 8ee1 a4bd ec2a 20bd 0caa c63d
000002e0: fe42 443e e16d 49be cca3 903d c832 183d
000002f0: 68d3 acbc 4875 613d 8637 80bd 2b20 eabd
00000300: 10af c73d 80ff 8a3c 4600 253e ba17 32be
00000310: 0a78 b9bd c64d 38be b6c9 16be 6828 3fbd
0.13573837 0.21235412 0.055369467 0.21885249 -0.19700621 -0.21479869 0.1379162 -0.15100965
-0.10832631 -0.005190462 -0.09874833 0.02952668 0.10292739 0.19228867 0.11723995 0.1306051
-0.13440189 -0.089361385 0.049706727 0.036952913 0.023264214 -0.15303518 0.083960146 0.1803914
0.121582806 0.21534443 0.1899223 0.13247147 0.18199709 -0.013464749 0.105207145 0.0783177
-0.023749456 0.1607728 -0.08126438 0.05654788 0.00974144 0.13242888 -0.022322088 0.02589418
0.022942483 0.05741175 -0.05569917 -0.123127714 -0.079777054 0.065348364 -0.056142706 -0.1375301
-0.21859263 0.07250845 -0.21182133 0.12876922 0.22316514 0.11542655 -0.13663821 0.18631136
0.14665172 0.12617576 -0.04735572 0.15520316 0.0023109145 0.09178484 0.048677407 0.16061579
-0.080402836 -0.17702602 0.065454364 -0.09139482 -0.16074766 0.18611623 -0.2058655 -0.026613828
-0.016059455 -0.19202378 -0.1987946 0.14222667 -0.037867624 -0.13986151 -0.1851751 -0.023494544
-0.19001079 0.09681701 -0.074265 0.051868353 -0.13940722 -0.07542674 -0.110936604 -0.20624244
-0.18242604 -0.074499674 -0.20507409 -0.19505909 -0.09838664 -0.16565724 0.12895346 -0.19771507
-0.04326523 0.020967808 0.03365699 0.18879434 -0.035995986 -0.121150516 -0.064574435 0.032838877
-0.17504613 -0.028890058 -0.16227025 0.21535498 0.1259913 0.15757914 -0.06955811 -0.0048142658
-0.19111295 -0.0458534 0.17573562 0.051156446 0.12983598 -0.018057317 0.103299 -0.16971636
-0.06775697 0.13790637 -0.1962037 -0.016718328 -0.11209759 0.183904 0.12685682 -0.14243135
0.124923766 -0.05487298 -0.010597742 -0.1861386 0.21242103 -0.17117786 -0.1931737 -0.19615446
0.012449101 0.024225006 -0.19928057 0.17821927 -0.12293879 -0.18041386 -0.04377354 0.2091594
-0.22348756 -0.039544877 0.0013831623 -0.12751524 -0.027669132 -0.20853695 0.06816096 0.07437305
-0.14542896 0.067574054 0.095340036 -0.09465277 -0.03606742 -0.19561026 0.14247938 0.11156932
0.103514306 -0.02439169 -0.08347764 0.1486806 0.10960996 0.18173127 -0.044317693 0.23004986
0.04046649 -0.18520424 -0.17994294 -0.10573323 0.002786193 -0.078059755 0.121361636 -0.07644341
-0.0088053215 0.03969882 -0.14313066 0.013517461 0.07760155 -0.08050834 -0.039103433 0.097004026
0.1916618 -0.19670822 0.07062492 0.037157804 -0.0210969 0.05504349 -0.0626059 -0.11431917
0.097501874 0.016967535 0.16113386 -0.17391863 -0.09056099 -0.17998418 -0.14725384 -0.046669394

branch_p.fc2.bias f4 [10]
00000000: 3293 bcbd 3e13 afbd 1876 38be 52d2 4f3e
00000010: 1e00 9fbd dad8 ee3d c5cd a1bc e9f3 103e
00000020: 96a9 bebd 0093 aeba
-0.09207763 -0.08548592 -0.18013799 0.20295075 -0.07763694 0.11662455 -0.019751439 0.14155544
-0.0930969 -0.0013318956

branch_h.fc1.weight f4 [20, 10]
00000000: aaa3 74be 7187 813e 5341 9abe 8946 43be
00000010: 5dea 893e d089 4e3e e59e 0e3e b76a 96be
00000020: 689a 8c3e 33a3 2dbe 48c0 20be 3676 503e
00000030: bd20 58be 0ef4 973e 1686 3dbc cbba 32be
00000040: b918 1fbe 06ac 92be f792 cebd 6c7d 7bbe
00000050: c401 5fbe 8bcb 98be 7af2 813d bb01 d13d
00000060: c522 89be 4f3a 823d 9bb7 6dbe 184b ee3d
00000070: cf05 10be 075c bdbc 7833 b03d 6bd0 863e
00000080: 4cc2 c8bc fda8 903e f232 5c3e 8b3c 23bd
00000090: f409 20be d58c 8fbe 3476 adbd f0d0 8ebd
000000a0: 9353 043e b39a 7a3e 1660 013e 654d 703d
000000b0: 1945 773e 9ea5 aabd f847 83be e2b4 97be
000000c0: cbfc 863e 35e0 b7bd 1d60 91be bbf8 bcbd
000000d0: 857d 5f3d 8fc9 573c b791 523e e0b2 7e3e
000000e0: 33ef 15be 3eef 763e 925e 37bd a6ee 9bbe
000000f0: aab9 76be f046 023c 2621 9fbd 2636 933c
00000100: 0a3d ac3d 1596 7f3d 7fc7 9c3e 01d0 933e
00000110: 4c85 0ebe 38a7 6a3d 92f3 0a3e f48c 43be
00000120: d480 a73d 01d3 723e 43a7 3ebe f8b1 5bbe
00000130: 391d 73be 18a3 eabd 91a7 b5bc b62f 7bbe
00000140: b045 8abe 7582 9e3e e8a0 8ebe 72f6 5bbe
00000150: 886c 59be 9c18 77be 4e71 c7bd a962 7c3e
00000160: 97ed df3c e402 063d 9161 84be b790 703e
00000170: 2b25 e53d 6857 1abc 90ae dbbd d5fa 6cbe
00000180: ceee 133e c832 66be 3404 3e3d 5bfb 2e3e
00000190: 5520 51be 6dfb 5c3e 6fae 80bd 4ae5 8f3d
000001a0: 57e4 b43d e540 c9bd 2884 b5bd 414b 053e
000001b0: 3394 c9bd 8230 e5bc e510 e13d 49ac ec3d
000001c0: d187 51be ada3 a1be c9b5 50be 032e 21be
000001d0: 4c0f 6d3e aa39 cabd 1244 68be e12e 8fbe
000001e0: 6b27 a7be b83c e33c b36d e0bd 2380 b43d
000001f0: 71cc 52bd fece b93d b642 25be e4a7 b83d
00000200: 9b39 5c3d 8c83 07be b7d8 4bbe cc08 6a3d
00000210: 4f91 4f3e f550 933e 1d34 893e 8f0a 03be
00000220: 6f2a d23a 809d 2bbe eb9b 3bbd 6aa2 febd
00000230: d846 f6bd 5c71 43be c780 5a3e 5981 8bbe
00000240: e2d7 e43d 39ea 963d 5fe9 1a3c 537c 023e
00000250: e2e1 b9bd 8b8f 9d3e c299 613e 5aab 063e
00000260: 1a3e 593e ce23 62bd d6b5 6cbe b796 ee3d
00000270: b949 91be 66a2 103e fd63 19bd 8bc0 16be
00000280: 7c6b 8e3e ee52 10be cc91 993b f49e 90be
00000290: 2833 03be 9780 353e df79 823d b4e7 1e3e
000002a0: 45f9 7bbe 301a 10be 6ddf 4bbe 4b65 8dbc
000002b0: e14f 9ebe d3ee 0cbe ea0b 913e 7eb3 19be
000002c0: ce66 2b3e f688 96bc 1fdc b3bd 5173 07bc
000002d0: 26a2 ff3d 3c52 8f3e e3cd 88bd 083d 6bbe
000002e0: abc8 f93c 9bf7 02be abca 513d 18d3 99be
000002f0: 90d3 633e 2e90 843d abff 75be 61b2 3d3e
00000300: fa50 963e f59d c7bd e6d1 44be 8354 fa3b
00000310: 0931 b83d 448f de3d 11c4 28bd d1b3 e63c
-0.23890558 0.25298646 -0.30127963 -0.19069876 0.26936617 0.20169759 0.13927801 -0.29378292
0.27461553 -0.16956787 -0.1569835 0.20357594 -0.21106239 0.29678386 -0.011567613 -0.17454068
-0.15536775 -0.28646868 -0.10086625 -0.24559563 -0.21778017 -0.2984279 0.06345077 0.10205408
-0.2678434 0.06358778 -0.23214571 0.11635417 -0.14064716 -0.023115171 0.08603567 0.26330885
-0.02450671 0.28253928 0.21503809 -0.03985266 -0.15628797 -0.28037134 -0.08469811 -0.069734454
0.12922506 0.24473076 0.1263431 0.05866756 0.24147452 -0.0833237 -0.25640845 -0.2963019
0.2636474 -0.08978311 -0.2839364 -0.09227129 0.054563064 0.013170614 0.20563398 0.24872923
-0.14642029 0.24114701 -0.044767924 -0.30455512 -0.24094263 0.007951483 -0.077699944 0.017970156
0.0841008 0.06239899 0.30620953 0.28869632 -0.13918036 0.05728838 0.13569477 -0.19096738
0.08178869 0.23713304 -0.18618493 -0.21454608 -0.23741616 -0.11456889 -0.022174628 -0.24529919
-0.27006292 0.30958906 -0.27857137 -0.2148073 -0.21232808 -0.24130481 -0.09738408 0.24647011
0.027334971 0.0327176 -0.25855687 0.23492704 0.1118873 -0.009420253 -0.107266545 -0.2314256
0.14446566 -0.22480309 0.046390727 0.17088072 -0.2042249 0.21580286 -0.062832706 0.07026155
0.08832615 -0.09826831 -0.088630974 0.13016988 -0.0984272 -0.027977232 0.109895505 0.11556298
-0.20461966 -0.31570187 -0.20381846 -0.15740208 0.23150367 -0.0987428 -0.22682217 -0.27965453
-0.3264726 0.027738914 -0.109584235 0.08813503 -0.0514645 0.09072684 -0.1613873 0.090163976
0.053765874 -0.13233775 -0.19906889 0.057137296 0.20270275 0.28772703 0.26797572 -0.12796997
0.0016034375 -0.167593 -0.04580299 -0.12433322 -0.12025231 -0.19086212 0.21338187 -0.27247122
0.11173989 0.07368893 0.009455054 0.12742738 -0.09076287 0.30773577 0.2203131 0.13151303
0.21215096 -0.055209927 -0.2311624 0.1164984 -0.28376558 0.1412445 -0.037448872 -0.14721887
0.2781638 -0.14094135 0.00468657 -0.28246272 -0.12812483 0.17724834 0.06370901 0.15518075
-0.24606808 -0.1407249 -0.19909449 -0.017260214 -0.30920318 -0.13762979 0.28329402 -0.15009877
0.16738436 -0.018375855 -0.08782219 -0.00826724 0.12482099 0.27992427 -0.06679895 -0.229725
0.030491194 -0.12789766 0.05121867 -0.30043864 0.22248673 0.064728126 -0.24023311 0.18525077
0.29358655 -0.09746925 -0.19220695 0.007639469 0.08993728 0.108671695 -0.04120261 0.028161915

branch_h.fc1.bias f4 [20]
00000000: 494e 4e3e b237 b03d 282f 143c 8418 84be
00000010: a2aa 703d ceb7 ca3d 6b9d 923e 4dc4 fe3d
00000020: 4eca fa3d 9f95 9abe 01a1 70be a400 92be
00000030: 7a64 68bd 8a0b 2a3e 2d05 e5bb b5e9 a03e
00000040: 990d e6bd c8a4 d8bc 25e5 8d3e 87a9 4abe
0.20147051 0.08604373 0.009044446 -0.25799954 0.058756478 0.09898339 0.28635725 0.12439785
0.12245618 -0.30192277 -0.23498918 -0.28516114 -0.056736447 0.16605964 -0.0069891424 0.31428304
-0.11233062 -0.026445761 0.27713886 -0.19791232

branch_h.fc2.weight f4 [10, 20]
00000000: c353 1b3e 6841 49be e662 c53d f2ad b0bd
00000010: 60d5 58be eac6 d7bd 5859 e73d ed3b d93d
00000020: 7c0b f93c 8c91 3bbe 78b8 1e3e 0e07 2c3e
00000030: 1d11 c13a 00ae 58be 730e c63d d5f7 6b3e
00000040: 0525 38be 97ee 083e 3d99 143e 4a59 7f3c
00000050: b09b 27bc 80f8 863c b8b5 5b3d e468 223e
00000060: b0de 29be a0cf 713c ee64 37be 4cb7 ee3d
00000070: ac2a bbbd b332 fabd d802 033e 3669 4dbe
00000080: b8eb 90bc 88a8 e43d 6074 22bd 64be e0bd
00000090: 687c b33d 6352 07be a053 a33d 0871 26be
000000a0: 028c 253e e5f6 fbbd a8fa 233e 5fb2 e1bc
000000b0: 4c76 9fbd 8009 f6bd e273 5dbd 5018 853d
000000c0: e153 4a3d cd85 ddbd a947 a93d 94cd 43be
000000d0: d833 0e3e 58a8 00be 0d6a 1a3e b4bb 173e
000000e0: 7a76 853d 30a6 543e 38df 6f3d fa6d 3fbd
000000f0: 503f 2ebe 09dc 483d b470 dcbd b89c 37be
00000100: adfb 0d3e b3ea 0ebe f843 c43d 4007 56be
00000110: 4d01 b8bd ee2e ffbd 3bb5 283e c623 e3bd
00000120: 9dc9 00be d07a 573d 74e2 f23d c120 53be
00000130: eb31 2fbe 53f6 783d f01a df3b 0e0a 553d
00000140: 2652 06be a232 563e def1 583e c029 de3d
00000150: 54d2 ec3d 4cb8 b2bd da52 b2bd 00f8 c83d
00000160: 5d1a 46be b019 0d3e e3e9 5fbe 76be 5c3e
00000170: cced 293e 1e90 093e 2832 e0bc 3290 3e3e
00000180: af45 0fbe 98cd 18be 6418 13bd a867 f83d
00000190: 78cb 493e ac23 643e 3e3a b5bd 182b 353e
000001a0: 0262 2a3e aa8b 3a3e 405a 2ebc 5093 a0bc
000001b0: 7af2 0bbe 0ff8 5ebe 64bc 16bd 640c 4b3e
000001c0: 18be 88bc efd8 46be 84b7 803d 186c b6bd
000001d0: c43b 4c3e 601a acbd 32ab 1a3e 5862 b0bd
000001e0: f010 52be 98cd 9abc 78b5 373d fe94 c1bd
000001f0: 2877 54bd a0d8 cc3d 89d5 17be a03a e93d
00000200: b779 17be 4a52 2ebe 0c5e b73d 6428 0cbd
00000210: 6c0a 70bd e0fd f4bd 0072 673b 9a1d 343e
00000220: 6098 0a3d 5b38 f1bd 8de9 cabd 00f6 423d
00000230: 8c97 b03c c796 f2bd fb59 ed3d 5993 2c3e
00000240: d8fe 4abe 468f 8e3c d8c0 30ba 6354 4ebe
00000250: cb0c dcbc 3f2c 223e f8ea 11be b33a 613b
00000260: 49a0 983d 1bbf 6abd 5f52 b83d f9d5 2dbd
00000270: 64d3 e33d c84a 203d 5c7f 91bd 25d4 d2bd
00000280: 000e 8fb9 c03b 3d3d 5406 063e a015 33bd
00000290: 34f7 8cbd e0c9 63bc bc33 be3d b4b0 f3bd
000002a0: 446e f03d 927f 313e a0e4 f33d c835 9f3d
000002b0: 1bed 2fbe 7cd3 fd3d fa3a 20be 026a 423e
000002c0: 8c1d 0e3e bed9 393e 6659 4b3e 3efe 453e
000002d0: 760e b6bd 7056 e33c 6405 293e da8a 22be
000002e0: ac8b f43d 2cbf 283e 1095 ff3c f0bc fa3d
000002f0: fbb0 54be ab22 0ebe f8c0 32bd 524e 03be
00000300: 90d5 003d 90bb b23d 6519 f6bd 48fd 4fbd
00000310: ee8f 8ebd 043d e83d a021 0d3e bc84 c73d
0.15168671 -0.19653857 0.09638004 -0.086269274 -0.21175146 -0.10535987 0.11296338 0.10607133
0.030400984 -0.1831724 0.15500057 0.16799566 0.0014729832 -0.21160126 0.09670725 0.23043759
-0.17982872 0.13372265 0.14511581 0.015585253 -0.01022999 0.016475916 0.053640097 0.15860325
-0.16588855 0.014758974 -0.17909595 0.11656055 -0.091389984 -0.12216701 0.12794054 -0.20059666
-0.017690524 0.11164957 -0.039661765 -0.10973814 0.08763963 -0.13215022 0.079749346 -0.16254056
0.1616669 -0.12302951 0.16013587 -0.027550874 -0.07786235 -0.12013531 -0.054065593 0.06498778
0.0493964 -0.10816536 0.08265621 -0.1912139 0.13886964 -0.12564218 0.15079518 0.14817697
0.06516738 0.2076652 0.058562487 -0.04673574 -0.1701634 0.049037967 -0.10763684 -0.17930877
0.13865538 -0.13956718 0.095832765 -0.20901203 -0.08984623 -0.12460123 0.16475384 -0.110908076
-0.1257691 0.052607358 0.11859599 -0.20617963 -0.17108886 0.060781788 0.006808631 0.052011542
-0.13117275 0.20917752 0.21186015 0.10847807 0.115635544 -0.08726558 -0.08707209 0.09812927
-0.19345994 0.1377933 -0.21866564 0.2155703 0.16594619 0.13433883 -0.027367666 0.18609694
-0.13991426 -0.14922178 -0.035911933 0.12129146 0.19706523 0.22279233 -0.088489994 0.1769222
0.1663895 0.1821734 -0.010641634 -0.019601494 -0.13666716 -0.21774314 -0.036800757 0.19828945
-0.016692206 -0.19418691 0.06285003 -0.08907336 0.19944674 -0.08403468 0.15104368 -0.086125076
-0.20514274 -0.018896863 0.044850796 -0.09452246 -0.05187145 0.100022554 -0.14827551 0.11388135
-0.14792524 -0.17023578 0.08953485 -0.034218207 -0.05860369 -0.11962485 0.0035315752 0.17589417
0.033836722 -0.11778327 -0.099078275 0.047597885 0.021556638 -0.11845165 0.11589428 0.16853084
-0.19823778 0.017402302 -0.0006742603 -0.20149378 -0.026861569 0.15837191 -0.1424979 0.0034367263
0.07452447 -0.05731116 0.09000086 -0.04244039 0.11124304 0.039133817 -0.0710437 -0.102943696
-0.00027285516 0.04619956 0.13088351 -0.043721795 -0.06883088 -0.013903111 0.09287211 -0.11898938
0.117397815 0.1733382 0.11908841 0.0777393 -0.17180292 0.12393853 -0.15647498 0.18985751
0.13878459 0.18149468 0.19858322 0.19335267 -0.08889477 0.027751178 0.16505963 -0.1587328
0.11940703 0.16479176 0.031199008 0.12243068 -0.20770638 -0.13880412 -0.04364106 -0.12822846
0.03145367 0.08727181 -0.12016562 -0.050778657 -0.06961046 0.11339763 0.13782358 0.09742114

branch_h.fc2.bias f4 [10]
00000000: 6bd6 413e f026 92bc 7e34 d3bd 8fd0 24be
00000010: 74d9 103e 244a 84bd 89ae 4dbe 8ed6 f8bd
00000020: 0cc8 483e 7adf 283e
0.1892945 -0.017840832 -0.103127465 -0.16095184 0.14145452 -0.06459454 -0.20086111 -0.12150298
0.19607562 0.164915

self_attention_players.query_projection.weight f4 [10, 10]
00000000: ee5d e9bd 9863 923d f467 f8bd 27e6 16bd
00000010: 8d15 503d f2c7 143b c5d1 d73d 34ea 2a3c
00000020: 81ea 043e 386c 033d f2ef 83be 3f77 853e
00000030: 5a71 4d3e 31a2 8cbe c6c7 8dbc e8fa 8bbe
00000040: fcc7 763e 123f 263e ed9f 9ebd 25f6 95be
00000050: 60a7 7cbd 0ab9 3d3e a4b7 5abe 63da a23e
00000060: 56ac 40be 1947 3bbd cb3e 49bd b2ed 93be
00000070: 91c4 7dbe c463 fe3d c7d1 0fbe 60e9 f53c
00000080: 0e4c e83c 0676 1abe 4597 81be 1621 a73d
00000090: 657b 81bd 0b6e f53d 3ae9 11be 3a7f 9dbe
000000a0: d549 96be 5e16 723e 4b77 e63c c66a f4bc
000000b0: f0eb 0dbe b151 3a3e 7086 99be d58b 5fbe
000000c0: 3229 c03d e03e 3ebc f8ce 92be e4e1 7fbe
000000d0: e53c 44be 4723 803e 51e3 863e b265 94bd
000000e0: 6b61 37bc 300a 4bbe 7cdc 8c3e 909e 8fbc
000000f0: bd03 a03e bf40 8cbe ba77 83bd 7cc8 543e
00000100: 949c 5cbe 613c babd 343a 0a3e 4105 a03d
00000110: 2a0d 9a3e 40ee febb 286e 923d e284 f0bd
00000120: 8166 0dbe 8474 f4bc 2692 36bc e200 86be
00000130: e0b4 33bd 1513 633e d824 a3be 015c 23be
00000140: 62db 423e d44c cb3d 52d2 933d 3bbe 60be
00000150: 16f0 993e c665 713e 411e 8c3e 6b9b 5ebe
00000160: f106 21be 5bff 2bbe 3769 94be 84bc 81bd
00000170: ef64 903e 5920 b6b9 be30 d9ba beaa 53be
00000180: 5988 683e b71e 17be 7ac7 653e a0e3 82bd
-0.11394869 0.07147902 -0.121292025 -0.036840584 0.050801802 0.0022702185 0.10538057 0.010431815
0.12980081 0.032085627 -0.25769 0.2606754 0.20062771 -0.27467492 -0.017307173 -0.27339864
0.24099725 0.16234997 -0.07745347 -0.29289356 -0.06168306 0.18527618 -0.21359116 0.3180724
-0.18815741 -0.0457221 -0.04913215 -0.28892285 -0.24782015 0.124213725 -0.14044867 0.030018508
0.028356578 -0.15084085 -0.25310722 0.081606075 -0.06322364 0.1198388 -0.14249125 -0.3076113
-0.29353204 0.23641345 0.028133055 -0.02983607 -0.13859534 0.18195225 -0.2998538 -0.21830685
0.093828574 -0.01161167 -0.2867353 -0.24988514 -0.19163854 0.25026914 0.26345304 -0.07245959
-0.01119266 -0.19828105 0.27511966 -0.017531663 0.31252852 -0.27393147 -0.064193204 0.20779604
-0.21544105 -0.090935476 0.13498765 0.07813502 0.30088168 -0.0077798665 0.07149917 -0.117440954
-0.13808633 -0.029840715 -0.011143243 -0.2617255 -0.043873668 0.22175248 -0.31864047 -0.15953065
0.19029 0.09926763 0.0721785 -0.21947567 0.30065984 0.2357398 0.27366832 -0.21738975
-0.15725304 -0.16796629 -0.28986523 -0.063347846 0.28202006 -0.00034737846 -0.0016570312 -0.20670602
0.22708263 -0.1475781 0.22439376 -0.06391072

self_attention_players.query_projection.bias f4 [10]
00000000: d5ab 3fbe 9a02 893e 3921 98bd 3282 ecbd
00000010: 13b2 b8bd 3fe4 38be 027c b13c e748 a23d
00000020: cbec b13d 6649 093e
-0.18717892 0.26759797 -0.07428212 -0.1154827 -0.0901834 -0.18055819 0.021665577 0.07924061
0.08687743 0.13406906

self_attention_players.key_projection.weight f4 [10, 10]
00000000: ccc7 b83d d6b2 3c3e 5ccb 393e e6f1 983e
00000010: 2074 ec3d 920c 81be 281e 59bd 8e09 6abe
00000020: 72fd 86be 8aec 173e f89c 09bd fa4b 363e
00000030: 13e9 d43d 079c 603d 7fa6 8e3e 41a2 24be
00000040: 8255 983d 856c 2d3e 742c 3c3e 4939 84be
00000050: 0c1d 83bd 0018 9039 003f 0bbd a217 183d
00000060: 0d85 663e b67f 613e ff29 073e cd03 983e
00000070: 9b83 8c3e 5c08 cd3d f624 09be 7ce1 86bd
00000080: ad1e f5bd 4cef 81bd c599 333e 9835 99be
00000090: 79fd 4ebd 4005 213d 9644 5f3c 0bd0 813e
000000a0: 4e92 8ebe 44e3 123e 4783 3a3e db5a 7dbe
000000b0: 004a 19be 1fd8 f0bc 039b 743e 2c8e 1cbe
000000c0: f2c1 d1bd e994 843e f560 7abe f2f3 b4bd
000000d0: 1744 6f3e 7dcc 4fbe cb2a f9bd cc31 d7bd
000000e0: f34a e4bd de36 8cbe 80a6 00be 7e40 bbbd
000000f0: 384c afbd 1ce7 1dbe 5fb9 7b3e 100f 563e
00000100: 9680 82bd 0826 19be 0e89 873e 9b75 fcbd
00000110: 1366 48be e668 26be 720e 5c3e 1432 f23d
00000120: d5d9 323d dcb8 aebd ce44 903e 45da 753e
00000130: 8400 4cbe a29e 203e 3275 5fbe 9e6c 3b3e
00000140: d8a5 b13d b4de 0f3e 7872 94bc 3902 6d3e
00000150: 683e fd3a 55c7 0b3e 8cad 93be 98f0 e8bd
00000160: ed93 37bb 4058 7abc 0d9a 9abe 107d ae3c
00000170: 5ee8 52bd 0a3d febd 5445 a3be 5f27 843e
00000180: 1d9c 5c3e 151d 9bbe fe2e 8c3d db6b 923e
0.09022483 0.18427595 0.18143982 0.29872054 0.115455866 -0.25204903 -0.053007275 -0.22855207
-0.26365238 0.14836326 -0.033596963 0.1780242 0.10396018 0.0548363 0.278614 -0.1607752
0.07438184 0.16935928 0.18376333 -0.25824955 -0.064020246 0.00027483702 -0.03399563 0.037131913
0.22511692 0.22021374 0.13199614 0.296904 0.27444157 0.1001136 -0.13393006 -0.065859765
-0.119687416 -0.063444704 0.17539127 -0.299237 -0.0505347 0.039311647 0.013627192 0.25354037
-0.27845997 0.14344507 0.18214141 -0.2474169 -0.14969635 -0.02939993 0.23887257 -0.1528861
-0.1024207 0.2589486 -0.24451049 -0.088355914 0.23365818 -0.2029285 -0.12166365 -0.10507545
-0.11147108 -0.2738561 -0.12563515 -0.0914316 -0.085594594 -0.15420192 0.24582432 0.20904183
-0.06372182 -0.14955914 0.26471752 -0.12327119 -0.19570188 -0.16250953 0.21489885 0.11825958
0.043664772 -0.08531353 0.28177494 0.24009044 -0.19922072 0.15685514 -0.2182205 0.18303153
0.0867421 0.14049798 -0.01812099 0.23145379 0.0019320967 0.13650258 -0.28843343 -0.113740146
-0.0028011755 -0.0152798295 -0.30195656 0.021299869 -0.051491134 -0.12413986 -0.3188883 0.25811288
0.21543927 -0.30295625 0.068449005 0.28597912

self_attention_players.key_projection.bias f4 [10]
00000000: 2ae7 8c3d fbdb 86be d75d 953e f8f3 8ebe
00000010: ae8b 8f3e d560 84be 17df 123e d8fb 133d
00000020: d9e9 2f3e b779 b0bd
0.068800285 -0.26339707 0.29173157 -0.27920508 0.28036255 -0.25855127 0.14342915 0.03612885
0.1717905 -0.08616965

self_attention_players.value_projection.weight f4 [10, 10]
00000000: 0648 9ebe d245 713e 25f0 97be dd4c c0bd
00000010: 2a42 883e bb2f 43be a752 853e 049f 8abe
00000020: 9531 f63d 7490 5ebe 4e6b 91bd 1c1d 44be
00000030: c11f e5ba 2bc7 143b b7d0 873e 4308 05bd
00000040: b22c d7bd c4f1 89bd 22c2 983e e096 af3d
00000050: 90a5 893d 62e4 5fbe 6269 a23e ef06 8ebe
00000060: af83 c33d df78 503d 5c2f 903e 8062 e33d
00000070: 165f 843e bfdf 973e a099 cebc 10d2 933d
00000080: 2b2b 953e 8806 f0bd 5754 8c3d 2da7 e4bd
00000090: 44f0 f93d 9410 5b3e 6a50 63be 0a5f 75be
000000a0: 16dc 90bd 42c2 633e 7838 62be 3c9b 8a3d
000000b0: 5a9e 6fbe cc36 1c3e 0986 4bbe 7501 8cbe
000000c0: 9d04 963e c49f 7dbe a0ae 8ebe 9f72 903e
000000d0: 8618 d33d 52b8 51be 4726 fb3c fc5f fabd
000000e0: 1000 60b9 cb9c 5abe 5cea 253e 8088 5cbe
000000f0: 5ca8 b93d e80e bf3d ac7a f93d 001b bcbb
00000100: ecbf 383e 3097 98be dab9 c9bc 41e1 84be
00000110: d919 a1be 5dbd 8d3e 5edb 443e a0e6 963d
00000120: 2870 98be d004 01bd 8812 9ebe 5c50 edbc
00000130: b098 97be e976 263e d17a 23bd da6f 333e
00000140: 1068 4fbd 6ed1 8fbd e596 273e e969 e73d
00000150: 5b94 9a3e 8ba7 0bbe 183a 963e 5bc3 e43d
00000160: 33f1 443e 340a 38be 6624 573e 3a99 15be
00000170: 3d0b e73c f665 2abe 6a4d 30be f126 1bbe
00000180: 6db5 51be f52d 373e 9f72 9bbb e814 93bd
-0.30914325 0.2356179 -0.29675403 -0.093896605 0.2661298 -0.19061176 0.2603962 -0.27074444
0.12021176 -0.21734792 -0.07100545 -0.1915173 -0.0017480777 0.0022701721 0.26526424 -0.032478582
-0.10506572 -0.06735566 0.29835612 0.08573699 0.06721032 -0.21864465 0.31721026 -0.27739665
0.09546601 0.05089652 0.28161132 0.11102772 0.25853795 0.29662892 -0.025219738 0.072178006
0.29134497 -0.11719996 0.06852024 -0.11164699 0.1220403 0.21393043 -0.22198644 -0.23962036
-0.07073228 0.22242072 -0.22091854 0.0676789 -0.2340025 0.15255278 -0.19875349 -0.27344862
0.29300395 -0.24767977 -0.27867603 0.2821245 0.10307412 -0.20480469 0.0306579 -0.12225339
-0.00021362328 -0.21348874 0.16202682 -0.21536446 0.09065315 0.09329015 0.12181601 -0.0057405233
0.18041962 -0.29802847 -0.024624754 -0.25953105 -0.31465033 0.27683535 0.19224307 0.07368207
-0.29773068 -0.03149873 -0.30873513 -0.028968982 -0.2960868 0.16256298 -0.03991205 0.17523137
-0.05063635 -0.070223674 0.16366155 0.11299498 0.3019131 -0.13638131 0.29341197 0.111700736
0.19232635 -0.17972642 0.21009979 -0.14609233 0.028203601 -0.16640458 -0.17217031 -0.15151574
-0.20479365 0.17888625 -0.0047438885 -0.07181722

self_attention_players.value_projection.bias f4 [10]
00000000: df47 c63d b908 59bd 26c8 bbbc 8d8e 5fbe
00000010: b900 853d 0074 85be b3e7 10bc 4c8b 21be
00000020: 3742 81be e829 8dbc
0.09681677 -0.052986834 -0.022922587 -0.21831723 0.064942785 -0.26065063 -0.008844304 -0.15775794
-0.2524583 -0.017231897

self_attention_players.output_projection.weight f4 [10, 10]
00000000: 7b60 cb3d 5c6c 623e 8774 5e3e c261 87be
00000010: a322 923b 883a 9a3e 6b04 3f3e e186 453c
00000020: d18e 553d 16e7 653e d6ac 9c3d 8761 bc3c
00000030: 93c4 e6bd f1d5 153c d36f 75be b5de 8ebe
00000040: 8a36 bd3c f0ba 29be effb f93d 08e4 123e
00000050: 8b44 c03b 911b 9abe c23c 55be 23f9 4bbe
00000060: 33ce a3be f1e2 a7bd df9b d03d 7db5 55be
00000070: 217d 4a3e 3c94 bbbd e6bb 24bd d241 dbbd
00000080: 2d16 82bc 17f8 05bd c77b 843e 2e3a a83d
00000090: 5c71 923e 3eb6 5a3d 340f 50be 5bbc 6b3e
000000a0: 068d 9ebe 2524 a0bd d5d0 37be fb2a 2fbd
000000b0: abe0 8cbe 49cf 063c b22f 8ebe 4996 973e
000000c0: bb44 71be 3508 8a3e 846c 8cbd d321 8f3c
000000d0: 1326 44be 43e7 bb3d 19d8 4dbd b6f8 24bb
000000e0: 3571 b0bd 5d40 31be 8ea6 22be 66cd aebd
000000f0: 8b3e 8ebe fc4a 13be 8df1 863d df51 c43d
00000100: 5855 4e3e 88c3 413d 56fa 8ebe 5446 673e
00000110: fd6d 88bd 028b 553e 6831 313e 1436 383d
00000120: 7bc9 0b3e 4556 95be 8024 2bbe a44e e0bd
00000130: 9adc a13e 8fd8 343e 3c12 6b3d faf2 7a3d
00000140: 754a 6dbe eba9 9d3e 668a a3be c82d 8dbe
00000150: e0b1 133d 7217 70be 43bd 6f3e 391b 793c
00000160: 4b9a 5ebe 8e15 0b3e 7c85 57bc 3c5e 4b3e
00000170: cb94 e5bd 04d6 96bd 7ab3 65be 509d babd
00000180: 2236 2b3e 0baa 1bbe ce15 633d b038 50be
0.099305116 0.22111648 0.21724139 -0.2644177 0.0044596954 0.3012278 0.18654029 0.012056083
0.052138153 0.22451434 0.07650153 0.022995723 -0.11267962 0.009145246 -0.23968439 -0.27904287
0.023097295 -0.16575217 0.12206256 0.143448 0.005867546 -0.30099156 -0.20823959 -0.19919257
-0.31993255 -0.081975825 0.1018598 -0.20870014 0.19774295 -0.09159133 -0.040218256 -0.107059136
-0.015879715 -0.0327073 0.25875685 0.08214222 0.2860211 0.053396456 -0.203183 0.2302107
-0.30966967 -0.07819394 -0.17950757 -0.0427656 -0.27515158 0.008228132 -0.27770764 0.29606846
-0.23561375 0.26959386 -0.06856635 0.017472183 -0.19155149 0.09174969 -0.050254915 -0.0025172657
-0.086153425 -0.17309709 -0.15883848 -0.085352704 -0.27782091 -0.14384073 0.06589041 0.09585928
0.20149744 0.047305614 -0.27925366 0.22585422 -0.066616036 0.20853809 0.17304003 0.044973448
0.13651077 -0.2916738 -0.16713142 -0.109524995 0.31613618 0.17660736 0.057390437 0.061266877
-0.23172934 0.307937 -0.31941527 -0.2757399 0.036058307 -0.23446444 0.23412041 0.015204244
-0.21738546 0.13582441 -0.013154384 0.19860166 -0.11210021 -0.07365039 -0.22431746 -0.09112036
0.16719869 -0.15201585 0.055440716 -0.20334125

self_attention_players.output_projection.bias f4 [10]
00000000: 58f9 723e e017 c4bd bfc3 8ebe 55e8 07be
00000010: f38a 533e 8fec 98be 62b1 07bd 2631 843d
00000020: b0d4 0abe 5930 183e
0.2372793 -0.09574866 -0.27883717 -0.13272221 0.20658474 -0.2986798 -0.03312815 0.06454687
-0.13557696 0.14862193

self_attention_heroes.query_projection.weight f4 [10, 10]
00000000: 906d d8bd d07e e83c 2117 473e 6f4f 143e
00000010: a8d2 e9bd dded 893e 40de c4bd 5664 b8bd
00000020: 0851 94be 19cd 8b3e d041 a9bd 4cf2 8bbd
00000030: 449b 20be 0ae0 11bc 002a 5dbc 2b2c 0dbe
00000040: 9d85 9abe 18c3 fb3c efdc 8a3e 0c9c ad3d
00000050: 3a9f babd 965a 703e f6e6 7bbe 6961 b63d
00000060: 616c 893e 00da 98bd b692 21be 48a2 9cbe
00000070: 2848 5fbe 4f3b 9b3e c8d8 2fbd 94ee 223e
00000080: 4a05 2cbe 3c00 18bd 98d8 ca3d 3c5d 99bd
00000090: 3e1a 693e fdc9 13be 7b6f 33be 9222 8bbe
000000a0: b6b5 b0bd a818 51bd b1de d9bd 606d aabd
000000b0: c128 9a3e de4f 49be 60dd 01bd ecf0 23bd
000000c0: 5653 193e aaa3 723e 395a 34be 0605 3f3e
000000d0: 77a8 e9bc fb42 05bd d616 093e 3a96 463e
000000e0: a01b e0bd a059 b33b be92 9bbe 6879 a63d
000000f0: 5c95 4a3e f708 9d3e d396 e63d 0552 dd3c
00000100: 2123 0abe dcfe 1fbe c0d5 cf3b eb3d 07be
00000110: b024 20be 2fe2 973e 8f55 e5bd 8a9f 3bbe
00000120: d59c 38bd 54cb 173d 0080 1a3c 001c 493b
00000130: 404d ec3c 1468 e8bd 1262 693e 4269 81be
00000140: ec42 233d c4d7 31be 2757 89be a662 24be
00000150: 1151 963e 89f2 9a3e e0f0 e43c bafd e6bd
00000160: 40ab bb3b c4fe 873d a89a 2e3d 546b 9cbd
00000170: 8992 813e f97b 05be 189a f63d 50fc 0e3e
00000180: 00fe e33c 6708 ca3c c2f6 1f3e b014 c7bd
-0.105677724 0.028380781 0.19442417 0.14483427 -0.114171326 0.26939288 -0.09612703 -0.090035126
-0.28968072 0.27304915 -0.08264506 -0.06833324 -0.15684229 -0.008903513 -0.013498783 -0.1378638
-0.30180064 0.030732676 0.27121684 0.08477029 -0.09112401 0.23472056 -0.24599823 0.08905298
0.268405 -0.07463455 -0.15778622 -0.3059256 -0.21804869 0.30318686 -0.042931348 0.15911323
-0.16798893 -0.0371096 0.09904593 -0.07488486 0.22763917 -0.14432521 -0.17522995 -0.27174813
-0.086284086 -0.051048905 -0.10638178 -0.08321643 0.30109218 -0.19659373 -0.03170526 -0.040024683
0.14973196 0.23695245 -0.17612542 0.1865426 -0.028522713 -0.03253458 0.13387617 0.19393244
-0.10942769 0.0054733306 -0.30385393 0.08128625 0.19783539 0.30670902 0.11259236 0.027016649
-0.13489963 -0.15624565 0.0063426197 -0.13207214 -0.15638995 0.29664752 -0.1119796 -0.18322578
-0.04507144 0.037059143 0.009429932 0.0030686855 0.02884543 -0.11347976 0.22791317 -0.25275618
0.039858744 -0.17367464 -0.26824304 -0.16053256 0.29358724 0.30263165 0.02794689 -0.11278863
0.0057272017 0.066403896 0.04262796 -0.07637659 0.2530711 -0.13035573 0.1204111 0.13963437
0.027831078 0.02466221 0.15621474 -0.09720743

self_attention_heroes.query_projection.bias f4 [10]
00000000: 5de6 26be 7119 dabd 95c0 883e 0458 943d
00000010: 2a74 98be 6c06 28bd 8031 9f3e 337c 9d3d
00000020: ab55 da3d 4188 033e
-0.16298814 -0.10649384 0.26709428 0.0724335 -0.29776126 -0.04102175 0.31092453 0.07689705
0.10660871 0.12844945

self_attention_heroes.key_projection.weight f4 [10, 10]
00000000: a12b 2e3e f604 3f3e 172e 8d3e 8dc1 b2bd
00000010: 9ced 983d 9638 81be 1005 f13d 356c 663e
00000020: f8fa 233d 80dd 6fbd df7b 9a3e 3e40 37be
00000030: 5512 4fbe 7ab2 453e 8080 ea3d 40ba 49bc
00000040: a343 913e 15f3 16be 6b3a 893e 2e12 6abe
00000050: 7aa6 3dbe c0d0 ad3d 8731 893e d497 803e
00000060: 161c 92be b012 90bc d844 5b3d 1cd7 703d
00000070: f809 243e 5f63 8b3e ae07 1f3d 98de 533d
00000080: 5748 9d3e 1380 25bc 8567 9a3e 132a 973e
00000090: 8006 d7bd 8f8f ae3d d3cf 20be c007 98be
000000a0: fd13 58be 2803 5c3d 1d27 87be f512 1ebb
000000b0: aaef 083e df93 9e3e ffd0 993e cc53 71be
000000c0: 642b db3d c83d 8a3d 8c4e 9dbd c558 843e
000000d0: 70d3 163e b80b d3bd 60f8 ca3d 18a1 3b3e
000000e0: 296d 1ebe b725 a23e 8e61 403e ce80 5a3e
000000f0: 7ffd 033e 5892 8f3d cbc7 72be 48c4 39be
00000100: 30c3 fa3d 335c 943e 5023 8c3c 8351 6fbe
00000110: b086 67be f3eb 813e 0d4b 38be 069b 63be
00000120: 3b9e 2abe d2dd 683e 1f96 9f3e 6bb3 903e
00000130: 7f1d 883e 1ad5 5ebe 35a9 80be 193a 943e
00000140: cdb9 23be 383c 413d e666 9dbe 9b36 963e
00000150: aa06 743e e81d 90be 4c1d 183e 8b04 8c3e
00000160: 50a9 193d b07b 063d 133c 623d d8b1 71be
00000170: 99aa cfbd feee 0c3d 2988 40be e15e 0cbe
00000180: eec2 79be 3ff4 ff3d 0838 013e ee55 74be
0.1700883 0.18654236 0.27574226 -0.08728323 0.074671954 -0.25238484 0.11768544 0.22502215
0.040034264 -0.05856085 0.3017263 -0.178956 -0.20221837 0.19306365 0.11450291 -0.012312472
0.28371915 -0.14741166 0.26802382 -0.22858498 -0.18520537 0.084870815 0.267956 0.25115836
-0.28537053 -0.017587036 0.05353245 0.058798894 0.16019428 0.27224252 0.038825683 0.051725954
0.30719253 -0.010101336 0.30157104 0.29524288 -0.10499287 0.085234754 -0.15704279 -0.29693413
-0.21101375 0.053713948 -0.2639703 -0.0024120186 0.13372675 0.30972192 0.30042264 -0.23567122
0.107016355 0.06750065 -0.07680997 0.25848976 0.14729095 -0.103049695 0.09910655 0.18323171
-0.15471329 0.316694 0.18787214 0.21338198 0.1288967 0.07010335 -0.23709027 -0.18141282
0.1224426 0.28976592 0.017106682 -0.23370938 -0.22609973 0.25375327 -0.1799738 -0.22227105
-0.16661923 0.22740868 0.3116922 0.28261885 0.26585004 -0.2176098 -0.25129095 0.28950575
-0.15988846 0.04717657 -0.30742568 0.29338536 0.23830667 -0.28147817 0.14854926 0.27347216
0.037514985 0.0328328 0.055233072 -0.23602998 -0.10139961 0.03440761 -0.18801941 -0.13708068
-0.24390766 0.12497758 0.1261903 -0.23860905

self_attention_heroes.key_projection.bias f4 [10]
00000000: 56f5 80be 589c d8bd dcb3 ddbd fd57 1dbd
00000010: 1439 60be 8c15 0abd d421 5cbe 00a1 8dbb
00000020: daca fa3d 152b 87be
-0.25187176 -0.10576695 -0.10825321 -0.03841399 -0.21896774 -0.033711955 -0.2149728 -0.004322171
0.12245722 -0.26400056

self_attention_heroes.value_projection.weight f4 [10, 10]
00000000: 7318 933e ec47 a13d dcbe 993e 04bf 093e
00000010: 64e5 97be 4d1d 96be 104c 51bd fa5d 0dbe
00000020: 44e4 ea3d 7c68 ad3d 1a01 813e b097 123e
00000030: 02bb 7c3d 5122 383e 0e38 3e3e 727a 733e
00000040: 8038 483b 1788 5f3d b437 2abe 9a36 7cbe
00000050: 88ec 143e 06a7 603e 927e 5ebe 02b3 9c3e
00000060: 4d29 08be edb0 80be 78d4 1d3d b48d 59be
00000070: f8f8 b43d da55 8dbe 001a 843e 50a0 a93c
00000080: 8aa7 14bd 95c3 3abe 0056 a0ba e03e c5bd
00000090: 3e30 73be f274 663e f084 b1bc 3284 c6bd
000000a0: 8ec3 2f3e 98db 40be ab37 9a3d 2e1f b9bd
000000b0: 7ada 203e 9422 f03d a8ba 313e a792 8bbc
000000c0: a572 13be 0218 03be d7a6 d93d facf 593e
000000d0: 4876 283e 2683 503e b024 22bd f875 11bd
000000e0: 98b9 213e 881b 0dbe 7707 7abe 987b e83d
000000f0: 6f63 28be 3adf 3ebe 17cc 443e bc45 43be
00000100: d594 a0be 3cb6 12be c10e 07be 2a75 62be
00000110: c712 823e 8032 43bc 7952 88b8 2202 07be
00000120: 9239 5cbe f510 243e f665 d7bd 0e10 52be
00000130: 91dc 92be a919 753e 4539 8b3e 00c3 91be
00000140: 0434 2bbd b6d7 94be 0838 043e 30fd 8a3e
00000150: 1cd6 58be 92ee 2fbe 7498 c3bd e851 9abe
00000160: 40de 94bd 4303 94be 4867 133e 5037 d83c
00000170: f4f4 df3a 1e7a 32be b08b 9bbc 40cc 3a3c
00000180: c0a1 123e 97f3 903e d297 cdbd 3187 06be
0.2872959 0.07875046 0.30028427 0.13451773 -0.296672 -0.2931923 -0.05109793 -0.1380538
0.114693195 0.084671944 0.25196153 0.14315677 0.061701782 0.1798184 0.1857607 0.23777178
0.0030551255 0.054573145 -0.16622812 -0.24630204 0.14543355 0.21938714 -0.2172797 0.30605322
-0.13297005 -0.25134984 0.038532704 -0.21245462 0.088365495 -0.27604562 0.25801086 0.020706326
-0.03629259 -0.18238671 -0.0012232661 -0.09631133 -0.23748872 0.22505549 -0.021669835 -0.09693183
0.17164442 -0.18833768 0.07530149 -0.0903915 0.15708342 0.11725345 0.1735636 -0.017037703
-0.14399202 -0.12802127 0.10627525 0.21270743 0.1645137 0.20362529 -0.03958577 -0.035512894
0.15793455 -0.13780034 -0.2441691 0.11351699 -0.16444181 -0.18639842 0.19218479 -0.1906957
-0.3136355 -0.1432733 -0.13189222 -0.22115007 0.2540495 -0.011913896 -6.500347e-05 -0.13184407
-0.21506336 0.16022094 -0.105174944 -0.20513937 -0.28683904 0.2393557 0.2719213 -0.28469086
-0.041797653 -0.29070824 0.12911999 0.27146292 -0.21175426 -0.17180851 -0.095505625 -0.30140615
-0.07268953 -0.28908738 0.14394867 0.026393563 0.0017086552 -0.17429397 -0.018987507 0.011401236
0.14319515 0.28310844 -0.10038723 -0.13137509

self_attention_heroes.value_projection.bias f4 [10]
00000000: 6299 28bd 57ec 883e 894f 8ebe 8917 98be
00000010: f37b abbc 05f2 99be 1dda 6d3e 67ef 4abd
00000020: 9ec6 c83d 2559 3bbe
-0.041161902 0.26742813 -0.27795056 -0.29705456 -0.020933127 -0.3006746 0.23227735 -0.049544718
0.09803508 -0.18295725
