d2calcbot/main/calc_bot/actual_models/dota_model_ver0_2.pth (torch, 8366 bytes, 15 tensors)

branch_t.fc1.weight f4 [5, 9]
0	0xbd895454	-0.067055374
1	0xbe85d30e	-0.26137584
2	0xbe3e37f3	-0.1857603
3	0xbd871280	-0.065953255
4	0x3e8b6b9f	0.27230546
5	0x3e79ee56	0.24407324
6	0xbd91ab90	-0.07112801
7	0xbe8f385c	-0.27972686
8	0xbe62c3db	-0.22145025
9	0x3e5e9d78	0.21739757
10	0xbe85a4dd	-0.26102343
11	0x3e0a8c19	0.13530006
12	0x3e3ec63f	0.18630312
13	0xbe6a26f4	-0.22866422
14	0x3e8b0d65	0.27158657
15	0xbea3cbd1	-0.31991437
16	0x3e22fe0d	0.15917225
17	0x3e738a4d	0.23783226
18	0x3e3f34e0	0.18672514
19	0x3da86d3f	0.08223962
20	0xbda46424	-0.08026913
21	0x3cea42d2	0.028596316
22	0x3e9cd279	0.30629328
23	0xbe96ae41	-0.2942982
24	0x3e6147f5	0.22000106
25	0x3ca14965	0.019688318
26	0x3d2b905e	0.041885726
27	0x3e25e953	0.16202287
28	0xbd83b22c	-0.06430468
29	0x3e0f9ed2	0.14025429
30	0xbe47b271	-0.19501664
31	0xbeaaf2a6	-0.3338825
32	0x3d1f7b5c	0.038936004
33	0xbe210152	-0.1572316
34	0xbe631db9	-0.22179307
35	0x3df50e73	0.119656466
36	0xbdd79b46	-0.10527663
37	0xbdf01756	-0.11723201
38	0xbe3a4888	-0.18191731
39	0xbe1f66c0	-0.1556654
40	0xbe822bc0	-0.25424004
41	0x3e7e9d9e	0.24864814
42	0x3e9ee98d	0.3103756
43	0x3e8b01e3	0.27149877
44	0xbe3f7f9e	-0.18701026

branch_t.fc1.bias f4 [5]
0	0xbea1b432	-0.3158279
1	0xbd04d672	-0.032431073
2	0x3b88f234	0.0041792635
3	0xbe4976ea	-0.19674268
4	0xbe7bc806	-0.24588022

branch_p.fc1.weight f4 [5, 9]
0	0xbe30e0da	-0.17273274
1	0xbd1bb6de	-0.038016193
2	0xbe9fea94	-0.31233656
3	0xbe5d02b4	-0.21583062
4	0x3e8edaf7	0.27901432
5	0x3c838d75	0.016058663
6	0x3e94aa4f	0.29036185
7	0xbce9ee4d	-0.028556013
8	0x3e0b2932	0.13589934
9	0x3ea2215d	0.3166608
10	0xbd47fa22	-0.04882253
11	0x3e87ee68	0.26549077
12	0x3da26e91	0.07931245
13	0x3dc445bb	0.095836125
14	0xbd6819db	-0.056665283
15	0x3e3e7aa6	0.18601474
16	0x3e94dd47	0.2907507
17	0xbb8b880e	-0.0042581623
18	0xbe268fa8	-0.16265738
19	0xbda4839c	-0.08032915
20	0xbdfdb110	-0.123872876
21	0x3e2e4ae2	0.17020753
22	0xbda6816c	-0.08130154
23	0xbe9cb5e0	-0.3060751
24	0x3ea3e53d	0.32010832
25	0xbdbea4c0	-0.09308767
26	0x3d402168	0.04690686
27	0x3d96278c	0.07331762
28	0xbc0dffa0	-0.008666903
29	0xbda2c830	-0.07948339
30	0xbd548da8	-0.051892906
31	0xbe009b7b	-0.12559311
32	0xbe1d8120	-0.15381289
33	0x3dd7765c	0.10520622
34	0x3e864295	0.26222673
35	0x3e9a486d	0.3013338
36	0x3e2af7cf	0.16696094
37	0x3e956233	0.29176483
38	0xbe3c8059	-0.18408336
39	0xbc50a02d	-0.012733501
40	0x3e1b6d7f	0.15178488
41	0x3e9ae4d7	0.30252716
42	0xbe8c7296	-0.27431172
43	0xbe9decd1	-0.3084474
44	0x3e06a55c	0.13149017

branch_p.fc1.bias f4 [5]
0	0x3e1ed1a2	0.15509656
1	0xbe029d6e	-0.12755367
2	0xbea35bc4	-0.3190595
3	0xbea59c0f	-0.32345626
4	0x3e3d02e2	0.18458131

branch_h.fc1.weight f4 [5, 9]
0	0x3d734b18	0.059397787
1	0xbea83314	-0.3285147
2	0xbe4cd3f6	-0.20002732
3	0xbd280e88	-0.041029483
4	0x3d017288	0.031603366
5	0xbe326bb3	-0.17423896
6	0x3e6434b2	0.22285727
7	0xbe95fc50	-0.29294062
8	0x3e207d38	0.15672767
9	0xbe444200	-0.19165802
10	0xbe425c8e	-0.1898062
11	0xbe252cf0	-0.16130424
12	0x3e5458c2	0.20736983
13	0x3e94cef5	0.29064146
14	0xbd85fe2c	-0.0654262
15	0xbe9b3218	-0.30311656
16	0x3c866d40	0.016409516
17	0x3d8f2410	0.069893
18	0x3e73abc4	0.23795992
19	0xbe406528	-0.18788588
20	0xbe672245	-0.22571667
21	0x3d433f20	0.047667623
22	0x3e4a62b2	0.19764212
23	0x3e357fd1	0.1772454
24	0x3e917b6f	0.28414485
25	0xbe12c55a	-0.14333096
26	0x3bebf378	0.0072006546
27	0x3e39e213	0.18152647
28	0x3e33dc75	0.17564566
29	0xbe81b332	-0.25332028
30	0x3dab79cd	0.08372841
31	0xbe33edac	-0.17571133
32	0xbd9ea937	-0.07747119
33	0x3cc3d2d0	0.023904234
34	0x3e9d2595	0.30692735
35	0x3e501a70	0.20322585
36	0xbe18cd13	-0.1492198
37	0xbd52efa8	-0.051498085
38	0xbd851c20	-0.06499505
39	0x3da9aba4	0.08284691
40	0xbe1c18e8	-0.15243876
41	0x3c5f8100	0.013641596
42	0xbda5e1ac	-0.08099684
43	0x3df339a4	0.118762285
44	0xbe96f14f	-0.2948098

branch_h.fc1.bias f4 [5]
0	0xbd9f4eb4	-0.07778683
1	0xbe9d1acc	-0.30684507
2	0x3ea7caf3	0.32772025
3	0xbe798236	-0.24366078
4	0x3cbb7c00	0.022886276

self_attention_players.query_projection.weight f4 [10, 10]
0	0x3e736b43	0.23771386
1	0xbe92f78d	-0.2870449
2	0xbccc8470	-0.024965495
3	0x3e430aca	0.19047084
4	0xbe0b23b8	-0.13587844
5	0xbe9474ee	-0.2899546
6	0xbd98724b	-0.07443675
7	0xbe1ec6e4	-0.15505558
8	0x3e3077c6	0.1723319
9	0x3e7a9544	0.24471003
10	0x3ddda095	0.10821644
11	0xbe21f4bf	-0.1581602
12	0x3d97fd98	0.07421416
13	0xbd8db468	-0.069191754
14	0x3a6bd9d4	0.00089969975
15	0x3e9567ad	0.2918066
16	0x3ea0094a	0.31257087
17	0x3e8e7c5f	0.27829263
18	0x3e2fdf60	0.17175055
19	0xbe7f1216	-0.24909243
20	0x3ea3de47	0.32005522
21	0xbde739a5	-0.11290292
22	0xbe073e37	-0.13207327
23	0xbe913677	-0.28361866
24	0x3d40ae87	0.047041442
25	0xbe685856	-0.22689947
26	0xbca665c9	-0.020312207
27	0xbcf58580	-0.029970884
28	0x3e82d85d	0.25555697
29	0x3cf461bf	0.029831765
30	0xbe92cd84	-0.2867242
31	0xbdcc0aa0	-0.09962964
32	0xbe8120a8	-0.25220227
33	0x3e82157d	0.2540702
34	0x3d4cb2f8	0.049975365
35	0xbda4ad09	-0.08040816
36	0xbe101a08	-0.1407243
37	0xbe958ad7	-0.2920749
38	0x3e94e899	0.29083708
39	0xbdbf4672	-0.09339608
40	0x3e06e3cc	0.13172835
41	0xbe6a8fb6	-0.22906384
42	0xbe91ff66	-0.28515166
43	0xbe973aa9	-0.29536942
44	0x3da6fc36	0.08153574
45	0xbe828a38	-0.25496078
46	0x3e9553c7	0.2916548
47	0xbda49654	-0.08036485
48	0xbe2db90f	-0.16965126
49	0xbe911e16	-0.28343266
50	0x3e75d958	0.24008691
51	0xbcc428c8	-0.023945227
52	0xbe195481	-0.14973642
53	0xbe55df36	-0.2088593
54	0x3bf9df4f	0.0076254974
55	0x3e14fe30	0.1455009
56	0x3d5b524a	0.053545274
57	0xbe043d24	-0.12913948
58	0xbe540180	-0.20703697
59	0x3e81844e	0.25296253
60	0x3e7c8b85	0.24662597
61	0xbe794765	-0.24343641
62	0x3d9f5dbc	0.0778155
63	0x3db9ffc4	0.090819865
64	0xbe717b47	-0.23582183
65	0xbdda60f9	-0.10663027
66	0xbe980bae	-0.2969641
67	0x3e69e1a2	0.22839978
68	0xbe5014a3	-0.20320372
69	0x3e4f8d05	0.20268638
70	0xbe83a58d	-0.25712243
71	0x3bf80ef0	0.00757014
72	0xbe8a0b82	-0.26961905
73	0x3d3be208	0.045869857
74	0xbd6b6e6d	-0.057478357
75	0x3e9bec63	0.30453786
76	0x3cf255d6	0.029581945
77	0xbdc9a0a6	-0.098450944
78	0xbea1a73f	-0.3157291
79	0xbe7015df	-0.23445843
80	0x3e91af94	0.28454268
81	0xbe8b692d	-0.2722868
82	0xbda867de	-0.08222936
83	0x3e103892	0.1408408
84	0xbe235d6e	-0.1595361
85	0xbd684e56	-0.056715332
86	0x3d13275f	0.03592622
87	0xbdaff8a0	-0.08592343
88	0x3dc76b34	0.09737244
89	0x3e75f434	0.24018937
90	0x3dc1ef1c	0.094694346
91	0x3e8198d2	0.25311905
92	0xbe15630e	-0.14588568
93	0xbe6fb4e8	-0.23408854
94	0x3dd116d9	0.10209436
95	0xbe0fde41	-0.14049627
96	0x3d3ee952	0.04660923
97	0x3d186668	0.037207037
98	0xbde4f486	-0.11179452
99	0xbe7aeaf5	-0.24503691

self_attention_players.query_projection.bias f4 [10]
0	0xbe904164	-0.2817489
1	0xbe794638	-0.24343193
2	0xbe8662b2	-0.26247174
3	0x3d60214a	0.054719247
4	0xbd844f36	-0.06460421
5	0xbe4afd75	-0.19823249
6	0xbb5a3d2a	-0.0033300617
7	0x3e18ba76	0.14914879
8	0x3e13200d	0.14367695
9	0xbe9a263a	-0.3010729

self_attention_players.key_projection.weight f4 [10, 10]
0	0xbe5dac60	-0.21647787
1	0x3c2343fc	0.009964939
2	0xbe5ca36b	-0.21546714
3	0x3d367658	0.044546455
4	0xbe4455ae	-0.19173309
5	0xbd35763c	-0.04430221
6	0xbb83aa86	-0.0040181307
7	0x3d4a08a8	0.04932466
8	0xbd3ca6a8	-0.046057373
9	0xbdc5ee90	-0.09664643
10	0x3e70d9b2	0.23520544
11	0xbe8accae	-0.27109283
12	0x3e84234d	0.25808182
13	0xbd938eca	-0.07204969
14	0xbe74d270	-0.239084
15	0x3e841ad3	0.25801715
16	0xba955426	-0.0011392876
17	0xbe5734d1	-0.21016242
18	0xbcdc1670	-0.026866168
19	0xbdad6659	-0.08466787
20	0xbe570796	-0.20998988
21	0xbe5159c0	-0.20444393
22	0xbe488a55	-0.1958402
23	0xbe706802	-0.23477176
24	0xbe86101e	-0.2618417
25	0xbea0161f	-0.31266877
26	0x3e990379	0.29885462
27	0xbd4dcec0	-0.050246
28	0x3d750af0	0.059824884
29	0xbdc69687	-0.096966796
30	0x3cb5da70	0.022198886
31	0x3cd2a024	0.025711127
32	0x3d135748	0.03597191
33	0xbd82e4c4	-0.0639129
34	0x3e60b40c	0.21943682
35	0x3e8d2b6e	0.27572197
36	0xbe0c9343	-0.13728051
37	0x3e748fde	0.23883006
38	0x3e0ccbb6	0.13749585
39	0xbac6e4a8	-0.0015174346
40	0xbe056204	-0.13025671
41	0xbe5cfeec	-0.2158162
42	0xbdda3330	-0.106542945
43	0xbd4d8798	-0.05017814
44	0x3d1dc62f	0.03851908
45	0xbe4c9b18	-0.19981039
46	0x3d41bf4f	0.047301587
47	0x3e9ed3a1	0.31020835
48	0xbe92ab4b	-0.2864631
49	0xbe77b0be	-0.24188516
50	0xbaf43568	-0.0018631639
51	0x3e10d9a6	0.14145526
52	0xbdad21e4	-0.0845373
53	0xbe1e27c4	-0.15444857
54	0xbe526b01	-0.20548631
55	0xbd9c7f49	-0.07641465
56	0xbd8f9531	-0.07010878
57	0x3e6c4a26	0.2307516
58	0x3d7dc5a0	0.061956048
59	0xbdc1a868	-0.09455949
60	0x3e809fc2	0.25121886
61	0xbe650fc6	-0.22369298
62	0xbe330bb4	-0.17484933
63	0x3df89ffc	0.121398896
64	0xbe90e0fd	-0.28296652
65	0xbe5596b8	-0.20858276
66	0xbe89a6b0	-0.26884985
67	0x3e3cec1e	0.18449447
68	0x3d7c7cb8	0.06164238
69	0x3e1a0b17	0.15043293
70	0x3d8431ca	0.06454809
71	0xbe378a00	-0.17923737
72	0xbe39e6d3	-0.18154459
73	0xbe7b715c	-0.24554962
74	0x3e76f630	0.2411735
75	0xbe9c1a0d	-0.30488625
76	0xbdd07f8b	-0.10180577
77	0x3e01fcde	0.12694117
78	0xbe8cd242	-0.27504164
79	0x3e2a5bfa	0.16636649
80	0x3e6532f7	0.22382723
81	0xbd4e828e	-0.050417475
82	0xbdd7fcfa	-0.10546298
83	0x3dce0ca0	0.10061002
84	0x3e831c7b	0.25607666
85	0x3dd201b1	0.10254229
86	0x3e7c2d74	0.24626714
87	0x3de8037c	0.113287896
88	0x3d4ab110	0.049485266
89	0xbd82bb02	-0.06383325
90	0x3d51617f	0.05111837
91	0x3e3484b3	0.17628746
92	0x3e33ea7c	0.17569917
93	0xbe8f580c	-0.27996862
94	0xbe4f7220	-0.20258379
95	0x3e6454d9	0.22297992
96	0xbe049e89	-0.12951101
97	0xbc7a0320	-0.015259534
98	0xbe82b7e7	-0.2553093
99	0x3e72d54c	0.23714179

self_attention_players.key_projection.bias f4 [10]
0	0x3e4a1043	0.19732766
1	0x3d0eb44e	0.03483992
2	0xbdce737b	-0.1008062
3	0xbe36413f	-0.17798327
4	0xbd3d7729	-0.046256218
5	0x3dc8f4e2	0.09812333
6	0xbcee8a23	-0.029118603
7	0xbd167de4	-0.036741152
8	0x3d0c2bb3	0.034221362
9	0x3e8ab7d1	0.27093366

self_attention_players.value_projection.weight f4 [10, 10]
0	0x3e4a31de	0.19745585
1	0xbe0bb262	-0.13642266
2	0xbe159b67	-0.14610063
3	0x3e4e1c16	0.20127901
4	0x3e7888d3	0.24270944
5	0xbe579eac	-0.21056622
6	0xbe19448a	-0.14967552
7	0x3d20f558	0.039296478
8	0xbda0177a	-0.07816978
9	0xbe8391eb	-0.25697264
10	0x3e059688	0.13045704
11	0x3de20e1c	0.110378474
12	0xbe1aec61	-0.15129234
13	0x3d4d5b18	0.050135702
14	0x3d3dd03a	0.04634116
15	0xbe62ff17	-0.22167622
16	0x3e04976d	0.1294839
17	0xbe87561b	-0.2643288
18	0x3cf93730	0.030421823
19	0x3e7289fa	0.23685446
20	0xbe9fa35d	-0.31179324
21	0xbb788d95	-0.0037926186
22	0xbd7bdf70	-0.061492383
23	0x3e8ce5dd	0.27519122
24	0x3c1ea235	0.009682228
25	0xbe2449b6	-0.16043743
26	0xbc5377cc	-0.01290698
27	0x3e46640a	0.193741
28	0x3de85210	0.11343777
29	0xbe98d7a6	-0.29852027
30	0x3e8725ab	0.26395926
31	0x3e7a8e9e	0.24468467
32	0x3e6568de	0.22403285
33	0xbe647a7c	-0.22312349
34	0xbe29ab25	-0.16569193
35	0xbe930da2	-0.2872134
36	0x3c814fd6	0.015785139
37	0xbd931ce8	-0.07183248
38	0x3e532fae	0.20623657
39	0x3e9d0106	0.30664843
40	0xbe789bf8	-0.24278247
41	0xbe5069d8	-0.20352876
42	0x3d13d130	0.03608817
43	0xbe10229d	-0.14075704
44	0xbd333a2b	-0.043756645
45	0xbcac933f	-0.021066306
46	0x3e933d03	0.28757486
47	0xbc9e7310	-0.019341975
48	0xbe0d2dcf	-0.13787006
49	0x3dabdbdf	0.083915465
50	0x3e8aec6e	0.27133507
51	0x3d5be223	0.053682458
52	0xbe8ae345	-0.27126518
53	0x3d387428	0.04503265
54	0x3e237773	0.15963535
55	0x3d98efb4	0.07467595
56	0xbe69908c	-0.22809047
57	0x3dab6a1c	0.08369848
58	0x3e287788	0.16451848
59	0x3e37692b	0.17911212
60	0x3e8dca49	0.27693394
61	0xbdf1bf9b	-0.11804124
62	0xbe95c9d5	-0.29255548
63	0xbdd34bc4	-0.103171855
64	0xbe63f418	-0.22261083
65	0xbe042576	-0.12904915
66	0x3c715ca8	0.014731564
67	0xbe97abc7	-0.29623243
68	0x3cbf0430	0.023317426
69	0x3e87fe09	0.26561
70	0x3de88243	0.113529705
71	0xbe35864b	-0.1772701
72	0x3e161af8	0.14658725
73	0xbe7a1f80	-0.24426079
74	0xbe42fc1a	-0.19041482
75	0x3e6d0de9	0.23149838
76	0xbe05d93b	-0.13071148
77	0x3cc0dde0	0.023543298
78	0xbe29f7aa	-0.16598383
79	0x3e2ed4d5	0.17073376
80	0xbc9ce494	-0.019151963
81	0xbcda2ee5	-0.02663369
82	0xbe8da56f	-0.27665278
83	0x3e7155ae	0.2356784
84	0x3cfeb72e	0.031093206
85	0xbdc072b2	-0.093968764
86	0xbe68fde9	-0.22753109
87	0x3e14733a	0.1449708
88	0x3e7b15ea	0.24520078
89	0x3dabe74c	0.08393726
90	0x3e7cb8f3	0.24679928
91	0xbe20d4e9	-0.15706219
92	0x3e7a6ff2	0.24456766
93	0xbe46e7ba	-0.19424334
94	0xbe053186	-0.13007173
95	0xbea709c4	-0.32624638
96	0x3ea6a942	0.32551008
97	0xbda6d0f6	-0.08145325
98	0xbe558080	-0.208498
99	0xbd695e65	-0.056974787

self_attention_players.value_projection.bias f4 [10]
0	0xbdcf3150	-0.101168275
1	0x3e9460b3	0.28980026
2	0x3e8a79ed	0.27046147
3	0x3d6730c8	0.056443006
4	0x3cb932dd	0.022607261
5	0xbe3b0732	-0.18264464
6	0xbe5a1e45	-0.2130061
7	0xbe6be381	-0.23036005
8	0xbe1b0dd7	-0.15141998
9	0x3e40e2b1	0.18836476

self_attention_players.output_projection.weight f4 [10, 10]
0	0xbd679744	-0.056540743
1	0x3d673f90	0.056457102
2	0x3d9a9746	0.07548384
3	0x3e65146e	0.22371075
4	0xbe316201	-0.17322542
5	0x3e3235f6	0.17403397
6	0xbe53f404	-0.20698553
7	0xbe83df76	-0.25756425
8	0x3e94753c	0.28995693
9	0xbe526f1a	-0.20550194
10	0xbd6adcc1	-0.057339434
11	0xbe5e30d9	-0.21698321
12	0x3e0e1e58	0.13878763
13	0xbd635b87	-0.05550721
14	0xbe301548	-0.17195618
15	0x3e197b48	0.14988434
16	0xbe652228	-0.22376311
17	0xbd2e6ac6	-0.042582296
18	0xbd370da8	-0.044690758
19	0xbe289028	-0.16461241
20	0xbe6d8b2b	-0.2319762
21	0x3dbe463d	0.09290741
22	0x3e8b999e	0.27265638
23	0x3e89aa7f	0.2688789
24	0xbe81e5ce	-0.2537064
25	0xbe7f0cfb	-0.24907295
26	0x3e538b3a	0.2065858
27	0x3e1d63d3	0.15370111
28	0xbe344bef	-0.17607091
29	0x3e48670c	0.1957056
30	0xbe516883	-0.20450024
31	0xbe541a6b	-0.20713203
32	0x3deed69b	0.116620265
33	0xbd818394	-0.06323925
34	0x3e758df6	0.23979935
35	0xbd755e6b	-0.059904497
36	0x3dbc04c9	0.091806
37	0x3e933d27	0.28757593
38	0xbe1ac4c7	-0.15114127
39	0x3d2886d6	0.041144215
40	0x3e89f8c3	0.26947603
41	0x3e750b4b	0.23930089
42	0x3da989a4	0.08278206
43	0xbe485606	-0.19564065
44	0x3e0de850	0.13858151
45	0xbe8f1104	-0.2794267
46	0x3e2c20d5	0.168094
47	0x3d1d6956	0.038430534
48	0xbe67a622	-0.22621968
49	0x3d40b5b5	0.04704829
50	0xbe8d4193	-0.27589092
51	0x3dd03b5e	0.101675734
52	0xbd8460b1	-0.06463755
53	0xbd31af60	-0.04338014
54	0x3cc9de2a	0.024642069
55	0x3ddfeae9	0.109334774
56	0x3e029aeb	0.12754409
57	0x3e7b729b	0.24555437
58	0x3e2a926e	0.16657421
59	0xbe6206b7	-0.22072874
60	0x3b74d851	0.003736038
61	0xbc0e2d52	-0.008677797
62	0x3e4748b9	0.19461335
63	0xbe9aeb02	-0.30257422
64	0xbe8bf7fa	-0.2733763
65	0xbd4103d3	-0.047122788
66	0xbe996b3e	-0.29964632
67	0x3d54dc8c	0.051968142
68	0xbb6b14d5	-0.003587057
69	0x3e791119	0.24322928
70	0xbbd3765b	-0.006453318
71	0x3e3ec8b2	0.18631247
72	0xbe3b2f5c	-0.18279785
73	0x3dad95e1	0.08475853
74	0xbe2f14b5	-0.17097743
75	0xbdb813c2	-0.089881435
76	0x3e8e5a9f	0.27803513
77	0x3e4bf558	0.1991781
78	0x3e8d5d8e	0.2761044
79	0xbda8a537	-0.08234637
80	0xbe99275e	-0.29912847
81	0x3dc0c264	0.09412077
82	0xbc21650f	-0.009850754
83	0xbe4ba81a	-0.19888344
84	0xbcb15006	-0.021644603
85	0x3de61d11	0.11236013
86	0x3e78c420	0.24293566
87	0xbe7b76aa	-0.24556985
88	0xbe6dfe9b	-0.23241656
89	0x3e993ee4	0.29930794
90	0xbca2c7d9	-0.019870685
91	0xbe312ea5	-0.1730295
92	0x3d29f94f	0.041497525
93	0xbe7748fc	-0.24148935
94	0xbb7e1202	-0.0038768058
95	0x3d01505b	0.031570774
96	0x3e10b992	0.1413329
97	0xbccde06d	-0.025131429
98	0xbea176d6	-0.31535977
99	0xbe10f37c	-0.14155382

self_attention_players.output_projection.bias f4 [10]
0	0xbd97bafb	-0.074087106
1	0xbe2c7765	-0.1684242
2	0x3e3fdf56	0.1873754
3	0x3e176149	0.14783205
4	0x3bcd97a5	0.006274181
5	0xbca71742	-0.020396832
6	0x3e0b87a8	0.13625968
7	0xbe8576ce	-0.26067203
8	0x3e2a62fd	0.16639324
9	0xbe7e86ee	-0.24856159

fc.weight f4 [1, 70]
0	0xbd6fd115	-0.058549006
1	0xbbe33516	-0.0069338186
2	0xbc4691d1	-0.012119726
3	0xbbdbdbc9	-0.00670955
4	0x3cd1361c	0.025538497
5	0x3ce9716c	0.028496467
6	0xbd8b3627	-0.06797438
7	0x3cad95c7	0.021189583
8	0x3dbd6a85	0.092488326
9	0xbd234f64	-0.039870635
10	0xbcdc40cf	-0.026886372
11	0x3d2e1659	0.04250178
12	0xbd0ec5bd	-0.034856547
13	0x3d7c88ac	0.061653778
14	0x3de7ae1d	0.11312506
15	0xb8cb00cb	-9.679942e-05
16	0x3db2f1cd	0.08737526
17	0x3dbced2b	0.09224924
18	0x3db280c1	0.08715964
19	0x3d92db1e	0.071706995
20	0x3d35df96	0.04440268
21	0xbd599e1a	-0.053129293
22	0xbd97441f	-0.0738604
23	0xbd97e8e6	-0.07417469
24	0x3d34b33e	0.04411625
25	0x3d21439e	0.039371125
26	0xbd29e192	-0.041474886
27	0xbc193f83	-0.009353521
28	0x3dd680c2	0.10473777
29	0xbd894ffd	-0.0670471
30	0xbd469696	-0.048483454
31	0xbdb02044	-0.08599904
32	0x3d12f8bb	0.03588174
33	0xbd22e615	-0.039770205
34	0xbc75f5c8	-0.015012212
35	0x3db4860d	0.08814631
36	0xbdf29ad0	-0.118459344
37	0x3d2ef250	0.042711556
38	0xbd17a3bc	-0.037021384
39	0xbc98e360	-0.018663108
40	0x3db5ebbf	0.088828556
41	0xbddcb40e	-0.1077653
42	0x3d0ecbf4	0.034862474
43	0x3cb11301	0.021615507
44	0xbbcff5a0	-0.0063464195
45	0xbc065c58	-0.008200727
46	0x3d5fef8e	0.054671817
47	0xbd4c1919	-0.049828622
48	0x3d6b2b28	0.057414204
49	0x3db96975	0.090533175
50	0xbd417afa	-0.04723642
51	0x3d52252e	0.05130499
52	0xbdc361c8	-0.09540135
53	0x3d92d14c	0.071688265
54	0x3db5c805	0.08876041
55	0x3d922e47	0.07137733
56	0x3da86f7b	0.08224388
57	0x3d1dcdd8	0.038526386
58	0x3dcf06c2	0.10108711
59	0xbc46b038	-0.012126975
60	0xbdb22bd8	-0.08699769
61	0xbc1eb8c0	-0.0096876025
62	0x3dd11740	0.10209513
63	0xbddbb018	-0.107269466
64	0x3c15aef8	0.009135954
65	0x3c9d533c	0.019204728
66	0x3d84d371	0.06485642
67	0xbd0a80e6	-0.033814333
68	0x3dd1d9f2	0.10246648
69	0x3dcbbca9	0.099480934
