d2calcbot/main/calc_bot/actual_models/dota_model_ver0_2.pth (torch, 23816 bytes, 37 tensors)

branch_t.fc1.weight f4 [20, 11]
0.11980066 -0.17761448 -0.14336205 0.11414511 0.052168135 -0.23341833 0.077779464 -0.17536387
-0.26561302 -0.028850354 -0.10167609 -0.045489736 -0.2579735 -0.08295475 0.18770505 0.12699516
-0.20757292 0.11347329 -0.1934632 0.037963245 0.15075505 -0.025767304 -0.09471668 0.20502995
0.005900467 0.25144473 0.24745314 -0.09053684 0.25109842 0.20329478 -0.15997273 -0.19156693
0.08742178 -0.084486365 -0.026805768 0.28917032 0.21649277 -8.8167755e-05 -0.025452206 -0.2068306
-0.2963488 0.18516725 0.08607542 0.21242575 0.25337833 0.23913348 0.27874225 -0.18623286
0.18375197 -0.1900056 -0.0014169542 0.23836221 0.101994306 0.15089951 0.18979304 0.28627926
-0.18230657 0.18215863 0.2284949 0.24391598 -0.16389114 -0.27321148 -0.071708195 0.19080058
0.23181456 -0.032451138 -0.24088816 -0.14195932 0.25682777 0.053940546 -0.14975366 -0.23946592
0.29963568 -0.045609333 0.2236133 0.06439346 0.13498183 0.018884424 -0.18839923 -0.21747945
-0.03596814 -0.14035006 -0.093373574 0.29792485 0.24490255 0.04479104 -0.09402334 -0.058789812
0.24658272 -0.19370896 -0.14769813 -0.31661564 0.054607622 0.078442566 0.033135574 0.028249705
0.29934523 -0.25359374 -0.15872747 -0.22341126 0.116548195 -0.24697015 -0.26680642 0.06340703
0.0032721742 0.14618713 -0.26079822 0.19630828 -0.13365206 0.14265709 -0.26671365 -0.14660777
0.047818013 0.15854667 0.09850619 0.26120707 0.14654323 0.19620578 0.18349163 -0.12944336
0.19351088 0.15541314 -0.25647768 0.15297419 -0.25391895 0.02004234 0.15668309 0.22544797
0.15059085 0.10773822 0.21775606 0.13147299 0.28970566 -0.26507214 0.26818305 0.076271035
0.25028634 0.10032734 0.1954206 0.02635614 -0.13304736 -0.25311655 -0.16991632 -0.21841621
0.16481617 0.27243063 0.15116583 -0.17501728 -0.042551488 -0.26727644 -0.040162552 -0.052887935
-0.053898413 -0.37479752 -0.27839348 -0.09865519 -0.1032175 -0.011294605 -0.30047446 0.124158904
-0.2241506 -0.16524698 -0.16133495 0.16572875 -0.24747851 0.061252996 0.24509136 0.015950432
-0.019119402 -0.262457 -0.160788 -0.28184456 -0.031321168 0.10488237 -0.08219719 -0.021258932
-0.1339536 0.24757047 0.1857106 -0.22017592 -0.16547185 -0.15787458 -0.027624039 0.28312653
0.1723303 -0.08564877 0.16361979 0.18537892 0.11721815 -0.23061149 0.2872299 0.11416067
0.14156972 0.20045641 0.15899776 -0.29640326 0.17228647 0.036455724 -0.14151824 0.20608954
0.08692753 -0.1445432 -0.00496185 0.13845901 0.19547805 -0.040926617 0.20816234 0.03602675
-0.3037529 -0.14819618 -0.20155025 0.23160405 0.28303468 0.09522397 0.21392664 0.039154503
-0.14612137 0.14247218 0.26193148 0.10304079
00000000: 0c5a f53d 92e0 35be 80cd 12be e9c4 e93d
00000010: 41ae 553d 3705 6fbe d74a 9f3d 9692 33be
00000020: 6efe 87be 9457 ecbc 8e3b d0bd 7253 3abd
00000030: 1a15 84be 2ee4 a9bd c135 403e 050b 023e
00000040: ff8d 54be af64 e83d 381b 46be 597f 1b3d
00000050: 885f 1a3e f415 d3bc d2fa c1bd 5ff3 513e
00000060: b458 c13b 5dbd 803e 5b64 7d3e 616b b9bd
00000070: f98f 803e 822c 503e e4cf 23be 1f2a 44be
00000080: 310a b33d 3007 adbd c597 dbbc 220e 943e
00000090: 48b0 5d3e b4e6 b8b8 2581 d0bc 67cb 53be
000000a0: 08bb 97be 7c9c 3d3e 4f48 b03d 2386 593e
000000b0: ceba 813e 68df 743e 4eb7 8e3e d4b3 3ebe
000000c0: 7a29 3c3e d490 42be 18b9 b9ba 3915 743e
000000d0: 64e2 d03d 6785 1a3e 1b59 423e 3293 923e
000000e0: 93ae 3abe cb87 3a3e 91fa 693e 1cc5 793e
000000f0: 14d3 27be 60e2 8bbe bfdb 92bd 3a61 433e
00000100: cc60 6d3e 7ceb 04bd 63ab 76be c95d 11be
00000110: ee7e 833e c3f0 5c3d 0659 19be 8e36 75be
00000120: d969 993e dad0 3abd e3fa 643e b8e0 833d
00000130: ad38 0a3e 82b3 9a3c baeb 40be efb2 5ebe
00000140: 5453 13bd edb7 0fbe a53a bfbd 9b89 983e
00000150: bcc7 7a3e cf76 373d 4f8f c0bd 96cd 70bd
00000160: 2e80 7c3e a45b 46be 2e3e 17be 721b a2be
00000170: 3eac 5f3d 7fa6 a03d 2bb9 073d ed6b e73c
00000180: c743 993e 0ad7 81be 7489 22be ecc5 64be
00000190: d2b0 ee3d bee5 7cbe da9a 88be 8cdb 813d
000001a0: f971 563b 14b2 153e 5887 85be 0a05 493e
000001b0: 16dc 08be b314 123e b18e 88be 5920 16be
000001c0: d2dc 433d 0f5a 223e 9dbd c93d efbc 853e
000001d0: 6e0f 163e 2bea 483e 3be5 3b3e cd8c 04be
000001e0: b727 463e 9f24 1f3e 0b51 83be 44a5 1c3e
000001f0: aa01 82be d52f a43c 8871 203e d5db 663e
00000200: 7d34 1a3e dba5 dc3d 72fb 5e3e dba0 063e
00000210: 4d54 943e 89b7 87be 4a4f 893e fd33 9c3d
00000220: 8825 803e 6c78 cd3d 561c 483e d5e8 d73c
00000230: 913d 08be 7e98 81be 8bfe 2dbe 80a8 5fbe
00000240: 92c5 283e 077c 8b3e 37cb 1a3e bb37 33be
00000250: 784a 2ebd 75d8 88be 7d81 24bd 05a1 58bd
00000260: 95c4 5cbd 76e5 bfbe 9789 8ebe bb0b cabd
00000270: b263 d3bd 020d 39bc cad7 99be 0647 fe3d
00000280: bc87 65be 8136 29be fd34 25be ccb4 293e
00000290: 026b 7dbe 6ce4 7a3d 3bf9 7a3e 7baa 823c
000002a0: 4ba0 9cbc c460 86be 9ca5 24be ee4d 90be
000002b0: a04a 00bd 91cc d63d 0057 a8bd 3627 aebc
000002c0: 222b 09be 1d83 7d3e eb2a 3e3e cc75 61be
000002d0: 7471 29be e0a9 21be cf4b e2bc f6f5 903e
000002e0: 5b77 303e 9f68 afbd f28b 273e f9d3 3d3e
000002f0: 1210 f03d 6b25 6cbe cc0f 933e 12cd e93d
00000300: a7f7 103e 7244 4d3e 4fd0 223e 2bc2 97be
00000310: dd6b 303e 9952 153d 28ea 10be 2309 533e
00000320: 1007 b23d 2203 14be 0497 a2bb 33c8 0d3e
00000330: 662b 483e aba2 27bd 8228 553e c990 133d
00000340: 8085 9bbe bdc0 17be 3063 4ebe 9d29 6d3e
00000350: ece9 903e c904 c33d 960f 5b3e 7960 203d
00000360: d7a0 15be 3ae4 113e e21b 863e 0d07 d33d

branch_t.fc1.bias f4 [20]
-0.14299735 -0.24992944 -0.10377584 0.24659345 -0.17084031 -0.25781333 0.007365746 0.13126734
0.22617131 -0.060121693 0.061492786 0.07744362 0.16651924 0.15845081 -0.2956849 -0.107393116
-0.19573687 0.24712892 0.042144634 -0.12217532
00000000: e66d 12be 81ed 7fbe 6d88 d4bd fe82 7c3e
00000010: c3f0 2ebe 1c00 84be 5b5c f13b f26a 063e
00000020: 7499 673e 2a42 76bd dcdf 7b3d c39a 9e3d
00000030: 0584 2a3e ee40 223e 0364 97be ecf0 dbbd
00000040: 3f6f 48be 5d0f 7d3e da9f 2c3d 0e37 fabd

branch_t.fc2.weight f4 [10, 20]
-0.012739844 0.099501036 0.22123887 0.16900523 0.038462188 -0.058738865 -0.0023275742 0.24105886
0.062021926 -0.06321613 0.035231505 -0.14782842 0.094364375 0.10943189 0.12809989 0.15458897
0.11431695 0.05419876 -0.03478715 0.14147592 0.09389154 -0.17737295 -0.21908216 -0.06163507
-0.12772158 -0.06616345 -0.20891969 0.057027604 0.007608764 -0.009063697 0.07581983 0.16395797
0.030056689 -0.024494918 0.15689334 -0.010565348 0.040466048 0.002068302 -0.17523684 0.12860912
0.008637691 -0.22669414 -0.12376607 -0.2092928 -0.15138891 -0.13751023 0.05142392 0.17092061
0.21465765 0.11669192 0.21852869 -0.10748735 -0.14789715 0.036730193 6.7091496e-06 -0.011682039
-0.058010995 0.09174259 0.19837867 0.15046166 -0.079244256 0.03239415 -0.18128236 -0.08336274
-0.026100636 -0.0020302057 0.018880693 0.2135098 0.22097231 0.051044192 -0.07828784 -0.12939847
0.07644332 0.015975531 0.13623862 -0.17828959 -0.12595586 -0.0450943 -0.046665076 -0.006799316
-0.06546866 -0.21813203 0.019507932 0.017461378 -0.014241919 0.027616544 0.20496549 0.02811156
-0.1275788 0.05188389 -0.17694196 -0.19345032 -0.20554209 -0.011947813 0.11377223 0.12898421
-0.17384417 -0.045503296 0.06940149 -0.14627412 -0.111338355 -0.014195625 -0.0008262904 0.073744394
-0.15429313 -0.20100784 -0.19992097 -0.17234097 0.074568726 -0.16683854 -0.26129255 -0.19547749
-0.18428949 0.21651423 0.1850806 0.072025254 -0.22896402 0.10799663 0.14414681 -0.078608364
-0.13359463 0.046925128 0.098787725 -0.19859894 0.03594868 -0.20561421 0.100911856 -0.21178146
0.094192326 0.11426327 0.1825741 0.025409505 -0.015830882 -0.21687616 0.081047446 0.021365218
-0.051336348 -0.009402219 0.15758777 -0.096279934 -0.053259276 -0.111350454 -0.13365012 0.106421605
-0.111456245 -0.20991941 0.08440188 0.213836 -0.006359022 0.1209313 -0.026664147 -0.05616681
-0.08359907 0.21415497 0.14226837 -0.15492302 -0.0790395 0.09014394 -0.068944655 -0.07979897
0.010434509 0.16717237 -0.09611323 -0.18020338 -0.21217151 -0.021612398 -0.16518183 0.1785463
0.09782333 -0.04028332 -0.021856617 0.07972646 0.06291248 0.030845178 0.19630548 -0.19813856
0.15110525 0.030425088 0.16521643 0.17720996 0.0849286 -0.16083382 -0.069683895 0.095268935
0.06717008 -0.12493522 0.0068179406 -0.03677675 0.2085093 -0.07662733 0.20791078 0.019521482
0.14371887 0.093963146 0.09053323 0.017445557 0.040330604 0.024852157 -0.14734873 0.2105543
00000000: c7ba 50bc 33c7 cb3d 718c 623e b50f 2d3e
00000010: 878a 1d3d 2a98 70bd 378a 18bb 22d8 763e
00000020: b40a 7e3d 7577 81bd e94e 103d 5560 17be
00000030: 1c42 c13d d41d e03d 9e2c 033e 924c 1e3e
00000040: 011f ea3d 85ff 5d3d f87c 0ebd 10df 103e
00000050: 354a c03d 41a1 35be 1357 60be 0e75 7cbd
00000060: 72c9 02be b480 87bd 0bef 55be c795 693d
00000070: f052 f93b e77f 14bc 6d47 9b3d 99e4 273e
00000080: 7239 f63c 91a9 c8bc a6a8 203e 481a 2dbc
00000090: babf 253d 598c 073b 4971 33be 1cb2 033e
000000a0: 1a85 0d3c 8222 68be 1179 fdbd da50 56be
000000b0: b205 1bbe 7bcf 0cbe e3a1 523d d005 2f3e
000000c0: 37cf 5b3e 2cfc ee3d fcc5 5f3e 5422 dcbd
000000d0: 5a72 17be 6672 163d 281f e136 0666 3fbc
000000e0: f09c 6dbd 8ae3 bb3d c723 4b3e 9f12 1a3e
000000f0: d04a a2bd baaf 043d 15a2 39be 16ba aabd
00000100: 00d1 d5bc 330d 05bb afab 9a3c 50a2 5a3e
00000110: 9146 623e b713 513d 6055 a0bd 0881 04be
00000120: 518e 9c3d 1edf 823c 2382 0b3e 8c91 36be
00000130: 93fa 00be cdb4 38bd e123 3fbd cccc debb
00000140: 6f14 86bd 015e 5fbe 19cf 9f3c 2a0b 8f3c
00000150: f056 69bc 173c e23c 79e2 513e 374a e63c
00000160: 04a4 02be 3484 543d 4630 35be d717 46be
00000170: a079 52be c3c0 43bc 6a01 e93d 7014 043e
00000180: 3504 32be aa61 3abd 5e22 8e3d e2c8 15be
00000190: 5d05 e4bd c494 68bc 699b 58ba 4d07 973d
000001a0: 05ff 1dbe 00d5 4dbe 15b8 4cbe 277a 30be
000001b0: 7db7 983d b9d7 2abe 23c8 85be 402b 48be
000001c0: 62b6 3cbe e8b5 5d3e c585 3d3e fa81 933d
000001d0: 8b75 6abe 562d dd3d 399b 133e 6cfd a0bd
000001e0: 08cd 08be 9034 403d 3851 ca3d 855d 4bbe
000001f0: ec3e 133d 888c 52be e0aa ce3d 3ddd 58be
00000200: e8e7 c03d dc02 ea3d b4f4 3a3e 9827 d03c
00000210: c4af 81bc c914 5ebe 34fc a53d 1c06 af3c
00000220: 1046 52bd c40b 1abc b05e 213e 6a2e c5bd
00000230: 6626 5abd b50b e4bd 94db 08be 92f3 d93d
00000240: 2c43 e4bd 1df5 56be e5da ac3d d3f7 5a3e
00000250: 585f d0bb d4aa f73d c56e dabc 2b0f 66bd
00000260: fd35 abbd 714b 5b3e cdae 113e 24a4 1ebe
00000270: 76df a1bd 639d b83d db32 8dbd a46d a3bd
00000280: 81f5 2a3c 3c2f 2b3e 03d7 c4bd 3c87 38be
00000290: 7d43 59be 7c0c b1bc 6d25 29be d7d4 363e
000002a0: 9957 c83d 1f00 25bd a60c b3bc a047 a33d
000002b0: 42d8 803d 07af fc3c 4e04 493e d6e4 4abe
000002c0: 56bb 1a3e 093e f93c 7f2e 293e 8776 353e
000002d0: 0cef ad3d 9fb1 24be 6eb6 8ebd 5c1c c33d
000002e0: 7890 893d 09de ffbd 0869 df3b 38a3 16bd
000002f0: 7683 553e caee 9cbd 90e6 543e 84eb 9f3c
00000300: 0a2b 133e c06f c03d 7c69 b93d fce9 8e3c
00000310: b431 253d c096 cb3c 96e2 16be 8c9b 573e

branch_t.fc2.bias f4 [10]
0.13202696 0.13527802 -0.2044421 0.12172609 -0.09727499 -0.08057336 -0.07699932 0.22448796
0.18876311 -0.21348715
00000000: 1332 073e 5286 0a3e 4559 51be 874b f93d
00000010: 1c38 c7bd a503 a5bd d2b1 9dbd 2ce0 653e
00000020: 1e4b 413e 609c 5abe

branch_p.fc1.weight f4 [20, 11]
-0.26814833 -0.10627664 0.071723215 -0.0637911 0.09414291 -0.10389 -0.24667281 0.29387686
-0.21068786 -0.06804696 -0.22371486 -0.18632282 -0.07600145 0.1186523 -0.21320716 -0.0451763
0.02624724 0.006106172 0.2562101 0.054889284 -0.26909378 -0.017025039 0.20703407 -0.121141516
-0.27005467 -0.043263294 -0.2891524 0.05549695 0.08975929 0.29279497 -0.057991512 0.2892749
-0.26465598 0.060144886 -0.24861376 0.05601805 -0.20084365 -0.041536935 0.11173109 0.18361521
0.27310196 0.17901696 -0.20064497 0.0761424 0.20377333 -0.18158486 -0.16145025 0.08356393
0.0632846 0.17201261 0.12700288 -0.14328258 0.22048452 0.07042869 -0.08637351 -0.05215446
-0.10567433 -0.14958687 0.19015914 0.047116425 0.0125141805 -0.13379477 0.2844515 0.2490753
-0.057650253 0.08457636 -0.014308274 0.041919775 -0.06133201 -0.22004086 0.17326367 0.11669402
0.25206268 0.13225886 -0.01360529 -0.041549608 0.08881991 0.18846655 -0.25023708 -0.10362016
0.09142648 0.22291346 -0.00038131143 0.039809063 -0.14150307 -0.27602407 -0.20803434 -0.029546436
-0.016660944 0.20000775 -0.111646615 0.04009818 -0.25161958 -0.17478734 -0.030926835 0.191494
0.21758115 0.123592064 0.22244541 0.123882666 0.106104754 0.20716836 -0.13436064 -0.0036927182
-0.20420946 0.08715905 0.20400126 0.0031722845 -0.17532338 0.19191694 -0.21554242 -0.15158051
0.019242922 0.0103448555 -0.02415606 -0.118531555 0.15711683 -0.05866103 -0.13595462 -0.17513022
-0.10127371 0.0142817125 -0.21329342 -0.040112495 -0.26800957 -0.14821358 -0.26397943 -0.052083172
0.20695415 -0.13249548 -0.10683613 0.06840844 -0.20340091 -0.12831782 0.0024068835 -0.0088687055
0.10893533 -0.2927295 -0.10129562 -0.21057323 -0.26813483 0.26060772 -0.076878496 0.16202244
-0.05704723 -0.062207416 -0.018955383 -0.0038176728 -0.05582581 0.048461348 -0.086482614 0.08493025
0.04079535 0.06653821 -0.050541148 -0.07376049 -0.17891853 0.19686343 -0.013785546 -0.20687121
-0.27484515 0.13628635 0.08331756 -0.18435934 -0.0356545 0.21045814 -0.020532709 0.0027640068
0.12694949 0.3055627 -0.27666405 0.15002117 0.063350536 0.32074627 -0.13212751 -0.08209772
-0.045023214 0.10402556 -0.04225259 0.070453726 0.2597443 -0.21384545 -0.008648265 -0.22933878
0.25008893 -0.2626425 0.11757645 0.24574572 -0.070565015 -0.16033031 0.23418751 0.020672452
-0.2488412 0.27015334 -0.19192912 -0.07107074 -0.20549488 -0.21868426 -0.15874256 -0.004444036
0.22138447 -0.05698342 -0.19829945 0.08438148 0.16727787 -0.09795301 -0.179189 0.014509876
0.1803733 0.24270381 -0.14019647 0.13485263 0.03989195 0.1939868 0.26055893 -0.04654169
0.043367565 -0.12102652 -0.19267789 0.03410191
00000000: bd4a 89be 91a7 d9bd 9fe3 923d e9a4 82bd
00000010: ffcd c03d 48c4 d4bd cc97 7cbe 0777 963e
00000020: 8fbe 57be 345c 8bbd 8215 65be 69cb 3ebe
00000030: a6a6 9bbd faff f23d fa52 5abe c90a 39bd
00000040: 7404 d73c 4916 c83b f82d 833e 96d3 603d
00000050: a9c6 89be 1878 8bbc bd00 543e 0b19 f8bd
00000060: 9b44 8abe da34 31bd c90b 94be c550 633d
00000070: b8d3 b73d 39e9 953e 8288 6dbd d71b 943e
00000080: fd80 87be 7c5a 763d 9b94 7ebe 2f73 653d
00000090: f5a9 4dbe a222 2abd 45d3 e43d a005 3c3e
000000a0: 05d4 8b3e 3950 373e e075 4dbe 8cf0 9b3d
000000b0: f5a9 503e 62f1 39be 3753 25be 9123 ab3d
000000c0: 5b9b 813d 1324 303e 0b0d 023e abb8 12be
000000d0: b2c6 613e eb3c 903d 98e4 b0bd ea9f 55bd
000000e0: c86b d8bd 4d2d 19be 14b9 423e 27fd 403d
000000f0: 4708 4d3c 7f01 09be a1a3 913e 980d 7f3e
00000100: ac22 6cbd 5f36 ad3d 406d 6abc 12b4 2b3d
00000110: 4637 7bbd 6452 61be 086c 313e 46fd ee3d
00000120: 5c0e 813e de6e 073e b9e8 5ebc ec2f 2abd
00000130: 37e7 b53d 60fd 403e 131f 80be ce36 d4bd
00000140: ce3d bb3d 6d43 643e c1ea c7b9 d40e 233d
00000150: 2ee6 10be 0753 8dbe f406 55be 5e0b f2bc
00000160: 887c 88bc d5ce 4c3e fba6 e4bd fd3d 243d
00000170: 48d4 80be 74fb 32be 465a fdbc 0117 443e
00000180: 98cd 5e3e d61d fd3d bbc8 633e 32b6 fd3d
00000190: 734d d93d f123 543e d695 09be 8801 72bb
000001a0: 491c 51be 7280 b23d b5e5 503e 1ae6 4f3b
000001b0: f987 33be e085 443e 27b7 5cbe ec37 1bbe
000001c0: 55a3 9d3c 787d 293c eee2 c5bc acc0 f2bd
000001d0: 3ce3 203e 8c46 70bd b037 0bbe 5655 33be
000001e0: 9768 cfbd d8fd 693c 9769 5abe 004d 24bd
000001f0: 8d38 89be 4dc5 17be 5028 87be 2a55 55bd
00000200: caeb 533e e5ac 07be e7cc dabd b919 8c3d
00000210: 5448 50be bf65 03be cebc 1d3b 0c4e 11bc
00000220: 7c19 df3d a4e0 95be 1474 cfbd 82a0 57be
00000230: f848 89be 606e 853e 7972 9dbd 36e9 253e
00000240: 5baa 69bd 34cd 7ebd 5248 9bbc ec31 7abb
00000250: 9ba9 64bd 687f 463d cc1d b1bd e9ef ad3d
00000260: 0619 273d 2f45 883d 3c04 4fbd bd0f 97bd
00000270: 6b36 37be 9196 493e c5dc 61bc 0cd6 53be
00000280: 81b8 8cbe a68e 0b3e 66a2 aa3d b2c8 3cbe
00000290: 740a 12bd 5782 573e 3634 a8bc 5724 353b
000002a0: 0cff 013e b772 9c3e e9a6 8dbe 269f 193e
000002b0: edbd 813d db38 a43e 6f4c 07be d922 a8bd
000002c0: 436a 38bd 5a0b d53d 0d11 2dbd 0b4a 903d
000002d0: 34fd 843e 4dfa 5abe 74b1 0dbc c9d7 6abe
000002e0: a80b 803e 1479 86be eccb f03d c4a4 7b3e
000002f0: 6484 90bd a12d 24be dace 6f3e 4659 a93c
00000300: 3ad0 7ebe 8a51 8a3e 1189 44be 898d 91bd
00000310: 406d 52be c4ee 5fbe 698d 22be 479f 91bb
00000320: 9cb2 623e 7267 69bd 030f 4bbe 33d0 ac3d
00000330: e44a 2b3e 969b c8bd 527d 37be d5ba 6d3c
00000340: c7b3 383e 5987 783e aa8f 0fbe cf16 0a3e
00000350: be65 233d 7aa4 463e fb67 853e 80a2 3ebd
00000360: 30a2 313d c1dc f7bd 5a4d 45be 72ae 0b3d

branch_p.fc1.bias f4 [20]
-0.1575982 -0.060140282 0.17889133 0.07324368 0.03625191 0.1830703 -0.0019558594 -0.050306197
0.118519515 0.078719355 -0.08901017 0.2823939 0.2385488 0.11693342 0.24503615 -0.17880952
-0.05961485 0.18527064 0.018104773 -0.12675709
00000000: 6c61 21be a855 76bd 4a2f 373e c800 963d
00000010: e27c 143d c876 3b3e e02d 00bb df0d 4ebd
00000020: 5cba f23d 9d37 a13d f74a b6bd ef95 903e
00000030: 2346 743e ca7a ef3d c2ea 7a3e d819 37be
00000040: b32e 74bd 96b7 3d3e 7650 943c 9ccc 01be

branch_p.fc2.weight f4 [10, 20]
-0.06736232 -0.17682554 -0.056187168 0.10367345 -0.07866897 -0.060654268 -0.15025291 0.19327354
0.17788674 -0.14344274 -0.1311652 -0.14867355 0.17996113 0.18413956 0.16211769 -0.13718927
0.1801494 0.2232438 0.16458866 -0.07788846 -0.031268366 0.04114294 0.02752482 0.21057415
0.07030778 0.18368657 -0.16872512 0.20702513 -0.1869668 -0.05878338 -0.095067725 -0.15031682
0.15049691 -0.16445768 0.09922162 0.006467315 -0.042527623 -0.1938606 -0.025533564 0.07659907
-0.16004843 0.09130475 -0.050050862 -0.07467991 -0.0038895232 0.08537131 0.22665139 -0.150762
-0.21445644 0.01621312 -0.17439239 0.062542535 0.15373997 -0.03136227 -0.1948149 -0.1095483
-0.048292454 -0.18611233 0.09276614 -0.06309347 -0.05159138 0.101896875 -0.09704136 0.18678199
-0.06901008 0.09176754 -0.045883983 -0.058675967 -0.003180161 0.08966185 -0.105040275 0.11369122
-0.13720258 0.12497379 0.17102167 0.019920817 0.18628083 -0.14758979 -0.044490453 0.17637025
0.016392743 0.16114548 -0.058837466 -0.07219701 -0.07962768 -0.120020084 -0.16552791 -0.20918266
-0.0028595377 0.09498157 -0.076370135 0.115575634 -0.21141113 0.11940152 -0.16716172 -0.12346233
-0.17226921 0.09598034 -0.10404976 -0.14931658 -0.15524304 0.14687294 0.19471249 0.1847679
0.017574301 0.09216236 0.09862506 -0.0071974727 0.17499326 -0.23243286 -0.1818445 -0.11324625
-0.058769707 -0.06552393 -0.07999411 -0.21717021 -0.07887211 0.034070075 0.062389787 0.13654308
-0.20959038 0.078332596 0.0008922757 -0.101391055 0.17609069 -0.12983419 -0.025779536 0.013450211
0.20439656 0.11125946 -0.18247654 0.16341138 -0.20081937 0.022781024 -0.15362264 0.009264167
-0.016795374 -0.08989896 -0.18656284 -0.12912695 -0.016596744 -0.16209075 -0.21983664 -0.11298837
-0.027937552 0.026998477 -0.13693973 0.2070901 -0.16501598 0.06636627 0.16578077 -0.065050974
-0.21705286 0.13279372 -0.1157941 0.001509638 -0.18282601 -0.17456469 0.19327557 -0.10082948
0.23312786 -0.025100246 -0.12220497 0.24465758 -0.15274057 0.1176619 0.13487656 -0.1382804
0.07968128 0.094436616 -0.15635663 0.14725798 0.05729877 0.06519883 -0.12408731 0.099820815
0.102831036 -0.12601511 -0.09428278 0.06843491 -0.08592739 -0.06288798 -0.03480495 -0.10592388
-0.101166315 -0.006677557 0.19260369 0.12522404 0.04669818 0.13467632 -0.11756286 0.034364715
-0.031579863 0.18907346 0.104941055 0.035963945 -0.2011594 0.04247708 0.17568514 0.094597645
00000000: 42f5 89bd c111 35be 8424 66bd bf52 d43d
00000010: 321d a1bd 9c70 78bd e6db 19be 80e9 453e
00000020: f127 363e a7e2 12be 2c50 06be e13d 18be
00000030: bb47 383e 158f 3c3e 2e02 263e 587b 0cbe
00000040: 1679 383e 069a 643e ee89 283e fc83 9fbd
00000050: 4213 00bd 8085 283d bb7b e13c c0a0 573e
00000060: 86fd 8f3d 5518 3c3e 47c6 2cbe 65fe 533e
00000070: 3a74 3fbe d7c6 70bd deb2 c2bd a7ec 19be
00000080: dd1b 1a3e 9867 28be b434 cb3d c5eb d33b
00000090: 7231 2ebd 6583 46be c42b d1bc f9df 9c3d
000000a0: bce3 23be fcfd ba3d 2202 4dbd c8f1 98bd
000000b0: 5fe7 7ebb 27d7 ae3d 4d17 683e 5b61 1abe
000000c0: 789a 5bbe 61d1 843c eb93 32be 4d16 803d
000000d0: 036e 1d3e b975 00bd 8f7d 47be dc5a e0bd
000000e0: 4fce 45bd 3b94 3ebe 2dfc bd3d 2637 81bd
000000f0: 7c51 53bd 4faf d03d 9fbd c6bd c743 3f3e
00000100: 2855 8dbd 9ff0 bb3d d8f0 3bbd 3656 70bd
00000110: 3f6a 50bb a2a0 b73d 5b1f d7bd f1d6 e83d
00000120: d57e 0cbe 42f2 ff3d 4e20 2f3e fb30 a33c
00000130: 67c0 3e3e c721 17be 9f3b 36bd 679a 343e
00000140: 134a 863c 5203 253e 8eff 70bd 07dc 93bd
00000150: d613 a3bd 17cd f5bd 2680 29be fb33 56be
00000160: 1567 3bbb b385 c23d f267 9cbd ebb2 ec3d
00000170: 297c 58be c988 f43d 712c 2bbe d1d9 fcbd
00000180: 5767 30be 5791 c43d 0a18 d5bd 72e6 18be
00000190: 08f8 1ebe dc65 163e b662 473e cc33 3d3e
000001a0: fbf7 8f3c 9fbf bc3d effb c93d c7d8 ebbb
000001b0: 6f31 333e e102 6ebe 7235 3abe a6ed e7bd
000001c0: 81b8 70bd 6931 86bd f4d3 a3bd de61 5ebe
000001d0: b387 a1bd 108d 0b3d 6f8c 7f3d f3d1 0b3e
000001e0: dc9e 56be d76c a03d 9ce7 693a 1da6 cfbd
000001f0: 1e51 343e 41f3 04be 9b2f d3bc 465e 5c3c
00000200: 554d 513e 00dc e33d 21db 3abe 5055 273e
00000210: 98a3 4dbe 459f ba3c 414f 1dbe bcc8 173c
00000220: 7496 89bc f21c b8bd 540a 3fbe db39 04be
00000230: e5f5 87bc 1efb 25be db1c 61be 7266 e7bd
00000240: 4bdd e4bc e92b dd3c ee39 0cbe 6d0f 543e
00000250: f3f9 28be 0aeb 873d 6fc2 293e 7239 85bd
00000260: 1b43 5ebe 14fb 073e 7525 edbd 0cdf c53a
00000270: be36 3bbe 16c1 32be 08ea 453e b07f cebd
00000280: 12b9 6e3e 089f cdbc 9946 fabd 8487 7a3e
00000290: 0668 1cbe b9f8 f03d 151d 0a3e 6199 0dbe
000002a0: f02f a33d fc67 c13d f41b 20be ccca 163e
000002b0: 1db2 6a3d f786 853d 7d21 febd db6e cc3d
000002c0: 1499 d23d 1b0a 01be 5517 c1bd 9a27 8c3d
000002d0: b3fa afbd 6acb 80bd a38f 0ebd 9fee d8bd
000002e0: 4930 cfbd 68cf dabb e739 453e bb3a 003e
000002f0: 9746 3f3d 97e8 093e ccc4 f0bd 04c2 0c3d
00000300: e359 01bd 799c 413e 56eb d63d ee4e 133d
00000310: bbfc 4dbe 72fc 2d3d cee6 333e 69bc c13d

branch_p.fc2.bias f4 [10]
0.044593602 -0.0638831 -0.17023775 0.2185669 -0.0064593623 0.16234343 -0.041009326 -0.010291436
-0.08685072 -0.10512738
00000000: c8a7 363d 25d5 82bd ce52 2ebe 00d0 5f3e
00000010: 0fa9 d3bb 5b3d 263e 65f9 27bd 699d 28bc
00000020: cade b1bd 064d d7bd

branch_h.fc1.weight f4 [20, 11]
0.044717234 -0.14872916 -0.26218146 -0.19495237 0.14036173 -0.07218203 0.06912475 0.030746955
-0.057079047 -0.11487444 -0.12700477 0.10396812 -0.23475502 0.21547501 0.006752301 -0.26558375
-0.15151411 -0.23517592 -0.21913688 -0.29303664 -0.099508144 0.04019741 -0.028869985 -0.06373516
-0.064293474 -0.26891455 -0.17239794 -0.16072008 -0.026519451 -0.25798628 0.09650362 -0.21776578
-0.33045343 -0.14043367 0.24552308 -0.25709397 -0.040610753 0.22466859 0.21480364 0.288286
0.09404242 0.07907447 -0.07160484 0.20128065 0.020881338 -0.0125678405 0.13484466 -0.22003785
-0.0060535423 -0.15400688 -0.02303171 -0.19848989 -0.2453766 0.08606906 0.021265155 0.112848565
-0.31730393 -0.18525206 -0.03923033 -0.053415928 -0.20510802 -0.17322865 0.20383395 0.29481784
-0.18394725 -0.04456839 -0.13312696 0.275446 -0.13567975 -0.039224833 0.19861613 0.052468102
-0.03416471 0.045333575 -0.10863514 -0.19362004 -0.1054569 0.09792416 -0.0020465076 0.24162589
-0.26563555 0.26135942 -0.0035022139 0.2602475 -0.25822738 0.031722024 0.055057082 0.21573263
0.08761502 -0.03717896 0.22364417 -0.10695131 -0.074671715 0.16762087 0.10818786 -0.28071022
0.303049 -0.038814142 0.15434358 0.060109876 -0.25268355 -0.29849234 -0.18595617 -0.0935277
0.03187861 -0.20294745 0.13312037 -0.13168675 -0.18427841 -0.27527463 -0.3185975 -0.051729962
0.09328876 0.044061713 0.22653851 0.2217163 -0.25466743 0.15366222 0.13521177 -0.2239698
0.025326896 -0.18672082 -0.16279651 0.053514384 -0.16768384 -0.15657593 0.23386607 -0.19537704
-0.2210282 -0.13858241 -0.014389775 -0.24764368 0.142733 -0.13274693 -0.062066507 0.07048876
-0.1499512 -0.17702137 0.124414474 -0.17511488 -0.13093539 -0.14030533 0.041923944 -0.09095352
0.26421311 -0.04595242 0.05212813 -0.022326272 -0.0409106 0.09628838 0.20595847 -0.12010859
0.18368575 -0.17480725 0.02823983 0.0044835317 -0.02760581 0.15464182 -0.17529994 -0.13566834
0.035729177 -0.14524037 -0.3007956 -0.17595738 -0.2189541 -0.12217571 -0.17738907 -0.15930109
0.2959887 0.083531216 -0.041479692 0.2771929 0.086907424 -0.13017246 -0.27832025 0.23823367
0.012962948 -0.2750796 0.31106764 -0.07832334 -0.053009756 -0.047781352 0.0045669517 -0.004243745
-0.005710414 0.08596096 -0.039075475 -0.1351724 0.117479324 0.062849745 0.14387304 -0.28446782
0.26147786 -0.26681903 0.18519151 -0.116101705 0.048379835 -0.08252749 -0.15042558 -0.21624406
0.07107095 0.26137748 -0.092917055 -0.2651339 0.16844293 0.051454592 0.029785296 0.17776458
-0.11506995 -0.28370902 -0.12620117 -0.2525901 -0.052485228 0.040417068 0.1439337 0.025010128
-0.16518205 -0.19645031 -0.023332344 0.072888955
00000000: 6b29 373d 754c 18be a63c 86be 98a1 47be
00000010: fcba 0f3e 2cd4 93bd 4791 8d3d 0ae1 fb3c
00000020: b8cb 69bd 4a43 ebbd 8a0d 02be 3ded d43d
00000030: 9f63 70be 7ba5 5c3e 6842 dd3b 98fa 87be
00000040: 8426 1bbe f5d1 70be 6b65 60be e608 96be
00000050: edca cbbd 0aa6 243d bf80 ecbc 9487 82bd
00000060: 4cac 83bd 2baf 89be 1689 30be ce93 24be
00000070: 523f d9bc c716 84be b1a3 c53d fefd 5ebe
00000080: 3131 a9be d8cd 0fbe 676a 7b3e d2a1 83be
00000090: 7657 26bd 860f 663e 7cf5 5b3e 399a 933e
000000a0: 5099 c03d ccf1 a13d 8fa5 92bd 841c 4e3e
000000b0: 570f ab3c 58e9 4dbc b814 0a3e 9a51 61be
000000c0: cb5c c6bb fbb3 1dbe ffac bcbc ef40 4bbe
000000d0: 0144 7bbe fa44 b03d 4334 ae3c 261d e73d
000000e0: a975 a2be b7b2 3dbe fcaf 20bd a9ca 5abd
000000f0: d607 52be da62 31be d9b9 503e 5df2 963e
00000100: ab5c 3cbe 588d 36bd 6f52 08be 4207 8d3e
00000110: a2ef 0abe 38aa 20bd 0762 4b3e cbe8 563d
00000120: 4cf0 0bbd b3af 393d 1a7c debd 5544 46be
00000130: caf9 d7bd 768c c83d b31e 06bb c76c 773e
00000140: 6201 88be e7d0 853e 6685 65bb 293f 853e
00000150: 6136 84be f4ee 013d 8983 613d 04e9 5c3e
00000160: 816f b33d f748 18bd fa02 653e 4a09 dbbd
00000170: 7ced 98bd cea4 2b3e 9991 dd3d 40b9 8fbe
00000180: 3d29 9b3e 94fb 1ebd 3e0c 1e3e c635 763d
00000190: bd5f 81be fdd3 98be 4b6b 3ebe 738b bfbd
000001a0: 2593 023d 75d1 4fbe b550 083e e4d8 06be
000001b0: 7bb3 3cbe ccf0 8cbe 361f a3be cce2 53bd
000001c0: 2d0e bf3d 0e7a 343d b6f9 673e 9909 633e
000001d0: c563 82be a159 1d3e f474 0a3e 5758 65be
000001e0: 5a7a cf3c be33 3fbe 21b4 26be e631 5b3d
000001f0: 50b5 2bbe 7155 20be 967a 6f3e eb10 48be
00000200: 3755 62be 8ce8 0dbe 17c3 6bbc 4e96 7dbe
00000210: 9928 123e d0ee 07be 7339 7ebd 695c 903d
00000220: cf8c 19be 1745 35be 04cd fe3d 5151 33be
00000230: ed13 06be 33ac 0fbe 71b8 2b3d d745 babd
00000240: f146 873e 9b38 3cbd 4e84 553d 96e5 b6bc
00000250: e091 27bd d832 c53d c7e6 523e 7efb f5bd
00000260: 1e18 3c3e ac00 33be 3757 e73c 97ea 923b
00000270: 9425 e2bc 6d5a 1e3e d481 33be a4ec 0abe
00000280: c258 123d e4b9 14be e201 9abe 2c2e 34be
00000290: 8135 60be 4237 fabd 7ba5 35be d31f 23be
000002a0: d58b 973e 6a12 ab3d 9ce6 29bd 3aec 8d3e
000002b0: 85fc b13d ee4b 05be fe7f 8ebe 87f3 733e
000002c0: 8b62 543c 3cd7 8cbe 4244 9f3e fd67 a0bd
000002d0: c220 59bd 61b6 43bd 5ea6 953b 1d0f 8bbb
000002e0: 6d1e bbbb 4d0c b03d 9b0d 20bd a26a 0abe
000002f0: 0099 f03d 5eb7 803d 7453 133e c4a5 91be
00000300: 6de0 853e 819c 88be d8a2 3d3e bbc6 edbd
00000310: ef29 463d 2c04 a9bd 2a09 1abe 156f 5dbe
00000320: a58d 913d 45d3 853e 4c4b bebd a1bf 87be
00000330: 4e7c 2c3e 0dc2 523d 4b00 f43c eb07 363e
00000340: cba9 ebbd 4f42 91be e13a 01be 7d53 81be
00000350: c0fa 56bd 5e8c 253d 5b63 133e 0ae2 cc3c
00000360: 7c25 29be 452a 49be 7923 bfbc ce46 953d

branch_h.fc1.bias f4 [20]
-0.07418824 0.092067495 -0.000833138 0.16824609 0.26739073 -0.0015879245 0.30567062 0.23312536
0.18406257 0.044514142 -0.2526897 -0.10227742 0.12735657 0.098791406 -0.26778156 0.31231663
0.19813552 0.26288882 0.1727342 0.29051095
00000000: 01f0 97bd e28d bc3d f266 5aba b448 2c3e
00000010: 70e7 883e e821 d0ba dc80 9c3e 6ab8 6e3e
00000020: e67a 3c3e 7654 363d 8b60 81be d376 d1bd
00000030: c369 023e 2653 ca3d aa1a 89be f7e7 9f3e
00000040: 0ae4 4a3e 5d99 863e 3ce1 303e dabd 943e

branch_h.fc2.weight f4 [10, 20]
0.047456454 -0.17866556 0.06531658 -0.19547124 -0.21571867 0.16721351 0.13447362 0.035574004
0.16430666 -0.022033375 -0.11497024 -0.23176543 0.10801538 -0.13121988 -0.1805038 0.025978172
-0.16288465 -0.09420315 0.15769416 -0.17515907 0.044454485 -0.17336221 0.2308662 0.008339606
-0.0002318382 -0.096452706 -0.13873701 0.060418185 -0.20662852 0.03528311 -0.047025137 -0.15051134
0.16145965 0.0033362622 0.04154578 -0.13735645 -0.19546129 -0.16885224 0.076597705 -0.08306262
0.09690535 -0.06563306 -0.10123131 -0.07919047 0.07080187 0.08177882 0.030647004 -0.14602616
-0.06314778 -0.216071 -0.058748566 0.15611064 0.18542345 0.15483613 0.068312034 0.057900395
-0.06393131 -0.015720095 0.061855327 -0.080893934 0.1918748 0.105259776 0.20781708 -0.016013227
0.19650978 0.07569668 0.14438045 -0.17963667 0.17556947 -0.2234611 -0.049229518 -0.22142468
-0.040883213 -0.0882726 0.12963304 -0.16617438 0.03647758 0.16885799 -0.08108652 0.14346603
-0.031011702 0.11290889 0.14807369 0.033499252 0.15417461 -0.040878706 -0.15923393 0.0002717338
-0.0082822535 0.18026021 0.0041370573 -0.086815365 -0.07047508 -0.039667506 -0.035076216 -0.16087477
0.06705528 -0.14741525 0.1736471 -0.18449502 0.12476089 0.059234656 -0.12408596 0.17646296
-0.1643677 -0.18443303 -0.14340788 -0.0047948854 -0.13413636 0.081918575 0.036032308 -0.19711053
0.08851466 0.016184714 0.08335558 0.054480772 0.067260265 -0.21263424 0.11095535 0.10406392
0.0027829208 0.0022273692 0.22775604 -0.17982621 0.059329756 0.17266165 -0.11287705 -0.13435353
0.21592996 0.2150916 -0.10609953 0.13929583 -0.06674549 -0.015797617 -0.2024466 0.007003136
0.017043378 0.11518657 -0.15222457 -0.09082776 -0.11902254 0.16005552 -0.10590459 0.07033479
0.109768 0.013061799 -0.0116123 -0.17380191 0.05557382 0.10154006 0.02028086 -0.06830615
0.1803852 0.07440969 -0.08127715 -0.09883645 -0.16781391 0.20222118 -0.09965253 -0.04804772
0.13208568 -0.08334646 -0.08965057 0.17440486 -0.12808162 -0.1474326 0.054834932 0.04686226
-0.07807654 0.18257993 0.18832868 0.002927103 -0.19197527 0.1701523 -0.11595574 0.024683952
-0.18697259 -0.014827542 -0.20560011 -0.02849172 -0.026962116 0.06751987 -0.026012972 -0.10548732
0.19323152 -0.08611098 0.20625892 -0.09128198 -0.09318492 0.11685783 0.1404016 -0.03978613
0.17040983 -0.098377496 -0.11652943 0.17679039 0.14130306 0.023177035 -0.13377059 0.20612937
00000000: b361 423d 1bf4 36be b3c4 853d 9d29 48be
00000010: 5be5 5cbe 053a 2b3e 74b3 093e 0cb6 113d
00000020: 0140 283e 567f b4bc 8475 ebbd eb53 6dbe
00000030: 2b37 dd3d 815e 06be fdd5 38be 2dd0 d43c
00000040: 3ccb 26be 95ed c0bd 947a 213e e65c 33be
00000050: e815 363d dd85 31be 3068 6c3e d8a2 083c
00000060: 9819 73b9 ff88 c5bd 1311 0ebe 0f79 773d
00000070: 6d96 53be 0685 103d 6e9d 40bd a51f 1abe
00000080: ae55 253e 31a5 5a3b e82b 2a3d 2ba7 0cbe
00000090: 0127 48be 9ae7 2cbe 42df 9c3d bc1c aabd
000000a0: 5076 c63d a06a 86bd 5c52 cfbd 9d2e a2bd
000000b0: 9200 913d a77b a73d 6d0f fb3c e287 15be
000000c0: a053 81bd b741 5dbe 56a2 70bd 78db 1f3e
000000d0: a5df 3d3e 5d8d 1e3e 2ee7 8b3d f728 6d3d
000000e0: 6bee 82bd 6ec7 80bc 035c 7d3d b8ab a5bd
000000f0: d47a 443e 7092 d73d 00ce 543e 2c2e 83bc
00000100: dc39 493e dc06 9b3d 78d8 133e adf2 37be
00000110: 7cc8 333e fdd2 64be e4a4 49bd 27bd 62be
00000120: 2875 27bd 44c8 b4bd 86be 043e 9e29 2abe
00000130: 8469 153d 1ce9 2c3e b010 a6bd c2e8 123e
00000140: 410c febc c73c e73d a1a0 173e 8336 093d
00000150: f3df 1d3e 6e70 27bd 380e 23be 7e77 8e39
00000160: 4ab2 07bc 2296 383e 2790 873b 41cc b1bd
00000170: 3d55 90bd 657a 22bd 14ac 0fbd 5bbc 24be
00000180: 4754 893d 06f4 16be 8cd0 313e 43ec 3cbe
00000190: a382 ff3d 0aa0 723d c820 febd b5b2 343e
000001a0: 0250 28be 03dc 3cbe 84d9 12be 6a1e 9dbb
000001b0: 0b5b 09be edc4 a73d 9d96 133d 58d7 49be
000001c0: 2d47 b53d ce95 843c 55b6 aa3d 3b27 5f3d
000001d0: c0bf 893d cabc 59be 8f3c e33d 771f d53d
000001e0: aa61 363b 0ef9 113b e138 693e 5d24 38be
000001f0: c203 733d 37ce 303e 152c e7bd f993 09be
00000200: be1c 5d3e f940 5c3e b64a d9bd 91a3 0e3e
00000210: dcb1 88bd 016a 81bc 294e 4fbe 907a e53b
00000220: 8e9e 8b3c f0e6 eb3d c2e0 1bbe e803 babd
00000230: 17c2 f3bd 98e5 233e 81e4 d8bd b00b 903d
00000240: 0cce e03d 2801 563c 8441 3ebc 21f9 31be
00000250: 60a1 633d 3cf4 cf3d 0c24 a63c 18e4 8bbd
00000260: e6b6 383e 1c64 983d a274 a6bd c46a cabd
00000270: 69d7 2bbe 1213 4f3e a016 ccbd b0cd 44bd
00000280: 7841 073e 8cb1 aabd b89a b7bd 3097 323e
00000290: d427 03be 92f8 16be 989a 603d a4f2 3f3d
000002a0: 98e6 9fbd 3cf6 3a3e 3cd9 403e a4d4 3f3b
000002b0: 2a95 44be 683c 2e3e 347a edbd 0036 ca3c
000002c0: be75 3fbe 38ef 72bc d688 52be 7867 e9bc
000002d0: a8df dcbc dc47 8a3d 2819 d5bc bc09 d8bd
000002e0: 7cde 453e f45a b0bd 8a35 533e 0cf2 babd
000002f0: bcd7 bebd 2853 ef3d 70c5 0f3e c8f6 22bd
00000300: ea7f 2e3e 247a c9bd fba6 eebd 8a08 353e
00000310: c0b1 103e c4dd bd3c 28fb 08be 9413 533e

branch_h.fc2.bias f4 [10]
0.041727483 -0.075986296 0.10227848 -0.18068402 -0.01602395 -0.061788626 0.2109226 0.09921798
-0.045345426 0.12998348
00000000: 70ea 2a3d b49e 9bbd 6177 d13d 3b05 39be
00000010: a944 83bc 1216 7dbd 18fc 573e cc32 cb3d
00000020: 20bc 39bd 641a 053e

self_attention_players.query_projection.weight f4 [10, 10]
0.0030410092 -0.033698462 0.00733238 -0.16827011 0.16153643 -0.2790495 0.08495796 0.23734894
0.29022938 0.17742969 -0.25806493 -0.19895491 -0.12144401 -0.004857996 0.2193293 -0.20928688
0.25695252 0.19519992 0.3297608 -0.055841736 -0.1186162 -0.048644163 -0.21910384 0.075840585
-0.013597806 0.14795923 0.10200976 -0.13702844 0.2091085 -0.10928799 -0.0060656653 0.016867377
0.3034438 0.22222622 -0.20534447 0.28037867 0.22811328 -0.25453743 0.049785238 0.12414865
0.08091033 0.06681423 0.30472678 -0.22545587 -0.1130783 0.30857027 0.16641831 0.048360452
0.12755649 0.008024635 0.053881146 0.25022236 -0.3170098 -0.19759713 -0.23752862 0.20545635
0.23172534 0.16139163 0.20928544 -0.31977993 0.06818669 -0.108158536 0.097340316 -0.1988148
0.029805467 -0.112632714 0.0199979 -0.02921873 0.059559893 -0.16972366 -0.288586 0.21021283
0.21906395 -0.29774928 0.30893555 0.24332991 -0.21447375 0.029724644 -0.062213074 0.23938903
0.117670126 0.038974613 0.12039318 0.0071235043 -0.07226629 0.10456876 0.17170534 -0.03299925
0.22955483 -0.078584544 0.06254284 0.3229536 0.3174314 -0.15053071 -0.20388316 0.09455992
0.29509684 -0.3061812 -0.24017668 0.093957074
00000000: ab4b 473b 6607 0abd 7644 f03b 004f 2cbe
00000010: ce69 253e 93df 8ebe 70fe ad3d 9a0b 733e
00000020: f298 943e 21b0 353e 1621 84be d6ba 4bbe
00000030: a3b7 f8bd d32f 9fbb dc97 603e 4d4f 56be
00000040: 488f 833e 7de2 473e 68d6 a83e 4eba 64bd
00000050: 0ded f2bd 1a3f 47bd c25c 60be 4f52 9b3d
00000060: 55c9 5ebc a082 173e 7eea d03d 2f51 0cbe
00000070: 8a20 563e 62d2 dfbd 7dc2 c6bb 742d 8a3c
00000080: fc5c 9b3e 458f 633e d245 52be cb8d 8f3e
00000090: 8796 693e bb52 82be 9beb 4b3d a641 fe3d
000000a0: 51b4 a53d e6d5 883d 2605 9c3e e7dd 66be
000000b0: 9995 e7bd ecfc 9d3e 9069 2a3e 9c15 463d
000000c0: 2b9e 023e c279 033c 7ab2 5c3d 251d 803e
000000d0: 1c4f a2be e756 4abe b43a 73be 2663 523e
000000e0: 6849 6d3e d943 253e ec4e 563e 32ba a3be
000000f0: 77a5 8b3d 3982 ddbd 5c5a c73d 1b96 4bbe
00000100: 982a f43c fbab e6bd a3d2 a33c 1e5c efbc
00000110: 13f5 733d 0acc 2dbe 8bc1 93be 0842 573e
00000120: 4d52 603e 9872 98be cd2c 9e3e 7a2b 793e
00000130: 029f 5bbe 1981 f33c 23d3 7ebd 6622 753e
00000140: 09fd f03d d8a3 1f3d b390 f63d 496c e93b
00000150: 5900 94bd 2528 d63d 86d3 2f3e 392a 07bd
00000160: 6c10 6b3e eff0 a0bd 7616 803d 2d5a a53e
00000170: 5e86 a23e b924 1abe bfc6 50be a2a8 c13d
00000180: ef16 973e c8c3 9cbe e0f0 75be 916c c03d

self_attention_players.query_projection.bias f4 [10]
0.058906134 0.056224816 -0.058818236 -0.188297 -0.08148391 -0.2307974 -0.24308398 0.1351067
0.2822532 -0.14116436
00000000: 8f47 713d fe4b 663d 64eb 70bd eed0 40be
00000010: 09e1 a6bd 2756 6cbe 02eb 78be 6959 0a3e
00000020: 7e83 903e 648d 10be

self_attention_players.key_projection.weight f4 [10, 10]
0.1900244 0.15385538 -0.11581859 -0.08304529 -0.19171456 0.07424419 -0.2771876 0.031808354
0.30020675 0.20856972 0.2662389 0.16074361 0.25371337 -0.028391354 -0.066073574 -0.041989356
0.12417352 0.22164029 0.010600093 -0.29174998 0.15862276 0.09110642 0.056646783 0.3224699
0.15243122 0.0015963439 -0.25019908 0.2427817 0.08229447 -0.19363469 0.16303456 0.1488204
-0.05032679 -0.21102476 0.23594357 0.058795206 0.15496045 0.19748867 -0.068006754 0.27364454
0.27451578 -0.035836253 -0.039873566 -0.3516963 0.014497712 0.040858194 -0.11305353 -0.25973216
0.05721005 -0.020004878 0.15005088 0.24923487 0.068869695 -0.15000287 0.13065113 -0.06734607
0.10804978 0.1554569 -0.08328458 0.13205487 0.101443715 0.14789188 0.08753299 -0.27138034
0.2258021 -0.13509311 -0.009362856 0.13300228 -0.17729263 0.30192178 0.22479042 -0.011020181
-0.25485376 0.123079464 -0.18749554 -0.23377177 -0.041858353 -0.032110274 0.30027556 0.082246006
-0.051790066 -0.15572424 -0.25382704 0.18711038 -0.08325141 0.24041809 -0.17186095 -0.20585413
0.07990989 0.2237702 -0.16410294 -0.17781764 0.025196405 -0.09731557 0.101459146 -0.25958428
-0.002220684 0.18931004 -0.12677722 0.105104774
00000000: c295 423e 448c 1d3e 4c32 edbd a613 aabd
00000010: d250 44be 560d 983d 88eb 8dbe 7a49 023d
00000020: b3b4 993e 4d93 553e 7750 883e f999 243e
00000030: b8e6 813e fc94 e8bc 9551 87bd 08fd 2bbd
00000040: b04e fe3d acf5 623e 03ac 2d3c 4160 95be
00000050: 016e 223e 0196 ba3d 7506 683d c61a a53e
00000060: ee16 1c3e 6a3c d13a 181a 80be c49b 783e
00000070: 018a a83d 2c48 46be 88f2 263e 6064 183e
00000080: 7723 4ebd e016 58be 319b 713e 3ed3 703d
00000090: f4ad 1e3e 783a 4a3e 2047 8bbd 231b 8c3e
000000a0: 558d 8c3e 09c9 12bd 7752 23bd 8a11 b4be
000000b0: d087 6d3c ec5a 273d 9c88 e7bd 9dfb 84be
000000c0: 1655 6a3d 45e1 a3bc f0a6 193e 6d37 7f3e
000000d0: 8e0b 8d3d 5a9a 19be 69c9 053e bdec 89bd
000000e0: 3449 dd3d 1830 1f3e 1b91 aabd 6439 073e
000000f0: b9c1 cf3d f870 173e 7f44 b33d 5df2 8abe
00000100: aa38 673e d955 0abe aa66 19bc c031 083e
00000110: 338c 35be 7e95 9a3e 762f 663e fd8d 34bc
00000120: 317c 82be 1611 fc3d d5fe 3fbe de61 6fbe
00000130: aa73 2bbd 1086 03bd b8bd 993e 9870 a83d
00000140: d221 54bd 2d76 1fbe 9ef5 81be dd99 3f3e
00000150: b77f aabd 2930 763e 51fc 2fbe 6dcb 52be
00000160: cca7 a33d 0424 653e 9a0a 28be d415 36be
00000170: b168 ce3c 634d c7bd d0c9 cf3d 3be8 84be
00000180: e588 11bb 7eda 413e e3d1 01be 2c41 d73d

self_attention_players.key_projection.bias f4 [10]
-0.14457677 0.16622731 0.30185872 -0.2742197 -0.016619274 -0.13926314 0.27298772 0.21936402
-0.2317606 0.09745977
00000000: ef0b 14be 7e37 2a3e 3a8d 9a3e 8666 8cbe
00000010: 2525 88bc ff9a 0ebe 0cc5 8b3e f6a0 603e
00000020: a752 6dbe fd98 c73d

self_attention_players.value_projection.weight f4 [10, 10]
0.11579975 0.005599162 -0.04344924 0.11802922 -0.23615827 -0.21197689 -0.055043165 -0.06673396
-0.22819816 0.13170236 -0.11850868 -0.1546993 -0.056114584 -0.1715698 -0.039303064 0.13210571
-0.20261067 -0.20528054 0.31006056 -0.22053903 0.26550737 -0.26798654 0.18049386 -0.20316698
0.06675441 0.31058684 0.044662505 -0.010916351 0.053193297 0.24821436 -0.23462142 -0.29664558
-0.27733004 -0.1418487 0.042673044 0.053658817 0.31622043 0.29840404 0.03856349 -0.13643946
-0.23310122 0.11702609 -0.0004540785 0.123190485 0.0026795454 0.29058993 0.15623248 -0.25348416
0.1338365 0.12535545 -0.20614974 0.15727103 -0.30592287 0.024987172 -0.14213198 -0.163701
0.085108034 -0.267155 0.18915571 0.01874957 0.10045626 -0.31566292 -0.17394783 -0.042632684
-0.24193464 0.2597358 -0.048832826 0.17210793 0.23349789 0.17718783 -0.2980473 0.06573998
0.088560306 0.070278466 0.044005133 -0.14465424 0.18664041 0.27419454 -0.02649942 0.21991426
-0.1085082 -0.10942271 0.25908902 0.046300158 -0.19343467 0.13777165 -0.034091983 0.25465164
0.22355717 0.1994777 -0.00097275 0.02685494 -0.2250348 -0.11316509 0.268912 0.11215452
0.10913721 -0.08029045 -0.16482979 0.13256161
00000000: 6b28 ed3d 2d79 b73b d5f7 31bd 4eb9 f13d
00000010: 79d3 71be 7810 59be f174 61bd d0ab 88bd
00000020: c7ac 69be fcdc 063e aeb4 f2bd 7e69 1ebe
00000030: 68d8 65bd feaf 2fbe 40fc 20bd b846 073e
00000040: 2c79 4fbe 1035 52be 42c0 9e3e fcd4 61be
00000050: 95f0 873e 8835 89be 62d3 383e 010b 50be
00000060: 89b6 883d 3d05 9f3e 08f0 363d 7fda 32bc
00000070: 37e1 593d e82b 7e3e 9940 70be eee1 97be
00000080: 34fe 8dbe c940 11be eec9 2e3d 59c9 5b3d
00000090: a5e7 a13e 6ac8 983e c0f4 1d3d c9b6 0bbe
000000a0: 16b2 6ebe 60ab ef3d 6211 eeb9 4b4b fc3d
000000b0: 509b 2f3b 34c8 943e 68fb 1f3e adc8 81be
000000c0: 6f0c 093e 2e5d 003e eb18 53be a80b 213e
000000d0: eca1 9cbe e6b1 cc3c 0c8b 11be 3ca1 27be
000000e0: 1f4d ae3d 8ac8 88be 09b2 413e b398 993c
000000f0: 03bc cd3d 929e a1be 611f 32be 9c9f 2ebd
00000100: b7bd 77be 17fc 843e ee04 48bd 103d 303e
00000110: 121a 6f3e ba70 353e a899 98be afa2 863d
00000120: 1b5f b53d 28ee 8f3d ba3e 343d 3e20 14be
00000130: aa1e 3f3e 3a63 8c3e 5015 d9bc 3431 613e
00000140: 8c39 debd 0419 e0bd 51a7 843e 3ca5 3d3d
00000150: bd13 46be 0314 0d3e 09a4 0bbd b361 823e
00000160: 2cec 643e e243 4c3e 2600 7fba e4fe db3c
00000170: 866f 66be 19c3 e7bd d5ae 893e 45b1 e53d
00000180: 5483 df3d 526f a4bd 24c9 28be 3bbe 073e

self_attention_players.value_projection.bias f4 [10]
-0.13847068 -0.13152632 0.064741865 0.1370183 -0.0036685779 -0.19500749 0.0003258849 0.16841486
-0.07196139 -0.30079195
00000000: 42cb 0dbe d6ae 06be 6297 843d 864e 0c3e
00000010: 866c 70bb 0bb0 47be 88db aa39 f274 2c3e
00000020: 7e60 93bd 6701 9abe

self_attention_players.output_projection.weight f4 [10, 10]
0.13812068 0.22583148 0.056251734 -0.049471598 -0.2861625 0.06110285 0.32163507 0.06810702
0.01382173 0.16956285 -0.02458488 0.13507771 -0.18962044 0.30774647 0.034661263 0.33233804
-0.13971432 0.24457966 0.20247436 0.17271172 0.29300043 0.19347776 -0.30687085 -0.2102244
0.10758615 0.023021098 0.084021196 0.053266775 -0.28459322 0.18253918 0.20315987 -0.13178131
0.1897373 0.041359924 -0.022268275 -0.19479774 0.047584713 0.17283444 0.23479159 0.29257694
-0.2888227 0.23711334 -0.046426605 0.2321953 -0.08394151 0.039233766 -0.32883787 -0.026142126
0.25249514 -0.01355863 -0.21828462 0.3255877 0.16307476 -0.13147241 -0.095413096 -0.09429589
0.25936997 0.05146136 0.024504002 0.09784937 -0.0029585739 0.03673539 0.17398812 0.13878308
-0.22422543 -0.2829238 0.19912307 0.27950448 0.018631095 -0.16022028 -0.22376747 0.18486156
0.041919153 0.049905147 0.1944162 0.022865292 -0.03569998 -0.18536228 0.2152865 0.1737968
-0.10412154 -0.09670109 -0.27641833 -0.26036528 0.19055551 -0.03343818 -0.16357692 -0.33898652
0.24057996 0.27876136 -0.24608864 0.11135875 0.051315874 0.12656148 0.098048724 -0.15915145
-0.22217207 0.15638675 0.12121229 -0.21725598
00000000: 826f 0d3e 5e40 673e 3868 663d bba2 4abd
00000010: e483 92be fb46 7a3d 5aad a43e b17b 8b3d
00000020: 8a74 623c e2a1 2d3e 3b66 c9bc d051 0a3e
00000030: dc2b 42be f290 9d3e f8f8 0d3d 3628 aa3e
00000040: 4511 0fbe 1773 7a3e 7055 4f3e 57db 303e
00000050: 2704 963e 091f 463e 2d1e 9dbe 1145 57be
00000060: 2156 dc3d be96 bc3c 4e13 ac3d 432e 5a3d
00000070: 34b6 91be 8deb 3a3e 2409 503e aef1 06be
00000080: 7f4a 423e 0669 293d f56b b6bc 0f79 47be
00000090: 30e8 423d 83fb 303e 356d 703e a5cc 953e
000000a0: 92e0 93be d7cd 723e d329 3ebd 9bc4 6d3e
000000b0: 87e9 abbd 96b3 203d 705d a8be 0328 d6bc
000000c0: 0b47 813e 0425 5ebc 0186 5fbe 6eb3 a63e
000000d0: 12fd 263e b4a0 06be f167 c3bd 341e c1bd
000000e0: 24cc 843e 26c9 523d 9ebc c83c 4065 c83d
000000f0: a2e4 41bb d977 163d f129 323e 271d 0e3e
00000100: 5a9b 65be 63db 90be ebe6 4b3e 361b 8f3e
00000110: 3da0 983c c910 24be 4d23 65be 594c 3d3e
00000120: 6bb3 2b3d 5769 4c3d 0a15 473e fe4f bb3c
00000130: 243a 12bd 9ccf 3dbe 1074 5c3e caf7 313e
00000140: ad3d d5bd 390b c6bd b486 8dbe 994e 85be
00000150: fc20 433e 79f6 08bd b580 27be a48f adbe
00000160: 985a 763e cfb9 8e3e a9fe 7bbe 0e10 e43d
00000170: 9830 523d 5599 013e c5cd c83d 99f8 22be
00000180: 1381 63be d923 203e 263e f83d 5a78 5ebe

self_attention_players.output_projection.bias f4 [10]
-0.11688328 -0.23799166 0.052477386 0.06597386 0.17440675 -0.18465225 -0.21863097 0.24442461
-0.3203799 -0.070381045
00000000: 8060 efbd 16b4 73be 87f2 563d 4e1d 873d
00000010: af97 323e 7b15 3dbe cce0 5fbe 724a 7a3e
00000020: d608 a4be f023 90bd

self_attention_heroes.query_projection.weight f4 [10, 10]
0.19486918 -0.06752732 0.08633605 -0.04235412 -0.07857248 0.050279893 -0.054822303 0.090430975
0.2878988 -0.28433466 0.28023934 0.16105306 -0.041989967 -0.12322077 0.30321857 0.26280105
0.03560531 -0.2592395 0.20625904 -0.022644795 0.061115064 -0.09096962 -0.10020954 -0.10782316
-0.1820467 -0.2263596 -0.3051059 0.279559 0.1813066 -0.0006764515 0.14274637 -0.19145696
-0.23969297 0.23335645 -0.20421822 -0.13105594 -0.2593583 0.14060947 -0.28194115 0.07753739
-0.19301377 0.0074884444 0.28751835 0.2747331 -0.29371008 -0.17772916 -0.10213962 -0.27701145
0.16169918 0.28535774 0.30225986 0.03149514 0.043175366 -0.28788897 0.10683635 0.025981577
0.29743788 -0.13920754 -0.14212151 0.24772564 0.04610651 0.20993686 0.21878053 0.19241801
-0.2320526 0.26642916 0.006544486 -0.16122419 -0.15381916 -0.12050302 0.054983556 -0.2106805
-0.2726566 -0.18184566 0.16338864 -0.003203942 -0.006265953 -0.26096234 -0.032734767 0.20379856
0.07873669 -0.0075900177 0.032941636 -0.024941728 0.13700075 0.15653558 0.14272746 -0.2775938
-0.22742641 0.21212575 -0.21383667 -0.32807994 -0.09057833 0.24833599 0.13720131 0.101413734
-0.25449914 0.07589784 -0.2855174 0.21828327
00000000: c98b 473e c34b 8abd f4d0 b03d 847b 2dbd
00000010: 9cea a0bd 4af2 4d3d 5a8d 60bd e033 b93d
00000020: 7967 933e 5094 91be 887b 8f3e 18eb 243e
00000030: acfd 2bbd 2c5b fcbd 773f 9b3e dc8d 863e
00000040: e0d6 113d 0abb 84be 9235 533e 9481 b9bc
00000050: ca53 7a3d 484e babd a93a cdbd 64d2 dcbd
00000060: 736a 3abe d0ca 67be d736 9cbe 5b22 8f3e
00000070: 70a8 393e e453 31ba 1b2c 123e 4b0d 44be
00000080: 1372 75be fef4 6e3e 951e 51be 8733 06be
00000090: 9cca 84be eefb 0f3e 975a 90be eccb 9e3d
000000a0: 67a5 45be a061 f53b 9b35 933e d1a9 8c3e
000000b0: 2b61 96be a2fe 35be 942e d1bd 72d4 8dbe
000000c0: 7894 253e 691a 923e cec1 9a3e 0c01 013d
000000d0: a7d8 303d 2f66 93be 04cd da3d 51d7 d43c
000000e0: c749 983e 6c8c 0ebe 4d88 11be caab 7d3e
000000f0: 2eda 3c3d b0f9 563e 0108 603e 3a09 453e
00000100: 329f 6dbe 6769 883e 2173 d63b f417 25be
00000110: c582 1dbe 4aca f6bd 7036 613d a1bc 57be
00000120: a599 8bbe c035 3abe 5a4f 273e 3af9 51bb
00000130: a052 cdbb db9c 85be e414 06bd 92b0 503e
00000140: b440 a13d afb5 f8bb cfed 063d 9852 ccbc
00000150: ed49 0c3e dd4a 203e 2627 123e c620 8ebe
00000160: 78e2 68be 7e37 593e 00f8 5abe 18fa a7be
00000170: 2281 b9bd ca4b 7e3e 807e 0c3e 01b2 cf3d
00000180: b64d 82be 5470 9b3d 562f 92be a685 5f3e

self_attention_heroes.query_projection.bias f4 [10]
-0.25494644 -0.003089829 -0.1326284 -0.2650649 0.13892151 0.14004245 -0.041064437 0.033775464
0.1452104 -0.035672836
00000000: 5788 82be bb7e 4abb bdcf 07be 96b6 87be
00000010: 7141 0e3e 4a67 0f3e 2f33 28bd 2458 0a3d
00000020: 09b2 143e ae1d 12bd

self_attention_heroes.key_projection.weight f4 [10, 10]
0.18379085 0.2731667 0.10377337 0.21877089 -0.07267361 -0.105263986 -0.20287722 -0.24464658
-0.14092506 -0.16837978 -0.20054309 -0.032040626 -0.19087707 -0.26971298 -0.03591718 0.24045165
0.087494 0.31277338 -0.17129785 -0.03540142 0.3226418 0.30005103 -0.17752796 0.25639924
0.055580392 0.07946101 0.12264564 0.30989954 0.038919732 0.30603656 -0.2799172 0.04545341
0.26406193 -0.3098985 0.014935526 -0.29499725 -0.23041198 0.27233627 -0.21022621 -0.22784704
0.28804266 -0.25264078 -0.03183761 0.13963342 0.025636332 -0.017079644 0.13763034 0.0254509
-0.283076 -0.1528586 0.19577543 0.17389823 -0.3107457 0.07696983 0.155265 0.21845284
-0.06694859 -0.014304407 -0.31239843 0.24349758 0.27844337 0.10179773 0.29086646 0.048111856
-0.070666246 -0.2551338 0.11864991 -0.16632795 0.09419826 0.076565325 0.16256692 0.23096386
0.013979742 0.106990695 -0.15337239 -0.14093892 -0.2816473 -0.024868384 0.24197957 -0.13901182
-0.16262096 0.01874009 0.074385114 0.021170028 -0.04201776 -0.2201862 -0.17659996 -0.2339805
-0.16914651 0.25952807 -0.14205827 -0.07282429 0.2596844 -0.16181204 -0.2148935 0.17856915
0.27317983 -0.31367818 0.052781075 -0.24875239
00000000: ab33 3c3e 81dc 8b3e 2287 d43d 7a05 603e
00000010: e7d5 94bd a594 d7bd 0cbf 4fbe a284 7abe
00000020: a94e 10be c06b 2cbe 2b5b 4dbe 083d 03bd
00000030: 4775 43be d217 8abe e51d 13bd f538 763e
00000040: 0e30 b33d d523 a03e b468 2fbe 1401 11bd
00000050: 4e31 a53e 4aa0 993e e4c9 35be c346 833e
00000060: 44a8 633d 74bc a23d a32d fb3d 27ab 9e3e
00000070: 4c6a 1f3d d3b0 9c3e 4f51 8fbe 5b2d 3a3d
00000080: 2033 873e 04ab 9ebe 23b4 743c e109 97be
00000090: 1ef1 6bbe a96f 8b3e 8a45 57be bc50 69be
000000a0: 547a 933e 225a 81be 2768 02bd 10fc 0e3e
000000b0: 4903 d23c 9cea 8bbc f8ee 0c3e 687e d03c
000000c0: 56ef 90be f786 1cbe 5b79 483e 6112 323e
000000d0: 0f1a 9fbe 5ca2 9d3d cafd 1e3e 1ab2 5f3e
000000e0: 581c 89bd 085d 6abc b0f2 9fbe 6e57 793e
000000f0: 2190 8e3e 547b d03d 73ec 943e f010 453d
00000100: 77b9 90bd e6a0 82be b9fe f23d e051 2abe
00000110: 04eb c03d 48ce 9c3d f177 263e ca81 6c3e
00000120: 4a0b 653c f01d db3d a70d 1dbe 4b52 10be
00000130: 1334 90be c8b8 cbbc 7ec9 773e 1d59 0ebe
00000140: 1c86 26be d184 993c 3957 983d c46c ad3c
00000150: d11a 2cbd 7e78 61be 9fd6 34be 9698 6fbe
00000160: be34 2dbe dde0 843e b977 11be e724 95bd
00000170: 5bf5 843e 0eb2 25be 0b0d 5cbe d5da 363e
00000180: 3ade 8b3e 6d9a a0be f830 583d f2b8 7ebe

self_attention_heroes.key_projection.bias f4 [10]
-0.31269577 0.2086504 0.30050886 -0.30134708 -0.22415984 -0.042877264 0.01202452 -0.07745456
0.026855482 0.05706167
00000000: a919 a0be 73a8 553e 4cdc 993e 2a4a 9abe
00000010: 288a 65be 12a0 2fbd 7e02 453c 7fa0 9ebd
00000020: 0700 dc3c 7fb9 693d
