d2calcbot/main/calc_bot/actual_models/dota_model_ver0_1.pth (torch, 8366 bytes, 15 tensors)

branch_t.fc1.weight f4 [5, 9]
000000 54 54 89 bd 0e d3 85 be f3 37 3e be 80 12 87 bd
       -0.067055374 -0.26137584 -0.1857603 -0.065953255
000010 9f 6b 8b 3e 56 ee 79 3e 90 ab 91 bd 5c 38 8f be
       0.27230546 0.24407324 -0.07112801 -0.27972686
000020 db c3 62 be 8d 59 60 3e 33 bc 88 be 39 08 0c 3e
       -0.22145025 0.21909161 -0.26706085 0.13675012
000030 a3 36 3d 3e 8b a0 6f be 65 25 8c 3e b0 58 a6 be
       0.18477874 -0.23401086 0.2737228 -0.32489538
000040 5c 19 20 3e e6 f5 74 3e 8f 71 42 3e 49 ea ae 3d
       0.15634674 0.23921928 0.18988632 0.0854078
000050 75 f1 9d bd 3d 50 01 3d 79 29 9d 3e 34 c0 96 be
       -0.0771207 0.03157066 0.30695704 -0.29443514
000060 8c e2 63 3e 81 37 ae 3c 0a 8f 3e 3d 99 41 27 3e
       0.2225439 0.0212667 0.04652313 0.16333617
000070 3f e3 5d bd fe 25 11 3e c4 39 42 be 00 1d a7 be
       -0.054171797 0.14174649 -0.18967348 -0.32639313
000080 b7 1b 32 3d bd d3 18 be ae fc 5d be 3e b0 f8 3d
       0.043483462 -0.14924522 -0.21678421 0.121429905
000090 46 9b d7 bd 56 17 f0 bd 88 48 3a be c0 66 1f be
       -0.10527663 -0.11723201 -0.18191731 -0.1556654
0000a0 c0 2b 82 be 9e 9d 7e 3e 8d e9 9e 3e e3 01 8b 3e
       -0.25424004 0.24864814 0.3103756 0.27149877
0000b0 9e 7f 3f be
       -0.18701026

branch_t.fc1.bias f4 [5]
000000 32 b4 a1 be f4 34 ff bc 50 be ef 3b 07 98 47 be
       -0.3158279 -0.03115318 0.007316388 -0.19491588
000010 06 c8 7b be
       -0.24588022

branch_p.fc1.weight f4 [5, 9]
000000 5d ca 32 be 10 73 28 bd c0 0c a1 be af 05 60 be
       -0.17460008 -0.041125357 -0.3145504 -0.21877168
000010 f3 b9 8d 3e ee 0e 56 3c 4c 22 93 3e 30 cb 01 bd
       0.2768093 0.013065083 0.28737104 -0.031687915
000020 ee 9d 07 3e 03 1d a0 3e 5f 24 53 bd 27 06 8a 3e
       0.13243839 0.31272134 -0.051548358 0.2695782
000030 d7 25 9d 3d 1c 9c cc 3d 0e 63 73 bd 44 af 3b 3e
       0.07673233 0.09990713 -0.059420638 0.18328577
000040 b7 53 93 3e 9b d8 cd bb a8 8f 26 be 9c 83 a4 bd
       0.28774807 -0.006281925 -0.16265738 -0.08032915
000050 10 b1 fd bd e2 4a 2e 3e 6c 81 a6 bd e0 b5 9c be
       -0.123872876 0.17020753 -0.08130154 -0.3060751
000060 3d e5 a3 3e c0 a4 be bd 68 21 40 3d 8c 27 96 3d
       0.32010832 -0.09308767 0.04690686 0.07331762
000070 a0 ff 0d bc 30 c8 a2 bd a8 8d 54 bd 7b 9b 00 be
       -0.008666903 -0.07948339 -0.051892906 -0.12559311
000080 20 81 1d be 5c 76 d7 3d 95 42 86 3e 6d 48 9a 3e
       -0.15381289 0.10520622 0.26222673 0.3013338
000090 a2 b7 2d 3e 6b ca 94 3e 4c b4 35 be 9c 85 6b bc
       0.16964582 0.29060683 -0.17744559 -0.014375117
0000a0 7c 3b 22 3e 04 21 9a 3e 1d 13 8d be bd be 9e be
       0.15843004 0.30103314 -0.27553645 -0.31004897
0000b0 0d 1d 07 3e
       0.13194676

branch_p.fc1.bias f4 [5]
000000 1c c8 1b 3e 03 5a 05 be c4 5b a3 be 0f 9c a5 be
       0.15213054 -0.13022618 -0.3190595 -0.32345626
000010 15 90 3b 3e
       0.18316682

branch_h.fc1.weight f4 [5, 9]
000000 18 4b 73 3d 14 33 a8 be f6 d3 4c be 88 0e 28 bd
       0.059397787 -0.3285147 -0.20002732 -0.041029483
000010 88 72 01 3d b3 6b 32 be b2 34 64 3e 50 fc 95 be
       0.031603366 -0.17423896 0.22285727 -0.29294062
000020 38 7d 20 3e 00 42 44 be 8e 5c 42 be f0 2c 25 be
       0.15672767 -0.19165802 -0.1898062 -0.16130424
000030 c2 58 54 3e f5 ce 94 3e 2c fe 85 bd 18 32 9b be
       0.20736983 0.29064146 -0.0654262 -0.30311656
000040 40 6d 86 3c 10 24 8f 3d 8c 9a 85 3e 3a 28 3b be
       0.016409516 0.069893 0.26094472 -0.18277064
000050 56 69 66 be c7 60 4b 3d e9 42 4e 3e e7 41 3a 3e
       -0.2250112 0.04965284 0.20142712 0.18189202
000060 75 e3 92 3e 76 84 10 be e8 1e c1 3b 95 d4 45 3e
       0.2868916 -0.1411303 0.005893577 0.19319375
000070 96 e2 35 3e d6 dc 80 be f9 ca ae 3d ec 7b 32 be
       0.17762217 -0.25168484 0.08534808 -0.17430085
000080 c5 80 9b bd bf bc c7 3c 85 d3 9d 3e 52 ec 51 3e
       -0.0759292 0.024381993 0.3082544 0.20500305
000090 13 cd 18 be a8 ef 52 bd 20 1c 85 bd a4 ab a9 3d
       -0.1492198 -0.051498085 -0.06499505 0.08284691
0000a0 e8 18 1c be 00 81 5f 3c ac e1 a5 bd a4 39 f3 3d
       -0.15243876 0.013641596 -0.08099684 0.118762285
0000b0 4f f1 96 be
       -0.2948098

branch_h.fc1.bias f4 [5]
000000 b4 4e 9f bd cc 1a 9d be 57 f5 a9 3e d3 9e 77 be
       -0.07778683 -0.30684507 0.33194992 -0.2418168
000010 00 7c bb 3c
       0.022886276

self_attention_players.query_projection.weight f4 [10, 10]
000000 b4 95 7a 3e 7d 97 91 be 70 84 cc bc ca 0a 43 3e
       0.2447117 -0.2843589 -0.024965495 0.19047084
000010 1a ae 07 be 39 b0 92 be 1f 07 8d bd e4 c6 1e be
       -0.13250008 -0.28650072 -0.06886124 -0.15505558
000020 c6 77 30 3e dc 17 7e 3e c7 c8 dd 3d e6 d2 22 be
       0.1723319 0.24813789 0.10829311 -0.15900764
000030 98 fd 97 3d 68 b4 8d bd ad be e1 b9 50 eb 95 3e
       0.07421416 -0.069191754 -0.0004305741 0.29281092
000040 af ab 9f 3e 5f 7c 8e 3e 60 df 2f 3e 3e 39 80 be
       0.31185672 0.27829263 0.17175055 -0.25043672
000050 6a 87 a3 3e fc e4 e9 bd 37 3e 07 be 77 36 91 be
       0.3193925 -0.114206284 -0.13207327 -0.28361866
000060 ee 01 39 3d e2 85 6a be 7a 7d b2 bc 80 85 f5 bc
       0.045167856 -0.22902635 -0.021788348 -0.029970884
000070 5d d8 82 3e 60 db e4 3c e0 cb 92 be 43 58 c9 bd
       0.25555697 0.027936637 -0.2867117 -0.09831288
000080 a8 20 81 be 7d 15 82 3e f0 3a 54 3d 45 5d a6 bd
       -0.25220227 0.2540702 0.05181402 -0.081232585
000090 1f ba 0e be d7 8a 95 be 99 e8 94 3e 62 79 bb bd
       -0.13938187 -0.2920749 0.29083708 -0.09154011
0000a0 2f 11 0a 3e 8c bc 68 be 66 ff 91 be a9 3a 97 be
       0.13483118 -0.22728175 -0.28515166 -0.29536942
0000b0 74 f3 aa 3d e5 ce 80 be 7e 2b 96 3e 54 96 a4 bd
       0.08347216 -0.25157848 0.29330057 -0.08036485
0000c0 0f b9 2d be fd 22 90 be 55 ef 75 3e 61 f5 a9 bc
       -0.16965126 -0.28151694 0.24017079 -0.020746889
0000d0 81 54 19 be 36 df 55 be 43 07 2f 3c 3b ad 17 3e
       -0.14973642 -0.2088593 0.010682884 0.14812176
0000e0 75 c2 63 3d 24 3d 04 be 80 01 54 be b3 0c 83 3e
       0.05560537 -0.12913948 -0.20703697 0.25595626
0000f0 8f 6e 7c 3e 42 04 75 be bc 5d 9f 3d c4 ff b9 3d
       0.2465155 -0.23927405 0.0778155 0.090819865
000100 94 dd 6d be 29 e8 d9 bd 8d e1 96 be a2 e1 69 3e
       -0.23229057 -0.10639984 -0.29468957 0.22839978
000110 a3 14 50 be c8 0f 53 3e 14 4d 83 be c9 75 9e 3b
       -0.20320372 0.20611489 -0.25644743 0.0048358184
000120 82 0b 8a be 08 e2 3b 3d d1 86 70 bd 25 f9 9c 3e
       -0.26961905 0.045869857 -0.05872232 0.30658832
000130 4d cd e4 3c a6 a0 c9 bd 3f a7 a1 be ba 49 71 be
       0.027929926 -0.098450944 -0.3157291 -0.2356328
000140 24 ab 91 3e b6 38 8d be de 67 a8 bd 92 38 10 3e
       0.28450882 -0.2758233 -0.08222936 0.1408408
000150 37 a9 26 be 8c de 70 bd 66 b3 0a 3d a0 f8 af bd
       -0.16275488 -0.058805987 0.033862494 -0.08592343
000160 34 6b c7 3d f2 bc 72 3e cf ca c3 3d d1 ff 83 3e
       0.09737244 0.2370489 0.09560167 0.2578111
000170 0e 63 15 be e8 b4 6f be 1c c6 da 3d 2b 51 0c be
       -0.14588568 -0.23408854 0.106823176 -0.13702838
000180 57 75 4a 3d 68 66 18 3d 86 f4 e4 bd e5 22 76 be
       0.04942831 0.037207037 -0.11179452 -0.24036749

self_attention_players.query_projection.bias f4 [10]
000000 b2 84 8e be c8 a8 7a be f3 5a 87 be 67 b8 67 3d
       -0.27835613 -0.24478447 -0.26436576 0.056572344
000010 70 5e 80 bd f7 d7 47 be 8f 94 3e 39 ef 8b 17 3e
       -0.062680125 -0.19515978 0.00018175154 0.14799474
000020 10 d3 0f 3e 04 b8 97 be
       0.14045358 -0.2963258

self_attention_players.key_projection.weight f4 [10, 10]
000000 60 ac 5d be e4 92 4d 3c 6b a3 5c be 58 76 36 3d
       -0.21647787 0.0125472285 -0.21546714 0.044546455
000010 e2 a6 45 be 0e f5 38 bd a8 a0 c9 bb a8 08 4a 3d
       -0.19301942 -0.045155577 -0.006153185 0.04932466
000020 a8 a6 3c bd 4c 86 cb bd b2 d9 70 3e d1 05 8c be
       -0.046057373 -0.099377245 0.23520544 -0.27348188
000030 4d 23 84 3e ca 8e 93 bd 5d 0b 74 be ae b2 84 3e
       0.25808182 -0.07204969 -0.2383246 0.25917572
000040 f3 ce 55 3a d1 34 57 be 70 16 dc bc a6 28 a8 bd
       0.0008156143 -0.21016242 -0.026866168 -0.08210878
000050 96 07 57 be d9 ce 4e be 55 8a 48 be 02 68 70 be
       -0.20998988 -0.20196094 -0.1958402 -0.23477176
000060 45 9f 86 be dd 96 a0 be 9e fb 97 3e c0 ce 4d bd
       -0.26293388 -0.313651 0.29684156 -0.050246
000070 f0 0a 75 3d 9a 07 cc bd 70 da b5 3c 94 20 be 3c
       0.059824884 -0.099623874 0.022198886 0.023208894
000080 48 57 13 3d c4 e4 82 bd 40 ac 61 3e f1 ae 8d 3e
       0.03597191 -0.0639129 0.22038364 0.27672532
000090 4d 9b 0a be de 8f 74 3e b6 cb 0c 3e 30 df aa 3a
       -0.13535805 0.23883006 0.13749585 0.0013036486
0000a0 04 62 05 be 8b 76 5f be 30 33 da bd 98 87 4d bd
       -0.13025671 -0.21822564 -0.106542945 -0.05017814
0000b0 85 b0 20 3d 70 66 4b be 0f d3 49 3d a1 d3 9e 3e
       0.039230842 -0.19863296 0.049273547 0.31020835
0000c0 4b ab 92 be 4a 0b 75 be 68 35 f4 ba ff 57 11 3e
       -0.2864631 -0.23930088 -0.0018631639 0.14193724
0000d0 e4 21 ad bd c4 27 1e be 4c dc 53 be b1 18 97 bd
       -0.0845373 -0.15444857 -0.20689505 -0.073777564
0000e0 c7 61 95 bd 26 4a 6c 3e a0 c5 7d 3d c2 c5 c6 bd
       -0.0729404 0.2307516 0.061956048 -0.09705688
0000f0 c2 9f 80 3e 68 d3 64 be b4 0b 33 be fc 9f f8 3d
       0.25121886 -0.2234627 -0.17484933 0.121398896
000100 3c e7 8f be da de 58 be 45 29 88 be 1e ec 3c 3e
       -0.28106105 -0.21178761 -0.26593986 0.18449447
000110 b8 7c 7c 3d 9b d6 1c 3e ca 31 84 3d e8 fa 37 be
       0.06164238 0.1531624 0.06454809 -0.17966807
000120 d3 e6 39 be 5c 71 7b be fa 70 78 3e 0b 73 9d be
       -0.18154459 -0.24554962 0.24261847 -0.30751833
000130 57 b4 ca bd de fc 01 3e 42 d2 8c be 75 ea 2c 3e
       -0.09897678 0.12694117 -0.27504164 0.16886313
000140 f7 32 65 3e 96 f2 4f bd fa fc d7 bd a0 0c ce 3d
       0.22382723 -0.050768457 -0.10546298 0.10061002
000150 62 22 82 3e 0b 4c d4 3d f9 a1 7a 3e 7c 03 e8 3d
       0.25416857 0.103660665 0.2447585 0.113287896
000160 10 b1 4a 3d b1 33 85 bd 7f 61 51 3d 4d e0 33 3e
       0.049485266 -0.06504 0.05111837 0.17566033
000170 7c ea 33 3e 0c 58 8f be 63 e3 4d be 67 39 62 3e
       0.17569917 -0.27996862 -0.20106272 0.2209221
000180 50 1d 02 be 20 03 7a bc e7 b7 82 be 6e f8 74 3e
       -0.12706494 -0.015259534 -0.2553093 0.23922893

self_attention_players.key_projection.bias f4 [10]
000000 cb 30 4a 3e 82 bf 0e 3d c9 e7 ce bd ac 8b 34 be
       0.19745176 0.034850605 -0.10102803 -0.17631406
000010 01 5a 3d bd 87 ac cc 3d 59 e3 f2 bc d4 96 1d bd
       -0.046228413 0.099938445 -0.029649423 -0.03847392
000020 dc 29 18 3d a6 82 89 3e
       0.037149295 0.2685749

self_attention_players.value_projection.weight f4 [10, 10]
000000 de 31 4a 3e 60 c3 0c be 67 9b 15 be 16 1c 4e 3e
       0.19745585 -0.13746405 -0.14610063 0.20127901
000010 ce ed 74 3e cb 85 57 be cf d1 1a be 58 f5 20 3d
       0.2391884 -0.21047132 -0.15119098 0.039296478
000020 7a 17 a0 bd 9b 49 85 be 88 96 05 3e ad 13 d9 3d
       -0.07816978 -0.2603272 0.13045704 0.10599456
000030 61 ec 1a be 18 5b 4d 3d 63 6a 46 3d ba 50 67 be
       -0.15129234 0.050135702 0.048441302 -0.22589388
000040 e0 7d ff 3d 1b 56 87 be 30 37 f9 3c 32 8a 74 3e
       0.124751806 -0.2643288 0.030421823 0.23880842
000050 5d a3 9f be c0 2a 17 bc 70 df 7b bd dd e5 8c 3e
       -0.31179324 -0.009226501 -0.061492383 0.27519122
000060 3f 04 33 3c 93 c9 28 be 58 15 99 bc 0a 64 46 3e
       0.010926305 -0.16483144 -0.018686935 0.193741
000070 10 52 e8 3d 12 47 98 be ab 25 87 3e 5e 78 7f 3e
       0.11343777 -0.29741722 0.26395926 0.2494826
000080 de 68 65 3e 7c 7a 64 be f1 62 2b be a7 d9 90 be
       0.22403285 -0.22312349 -0.16736962 -0.28291056
000090 a5 7d ab 3c e8 1c 93 bd ae 2f 53 3e 95 37 9c 3e
       0.020933935 -0.07183248 0.20623657 0.30511156
0000a0 f8 9b 78 be aa 4b 4b be 30 d1 13 3d 9d 22 10 be
       -0.24278247 -0.19853082 0.03608817 -0.14075704
0000b0 69 5b 38 bd 6e aa 88 bc 7d fe 95 3e 10 73 9e bc
       -0.04500905 -0.01668283 0.29295722 -0.019341975
0000c0 cf 2d 0d be af 90 a9 3d 6e ec 8a 3e a7 26 75 3d
       -0.13787006 0.08279549 0.27133507 0.059851315
0000d0 45 e3 8a be 28 74 38 3d fe fc 21 3e ce 57 87 3d
       -0.27126518 0.04503265 0.15819165 0.06608544
0000e0 ff 99 63 be 1c 6a ab 3d 88 77 28 3e b3 24 36 3e
       -0.22226714 0.08369848 0.16451848 0.17787437
0000f0 49 ca 8d 3e 26 ad fd bd d5 c9 95 be c4 4b d3 bd
       0.27693394 -0.12386541 -0.29255548 -0.103171855
000100 a9 3b 62 be c7 e6 f6 bd 96 b9 17 3c c7 ab 97 be
       -0.22093071 -0.12055736 0.009260556 -0.29623243
000110 30 04 bf 3c d3 bf 88 3e 43 82 e8 3d 57 80 3b be
       0.023317426 0.2670885 0.113529705 -0.18310677
000120 f8 1a 16 3e 80 1f 7a be a6 8c 41 be 12 6d 75 3e
       0.14658725 -0.24426079 -0.1890131 0.23967388
000130 a4 8b 0b be e0 dd c0 3c aa f7 29 be 1d 11 30 3e
       -0.13627487 0.023543298 -0.16598383 0.17194028
000140 94 e4 9c bc ae 4c a7 bc 6f a5 8d be ae 55 71 3e
       -0.019151963 -0.020422306 -0.27665278 0.2356784
000150 02 47 f2 3c 63 50 d2 bd 96 03 63 be 3a 73 14 3e
       0.029574875 -0.10269239 -0.22169337 0.1449708
000160 ea 15 7b 3e 0d 39 a9 3d f3 b8 7c 3e c4 51 27 be
       0.24520078 0.08262835 0.24679928 -0.16339785
000170 f2 6f 7a 3e ba e7 46 be 7f a2 03 be aa 81 a2 be
       0.24456766 -0.19424334 -0.12854956 -0.3173955
000180 13 9f a3 3e f6 d0 a6 bd 80 80 55 be 8b 01 64 bd
       0.31957301 -0.08145325 -0.208498 -0.055665534

self_attention_players.value_projection.bias f4 [10]
000000 b5 7c d6 bd f0 73 95 3e 87 1c 8b 3e 52 53 60 3d
       -0.10473005 0.29190016 0.27170202 0.05476696
000010 8c f7 ae 3c 16 9c 3c be c5 4b 58 be 5d 5b 6a be
       0.021358274 -0.18418917 -0.21122654 -0.22886415
000020 e2 b6 1c be 67 8d 42 3e
       -0.1530414 0.18999253

self_attention_players.output_projection.weight f4 [10, 10]
000000 35 3a 77 bd 93 aa 64 3d 85 4c 9d 3d 0d 89 65 3e
       -0.060358245 0.055826735 0.076806106 0.22415562
000010 03 53 30 be 75 1c 30 3e 7d 7c 59 be cf fb 85 be
       -0.17219166 0.17198355 -0.21238895 -0.26168677
000020 f9 d8 91 3e af ae 4f be 04 94 5b bd 56 7e 5d be
       0.2848585 -0.2028148 -0.053607956 -0.21630225
000030 55 b8 0c 3e 77 ee 64 bd 71 15 31 be 83 9e 1b 3e
       0.13742192 -0.05589148 -0.17293335 0.15197186
000040 79 9b 5f be b7 e8 1d bd 46 2b 22 bd 75 58 2b be
       -0.21836652 -0.038552012 -0.03959205 -0.16732962
000050 5e 23 71 be f7 85 bc 3d c8 61 8c 3e 6d c4 89 3e
       -0.23548648 0.09205239 0.2741835 0.26907673
000060 47 7e 81 be b4 ab 80 be 50 ef 4d 3e 56 81 19 3e
       -0.25291654 -0.25131 0.20110822 0.14990744
000070 4f 98 39 be ba 51 4b 3e 17 98 4d be ab 5f 53 be
       -0.18124507 0.19855395 -0.20077549 -0.20641963
000080 6b f8 eb 3d 19 40 82 bd d3 94 74 3e 44 aa 6c bd
       0.11521991 -0.06359882 0.23884897 -0.057779565
000090 cb 2f c7 3d 60 4c 95 3e 7c 7f 15 be 05 3e 1d 3d
       0.09725913 0.29159832 -0.14599413 0.038389225
0000a0 09 dd 8b 3e 54 cd 75 3e a6 9d a6 3d e0 ac 48 be
       0.27317074 0.24004108 0.08135538 -0.19597197
0000b0 94 f6 0c 3e 39 f7 8d be 00 bb 31 3e 48 c1 2d 3d
       0.13765937 -0.27727678 0.17356491 0.042420655
0000c0 70 5c 62 be de 54 35 3d be eb 8c be 95 bf d5 3d
       -0.22105575 0.04427039 -0.27523607 0.10436932
0000d0 af d7 8a bd 4c cf 29 bd 91 ac d4 3c 2d 67 e7 3d
       -0.0677942 -0.04145746 0.025961192 0.11298976
0000e0 79 79 08 3e 18 2e 7c 3e ff 27 30 3e be 24 66 be
       0.13327588 0.24626958 0.17202757 -0.22474954
0000f0 04 c2 f3 3b 53 39 02 bc 77 d5 45 3e bb 17 9b be
       0.0074389 -0.0079482375 0.19319712 -0.30291542
000100 3d 72 8c be 47 40 38 bd 94 9f 96 be a4 3d 65 3d
       -0.27430907 -0.044983175 -0.29418623 0.05596699
000110 cf 6e cd 3a 7f 3b 76 3e ff f4 3a bb 6b 9c 3f 3e
       0.0015673282 0.24046133 -0.0028527377 0.18712012
000120 81 b5 3c be 4c 0f ad 3d 2c f3 2f be 73 8f b3 bd
       -0.18428613 0.08450183 -0.17182606 -0.08767595
000130 7d 2a 91 3e f6 f0 4f 3e 26 05 90 3e ae 6e ae bd
       0.28352728 0.20306763 0.28128928 -0.08517204
000140 f3 40 97 be c1 69 c2 3d ee 11 3a bc 3a f3 4b be
       -0.2954174 0.09492827 -0.011356814 -0.19917002
000150 4a 7b b8 bc dd b3 ea 3d a2 86 7e 3e 21 5d 77 be
       -0.022519726 0.114600874 0.24856046 -0.2415662
000160 c0 90 68 be 33 c6 97 3e 50 62 84 bc 26 72 30 be
       -0.22711468 0.29643402 -0.01616016 -0.17231044
000170 76 37 24 3d f2 a4 77 be 94 e7 9d bb 92 08 0a 3d
       0.040091954 -0.24184015 -0.004818866 0.03369958
000180 eb 4d 16 3e 4e 0c ad bc a1 d4 9e be 45 c6 13 be
       0.14678161 -0.021124031 -0.31021598 -0.14431103

self_attention_players.output_projection.bias f4 [10]
000000 85 fd 9a bd 22 cb 2a be 0e 09 3e 3e 21 17 19 3e
       -0.07567886 -0.16679052 0.18558142 0.14950229
000010 ac 98 02 3c bd 76 8b bc a5 41 0d 3e 77 90 84 be
       0.00797097 -0.017024392 0.13794573 -0.25891468
000020 73 36 2c 3e d7 cf 7c be
       0.16817646 -0.2468866

fc.weight f4 [1, 70]
000000 15 d1 6f bd a2 e5 26 bc d5 63 c3 bb 07 f4 e0 bb
       -0.058549006 -0.010186585 -0.0059628286 -0.006865028
000010 1c 36 d1 3c 6c 71 e9 3c 6f 32 98 bd e6 cc ce 3c
       0.025538497 0.028496467 -0.074314944 0.025244188
000020 8a 1c bb 3d 64 4f 23 bd 03 b5 d2 bc bf d6 2e 3d
       0.09136303 -0.039870635 -0.025721079 0.042685267
000030 0c 71 1c bd ee 6b 77 3d 7d 84 e4 3d a3 2a 16 3b
       -0.038193747 0.060405664 0.11158083 0.0022913597
000040 10 aa b0 3d e6 5b c2 3d af 98 9f 3d aa 4c 91 3d
       0.08626187 0.094901845 0.07792794 0.07094701
000050 96 df 35 3d 1a 9e 59 bd d1 a1 a7 bd 7b 86 aa bd
       0.04440268 -0.053129293 -0.08185161 -0.08326431
000060 3e b3 34 3d 9e 43 21 3d 92 e1 29 bd 04 53 24 bb
       0.04411625 0.039371125 -0.041474886 -0.0025073895
000070 3b 09 e5 3d fd 4f 89 bd 96 96 46 bd 44 20 b0 bd
       0.11183401 -0.0670471 -0.048483454 -0.08599904
000080 14 0f 18 3d 70 4b 1f bd c8 f5 75 bc 0d 86 b4 3d
       0.037123755 -0.038890302 -0.015012212 0.08814631
000090 d0 9a f2 bd 21 c8 40 3d 7d 1c 06 bd 60 e3 98 bc
       -0.118459344 0.047065858 -0.032742012 -0.018663108
0000a0 bf eb b5 3d 0e b4 dc bd 09 23 27 3d 82 2f e1 3c
       0.088828556 -0.1077653 0.040804897 0.027488474
0000b0 a0 f5 cf bb 58 5c 06 bc 8e ef 5f 3d e6 16 49 bd
       -0.0063464195 -0.008200727 0.054671817 -0.049094103
0000c0 a0 34 6f 3d 75 69 b9 3d fa 7a 41 bd 2e 25 52 3d
       0.058399796 0.090533175 -0.04723642 0.05130499
0000d0 9e 2d cb bd 40 95 8a 3d 05 c8 b5 3d 47 2e 92 3d
       -0.0992081 0.067667484 0.08876041 0.07137733
0000e0 7b 6f a8 3d e6 bf 3c 3d df fe df 3d 38 b0 46 bc
       0.08224388 0.046081446 0.10937285 -0.012126975
0000f0 d8 2b b2 bd c0 b8 1e bc ef 2f d4 3d bc 2c d8 bd
       -0.08699769 -0.0096876025 0.10360705 -0.105554074
000100 f8 ae 15 3c 3c 53 9d 3c 71 d3 84 3d 3c ae f9 bc
       0.009135954 0.019204728 0.06485642 -0.03047859
000110 79 c2 d9 3d a9 bc cb 3d
       0.10632796 0.099480934
