d2calcbot/main/calc_bot/actual_models/dota_model_ver0_1.pth (torch, 27614 bytes, 31 tensors)

branch_t.fc1.weight f4 [9, 9]
00000000: acba 0b3e 1ab5 a8be 24a3 e23d 13ce a73e
00000010: 6c68 493d 7e87 4e3e 122f 2b3d 0a39 05bd
00000020: 5876 a0be 3702 7cbe 9c73 093e b085 3a3e
00000030: 7a74 c7bd 2292 79be 1273 90be 5d2e 1abe
00000040: 8ce3 5dbd e53f 2dbe a4d1 dbbd 3075 c4bd
00000050: de65 723e 8fe8 4ebe 2a74 163d 3c5f 7fbe
00000060: f274 013c 82f0 8dbd eae1 15be e854 b6bd
00000070: 7f71 58be 96e7 603e 55cc 823e eb22 833e
00000080: 30b1 a4be 5e0f 613e 1ee2 96be dab2 6fbe
00000090: 1a85 51be 56bf 94be 2490 e0bc 6ca6 6e3d
000000a0: c981 933e 5e79 7e3e 1205 80be d23c 983d
000000b0: 1700 50be 48d8 d43d 940d f63c 1b8a 983e
000000c0: d256 10bc 7425 3a3e 7821 9dbe d6cd 93bd
000000d0: 506b eb3d 420e 113e 1f4c a53e 3498 fd3c
000000e0: a60e 683e 840f 6fbc a4e9 c33d cee9 99be
000000f0: caf8 443e e2bb 9cbe 42d4 90be 7229 97bd
00000100: b6a5 793e ba01 7abe 2d91 813e b07f 24be
00000110: e4c8 41bc 5b4b a93e 4473 fabd 8a5a 1c3e
00000120: f4f8 233e a094 e7bd 32b6 9e3c b1bd 943e
00000130: 24f0 fb3c d505 86be 6cc9 53be 625a 7cbe
00000140: 885f 23be
0.13645428 -0.3295067 0.11066273 0.3277441 0.04917185 0.20168874 0.041792937 -0.0325251
-0.3134029 -0.2461022 0.13423008 0.1821506 -0.09739013 -0.24372151 -0.28212792 -0.15056749
-0.054172084 -0.16918905 -0.10733345 -0.09592664 0.23671672 -0.20205902 0.036731876 -0.24938673
0.007901417 -0.06930639 -0.1463696 -0.08902913 -0.21137045 0.21963343 0.25546518 0.25612578
-0.32166433 0.21978518 -0.2946939 -0.2340807 -0.2046093 -0.29052228 -0.027412482 0.05826418
0.28809956 0.24850985 -0.25003868 0.074334756 -0.20312534 0.10392815 0.030035771 0.29792866
-0.008809762 0.1817835 -0.30689597 -0.072169945 0.114950776 0.14165595 0.32284638 0.030956365
0.22661838 -0.014591102 0.09566048 -0.3006119 0.1923553 -0.30612093 -0.2828694 -0.07380952
0.2437962 -0.24414721 0.25306073 -0.16064334 -0.011827681 0.33065304 -0.122290164 0.15268913
0.16012937 -0.11307645 0.019373987 0.29050973 0.030754156 -0.26176324 -0.20682305 -0.24643853
-0.15954411

branch_t.fc1.bias f4 [9]
00000000: 7243 153c 5c4f 063e e8bd b5bd 949a 163e
00000010: 5b38 8f3e 0470 763d 9feb a43e 429c 94be
00000020: 4c2d 42be
0.0091103185 0.1311621 -0.08874112 0.14707404 0.27972683 0.06016542 0.32211015 -0.29025465
-0.18962592

branch_p.fc1.weight f4 [9, 9]
00000000: e49d cbbb 047a debd d058 cf3d 0c45 293e
00000010: 08d2 d43d 7242 4bbe 3273 18bd d9e4 a9be
00000020: 8eb6 813d beab ab3d 2915 a83e 16b3 8dbe
00000030: 2ae3 d7bd 248b 073e ccb3 223e 92f6 06bc
00000040: baf9 1e3d 0b61 883e 6ec6 553e 77fb 8e3e
00000050: 1080 80be 8523 883e 748e fb3c f23a 3d3b
00000060: a02a 0b3e 10c9 1b3e 2451 6abe 91e2 a23e
00000070: d0db 3d3e 92f9 563e a9b5 9dbe 5a9c 7b3e
00000080: 3259 a13d ca96 33be 423c 9bbc fe58 8fbd
00000090: dfa2 a73e a682 5b3e 8c35 5ebd 74db 1a3e
000000a0: ba4f 3b3d 6a85 38be 52ec 113d a848 90be
000000b0: 4414 5dbd 82d8 41be c71e 74be f7a7 813e
000000c0: 8aeb 2ebe b6fa 4f3e bdbf 9e3e 27b1 8c3e
000000d0: 2c4d 693d 1227 10be a68b a0bd f89f de3d
000000e0: b2d7 3dbd 94d6 d7bd 1ec4 98be ccd6 2d3e
000000f0: 865b 6f3e 0ba4 a93e 6be7 a33e 0ee7 a3bd
00000100: b2a8 1cbe 9634 443e 0210 813d ce62 9b3d
00000110: bb70 a43e 2da3 0dbe 8ce0 55be 6064 17be
00000120: d4a5 edbc 9a50 51be 6a5f 7c3e 1e8f 793e
00000130: 9622 ba3d b58f 20be 6e94 8fbd ea0f 673e
00000140: bd48 92be
-0.0062138904 -0.108631164 0.101243615 0.16530246 0.10391623 -0.19849566 -0.037219234 -0.3318241
0.06333648 0.083823666 0.32828644 -0.27675694 -0.10541375 0.13236672 0.158889 -0.008237498
0.038812377 0.26636538 0.20876476 0.27926227 -0.25097704 0.265896 0.030707575 0.0028874245
0.13590479 0.15213418 -0.22882515 0.3181348 0.18540883 0.20993641 -0.30802658 0.24571362
0.07878341 -0.1753799 -0.018949632 -0.06999396 0.32741448 0.21436557 -0.054250285 0.15122777
0.04573033 -0.18019643 0.035625763 -0.28180432 -0.053974405 -0.18930247 -0.23839866 0.2532346
-0.17082039 0.20310482 0.3100566 0.27478907 0.056958362 -0.14077404 -0.07839136 0.10870355
-0.04634828 -0.105389744 -0.29837126 0.1697647 0.23374757 0.33132967 0.32012495 -0.080030546
-0.15298727 0.19160685 0.063018814 0.07587205 0.32117257 -0.13831778 -0.20886439 -0.14784384
-0.029009737 -0.20440903 0.24645773 0.24371001 0.09088628 -0.1567982 -0.070107326 0.22564664
-0.2857112

branch_p.fc1.bias f4 [9]
00000000: 98ab 0bbe 1293 86bd a6de be3d 5e3f 9dbd
00000010: cadc 103d 341f d6bc da45 363d 3953 8e3e
00000020: b926 863e
-0.13639677 -0.0657102 0.093198106 -0.07678102 0.03536681 -0.026137926 0.04450021 0.2779787
0.26201418

branch_h.fc1.weight f4 [9, 9]
00000000: 2282 7fbe e46f 513b 12e9 0c3c 448a 5bbe
00000010: facb 20be 8e9f 543e dcf7 7dbd 9753 a93e
00000020: 0f54 5dbe d161 97be d318 923e 0c60 63be
00000030: 6462 fdbd 5111 a7be 52b3 89be 921c 113e
00000040: fef0 903d c0a1 90be 222c 33be 1a99 31bd
00000050: 42a1 67be 3b4d a23e ac4e 77bd dabe 75be
00000060: 8e2c aa3d bafa 1e3e 0aae f9bd 36b7 88bd
00000070: 64b1 493b 9e3a 87bd d661 903d 11f5 99be
00000080: 204f 2fbe 84ca 6fbd 17c9 68be 0ae6 11bd
00000090: 3f2d 61be e464 82be b973 8abe d265 523e
000000a0: 6a10 173e ddaf 10be 98a8 81be 1c67 323e
000000b0: 2f95 893e 228f 9e3d cf88 46be fe1b a8bd
000000c0: c459 79bc da1e c1bd b303 9f3e ad3a 9bbe
000000d0: acde 233e 6c2b 68be f6bc 82bd 67c2 8c3e
000000e0: 4b3b 923e 4a6b 9abe 866d 773e cf57 4bbe
000000f0: c0b2 f2bd e895 b4bd 94c5 c63d be8f 403e
00000100: 9491 c6bd c67d a5bd d226 103d 2aa9 2e3d
00000110: 4ea7 9fbe ec6d 7e3d 3e21 a4be 5d76 2abe
00000120: fd70 10be b87a 193e 02d0 9fbd faaf 7abe
00000130: 1cac 81be b8bf 1abe ee00 483e 3111 80be
00000140: 954e 9a3e
-0.24951985 0.003195756 0.00860049 -0.21439463 -0.15702811 0.2076399 -0.062003955 0.33071586
-0.21614097 -0.29566815 0.28534564 -0.22204608 -0.12372282 -0.326304 -0.26894623 0.14171055
0.070772156 -0.28248405 -0.17497304 -0.0433589 -0.22620109 0.31699547 -0.06037776 -0.23998585
0.083092794 0.15525332 -0.121913984 -0.0667557 0.00307759 -0.06602977 0.07049911 -0.30069783
-0.17120028 -0.058542743 -0.2273296 -0.035619773 -0.21989916 -0.25467598 -0.27041414 0.20546654
0.14752355 -0.14129587 -0.2532394 0.17422146 0.2687163 0.07742144 -0.19388126 -0.08208464
-0.015219156 -0.094297126 0.3105751 -0.30318204 0.16002911 -0.22672814 -0.06383698 0.27492067
0.28560862 -0.3015998 0.24162874 -0.19857715 -0.118505 -0.08817655 0.09705654 0.18804833
-0.096957356 -0.0808063 0.035193272 0.042641796 -0.3118233 0.06211655 -0.32056612 -0.16646715
-0.14105602 0.1498822 -0.07803346 -0.24481192 -0.25326622 -0.15112197 0.19531605 -0.25013116
0.30138078

branch_h.fc1.bias f4 [9]
00000000: 7ee3 a4bd c252 ab3c 7848 b9bd 8e15 793e
00000010: 14f6 fa3d c0b2 c0bd c7d5 7cbe d568 a53e
00000020: 1c17 083e
-0.08051203 0.020913485 -0.090470254 0.24324629 0.12253967 -0.09409094 -0.24690925 0.32306543
0.13290066

self_attention_players.query_projection.weight f4 [16, 18]
00000000: 4620 b9bd e6ed ca3d 3894 b03d d4ba 4e3c
00000010: 6b8e 373e 16dc 3f3d a917 eebd 5043 953d
00000020: 79c6 523e 9040 4fbe 2426 c6bb dc97 ef3c
00000030: 9c88 57be c8ab 5b3d 5181 083e 4d59 0fbe
00000040: e07f 8bbd ed5f 6ebe 5484 433c e80b 78bd
00000050: 48d9 4e3d cfb9 183e 5e23 04be 0c28 f7bc
00000060: b2cb e73d a843 bb3d 12e1 bbbd c4c3 543c
00000070: e47e 63bd 2803 a23d a269 10bd 8036 a43d
00000080: e42f 60be d180 043e 165e 283d 3ff7 61be
00000090: 1791 2f3e 4552 333e a4e5 05be 1aeb b9bd
000000a0: 0fbb 1b3e 2df9 003e a90c 1a3e bb17 1a3e
000000b0: c9a2 62be 4acb df3d 35d2 353e 6e85 aebd
000000c0: 9275 ce3d 60f3 653d ffc4 323e 816b 4c3e
000000d0: 95ac 353e 4104 65be 76ec b6bd f5c4 353e
000000e0: 644a 86bd 8a35 cb3d e624 bfbd f14e 45be
000000f0: 50d6 43be b41b a43d 9e71 123d 3ce5 f33c
00000100: e404 eaba 5059 b23d 7533 64be 90c1 963d
00000110: d93c 283e 983e 6c3d 1b1a 25be f94e 6a3e
00000120: 307f 8cbd c1c5 39be 0be5 0b3e ea4a 57be
00000130: e2e9 b6bd 3264 273c 0d38 0d3e 8bc8 38be
00000140: 5177 1f3e f294 19bb 44df bdbd 5ad9 91bd
00000150: 6698 39bd 5a81 9bbc a659 e03d 2085 663d
00000160: 1e46 fabd 5062 ebbd be6e 34be 10b2 98bd
00000170: 24b9 37be 71a3 38be 4e66 333d b2c2 25bd
00000180: f4bb 69bc bfc8 273e be43 18bd 5668 cf3d
00000190: c10a 0d3e c6ff 3a3d 863b 1f3d 6595 50be
000001a0: 6a57 24bd 0ac7 903c 13c2 533e 7510 143e
000001b0: f559 0d3e aad3 d73d fdae 563e a8e2 d2bd
000001c0: 52c8 203c b2d0 6bbe c425 df3b 1287 b2bd
000001d0: 4a29 0ebd 44ee 983d 36cf 5cbe f9cf 0e3e
000001e0: 7a42 8bbd 8656 2e3d b3a5 13be a2e2 26bd
000001f0: 89c6 463e 5eff 043d 3070 503d acc0 48be
00000200: f6d1 bfbd 0ce8 c73c 5cf7 813d 84f2 be3d
00000210: e08b 89bd 73c5 683e fb37 443e 94be 51be
00000220: 7422 823d c842 9a3d 54de 673c f19f 413e
00000230: 656b 0f3e 7c84 cb3c 94c2 59bd f9c1 07be
00000240: f25a 9bbc 12ca f33d b200 22bd 2892 7f3d
00000250: 4cfe f83c a93b 183e 6e6c 70be 601a 39be
00000260: 9540 1b3e 28ea af3d 5249 13bc faa1 86bc
00000270: e0ea 49be 6081 463d da6d a63c f7b5 663e
00000280: cf8c 353e b6bf cabd 5c67 a13d a81d 5fbd
00000290: b123 6d3e 6553 183e 2848 66bd 301a be3d
000002a0: 01e7 1f3e 6ac3 e43d b16f 1a3e e489 f3ba
000002b0: 75ca 223e 02fa 25be 7170 2e3e 7b40 683e
000002c0: 73b0 54be 5d3d 1d3e ece5 a63d 249c 58bc
000002d0: 5c7d 50be b0c8 52bd ef79 2f3e c435 09be
000002e0: 166a 12be 5064 0ebe e150 1bbe 2a09 cabd
000002f0: b245 13bd 6419 aa3d d63f 15be 3206 cb3d
00000300: a439 06be 4e2e 01bd 2113 293e 4c91 5fbd
00000310: 621f 383c 283c 67be bb5f 35be 547a be3d
00000320: 6ed0 0dbd 6a8b f23d 187f 913d e06f 8c3d
00000330: fc3a b33d 2c77 21be c964 3f3e 1eca 6fbe
00000340: cb0c 2a3e 6d70 68be ff68 54be a6f1 b8bd
00000350: 5e28 9dbd c731 473e 6e1b b2bd ed39 0e3e
00000360: e9b3 203e 54cd ccbc 120a 12bd 36b5 e43d
00000370: 871d 223e d24b 03be 9ba4 2d3e a47c 8a3d
00000380: 0659 e63d ca28 0ebd 30f6 463d d8c4 4cbe
00000390: b679 51be 27cf 523e 2fdd 183e a7f8 123e
000003a0: fa14 cd3d ce84 2f3d b0ff d8bd f2cf a8bb
000003b0: 65f8 583e b853 25be 2b62 51be d26f a7bd
000003c0: 01c9 4a3e 1434 7bbc 3abf 94bd 4a4c 2cbe
000003d0: 141b cbbd e6e4 28bd e428 54bc f806 29be
000003e0: 9aee ddbd e45d 6539 ec57 69bd 6451 d6ba
000003f0: 0380 303e c60f e33d 085a a8bd f033 8dbd
-0.09039359 0.09908657 0.086220205 0.0126177855 0.17925422 0.04684075 -0.116256066 0.072882295
0.20583524 -0.20239472 -0.006047027 0.029247217 -0.21048206 0.05363062 0.1333058 -0.1399891
-0.068114996 -0.2327878 0.011933405 -0.06055823 0.050500184 0.1491463 -0.12904117 -0.030170463
0.11318149 0.09143764 -0.09173788 0.012986127 -0.055540934 0.07910758 -0.03525699 0.080182076
-0.21893269 0.12939765 0.041105352 -0.22066973 0.17145191 0.17511852 -0.13075882 -0.09078045
0.15208076 0.12595053 0.15043892 0.15048115 -0.2213241 0.10927446 0.17755969 -0.085215434
0.100810185 0.056140304 0.1745796 0.19962884 0.17741616 -0.22364904 -0.0893182 0.17750914
-0.06557158 0.09922321 -0.0933321 -0.19268395 -0.19124722 0.080130965 0.035752885 0.029772393
-0.0017854241 0.08708441 -0.22285254 0.07361138 0.16429462 0.05767688 -0.1612324 0.22881688
-0.068601966 -0.18141843 0.13661592 -0.21024671 -0.08931328 0.0102167595 0.13790913 -0.18045251
0.1557286 -0.0023434726 -0.092711 -0.07121535 -0.045311354 -0.018982578 0.10954599 0.0562793
-0.12220405 -0.11493361 -0.1762037 -0.07455838 -0.1794172 -0.18031098 0.043798737 -0.04046888
-0.014266003 0.16385172 -0.03717398 0.101273224 0.13773634 0.04565408 0.038875125 -0.2036949
-0.040122427 0.017673034 0.20679502 0.14459403 0.13803847 0.105384186 0.2096519 -0.102971375
0.009813385 -0.2302883 0.006809922 -0.08717169 -0.034707345 0.074673206 -0.2156342 0.13946523
-0.06799789 0.042562984 -0.14418678 -0.040743478 0.19411673 0.0324701 0.05088824 -0.19604748
-0.09366219 0.02440264 0.06346008 0.093236 -0.06716132 0.22731571 0.1916198 -0.20482856
0.06354228 0.07532269 0.014152128 0.18908669 0.14005812 0.024843447 -0.05316408 -0.13257588
-0.018964265 0.11903776 -0.039551444 0.062395245 0.030394696 0.14866509 -0.23478863 -0.18076468
0.15161355 0.08589584 -0.008989649 -0.016434658 -0.19718504 0.048463225 0.020316053 0.22530352
0.17729495 -0.09899847 0.07881042 -0.05447164 0.23158146 0.14875562 -0.056221157 0.092823386
0.15615465 0.11170085 0.1508167 -0.0018580523 0.15897544 -0.16208652 0.1703508 0.22680847
-0.20770435 0.1535544 0.08149323 -0.013220821 -0.20360321 -0.05146092 0.17136358 -0.13399416
-0.14298281 -0.13905454 -0.15167572 -0.09865029 -0.03595514 0.08305624 -0.14575133 0.09913291
-0.13107926 -0.0315383 0.16511203 -0.054581925 0.011237951 -0.22581542 -0.177123 0.09300676
-0.034622602 0.11842997 0.07104319 0.06857276 0.08751485 -0.15768117 0.1869079 -0.23416945
0.16606443 -0.22699137 -0.20743178 -0.09030466 -0.07673715 0.19452582 -0.08696638 0.13889284
0.1569363 -0.025000252 -0.035654135 0.11167376 0.15831576 -0.12821892 0.16957323 0.067620546
0.112474486 -0.03470687 0.048574626 -0.19996965 -0.20456585 0.20586835 0.14928125 0.14352666
0.100137666 0.04285126 -0.105956435 -0.005151742 0.21188505 -0.16145217 -0.20447604 -0.08175625
0.1980324 -0.015332241 -0.07263036 -0.16825977 -0.09917274 -0.04123392 -0.012949202 -0.16506565
-0.10836525 0.00021874119 -0.056968614 -0.0016351161 0.17236333 0.11086993 -0.08220297 -0.06894672

self_attention_players.query_projection.bias f4 [16]
00000000: c856 7c3d 1621 cb3d 1383 e4bd 662a 19be
00000010: 4a1e 833c e62a 2bbe b27e 273c 8c68 a4bd
00000020: 6cd1 823d 82cf 8dbc 5966 3e3e 1509 ebbd
00000030: cdce 563e b426 31be 0c4e d3bc d029 5cbe
0.0616062 0.0991842 -0.11157813 -0.1495758 0.016005654 -0.16715583 0.010223078 -0.08027753
0.063876 -0.017310861 0.1859373 -0.11476342 0.20977326 -0.1729992 -0.025794052 -0.21500325

self_attention_players.key_projection.weight f4 [16, 18]
00000000: 52d2 b9bd 6c6d 65be 689a 85bd 5b6e 17be
00000010: b307 5abe 553f 463e e38f 6a3e 9d2e 353e
00000020: 499e 3b3e 9e64 6bbe fe40 263d 2b35 4d3e
00000030: 7ebf ec3d 017a 073e 722f 8bba 38d0 6b3d
00000040: 08ce 19be 1218 10be 09d1 333e b217 cb3d
00000050: d5d8 473e f867 95bd dcd0 fcbc ca5f 0bbe
00000060: e47a bd3d e91e 4a3e 5894 5abd 8c91 9fbd
00000070: c26f 36bd 7661 d03d 347c e3bc 3381 1c3e
00000080: 8569 3a3e 6c24 00be 06ae 02be 6235 d23d
00000090: d0d8 73bd 1cea b63d 3d1f 0b3e 31a5 453e
000000a0: 10e0 67bd 8d05 4abe 5684 3fbe a626 45be
000000b0: 560c f93d 8f37 2e3e 342d 883d a581 f1bd
000000c0: ca2a 9a3c c469 ed3b c8c4 bebd 243d ddbd
000000d0: 30bd 773d a9ef 603e 4b40 693e caea f43d
000000e0: 99a3 46be b2fb ebbd c4e1 35be 5834 6fbd
000000f0: 0695 c83d 1730 603e 3318 353e 7bcc 553e
00000100: 3004 423d f275 343b d65b 80bd d97b 513e
00000110: df84 613e 0a67 38bd 1272 363c 5a5b c93d
00000120: 4914 35be fba0 513e a2f0 363c 857d 53be
00000130: dade d53d 3250 97bb 2b5c 173e 5e27 ea3d
00000140: 50bf 893d 4755 363e 7e74 e33d 7595 353e
00000150: 5763 533e 06a5 d13d ce84 9dbd 9b5f 6f3e
00000160: de02 293d 884e 46bd 4ec0 18bd f9a6 5dbe
00000170: 1471 96bd efd9 183e f7e4 5f3e 7089 b0bd
00000180: d21d 42be d453 4bbe a0b3 47be 6580 1c3e
00000190: 0795 663e a27c c63d 09d2 343e 7ade 88bd
000001a0: b978 2e3e 640a 863d fcab f43c 3a25 0ebd
000001b0: a891 623d 2749 573e 7344 6abe 6810 d5bd
000001c0: f298 983a 84ae 73bc f35d 63be 3fcf 363e
000001d0: cfc2 5d3e 648c 6dbb a629 2d3d 44ee 4dbd
000001e0: 6a6e 823c d264 66be 19fb 6fbe 5e75 cdbd
000001f0: 96ba 51be 64dc eaba a497 0dbe 3695 43be
00000200: 9cbd 9a3d 0909 703e 0031 9a3d f4ea 703c
00000210: 693d 14be 7222 8d3a 7282 6abe 8a16 83bc
00000220: d0df 593d a14e 4e3e 64b0 d0bc 64a8 c13b
00000230: 6cd9 f23c 6643 1b3d 40bb 70bd be9f 93bd
00000240: 3289 20bc f875 983d 21c1 063e 1b9f 01be
00000250: fad1 b0bc 7ed3 373d 41fa 37be 5436 87bd
00000260: e09b e1bd 39fa 57be c7a5 5c3e 6fe0 413e
00000270: 502d 2ebe c2d8 81bc a402 11be d354 073e
00000280: 1d56 3dbe ff3d 293e cfdc 333e 49bf 15be
00000290: 4d9a 0ebe 3cd6 a33d 3aae b8bc 317a 6e3e
000002a0: 53e9 64be 6524 4d3e cc4b 09be 84ec d2bd
000002b0: 060b 1fbe 826d 17be 728f df3d ee83 53be
000002c0: 424d 08bd ac58 e33c e4a2 74ba 6417 1bbe
000002d0: 6286 0abe c35d 113e 83f4 583e c667 2dbe
000002e0: 2f7d 253e 1854 2fbe 58b2 0abe 88c7 9a3d
000002f0: d635 98bd d81f 67be d81a 1bbe acf2 d8bd
00000300: d7d8 17be 14f5 17be 9ecb cbbd f639 ef3d
00000310: 6ea5 12bd 6212 e63d be70 c93d c086 8abd
00000320: 81b4 6a3e 008b a03d 39a2 463e 486b 623d
00000330: 2067 1cbe 200b 07be 0718 64be 7460 7c3c
00000340: 6e09 1e3d 5268 c63d 38ca 973d 64c8 2cbe
00000350: 6a9e 10be 147d 933d 594d 4f3e 1af8 853c
00000360: a49f 63bc 0c56 993d 66e5 f93d d0ec b23d
00000370: d01f b7bd 388f 813d 7ccc 9dbd 773c 213e
00000380: d2a8 1abe e44b 5aba e854 2dbe ab2e 0d3e
00000390: 277d 633e 5021 c6bd 665b 24be 174d 243e
000003a0: 0025 5b3d e460 c6bd 23c5 4f3e 6abf 25be
000003b0: 18fd 543d 7249 bbbc 9e94 ef3d 3c27 d73c
000003c0: 12b6 1cbe 65fa 563e 4047 443d 06b3 8bbd
000003d0: 9293 3ebd a6b4 153d 83ba 2d3e 548c ccbc
000003e0: c9cc 58be b899 a93d 3202 00bd ada6 4a3e
000003f0: 6146 653e f0ce cdbd be30 c13d 2ebe fe3d
-0.090733185 -0.22405022 -0.06523591 -0.14788191 -0.21292 0.19360097 0.22906451 0.17693563
0.183221 -0.22987601 0.040589325 0.20039813 0.11559962 0.13230135 -0.0010618998 0.05757162
-0.15020001 -0.14071682 0.1756021 0.09916629 0.19516309 -0.07295221 -0.03086131 -0.1361076
0.09251955 0.19738354 -0.053364128 -0.07791433 -0.044540174 0.10174839 -0.027769186 0.1528366
0.18204315 -0.12513894 -0.12761697 0.10264088 -0.05953294 0.089313716 0.13586135 0.19301297
-0.056610167 -0.1972868 -0.18702826 -0.19253024 0.12160556 0.17013381 0.06649247 -0.11792306
0.018819232 0.0072452743 -0.09314877 -0.10802677 0.060483158 0.21966423 0.22778432 0.11958845
-0.19398345 -0.115226164 -0.17761904 -0.05839953 0.09794049 0.21893345 0.17685013 0.20878784
0.047367275 0.0027536121 -0.06267516 0.204574 0.22023343 -0.04502014 0.011135595 0.09831877
-0.1768352 0.20471565 0.01116577 -0.2065335 0.10442896 -0.0046177143 0.14781253 0.1143329
0.06725943 0.17805968 0.111062035 0.17732795 0.20643364 0.10236554 -0.07691346 0.23376314
0.0412625 -0.048414737 -0.03729277 -0.21645726 -0.07345787 0.14926885 0.21864687 -0.08619964
-0.18956688 -0.19856197 -0.19502115 0.15283354 0.22517787 0.096917406 0.17658247 -0.06683059
0.1703824 0.065449506 0.029867165 -0.03470347 0.05531469 0.21023999 -0.22877674 -0.1040352
0.0011642261 -0.014873151 -0.22203808 0.17852496 0.21656345 -0.003624701 0.042276047 -0.050276056
0.01592179 -0.22499397 -0.2343563 -0.10032152 -0.20481333 -0.0017918465 -0.13827378 -0.19099888
0.07555696 0.23440947 0.07528877 0.014704455 -0.14476551 0.0010767712 -0.22901323 -0.016001958
0.05319196 0.20147182 -0.025474735 0.0059099663 0.02964469 0.037906073 -0.058772326 -0.07208203
-0.009798335 0.07444376 0.1315961 -0.1265835 -0.0215845 0.04487943 -0.17966558 -0.06602159
-0.11016059 -0.21091546 0.21547614 0.18933271 -0.17009473 -0.015850428 -0.14161164 0.13215952
-0.18489881 0.16527556 0.175647 -0.14623751 -0.13926049 0.07999846 -0.022544015 0.232888
-0.22354631 0.20033415 -0.1340782 -0.10299018 -0.15531549 -0.14787868 0.10916032 -0.20655796
-0.033276804 0.027752243 -0.0009332134 -0.15145642 -0.13527825 0.14195924 0.21187024 -0.16934118
0.16161035 -0.17121923 -0.13544595 0.07557589 -0.074321434 -0.22570741 -0.15146959 -0.10593161
-0.14828812 -0.14839584 -0.09950946 0.11680977 -0.035802297 0.11233975 0.09835957 -0.06763983
0.2292042 0.07839012 0.1939782 0.055278093 -0.15273714 -0.13187838 -0.2227479 0.015403856
0.03858321 0.09687866 0.07411617 -0.16873318 -0.1412293 0.07201591 0.2024435 0.016353656
-0.013893042 0.07487115 0.122019574 0.08736575 -0.08941615 0.06326145 -0.07705018 0.15745722
-0.15103462 -0.00083273486 -0.1692692 0.13787334 0.2221571 -0.096743226 -0.1605049 0.16045032
0.053502083 -0.09686449 0.20290045 -0.161863 0.05199918 -0.02286217 0.11698268 0.026263826
-0.1530383 0.20993955 0.04791951 -0.068212554 -0.046527453 0.036549233 0.1696568 -0.024969257
-0.2117187 0.08281273 -0.031252094 0.19790144 0.22390129 -0.10049236 0.09433125 0.12438618

self_attention_players.key_projection.bias f4 [16]
00000000: c4be d5bb 0af4 883c a934 2b3e 558b 0c3e
00000010: 4549 423e 9009 a4bd 35b5 243e 4519 413e
00000020: 2edc c43d c4d2 f23b 82ff 99bc 74b3 e5bd
00000030: 7cf6 bfbd 3141 293e 072a 663e 346c af3d
-0.006522985 0.01671793 0.16719307 0.13725026 0.18973263 -0.080096364 0.1608475 0.18857296
0.096123084 0.007410379 -0.018798593 -0.112158686 -0.09373185 0.16528775 0.2247697 0.0856556

self_attention_players.value_projection.weight f4 [16, 18]
00000000: d0b3 c3bd 66da e93d 09e6 063e 5e27 82bd
00000010: 224e e93d aa27 e03d 7804 35be 74d4 5a3c
00000020: e044 5cbe 0c3b fd3c e8a6 babd e200 e33d
00000030: c691 1e3d bae5 853c 2269 fd3d 1d97 4d3e
00000040: bdd3 5f3e a948 373e e19c 0a3e f27d 8e3a
00000050: 2bd3 253e f63f 293d d9e7 193e 9327 363e
00000060: 14ec 3fbe 1d81 0a3e 7219 82bc d24b 50be
00000070: f022 bc3d ba63 0dbe d4f3 9f3d 4497 663c
00000080: 8ddf 28be f09e 53be 2419 eabc fbe0 6e3e
00000090: f8b0 88bd 0473 7dbd 0e11 a2bd c451 823d
000000a0: 82d0 17bd 36b9 033d a0c9 1cbe cae9 b6bc
000000b0: c219 a1bd 4c20 b4bd 816f 363e b10a 603e
000000c0: 9ba9 613e 11ed 113e 98da 683d 2d9a 203e
000000d0: 0919 e9bd ee1c 193d 2066 573d 4958 2bbe
000000e0: 9379 603e ca9e bb3c d8c9 a03d 72d8 aebc
000000f0: 070a 6f3e f7df 593e a79b 4bbe 3e16 01be
00000100: 46e9 fcbd 81a1 5c3e 8b99 62be 014e 3c3e
00000110: 8d74 123e 8fb3 edbd 5c35 e93c dcf8 d7bc
00000120: a8ea ab3d 4395 663e 046b c7bb c7af 433e
00000130: 8aad 8e3c bb63 63be bb73 463e 1bc8 25be
00000140: bb9a 0c3e 544a 71be adaa 573e c408 c73b
00000150: 9f82 0ebe 4bcb 47be e9f7 f3bd 7e2d e93d
00000160: 0cf9 af3d d277 a43b 9064 5e3d da4d 1cbe
00000170: 7b89 583e fe40 113d 24d9 d5bb f29b 91bb
00000180: d24a c53d dc05 e33c d7e0 4f3e a4c1 d7bd
00000190: 175a 5d3e e7fc 3a3e e193 653e 2443 a2bd
000001a0: 496a 40be 7f73 09be fca8 63bd ec0d f3bc
000001b0: 1c5c 84bd 2998 05be 57d3 61be 1f75 01be
000001c0: bc2c 39be fdfd 5f3e ac2a cdbc 4ae0 f43d
000001d0: 05a1 313e 92a6 59be b0a0 d8bd 702c 853d
000001e0: fd8e 603e a7da 2cbe 3848 3ebe 70fa 59bd
000001f0: 8e39 d3bd a76e 523e f63c 24bd f0ae 4f3d
00000200: 95b9 26be 2a1c 8ebd 80d6 f2bd 3905 24be
00000210: 4287 0b3c d7d9 5a3e 05da 573e 36b6 1d3d
00000220: 8158 70be 554d 24be d843 493d 69b6 4abe
00000230: 67db 08be 9aea cebd f4f0 9e3d 54b2 bc3d
00000240: 6b4e 0a3e 9930 3d3e 142f a1bd 00cd fbbd
00000250: 7259 cf3d 9a78 0ebd 4c7a 87bd 3ce4 f6bd
00000260: 3001 37be 4604 68be 84e2 613c 3df9 163e
00000270: 480c bc3d dc52 f9bd 0990 123e 3f06 113e
00000280: e656 03bd da03 07be 6d27 443e e805 af3d
00000290: a107 2e3e c576 0d3e e6e7 37be 6579 313e
000002a0: 8845 43be 19ae 543e e0f1 7b3d 8484 de3b
000002b0: a4fa c5bd ee11 ca3d 1ed8 ff3d 969e e73d
000002c0: 1c28 c23c e532 573e eadc 68be f5dd 673e
000002d0: 78cd 693d 7495 3abe 5436 ac3d befd dd3d
000002e0: e2c9 ed3d 14ba 60bd 42a1 f8bd e660 3dbd
000002f0: c225 303c 8e1e d13d b208 53be da91 993c
00000300: 3908 703e ae37 07be 2c90 fc3c 522e e13d
00000310: f728 49be 1a4b e2bd 8250 c83d 057d 6c3e
00000320: bee2 dfbd 3e0f 2dbe da09 62be 65b4 05be
00000330: ad3e 463e a371 43be 3ed9 1d3d 2481 fdbb
00000340: 0c1d 1bbe f2f5 3bbd f2db 2dbb de1c 8ebd
00000350: 1ec0 163d 08b5 f4bd aeed 003d 8574 e4bd
00000360: c2f3 cf3d 7ccb 1ebe 202a 56bd 587f 26be
00000370: 5279 03bd 8534 1b3e 544e 67be 28f6 4f3d
00000380: 3eff f33d 6cb0 43be 0c25 c33c 06b1 fa3d
00000390: 8432 73bc 1150 023e 1279 d93d 6400 22be
000003a0: 988c 783d 4243 45be 2b93 3f3e 0b9c 6c3e
000003b0: fdb4 653e 89dd 483e 85da 3d3e 2abf 53be
000003c0: cf0a 503e 1665 58be 1e13 b6bd 3eb5 c73d
000003d0: cf0c 5fbe a49e 66be 2fe5 033e de50 303d
000003e0: aa1e c93d 7c20 9a3d d297 cbbd 080f 5c3d
000003f0: 1c96 55bd f790 ffbd 8e98 083d 5e7c c1bd
-0.09555781 0.11418609 0.13173689 -0.06355165 0.11391856 0.10945065 -0.17677486 0.013356317
-0.21510649 0.030911945 -0.09113866 0.11084153 0.03871324 0.016344894 0.12373568 0.20077176
0.21858115 0.17898811 0.13536407 0.0010871275 0.16193835 0.041320764 0.15029849 0.17788534
-0.187424 0.13525815 -0.015881274 -0.20341423 0.09186351 -0.13807574 0.078101784 0.0140741505
-0.16491528 -0.20666099 -0.028576441 0.2332801 -0.06674379 -0.061877266 -0.07913409 0.06363252
-0.037064083 0.032159053 -0.15311289 -0.022328276 -0.07866241 -0.08795223 0.17815973 0.21879078
0.22037356 0.1425059 0.056849092 0.15683813 -0.11381728 0.037381105 0.05258763 -0.16732897
0.21921377 0.022902865 0.07850999 -0.021343444 0.23343669 0.21276842 -0.19883595 -0.12606141
-0.12349181 0.21545984 -0.22128884 0.18389131 0.14302273 -0.11606514 0.028467827 -0.026363783
0.083943665 0.22517876 -0.0060857553 0.19110022 0.017416734 -0.22206013 0.19380085 -0.16189615
0.137309 -0.2356351 0.21061201 0.006074043 -0.13917015 -0.19511144 -0.119125195 0.1138563
0.08592424 0.0050191665 0.054295123 -0.15264073 0.21146195 0.035462372 -0.0065261293 -0.004443639
0.096334115 0.027712755 0.20300613 -0.10534981 0.21616398 0.18260537 0.22419693 -0.07922962
-0.18790545 -0.13422965 -0.055581078 -0.029669724 -0.06462881 -0.13046326 -0.22053276 -0.12642334
-0.18083471 0.21874233 -0.025044762 0.11956842 0.1734658 -0.21254948 -0.10577524 0.065026164
0.21929546 -0.16880284 -0.18582237 -0.05321735 -0.10313712 0.20550023 -0.0400972 0.050703943
-0.16281731 -0.069389656 -0.11857319 -0.16017617 0.008516135 0.21372162 0.21079262 0.038503848
-0.23471262 -0.16045125 0.049136966 -0.19796146 -0.13364945 -0.101033404 0.07760802 0.09213701
0.13506477 0.1847557 -0.078703076 -0.1229496 0.10124482 -0.034782983 -0.06615123 -0.12055251
-0.17871547 -0.2265788 0.013786916 0.14743514 0.0918203 -0.12174007 0.14312758 0.14162539
-0.032065295 -0.13185063 0.19155665 0.085460484 0.16995098 0.13814838 -0.17959556 0.17331465
-0.19069493 0.20769538 0.061509967 0.0067906994 -0.096669465 0.09866701 0.12492393 0.11309545
0.023700766 0.21015508 -0.22740522 0.22643264 0.057080716 -0.18221074 0.084088 0.10839413
0.11610772 -0.054864958 -0.121401325 -0.046234988 0.01075119 0.10210906 -0.20608786 0.018746305
0.23440637 -0.13204834 0.030830465 0.10995163 -0.19644533 -0.11049481 0.09780981 0.23094566
-0.109319195 -0.16900346 -0.2207407 -0.13057096 0.19359846 -0.19086318 0.038537256 -0.007736342
-0.15147799 -0.04588885 -0.0026528803 -0.069391 0.03680431 -0.119485915 0.03147667 -0.11155037
0.10153915 -0.1550731 -0.052286267 -0.16259515 -0.032098122 0.15156753 -0.22588474 0.050771862
0.11913918 -0.19110268 0.023821376 0.12240796 -0.014843587 0.12725855 0.106187955 -0.15820462
0.060680956 -0.19263938 0.18708484 0.231064 0.22432323 0.19615759 0.1854039 -0.20678392
0.20316623 -0.21132311 -0.08890365 0.09751366 -0.2178223 -0.22521454 0.12880395 0.04304587
0.09820302 0.07525727 -0.09941067 0.053725272 -0.05214511 -0.12478822 0.033348612 -0.09447549

self_attention_players.value_projection.bias f4 [16]
00000000: b49d f8bc 4579 573e 78af af3d f2e5 92ba
00000010: c9a7 663e 5c9a c3bc 5a50 8e3c 408e 9c3d
00000020: baee aa3c 5841 8cbd 06b3 2d3d 21d9 673e
00000030: 9211 05bc baf1 b43c 8cbf 52be 04cb b63d
-0.030348636 0.21042354 0.0857839 -0.0011207445 0.22524942 -0.023877315 0.017372299 0.076443195
0.020865787 -0.06848401 0.04240706 0.22641422 -0.008121865 0.02208792 -0.20580882 0.08925441

self_attention_players.output_projection.weight f4 [18, 16]
00000000: 3209 3e3c 5cca 59bd 7c90 4b3e 9c0b 54bd
00000010: 5036 443e a07b 083e bcda 313e 74fd f4bd
00000020: 6e12 1c3e 4a2c 16bd f210 0e3d 2ad4 5f3e
00000030: 900f ff3d 8439 0c3e 8a4f 90bd 5a0b 42be
00000040: 54c0 d63d 2a71 0a3d c0c2 383e 18ed de3d
00000050: a6a0 953d 9473 ca3c 806f 6abe 5c76 7ebd
00000060: 709f 403e 227d 0dbe dc44 d33d 8836 c43d
00000070: ce84 1d3e 341d 3c3e 4094 f6bd 382a 79be
00000080: 0c61 323e f23a 153e 7a35 0d3e b2e4 32bc
00000090: 725b 03bc ca4f 14bd 7848 fcbd dc04 42be
000000a0: 92f8 843d 204c 66be febf aa3d 2a3a 143d
000000b0: 6ef4 8cbd 30cc 1e3e 669d 0e3e a40a 483d
000000c0: 065e b13d f6ec 41be 12ab 3c3e 3e88 253e
000000d0: 4691 7bbe 641e e53b b29f 48be 0831 05be
000000e0: 5a17 bc3d 3832 36be 5c39 353e 6cb2 14be
000000f0: f8c7 51be e4c2 1e3e 0206 27bd daf2 613e
00000100: ce0e 213e 06aa bc3d 465e 56be 1cbc d4bd
00000110: 2a5c bfbd 82f8 2c3e 3e0a 18be 5a59 59be
00000120: 905c 5dbe 1a89 143e 58f7 763e 8cbe 4d3d
00000130: 6039 fe3d 3e61 9ebd 129a 96bc 548e c5bc
00000140: 6afb ba3d fe95 2bbe ec1d 543e 967c 67be
00000150: be08 10be 5cf3 463e 52c1 aabc bcd6 eebd
00000160: d0ab 2cbe 404e c9bd 3040 d13d 6aa2 b2bd
00000170: ac59 7d3d 2298 98bc c8a3 f0bd 003b 27be
00000180: 0497 4a3e a227 253e 0431 793d 1278 bbbd
00000190: 9600 a83d 1ab7 2cbd a481 113e c6c0 15be
000001a0: 26ab 9bbd 541e 003e d4ce 643e d052 31be
000001b0: f294 acbc 0051 043e 344b cabc a28a 3ebd
000001c0: 8a99 10bd 268d aa3d fcc1 57be 248d 51bd
000001d0: e4d0 0dbe 6c01 4abd 2455 63be 52a2 543e
000001e0: f27f 39bc 9485 2d3e 2693 a83d 5451 f7bc
000001f0: 2424 c1bd dab9 803d 2c21 20be 642f 4d3d
00000200: bc23 65be e25a 9b3c 0050 083e 5a37 24be
00000210: 7263 59be fa87 1e3e 2278 3e3d 88dc 33be
00000220: 24b6 f53c 7e56 36be 560d 36be 06d6 7a3e
00000230: 2a80 19be 4c08 c53d e8e7 773e 6c92 0d3e
00000240: 64dc f6bb 047f fc3c a086 43be 1ed7 8b3d
00000250: 4ab7 18be 727c 98bd 6271 273d 0a64 773e
00000260: 3290 29be bccc c1bd 90a7 573e ee3f 5abe
00000270: 32a8 50be 849b 4abe 0ef1 9c3d 7898 6e3e
00000280: dcf1 cd3d 14f5 3bbe 9e10 113e 4e2c 253e
00000290: a699 00be 324a 8fbb deb6 41be b6cf 383e
000002a0: 1e56 7e3e 38fb f8bd 5e13 3c3e 48c4 f3bd
000002b0: fee6 a53d ea9d 19bd d616 6a3e 8882 5abe
000002c0: fefa 97bd 64b6 64bc b281 ad3c a4e7 5a3e
000002d0: 7a34 90bd e2f0 75be ead9 b6bd 4e99 003e
000002e0: 94d3 e5bc 94c9 78bd e4e4 e4bb e887 c73d
000002f0: 18b4 ca3d fa89 823d 34e9 733e 84b5 663d
00000300: e420 eeba 7866 3bbe e2bd 35bd 5e9b bf3d
00000310: e264 99bc 44a2 e7bc a0f5 58be e0a0 5fbe
00000320: 1069 543e eae4 3c3e fca0 d53d 822c b33c
00000330: 8a0b 4f3e 6283 9abc b407 5e3d 9a88 043e
00000340: dc06 2e3e 1efc 14be 9487 28be 56e0 493e
00000350: 5a8e 47be fa89 073d 4e2a 3ebe 94e9 e4bc
00000360: 00d8 7a3e d80d 51be 1cd4 233e c6c8 9cbd
00000370: b0d4 7ebe bc6a 67be 4074 04be d660 80bd
00000380: 8c4d cabd ea4c 623e c4f9 06be d2e0 96bd
00000390: 2a0c 9cbd 40b4 cfbd 90ea eb3d eedf 4a3e
000003a0: b2e1 013e 023b bd3c 48bc febd 649f eb3d
000003b0: f2c6 af39 7029 65be b230 adbc 1047 0b3e
000003c0: 189e 4e3e 7cf5 31be 4cce f8bd 98ed ed3d
000003d0: 4c40 cebd 4646 abbd c4b3 453d fa50 313e
000003e0: 2e9a 663e 78da 5c3e f0c3 33be 221e 39be
000003f0: e40d f43b 2010 533e f8dd ce3d b46d d7bd
0.011598872 -0.0531715 0.19879335 -0.051768884 0.19161344 0.13328409 0.17368597 -0.11962405
0.15241405 -0.03666333 0.03468413 0.21858278 0.1245414 0.13693815 -0.07046421 -0.18949643
0.104859024 0.033799328 0.18043041 0.10885066 0.07306032 0.024713315 -0.22894096 -0.062124595
0.1881082 -0.13817266 0.10315868 0.095807135 0.15382692 0.18370515 -0.12039995 -0.24332511
0.17419833 0.14573267 0.13789931 -0.010918783 -0.008017408 -0.036208905 -0.1231851 -0.18947166
0.064927235 -0.22489977 0.08337401 0.036188282 -0.06882559 0.15507579 0.1392723 0.048838273
0.08660512 -0.1893805 0.18424633 0.16165254 -0.24567136 0.0069921482 -0.19592169 -0.13006985
0.091841415 -0.17792594 0.17697662 -0.14521188 -0.20486438 0.15504032 -0.040777214 0.22065297
0.15728304 0.09212117 -0.209344 -0.103874415 -0.09343751 0.16891673 -0.14847657 -0.21225491
-0.21617341 0.14505425 0.24117792 0.050230548 0.12413287 -0.07733391 -0.018384013 -0.024115719
0.09129985 -0.16756436 0.2071454 -0.2260612 -0.14065835 0.19428772 -0.020844135 -0.11662051
-0.16862416 -0.09829378 0.10217321 -0.08722384 0.061853096 -0.01862723 -0.11749989 -0.163311
0.1978417 0.161284 0.06083776 -0.09153761 0.08203237 -0.042166807 0.1420961 -0.14624318
-0.07601003 0.1251157 0.22344524 -0.17316747 -0.021067116 0.12921524 -0.024694063 -0.04651893
-0.035302676 0.08327703 -0.21070093 -0.051159993 -0.13849217 -0.049317762 -0.22200447 0.20765045
-0.011322008 0.16945487 0.08231191 -0.030190147 -0.094307214 0.06285448 -0.15637654 0.050094023
-0.22376913 0.018964235 0.13311768 -0.1603674 -0.21229342 0.15481558 0.046501286 -0.17564595
0.029994078 -0.17806432 -0.17778525 0.24495706 -0.14990297 0.09620723 0.24209559 0.13825387
-0.007533597 0.030822285 -0.19094324 0.0682814 -0.14913669 -0.07445611 0.040879615 0.24159256
-0.16558912 -0.09462878 0.21060014 -0.2131345 -0.20376661 -0.19785887 0.07663165 0.2330035
0.10055897 -0.18355209 0.14166495 0.16130182 -0.12558612 -0.0043728584 -0.18917415 0.18047985
0.24837539 -0.12157291 0.18366763 -0.11902672 0.08100699 -0.037504114 0.22860274 -0.21338856
-0.0742092 -0.013959501 0.021180008 0.21377426 -0.07041259 -0.24017671 -0.089282826 0.12558481
-0.02805499 -0.060739115 -0.0069852937 0.09742719 0.098976314 0.06373973 0.23819429 0.05632545
-0.0018167761 -0.18300807 -0.04437054 0.09355806 -0.018724862 -0.028275616 -0.21187449 -0.21838713
0.20743203 0.18446699 0.10431096 0.021871809 0.20219246 -0.018861476 0.054206565 0.12942734
0.16994804 -0.145493 -0.16457969 0.19714484 -0.19487897 0.03309057 -0.18570825 -0.02794341
0.2449646 -0.20415437 0.15998882 -0.07655482 -0.24885821 -0.2259931 -0.12934971 -0.0626847
-0.09878072 0.22099653 -0.13181216 -0.073671 -0.076195076 -0.10141802 0.115193486 0.19811985
0.12683752 0.023099426 -0.124382555 0.11505011 0.00033526827 -0.22379088 -0.021141384 0.13601327
0.20177495 -0.17378801 -0.12148723 0.11617583 -0.100708574 -0.08363013 0.04826714 0.17316046
0.22519752 0.21567714 -0.17555213 -0.18077901 0.007447945 0.2061162 0.10100931 -0.10518971

self_attention_players.output_projection.bias f4 [18]
00000000: 3406 c73c 4eda 68be 7237 543e 0c2a 523e
00000010: 109f d3bd 123c 28be ba3c 9f3d 4e83 593e
00000020: 2ef0 ad3d b492 f3bd 52c0 0bbc d2fb 003d
00000030: e41e 6b3c bc87 45be d6fc 9bbd 9239 1c3d
00000040: aad9 77be 260f 57be
0.02429495 -0.22739527 0.20724276 0.20523852 -0.10333073 -0.16429165 0.077752545 0.21241495
0.08493076 -0.11893216 -0.008529739 0.031490155 0.014350627 -0.1929006 -0.07616584 0.03814084
-0.24204126 -0.21001872

self_attention_heroes.query_projection.weight f4 [16, 18]
00000000: a2bf c03d b8f9 913d b074 95bd bb61 193e
00000010: a2f2 20be dff5 133e 347a d8bc b874 463d
00000020: d461 763c e1d9 45be c592 503e 35e6 233e
00000030: 3230 a8bd fc54 87bd c57b 443e 44b4 9bbd
00000040: fc09 a13d ceea a3bd 64b1 bc3d 4e6b 353d
00000050: d369 0e3e e4e0 573a 2291 82bc a672 033d
00000060: 2067 29be ad6d 513e 79ce 31be 0eb0 123d
00000070: 9af5 d8bd 812d 40be 37e8 3b3e 1627 da3d
00000080: e433 fd3a 22cc 63be 2045 e1bd 1d32 233e
00000090: f6ff ef3d 4af2 1cbd df97 5b3e 9fc3 373e
000000a0: 3f94 223e b7ec 22be 34d8 5cbe a1f8 033e
000000b0: 83fb 633e 75d4 6fbe 149c 61bd a3cd 1abe
000000c0: e7b2 473e 42c1 0e3c 13f6 3abe 3a3a 61be
000000d0: 384b 723d faa7 0dbe aacd e33d e866 55bd
000000e0: e2a7 a0bc a409 20be ba74 9cbc 4a17 acbd
000000f0: 201c 683d ede5 243e ad0c 0b3e 9090 febd
00000100: c49d 813d b2fc 35bb 7dab 543e be42 2d3d
00000110: 1e6f 2ebe a2cc 1abe 6669 303d ae2b fe3d
00000120: a43d 41bd e790 263e 522a dfbd 4d98 403e
00000130: 8867 bf3d 1c83 c43c fc3a 8e3d e6cf 253d
00000140: 102a 54bd 42e0 eb3d 992f 5cbe eccd 67bd
00000150: 7e13 b9bd 451d 0f3e b272 17bc 61c6 0a3e
00000160: 1d2a 4b3e bbcb 543e c267 d93d f02f 513d
00000170: 52cc 023c f00e e0bd 7d21 453e af50 32be
00000180: e255 4bbe f1d0 473e a031 af3d 74cf f0bd
00000190: fb6b 1f3e 77d5 19be a632 fb3d 8eac 30be
000001a0: ec6e f2bd 2a1b 9e3c 3656 22be b128 693e
000001b0: 20de 8b3d f2a4 01bd 8809 a33d 7bc3 0b3e
000001c0: 7851 00be 54cb c0bd b972 6d3e c59e 073e
000001d0: b11e 343e c1d4 073e 9fe3 2c3e b5f5 683e
000001e0: 2b73 3bbe c2dc c2bd f644 243d 4acd aa3c
000001f0: 3024 ddbd ac34 08be fe15 1d3d 02d9 1ebe
00000200: d881 63be 3eb9 c2bd ab9e 18be bf77 fabd
00000210: 8574 003e 74c3 37be 1894 6f3d 6a99 b93c
00000220: fa35 963c f32f 5fbe 100d 6a3d 0ea8 16bd
00000230: 9438 87bd 12ce 59be 9c7d b5bd b480 b63d
00000240: 415a 4a3e c6f0 50be 2c7e b1bd 788d 97bd
00000250: ace6 f3bc 30d1 963d ce91 df3d 9698 1f3d
00000260: 13ae 10be 251a 2b3e 5c13 90bd ef3e 4d3e
00000270: e420 f53b e241 b5bc b2ff 973b da88 46be
00000280: 0d4b 1b3e fe80 18bd 8915 23be fcc6 c13c
00000290: f37e 2fbe e27e 53be bfb0 363e 9ce8 b4bd
000002a0: da3e b4bd 25ec 2c3e fe9b a6bd 487d aa3d
000002b0: b607 99bd 8404 eabb 6267 de3d d767 3e3e
000002c0: 443f a0bd ac35 dfbc 6a0f 51be eda6 68be
000002d0: 0d86 f9bd 9f46 263e 8af6 44be 8b02 ecbd
000002e0: f9fc 223e cb0c 12be bc75 d4bd c247 2ebe
000002f0: ea79 3cbd df53 71be 75be 17be 9e46 c8bd
00000300: 14ed 69be 86f6 60be 44b9 f1bb c8e7 6f3d
00000310: 8ee4 d7bd 33bb 40be 505f 13be 980b 6abe
00000320: ea4f a2bd a6af 343d e8b4 47be 3771 6c3e
00000330: c013 963d 87f5 2e3e 24bf 54bb aedb 47be
00000340: ebce 193e e59b 673e 3fc8 133e 56c3 5fbe
00000350: 732c 553e f013 ba3d 189f 983d 6657 c4bd
00000360: 06ae c83d 1497 6ebd 3c1e 9ebd b28a 88bc
00000370: 5f1a 4d3e 5acc 69be b3b9 1b3e 1cea 8dbd
00000380: 96b3 86bd 6de4 143e 86d4 2f3d c16b 21be
00000390: 880d f2bd 0e7e f53d 3ccf a73d 8869 07be
000003a0: cddc 303e fa07 d43d 5b70 003e bd71 173e
000003b0: e01f 96bd 6b41 49be 982e 9bbd 2e00 3ebe
000003c0: 5247 de3d 439e 6a3e 9019 733d 2c31 63be
000003d0: 1237 f83d 4ab7 b33c f23a 2cbd b6fb cf3d
000003e0: 54ed 933d 91c6 443e 8f24 f2bd b76c 4c3e
000003f0: a602 3d3d 9b4d 623e 5db6 1c3e 9f48 6cbe
0.09411551 0.07127708 -0.07297647 0.14978687 -0.15717557 0.14449261 -0.026425458 0.048451155
0.0150379725 -0.19321395 0.20368488 0.16005786 -0.082123175 -0.06608006 0.1918784 -0.07602742
0.078632325 -0.0800377 0.09213522 0.044291787 0.13907556 0.00082351104 -0.015938345 0.03209176
-0.16543245 0.20451994 -0.1736392 0.03581243 -0.1059372 -0.18767358 0.18350302 0.10651986
0.0019317833 -0.22245839 -0.10999513 0.15937085 0.117187425 -0.038317002 0.21444653 0.17945717
0.15876864 -0.15910612 -0.2156685 0.12887813 0.22263913 -0.2342089 -0.05508049 -0.15117507
0.1950184 0.008713068 -0.18257932 -0.21994868 0.059153765 -0.13833609 0.11123212 -0.052100092
-0.019611303 -0.15628678 -0.019098628 -0.084028795 0.056667447 0.16103335 0.13579054 -0.12429917
0.063289195 -0.0027769026 0.20768543 0.04229998 -0.17034575 -0.15117124 0.043069266 0.12410675
-0.047177926 0.16266213 -0.10896744 0.18808098 0.09345919 0.0239883 0.06944844 0.04048147
-0.051797926 0.11517383 -0.21502532 -0.056592867 -0.09036921 0.13976009 -0.009243654 0.13552238
0.19840284 0.20780842 0.10615493 0.051071107 0.007983284 -0.10940349 0.19251056 -0.17413591
-0.1985698 0.19513299 0.08554387 -0.117583185 0.15568535 -0.15022837 0.1226552 -0.17253324
-0.11837563 0.019300062 -0.158532 0.22769429 0.06829476 -0.031651445 0.07960802 0.13648789
-0.12531078 -0.09413782 0.23188294 0.1324416 0.17589833 0.13264753 0.16883706 0.2274998
-0.18305652 -0.095147625 0.04010483 0.020849843 -0.10797918 -0.13301343 0.03835105 -0.1551247
-0.222175 -0.095079884 -0.14904277 -0.12229871 0.12544449 -0.17945653 0.058490843 0.022656161
0.018336285 -0.21795635 0.057141364 -0.036781363 -0.06602588 -0.21270016 -0.08861849 0.08911267
0.19760992 -0.20404348 -0.086666435 -0.0740003 -0.029773079 0.07364118 0.10916482 0.038963877
-0.14128904 0.16709192 -0.070349425 0.20043539 0.0074807275 -0.022126142 0.0046386356 -0.19388142
0.15165348 -0.03723239 -0.15926184 0.023654453 -0.17138271 -0.2065387 0.17840861 -0.08833429
-0.088010505 0.16886957 -0.08135222 0.08324677 -0.07472174 -0.0071416516 0.108595625 0.185943
-0.07824567 -0.027247272 -0.20416036 -0.22719927 -0.12183771 0.16237877 -0.19234672 -0.115239225
0.15916814 -0.14262693 -0.103740185 -0.17019561 -0.046014704 -0.2356715 -0.14818747 -0.09779094
-0.22844344 -0.21969041 -0.0073768217 0.058570653 -0.1054164 -0.18821411 -0.14391828 -0.22855985
-0.07925399 0.044112824 -0.19502604 0.23090063 0.07327986 0.17085849 -0.0032462562 -0.19517395
0.15020339 0.22618063 0.14431857 -0.21851858 0.20817737 0.09085834 0.0745222 -0.095869824
0.09798817 -0.058249548 -0.077206105 -0.016667698 0.20029591 -0.2283186 0.15207557 -0.069294184
-0.06577222 0.14540263 0.042927288 -0.15763761 -0.11818987 0.11986934 0.08193824 -0.1322385
0.17271729 0.10353084 0.1254286 0.14789481 -0.073302984 -0.19653861 -0.075772464 -0.18554756
0.10853447 0.22911935 0.05935055 -0.22186726 0.12119879 0.021937985 -0.042048402 0.10155432
0.07223001 0.19216372 -0.11823379 0.19963346 0.046145104 0.22099917 0.15303941 -0.23074578

self_attention_heroes.query_projection.bias f4 [16]
00000000: 7813 923d 981d 13be 795b 273e 5ae7 57be
00000010: 6867 bf3d 1828 45bd ab2c 203e 511e 0b3e
00000020: 9798 163e 7a82 80bd cf8d 4b3e 04a6 73bc
00000030: 7877 ad3d 7ab6 d23d a6de c63d d88d 24be
0.071326196 -0.14366758 0.16343488 -0.21084347 0.09345895 -0.04813394 0.1564204 0.13585784
0.14706646 -0.062748864 0.19878314 -0.014871124 0.084700525 0.10288711 0.097104356 -0.16069734

self_attention_heroes.key_projection.weight f4 [16, 18]
00000000: 38e3 ccbd a522 ecbd d262 ccbd 4c37 0cbe
00000010: 5069 9e3d 9ca7 ac3d 9458 513c cc6c b33d
00000020: 60bc a33d 926d 87bc d73e 6c3e 5edc fa3d
00000030: 8bed 393e 4c80 27be 6e66 3dbe 3245 bbbd
00000040: 398b 073e 5ad0 8bbd ccb5 b43d d098 543d
00000050: 5dd0 2d3e a97b 123e 66ac 34be 6d05 1cbe
00000060: 04ba d2bd f8ca 873d 0f32 453e d824 4e3d
00000070: 5054 d5bd 8557 023e 6a95 e4bd 0ef8 cfbd
00000080: 0756 49be 9278 d5bd dcb6 ef3c 5ab7 d53d
00000090: 14e5 4cbd 927a a8bb 3dbc 44be 31a3 6d3e
000000a0: ca74 b33c 28b2 a53d e304 2d3e 1b38 6abe
000000b0: 56f0 08be 3ae1 9f3c 0ca4 b33d f7a8 4cbe
000000c0: a86c 423d 4a1a acbc d0ad 46bd 25ef 1b3e
000000d0: b218 55be a81c 5fbd 10af 2dbe 37e8 58be
000000e0: fde3 6cbe 518b 143e d4cd 5ebc 97d4 52be
000000f0: 0049 39be 7865 08be 2ac3 36bd f956 213e
00000100: 8325 0ebe 21cc 03be 7bb0 40be 68ef 423d
00000110: c522 2d3e 12d0 0c3c 19e0 4d3e 64cb a1bd
00000120: 1dc3 403e d5b1 093e 9a08 e73d 06c7 52be
00000130: 09bf 4b3e 97f0 533e 6a52 38bd 0953 3c3e
00000140: a4f8 c6bd a423 ddbb 64dd 99bd 4892 a33d
00000150: aa3c 8fbd 5d28 4f3e 18ac b23d 78c9 90bd
00000160: 6c90 9a3d 685f 7b3d 84d7 8e3d 361e 2f3d
00000170: c311 5c3e 78d0 4abe 3653 ffbd ede0 0c3e
00000180: 432d 113e 4092 64bd 8e15 c53d 74ff 4abe
00000190: b0ce 6a3d 0372 4f3e e991 4b3e 01b5 27be
000001a0: 68d0 573d d416 623c e341 313e deaa e63d
000001b0: 58a1 75bd f8d8 483d 8d20 2d3e 75bf 2f3e
000001c0: 228e 40be f6f3 c73d e17d 263e 621f 63be
000001d0: d83f c3bd de04 a6bd 1d92 213e a1a5 37be
000001e0: 2841 643d c460 e33b a695 f1bd 6022 983d
000001f0: e0ca ac3d 2170 533e 8291 2bbd e032 ae3d
00000200: ba80 28bd c446 e5bc e58c 253e 08a5 573d
00000210: 02bb 55be 6753 44be b21b 0dbb bbdc 483e
00000220: 780c 0fbe b524 173e d522 4f3e 4286 4dbe
00000230: 8270 06bd 7e6a 6dbe bc92 09be 1208 b7bc
00000240: f072 e2bd 03c1 4f3e cbb9 4d3e 5a1e 9dbc
00000250: 4222 1fbd e36d ffbd cb6b 4c3e b963 6b3e
00000260: 53a8 0d3e 6066 3fbe d26f 0cbe a607 15be
00000270: d35d 2a3e 29e9 4f3e d1f0 37be 64e6 4ebb
00000280: 989d 8f3d e33d 283e 0416 d0bd eaeb e63d
00000290: 9474 5dbe b58b 163e e220 1abe 0305 0dbe
000002a0: c290 98bd e641 31bd 8dc6 0c3e c4e2 62be
000002b0: 5c3a 7cbd 22da 70be 56fb e03d 8a2e 9ebd
000002c0: 8fa3 023e a31a 6f3e 0015 9a3d 04b4 e5bb
000002d0: 5c0b 39be 50e4 a8bd 7a48 a73c 4a8f 15be
000002e0: a6bb e93d db8d 3c3e 9133 3c3e 6cf0 7abd
000002f0: 9298 e83d 10fd 6e3d 83e4 673e 7c7f d5bc
00000300: d63a a2bd adc8 66be b6f7 e53d c8d0 85bd
00000310: 2226 1ebe 77ad 283e 467e 3dbd 5f92 683e
00000320: 7fe7 1a3e 7c30 cdbd b16b 213e 28e4 48bd
00000330: 7eae 3f3d 9451 b23d 847b e2bd 70ed b33d
00000340: d6c6 d93d 46ae 033d c61b 0c3d 4f20 6a3e
00000350: 001c 9abd 88e2 583d 8e20 31be 8c20 d13c
00000360: 7140 1a3e cb95 603e 8145 473e 2a4b 09be
00000370: 69fa 47be 30b1 1abe 3f7a 47be 1403 05be
00000380: c33c 123e 940c d1bd f103 233e ac73 16be
00000390: a2d4 23bd 0403 28be def4 28bd 3b8b 603e
000003a0: f040 ba3d 4764 113e 64df cebd 11a9 423e
000003b0: ba66 84bd 30f6 a9bd 596b 093e 28f5 bebd
000003c0: 83ea 083e 6631 013d 64a0 633b 4c1b 47be
000003d0: 0deb 57be 9a42 c5bd 6c63 1abe 4c40 14be
000003e0: 4bf4 463e 7668 04be 56db 343d 6133 593e
000003f0: 5f73 22be 5c0d d8bd 844a 91bd 696f 51be
-0.10004276 -0.115300454 -0.09979786 -0.13692969 0.077349305 0.084304065 0.012777466 0.08760986
0.07994914 -0.01653174 0.23070846 0.12249063 0.18157022 -0.16357535 -0.18496105 -0.09144057
0.13236703 -0.06826849 0.088237375 0.051903546 0.16974016 0.14304985 -0.1764389 -0.15236445
-0.10289386 0.0663051 0.19257377 0.050328106 -0.10416472 0.12728699 -0.11161311 -0.101547346
-0.19661723 -0.104233876 0.029261999 0.10435362 -0.050023153 -0.0051415646 -0.19212432 0.23206784
0.021906275 0.08090621 0.16896395 -0.22872965 -0.13372931 0.019516576 0.08771524 -0.1998633
0.047466904 -0.02100863 -0.048505604 0.15227945 -0.20810202 -0.054470688 -0.16961312 -0.21182333
-0.23133846 0.1450627 -0.013598878 -0.20588909 -0.18094254 -0.13319957 -0.044619717 0.15755834
-0.13881497 -0.12870838 -0.18817322 0.047591597 0.16907795 0.00859453 0.20105018 -0.07900122
0.1882443 0.13446744 0.112809375 -0.20583734 0.19897093 0.20697246 -0.04500047 0.1839105
-0.09715393 -0.0067486335 -0.0751293 0.07986885 -0.069939926 0.20230241 0.087242305 -0.07069677
0.075470775 0.061370283 0.069747 0.04275342 0.2149115 -0.19806087 -0.12467043 0.13757677
0.14177422 -0.055803537 0.09623252 -0.1982401 0.05732602 0.20258336 0.19879879 -0.16377641
0.052688986 0.013799388 0.1731029 0.11263059 -0.059968323 0.049035043 0.16906948 0.17162879
-0.1880422 0.09763329 0.16258956 -0.2217994 -0.095336616 -0.08106397 0.15778394 -0.17934276
0.0557262 0.0069390256 -0.11796121 0.074284315 0.08437133 0.20648243 -0.041886814 0.085057974
-0.04113839 -0.027987845 0.16167028 0.05264762 -0.20872119 -0.1917244 -0.00215314 0.19615452
-0.139696 0.14760096 0.20228131 -0.20070747 -0.03282214 -0.23185155 -0.13434881 -0.022342715
-0.11057079 0.20288472 0.20090406 -0.019179512 -0.03885103 -0.12472131 0.19962995 0.2298726
0.13833742 -0.18691397 -0.13714531 -0.14553699 0.16637354 0.20303787 -0.17962958 -0.003157043
0.070124805 0.16429858 -0.10160449 0.11275466 -0.21626502 0.14701732 -0.15051606 -0.13771443
-0.07449485 -0.043275736 0.13747616 -0.22156817 -0.061579093 -0.23520711 0.109854385 -0.0772372
0.12757705 0.23350005 0.07523537 -0.007009985 -0.1807074 -0.08246672 0.020420302 -0.14605442
0.11412744 0.18413489 0.18379046 -0.06126444 0.113572255 0.058346808 0.22645764 -0.026061766
-0.07921378 -0.22537489 0.11228888 -0.065339625 -0.15444234 0.16472422 -0.046263 0.22712086
0.15127371 -0.10019013 0.15763737 -0.04904571 0.046797268 0.08706966 -0.11058715 0.08785522
0.10633628 0.032148622 0.034206174 0.22863887 -0.07524872 0.052950412 -0.17297575 0.025528215
0.15063645 0.21932141 0.19460107 -0.13407579 -0.19529118 -0.15106654 -0.19480227 -0.12989455
0.14280991 -0.10207477 0.15919472 -0.14692563 -0.039997704 -0.164074 -0.04124915 0.21928112
0.09094417 0.14198409 -0.10101202 0.19009806 -0.06464906 -0.0829891 0.13419856 -0.093241036
0.13370709 0.03154125 0.0034733051 -0.19444007 -0.21085759 -0.09631844 -0.15076989 -0.14477652
0.19429128 -0.12930474 0.044154488 0.21211006 -0.15864323 -0.10549423 -0.07094291 -0.20452656

self_attention_heroes.key_projection.bias f4 [16]
00000000: 0eea 0f3d f9cd 243e a21e 9fbd d000 d3bd
00000010: 8643 c2bd 5f92 623e 0458 51bd b2e7 f43d
00000020: 386a 973d 6fc0 3c3e 2b1d 56be d69b 273d
00000030: 6ec2 c73d 96ce d23d 8e43 223d 966d 063d
0.03513532 0.16094197 -0.077695146 -0.10302889 -0.09485535 0.22126149 -0.05110933 0.11958255
0.073933065 0.18432783 -0.20909564 0.0409201 0.097538814 0.102933094 0.039615206 0.032819353
