d2calcbot/main/calc_bot/actual_models/dota_model_ver004.pth (torch, 426136 bytes, 21 tensors)

branch_t.fc1.weight f4 [128, 35]
0	0xbe0dc01e	-0.13842818
1	0xbbf90639	-0.0075996188
2	0x3e289630	0.16463542
3	0x3e1131e4	0.14179188
4	0x3a0bcbd0	0.00053327996
5	0x3e14ebcb	0.14543073
6	0x3db0ce81	0.086331375
7	0x3d7f3b8c	0.062312648
8	0x3d4bbd65	0.049741168
9	0x3d52e2d8	0.051485866
10	0x3d429dbc	0.04751371
11	0xbcc1abfd	-0.02364158
12	0xbd199684	-0.03749706
13	0xbdfc5848	-0.12321526
14	0x3c852f6b	0.016257962
15	0xbbb517d3	-0.0055265217
16	0x3d9ad73d	0.07560585
17	0x3d78a120	0.060700536
18	0x3dcb3ced	0.0992373
19	0xbcb1fde1	-0.021727504
20	0xbdf01f66	-0.11724739
21	0xbd8fccf4	-0.070215136
22	0xbd9a8cc8	-0.07546383
23	0x3ddc00e2	0.10742356
24	0x3dc81b44	0.097708255
25	0xbd21c780	-0.0394969
26	0xbe2bd266	-0.1677948
27	0xbcd69bcd	-0.026197338
28	0x3daf7cf2	0.08568753
29	0x3dd3f26d	0.103489734
30	0x3db7cc7b	0.089745484
31	0xbd29f470	-0.04149288
32	0x3c8cc554	0.017183937
33	0x3e2003a0	0.15626383
34	0x3e2d67d3	0.16934137
35	0xbcc13ce4	-0.023588605
36	0xbc2fa55e	-0.010720579
37	0x3e1270c2	0.14300826
38	0xbda7c63c	-0.08192107
39	0xbddb5787	-0.10710054
40	0xbd773d82	-0.060361393
41	0x3da33fdf	0.07971167
42	0xbcf961a2	-0.030442063
43	0xbe27899c	-0.16361088
44	0x3d21f5a7	0.039540913
45	0xbcf59f13	-0.029983079
46	0xbc688120	-0.014190942
47	0xbdc51e11	-0.09624875
48	0x3da27fc9	0.07934529
49	0x3d791caf	0.06081837
50	0xbe148afe	-0.14506146
51	0x3e29bc26	0.16575679
52	0x3e108e3b	0.14116757
53	0x3cd69918	0.026196048
54	0x3d00bf2e	0.031432323
55	0x3dc38164	0.09546164
56	0x3e27bc14	0.1638034
57	0x3d0dbb1e	0.034602277
58	0x3d2d153c	0.04225658
59	0xbddf48bb	-0.10902544
60	0x3d0f7cd6	0.035031162
61	0x3d8a740e	0.06760417
62	0xbc1272a3	-0.008938464
63	0x3dc51f99	0.096251674
64	0xbdae926c	-0.085240215
65	0x3c9a2dad	0.018820608
66	0x3e2762ea	0.16346326
67	0xbdcb1fd1	-0.09918178
68	0xbdf90728	-0.12159568
69	0xbe010710	-0.1260035
70	0x3e148405	0.14503486
71	0x3ced54e1	0.028971137
72	0x3e10a3f1	0.14125039
73	0x3e10e708	0.14150631
74	0xbde51cc6	-0.11187129
75	0xbdd1cbbb	-0.10243937
76	0xbe0d8c35	-0.13823016
77	0xbd2b89bd	-0.041879404
78	0x3d9f642f	0.077827804
79	0xbdafcc92	-0.085839406
80	0x3d5d6743	0.054053556
81	0x3d553587	0.052053
82	0x3e00bbc3	0.12571625
83	0xbdbef9b6	-0.09324972
84	0x3dff8b0c	0.12477693
85	0xbe214d8a	-0.15752235
86	0xbda0c9d5	-0.078509964
87	0xbdf66692	-0.120312825
88	0xbe297d6a	-0.16551748
89	0xbe103f2b	-0.14086597
90	0xbe1a5a8d	-0.15073605
91	0x3e01d5b7	0.12679182
92	0x3dc7316c	0.09726223
93	0xbddb3f6b	-0.107054554
94	0xbd95752b	-0.07297739
95	0x3e229268	0.15876162
96	0xbd954425	-0.07288388
97	0xbc8a5ab2	-0.01688895
98	0x3e20358d	0.15645428
99	0x3dfadbf1	0.12248982
100	0xbdb12083	-0.08648779
101	0x3bb0f001	0.0053997044
102	0xbda370d0	-0.07980502
103	0x3d7d085f	0.06177556
104	0xbde9b7c6	-0.11412005
105	0x3cdf5553	0.027262365
106	0xbcd4dfcf	-0.025985627
107	0xbd69ec30	-0.05711001
108	0xbddbf745	-0.10740522
109	0x3d067939	0.03283045
110	0x3dacfa75	0.084462084
111	0x3d9b6e50	0.075894
112	0x3c9cc16c	0.0191352
113	0xbde5492e	-0.111955985
114	0xbd502ed0	-0.050825894
115	0x3dd0d707	0.10197263
116	0xbe03ba2a	-0.12863985
117	0x3d8c0071	0.06836022
118	0xbdcb22ee	-0.09918772
119	0x3e2212a1	0.15827419
120	0xbcea714c	-0.028618477
121	0x3e161861	0.14657737
122	0x3e27c13f	0.16382311
123	0x3b36999c	0.0027862554
124	0xbdadc25f	-0.08484339
125	0xbd66c36e	-0.05633872
126	0xbe20e55d	-0.15712495
127	0x3e0c2746	0.13686857
128	0x3e20dba4	0.15708786
129	0xbd92d5ee	-0.0716971
130	0xbd8b323c	-0.06796691
131	0x3e1b56ab	0.1516978
132	0x3d6147ae	0.055
133	0x3daec8c8	0.0853439
134	0x3d0fccda	0.03510747
135	0xbd02da2a	-0.03194634
136	0xbe0d708c	-0.13812464
137	0xbc051ae9	-0.008124092
138	0x3bce9b50	0.006305136
139	0xbd30261a	-0.043005086
140	0x3d80e104	0.06292918
141	0x3e04b3ef	0.12959264
142	0xbd9b1211	-0.07571805
143	0xbe0045c3	-0.12526612
144	0x3de2c051	0.11071838
145	0x3cb99b72	0.02265713
146	0x3e029ad1	0.1275437
147	0x3c282b09	0.010264167
148	0x3dc73422	0.097267404
149	0x3dd7add0	0.10531199
150	0x3e07d950	0.13266492
151	0xbdadfd1b	-0.08495542
152	0x3e11472a	0.14187303
153	0xbe12e532	-0.14345244
154	0xbdc181c7	-0.09448581
155	0x3ce7e8a1	0.028309168
156	0xbdef15ee	-0.11674105
157	0xbdff7cfc	-0.12475011
158	0xbc8c8627	-0.017153813
159	0x3d5eea26	0.05442252
160	0xbe0e1136	-0.13873753
161	0x3db0f067	0.08639603
162	0xbce1d555	-0.027567545
163	0xbcdf1747	-0.02723278
164	0x3d412a88	0.0471597
165	0xbe0ed52d	-0.13948508
166	0x3e148250	0.14502835
167	0xbc037804	-0.008024219
168	0x3d82c763	0.06385686
169	0xbe0a86e4	-0.13528019
170	0xbe22bc20	-0.15892076
171	0x3b47e8b7	0.00305037
172	0x3d88774b	0.06663378
173	0xbd222059	-0.03958163
174	0xbe237f4d	-0.1596653
175	0x3cf43ddd	0.029814655
176	0x3c91deaf	0.01780638
177	0xbd179857	-0.037010517
178	0x3e1aa551	0.15102126
179	0xbd150072	-0.036377378
180	0x3e010cda	0.12602559
181	0xbc2c52ed	-0.010517818
182	0xbd049919	-0.032372568
183	0xbc12d46b	-0.008961777
184	0x3db5188b	0.08842572
185	0x3d8c28ab	0.06843694
186	0x3dabed4d	0.08394871
187	0x3e185e1d	0.14879651
188	0xba36dadf	-0.00069753634
189	0xbe2bd2d0	-0.16779637
190	0xbdc778eb	-0.0973986
191	0xbd3e8fb2	-0.046523757
192	0x3d76797c	0.06017445
193	0x3e1e6c40	0.15470982
194	0x3d999a17	0.075000934
195	0x3da521aa	0.080630615
196	0xbd52cf13	-0.051467013
197	0xbd12c2a0	-0.03583014
198	0x3d253631	0.040334884
199	0x3d64914c	0.05580263
200	0xbd7d400d	-0.06182866
201	0x3d77e0a9	0.060516987
202	0x3de9a7be	0.114089474
203	0x3dbdeae4	0.092733175
204	0x3d3635d8	0.044484943
205	0xbdf5c97a	-0.12001319
206	0xbe127bdc	-0.14305061
207	0x3e202a39	0.15641107
208	0xbe13ba6b	-0.14426582
209	0xbdd6f059	-0.104950614
210	0x3cc62cbb	0.024191251
211	0xbd046560	-0.03232324
212	0xbd88a367	-0.066717915
213	0x3d1b434c	0.037905976
214	0x3e0aec6d	0.13566752
215	0x3e2aef41	0.1669283
216	0x3ded7bf4	0.11595908
217	0xbd800264	-0.06250456
218	0x3cd7ce86	0.026343595
219	0x3ddd9517	0.10819452
220	0x3e284813	0.16433744
221	0xbe2fa20d	-0.17151661
222	0x3d7ccc73	0.061718415
223	0x3c208957	0.009798369
224	0x3d632b4f	0.055461224
225	0xbd813992	-0.06309809
226	0xbe0245ea	-0.12721983
227	0xbe13e3c0	-0.14442348
228	0x3dfe89f5	0.12428657
229	0x3e098dc6	0.13432989
230	0xbc301f95	-0.010749717
231	0xbce7b239	-0.028283225
232	0x3c85ea07	0.016346944
233	0x3db7a8ae	0.0896772
234	0xbd5dbcc1	-0.054135088
235	0xbb327cab	-0.0027234952
236	0x3d54c764	0.051947966
237	0xbd8e5f8d	-0.069518186
238	0xbdf5e7e5	-0.12007121
239	0xbe1fe25b	-0.15613692
240	0xbe1ecad5	-0.15507062
241	0x3e1e8d69	0.15483631
242	0x3c14af93	0.009075063
243	0xbce6496e	-0.028111186
244	0x3cb705e1	0.02234167
245	0xbde27005	-0.11056522
246	0xbd64cf03	-0.055861484
247	0x3e1a1cb1	0.15050007
248	0xbe14e923	-0.1454206
249	0xbd74c434	-0.059757426
250	0xbda9e444	-0.08295491
251	0xbe0e36ee	-0.13888142
252	0x3d937959	0.072008796
253	0xbd9b0888	-0.075699866
254	0x3e03c034	0.12866288
255	0xbdc055ac	-0.093913406

branch_t.fc1.bias f4 [128]
0	0x3e294246	0.16529188
1	0x3db68249	0.08911569
2	0xbd8359bc	-0.064136
3	0x3d668c16	0.05628594
4	0x3d68bd67	0.056821253
5	0xbdde3fef	-0.10852038
6	0xbe082201	-0.13294221
7	0xbd2e0271	-0.042482797
8	0x3bae43b1	0.005318128
9	0xbcae49a2	-0.021275345
10	0xbcc258f4	-0.023724057
11	0xbe14915e	-0.14508578
12	0xbe0aca0b	-0.13553636
13	0xbdc6563a	-0.09684415
14	0x3dc09d19	0.09404964
15	0x3cdc2194	0.02687148
16	0xba81e5bb	-0.0009910384
17	0xbd8a043e	-0.067390904
18	0x3d3afe39	0.045652602
19	0x3e2bc834	0.1677559
20	0xbe172884	-0.14761549
21	0x3e1ff020	0.15618944
22	0x3d496f51	0.049178425
23	0x3e160599	0.14650573
24	0xbe0ebac3	-0.13938431
25	0x3e0dbd16	0.13841662
26	0xbb78a22f	-0.0037938466
27	0xbe0ca1df	-0.13733624
28	0xbd40d90f	-0.047082003
29	0xbd53dcac	-0.05172412
30	0xbe13e590	-0.1444304
31	0x3c90f98a	0.017697114
32	0x3c18ced5	0.009326656
33	0x3e261b48	0.16221344
34	0x3d894f5e	0.06704591
35	0x3e1e9031	0.15484692
36	0x3e269dc1	0.16271116
37	0xbccda0aa	-0.025101025
38	0x3dc2316a	0.09482081
39	0xbe2bcfc2	-0.16778472
40	0x3e15d093	0.14630346
41	0x3dde5674	0.108563334
42	0x3e2cf815	0.16891511
43	0xbe29d91a	-0.16586724
44	0x3bb4fc63	0.005523251
45	0xbe1524c5	-0.14564808
46	0x3db97eff	0.09057426
47	0xbe15f876	-0.14645562
48	0xbe0b5982	-0.13608363
49	0x3d0dfdca	0.03466586
50	0xbe106958	-0.14102685
51	0xb946b0f7	-0.00018948676
52	0x3d69927d	0.057024468
53	0xbe1c9940	-0.15292835
54	0xbe06a86e	-0.13150188
55	0x3e017922	0.12643865
56	0xbe0fcf5c	-0.14043945
57	0x3d98302a	0.074310616
58	0x3d8b65a8	0.06806499
59	0x3e0ae6ce	0.13564608
60	0x3e15fd4c	0.14647406
61	0xbcab382c	-0.020900808
62	0xbe2aa2ff	-0.1666374
63	0x3e136d84	0.14397246
64	0x3d925879	0.07145781
65	0xbe229a47	-0.15879165
66	0x3df815e2	0.12113549
67	0x3ce0b91e	0.02743202
68	0x3bb1cfec	0.0054263975
69	0x3cd74386	0.026277315
70	0x3db3f59a	0.08787079
71	0xbd875e7f	-0.066098206
72	0x3b8efc31	0.0043635597
73	0xbe06a5b5	-0.1314915
74	0xbde7e30e	-0.11322604
75	0xbd9f673d	-0.07783363
76	0x3e215c81	0.15757944
77	0x3e298e15	0.16558106
78	0x3dcf68ad	0.10127387
79	0x3d8abc6a	0.067742184
80	0xbd2feb49	-0.042948995
81	0xbe2392f2	-0.15974024
82	0x3dd01211	0.10159696
83	0xbdd31a76	-0.103077814
84	0xbd82f041	-0.06393481
85	0x3ddcffe3	0.10790994
86	0xbdd2620b	-0.102726065
87	0xbe19542e	-0.14973518
88	0xbe182c55	-0.14860661
89	0xbe0f0d2f	-0.13969873
90	0xbd5a2920	-0.053261876
91	0x3d6d9069	0.05799905
92	0xbd43a739	-0.047766898
93	0x3dcf3861	0.10118175
94	0x3e13c81a	0.14431801
95	0xbde2a50d	-0.11066637
96	0x3d9a043c	0.07520339
97	0x3db466b2	0.0880865
98	0x3d8c4104	0.06848338
99	0xbdda19e0	-0.106494665
100	0xbda72c70	-0.08162773
101	0xbe01053d	-0.12599654
102	0x3e118eaa	0.14214578
103	0xbda10c01	-0.07863618
104	0x3e199c4b	0.15001027
105	0x3b675c2f	0.0035302748
106	0xbd9c352b	-0.076273285
107	0xbdc9e1b0	-0.098574996
108	0xbdd58b1f	-0.10426926
109	0xbdd4406e	-0.103638515
110	0x3dfe039c	0.12403032
111	0xbb936c5f	-0.004499003
112	0xbd1e35d9	-0.038625572
113	0x3d8a2aa9	0.06746418
114	0x3df8e2ef	0.12152659
115	0x3e27b6de	0.16378352
116	0x3d5505a9	0.05200735
117	0xbd4a86fd	-0.04944514
118	0xbe2506d3	-0.16115884
119	0x3deb466e	0.11488043
120	0xbda176cc	-0.07883987
121	0xbd98f1dc	-0.07468006
122	0x3e1d7224	0.15375572
123	0x3e20f68b	0.15719049
124	0x3e014601	0.1262436
125	0xbda66a08	-0.081256926
126	0x3d6d6fea	0.057968058
127	0xbc96c1f5	-0.018403033

branch_t.fc2.weight f4 [64, 128]
0	0xbcfd7654	-0.030940212
1	0x3cff81f0	0.031189889
2	0x3d7f7a5a	0.062372543
3	0x3c4e15b8	0.01257842
4	0xbd101f43	-0.035186063
5	0xbcb81a04	-0.022473343
6	0xbda9bfe2	-0.08288552
7	0x3d76336a	0.060107626
8	0xbc2cdd70	-0.010550842
9	0xbda73785	-0.081648864
10	0x3d360796	0.04444083
11	0x3d5d0762	0.05396212
12	0xbdaf7fdb	-0.08569308
13	0x3b9a4590	0.0047079995
14	0x3d5f7fb2	0.05456514
15	0xbd2b10b1	-0.041763965
16	0xbd48f8ca	-0.04906539
17	0x3d6e482a	0.05817429
18	0xbd1f2efe	-0.038863175
19	0x3d154342	0.036441095
20	0x3d9ca1c7	0.07648044
21	0x3cfebb18	0.031095073
22	0xbb48cd40	-0.0030639917
23	0xbdaa6bd9	-0.083213516
24	0x3ce24c28	0.027624205
25	0xbc7edcb0	-0.015555546
26	0xbd9de2ae	-0.07709251
27	0x3d67971a	0.056540586
28	0x3d354c8e	0.04426246
29	0xbd314929	-0.04328266
30	0xbcc2c130	-0.02377376
31	0x39f71600	0.00047127903
32	0xbb7b8140	-0.00383766
33	0x3c299a00	0.010351658
34	0x3c2a6288	0.010399468
35	0x3cc150f0	0.023598164
36	0x3cec4e0c	0.02884581
37	0xbd11eec5	-0.0356281
38	0x3d2ae4b2	0.041722007
39	0xbccf1f38	-0.025283441
40	0x3d82623f	0.06366395
41	0x3db0f013	0.086395405
42	0xbd8955d2	-0.06705822
43	0x3c86f420	0.01647383
44	0x3cfed67c	0.031108133
45	0xbd65c6dd	-0.056097854
46	0x3c593dc8	0.013259359
47	0xbd889d24	-0.06670597
48	0xbd5eef16	-0.05442723
49	0xbbd3d350	-0.0064643994
50	0xbd57b44f	-0.05266219
51	0xbcac0eb4	-0.021003105
52	0x3bddc120	0.006767407
53	0x3c890db0	0.01673016
54	0x3c708af0	0.014681563
55	0x3da18a53	0.078877114
56	0xbda1a28e	-0.07892333
57	0xbc906910	-0.017628223
58	0x3d7f338e	0.062305026
59	0xbd4e6c06	-0.050395988
60	0xbdadc231	-0.08484305
61	0xbd07a1f0	-0.03311342
62	0xbd18c3cd	-0.037296105
63	0xbc5d3238	-0.013500743
64	0xbb64d9c0	-0.0034919828
65	0xbb276ca0	-0.0025546923
66	0xbd94a339	-0.07257695
67	0x3da6a69f	0.08137249
68	0xbd5fe4cb	-0.054661553
69	0xbc3b57e8	-0.011434533
70	0x3da35527	0.07975226
71	0xbd9ef2e8	-0.077611744
72	0xbcec0aa6	-0.028813671
73	0xbd441c34	-0.04787846
74	0x3d5a8926	0.05335345
75	0x3bd25e40	0.006419927
76	0xbcd7b37e	-0.026330706
77	0xbbdd9c70	-0.0067630336
78	0xbd371c1e	-0.04470455
79	0xbd5665f5	-0.052343328
80	0xbbcc7c80	-0.0062404275
81	0xbd439fcf	-0.047759827
82	0x3c00fc38	0.007872634
83	0x3d4ba312	0.049716063
84	0xbc9b48e8	-0.018955663
85	0xbcba9564	-0.022776313
86	0xbda0cb5d	-0.078512885
87	0x3d1e62ae	0.038668327
88	0xbda5874d	-0.08082447
89	0xbd826284	-0.063664466
90	0x3d917d21	0.071039446
91	0x3ce0279c	0.027362637
92	0x3d990f4f	0.07473623
93	0x3ccb5244	0.0248195
94	0x3c8a5ba8	0.016889408
95	0xbc3e5ca8	-0.011618771
96	0xbd9c65e6	-0.07636623
97	0xbd4d9085	-0.050186653
98	0xbd1a63ca	-0.037692823
99	0x3cfd4cf0	0.030920476
100	0xbd87ee0d	-0.066372015
101	0x3d10e192	0.03537137
102	0xbd8227e2	-0.06355263
103	0xbdb1488f	-0.086564176
104	0xbd5eeef1	-0.05442709
105	0xbc5eb438	-0.013592772
106	0xbd868c82	-0.065697685
107	0x3d52dd56	0.051480614
108	0xbdb00df1	-0.08596409
109	0xbd517297	-0.051134672
110	0xbd380256	-0.044924103
111	0x3d1b9fce	0.0379942
112	0x3cda1624	0.026621886
113	0x3d83b4db	0.0643098
114	0xbd70888c	-0.05872397
115	0x3d5097c2	0.050925978
116	0x3c606c40	0.013697684
117	0xbdac8590	-0.084239125
118	0x3da4bad9	0.08043451
119	0xbd8a5399	-0.06754226
120	0x3d9d2ebd	0.0767493
121	0xbcce7078	-0.025200114
122	0xbd40304a	-0.046921052
123	0x3daa6a61	0.083210714
124	0xbd2b352a	-0.041798748
125	0x3ada7680	0.0016667396
126	0x3ce6996c	0.02814933
127	0x3d8d83a3	0.06909873
128	0x3dac65dd	0.084178664
129	0x3cc29854	0.023754276
130	0x3ac0ca40	0.0014708713
131	0x3d8ee7f1	0.06977833
132	0x3d9f1263	0.07767179
133	0x3d91fcf3	0.07128324
134	0x3da3e81b	0.08003255
135	0x3d728bf2	0.059215494
136	0xbd340eff	-0.043959614
137	0x3bb8fa10	0.005645044
138	0x3ced9c64	0.029005237
139	0x3cea22e8	0.028581098
140	0xbd92602a	-0.07147248
141	0x3d592a02	0.053018577
142	0xbcf4d7ee	-0.02988812
143	0xbd6d1978	-0.057885617
144	0x3cdfeff8	0.027336106
145	0xbd479647	-0.0487273
146	0xbd944f67	-0.07241707
147	0xbda9c0f0	-0.08288753
148	0xbd948089	-0.07251079
149	0x3cf390d0	0.029732138
150	0xbda7a21f	-0.08185219
151	0xbcb9854c	-0.022646569
152	0x3b1fb7a0	0.0024370924
153	0x3b891e70	0.0041845366
154	0xbd916af2	-0.07100476
155	0x3d5bc23a	0.053652026
156	0xbd4c2bda	-0.049846508
157	0x3d632336	0.0554535
158	0x3c2f1528	0.010686196
159	0xbd43d69f	-0.0478121
160	0xbc9173b0	-0.01775536
161	0x3d2c753e	0.042104
162	0x3d94fccd	0.072747804
163	0xbd6a8790	-0.05725819
164	0xbc3ecea8	-0.01164595
165	0xbc6fcbf8	-0.014636032
166	0xbc37a048	-0.011207648
167	0x3d75f736	0.06005021
168	0xbd509a8f	-0.05092865
169	0xbd920180	-0.07129192
170	0xbd120a7b	-0.035654526
171	0x3b30dce0	0.002698712
172	0xbd797ef2	-0.06091208
173	0x3d4cd79a	0.0500103
174	0xbd2ea0d6	-0.042633854
175	0xbc3aaf50	-0.011394337
176	0x3d76524e	0.060137086
177	0xbc704908	-0.0146658495
178	0xbd9da0e0	-0.076967
179	0xbd4c3dba	-0.049863555
180	0xbc9c26e8	-0.01906152
181	0x3a9df100	0.0012049973
182	0x3d70476e	0.05866187
183	0x3d4de422	0.050266393
184	0xbd244801	-0.04010773
185	0x3caa0798	0.020755574
186	0xbc4719e8	-0.012152173
187	0xbd7086b6	-0.05872222
188	0xbd68e6c5	-0.056860704
189	0x3cb21ca8	0.02174218
190	0x3a9db980	0.0012033433
191	0x3c52bd58	0.012862526
192	0xbd7456d2	-0.05965311
193	0x3d88d8db	0.06681987
194	0x3b533a60	0.003223084
195	0x3be67710	0.0070332363
196	0xbb2f3a00	-0.0026737452
197	0x3c939cfc	0.018019192
198	0x3c0e59a0	0.00868836
199	0x3d865301	0.065588005
200	0xbd9f2960	-0.077715635
201	0x3d890309	0.06690032
202	0x3cab95e4	0.020945497
203	0x3afa2400	0.0019084215
204	0xbc3b6da8	-0.011439718
205	0xbd3fe71e	-0.04685127
206	0xbcbe2868	-0.023212627
207	0xbd2f642d	-0.042820144
208	0xbc954d54	-0.01822535
209	0x3c3f3718	0.01167085
210	0xbd0e6958	-0.034768432
211	0x3cf84e30	0.03031072
212	0x3d8d9101	0.06912423
213	0xbd940418	-0.07227343
214	0x3db4bf27	0.08825522
215	0xbd8c59fa	-0.06853099
216	0xbd5ca641	-0.05386949
217	0x3d09c326	0.033633374
218	0x3ce834fc	0.028345577
219	0x3d8f718f	0.070040815
220	0xbce0b6b8	-0.027430877
221	0x3d783f36	0.060607158
222	0x3db10975	0.08644382
223	0xbc24cd20	-0.010058671
224	0x3c4511d0	0.012028173
225	0xbd53e3c3	-0.051730882
226	0xbdab0181	-0.08349896
227	0x3d04df60	0.03243959
228	0x3d72dce6	0.059292696
229	0xbd248ab1	-0.04017133
230	0xbd49b602	-0.04924584
231	0xbd6499b1	-0.055810634
232	0xbcd15f18	-0.02555804
233	0xbd858282	-0.06519033
234	0x3c79fde8	0.01525829
235	0xbb10f340	-0.0022117645
236	0x3c230080	0.00994885
237	0xbd99cb6c	-0.07509503
238	0x3d161096	0.03663691
239	0xbd1e8e40	-0.03870988
240	0x3d0b8f2a	0.03407208
241	0x3cfab08c	0.030601762
242	0xbd38afc1	-0.045089487
243	0xbb8c8ce0	-0.0042892545
244	0x3c889f7c	0.01667761
245	0xbc85afc0	-0.016319156
246	0xbc26fc80	-0.010192037
247	0xbbd625c0	-0.006535262
248	0xbc9fa740	-0.01948893
249	0x3d1bc45a	0.038029052
250	0x3cdfaac4	0.027303107
251	0xbd2d25ea	-0.042272486
252	0x3d910ff9	0.07083125
253	0x3ca7839c	0.020448498
254	0xbd838f2c	-0.06423792
255	0x3d9b5387	0.07584291

branch_t.fc2.bias f4 [64]
0	0xbd9fccbf	-0.07802724
1	0xbd76e4b8	-0.060276717
2	0x3d8b8f2b	0.068144165
3	0x3d526dee	0.05137437
4	0xbc9084f4	-0.017641522
5	0x3d950c03	0.07277682
6	0x3d9dd6a8	0.07706958
7	0x3cfd0ddc	0.030890398
8	0x3bff7d59	0.007796925
9	0xbcbb8489	-0.022890346
10	0xbc90ba2a	-0.017666895
11	0x3d2c8a80	0.04212427
12	0xbb9bb44d	-0.004751718
13	0xbd84e263	-0.06488492
14	0x3d4144cd	0.047184754
15	0x3c4982a8	0.012299217
16	0xbd0dad03	-0.034588825
17	0x3d33c056	0.043884598
18	0x3d91848c	0.071053594
19	0x3cc0bc0c	0.023527168
20	0x3cd04051	0.025421293
21	0x3db33009	0.08749396
22	0x39bb2bd4	0.00035700074
23	0xbd36ce56	-0.04463037
24	0x3d9de5d4	0.07709852
25	0xbdb3ad20	-0.08773255
26	0xbbf77937	-0.0075522917
27	0x3d6b687d	0.057472695
28	0x3c216254	0.009850103
29	0x3d01c8f8	0.0316858
30	0x3d934782	0.071913734
31	0x3cb44649	0.02200617
32	0x3a9e2cc0	0.001206778
33	0x3d229531	0.03969306
34	0x3d130eb8	0.03590271
35	0xbd26a3f9	-0.04068372
36	0x3bcad349	0.006189738
37	0xbd542d87	-0.05180123
38	0x3db153fa	0.086585954
39	0x3d1f2b2e	0.03885954
40	0x3b3f2102	0.0029163961
41	0x3da6efa2	0.08151175
42	0xbc1cff01	-0.009582282
43	0x3d9f0b87	0.077658705
44	0x3c0e8702	0.008699181
45	0x3c1b621e	0.009483842
46	0xbd19de1f	-0.037565347
47	0x3d95ce0a	0.073146895
48	0xbc8f5978	-0.017498717
49	0xbd1fd30b	-0.039019626
50	0xbd930603	-0.07178881
51	0x3d2aefb3	0.0417325
52	0x3cb894c4	0.022531874
53	0xbd74daaa	-0.059778847
54	0xbd757e6a	-0.05993501
55	0x3d4b559c	0.04964219
56	0x3cb60b98	0.022222325
57	0xbd844b2f	-0.06459653
58	0xbc24a843	-0.010049882
59	0x3cb6b21e	0.02230173
60	0x3d2a1f3e	0.0415337
61	0x3d41c453	0.04730637
62	0xbd47fdf9	-0.04882619
63	0xbc12598c	-0.008932482

branch_t.fc3.weight f4 [16, 64]
0	0x3bc321a0	0.005954936
1	0x3cdaddb8	0.026717052
2	0xbdcc07df	-0.09962439
3	0xbd7289cb	-0.05921344
4	0x3b987860	0.0046530217
5	0xbdff485e	-0.12464975
6	0x3dcb7849	0.09935052
7	0xbd675f88	-0.05648759
8	0xbdba9214	-0.091098934
9	0xbc523759	-0.012830579
10	0xbba0b530	-0.0049044117
11	0xbddf3a83	-0.10899832
12	0xbce2bdbf	-0.027678369
13	0xbde50148	-0.11181885
14	0xbd427f60	-0.047484756
15	0x3d891b98	0.06694716
16	0x3d269940	0.040673494
17	0xbd5a6d04	-0.05332662
18	0x3d6799b4	0.056543067
19	0xbdd8c856	-0.10585086
20	0xbdf7c3fa	-0.120979264
21	0xbd1c475a	-0.038153984
22	0x3c89b547	0.016810073
23	0x3ba56840	0.005047828
24	0xbd385177	-0.044999566
25	0xbdc4a4f1	-0.096017726
26	0x3df03f6b	0.11730846
27	0xbdd57435	-0.10422555
28	0xbdc964f2	-0.09833707
29	0x3d920669	0.07130129
30	0x3c4dd244	0.012562338
31	0x3dd22fd9	0.102630325
32	0x3de6f76e	0.11277662
33	0x3c1f813d	0.009735403
34	0x3d1074ef	0.035267767
35	0xbdef1b88	-0.11675173
36	0x3dd088c4	0.10182336
37	0x3d3003c0	0.042972326
38	0xbd1d0871	-0.03833813
39	0xbd64b0f8	-0.055832833
40	0xbcde3d46	-0.027128827
41	0x3d841130	0.06448591
42	0x3b702732	0.0036644456
43	0x3cc23a9d	0.02370959
44	0xbd410ab2	-0.04712934
45	0xbd36cd47	-0.04462936
46	0x3d63878c	0.05554919
47	0xbd1907d0	-0.037360966
48	0xbe0064c9	-0.12538446
49	0xbdcf968c	-0.101361364
50	0x3dd28898	0.102799594
51	0xbd364fe3	-0.04450978
52	0xbdae2490	-0.085030675
53	0xbd768d4d	-0.06019335
54	0xbccc1808	-0.024913803
55	0x3d746201	0.059663776
56	0xbd9daef0	-0.07699382
57	0x3bacbe00	0.005271673
58	0xbd776ea7	-0.06040826
59	0x3dd3e075	0.10345546
60	0x3db7505a	0.08950873
61	0x3dc722fb	0.09723469
62	0x3d0534b7	0.032520976
63	0x3ddafceb	0.106927715
64	0x3dcfb484	0.101418525
65	0x3c1d37d0	0.009595826
66	0xbc738400	-0.014863014
67	0x3c304e50	0.010760859
68	0x3d434cf0	0.047680795
69	0x3dd4bf90	0.103881
70	0xbdb59a80	-0.08867359
71	0xbd173574	-0.03691621
72	0xbdfabaec	-0.12242684
73	0x3d1359a0	0.035974145
74	0x3d846a6c	0.06465611
75	0x3d89022a	0.06689866
76	0xbd927a10	-0.07152188
77	0x3d8c73f2	0.06858052
78	0x3da73390	0.08164132
79	0xbdb810e8	-0.089875996
80	0xbd3b3b10	-0.045710623
81	0x3cb0cda0	0.021582425
82	0x3d9785c4	0.07398561
83	0xbc8df5a8	-0.017329052
84	0x3da62512	0.08112539
85	0x3d1e06b0	0.038580596
86	0xbcb2b648	-0.021815434
87	0x3c8f7e48	0.01751627
88	0x3ddb910a	0.107210234
89	0x3d1f2684	0.03885509
90	0xbdc8f2c6	-0.0981193
91	0xbd899340	-0.06717539
92	0xbc242b40	-0.010020077
93	0x3dac1244	0.084019214
94	0x3c428110	0.011871591
95	0xbd89f158	-0.06735486
96	0xbcc54820	-0.024082243
97	0x3bc48fe0	0.0059985965
98	0xbda19f46	-0.07891707
99	0x3de87222	0.11349894
100	0x3dd6c94c	0.10487613
101	0xbdeb2eb4	-0.11483517
102	0xbdb8780e	-0.090072736
103	0xbd98fed8	-0.074704826
104	0x3cffd330	0.031228632
105	0x3bf04740	0.0073327124
106	0x3caf8c68	0.021429256
107	0x3d380254	0.044924095
108	0xbdf948f6	-0.12172119
109	0xbdbf4952	-0.093401566
110	0x3bc2ed00	0.0059486628
111	0xbdbf2b0a	-0.09334381
112	0xbc6df3c0	-0.014523447
113	0x3d31d850	0.043419182
114	0xbdd8a19c	-0.105776995
115	0xbdaa5012	-0.083160535
116	0xbd9420e0	-0.07232833
117	0xbd8bc4b0	-0.068246245
118	0xbdb08df0	-0.086208224
119	0xbdd4c650	-0.103893876
120	0x3d31784c	0.043327615
121	0x3c5bd030	0.013416335
122	0xbdbbdf96	-0.09173505
123	0xbd3cddd8	-0.046110004
124	0x3d13fb1c	0.03612815
125	0x3da63776	0.08116047
126	0x3d8db340	0.06918955
127	0x3d965da6	0.07342081
128	0xbd559b80	-0.05215025
129	0x3dd14e7a	0.10220046
130	0x3d34bf52	0.04412777
131	0xbda3ea7f	-0.08003711
132	0x3df7f484	0.121071845
133	0x3ddf0738	0.10890049
134	0x3c990f09	0.018683927
135	0x3dee8cc0	0.1164794
136	0xbdee2d92	-0.116297856
137	0xbc7d33cb	-0.015454243
138	0x3c1ec8c5	0.009691422
139	0xbda9cd60	-0.08291125
140	0xbdb782ed	-0.08960519
141	0x3be322a0	0.006931618
142	0x3d9bb673	0.07603159
143	0x3d58c368	0.05292073
144	0x3cf56f74	0.029960372
145	0xbd9002d0	-0.070317864
146	0xbdc7fc6d	-0.09764943
147	0x3d611684	0.054953113
148	0xbdbe7823	-0.09300258
149	0xbdab1a18	-0.08354586
150	0xbdbab418	-0.091163814
151	0x3d8b6e04	0.06808093
152	0x3d89b38e	0.067237005
153	0xbdae8643	-0.08521702
154	0x3dbfbdc7	0.09362369
155	0xbd7368d0	-0.05942613
156	0x3cc0564b	0.023478648
157	0xbcf42f35	-0.029807666
158	0x3d36ce4b	0.04463033
159	0xbda57d71	-0.08080567
160	0x3d337ec8	0.04382208
161	0x3d65221f	0.055940744
162	0xbbc92dff	-0.0061395164
163	0xbd75ea6c	-0.060038015
164	0xbdd7a9bd	-0.10530422
165	0xbde3e987	-0.11128526
166	0x3db9a1f0	0.0906409
167	0xbdd34501	-0.10315896
168	0x3c40a2ba	0.011757547
169	0xbc3c7c32	-0.01150422
170	0xbd2e4364	-0.042544737
171	0x3c286f84	0.010280494
172	0x3da17d0a	0.078851774
173	0x3d2b56b4	0.041830733
174	0xbda027d2	-0.07820095
175	0x3dbe9bc9	0.093070574
176	0x3dac3df8	0.08410257
177	0xbd45a03c	-0.048248515
178	0x3cf2918a	0.029610414
179	0xbd84ab86	-0.06478028
180	0x3d9d39c0	0.076770306
181	0x3db676fa	0.08909412
182	0xbdbc8c9e	-0.09206508
183	0x3d871239	0.065952726
184	0xbdd4d94e	-0.1039301
185	0x3dc7c4d2	0.09754337
186	0x3d9012bc	0.07034823
187	0xbc3326e0	-0.0109345615
188	0x3d0d67bc	0.034522757
189	0xbd3f3d08	-0.046689063
190	0xbdbd9b9e	-0.09258197
191	0x3d2fe619	0.042944048
192	0x3d98b26c	0.07455906
193	0xbddafb4e	-0.10692464
194	0xbd80d35a	-0.06290312
195	0xbd805658	-0.06266469
196	0xbd0fff94	-0.035155848
197	0x3c370650	0.011170939
198	0x3ce8c612	0.02841476
199	0xbc0efcb0	-0.008727238
200	0xbbf45ee7	-0.0074576023
201	0x3d8856ac	0.06657156
202	0x3d3f1a13	0.046655726
203	0xbacab7fa	-0.0015466206
204	0xbdaa3f9b	-0.08312913
205	0x3d91c20e	0.07117091
206	0x3d9ce12d	0.07660136
207	0x3cdd9ae8	0.027051404
208	0xbc16a34d	-0.009194207
209	0x3c823f38	0.015899286
210	0x3debe669	0.115185566
211	0xbcdacef8	-0.026710019
212	0xbc842cd2	-0.016134653
213	0xbda3fa56	-0.08006732
214	0x3e0014be	0.12507913
215	0xbd4487d4	-0.0479811
216	0xbd8ec92b	-0.069719635
217	0x3d31fadb	0.043452125
218	0xbd963859	-0.07334966
219	0xbc8578cd	-0.016292954
220	0xbd0bfeb9	-0.03417847
221	0x3d029327	0.031878617
222	0x3d99b9e8	0.07506162
223	0x3de808cc	0.11329803
224	0x3df0980e	0.11747752
225	0x3dba8ab3	0.09108486
226	0x3d5932a5	0.053026814
227	0xbc3c87c0	-0.011506975
228	0xbc2f3ff2	-0.010696398
229	0x3dd48ce2	0.10378434
230	0x3d9b189a	0.07573052
231	0xbcca6dbf	-0.024710534
232	0x3d9d8cd6	0.07692878
233	0x3c13ccf2	0.009021031
234	0xbd7646db	-0.060126167
235	0x3ca2eecb	0.019889256
236	0xbd8b7f8c	-0.06811437
237	0xba91e1f7	-0.0011129965
238	0x3d827bc0	0.0637126
239	0x3d83cb8b	0.06435307
240	0xbd692fec	-0.056930467
241	0x3d353b88	0.044246227
242	0xbd911c79	-0.07085509
243	0xbddb0704	-0.106946975
244	0x3dd6c6de	0.1048715
245	0xbdfb4e9c	-0.12270853
246	0xbdf2d97a	-0.118578866
247	0x3d2fab0f	0.042887744
248	0x3d2a42fc	0.041567788
249	0x3d2277a4	0.03966488
250	0xbdfe1ccb	-0.124078356
251	0xbda16175	-0.078799166
252	0x3dbd1f0a	0.09234436
253	0x3c090134	0.008362103
254	0xbdac4c2b	-0.084129654
255	0x3d958d8e	0.0730239

branch_t.fc3.bias f4 [16]
0	0x3db1e292	0.08685793
1	0xbcb536a8	-0.022120789
2	0xbdbfdcc1	-0.09368277
3	0x3cf55b3a	0.029950727
4	0x3cf46a77	0.029835923
5	0x3d6fac71	0.058514062
6	0x3dc2f10e	0.09518634
7	0x395d74e4	0.00021119748
8	0xbc7ae270	-0.015312776
9	0x3c9c7a09	0.01910116
10	0x3da0de7b	0.07854935
11	0xbdcec15c	-0.10095474
12	0x3c8d134a	0.017221112
13	0x3d6c4185	0.05767967
14	0xbdfba871	-0.12287987
15	0xbd8517ae	-0.06498657

branch_p.fc1.weight f4 [256, 34]
0	0x3e131f2d	0.14367361
1	0x3d3327df	0.043739196
2	0xbc95e75b	-0.018298795
3	0xbd606cdf	-0.054791328
4	0x3b1704b1	0.0023043568
5	0xbdfd0e88	-0.12356287
6	0x3d7ef159	0.062241886
7	0x3e02d613	0.12776975
8	0x3dd720cc	0.105043024
9	0x3c7b3bc1	0.015334071
10	0x3e2f713c	0.17133039
11	0xbde6b9ee	-0.11265932
12	0xbe124d2d	-0.14287253
13	0x3dc7a73d	0.09748695
14	0xbe09683f	-0.13418673
15	0x3dcb6631	0.09931601
16	0xbd932299	-0.07184333
17	0xbdb75c63	-0.08953168
18	0x3caeaa50	0.021321446
19	0x3df4ef8b	0.11959752
20	0xbdea9f70	-0.114561915
21	0xbcc2c4bf	-0.023775456
22	0x3e264e1c	0.16240734
23	0x3e0afbdf	0.13572644
24	0xbded7725	-0.11594991
25	0xbd8599ba	-0.06523462
26	0xbd1057a4	-0.03523983
27	0xbe04aaed	-0.12955828
28	0xbdfb108b	-0.12259015
29	0x3e2a0abd	0.16605659
30	0xbd6656c2	-0.056235082
31	0xbd2d1c54	-0.042263344
32	0x3dd724b7	0.1050505
33	0x3d98449a	0.0743496
34	0xbbe5bf68	-0.007011343
35	0xbe2a0749	-0.16604342
36	0xbe28c1e5	-0.16480215
37	0xbdace9a9	-0.08443005
38	0xbb12325e	-0.0022307853
39	0x3c0f9295	0.008762975
40	0x3d2978d1	0.041374985
41	0xbdb9a9e2	-0.09065606
42	0x3ddbb1e9	0.10727293
43	0x3d21ee1a	0.039533712
44	0x3d1cecf0	0.0383119
45	0xbe07f301	-0.13276292
46	0x3db3403d	0.08752487
47	0xbe00feea	-0.12597242
48	0xbd7285ce	-0.059209637
49	0xbca8e102	-0.020615105
50	0xbd161993	-0.036645483
51	0x3c9d4db9	0.0192021
52	0xbdc3ae58	-0.09554738
53	0x3ddb9581	0.10721875
54	0x3db10097	0.08642691
55	0xbd78c760	-0.060737014
56	0xbd6a2ee2	-0.057173617
57	0x3b958847	0.0045633647
58	0xbd9586da	-0.073011115
59	0xbdf07a6e	-0.117421016
60	0xbd9b57dd	-0.07585118
61	0xbc842b57	-0.016133947
62	0x3e17d373	0.14826755
63	0xbdbb1b73	-0.09136095
64	0x3e27cba7	0.16386281
65	0x3de4b882	0.111680046
66	0x3d9f5177	0.0777921
67	0x3d614907	0.055001285
68	0x3b348485	0.0027544808
69	0xbcb621c0	-0.02223289
70	0xbd9f8511	-0.07789052
71	0xbdfa0add	-0.12209103
72	0xbdce25ef	-0.10065829
73	0x3e21f1ba	0.15814868
74	0xbd68e291	-0.056856696
75	0x3d43067d	0.04761361
76	0xbc9264da	-0.017870355
77	0xbd444cf8	-0.047924966
78	0xbd88c5fb	-0.06678387
79	0x3d39069c	0.04517232
80	0x3ccce544	0.025011666
81	0xbe23fac9	-0.16013636
82	0xbd49a647	-0.04923084
83	0x3da9d274	0.08292094
84	0xbe0a4085	-0.13501175
85	0x3c49db2d	0.012320322
86	0xbd2dadd8	-0.04240212
87	0xbdab4067	-0.08361893
88	0x3e2571ba	0.16156664
89	0xbddd76dd	-0.10813687
90	0xbdc3ff7c	-0.09570214
91	0xbd829b9e	-0.06377338
92	0x3db95447	0.09049278
93	0xbd3cb8cb	-0.04607467
94	0x3d24b98c	0.040216014
95	0x3b93c859	0.0045099673
96	0xbe00d5db	-0.1258158
97	0xbd0a0cf8	-0.033703774
98	0x3df6bd24	0.120477945
99	0xbe23acea	-0.1598393
100	0xbd8be077	-0.06829923
101	0xbe0f77cb	-0.14010541
102	0x3d23fc75	0.040035684
103	0x3ce78cb9	0.028265344
104	0xba406153	-0.0007338721
105	0xbda49682	-0.080365196
106	0x3d40a95c	0.047036514
107	0x3c936b1d	0.017995412
108	0xbe13a029	-0.14416565
109	0x3cee918f	0.029122142
110	0xbdf1e444	-0.11811116
111	0xbe1121b1	-0.14173009
112	0x3e1d4ae9	0.15360607
113	0x3dbf46bc	0.093396634
114	0x3e26be1b	0.16283457
115	0x3d4e795f	0.050408717
116	0x3ddcdb3c	0.10784003
117	0xbe0fe894	-0.14053565
118	0xbdfcd961	-0.12346149
119	0x3cae605d	0.021286184
120	0x3dbf734a	0.093481615
121	0xbe15b4bc	-0.14619726
122	0xbe1b4cb3	-0.15165977
123	0x3da289bd	0.07936428
124	0x3df635dc	0.120219916
125	0xbdc18b88	-0.094504416
126	0x3a83b659	0.0010048851
127	0xbd1ff33f	-0.039050337
128	0x3d3fed77	0.046857323
129	0xbe00047b	-0.12501709
130	0xbe291491	-0.16511752
131	0xbde9fcfe	-0.114252076
132	0x3d0e6881	0.03476763
133	0x3cbd2bef	0.023092238
134	0x3dfebbbf	0.124381535
135	0x3c2b85f5	0.01046895
136	0x3c883357	0.016626043
137	0xbd074b09	-0.033030543
138	0xbdf4b7fc	-0.11949155
139	0x3e208d00	0.15678787
140	0xbdede933	-0.11616745
141	0x3da56a40	0.08076906
142	0x3e10eb56	0.14152274
143	0x3dd40f94	0.10354534
144	0xbe0ca09f	-0.13733147
145	0xbe1034c5	-0.1408263
146	0x3e00210b	0.12512605
147	0xbd9fb2b5	-0.077977575
148	0xbe131d0e	-0.14366552
149	0x3d8d971f	0.0691359
150	0xbda07859	-0.078354545
151	0x3d80899b	0.06276246
152	0x3e1e7608	0.15474713
153	0xbe09eb7d	-0.13468738
154	0x3c0f5dfa	0.008750433
155	0xbe282fd5	-0.16424496
156	0x3d3f059b	0.046636205
157	0xbe13e9f5	-0.14444716
158	0xbe300734	-0.17190248
159	0x3dc32cad	0.095300056
160	0xbd75c247	-0.05999973
161	0xbe0eb528	-0.13936293
162	0x3d46e44d	0.04855757
163	0xbd9ac69b	-0.07557412
164	0xbd3fa17e	-0.04678487
165	0xbc91f38b	-0.017816326
166	0x3d0f60bd	0.035004366
167	0x3d3038af	0.043022808
168	0x3e23eeec	0.1600911
169	0x3e25fd61	0.16209938
170	0x3e22c57b	0.15895645
171	0xbdaf8357	-0.08569973
172	0xbd79bf4e	-0.060973458
173	0xbe094b91	-0.13407733
174	0xbd305a6c	-0.043054983
175	0xbe2a4bb6	-0.16630444
176	0x3e2096dd	0.1568255
177	0x3c08ade4	0.00834224
178	0x3e128d72	0.1431177
179	0x3e0f4e60	0.13994741
180	0xbdcd8f39	-0.10037083
181	0x3b80df62	0.0039328793
182	0x3da702a6	0.08154802
183	0x3d631516	0.05544003
184	0x3e17aa6f	0.14811109
185	0xbc421140	-0.011844933
186	0x3e2325aa	0.15932336
187	0xbdd8bdc3	-0.10583069
188	0x3de146ec	0.109998554
189	0x3c2cc154	0.01054414
190	0xbdac1ab8	-0.08403534
191	0x3c8e31e3	0.017357772
192	0x3d6e6efc	0.05821131
193	0xbcfa945d	-0.030588323
194	0xbe2e44df	-0.1701846
195	0x3d8b4fd9	0.06802339
196	0x3dd99698	0.106244266
197	0x3de52a95	0.111897625
198	0x3d43256f	0.04764312
199	0x3c875873	0.016521668
200	0xbdec4f87	-0.11538606
201	0x3d207bad	0.039180446
202	0x3aee5217	0.0018182424
203	0xbc473eff	-0.0121610155
204	0xbdb32879	-0.08747954
205	0xbdf95475	-0.12174312
206	0x3cc4c331	0.024018856
207	0xbcf5696d	-0.029957497
208	0xbd6a0121	-0.057129983
209	0x3de0d0d2	0.10977329
210	0xbc7aace9	-0.015300014
211	0xbddf5b0d	-0.109060384
212	0x3bd02063	0.006351517
213	0x3dddf60b	0.108379446
214	0x3d3178b2	0.043327995
215	0x3e198e6d	0.14995737
216	0xbe2ec581	-0.1706753
217	0xbbf9cb8f	-0.007623143
218	0x3d63ce44	0.055616632
219	0x3df1ab7e	0.11800288
220	0x3dbe7772	0.09300126
221	0xbd5008a3	-0.050789487
222	0x3e0cddb3	0.13756447
223	0x383af1da	4.4571098e-05
224	0x3dbec937	0.093157224
225	0x3da62722	0.08112933
226	0xbda22fef	-0.07919299
227	0xbdc18934	-0.094499975
228	0x3dbf4f1b	0.0934126
229	0x3bb63d59	0.0055615124
230	0xbcde9730	-0.027171701
231	0xbdb865b9	-0.09003777
232	0x3df1730a	0.1178952
233	0x3abdb230	0.001447266
234	0x3e22ca0a	0.15897384
235	0xbe29db3d	-0.16587539
236	0x3dffa7b1	0.124831565
237	0xbb3e70a2	-0.0029058834
238	0xbdd54771	-0.10414017
239	0x3c9a3fb6	0.018829208
240	0x3dc3bbce	0.09557305
241	0x3e14ea7e	0.14542577
242	0xbddab09a	-0.10678215
243	0x3d9c8b81	0.07643796
244	0xbe14982b	-0.14511172
245	0xbe1e9a6f	-0.15488599
246	0x3db15f18	0.08660716
247	0x3d368a84	0.044565693
248	0xbdd61780	-0.10453701
249	0x3d9295f4	0.071575075
250	0x3de9a53e	0.114084706
251	0xbe13380f	-0.14376853
252	0xbd8301d4	-0.06396833
253	0x3e1e0b66	0.15434036
254	0x3e228d56	0.15874228
255	0xbe2cd825	-0.16879328

branch_p.fc1.bias f4 [256]
0	0xbe07af2a	-0.13250414
1	0x3d04c50e	0.03241449
2	0x3c8861ea	0.016648252
3	0x3d8009ba	0.06251855
4	0xbdd175b5	-0.10227529
5	0x3cd5dd8a	0.026106615
6	0xbd8a252d	-0.06745372
7	0xbe206407	-0.15663157
8	0xbc8b4748	-0.017001763
9	0xbd7ce1ed	-0.061738897
10	0xbe171854	-0.14755374
11	0xbb84b801	-0.0040502553
12	0xbe1731b8	-0.1476506
13	0xbdf03019	-0.11727924
14	0x3ddca61e	0.10773872
15	0xbe1ae836	-0.15127644
16	0x3e2e6135	0.17029269
17	0x3de02ec1	0.109464176
18	0xbda6b5be	-0.08140133
19	0x3e2e1069	0.16998447
20	0xbdff2a98	-0.12459296
21	0xbcb03889	-0.021511333
22	0xbdb11322	-0.086462274
23	0xbe011e0c	-0.12609118
24	0x3e0c77db	0.13717596
25	0x3e1be10a	0.15222564
26	0x3de104a9	0.10987217
27	0xbe1cf751	-0.15328719
28	0xbe0586c3	-0.13039689
29	0x3c0ba64d	0.008523536
30	0x3df430b1	0.1192335
31	0xbdee6431	-0.11640204
32	0xbdc00d67	-0.09377556
33	0xbdfd110c	-0.12356767
34	0x3d5e66b7	0.054297175
35	0x3df99911	0.12187398
36	0xbdc9e552	-0.098581925
37	0x3d10c4e8	0.035344034
38	0xbe123b81	-0.14280511
39	0x3df34b69	0.11879618
40	0x3e136b34	0.14396363
41	0xbc154b80	-0.009112239
42	0x3e0673ff	0.13130186
43	0xbd9a3adf	-0.0753076
44	0x3d1c0acb	0.03809623
45	0xbe2dca24	-0.16971642
46	0x3e1a0bf9	0.1504363
47	0xbc8df243	-0.017327433
48	0x3db75b58	0.08952969
49	0xbd6bc751	-0.05756313
50	0x3dcce19d	0.1000397
51	0xbe2dd946	-0.16977414
52	0x3d852d69	0.06502802
53	0xbdd0d2ef	-0.101964824
54	0x3e2dd0aa	0.1697413
55	0x3ca2c8e4	0.019871183
56	0xbe284649	-0.16433062
57	0x3d905a7e	0.0704851
58	0x3d83370d	0.064069845
59	0xbd93fa29	-0.07225449
60	0x3bbc06cd	0.0057381154
61	0xbda57c27	-0.08080321
62	0x3d22cf19	0.039748285
63	0xbdb8dff5	-0.090270914
64	0x3c214747	0.009843654
65	0x3d8ecc79	0.06972594
66	0xbe1e9066	-0.15484771
67	0xbd2b20dc	-0.041779384
68	0xbe24b482	-0.16084483
69	0xbd815eaa	-0.06316884
70	0xbd6d9b35	-0.058009345
71	0xb8c099a4	-9.183891e-05
72	0x3dc82608	0.09772879
73	0xbde351c6	-0.110995814
74	0x3e12907c	0.14312929
75	0xbded94e7	-0.116006665
76	0x3d8e2c3a	0.06942029
77	0x3ce3ec74	0.02782271
78	0xbdffd3dc	-0.12491581
79	0xbd1e75f7	-0.03868672
80	0x3e2e8f36	0.17046818
81	0x3e2d6405	0.16932686
82	0xba1238b4	-0.00055779074
83	0xbe1a94f4	-0.15095884
84	0x3e2e4ce3	0.17021517
85	0xbcbbdcf5	-0.022932509
86	0x3dc7d7e6	0.09757976
87	0xbd88c96e	-0.06679045
88	0x3d290ef9	0.041274045
89	0xbe236c02	-0.1595917
90	0x3c8b4f5d	0.017005617
91	0xbc13def1	-0.009025321
92	0xbda78352	-0.08179344
93	0x3d7052b1	0.05867261
94	0x3cbce42b	0.023058018
95	0x3e0360e2	0.12829927
96	0xbe15b1c0	-0.14618587
97	0x3d13a081	0.03604174
98	0xbd6a9171	-0.05726761
99	0x3e1e4f2e	0.15459892
100	0x3db74785	0.08949188
101	0x3d219c1e	0.039455526
102	0x3dd64f4f	0.10464346
103	0x3dbda4f3	0.09259977
104	0xbdc56c77	-0.09639829
105	0xbdc0be1d	-0.09411261
106	0xbe205bae	-0.15659973
107	0x3e214cca	0.15751949
108	0x3d66d4a9	0.056355152
109	0xbd800e0f	-0.062526815
110	0xbddb0f5e	-0.106962904
111	0x3e1674f0	0.14693046
112	0x3daeff20	0.08544755
113	0xbd13b0bf	-0.03605723
114	0x3e21fdb1	0.15819432
115	0xbd96de9e	-0.073666796
116	0x3d8d05a3	0.06885841
117	0x3e06b25b	0.13153975
118	0xbe0db8f3	-0.13840084
119	0xbd5ef22a	-0.054430164
120	0xbe07b28f	-0.13251708
121	0x3e2ed6d0	0.17074132
122	0xbdc10e58	-0.09426564
123	0xbdf774e6	-0.120828435
124	0x3e077755	0.13229115
125	0x3d38fcc6	0.04516294
126	0x3d849727	0.064741425
127	0xbdc99ecb	-0.098447405
128	0xbcb48981	-0.022038223
129	0xbd755a02	-0.05990029
130	0xbdf9ed32	-0.122034445
131	0x3d6a7f9a	0.057250597
132	0xbdc2b302	-0.09506799
133	0x3e27f4b0	0.16401935
134	0x3d88e1fe	0.066837296
135	0xbdda2419	-0.10651416
136	0x3dc2aaa6	0.09505205
137	0xbd11915e	-0.035539024
138	0x3d7e3092	0.06205804
139	0xbd8fed41	-0.070276745
140	0x3e18dea1	0.14928676
141	0xbdef34fa	-0.11680026
142	0xbd6d5512	-0.057942457
143	0x3cafa955	0.021443048
144	0xbdc6f548	-0.097147524
145	0xbd884aac	-0.066548675
146	0xbe2b5928	-0.16733229
147	0x3dab9ced	0.083795406
148	0x3de67f34	0.11254731
149	0xbc31718b	-0.010830293
150	0xbdfedb73	-0.124442
151	0xbd1a67fc	-0.037696823
152	0x3dd5b315	0.10434548
153	0x3cab1f25	0.020888874
154	0x3dc86c36	0.097862646
155	0x3e1e7907	0.15475856
156	0xbc481a4b	-0.0122133
157	0xbdc9a4c9	-0.098458834
158	0x3d521dbc	0.05129789
159	0x3dda71b2	0.10666217
160	0xbdfc0bde	-0.12306951
161	0x3e193126	0.14960155
162	0xbd121751	-0.035666768
163	0x3e0596f5	0.13045867
164	0xbc303203	-0.010754111
165	0x3e2193d1	0.15779044
166	0x3e0149c8	0.12625802
167	0x3beede81	0.007289708
168	0xbb043750	-0.002017457
169	0x3d03f8c7	0.032219674
170	0x3b384565	0.0028117534
171	0x3dbd7e42	0.092525974
172	0x3ccc08f4	0.024906613
173	0xbdce0aee	-0.100606784
174	0x3e1b266f	0.1515138
175	0xbe16202e	-0.14660713
176	0xbd540693	-0.051764082
177	0xbb045718	-0.0020193513
178	0xbe0a8f11	-0.13531138
179	0x3da73a54	0.08165422
180	0x3d275422	0.04085172
181	0xbe0946af	-0.1340587
182	0x3c6001fb	0.013672347
183	0xbdaeb328	-0.08530265
184	0xbd264200	-0.040590286
185	0x3e2c444f	0.16822933
186	0xbdd0d5e8	-0.101970494
187	0x3ce8c0f8	0.028412327
188	0x3e1763cd	0.14784165
189	0xbe2699b6	-0.16269574
190	0xbacb40b2	-0.0015506952
191	0xbe171e2b	-0.14757602
192	0xbb437112	-0.0029822034
193	0x3d56fdcc	0.052488133
194	0x3d6c0fd9	0.0576323
195	0x3e2f858b	0.17140786
196	0xbdbf9ba7	-0.0935586
197	0x3d33668f	0.04379898
198	0xbe235def	-0.15953802
199	0x3e162f78	0.14666545
200	0x3db631c8	0.08896214
201	0x3d619229	0.05507103
202	0xbc3435cf	-0.010999157
203	0xbca60ff4	-0.020271279
204	0x3e04a32f	0.12952875
205	0x3e0831c6	0.13300237
206	0xbd394003	-0.045227062
207	0x3d0eb402	0.034839638
208	0x3e12e430	0.14344859
209	0x3cc32d6e	0.023825374
210	0xbe07db65	-0.13267286
211	0x3e18645e	0.14882037
212	0x3d866b4b	0.06563433
213	0x3e2fc370	0.17164397
214	0xbdccd9e7	-0.10002499
215	0xbd54b07c	-0.05192612
216	0xbd47b081	-0.04875231
217	0xbe0152d0	-0.12629247
218	0xbded7367	-0.11594277
219	0xbde40429	-0.11133606
220	0x3db793a2	0.089637056
221	0x3e2e391a	0.1701397
222	0x3de0fcb8	0.10985702
223	0xbe29f870	-0.16598678
224	0x3e1ce6ad	0.15322371
225	0x3e20a00e	0.15686056
226	0x3d31423f	0.043276068
227	0xbc8570b3	-0.01628909
228	0x3df6932f	0.12039792
229	0x3e1850ed	0.1487462
230	0x3da59a52	0.08086075
231	0x3df055cb	0.11735114
232	0xbc8fd7a9	-0.01755889
233	0x3e029fc4	0.12756258
234	0x3dda8d6a	0.10671504
235	0xbe084401	-0.13307191
236	0xbc2cedbd	-0.010554728
237	0xbe1879ec	-0.1489026
238	0x3d12cb8e	0.035838656
239	0xbd8c3bc2	-0.068473354
240	0x3cedcef7	0.029029353
241	0xbd7a4b1e	-0.061106794
242	0xbe161cf3	-0.14659481
243	0x3d7fee52	0.06248314
244	0xbd9101c9	-0.070804186
245	0x3e0a7b1f	0.1352353
246	0xbd2f92cf	-0.042864617
247	0xbc8ea398	-0.017411992
248	0xbbca1550	-0.0061670914
249	0xbd0fb2b0	-0.03508252
250	0x3e25f805	0.16207893
251	0xbe1e0387	-0.15431033
252	0xbdcad064	-0.099030286
253	0x3d06258a	0.032750644
254	0xbdcb8acb	-0.09938582
255	0x3db3677a	0.08759971

branch_p.fc2.weight f4 [128, 256]
0	0xbc21cdc0	-0.009875715
1	0xbd04a9d0	-0.03238851
2	0xbc7b2ec9	-0.015330979
3	0xbc19b94f	-0.00938256
4	0xbc903509	-0.017603414
5	0x3d0c4469	0.03424493
6	0x3b2fb170	0.0026808642
7	0xbd5895bd	-0.052877177
8	0x3d56a167	0.05240002
9	0x3d0ccc62	0.034374602
10	0xbc24154b	-0.010014842
11	0xbc4ae518	-0.012383722
12	0x3cbc2098	0.02296476
13	0xbd4dc37f	-0.050235268
14	0xbd2a8c80	-0.041637897
15	0x3ae391ce	0.0017362179
16	0x3c8c40a9	0.017120676
17	0xbca0bee5	-0.019622276
18	0x3d5ef647	0.054434087
19	0x3bc6eea4	0.0060709286
20	0xbd63b019	-0.05558786
21	0xbccbe04d	-0.024887228
22	0xbce13082	-0.02748895
23	0x3d76d4ec	0.060261652
24	0xbd1122a0	-0.03543341
25	0x3c639d7e	0.0138925295
26	0xbd73cd56	-0.059521995
27	0xbceb6986	-0.028736841
28	0x3cfcfe11	0.030882867
29	0xbd5396ca	-0.051657476
30	0x3d748cbc	0.059704527
31	0xbd4c5b83	-0.04989196
32	0x3b7d3fc0	0.0038642734
33	0xbd70f2fa	-0.05882547
34	0xbd0a3615	-0.033742983
35	0x3c9fc750	0.01950422
36	0x3b25ffab	0.0025329392
37	0xbd251298	-0.040300936
38	0x3bf78ee9	0.007554878
39	0x3cd8a1ae	0.026444282
40	0xbd20f3e0	-0.039295077
41	0xbd054f78	-0.03254649
42	0xbd7bd02d	-0.06147783
43	0x3c3ef8dc	0.011656012
44	0xbd46ef1a	-0.04856787
45	0xbc406699	-0.011743211
46	0xbd6b1201	-0.057390217
47	0x3d3208d6	0.043465458
48	0xbc2fcea9	-0.010730424
49	0xbd69d0c2	-0.057083853
50	0x3d3b1494	0.04567392
51	0x3d19197d	0.037377823
52	0x3c54e9e2	0.012995215
53	0xbce47c45	-0.027891288
54	0xbd64a042	-0.055816896
55	0xbbd007a0	-0.006348565
56	0xbc932ed3	-0.017966663
57	0x3d3133db	0.043262344
58	0x3cb02925	0.021503994
59	0x3c8f4330	0.017488092
60	0xba2b37fc	-0.00065314746
61	0x3bd030bd	0.0063534663
62	0xbcaf2e99	-0.021384524
63	0x3c37ffa0	0.011230379
64	0x3c9c05ea	0.019045789
65	0xbc0c83da	-0.008576358
66	0xbd65fafa	-0.056147553
67	0xbd50ceeb	-0.050978582
68	0x3d581d84	0.052762523
69	0x3c328c59	0.010897719
70	0x3d2f020d	0.042726565
71	0xbccacb04	-0.024755009
72	0xbcff90b1	-0.031196924
73	0x3c02f08a	0.007991919
74	0xbc9700cd	-0.018432999
75	0x3d3dc3ea	0.046329416
76	0xbd6ca4eb	-0.057774466
77	0xbcf156f7	-0.029460413
78	0x3cdb5f5b	0.026778867
79	0x3d12d193	0.035844397
80	0xbbf55dc0	-0.0074879825
81	0x3cfe2236	0.031022172
82	0x3d661b96	0.05617865
83	0x3cbe2a23	0.023213452
84	0x3d72528a	0.059160747
85	0x3c855635	0.016276458
86	0x3c4dd455	0.012562831
87	0xbc487748	-0.01223547
88	0xbc80561e	-0.015666064
89	0x3d1c6c51	0.038189236
90	0xbd46bd4f	-0.048520382
91	0x3c7baa0b	0.015360366
92	0xbbc7cd54	-0.006097475
93	0xbd49fc71	-0.049313013
94	0x3d518085	0.051147956
95	0xbd40b14d	-0.047044087
96	0x3d2f3377	0.04277369
97	0x3c05be2a	0.008163014
98	0x3cee4aec	0.02908846
99	0x3d38397d	0.0449767
100	0xbd436df9	-0.0477123
101	0xbcddc368	-0.027070716
102	0x3c4229ae	0.0118507575
103	0x3cc334ac	0.023828827
104	0xbd64d077	-0.05586287
105	0xbd0cd855	-0.034385998
106	0x3c8ebcb0	0.017423958
107	0xbd371297	-0.044695463
108	0xbd7b3c6f	-0.06133693
109	0xbc9553e8	-0.018228486
110	0xbce912bd	-0.028451318
111	0x3b3c080d	0.0028691322
112	0x3d60ba40	0.05486512
113	0xbd29489c	-0.04132901
114	0xbd07a7fc	-0.033119187
115	0x3d1db324	0.03850092
116	0xbd3a3a7e	-0.04546594
117	0x3d09722f	0.03355616
118	0xbd5f81f8	-0.054567307
119	0xbd1175e0	-0.035512805
120	0x3c3ec4f4	0.011643637
121	0xbd13f15e	-0.036118858
122	0xbab283c3	-0.001361959
123	0x3cb3a44d	0.02192893
124	0xbd4fe658	-0.050756782
125	0x3d41e8a2	0.047340997
126	0x3d64d3c7	0.05586603
127	0xbd04d510	-0.032429755
128	0xbd418f0e	-0.04725557
129	0x3d0d14e5	0.034443755
130	0xbc740335	-0.014893343
131	0x3d1f56a7	0.038900997
132	0xbc16c224	-0.00920156
133	0x3d190aa6	0.03736367
134	0xbc86706e	-0.016411033
135	0x3bb414f7	0.0054956633
136	0x3d36849e	0.044560067
137	0xbd5dede7	-0.05418196
138	0xbcc3d3f8	-0.023904786
139	0xbd3b8da8	-0.04578939
140	0xbc8ded52	-0.017325077
141	0x3b57c45c	0.0032923436
142	0xbb9be774	-0.004757816
143	0x3cd8cfec	0.026466332
144	0xbbc80224	-0.006103771
145	0xbd4da483	-0.05020572
146	0xbd334e75	-0.043775994
147	0x3bc57890	0.006026335
148	0x3d328f99	0.043593977
149	0xbd47083c	-0.048591837
150	0xbcfebaf8	-0.031095013
151	0xbc81df8b	-0.015853664
152	0x3c752315	0.0149619775
153	0xbd4327b9	-0.047645304
154	0x3cc0d359	0.023538278
155	0xbd41e5fa	-0.047338463
156	0x3c3448b4	0.011003662
157	0x3d1db70f	0.038504656
158	0xbd4ae189	-0.049531493
159	0x3d15d01d	0.036575425
160	0xbd20c0e9	-0.039246473
161	0xbc9b0ee3	-0.018927997
162	0xbd2f3501	-0.042775158
163	0xbca98141	-0.020691516
164	0xbd7e88e5	-0.06214227
165	0x3d1b006d	0.037842203
166	0x3d2be5be	0.041967146
167	0xbc752bca	-0.014964053
168	0xbd716b51	-0.058940236
169	0x3b77e5c6	0.0037826165
170	0xbd7fbe4d	-0.062437344
171	0xbd2c38d5	-0.042046387
172	0x3d3f0a10	0.046640456
173	0xbc48a24b	-0.012245725
174	0xbd330327	-0.04370418
175	0x3d1f7b7b	0.03893612
176	0xbd7c8ce8	-0.061657816
177	0x3ced943a	0.029001344
178	0x3c8b6b15	0.017018834
179	0xbd1b1187	-0.037858512
180	0xbd2e5bff	-0.042568203
181	0xbd6535e1	-0.055959586
182	0xbc30254b	-0.010751079
183	0xbd2d2cca	-0.042279042
184	0x3cf33958	0.02969043
185	0x3caee913	0.021351373
186	0xbd5ad236	-0.05342313
187	0xbd100e7c	-0.035170063
188	0x3d3ff77a	0.04686687
189	0xbbc54164	-0.006019758
190	0xbc008185	-0.00784338
191	0xbb8f263f	-0.004368573
192	0xbd18af90	-0.037276804
193	0x3d274cf7	0.040844884
194	0xbd3cb0a5	-0.0460669
195	0x3d76f31d	0.060290445
196	0x3d6caec8	0.057783872
197	0xbaad129b	-0.0013204397
198	0x3d7836b8	0.06059906
199	0x3c705e8a	0.014670977
200	0xbd227992	-0.03966672
201	0xbce1fad1	-0.027585419
202	0x3d4e6063	0.05038489
203	0x3d2fe559	0.042943332
204	0x3cd294c3	0.0257057
205	0x3cf77670	0.030207843
206	0x3d1b9d78	0.03799197
207	0xbc9537b2	-0.018215034
208	0x3d39e355	0.045382816
209	0x3d7a07c3	0.06104256
210	0xbd3e4138	-0.046448916
211	0x3c1eb8d7	0.009687624
212	0xbc65dba9	-0.014029422
213	0x3cd435c2	0.02590454
214	0xbd465019	-0.04841623
215	0xbc625519	-0.013814234
216	0x3b632b0c	0.003466311
217	0xbd2ced2e	-0.04221838
218	0x3c192baa	0.009348789
219	0x3cb3af6b	0.021934232
220	0xbc2687e4	-0.010164235
221	0x3bce2903	0.00629151
222	0x3d45de5c	0.04830776
223	0xbd7f0110	-0.062256873
224	0xbcc562c9	-0.024094956
225	0x3d2a847c	0.041630253
226	0xbc6e167d	-0.014531729
227	0xbd555e2a	-0.052091755
228	0x3d052b6d	0.032512117
229	0x3d0262ba	0.031832434
230	0x3cbe8afe	0.023259636
231	0xbd46cc54	-0.048534706
232	0x3d73589e	0.059410684
233	0x3d0dce2f	0.03462046
234	0x3d514649	0.05109242
235	0x3c67d3ec	0.014149647
236	0xbd801c83	-0.06255438
237	0xbc58e9f4	-0.0132393725
238	0x3d039f22	0.032134183
239	0x3c8de6f0	0.017322034
240	0xbc423dfe	-0.0118556
241	0xbd784b30	-0.06061858
242	0x3c99ce2a	0.018775064
243	0xbcb88b73	-0.022527432
244	0x3d2083e1	0.03918827
245	0xbd1b52d6	-0.037920795
246	0x3d780833	0.060554694
247	0x3ce09785	0.027416
248	0xbcdff208	-0.02733709
249	0xbd279205	-0.04091074
250	0x3cbe4102	0.023224358
251	0x3c197f74	0.009368766
252	0xbd1755df	-0.036947127
253	0xbd7a8e7b	-0.061171036
254	0x3d3b8d7d	0.04578923
255	0xbcdc6bfc	-0.02690696

branch_p.fc2.bias f4 [128]
0	0x3ca73837	0.020412548
1	0x3cef3251	0.029198797
2	0xbbd3dab2	-0.0064652795
3	0x3cf3b32a	0.029748518
4	0xbcac25aa	-0.021014053
5	0x3c89bf86	0.016814958
6	0x3d24db87	0.04024842
7	0xbd583565	-0.052785296
8	0xbd421126	-0.047379635
9	0xbd4c58ba	-0.049889304
10	0xbd2b427c	-0.04181145
11	0x3d4ce019	0.050018404
12	0x3d0e1698	0.034689516
13	0xbcf909f2	-0.03040025
14	0x3d7e065b	0.06201778
15	0x3d1ec9ea	0.03876678
16	0xbd6fd599	-0.058553312
17	0xbd3bae5f	-0.04582059
18	0xbbdf4471	-0.006813579
19	0x3d1d5e68	0.03842011
20	0x3d61f854	0.055168465
21	0x3d36fc7d	0.044674385
22	0xbd729eb9	-0.0592334
23	0xbc901e6c	-0.017592631
24	0xbc583a56	-0.013197502
25	0xbd35aed2	-0.044356175
26	0x3d726403	0.05917741
27	0x3d4fe517	0.050755586
28	0xbd738e68	-0.05946198
29	0xbd19c593	-0.037541937
30	0x3cc7407d	0.024322743
31	0x3d078d14	0.033093527
32	0xbc831626	-0.016001772
33	0xbd3bdc56	-0.045864426
34	0x3d70419e	0.058656327
35	0x3d217f96	0.039428316
36	0x3ccd9cf0	0.025099248
37	0x3d5d93ec	0.054096147
38	0xbb9fb211	-0.004873522
39	0xbcfc6bdb	-0.030813148
40	0xbbd8c4a2	-0.0066152373
41	0xbd7cdbd0	-0.061733067
42	0xbce60810	-0.028080016
43	0xbd6f0d42	-0.058362253
44	0xbcc08e64	-0.023505397
45	0x3ca89ce2	0.02058262
46	0xbb31a156	-0.002710422
47	0xbc8a9148	-0.016914979
48	0x3d59dd14	0.053189352
49	0xbd263ecf	-0.040587243
50	0x3b2f30f5	0.0026732062
51	0x3c769276	0.015049567
52	0x3d0f0b93	0.034923147
53	0x3b8135b0	0.0039431676
54	0xbd24c582	-0.04022742
55	0x3bdcf770	0.006743364
56	0x3c2e7893	0.010648864
57	0x3d757657	0.05992731
58	0xbd216f10	-0.039412558
59	0xbc587721	-0.013211996
60	0x3b4c0f20	0.0031136945
61	0xbccb3271	-0.024804326
62	0x3d2108ea	0.03931514
63	0xbd49057d	-0.0490775
64	0xbca1dec7	-0.019759549
65	0x3c41b2e2	0.011822434
66	0x3cb7f79c	0.022456937
67	0xbc5f552f	-0.013631149
68	0x3d5c7830	0.053825557
69	0xbd60da64	-0.054895774
70	0x3d693dc6	0.056943677
71	0x3c81518d	0.015785957
72	0x3c89f450	0.01684013
73	0x3d1849eb	0.03717987
74	0xbcaf8738	-0.021426782
75	0x3cef764f	0.029231219
76	0xbd456df5	-0.048200566
77	0x3d1538f3	0.036431264
78	0x3ce6e415	0.02818493
79	0xbd2e27c6	-0.0425184
80	0xbc38cbd8	-0.011279069
81	0xbd08f91d	-0.033440698
82	0xbd5eaf90	-0.05436665
83	0x3b65aca0	0.003504552
84	0x3c771a3c	0.015081938
85	0xbcdb60ae	-0.026779499
86	0x3b2369bb	0.0024934846
87	0xbd20309f	-0.03910887
88	0x3d69b7e1	0.057060126
89	0xbd128244	-0.035768762
90	0x3d2ea56d	0.04263823
91	0xbd1e5ee2	-0.038664706
92	0x3d0f5210	0.03499037
93	0x3c4f9718	0.012670301
94	0xbd3dc3ce	-0.046329312
95	0xbc584f3a	-0.013202483
96	0x3b8434e0	0.0040346235
97	0xbc9636fa	-0.018336762
98	0xbc67b387	-0.014141924
99	0x3c218d02	0.009860279
100	0x3a84f38a	0.0010143381
101	0x3d6a8e9a	0.0572649
102	0x3c9c139c	0.01905232
103	0xbc70276d	-0.014657837
104	0xbcf8b716	-0.03036074
105	0x3cb409fb	0.021977415
106	0xbc9b5894	-0.018963136
107	0xbccf8c6f	-0.025335519
108	0x3d154f6a	0.03645269
109	0xbd2ae18e	-0.041719012
110	0xbd12a151	-0.035798375
111	0xbbe05f16	-0.0068472726
112	0xbd6262b3	-0.05526991
113	0x3d4f7a08	0.050653487
114	0x3c3acb4e	0.011401011
115	0x3d5e96b0	0.054342926
116	0xbd78f4fd	-0.060780514
117	0x3d1b5827	0.037925866
118	0x3d553f68	0.052062422
119	0xbd68b0d9	-0.05680928
120	0xbc857660	-0.016291797
121	0xbd63d891	-0.055626456
122	0xbc84fc79	-0.01623367
123	0x3d78c8ce	0.060738377
124	0xbd535ae6	-0.05160036
125	0xbcfa72b7	-0.030572278
126	0xbd1efa5b	-0.038812976
127	0xbd5d6760	-0.054053664
