d2calcbot/main/calc_bot/actual_models/dota_model_ver04.pth (torch, 66886 bytes, 33 tensors)

branch_t.fc1.weight f4 [30, 10]
0	0xbd0150b1	-0.031571094
1	0xbe9a50d0	-0.3013978
2	0x3e36b738	0.1784333
3	0xbe4caa8c	-0.19986933
4	0xbdc04a4b	-0.0938917
5	0x3d7a5a8e	0.061121516
6	0x3e267f06	0.16259393
7	0x3e81ac7b	0.25326905
8	0x3ced4c4d	0.028967047
9	0x3e8404ce	0.25784916
10	0xbd228a08	-0.039682418
11	0x3d386290	0.04501587
12	0x3d3ff263	0.046862017
13	0x3e30c81c	0.17263836
14	0xbd1b375a	-0.037894584
15	0x3e9a8505	0.3017961
16	0xbe13d2c6	-0.14435872
17	0x3e96e07b	0.2946814
18	0x3d9add5c	0.07561752
19	0xbd390aaf	-0.045176204
20	0xbe2911cc	-0.16510695
21	0x3cf96ee9	0.030448394
22	0xbe9c0383	-0.3047143
23	0x3e4a92e1	0.19782592
24	0x3e8ead03	0.27866372
25	0xbe943f0d	-0.28954354
26	0x3e8ece36	0.278917
27	0xbded95b1	-0.11600817
28	0x3d9e9cd1	0.07744754
29	0x3c1289ae	0.008943958
30	0xbe3aa23b	-0.18225949
31	0x3daa9987	0.08330064
32	0xbd198311	-0.03747851
33	0x3e974e09	0.29551724
34	0xbe122482	-0.14271739
35	0xbde70a5c	-0.11281273
36	0xbe688b0e	-0.22709295
37	0x3e931cf0	0.28733015
38	0xbd08db51	-0.03341228
39	0xbe15720f	-0.14594291
40	0x3e2d8582	0.1694546
41	0xbc871799	-0.016490744
42	0xbe541adc	-0.20713371
43	0xbe443f86	-0.19164857
44	0xbe8cda2e	-0.27510208
45	0xbde66182	-0.11249067
46	0x3e9008b8	0.28131652
47	0xbe95a292	-0.29225594
48	0xbe8f3f95	-0.27978197
49	0xbe991276	-0.29896897
50	0xbe38c526	-0.18043956
51	0xbe3b4c82	-0.18290904
52	0x3cf041a6	0.029328179
53	0xbe6a2fe2	-0.22869828
54	0x3d52fb9b	0.05150948
55	0xbe898418	-0.26858592
56	0x3df29a4e	0.118458375
57	0x3e7f7bff	0.24949645
58	0xbe29192a	-0.16513506
59	0x3e74ac3c	0.23893827
60	0x3e822d2d	0.2542509
61	0x3e6bba0a	0.23020187
62	0xbdc94d88	-0.09829241
63	0xbccf6159	-0.025314974
64	0xbcb0b600	-0.02157116
65	0xbe9d5473	-0.30728492
66	0xbe862bc9	-0.2620528
67	0x3e66b54d	0.22530098
68	0xbd175fa8	-0.03695646
69	0xbe920825	-0.2852184
70	0xbe8d5393	-0.27602825
71	0xbd0f05fa	-0.03491781
72	0xba40068b	-0.0007325194
73	0x3e870c8d	0.26376763
74	0x3ea1a362	0.31569964
75	0x3e81887c	0.25299442
76	0x3e9600c3	0.29297456
77	0x3e789e7d	0.24279208
78	0x3dfd465e	0.12366937
79	0x3da710c5	0.081574954
80	0x3dc36a54	0.09541765
81	0xbda0cf20	-0.07852006
82	0xbe0c3586	-0.13692293
83	0x3da8dfb8	0.08245796
84	0x3e880d28	0.26572537
85	0x3de43355	0.11142603
86	0x3dc0bb6d	0.09410749
87	0x3e229cab	0.15880077
88	0x3e5b121b	0.21393625
89	0xbd05d1ec	-0.0326709
90	0xbe9f2287	-0.3108103
91	0xbe73add7	-0.23796783
92	0xbe72ca7c	-0.23710054
93	0xbe123e8c	-0.14281672
94	0xbe988a9d	-0.29793254
95	0x3dbb10bd	0.09134052
96	0x3d3ebfd9	0.04656968
97	0xbcd1308f	-0.02553585
98	0xba476547	-0.0007606339
99	0xbe4095be	-0.18807122
100	0xbe3ac4ef	-0.18239187
101	0x3e8d2a73	0.2757145
102	0x3d050ff1	0.032485906
103	0x3e462fe8	0.19354212
104	0xbe0a33b1	-0.13496281
105	0x3dea1143	0.11429074
106	0xbe2e91d1	-0.17047812
107	0xbce0058b	-0.027346393
108	0x3dc25138	0.094881475
109	0x3e93750a	0.2880023
110	0xbe859475	-0.26089826
111	0x3d36ca17	0.04462632
112	0xbc9c1e9d	-0.019057566
113	0xbe2cbf71	-0.16869904
114	0x3de7171f	0.11283707
115	0x3e58a30b	0.21155946
116	0xbe714e56	-0.23565039
117	0x3e79da8d	0.24399777
118	0xbd1416d4	-0.036154583
119	0x3e7f0146	0.2490283
120	0x3e8869da	0.26643258
121	0xbe00d04b	-0.12579457
122	0x3e9877b1	0.29778817
123	0xbe99a525	-0.30008808
124	0x3dd9f112	0.10641684
125	0x3e88039f	0.26565263
126	0x3e3f4195	0.18677361
127	0xbde6c5d7	-0.11268204
128	0xbe9fa033	-0.3117691
129	0x3e820bea	0.25399715
130	0x3c4ea8ef	0.012613519
131	0x3d8436ac	0.0645574
132	0x3df93f25	0.12170247
133	0x3dc031e5	0.093845166
134	0x3e7bcea8	0.24590552
135	0xbc719b77	-0.014746538
136	0xbda0ad52	-0.07845558
137	0x3e9eba48	0.31001496
138	0x3de98076	0.11401455
139	0xbe6165fd	-0.22011562
140	0x3ccaa20c	0.024735473
141	0x3e1b12cd	0.1514389
142	0xbe9aea26	-0.30256766
143	0xbb94118c	-0.0045186933
144	0x3be19378	0.0068840347
145	0x3e5be3b3	0.21473579
146	0x3d2b41f0	0.04181093
147	0x3da248ce	0.07924043
148	0x3e136d2f	0.14397119
149	0x3e960c54	0.2930628
150	0x3e8ffadc	0.28121078
151	0xbe853c34	-0.26022494
152	0xbe5cbfcf	-0.21557544
153	0xbe20a8af	-0.15689348
154	0xbe9402c7	-0.2890837
155	0xbd3bb44b	-0.045826238
156	0xbe88e814	-0.26739562
157	0xbe18b37a	-0.14912215
158	0xbe017eef	-0.12646078
159	0x3e1d2b9f	0.15348671
160	0xbd6043ec	-0.054752275
161	0x3e9de7cf	0.30840918
162	0xbdbe01f9	-0.0927772
163	0x3e37f850	0.17965817
164	0x3e0076d3	0.12545328
165	0x3e847194	0.25867903
166	0xbe6df5b6	-0.23238263
167	0x3e44b30c	0.19208926
168	0xbe22bbe8	-0.15891993
169	0xbe7338d1	-0.23752142
170	0x3e41a2fa	0.18909827
171	0x3e9a8ea2	0.30186945
172	0x3e275b41	0.16343404
173	0xbe5ede23	-0.21764426
174	0x3dc477b3	0.09593143
175	0xbe26db21	-0.16294529
176	0xbdfb07ba	-0.12257333
177	0xbe9990d8	-0.2999332
178	0xbd955099	-0.072907634
179	0x3dc57029	0.096405335
180	0xbc8bbed3	-0.017058766
181	0xbe6bb203	-0.23017125
182	0xbe221bdf	-0.15830944
183	0xbc776d2a	-0.01510171
184	0xbe71d003	-0.23614506
185	0x3ddc7998	0.1076538
186	0xbe047ef9	-0.12939061
187	0xbc0be415	-0.008538266
188	0xbe498e27	-0.19683133
189	0xbe8ccf61	-0.27501968
190	0xbd8f1efc	-0.06988332
191	0x3e233420	0.15937853
192	0x3df1cc57	0.11806553
193	0x3d8f3ba6	0.06993799
194	0xbe8f0e2e	-0.27940506
195	0x3e1c598c	0.15268534
196	0x3dd68e14	0.10476318
197	0xbc9474ba	-0.018122066
198	0xbe053ced	-0.13011523
199	0xbcf07344	-0.029351838
200	0x3d24d3bf	0.040241
201	0xbd51cc57	-0.051220264
202	0x3bc9b251	0.00615529
203	0x3dec0536	0.115244314
204	0x3daeab8b	0.08528813
205	0x3e3561d8	0.17713106
206	0x3df6b5cd	0.120463945
207	0x3e9f48d9	0.31110266
208	0x3e8079d1	0.2509294
209	0x3e8e8504	0.27835858
210	0x3e2e5907	0.17026149
211	0x3e68424b	0.22681539
212	0xbe3d0718	-0.18459737
213	0x3e3fc1ad	0.18726225
214	0x3df8e16a	0.12152369
215	0xbd043c89	-0.032284293
216	0xbe1033ef	-0.14082311
217	0xbde2412b	-0.11047586
218	0xbd3a9dc3	-0.04556061
219	0xbe5dedc6	-0.21672735
220	0x3d60f3d3	0.05492003
221	0x3d31fafc	0.043452248
222	0xbd75683e	-0.059913866
223	0xbd5022fb	-0.05081461
224	0xbdc4a4cb	-0.09601744
225	0x3e3cc0bd	0.18432899
226	0xbe5c65e6	-0.21523246
227	0x3e916b23	0.2840205
228	0x3e6f0278	0.23340786
229	0xbda7b175	-0.08188144
230	0xbdfd360d	-0.12363825
231	0xbe617140	-0.22015858
232	0xbe88f2e9	-0.26747826
233	0x3c912ac5	0.01772059
234	0x3e606354	0.2191289
235	0xbd7e8217	-0.062135782
236	0x3e88abe8	0.26693654
237	0xbd8cce7d	-0.06875322
238	0x3dce1eb5	0.10064451
239	0xbce63d21	-0.02810532
240	0x3e3f9bb9	0.18711747
241	0xbdfa2437	-0.12213939
242	0xbe0ed314	-0.13947707
243	0xbdbd3790	-0.09239113
244	0x3e8457f0	0.2584834
245	0xbe43a444	-0.19105631
246	0x3d94646e	0.07245718
247	0x3dcca12d	0.09991679
248	0x3e9514ec	0.29117525
249	0x3e54f983	0.20798306
250	0xbdec930c	-0.115514845
251	0xbe5caf46	-0.21551237
252	0x3cab1fec	0.020889245
253	0xbe58e433	-0.21180801
254	0xbd61e639	-0.055151198
255	0x3e1c9cf9	0.15294255

branch_t.fc1.bias f4 [30]
0	0xbe0af1c1	-0.13568784
1	0x3d9a3139	0.0752892
2	0x3e17e2d3	0.1483262
3	0xbaa4c0d3	-0.0012569673
4	0x3e5d4e65	0.21611936
5	0xbd2fa202	-0.042879112
6	0xbe69429a	-0.22779313
7	0xbe319d5b	-0.17345183
8	0x3e1c1031	0.15240552
9	0x3e50399c	0.20334476
10	0xbd877608	-0.066143095
11	0xbcbfd1b6	-0.023415428
12	0x3dbe0be7	0.09279614
13	0xbe3aac8a	-0.18229881
14	0x3dd0c533	0.10193863
15	0xbe4dc227	-0.20093594
16	0xbe688fdc	-0.22711128
17	0xbe40bf34	-0.18822938
18	0xbe7ee721	-0.24892856
19	0xbda5eb7c	-0.08101556
20	0xbe846f6d	-0.2586626
21	0x3e9de7ee	0.3084101
22	0xbdd19f47	-0.10235458
23	0xbd0f18b7	-0.03493568
24	0xbe858180	-0.26075363
25	0x3de075f7	0.1096
26	0x3dc92e5a	0.09823294
27	0x3db5a4d7	0.08869331
28	0x3d21e402	0.039524086
29	0x3e59d1e6	0.21271476

branch_t.fc2.weight f4 [20, 30]
0	0x3d764057	0.060119953
1	0xbe2bc380	-0.16773796
2	0xbd7a5098	-0.061112016
3	0xbda66387	-0.08124452
4	0xbe098756	-0.13430533
5	0xbd72e88e	-0.059303813
6	0x3c8945f9	0.016756998
7	0xbe36ca3e	-0.17850587
8	0xbcedb829	-0.029018478
9	0x3dae7608	0.085186064
10	0xbe383f73	-0.17992954
11	0xbd514f93	-0.05110128
12	0x3d4e793d	0.05040859
13	0x3c410434	0.011780787
14	0x3df46b66	0.11934547
15	0xbdbe48d4	-0.092912346
16	0x3cae8950	0.02130571
17	0x3c8a6af2	0.016896699
18	0xbd08c65e	-0.033392303
19	0xbd8df494	-0.06931415
20	0xbde7113f	-0.11282586
21	0xbe17c6cd	-0.1482193
22	0xbe0d6d48	-0.13811219
23	0x3cf4ce12	0.029883418
24	0x3e204ec0	0.1565504
25	0xbc5b565e	-0.013387291
26	0xbd91095c	-0.07081863
27	0xbde54dfe	-0.111965165
28	0x3e346391	0.17616107
29	0xbdf7cdb1	-0.120997794
30	0x3df38d73	0.11892214
31	0x3e3072d7	0.17231308
32	0x3d5fa4b7	0.054600444
33	0xbe331c12	-0.17491177
34	0xbd69808c	-0.057007357
35	0xbb9c002e	-0.0047607636
36	0x3d73ad93	0.059491705
37	0xbe015f65	-0.12634046
38	0x3c12383e	0.008924542
39	0x3c228316	0.009918949
40	0xbdb7adcc	-0.08968696
41	0xbe116863	-0.14199977
42	0xbcd407eb	-0.025882682
43	0x3d99583f	0.07487535
44	0xbc4ee7d8	-0.012628518
45	0xbddea717	-0.108717136
46	0x3cc14690	0.023593217
47	0xbcea40fa	-0.028595436
48	0x3dff6a57	0.124714546
49	0x3d02cf9d	0.031936277
50	0xbd83af66	-0.06429939
51	0xbdc49d0a	-0.09600265
52	0xbd896880	-0.06709385
53	0x3df77530	0.120828986
54	0xbd783592	-0.060597964
55	0xbdb02c8f	-0.08602249
56	0x3ccd9c08	0.025098816
57	0x3ddc26e3	0.107496046
58	0xbd8eb22e	-0.06967579
59	0xbd8d2a3b	-0.068928204
60	0x3e24662c	0.160546
61	0xbd1eece4	-0.038800135
62	0xbe2fcdce	-0.17168352
63	0xbe0b032f	-0.13575433
64	0x3c720b5b	0.014773215
65	0x3df19436	0.11795847
66	0x3dc54321	0.096319444
67	0x3dbe21cc	0.0928379
68	0x3db4d889	0.08830363
69	0x3da85e09	0.08221061
70	0xbbb638a6	-0.0055609522
71	0xbe0fc4d0	-0.14039922
72	0x3e0cd9d8	0.13754976
73	0xba2fed61	-0.00067110924
74	0xbd45cdd9	-0.048292015
75	0xbe373429	-0.17890991
76	0xbd7c55a2	-0.061605103
77	0x3d960b7e	0.07326411
78	0xbaf63eea	-0.001878706
79	0x3e19f072	0.15033129
80	0xbc5c0356	-0.01342853
81	0xbd00d665	-0.031454463
82	0x3c6c92f8	0.014439337
83	0xbe287737	-0.16451727
84	0xbd21ef93	-0.039535116
85	0x3d16009e	0.036621682
86	0xbd8cb0f4	-0.06869689
87	0xbdd4cc6b	-0.10390552
88	0x3df0465b	0.11732169
89	0xbd411e8b	-0.04714827
90	0xbd6ba99e	-0.057534806
91	0xbe028630	-0.12746501
92	0xbd706c4f	-0.05869704
93	0xbe000820	-0.125031
94	0xbd51ead7	-0.05124935
95	0x3da33231	0.079685576
96	0xbdecf96c	-0.11571011
97	0xbe0589a5	-0.13040788
98	0x3db72ef4	0.089445025
99	0x3c50e2f0	0.012749419
100	0xbe052af1	-0.13004662
101	0xbe38fd24	-0.18065315
102	0xbde0a519	-0.1096899
103	0xbd704983	-0.058663856
104	0x3cdc59c6	0.026898276
105	0x3e1cec37	0.15324484
106	0x3e25a586	0.16176423
107	0x3e3371a9	0.17523827
108	0xbe18af18	-0.14910543
109	0xbdc3570b	-0.095380865
110	0x3e21d182	0.15802577
111	0xbd3e1e88	-0.046415836
112	0x3dafa92c	0.08577189
113	0x3d48bac3	0.049006235
114	0x3e38e4db	0.18056051
115	0xbe275a3b	-0.16343014
116	0xbda2772d	-0.07932887
117	0xbd25a60c	-0.040441558
118	0x3e0d54e3	0.13801913
119	0x3e1e5605	0.15462501
120	0xbd1b481f	-0.037910577
121	0x3c872d1e	0.016501006
122	0xbd9b198b	-0.07573231
123	0xbe048e34	-0.12944871
124	0xbd29485d	-0.041328777
125	0xbd3c7d71	-0.046018068
126	0x3c2492af	0.010044738
127	0xbba70ab3	-0.005097711
128	0xbe20a312	-0.15687206
129	0xbdcf491d	-0.10121367
130	0x3e166339	0.14686288
131	0xbe0da7ee	-0.13833591
132	0x3d96d97b	0.073657
133	0x3e055394	0.13020164
134	0x3b94d61f	0.004542127
135	0x3b658143	0.0035019673
136	0x3da362be	0.07977818
137	0x3e376a60	0.17911673
138	0x3ce5657c	0.028002493
139	0x3e0ac24d	0.13550682
140	0xbc936ddc	-0.017996721
141	0xbe3137c6	-0.17306432
142	0x3d8200c6	0.06347804
143	0xbde3d7ad	-0.11125121
144	0xbd858b93	-0.06520762
145	0xbe11a0a8	-0.14221442
146	0x3cded0b2	0.027199123
147	0xbc82e391	-0.015977653
148	0xbe131a37	-0.14365469
149	0x3d9b4046	0.075806186
150	0xbd8aaa72	-0.06770791
151	0x3ae12eb9	0.0017180062
152	0xbe35b543	-0.17744927
153	0xbd0f65c4	-0.03500916
154	0xbc6aa102	-0.014320614
155	0x3dfc43b1	0.123175986
156	0x3c9c3dab	0.019072374
157	0x3d986cb2	0.07442607
158	0x3e34f0a4	0.17669922
159	0xbd8d19eb	-0.06889709
160	0xbb3147a1	-0.002705075
161	0xbd95d44e	-0.073158845
162	0x3e27346c	0.16328591
163	0x3e0b45d9	0.13600864
164	0xbc69db0c	-0.014273416
165	0xbd6356ea	-0.05550281
166	0x3d22bede	0.039732806
167	0x3e1ba21c	0.15198559
168	0xbd14b2fc	-0.036303505
169	0xbe00d726	-0.12582073
170	0x3d3c7f6b	0.046019953
171	0xbe257ffc	-0.16162103
172	0xbdbc8b0c	-0.092062086
173	0x3dfe718b	0.12424
174	0xbe0c1205	-0.13678749
175	0x3dae2e16	0.08504884
176	0x3ba27704	0.0049580354
177	0xbc7e997e	-0.015539525
178	0xbd9e343b	-0.07724806
179	0xbe2c9a84	-0.16855818
180	0xbdec7f9c	-0.11547777
181	0x3e0cfb03	0.13767628
182	0x3b9a5859	0.004710239
183	0xbdab7cb4	-0.083733946
184	0x3d88141e	0.06644462
185	0xbd70a8c7	-0.05875471
186	0x3ddc5334	0.10758057
187	0x3bfe4a72	0.0077603394
188	0xbe339861	-0.17538597
189	0xbd764a12	-0.060129233
190	0xbe29cd96	-0.16582331
191	0xbd9a20bc	-0.07525775
192	0x3d5bd725	0.053671975
193	0xbde911ed	-0.11380372
194	0xbd87e2c8	-0.06635052
195	0xbdf40284	-0.11914542
196	0x3e1b05fc	0.15139002
197	0xbe2c31f5	-0.16815932
198	0x3e305456	0.17219672
199	0xbcea69c2	-0.028614882
200	0x3d8bc21a	0.06824131
201	0xbdd830b3	-0.10556164
202	0x3cf729be	0.030171271
203	0x3dced6d6	0.100995705
204	0x3e15efff	0.14642332
205	0xbb0004e6	-0.001953417
206	0x3dac745a	0.0842063
207	0x3dae8ac6	0.08522563
208	0xbe12f590	-0.14351487
209	0x3e074863	0.13211207
210	0x3d25d485	0.040485878
211	0x3e032f4a	0.12811008
212	0x3e316f1c	0.17327541
213	0xbc771f30	-0.015083119
214	0x3d4d4865	0.05011787
215	0x3d173193	0.036912512
216	0x3ddbdc03	0.10735323
217	0xbde746d7	-0.112928085
218	0x3d7cd453	0.061725926
219	0x3defe669	0.11713869
220	0x3d576ada	0.052592136
221	0xbe289a7a	-0.16465178
222	0xbe2a8b3e	-0.16654679
223	0x3e18c8e7	0.14920388
224	0x3d96488d	0.07338057
225	0x3e1d1e04	0.15343481
226	0xbd839237	-0.06424373
227	0x3dc63980	0.09678936
228	0xbe331af5	-0.17490752
229	0x3db6040b	0.0888749
230	0xbcb0bb7a	-0.02157377
231	0x3e16388d	0.1467001
232	0xbe1a2cfb	-0.15056221
233	0xbda81a38	-0.08208126
234	0xbda6f4ee	-0.081521854
235	0xbde94d89	-0.11391742
236	0x3e2aa673	0.16665058
237	0xbdce847a	-0.10083862
238	0xbd5e9031	-0.05433673
239	0xbabf821d	-0.001461092
240	0xbd27caea	-0.040965
241	0x3dae84e7	0.08521443
242	0xbda7e16a	-0.08197291
243	0xbe313565	-0.17305525
244	0xbbe4b06c	-0.006979039
245	0xbe27ac21	-0.16374256
246	0x3e2e4679	0.1701907
247	0xbdbc770b	-0.09202393
248	0x3e33292a	0.17496172
249	0x3da8e94d	0.082476236
250	0x3e09a830	0.13443065
251	0x3ddb490a	0.107072905
252	0xbe0e39b9	-0.13889207
253	0xbe01e085	-0.12683304
254	0xbe097505	-0.13423546
255	0x3daf1563	0.08549001

branch_t.fc2.bias f4 [20]
0	0xbdc54ae9	-0.096334286
1	0xb81dc389	-3.7613823e-05
2	0x3e2a55a8	0.16634238
3	0xbded8aba	-0.115987256
4	0xbd24e90e	-0.04026132
5	0xbe1dff86	-0.15429506
6	0x3c89e8bf	0.016834615
7	0xbd908869	-0.07057268
8	0xbd607d4f	-0.054807004
9	0x3e282192	0.16419056
10	0xbd61b6fb	-0.055106144
11	0xbd6426cf	-0.055701073
12	0xba8d5b35	-0.0010784628
13	0x3dfdae2d	0.12386737
14	0xbe11c91c	-0.14236873
15	0xbcc9c90d	-0.024632001
16	0x3e367187	0.17816745
17	0xbe1380d4	-0.14404613
18	0x3dc63375	0.096777834
19	0xbd1d34a7	-0.03838029

branch_t.fc3.weight f4 [10, 20]
0	0x3e136a06	0.14395913
1	0xbdc0c44b	-0.0941244
2	0xbcaa07ed	-0.020755732
3	0x3dab6f1d	0.083708026
4	0xbe22a841	-0.15884496
5	0x3d47e0e3	0.048798453
6	0xbd868e97	-0.065701656
7	0x3d0ba494	0.0340925
8	0xbd1c2d7a	-0.038129307
9	0x3d15bb83	0.03655578
10	0x3e2e42f7	0.17017733
11	0x3d2ffa27	0.042963173
12	0x3e382f12	0.17986706
13	0x3e39273c	0.18081373
14	0x3e06d514	0.1316722
15	0x3e41d5f6	0.18929276
16	0x3da33ff9	0.07971186
17	0x3e597c37	0.2123879
18	0xbd891c19	-0.06694812
19	0xbbb5c838	-0.0055475496
20	0xbd95f429	-0.073219605
21	0x3d32d655	0.043661434
22	0xbe07dc86	-0.13267717
23	0xbe3313bd	-0.17487998
24	0xbe2aaa33	-0.16666488
25	0x3d76a7c9	0.060218606
26	0x3d9594c2	0.07303764
27	0x3e024d5f	0.12724827
28	0x3dab2ece	0.08358537
29	0xbe02d5de	-0.12776896
30	0xbcc5c2b1	-0.024140688
31	0xbd948a11	-0.072528966
32	0xbdf828a8	-0.121171296
33	0xbe475c2f	-0.19468759
34	0x3e4789f6	0.19486222
35	0x3de39380	0.11112118
36	0xb9c9edcc	-0.0003851488
37	0x3e5601c2	0.20899108
38	0x3d05ca57	0.03266367
39	0x3cf9781b	0.030452779
40	0xbd843071	-0.06454552
41	0xbe0de211	-0.13855769
42	0x3d6a65b6	0.057225905
43	0x3ddad7f2	0.106857195
44	0xbd08f7ad	-0.033439327
45	0x3cd8506d	0.026405538
46	0xbe5f8eef	-0.21831869
47	0xbcaaa782	-0.020831827
48	0xbcabe6c2	-0.020984057
49	0x3e1795ea	0.14803281
50	0xbe26915f	-0.16266392
51	0xbd329a77	-0.04360434
52	0x3c8d0e2f	0.017218677
53	0xbe60922c	-0.2193076
54	0xbe40f9f7	-0.18845354
55	0xbe48589e	-0.19565055
56	0xbdca46bb	-0.09876772
57	0x3bb81caa	0.0056186514
58	0x3d02b6ea	0.03191272
59	0x3e3cb4a5	0.18428285
60	0x3df0bf51	0.11755241
61	0x3c3a863a	0.011384541
62	0xbd106832	-0.03525562
63	0x3d9cb320	0.07651353
64	0xbe25deb6	-0.16198239
65	0xbc5c16a9	-0.013433137
66	0x3e285b6d	0.16441126
67	0x3d7b70e3	0.061386954
68	0x3e60f32b	0.21967761
69	0xbd91a7e4	-0.07112101
70	0xbdd2ce06	-0.10293202
71	0x3e313238	0.17304313
72	0xbe016c7f	-0.12639044
73	0xbb189e75	-0.0023287807
74	0x3dea21a0	0.11432195
75	0xbe642a15	-0.22281678
76	0xbcdfc80a	-0.027317066
77	0xbe25a943	-0.1617785
78	0x3e4c613a	0.19958964
79	0x3e473653	0.19454317
80	0x3e5800a4	0.21093994
81	0x3e46d1a7	0.19415914
82	0xbca09736	-0.019603353
83	0x3dbdbdb5	0.09264699
84	0x3e375a20	0.17905474
85	0xbd54366a	-0.051809706
86	0xbe2357b8	-0.15951431
87	0x3e25ddfa	0.16197959
88	0x3e6198ae	0.22030899
89	0x3db90097	0.09033316
90	0xbdd7fbae	-0.10546051
91	0xbc754315	-0.014969607
92	0x3b52fdfe	0.0032194848
93	0x3dd78e5f	0.10525202
94	0xbd73dddd	-0.059537757
95	0xbc69eece	-0.014278127
96	0xbdd52140	-0.104067326
97	0x3e5caa46	0.21549329
98	0x3df443b0	0.11926973
99	0xbe58714e	-0.21136972
100	0x3e1e5da9	0.15465416
101	0xbd85f8eb	-0.06541618
102	0x3dec5340	0.11539316
103	0xbd41df20	-0.04733193
104	0x3dddca80	0.108296394
105	0x3e41b1eb	0.18915527
106	0x3e62794a	0.2211658
107	0xbd069529	-0.032857094
108	0xbe5ffae8	-0.21873057
109	0x3e074025	0.13208063
110	0xbe1eb673	-0.15499286
111	0x3e2948b5	0.16531642
112	0x3e05f3f4	0.13081342
113	0xbe320b7f	-0.17387198
114	0x3e5876d6	0.21139082
115	0xbe10c97d	-0.14139362
116	0x3e60f18f	0.21967147
117	0x3e32ca4e	0.17459986
118	0x3e2a4c68	0.16630709
119	0xbdb2abc9	-0.08724172
120	0xbe0a5627	-0.13509427
121	0xbd387d50	-0.045041382
122	0xbe28ceca	-0.16485134
123	0x3e0f26cb	0.13979642
124	0xbe00a409	-0.12562574
125	0xbd2e378f	-0.042533454
126	0xbe025ac3	-0.12729935
127	0xbd3a6c46	-0.045513414
128	0xbccddf90	-0.025131017
129	0xbd332860	-0.043739676
130	0xbdd476c5	-0.10374216
131	0xbd89cb79	-0.067282625
132	0xbe59a654	-0.21254855
133	0x3d9bcb95	0.076071896
134	0x3e1c764a	0.15279499
135	0xbe506855	-0.203523
136	0x3e09e0a2	0.13464597
137	0x3e60b893	0.2194541
138	0x3d877cde	0.066156134
139	0xbe136635	-0.14394458
140	0xbe09dbef	-0.13462804
141	0x3dc7c0ef	0.09753596
142	0x3d194855	0.037422497
143	0xbd3a8aa6	-0.04554238
144	0x3e4ae074	0.19812185
145	0x3d857d56	0.065180466
146	0x3cbd181d	0.023082787
147	0x3e012853	0.12613039
148	0x3e5820b4	0.21106225
149	0xbdc7ae03	-0.09749987
150	0x3e383cdd	0.17991967
151	0x3e3f81da	0.18701878
152	0xbe3d7b3c	-0.18504041
153	0xbd023a7e	-0.031794064
154	0xbd9b5696	-0.07584874
155	0x3e0a57b1	0.13510014
156	0x3e197879	0.14987363
157	0x3e590a61	0.21195365
158	0xbe2ffd6d	-0.17186518
159	0x3da8f990	0.08250725
160	0x3e071d9e	0.13194892
161	0x3dd30d3f	0.10305261
162	0xbc1eb463	-0.009686562
163	0x3e49849f	0.19679497
164	0xbe5befb4	-0.21478158
165	0x3d73ecb4	0.05955191
166	0xbdee586c	-0.11637959
167	0xbe35d5c9	-0.17757334
168	0x3d75c41a	0.06000147
169	0xbc12e005	-0.008964543
170	0xbe2a1bf9	-0.16612233
171	0xbe5e8d57	-0.21733604
172	0x3b666486	0.0035155131
173	0xbddb723f	-0.1071515
174	0x3c63d85c	0.013906565
175	0xbe1b2f04	-0.15154654
176	0x3e1af326	0.15131816
177	0xbd917214	-0.07101837
178	0xbc6c7d71	-0.014434204
179	0x3d06a762	0.032874472
180	0x3c17a796	0.009256264
181	0xbde5c044	-0.112183124
182	0x3dc72646	0.09724097
183	0x3e237d47	0.15965758
184	0xbe24bc4b	-0.16087453
185	0x3cbc8889	0.023014324
186	0xbe3d05de	-0.1845927
187	0xbe4e2b14	-0.2013362
188	0xbcc3cb3b	-0.023900619
189	0x3ddadde2	0.10686852
190	0xbe46ae4a	-0.19402424
191	0xbc8f92d0	-0.01752606
192	0x3e011075	0.12603934
193	0xbd2bfdea	-0.0419902
194	0xbc1c7982	-0.009550454
195	0xbd44dd55	-0.04806264
196	0xbe57807f	-0.21045111
197	0x3d0604d3	0.032719444
198	0x3ca3d9fe	0.020001408
199	0x3dd6b16f	0.104830615

branch_t.fc3.bias f4 [10]
0	0x3d89b3e7	0.06723767
1	0x3e091c06	0.13389596
2	0xbe60cf9d	-0.21954198
3	0xbd63cafc	-0.055613503
4	0x3e1f3f5f	0.15551518
5	0x3c36da4a	0.011160443
6	0x3d8d536c	0.06900677
7	0xbe536ac4	-0.20646197
8	0xbe1421d6	-0.14466032
9	0xbe08e687	-0.13369189

branch_t.fc4.weight f4 [10, 10]
0	0x3e4596d1	0.19295813
1	0xbd99163c	-0.07474944
2	0x3e2d2915	0.16910203
3	0x3d5dd06c	0.054153845
4	0xbe02de90	-0.12780213
5	0xbe0f307c	-0.13983339
6	0x3e782b1e	0.24235198
7	0xbe8fb904	-0.28070843
8	0xbd9bf06c	-0.07614216
9	0x3dc80d03	0.09768107
10	0xbe95c4ea	-0.29251796
11	0x3dae6c88	0.085167944
12	0x3de16c1c	0.11006948
13	0xbd062d20	-0.03275788
14	0x3e9d713e	0.3075046
15	0xbe60b57a	-0.21944228
16	0x3e0693e9	0.13142361
17	0x3e6ea193	0.23303823
18	0x3dbb07c5	0.09132341
19	0x3d173647	0.036916997
20	0xbe6ae38d	-0.22938366
21	0xbe823b29	-0.2543576
22	0x3e4e0686	0.20119676
23	0xbe102254	-0.14075595
24	0xbc0306c7	-0.007997221
25	0xbe825520	-0.2545557
26	0xbd2d2ba8	-0.042277962
27	0x3daccc39	0.0843739
28	0x3e9e56e8	0.3092568
29	0xbe02fe3d	-0.12792297
30	0xbd65f4a8	-0.056141526
31	0x3e02c7e2	0.12771562
32	0xbe804546	-0.2505285
33	0xbd3067e8	-0.043067843
34	0x3d0f4bf0	0.03498453
35	0x3d8860e4	0.066591054
36	0x3e5ce90a	0.21573272
37	0x3d715628	0.058920056
38	0x3dad7cc8	0.08471066
39	0x3e98eeb5	0.2986962
40	0x3d8cac98	0.06868857
41	0x3e7db53e	0.2477617
42	0xbdc5ffea	-0.09667952
43	0xbe805030	-0.25061178
44	0x3e8b013f	0.27149388
45	0xbe1c4bc4	-0.15263277
46	0xbd94fb58	-0.072745025
47	0xbe075d51	-0.13219191
48	0xbe7db089	-0.24774374
49	0xbea02ac4	-0.31282628
50	0xbc86d12a	-0.01645716
51	0xbe14c007	-0.14526378
52	0x3e3e3675	0.18575461
53	0xbe80108e	-0.2501263
54	0x3e7d1c6a	0.2471787
55	0x3d79e93f	0.061013456
56	0xbea02eef	-0.31285807
57	0x3db23444	0.08701375
58	0x3c83e140	0.016098619
59	0xbdf2a140	-0.11847162
60	0xbe22daf9	-0.15903844
61	0x3bcb2800	0.0061998367
62	0x3dfdc8f8	0.12391847
63	0xbd235248	-0.03987339
64	0x3c5f9600	0.013646603
65	0xbe78ed57	-0.24309288
66	0x3d2c4540	0.04205823
67	0xbd872470	-0.06598747
68	0xbd087e38	-0.033323497
69	0x3d5ceea0	0.053938508
70	0x3c975bb0	0.018476337
71	0x3c8c59d0	0.01713267
72	0xbbdbb580	-0.006704986
73	0x3d78d988	0.06075433
74	0xbc0a1700	-0.008428335
75	0x3e7dd79e	0.24789283
76	0x3d588790	0.052863657
77	0x3d9ad274	0.07559672
78	0x3d27a860	0.04093206
79	0xbe7110cc	-0.23541564
80	0x3e9edd35	0.31028143
81	0xbcb57a89	-0.022153156
82	0xbe756f3f	-0.23968218
83	0xbe811894	-0.25214064
84	0xbd8eef7e	-0.06979273
85	0x3e980ddd	0.29698077
86	0xbe811d35	-0.25217596
87	0x3dd6d3c4	0.1048961
88	0xbdb287d4	-0.087173134
89	0x3e62b449	0.22139086
90	0xbe1e3e38	-0.15453422
91	0x3e538a71	0.2065828
92	0x3b16ed6d	0.00230297
93	0x3e559914	0.20859176
94	0x3e9f7948	0.31147218
95	0x3dd392f1	0.10330761
96	0x3e06a4fd	0.13148876
97	0xbd0c70eb	-0.034287374
98	0x3db758f8	0.08952516
99	0x3e70acd3	0.23503427

branch_t.fc4.bias f4 [10]
0	0x3ddcb8b3	0.10777416
1	0x3d7a1650	0.061056435
2	0xbe9d865f	-0.3076658
3	0xbded6cb2	-0.115929976
4	0xbe918c86	-0.28427523
5	0x3e96056b	0.2930101
6	0xbd20ecd0	-0.039288342
7	0xbe8b6a8b	-0.27229723
8	0x3d673036	0.056442462
9	0x3e6ea7e1	0.23306228

branch_p.fc1.weight f4 [30, 10]
0	0xbdbba698	-0.091626346
1	0x3dbd0ee0	0.09231353
2	0x3e525a27	0.20542203
3	0xbe6aa413	-0.22914152
4	0x3c9f9ea6	0.01948483
5	0xbe02c9e7	-0.12772332
6	0xbd8d43a2	-0.068976656
7	0x3dfe02d3	0.124028824
8	0xbe49bf54	-0.19701892
9	0xbd624906	-0.05524542
10	0xbd4a0ca9	-0.04932848
11	0x3e09d319	0.13459434
12	0xbe42c5b2	-0.19020727
13	0x3cbfcf84	0.02341438
14	0x3e3134cb	0.17305295
15	0x3e63c1f1	0.22241952
16	0x3e15785b	0.14596693
17	0x3e936e68	0.2879517
18	0x3e362271	0.17786576
19	0x3e7cc791	0.24685504
20	0x3e2f5dc2	0.1712561
21	0xbcfca8b6	-0.030842166
22	0xbd7c97a3	-0.06166805
23	0xbde345c0	-0.11097288
24	0x3d0518b0	0.032494247
25	0xbd97a190	-0.074038625
26	0x3e6cb5f1	0.2311628
27	0xbdecca47	-0.11562019
28	0x3c7d19d9	0.015448057
29	0xbe64dfb9	-0.22350968
30	0xbcae23a4	-0.02125723
31	0x3d43c572	0.04779572
32	0x3dab1ed2	0.08355488
33	0xbd1062ad	-0.035250355
34	0xbe6aa674	-0.2291506
35	0xbb4f7955	-0.0031658013
36	0xbe0a5790	-0.13509965
37	0x3e3bea81	0.18351175
38	0xbe4face1	-0.20280792
39	0x3e4a0095	0.19726785
40	0x3e472e30	0.19451213
41	0xbc413fc8	-0.011794992
42	0x3bb09b12	0.0053895796
43	0x3dcc11c0	0.09964323
44	0x3e2a9607	0.16658793
45	0xbd7d94df	-0.061909553
46	0xbe0e1dca	-0.13878551
47	0x3ea10fad	0.31457272
48	0xbe86012a	-0.26172763
49	0xbd356ecd	-0.04429512
50	0xbe3d7c67	-0.18504487
51	0x3d747c78	0.059689015
52	0x3e553727	0.2082182
53	0xbe4eb007	-0.20184337
54	0x3e97d253	0.29652652
55	0xbe681b2b	-0.22666614
56	0xbdd817fc	-0.1055145
57	0xbe73885b	-0.23782484
58	0x3d6b447d	0.057438362
59	0x3e6cb0bd	0.23114295
60	0xbe9186d7	-0.28423187
61	0xbe4b77f1	-0.19869973
62	0xbd86e528	-0.06586677
63	0xbe593eb3	-0.21215324
64	0x3e67bb99	0.22630157
65	0xbe8c56a9	-0.27409866
66	0x3e98ff69	0.29882362
67	0xbe9fb8b9	-0.3119562
68	0xbc9353f1	-0.017984362
69	0xbe58b7b7	-0.21163832
70	0x3e856bc4	0.2605878
71	0x3dd9e7f3	0.10639944
72	0x3e1c0f58	0.15240228
73	0x3e4c8c45	0.19975384
74	0xbe17916a	-0.14801565
75	0x3d1b3f1b	0.03790198
76	0xbe99b0e3	-0.30017766
77	0xbdb3ed7b	-0.0878553
78	0xbe8abf4a	-0.27099067
79	0xbe643e13	-0.22289304
80	0x3de82a88	0.11336237
81	0xbe48e89d	-0.19619985
82	0xbe331e20	-0.1749196
83	0xbdd875dc	-0.10569355
84	0xbdf287bf	-0.11842298
85	0x3e0967f9	0.13418569
86	0x3e7a9dbb	0.24474232
87	0xbc418044	-0.011810366
88	0xbd7454d2	-0.059651203
89	0x3cbb4127	0.022858215
90	0x3e9c4bd6	0.30526608
91	0xbe053486	-0.13008317
92	0xbe04778f	-0.12936233
93	0x3e79c566	0.24391708
94	0xbe4151ea	-0.18878904
95	0x3e5f3818	0.21798742
96	0xbdcd3d01	-0.10021401
97	0xbe381aed	-0.17979021
98	0x3dc845b5	0.097789206
99	0xbe1e5653	-0.15462618
100	0x3da42f68	0.080168545
101	0x3ea1d62d	0.31608716
102	0xbe5db7c2	-0.2165213
103	0xbdc46fb8	-0.09591621
104	0x3e14f128	0.14545119
105	0x3e12e7d3	0.14346246
106	0x3d1c551f	0.038167115
107	0xbd86f161	-0.06589008
108	0x3e9d123f	0.30677983
109	0xbe9af9df	-0.30268762
110	0x3e7af190	0.24506211
111	0x3c7844ff	0.015153169
112	0xbe4867ab	-0.19570796
113	0xbe48fa93	-0.19626836
114	0x3c012d20	0.007884294
115	0x3e838a7d	0.25691596
116	0x3d374f97	0.044753637
117	0xbd95f96e	-0.073229656
118	0xbe43c39c	-0.19117588
119	0x3e8a596b	0.27021345
120	0xbce2e272	-0.027695868
121	0xbe1b713a	-0.15179911
122	0xbe24cec0	-0.16094494
123	0x3c8a3719	0.016871976
124	0x3ddb39a0	0.107043505
125	0x3e940041	0.28906444
126	0x3c24f6fe	0.010068653
127	0xbe5bf2ab	-0.21479289
128	0xbe801371	-0.25014833
129	0xbe4a0b5e	-0.19730899
130	0x3e4a348b	0.19746606
131	0xbe87a611	-0.26493886
132	0x3da99113	0.08279624
133	0x3e3d9ad2	0.1851609
134	0x3dafe4de	0.08588575
135	0x3e49ec45	0.19719036
136	0x3e981bb5	0.2970864
137	0xbdd383e7	-0.10327893
138	0xbe766bd6	-0.24064574
139	0xbdc1f227	-0.09470015
140	0xbe1d0c09	-0.15336622
141	0xbe69e484	-0.22841078
142	0x3d4c8863	0.049934756
143	0xbe93ff59	-0.28905752
144	0xbe14fa3b	-0.1454858
145	0x3cf2ea52	0.029652748
146	0xbde11b05	-0.10991482
147	0x3d43e720	0.04782784
148	0xbdbf5e3b	-0.09344145
149	0x3e0f013c	0.13965315
150	0xbe8d843d	-0.27639952
151	0x3e3216d6	0.17391524
152	0x3bc79c7a	0.0060916515
153	0xbe06144e	-0.13093683
154	0x3ddb0572	0.10694398
155	0xbda9de1a	-0.08294316
156	0x3e0fd600	0.14046478
157	0xbe327af0	-0.1742971
158	0xbe004fce	-0.12530443
159	0xba5ddc17	-0.0008463277
160	0x3e596f9e	0.21233985
161	0xbe62382b	-0.22091739
162	0x3e951d14	0.29123747
163	0x3e3d5c7e	0.18492314
164	0xbe293c1f	-0.1652684
165	0xbe2f6503	-0.17128377
166	0xbd5fed2d	-0.054669548
167	0x3e909897	0.28241417
168	0x3de05ad3	0.10954823
169	0xbda5d01f	-0.080963366
170	0x3e78378d	0.24239941
171	0xbe70c700	-0.23513412
172	0xbd42067e	-0.047369473
173	0x3dd5f1a0	0.10446477
174	0x3ea024e5	0.31278148
175	0xbd81e2f1	-0.06342114
176	0xbdbcf06a	-0.09225543
177	0xbe08435c	-0.13306946
178	0x3a9a5712	0.0011775217
179	0x3d862aed	0.06551156
180	0x3d436590	0.04770428
181	0x3e6db19e	0.23212287
182	0xbba4b91e	-0.0050269505
183	0xbdc94368	-0.0982731
184	0x3e920c6c	0.28525102
185	0x3e070c95	0.13188393
186	0x3e8c5ba4	0.27413666
187	0xbe92de34	-0.28685153
188	0xbd8aa59f	-0.06769871
189	0xbccd2fdd	-0.025047237
190	0xbe24e717	-0.16103779
191	0xbe7e817c	-0.24854082
192	0xbe847c4d	-0.25876084
193	0xbc8ccff5	-0.017189005
194	0x3e312727	0.17300092
195	0x3da78ef1	0.08181561
196	0x3e40bdd7	0.18822418
197	0x3e4d302d	0.20037909
198	0x3c8d06e5	0.017215202
199	0xbe5b53b7	-0.21418653
200	0xbea134a7	-0.31485483
201	0xbd9ed2bd	-0.07755039
202	0xbe808a54	-0.25105536
203	0xbd83d72d	-0.06437526
204	0xbe74a75b	-0.23891966
205	0x3e7e2c53	0.24821596
206	0x3d0e1929	0.034691963
207	0x3e2f90e5	0.17145117
208	0xbd8d6873	-0.06904688
209	0x3de12af3	0.1099452
210	0x3e90ce09	0.28282192
211	0xbe3a8876	-0.18216118
212	0xbdfd6d2e	-0.1237434
213	0x3e931d12	0.28733116
214	0xbe8a14d0	-0.26969004
215	0x3da6be8d	0.081418134
216	0x3d941951	0.07231391
217	0xbe11a971	-0.14224793
218	0xbe9d2b78	-0.30697227
219	0x3e96e31d	0.2947015
220	0xbe04f3fd	-0.12983699
221	0xbba05049	-0.0048923832
222	0x3db40b30	0.08791196
223	0x3e778862	0.2417312
224	0xbe8b988a	-0.27264816
225	0x3e9026e1	0.28154662
226	0x3e2ffa4c	0.17185324
227	0xbd864113	-0.06555381
228	0x3d85f393	0.06540599
229	0x3e69148d	0.22761746
230	0x3e59f611	0.21285273
231	0xbe5e7995	-0.21726067
232	0xbdf67196	-0.120333835
233	0xbe0738e4	-0.13205296
234	0xbda2dfb9	-0.07952828
235	0x3e53f134	0.2069748
236	0x3e352a94	0.17692024
237	0xbb9e7146	-0.0048352806
238	0x3db040fd	0.086061455
239	0xbe9e3298	-0.30897975
240	0xbe882597	-0.2659118
241	0x3de43559	0.11142988
242	0xbdaa4a12	-0.08314909
243	0xbd295895	-0.041344244
244	0x3e3f82fe	0.18702313
245	0xbe333da8	-0.17503989
246	0x3e7d222a	0.24720064
247	0x3d355e28	0.044279248
248	0xbe5c1aff	-0.21494673
249	0xbd2f86c4	-0.042853132
250	0x3e960b3a	0.2930544
251	0x3e466932	0.19376066
252	0xbdae1207	-0.08499532
253	0xbe886d18	-0.26645732
254	0xbe7b9f4a	-0.24572483
255	0x3d5d9b6a	0.054103293

branch_p.fc1.bias f4 [30]
0	0x3ea0818b	0.31348833
1	0xbdd93d52	-0.10607399
2	0xbddd94d2	-0.10819401
3	0x3d4b4f63	0.049636256
4	0x3e91d73c	0.28484523
5	0xbe58a796	-0.21157679
6	0xbe337163	-0.17523722
7	0xbe4d7cfc	-0.20067209
8	0x3dfc182d	0.12309299
9	0xbe36e2ac	-0.17859906
10	0x3da64537	0.081186704
11	0x3e9d6a12	0.30744988
12	0x3e9fbc4a	0.3119834
13	0xbe2fbe06	-0.17162332
14	0x3e81adbb	0.25327858
15	0x3e936e0a	0.2879489
16	0x3d7c3792	0.061576433
17	0xbd6e13f0	-0.058124483
18	0xbe0c56fe	-0.1370506
19	0x3e8f4cb4	0.27988207
20	0x3d2c8a85	0.04212429
21	0xbd829bc9	-0.0637737
22	0x3d71901e	0.05897533
23	0xbe743741	-0.23849203
24	0xbaa25c56	-0.0012387137
25	0xbd1b42c0	-0.037905455
26	0x3e0f6e02	0.14006808
27	0xbe83a1be	-0.25709337
28	0xbdaf1852	-0.085495606
29	0x3e89589d	0.2682542

branch_p.fc2.weight f4 [20, 30]
0	0xbd6c2bb2	-0.05765886
1	0xbbb9e72d	-0.0056733103
2	0x3d3e3755	0.046439487
3	0x3e0bae81	0.13640787
4	0xbd9aa6ff	-0.07551383
5	0xbddc36cd	-0.1075264
6	0xbd170b03	-0.036875736
7	0x3e289dbe	0.16466424
8	0x3d810dbb	0.06301447
9	0xbe195145	-0.14972408
10	0xbd055808	-0.032554656
11	0x3e0c5a33	0.13706283
12	0x3dbb79d0	0.09154093
13	0x3dfad922	0.12248446
14	0x3e20d7d3	0.1570733
15	0x3d8e1001	0.06936646
16	0xbd4af99d	-0.049554456
17	0xbe13303d	-0.1437387
18	0xbe391cd5	-0.18077405
19	0xbdaf4bb4	-0.08559361
20	0xbe310bdb	-0.17289679
21	0x3e096240	0.13416386
22	0x3d4b3e0d	0.049619723
23	0xbdd30a04	-0.10304645
24	0xbdaefd44	-0.085444
25	0x3c41957a	0.011815423
26	0x3d9a589e	0.07536434
27	0x3dff1d60	0.12456775
28	0x3e0e3098	0.13885725
29	0x3dc74a84	0.097310096
30	0xbab04196	-0.001344728
31	0xbd01ffd3	-0.031738114
32	0xbe3988f3	-0.18118648
33	0xbe074bcd	-0.1321251
34	0xbdb611bc	-0.08890101
35	0x3df4500a	0.11929329
36	0xbd763f78	-0.060119122
37	0x3e234d34	0.1594742
38	0xbda72b45	-0.0816255
39	0x3dd42e0b	0.103603445
40	0x3e1b6f69	0.15179218
41	0xbde48545	-0.11158232
42	0x3e3374f5	0.17525084
43	0x3df7e639	0.12104458
44	0x3d741966	0.059594534
45	0x3d7457c3	0.05965401
46	0xbe1cddaa	-0.15318933
47	0xbddb89b6	-0.10719626
48	0xbd4adbbb	-0.049525958
49	0x3da985f2	0.08277501
50	0x3e01ee67	0.126886
51	0xbd668cb3	-0.056286525
52	0x3d768b70	0.06019157
53	0x3d70443f	0.058658835
54	0x3df5d8f0	0.12004268
55	0x3e012393	0.12611227
56	0x3e0789dc	0.13236183
57	0x3e2a0d0e	0.16606542
58	0xbd9606d6	-0.073255226
59	0xbdf4b5ee	-0.11948763
60	0xbd2b29d8	-0.041787952
61	0xbe3a69dd	-0.18204446
62	0x3e13617e	0.14392659
63	0x3e36c306	0.17847833
64	0xbe2dedfc	-0.16985315
65	0xbda23306	-0.07919888
66	0xbdd5e7ce	-0.10444604
67	0xbbd1cda3	-0.0064026876
68	0xbde297b2	-0.1106409
69	0xbcc0aa9f	-0.023518858
70	0xbd301a56	-0.042993866
71	0xbdd68dc3	-0.10476258
72	0x3e228b36	0.15873417
73	0xbe0bbf4c	-0.13647193
74	0x3cdc0153	0.0268561
75	0xbd28c516	-0.04120358
76	0x3e391791	0.18075396
77	0xbd20be97	-0.03924426
78	0x3cc14a10	0.023594886
79	0x3db556a9	0.0885442
80	0x3e2802e7	0.16407357
81	0x3dda847a	0.10669799
82	0x3db91eb9	0.09039063
83	0xbd6bf182	-0.057603367
84	0xbdff3fc7	-0.124633364
85	0x3d0517d1	0.032493416
86	0xbe2d1be4	-0.1690517
87	0x3d91fb66	0.071280286
88	0x3e3abd7a	0.18236342
89	0x3cbf87af	0.023380129
90	0xbe1dc480	-0.1540699
91	0x3d849521	0.064737566
92	0x3d35c01a	0.044372655
93	0x3e2b512b	0.16730182
94	0x3e16f474	0.14741689
95	0xbc4c9f0b	-0.012489091
96	0xbe1a9803	-0.1509705
97	0x3e1dd94f	0.15414928
98	0x3dbaf298	0.09128302
99	0xbdb5c2a5	-0.08875016
100	0x3da8234c	0.08209857
101	0xbe31d115	-0.17364915
102	0xbda22806	-0.0791779
103	0x3e01373a	0.12618724
104	0x3e25067a	0.16115752
105	0xbdb2aa5b	-0.08723899
106	0xbe2ab9b4	-0.16672403
107	0xbdaf723e	-0.08566712
108	0xbc1b1f0c	-0.009467851
109	0xbd89ecf6	-0.0673465
110	0xbe2c4a60	-0.16825247
111	0xbe032774	-0.12808019
112	0x3dc7e36b	0.097601734
113	0xbd066ef6	-0.032820664
114	0xbd231a08	-0.039819747
115	0x3d824acc	0.063619226
116	0xbe25dbee	-0.16197178
117	0x3d2459fb	0.040124875
118	0x3e0321b5	0.12805827
119	0x3e07e2b6	0.13270077
120	0xbdc4f28c	-0.09616575
121	0xbdc5c71a	-0.09657116
122	0xbe03ac45	-0.12858684
123	0xbdc2a04e	-0.09503232
124	0xbd39a0e2	-0.045319445
125	0xbe11f2f6	-0.14252838
126	0xbdeb113b	-0.11477896
127	0xbe110f8b	-0.14166085
128	0x3decbbc3	0.1155925
129	0x3c27c4c5	0.010239785
130	0xbd4e81e7	-0.050416853
131	0xbd4b48c7	-0.049629953
132	0xbe19fb23	-0.15037207
133	0x3d50e3c4	0.050998464
134	0x3dec5b51	0.11540855
135	0x3e2eb155	0.17059834
136	0x3d9e4b17	0.07729166
137	0x3d96bd26	0.07360296
138	0x3dd99942	0.10624935
139	0x3cd466bf	0.0259279
140	0x3db5dd5b	0.08880111
141	0x3da212a8	0.07913715
142	0xbe211b4d	-0.1573307
143	0xbe16fdb5	-0.14745219
144	0x3d865a79	0.06560225
145	0xbe25839b	-0.16163485
146	0xbc6b08d7	-0.014345369
147	0x3e21f271	0.1581514
148	0xbd8bfb41	-0.06835032
149	0xbca478c7	-0.020077122
150	0xbdce440a	-0.10071571
151	0xbd0ccd15	-0.03437527
152	0xbcd48d5c	-0.025946312
153	0x3dfa5028	0.1222232
154	0xbcae9177	-0.021309597
155	0xbd2c7410	-0.042102873
156	0xbe1152d2	-0.1419175
157	0x3dda1c73	0.106499575
158	0x3dc73f01	0.09728814
159	0x3d61cba3	0.055125844
160	0xbe067160	-0.13129187
161	0x3dbdef0e	0.09274112
162	0xbe3a4c97	-0.18193279
163	0xbd794dd8	-0.060865253
164	0x3c116aa5	0.008875524
165	0x3d9c7b4e	0.07640706
166	0xbd9ea02f	-0.07745396
167	0xbcd951cf	-0.026528267
168	0x3db1f083	0.08688452
169	0xbe0f242e	-0.13978645
170	0x3ce79421	0.028268876
171	0x3da50a69	0.08058626
172	0x3d03a67f	0.032141205
173	0x3e1c64c0	0.15272808
174	0x3d65ef03	0.056136142
175	0xbd5ee029	-0.054412995
176	0x3e2864ad	0.16444655
177	0xbd54cc06	-0.051952384
178	0x3e2295ae	0.15877411
179	0x3dd642b7	0.104619436
180	0xbe1c6888	-0.1527425
181	0x3e34b7fb	0.17648308
182	0x3db8c9df	0.09022879
183	0x3ddca339	0.1077332
184	0xbe0c5938	-0.13705909
185	0xbda94fef	-0.08267199
186	0x3dd4b3f4	0.10385886
187	0xbdb868d7	-0.090043716
188	0xbcd17176	-0.025566798
189	0xbe29d90b	-0.16586702
190	0x3cb3b203	0.021935469
191	0xbcef457d	-0.02920794
192	0x3de320ac	0.11090216
193	0x3ceb5877	0.028728707
194	0xbda4e411	-0.08051313
195	0x3da9f048	0.08297783
196	0xbd6bd92c	-0.057580158
197	0x3d4ae1fb	0.049531918
198	0x3ad529a3	0.0016263019
199	0x3c9e3abf	0.019315122
200	0xbe391c56	-0.18077216
201	0xbda0d46c	-0.07853016
202	0xbe2c48e3	-0.16824679
203	0xbe1d240f	-0.15345787
204	0xbc1e364f	-0.009656503
205	0x3d98d3d1	0.07462276
206	0x3e01f473	0.12690906
207	0xbdbd78b5	-0.09251539
208	0xbca77d7e	-0.020445582
209	0xbdfdac10	-0.12386334
210	0xbda4bbe5	-0.080436505
211	0x3dbe93ff	0.09305572
212	0x3d9f7cae	0.07787453
213	0xbca39401	-0.019968035
214	0x3e08ba76	0.13352379
215	0xbdb8c453	-0.09021821
216	0xbd1cefe0	-0.0383147
217	0xbd8a60f6	-0.06756775
218	0x3df3749a	0.11887474
219	0xbcfb4c99	-0.030676173
220	0x3b599f5c	0.0033206558
221	0x3d3f6c35	0.046734054
222	0xbe327c24	-0.17430168
223	0xbdfdb88c	-0.12388715
224	0xbc466437	-0.012108854
225	0x3d1dda07	0.038538005
226	0xbb059a98	-0.0020386335
227	0xbda2a227	-0.07941084
228	0xbdbfa2cf	-0.09357225
229	0x3da73e85	0.081662215
230	0x3e32fa8a	0.17478386
231	0xbd3a2b60	-0.045451522
232	0xbe208f24	-0.15679604
233	0xbd9d1de2	-0.07671715
234	0xbc3afe0c	-0.011413109
235	0xbc8397eb	-0.016063651
236	0x3c5cc653	0.013475019
237	0xbccfbd6a	-0.025358874
238	0x3dfa3b27	0.12218314
239	0xbd3e519a	-0.04646454
240	0xbe27a809	-0.16372694
241	0xbd162ff3	-0.03666682
242	0x3dafe36c	0.08588299
243	0x3dd0ff63	0.10204961
244	0x3defb308	0.117040694
245	0xbe3210d8	-0.17389238
246	0x3e300786	0.1719037
247	0x3df2c1ec	0.11853394
248	0x3db4312d	0.08798442
249	0xbdf3a53a	-0.11896749
250	0x3e03b124	0.12860543
251	0xbd4636c8	-0.048392087
252	0x3e2f052a	0.17091814
253	0xbc88eed5	-0.016715446
254	0xbe00c83e	-0.12576386
255	0x3da80b22	0.082052484

branch_p.fc2.bias f4 [20]
0	0xbe2dd0eb	-0.16974227
1	0xbc9e542e	-0.01932725
2	0x3e09c80b	0.13455217
3	0xbe0c2a20	-0.13687944
4	0xbe347051	-0.1762097
5	0x3e1133fc	0.14179987
6	0x3e15564b	0.145837
7	0xbdd601e5	-0.1044958
8	0xbe1d72aa	-0.15375772
9	0xbd50ce8b	-0.050978225
10	0x3e2114fe	0.15730664
11	0xbdae6c20	-0.08516717
12	0x3ab577be	0.001384489
13	0xbc2b1bb8	-0.01044362
14	0x3e135054	0.14386111
15	0x3e3a79ff	0.182106
16	0x3de6df58	0.11273068
17	0x3dd0eed6	0.10201804
18	0x3cab1154	0.020882286
19	0xbda7ead6	-0.08199088

branch_p.fc3.weight f4 [10, 20]
0	0xbe0db374	-0.13837987
1	0x3cc385b4	0.023867466
2	0x3e422164	0.1895805
3	0xbd8b5ee1	-0.06805206
4	0x3d8b7aa0	0.06810498
5	0x3d5dd821	0.054161195
6	0x3d8c5fe3	0.068542264
7	0x3d2777b2	0.040885635
8	0xbd1a1026	-0.037613057
9	0x3dda1337	0.10648196
10	0x3e1f4caa	0.15556589
11	0xbc340a50	-0.010988787
12	0x3e45feb9	0.1933545
13	0xbd656939	-0.05600855
14	0x3ac1cc5a	0.0014785633
15	0x3da7975f	0.081831686
16	0x3e3239bb	0.17404835
17	0x3cbccfb6	0.023048263
18	0x3e4df692	0.2011359
19	0x3c852caf	0.016256658
20	0xbe0e5c06	-0.13902292
21	0xbe2713c9	-0.16316141
22	0xbe1da806	-0.15396127
23	0x3e493ab2	0.19651297
24	0x3e16299d	0.14664312
25	0xbd84dc6e	-0.06487356
26	0x3e1918e7	0.14950906
27	0xbe0828be	-0.13296792
28	0xbe3bfb99	-0.18357696
29	0x3e07f21f	0.13275956
30	0x3d48e0f9	0.049042676
31	0xbd337d61	-0.043820743
32	0x3e2ba745	0.16763027
33	0x3dfadc0a	0.12249
34	0x3e19198d	0.14951153
35	0x3dc20a9e	0.09474681
36	0x3dd4c9a0	0.103900194
37	0xbd8cb1bd	-0.068698384
38	0x3ce7cd3a	0.028296102
39	0x3da65060	0.08120799
40	0xbe188a0f	-0.14896415
41	0xbdb429dc	-0.087970465
42	0x3de903b1	0.11377657
43	0x3d4d63eb	0.050144117
44	0x3e003da8	0.1252352
45	0x3c46f9f0	0.012144551
46	0xbd446b26	-0.047953747
47	0xbc458dbb	-0.012057717
48	0xbe0f348d	-0.1398489
49	0xbdbc44f8	-0.09192842
50	0x3de80955	0.11329905
51	0xbd55f617	-0.052236643
52	0xbd06552d	-0.032796074
53	0x3dad7aef	0.08470713
54	0x3ddcc81c	0.10780355
55	0x3df0c400	0.11756134
56	0x3daf69e8	0.08565122
57	0x3da1450e	0.07874499
58	0xbe23c721	-0.1599393
59	0x3e57898e	0.21048567
60	0xbe131d59	-0.14366664
61	0xbe2c9e73	-0.16857319
62	0x3e343ddc	0.17601722
63	0x3de69a63	0.11259916
64	0xbd54f642	-0.051992662
65	0x3dc9a540	0.09845972
66	0xbdfbfee3	-0.12304475
67	0xbce2fb5c	-0.027707748
68	0x3df8314d	0.121187784
69	0x3e34daab	0.1766154
70	0xbe412340	-0.18861103
71	0x3d83a8b7	0.06428664
72	0xbe03f005	-0.12884529
73	0x3d146d1e	0.036236875
74	0xbe560bf9	-0.20903005
75	0x3c7036bb	0.014661486
76	0xbd6f6d53	-0.05845387
77	0x3d982a3b	0.0742993
78	0x3e5d2074	0.21594411
79	0x3e1730bc	0.14764684
80	0xbe511db2	-0.20421484
81	0xbe5d9165	-0.21637495
82	0x3d860e90	0.06545746
83	0x3e5d4503	0.21608357
84	0x3e57c551	0.21071364
85	0xbd2a562b	-0.041586082
86	0x3dee26dd	0.11628506
87	0x3df7eabe	0.121053204
88	0x3df05b4b	0.11736163
89	0x3d87cb2e	0.0663055
90	0xbe58b6eb	-0.21163528
91	0x3e011da5	0.12608965
92	0x3d8116b9	0.06303162
93	0x3d094e74	0.033522084
94	0x3dc338d7	0.09532326
95	0x3e2726e6	0.16323432
96	0x3e36a6b9	0.17837037
97	0x3de69c1e	0.11260246
98	0xbb7868c7	-0.003790425
99	0xbe4d70d0	-0.20062566
100	0xbdf6207d	-0.120179154
101	0xbe143bb8	-0.14475906
102	0xbe5e2b3c	-0.2169618
103	0x3e37a042	0.17932227
104	0x3db84dfc	0.08999249
105	0xbdcd19bc	-0.10014674
106	0x3e536d86	0.20647249
107	0xbe38cb25	-0.18046243
108	0x3c03465a	0.008012379
109	0x3e47c0ac	0.19507092
110	0xbe3530f4	-0.17694455
111	0x3db93db6	0.090449736
112	0xbdf13e4b	-0.117794596
113	0x3e29e6d6	0.16591963
114	0xbe1edefc	-0.1551475
115	0xbd6f524d	-0.058428098
116	0x3e2ccae2	0.16874269
117	0x3e558f29	0.20855393
118	0x3e27c528	0.16383803
119	0x3e44498c	0.19168681
120	0x3e6395f0	0.22225165
121	0x3da62bdf	0.081138365
122	0x3e5eb849	0.21749987
123	0xbde52709	-0.11189086
124	0x3dc40ab8	0.09572357
125	0xbdb1196a	-0.086474255
126	0x3e241f85	0.16027649
127	0xbe030c74	-0.12797719
128	0x3cb5a8c9	0.02217521
129	0xbe349e9f	-0.17638634
130	0x3d61ae14	0.055097654
131	0x3d1d334b	0.038378995
132	0xbd877a97	-0.06615179
133	0xbc3933e8	-0.011303879
134	0xbd37c89a	-0.044869043
135	0xbd451184	-0.048112407
136	0x3e22a0cf	0.15881656
137	0x3e0c5f66	0.13708267
138	0x3e5843bb	0.21119587
139	0xbd2c16bc	-0.04201387
140	0x3d773465	0.0603527
141	0xbdd5e897	-0.104447536
142	0x3ddda8e9	0.10823233
143	0xbcab5fa7	-0.020919634
144	0x3e5189fb	0.20462792
145	0xbe52d577	-0.20589243
146	0x3dfde9e9	0.123981304
147	0xbe326bd1	-0.17423941
148	0xbe2c799e	-0.16843268
149	0xbdcdd054	-0.10049501
150	0xbdd2f8e7	-0.103013806
151	0xbda70841	-0.08155871
152	0xbe2a19a6	-0.16611347
153	0xbc0ec133	-0.0087130545
154	0x3dcf661e	0.10126899
155	0xbe0ade59	-0.13561381
156	0xbcfff42e	-0.031244364
157	0xbe2cd54e	-0.16878244
158	0x3e56fc56	0.20994696
159	0xbd44a3e8	-0.048007876
160	0xbdc78880	-0.09742832
161	0x3d28dbba	0.041225173
162	0x3da64baf	0.08119904
163	0x3e5d6c5d	0.21623369
164	0xbcce0667	-0.025149537
165	0x3dadf96d	0.0849484
166	0x3e051a99	0.12998427
167	0xbe374402	-0.17897037
168	0xbde25655	-0.11051623
169	0xbd99eab7	-0.075154714
170	0x3e5db80b	0.21652238
171	0xbda3b469	-0.07993395
172	0x3d7648a9	0.060127888
173	0x3d859bcf	0.06523859
174	0xbc3b9d14	-0.011451025
175	0xbe113286	-0.1417943
176	0xbdfa4882	-0.12220861
177	0x3e446458	0.19178903
178	0x3e50f62f	0.20406412
179	0x3e27fa8b	0.16404168
180	0x3c4113c5	0.011784499
181	0x3c4c62b6	0.012474706
182	0xbc08bcf6	-0.008345833
183	0x3cb496c5	0.022044549
184	0x3def32e7	0.11679631
185	0xbd90f2b2	-0.070775405
186	0xbdfef5c4	-0.1244922
187	0xbcfa86d5	-0.030581871
188	0xbe5a407e	-0.21313664
189	0xbe06349d	-0.13106008
190	0xbe22227f	-0.15833472
191	0x3e0f7b7c	0.1401195
192	0xbe1d714e	-0.15375254
193	0xbe0514b1	-0.12996174
194	0x3e3275ca	0.17427745
195	0x3e5499f2	0.2076185
196	0x3e5126ba	0.2042493
197	0xbe637b68	-0.22215044
198	0xbe60b593	-0.21944265
199	0xbd207adc	-0.039179668

branch_p.fc3.bias f4 [10]
0	0x3e45decc	0.19323272
1	0xbc35c7c7	-0.011094994
2	0xbcb6842f	-0.022279827
3	0x3e3186fe	0.17336652
4	0x3d4b40d6	0.04962238
5	0x3e119030	0.1421516
6	0x3d555165	0.052079577
7	0xbe5b4183	-0.2141171
8	0xbe4961bd	-0.1966619
9	0x3dddf112	0.10836996

branch_p.fc4.weight f4 [10, 10]
0	0x3e2b36ac	0.16720074
1	0xbe011d27	-0.12608777
2	0x3e0cc2e8	0.13746226
3	0xbdc29890	-0.09501755
4	0xbe9153c3	-0.28384218
5	0x3e9e9229	0.30970886
6	0x3e8e4a4f	0.27791068
7	0xbd941322	-0.07230212
8	0xbd9ab94e	-0.07554875
9	0xbe071567	-0.13191758
10	0xbe51fc82	-0.2050648
11	0xbe1e792c	-0.15475911
12	0x3e63c14a	0.22241703
13	0xbe18f19d	-0.14935918
14	0xbd1cd612	-0.03829009
15	0xbe882081	-0.265873
16	0x3e824350	0.2544198
17	0x3cdc350b	0.026880762
18	0xbe9c59d4	-0.30537283
19	0xbe260c2c	-0.1621558
20	0xbd785ab1	-0.060633365
21	0xbe82be8f	-0.2553601
22	0x3b4ce1ea	0.0031262585
23	0x3d18e165	0.037324328
24	0x3a25ca6b	0.0006324413
25	0xbe058c93	-0.13041906
26	0x3dacec79	0.08443541
27	0x3d12b429	0.035816345
28	0xbe9a5d58	-0.3014934
29	0x3e52ae03	0.20574193
30	0xbe8e05f5	-0.2773892
31	0x3e81b2a3	0.25331602
32	0xbd023aae	-0.031794243
33	0x3e81d8de	0.2536077
34	0xbd3bff9d	-0.04589807
35	0xbe7ec711	-0.24880625
36	0x3e1822a3	0.14856963
37	0x3e4cf501	0.20015337
38	0xbdf0e86a	-0.117630795
39	0xbc219bdb	-0.009863819
40	0xbd2aa7c0	-0.041663885
41	0x3d042180	0.03225851
42	0xbde5f73c	-0.11228797
43	0xbe01cdf9	-0.12676229
44	0xbe1dbdda	-0.15404454
45	0xbe3afa08	-0.18259442
46	0xbc5b0dc0	-0.0133699775
47	0x3db1e714	0.08686653
48	0xbe8eca53	-0.27888736
49	0xbd44f1d0	-0.048082173
50	0x3db6bcd1	0.089227326
51	0xbe8d0fc5	-0.27551094
52	0x3e91db27	0.28487512
53	0x3e1b5e9a	0.15172806
54	0x3d986736	0.07441561
55	0xbe4e4bef	-0.20146154
56	0x3e39eb2c	0.18156117
57	0x3e87a678	0.26494193
58	0xbe2ffcf3	-0.17186336
59	0xbe8cd6ea	-0.27507716
60	0x3e069bb4	0.13145334
61	0xbc33ff20	-0.0109861195
62	0xbe6bc2c7	-0.2302352
63	0xbe5b623d	-0.21424194
64	0x3dce37e8	0.10069257
65	0xbd64d858	-0.055870384
66	0x3e588086	0.21142778
67	0xbdd511bc	-0.10403773
68	0x3db37750	0.087629914
69	0xbe973fec	-0.29540956
70	0x3d347165	0.044053454
71	0x3e255d36	0.16148838
72	0x3c7a5667	0.015279389
73	0x3e9733cc	0.29531705
74	0x3e3979dc	0.18112892
75	0x3c6558ed	0.013998252
76	0xbe69d623	-0.22835593
77	0x3e9da581	0.30790332
78	0xbe2c7d1a	-0.16844597
79	0x3ddedde5	0.10882167
80	0x3e9f9388	0.31167245
81	0xbe7368e3	-0.2377048
82	0xbe21dd45	-0.15807064
83	0xbdae9897	-0.08525198
84	0x3e9359be	0.28779405
85	0x3e107c5e	0.14109942
86	0x3d806ba6	0.06270532
87	0xbe97b794	-0.29632246
88	0xbe9ca472	-0.30594212
89	0x3d9b09ef	0.07570254
90	0xbc806672	-0.01567385
91	0xbe05bb65	-0.13059767
92	0xbe983323	-0.29726514
93	0x3e6173c7	0.22016822
94	0x3e9453d0	0.28970194
95	0x3daa8f90	0.083281636
96	0xbdf730ce	-0.12069856
97	0x3ca828d4	0.02052728
98	0xbe20ea74	-0.15714437
99	0xbea000ee	-0.3125071

branch_p.fc4.bias f4 [10]
0	0xbe01dbb3	-0.12681465
1	0x3e42a3c7	0.19007789
2	0x3c319d5d	0.010840741
3	0x3e593c83	0.2121449
4	0xbe38d7fa	-0.18051139
5	0x3d80a38b	0.06281193
6	0x3d31a440	0.04336953
7	0x3dbd066c	0.092297405
8	0x3e6bd5d0	0.23030782
9	0x3e96d77f	0.29461285
