d2calcbot/main/calc_bot/actual_models/dota_model_ver0_1.pth (torch, 8366 bytes, 15 tensors)

branch_t.fc1.weight f4 [5, 9]
000000 c0 d3 16 3d b4 03 a2 bd 76 a7 e9 bd d6 6e ab bd
       0.036823034 -0.079108626 -0.11408894 -0.0837075
000010 a0 43 f7 bd 88 05 49 3d ee 81 91 be 80 0e 40 bc
       -0.12073445 0.04907754 -0.2841944 -0.011722207
000020 c8 f9 0c 3d 64 9a a8 bd cf c9 c9 bd c1 9b 58 3e
       0.034417897 -0.08232573 -0.09852945 0.21153165
000030 81 d6 f8 3d d2 be 2f 3e a4 89 47 3d 74 c4 83 3e
       0.121502884 0.17162636 0.04871525 0.2573582
000040 c2 41 89 3e 7e 57 d5 3d d4 dc 8d 3d 4f d6 e4 bd
       0.26807982 0.104170784 0.06926885 -0.111736886
000050 d6 b3 51 3e 42 41 e0 3d aa 13 15 bd 80 60 0c bd
       0.20478758 0.10949947 -0.036395706 -0.034271717
000060 74 87 97 3e 46 f8 67 be 79 57 2f be 70 8b 80 bd
       0.2959553 -0.22653303 -0.17123212 -0.062765956
000070 66 ae e2 bd 00 d8 c1 bc 40 be a8 bd 0f 1c 9a be
       -0.1106842 -0.023662567 -0.08239412 -0.30099532
000080 36 35 ac bd 78 6c 9b be 86 f6 50 3e 00 f9 12 bd
       -0.08408587 -0.30356193 0.20406541 -0.035881996
000090 bf 7e 1a 3e 4b 9e 3f 3e f4 df 4f 3e 62 3b a4 3e
       0.15087412 0.18712728 0.20300275 0.32076555
0000a0 c9 e6 94 be 29 e6 91 3e 01 8c 8d 3e 50 fa a5 3e
       -0.29082325 0.2849591 0.27645877 0.32417536
0000b0 13 cc 96 bd
       -0.07363143

branch_t.fc1.bias f4 [5]
000000 f0 0d fb 3c 8a d4 6b 3d b1 f3 31 be 88 ba 4d be
       0.030646294 0.05757574 -0.17378117 -0.20090687
000010 e1 7d 40 3e
       0.18798019

branch_p.fc1.weight f4 [5, 9]
000000 fc a3 ff bd 38 26 3b bd f0 3d e3 bc 28 08 43 be
       -0.124824494 -0.045690745 -0.027739495 -0.1904608
000010 70 24 c6 3c 16 ff 2e be a0 24 3e 3d aa ab 25 3e
       0.024187297 -0.17089495 0.046421647 0.16178766
000020 0e 18 64 3e f8 78 19 3d b1 78 82 3e 30 75 a1 bc
       0.22274801 0.03746888 0.25482705 -0.0197092
000030 d0 ea 9e be 90 54 14 be 1f c8 8a be 62 75 5b 3e
       -0.31038523 -0.14485383 -0.27105805 0.21431497
000040 a8 c3 1b be da 24 15 3e dc 10 a5 be 00 18 81 be
       -0.15211356 0.14564839 -0.32239425 -0.25213623
000050 e6 54 a4 3e 3f 48 a7 be 96 9d de bd 8a f9 2d 3e
       0.32096022 -0.32672307 -0.10869901 0.16989723
000060 9b dd 84 be 00 4c a3 3e 9f 4b 12 bd 9e ed bc bd
       -0.25950322 0.3189392 -0.03571665 -0.092250094
000070 e3 c7 b4 3b 8c 7b 1a 3d d3 87 a4 be f8 10 b1 3d
       0.0055169924 0.03771548 -0.32134876 0.08645815
000080 ba bb 1d 3e 39 60 0d 3d 4a d7 8a 3e 98 5b af bd
       0.15403643 0.034515593 0.27117378 -0.08562392
000090 ce a9 18 3e c0 d2 cc 3d 2a f9 2d 3e c8 21 44 3d
       0.14908525 0.10001135 0.1698958 0.04788378
0000a0 aa f0 04 3e 4b 99 57 be cb ac 62 be b8 93 13 bd
       0.12982431 -0.2105457 -0.22136228 -0.036029547
0000b0 8e 98 29 3e
       0.16562101

branch_p.fc1.bias f4 [5]
000000 40 a9 bc bc a0 df a9 bd 65 79 a7 3e 94 3b 2a 3e
       -0.023029923 -0.08294606 0.32709804 0.1662429
000010 26 e4 76 be
       -0.24110469

branch_h.fc1.weight f4 [5, 9]
000000 7c 9a fb 3d 57 38 59 3e 25 9c 90 3e d4 b7 9d be
       0.12285325 0.21212898 0.2824413 -0.30804312
000010 af 61 a7 be db 26 fe bd 48 41 a2 3e 1b 20 f7 bd
       -0.32691714 -0.12409755 0.3169043 -0.120666705
000020 b7 40 95 be 23 13 98 3e 07 fe 0a bd 42 8e 08 3e
       -0.29150936 0.297021 -0.033933666 0.13335517
000030 f0 02 cb bd f3 ac 7d 3e b1 1b 1c bd 03 53 5c 3e
       -0.0991267 0.24773006 -0.038112346 0.21516041
000040 33 48 0f 3e 79 a7 85 be e4 d0 36 3b f5 3d 77 3e
       0.13992386 -0.26104334 0.0027895505 0.24144728
000050 89 41 9a 3e 6d e4 a5 3e 1c 0a 90 be 7b c2 54 be
       0.30128124 0.32400838 -0.28132713 -0.20777313
000060 2a 00 92 3e be 9c 01 bd 2d 8b b1 3c 78 7c 89 be
       0.2851575 -0.03164362 0.02167281 -0.26852775
000070 14 0f 33 3e ba 42 1a 3e 7c aa aa 3e f0 35 52 be
       0.1748622 0.15064517 0.33333194 -0.20528388
000080 25 2a 4b 3e 9f be d6 3d 78 e9 3b 3d 03 b0 26 be
       0.19840296 0.10485577 0.04587695 -0.1627808
000090 f5 db 95 3e 80 53 db bd 80 a3 86 be e4 59 32 3e
       0.29269376 -0.10709286 -0.26296616 0.17417103
0000a0 15 1a df 3d d5 f3 a3 bb e7 93 9c 3d f5 45 c4 3d
       0.10893647 -0.0050034323 0.07645398 0.09583656
0000b0 6e 9d 05 3c
       0.00815521

branch_h.fc1.bias f4 [5]
000000 6f a3 a7 bd 4f 84 53 3e d1 7c 2e be 87 e3 a8 3e
       -0.08185469 0.2065594 -0.17039801 0.3298609
000010 27 b2 96 3e
       0.29432794

self_attention_players.query_projection.weight f4 [10, 10]
000000 52 c0 28 3e 38 eb 71 bd 88 7f 36 be 14 07 0c 3e
       0.16479614 -0.059062213 -0.17822087 0.13674575
000010 68 3f ab bd 2f 89 8b be 58 38 6f be 70 ac 56 be
       -0.08361703 -0.272531 -0.23361337 -0.20964217
000020 ea 19 16 3e 32 d8 7d 3e c2 eb 1a 3e e0 ef 35 bd
       0.14658323 0.24789503 0.15128997 -0.044418216
000030 42 82 93 be 91 14 5e 3d 9e a2 63 3e 91 f3 91 3e
       -0.28810316 0.054218832 0.22230002 0.2850614
000040 a8 7b 23 3e f4 43 e7 3d 04 0e 4f be 4a ef 1b 3e
       0.1596514 0.11292258 -0.2022019 0.15228
000050 34 9d 1d 3e 50 ac fb bc 62 4c da 3d f5 80 37 be
       0.15392 -0.030721813 0.106591 -0.17920287
000060 be b2 5d be 20 63 f1 3c 64 2b 5f be 22 75 3f be
       -0.21650216 0.029466212 -0.21793896 -0.18697026
000070 f4 db 75 be c0 56 65 bc 9e 76 9d be 56 bd 9c be
       -0.24009687 -0.013997734 -0.3075456 -0.30613202
000080 70 76 77 3e d0 9c 15 be d0 60 34 bd 40 a7 8f be
       0.24166274 -0.146106 -0.04403764 -0.2805729
000090 1c 0a d0 3d 63 4e 9e 3e 6b 7d 91 3e e2 f2 21 be
       0.10158178 0.3091918 0.28416 -0.15815309
0000a0 cc 1d 33 be c0 fa 45 be ad 8b a4 bc 01 c9 51 3e
       -0.17491835 -0.19333935 -0.020086134 0.20486833
0000b0 c8 9f 6e bd 01 d1 47 be dc 88 10 3e 6b 62 06 be
       -0.058257848 -0.19513322 0.14114708 -0.13123481
0000c0 d7 b8 8d be eb aa a1 be aa 37 e3 bd 45 ff 93 be
       -0.27680084 -0.31575713 -0.110946015 -0.28905693
0000d0 21 9b 16 3e b6 5f 30 3e c0 e1 85 3b 06 da 7d be
       0.14707614 0.17224011 0.0040857494 -0.247902
0000e0 84 e6 1d 3e 0d bd 51 3e 1f b1 57 3e c6 9f 55 3e
       0.15419966 0.20482273 0.2106366 0.2086173
0000f0 30 23 8d bc 04 f4 f6 bd 55 53 8f be 31 58 b4 bd
       -0.017228693 -0.12058261 -0.27993265 -0.08805884
000100 09 09 9d 3e 48 1f db 3d 34 91 b6 3d b6 79 6c be
       0.30670956 0.10699326 0.08914414 -0.23093304
000110 cc 4b de bc de b7 26 be 00 97 a7 3b ad c8 9f 3e
       -0.027135752 -0.16281077 0.005114436 0.3120779
000120 dc ef 6f be 11 57 20 3e d0 77 14 3d 36 42 07 3e
       -0.23431343 0.15658213 0.036247075 0.13208851
000130 fc a4 19 be c3 e0 81 be 6e aa 8a 3d 20 a4 81 be
       -0.15004343 -0.25366792 0.06770788 -0.2532053
000140 bc 77 16 be 40 96 ad bc 0f aa 93 be 6e be 72 3d
       -0.14694113 -0.021189809 -0.28840682 0.05926364
000150 46 74 d5 bd 24 18 e6 bd 7c f9 f2 3d d9 59 9d be
       -0.10422568 -0.11235073 0.118639916 -0.3073261
000160 9d 8e 35 be 10 7b 72 3d 97 5d 86 be 9d 37 8c 3e
       -0.17730184 0.059199393 -0.26243278 0.2738618
000170 f1 14 c1 3d e3 85 37 3e c8 db 99 3d 5e 2a 4f 3e
       0.094278224 0.17922167 0.07512623 0.20231006
000180 c4 b1 89 3d c4 dc 8e be 65 75 08 bd 96 06 84 be
       0.06723359 -0.27902806 -0.03331508 -0.25786275

self_attention_players.query_projection.bias f4 [10]
000000 f9 18 73 3e 06 b6 06 3e ea 99 4f 3e 52 42 76 be
       0.23739995 0.13155374 0.20273557 -0.24048737
000010 18 af cd bd 50 4c 47 be cb 84 1c be 49 46 9c 3e
       -0.10043162 -0.19462705 -0.15285031 0.30522373
000020 37 80 77 3e a5 2a 0f be
       0.24170004 -0.13981111

self_attention_players.key_projection.weight f4 [10, 10]
000000 8a df 45 be d4 53 0a 3e 3a 8f 70 3b 43 27 7e 3e
       -0.19323555 0.1350854 0.0036706463 0.24819665
000010 d8 98 d5 bd de 82 12 3e fa 1e 86 be 08 8b 09 3e
       -0.10429543 0.14307734 -0.26195508 0.13431942
000020 15 55 7a 3e 9e 63 12 3e c8 1e f9 bd 70 32 c5 3c
       0.24446519 0.14295813 -0.12164074 0.024071902
000030 a4 cb 43 3d f8 9a 7c be 39 c2 91 be b0 58 fb 3c
       0.04780163 -0.24668491 -0.28468493 0.030681938
000040 60 c8 53 3d ce e1 9f bd a9 1b c8 bd 6c c0 8e 3d
       0.051704764 -0.07806741 -0.09770901 0.06970295
000050 76 5b da bd a8 9b 0a bd cc a6 0b be 8e 54 49 3e
       -0.10661976 -0.03383985 -0.13637847 0.19661161
000060 59 14 87 be c9 72 9f be f9 68 9e 3e 38 6a 80 be
       -0.26382712 -0.31142262 0.30939463 -0.25081038
000070 7e c5 70 3d 1a e0 63 3e fa a6 83 be c0 ba 8b bb
       0.058782093 0.22253457 -0.2571333 -0.0042642057
000080 7e 51 ab bd fa db 5c be 95 c3 37 be fe 33 4a be
       -0.08365153 -0.2156829 -0.17945702 -0.19746396
000090 6e 48 7f be 62 88 8f be e0 c6 10 be 06 28 76 3e
       -0.24929973 -0.2803374 -0.14138365 0.24038705
0000a0 d8 5c 65 3d e8 f5 4b be 0c be 25 3e 6b 03 07 3e
       0.055996746 -0.19918025 0.16185778 0.13184898
0000b0 2a c7 5b be 00 35 7d 3b 4f f6 80 3e 41 3d 7f 3e
       -0.21462694 0.0038636327 0.2518792 0.2492571
0000c0 e1 bf 8a 3e 0b 21 99 3e c3 71 90 be 18 86 7d be
       0.27099517 0.29908022 -0.28211793 -0.24758184
0000d0 b0 d1 b7 bd e9 19 43 3e f7 cd 87 3e ee 10 36 be
       -0.089755416 0.19052853 0.26524326 -0.17779896
0000e0 c8 8a 9d be 60 07 f7 bd 96 c6 36 3e 20 ca ab 3c
       -0.30769944 -0.120619535 0.17849192 0.020970404
0000f0 7c d4 a5 3d 08 f1 a8 3d b2 75 fc bd 8e ca 15 bd
       0.08097169 0.08249098 -0.12327136 -0.036570124
000100 a9 9d 94 3e ee 4a 53 3e 10 b9 39 3e e5 50 02 be
       0.29026535 0.20634052 0.18137002 -0.12726171
000110 1b 65 21 be 4a b8 22 3e a0 9b 8c 3c d0 ee 52 3d
       -0.15761225 0.15890613 0.017164052 0.05149728
000120 76 ac 33 be 26 4a 94 3e 00 5b 0c 3d ea 4e 35 3e
       -0.17546257 0.2896282 0.034266472 0.17705885
000130 9a 36 89 bd af d2 c5 bd b1 ab 7c be 50 dc 78 bd
       -0.066998675 -0.09659325 -0.2467487 -0.06075698
000140 e0 2e 7c bc d0 24 58 bd bd 5e e2 3d 4f e0 6b 3e
       -0.015392035 -0.052769482 0.11053226 0.23034786
000150 6c bf fe 3d c5 b4 9c 3e 05 3a 78 be 64 1f 72 3e
       0.124388546 0.30606666 -0.24240883 0.23644787
000160 ac 93 cd 3d 12 98 a5 bd b8 af 47 be 45 e8 98 3e
       0.10037932 -0.08085646 -0.19500625 0.29864708
000170 ec 8a 89 be 18 d0 01 3e 68 79 fa bd ee 37 77 3e
       -0.268638 0.12677038 -0.12230188 0.24142429
000180 e4 d7 5c be 57 37 08 3d 06 40 b0 3c 30 b2 3f bd
       -0.2156673 0.0332559 0.021514904 -0.046800792

self_attention_players.key_projection.bias f4 [10]
000000 69 df 6f 3e da 9b 24 3e 66 89 3b be e7 45 98 3d
       0.23425068 0.16075078 -0.18314132 0.07435208
000010 2e ca 7e bd 10 ef 08 3e ac 75 93 3e 34 4d 26 3e
       -0.062204532 0.13372445 0.28800714 0.16240388
000020 a3 1a 9e 3e 0b f1 4f be
       0.30879697 -0.20306794

self_attention_players.value_projection.weight f4 [10, 10]
000000 f6 32 3d 3e 20 1f 17 bc a9 47 3f bd 22 af 1a 3e
       0.18476471 -0.009223729 -0.0466992 0.1510587
000010 0e d5 b1 bd 46 d2 7c 3e bc 9d 97 3d 61 a6 53 3e
       -0.08683215 0.24689588 0.07403132 0.20668937
000020 b2 b9 1d 3e 8c 3c 2c be 26 a9 4b 3e c3 cf 8a 3e
       0.15402868 -0.16819972 0.19888744 0.27111635
000030 94 72 9b 3e 73 2a 2b bc 12 52 1f be 86 0a 0e 3e
       0.30360854 -0.010447132 -0.15558651 0.13871202
000040 7d 02 54 be 37 02 c5 3c b3 16 19 3d 2b fa 89 be
       -0.20704074 0.024048908 0.037375163 -0.26948676
000050 3a 91 67 3e 20 c3 20 be 91 fd 5c 3d 70 4f 22 3d
       0.22613993 -0.15699434 0.053952757 0.03962654
000060 db 6c 8b be 12 7b 6f 3e 15 6a 83 3e 76 b7 43 3e
       -0.27231488 0.23386791 0.25666872 0.19112954
000070 85 04 51 3e e0 3d 38 3d 80 28 0b 3e d8 a9 90 3d
       0.2041188 0.044980884 0.13589668 0.07063645
000080 bc dc 79 3d fc b8 83 3e e0 3b 82 be c4 8a 97 bd
       0.061001524 0.2572707 -0.25436306 -0.07399514
000090 92 69 07 be 96 d9 91 3d a6 26 96 be 1e 2f e1 bd
       -0.13223866 0.07121579 -0.2932636 -0.10995315
0000a0 4c f4 d9 3d 93 e8 2f be c4 13 91 3e c3 3d 88 3e
       0.10642299 -0.17178564 0.28335392 0.2660962
0000b0 1a 39 52 be 50 b9 c7 3d 00 23 a0 3a aa bf 73 bc
       -0.20529595 0.097521424 0.0012217462 -0.014877239
0000c0 44 53 9b 3e 48 38 69 bd 99 1e 86 3e e2 c2 3a 3e
       0.30336964 -0.05693844 0.2619522 0.18238404
0000d0 a3 f8 5c 3e 10 88 8d be e0 2b b6 3d 2b 38 14 be
       0.21579222 -0.2764287 0.08895087 -0.14474551
0000e0 28 29 68 3d e5 c6 f5 bd d2 cf e0 3d 7e 7e 6f 3e
       0.056679875 -0.12000827 0.109771386 0.23388097
0000f0 54 f8 c7 3d d0 8e 8a be 8f a8 f0 bc 8a 18 85 be
       0.09764162 -0.27062082 -0.02937725 -0.25995284
000100 ba a1 9c be 83 64 84 be a6 1f 79 3e ef 2d 40 be
       -0.30592138 -0.25857934 0.24328479 -0.18767522
000110 ae 87 0b 3e 24 26 ba 3d a4 61 e8 3d f1 15 40 be
       0.13625976 0.09089306 0.113467485 -0.1875837
000120 04 98 22 be 2b 4a 26 3e 00 e7 d9 bb 5f 3b 9d be
       -0.15878302 0.1623923 -0.006649852 -0.3070936
000130 64 4c de 3d cf 09 1a 3e 1b d1 ed 3d 60 df 41 3c
       0.10854414 0.15042804 0.11612149 0.011833042
000140 ee 2c 90 be 8f 20 05 be b3 b5 0a 3c 93 d3 86 bd
       -0.2815928 -0.13000701 0.008466172 -0.06583323
000150 30 ea 24 bd 08 a4 6a 3d ec b8 ba 3d 38 81 c2 bd
       -0.0402624 0.05728534 0.09117302 -0.09497303
000160 c7 d3 98 3e 7c 8f 93 3d 40 4c cb 3b 10 26 1b 3d
       0.29849073 0.07205102 0.006204158 0.037878096
000170 46 31 97 3e f6 13 87 be c2 83 9b be 0c be 1a 3e
       0.2952978 -0.26382416 -0.3037396 0.1511156
000180 fd 0f 34 be b3 64 37 3d d5 56 77 be 1a 1d 66 be
       -0.17584224 0.04477377 -0.24154218 -0.22472039

self_attention_players.value_projection.bias f4 [10]
000000 9d 9c be bd e2 d8 9f 3e 00 bf 40 3d 9a 12 4c be
       -0.09307215 0.31220156 0.04705715 -0.19928971
000010 d7 58 98 bc e5 54 cf bc 88 f7 1f bd ee a1 84 3e
       -0.01859705 -0.025309036 -0.039054424 0.25904793
000020 6d ae ff 3d 15 f2 99 be
       0.12484441 -0.30067506

self_attention_players.output_projection.weight f4 [10, 10]
000000 06 5a 57 3e 87 8c 09 be 97 60 9a be b5 aa ef bd
       0.21030435 -0.13432513 -0.30151817 -0.11702482
000010 b6 4d 19 3c 08 04 90 be 39 b2 2c be 1f 3c 47 3e
       0.009356907 -0.28128076 -0.16864862 0.19456528
000020 f3 10 aa 3d a5 bd e3 3d 99 1f 9b 3d ef 86 88 be
       0.08304014 0.11120156 0.07574386 -0.26665446
000030 ba 8a 1c 3e b1 67 1b 3e 54 5c 63 3e ec ef 3a be
       0.15287295 0.15176274 0.22203189 -0.18255585
000040 a5 3b cf 3d d1 bd af bc b2 3d bd bc 19 58 a8 bd
       0.10118798 -0.021452816 -0.023100708 -0.08219928
000050 42 8d 87 bc ea 9e 97 3d 02 11 b6 3d 45 5b 90 be
       -0.01654685 0.07403357 0.08889963 -0.28194633
000060 13 e0 91 3e c1 1b 6f 3e ca 72 36 3e 8a d1 a0 bd
       0.28491268 0.23350431 0.17817226 -0.078524664
000070 3d 97 99 3c 48 dd 35 bc 54 7a 56 be 69 e8 5c bd
       0.018748874 -0.011100121 -0.20945102 -0.05393258
000080 9e 96 63 3e a3 9d c3 3d 0a 69 2c bd 5e ef 20 3e
       0.22225425 0.09551551 -0.04209236 0.15716311
000090 c4 94 8f be 90 43 24 be 05 96 9e 3e 0b 01 9c 3e
       -0.28043187 -0.16041398 0.3097383 0.30469546
0000a0 64 a2 78 bd 8a 9b 2c be 61 75 51 3e 43 c3 ef bd
       -0.060701743 -0.16856208 0.20454933 -0.11707165
0000b0 2c 3a e5 bd 98 b6 fc 3c bb 16 a0 be bb cd 87 3e
       -0.11192736 0.030848786 -0.31267342 0.26524147
0000c0 2c 5b c3 3d a4 78 8f 3e 87 ca 52 bd 23 90 26 3e
       0.09538874 0.2802173 -0.051462676 0.16265921
0000d0 8d 51 5a bd 99 40 50 3e 63 af 5c 3e 20 7f 10 3e
       -0.05330043 0.20337142 0.2155128 0.14110994
0000e0 83 b9 6a be b7 77 bd 3a 81 ca 32 be 64 80 92 3e
       -0.2292233 0.0014455233 -0.17460062 0.2861358
0000f0 90 5a 85 3d b7 49 49 be ec 0d 93 be 71 3c 73 3e
       0.06511414 -0.19657026 -0.2872156 0.23753525
000100 b1 b4 88 be 82 d2 7c be 9e 11 77 3e c5 6c 1f be
       -0.26700357 -0.24689677 0.24127814 -0.15568836
000110 42 2c 90 be 25 74 bb 3d 6c c5 89 be 20 82 8f 3e
       -0.28158766 0.09153012 -0.26908433 0.28028965
000120 f7 1c 51 be 48 1b 0e be c1 c7 99 be 69 4f 7b be
       -0.20421205 -0.13877594 -0.30035213 -0.24542011
000130 fe b1 f4 3d 9e 79 50 3e ff 60 98 3e ca 56 9e 3e
       0.11948012 0.20358893 0.29761502 0.3092559
000140 0c 29 36 3e 86 cb 52 3e 8a 72 2d 3d ac a3 36 be
       0.17789096 0.2058545 0.04234556 -0.17835873
000150 c4 b7 29 3e 7f de 94 be a3 65 3c 3e b6 ba 33 be
       0.16574007 -0.29076 0.18398146 -0.17551693
000160 d0 7d cb 3d ad c3 5c 3e 31 48 3b be 49 e6 ea bc
       0.09936106 0.2155902 -0.18289258 -0.028674262
000170 de 7a 95 be f0 d0 4b 3e 1b 43 aa bd b7 b2 ba bb
       -0.29195303 0.19903922 -0.083135806 -0.005697574
000180 8e ac f4 bc a3 b4 21 be 9c ed 36 bd be c8 96 3e
       -0.029867437 -0.15791564 -0.044660196 0.2945003

self_attention_players.output_projection.bias f4 [10]
000000 8c 99 9b be e9 61 38 be bb c0 a5 3d 8e 73 b4 bd
       -0.30390584 -0.180061 0.08093401 -0.08811103
000010 63 55 a3 bd 0a 88 c0 bd 1a b9 b8 bc 48 ea d7 bd
       -0.079752706 -0.094009474 -0.0225492 -0.105427325
000020 90 bb 50 be e8 41 cc bd
       -0.2038405 -0.09973508

fc.weight f4 [1, 70]
000000 92 dc 8f bd 1b b3 c2 3d 7b 71 8c bd 04 1d ce 3c
       -0.07024492 0.09506818 -0.06857582 0.02516032
000010 13 0b e3 bb 00 9e fb bb c4 2f bd 3d 4a cb b7 bd
       -0.0069288104 -0.007678747 0.09237626 -0.08974321
000020 18 c2 57 3c d9 b4 ba bb c3 91 6f bc 9b 6b b8 bd
       0.013168834 -0.0056978283 -0.014622155 -0.09004899
000030 c3 f9 bd bb 44 ca 85 3c 59 20 85 3d e7 8e 4f 3d
       -0.005797596 0.0163318 0.065003105 0.05067339
000040 aa 59 b0 bd f8 4a 88 3d 95 9c 25 3d 9c c9 a2 bd
       -0.08610852 0.06654924 0.04043253 -0.0794861
000050 d2 e9 b6 bd da 4a 52 bd c1 38 d5 bd 66 25 65 3a
       -0.089313164 -0.051340915 -0.104112156 0.00087412295
000060 d5 90 dd 3d 1c 30 86 3d 34 7c 99 bc 7f 0a 7d bd
       0.1081864 0.06552145 -0.018735982 -0.061777588
000070 25 75 57 bc 62 70 20 3d 76 38 e3 3d 03 2b 8f 3d
       -0.013150488 0.039169677 0.110947534 0.06990626
000080 21 12 ab bd 0c 5a e9 bd f9 86 73 3c 79 af 20 3d
       -0.08353067 -0.11394128 0.014863723 0.039229844
000090 81 c8 6c bd f1 c7 ef 3d 13 7f 9a 3d ee 3c b0 3d
       -0.057808403 0.11708058 0.07543769 0.086053714
0000a0 e3 60 b0 bd 55 4c 68 bd 82 7d ee bd a3 1a ad bd
       -0.0861223 -0.05671342 -0.116450325 -0.08452346
0000b0 56 e5 b4 bd c4 30 a6 3d ed e2 e5 bc 85 1b 8c bd
       -0.08832805 0.0811477 -0.028062308 -0.068411864
0000c0 dc f6 18 3d de 13 58 bd 69 a3 ab 3d 1b d6 9e bd
       0.0373448 -0.05275332 0.083807774 -0.07755681
0000d0 17 bb 04 bc 79 a2 e4 3d c3 b2 94 3d 16 85 9b 3d
       -0.008101246 0.11163802 0.072606586 0.075937435
0000e0 91 02 8f 3c 0c 1f a5 bd 44 15 99 3d af fb f3 3d
       0.017457278 -0.08062562 0.07474759 0.11913239
0000f0 97 76 ef 3d 37 74 d9 bd 00 38 39 bd 19 44 1b 3d
       0.11692541 -0.10617869 -0.04521942 0.03790674
000100 f1 2f cc bd c5 4d 72 bd fe 70 d4 bb d8 3d a4 3d
       -0.099700816 -0.059156198 -0.0064831963 0.08019608
000110 de 86 0c 3d 81 34 8a 3a
       0.034308307 0.0010544212
