d2calcbot/main/calc_bot/actual_models/dota_model_ver005.pth (torch, 426136 bytes, 21 tensors)

branch_t.fc1.weight f4 [128, 35]
00000000: 0064 0dbe 1473 f9bb 7007 293e 30d3 103e
00000010: 1a89 e839 677d 143e 0920 b03d d15c 7f3d
00000020: 5ee2 4d3d cb34 533d d026 433d 1227 bfbc
00000030: f016 1bbd b5b8 fdbd 38ba 813c 6686 b8bb
00000040: 46c8 9b3d a324 7a3d 2f4f cb3d acfd b1bc
00000050: 2801 f0bd ead4 8fbd c9e7 9abd 7ee3 db3d
00000060: 2a39 c93d 76bb 21bd af32 2cbe 0bae d8bc
00000070: 5374 af3d 5cec d33d 62df b63d 4b88 28bd
00000080: b19f 8c3c 562f 203e e68f 2d3e b24c c3bc
00000090: 7777 28bc 4072 123e 506c a7bd e01e dcbd
000000a0: e043 75bd 568c a33d 9102 fdbc 8a88 27be
000000b0: 68fc 223d ac10 f5bc db44 68bc cf80 c5bd
000000c0: 2244 a23d c3fa 793d afc0 14be 5781 293e
000000d0: ba4f 103e 7548 d73c 9570 003d b8e5 c33d
000000e0: 0d25 283e d411 0c3d 8d71 2c3d a549 dfbd
000000f0: d85f 0f3d 3870 8a3d 22c7 0dbc 1884 c53d
00000100: 1fa1 aebd e0e9 993c df6a 273e 4780 cbbd
00000110: 360a f9bd 490a 01be 0899 133e e297 ea3c
00000120: 0846 0f3e 4e93 123e 5ef4 e4bd 0cad d2bd
00000130: e672 0cbe 307e 2abd 3bf9 9b3d cf70 b0bd
00000140: 61fb 5b3d f09f 503d 2850 023e 8111 bcbd
00000150: b434 013e baeb 20be be33 a4bd 01d9 f5bd
00000160: c84e 29be f3da 0fbe 63a7 1abe 997e 013e
00000170: 88cc c73d 610c dcbd 205d 98bd 9405 223e
00000180: 11b0 92bd a216 79bc e737 203e 05f5 fa3d
00000190: d518 aebd d10e 823b 369e a3bd 56d0 7d3d
000001a0: b44a e9bd 629f e03c 4526 d7bc b14a 6abd
000001b0: d9a0 dbbd 2870 063d 15b7 ab3d 442c 9b3d
000001c0: 4204 9f3c 088e e5bd a22e 50bd 799a d03d
000001d0: bb88 03be fd97 8b3d 3b52 cbbd be10 223e
000001e0: f742 eabc f4c8 153e 1e59 283e 6b47 393b
000001f0: c315 adbd 29c2 68bd a8cf 20be 0639 0c3e
00000200: f585 203e 604a 93bd cd48 8bbd d693 1b3e
00000210: 40e1 613d d00b af3d a8fb 0f3d 4815 02bd
00000220: 6741 0dbe 4d4f 05bc cd21 d13b 64ca 2fbd
00000230: 86f4 803d 5b98 043e c466 9abd 4f02 01be
00000240: f58a e23d affa bb3c beb0 023e 1ff5 293c
00000250: 3c51 c83d 541b d83d d690 083e ad41 adbd
00000260: 89ff 103e 9114 13be e5b0 c2bd f782 e53c
00000270: 0d0a eebd 4922 00be 037c 8cbc 7572 5c3d
00000280: e5ae 0dbe 6c76 b13d 9492 e3bc 3bc4 d9bc
00000290: 5d70 433d 5def 0ebe 5178 143e 7578 0fbc
000002a0: 1867 833d e171 0abe 26d9 22be d307 5d3b
000002b0: 1c52 883d 3e38 22bd 2880 23be a9af ef3c
000002c0: 405e 8f3c 4989 17bd 8999 1a3e feb7 14bd
000002d0: b165 013e 8c45 2bbc 305e 03bd e965 13bc
000002e0: d022 b53d b767 8c3d f26c ac3d 0d34 183e
000002f0: 757d afb9 1bfb 2bbe 928b c7bd 64af 3fbd
00000300: 681e 753d c553 1e3e 4bfb 993d ed42 a63d
00000310: c404 50bd 9c74 12bd 73d7 243d b61d 633d
00000320: 20ff 7cbd 3d84 793d 5c82 e93d 2748 be3d
00000330: e43d 363d df7c f5bd f244 12be 2a35 203e
00000340: 0ea4 13be 68c1 d6bd fa6d cd3c d0cb 03bd
00000350: 0fa1 86bd d9ba 163d 58f3 0a3e 6da4 2a3e
00000360: 96da eb3d 5c3b 80bd 11c3 e23c 0537 dd3d
00000370: 2c4b 283e 7729 2fbe 1836 7a3d d251 113c
00000380: e78a 5f3d d6f8 80bd e8af 00be cbd1 13be
00000390: 2b38 fe3d 2708 093e 787a 32bc 6836 ecbc
000003a0: 52a0 843c 5228 b83d 1504 59bd c930 21bb
000003b0: 31bf 4f3d e777 90bd 40f8 f6bd 343b 20be
000003c0: a00a 20be e81c 1f3e 4335 173c 029a e5bc
000003d0: 3bad b73c 6774 e0bd bf40 65bd 687e 1a3e
000003e0: 90c1 15be a132 75bd e191 aabd 93e1 0ebe
000003f0: 29ba 933d 2316 99bd fdd3 033e 4512 c0bd
-0.13807678 -0.0076125953 0.16506743 0.14143062 0.00044352637 0.14500962 0.0859986 0.062344376
0.05026471 0.05156402 0.047644436 -0.02333406 -0.03786367 -0.12388746 0.015835866 -0.005631256
0.076065585 0.061070096 0.099272124 -0.021727405 -0.117189705 -0.07023032 -0.07563741 0.1073675
0.09825356 -0.039485417 -0.1681621 -0.026450178 0.08567109 0.10347816 0.08929326 -0.041145604
0.01716599 0.15643057 0.16949424 -0.023840282 -0.010282389 0.14301395 -0.08174956 -0.107480764
-0.059879184 0.07985751 -0.030885013 -0.1636068 0.039791495 -0.029915176 -0.014176573 -0.09643709
0.079231516 0.06103016 -0.14526628 0.16553245 0.14092913 0.026279667 0.031357367 0.095653
0.16420384 0.03419669 0.042100478 -0.109027185 0.035003513 0.06759685 -0.008653434 0.096443355
-0.08526825 0.018788278 0.16349362 -0.09936576 -0.12160151 -0.1260158 0.14413846 0.028636876
0.13991559 0.14314005 -0.11179422 -0.10286912 -0.13715705 -0.041624248 0.07615896 -0.086152665
0.05370653 0.05093378 0.1272589 -0.09183026 0.12617761 -0.15714923 -0.080176815 -0.12004281
-0.16533959 -0.14048366 -0.15102915 0.1264595 0.09755808 -0.107445486 -0.07439637 0.1582244
-0.07162488 -0.01520315 0.15646325 0.12253765 -0.0850083 0.0039690514 -0.07989161 0.061966263
-0.113912016 0.02741975 -0.026263366 -0.057200138 -0.10724039 0.032821804 0.083845295 0.075768024
0.01941121 -0.11208731 -0.050825723 0.10185713 -0.12845127 0.06816099 -0.099277936 0.15826699
-0.028596384 0.14627439 0.16440246 0.0028271328 -0.08451416 -0.05682579 -0.15704215 0.13693628
0.156761 -0.0719192 -0.06800995 0.15193114 0.055146456 0.08547175 0.035152107 -0.031758577
-0.1379448 -0.008136583 0.006382203 -0.042917624 0.06296639 0.12948744 -0.07539132 -0.12598537
0.1106166 0.022946684 0.12762734 0.010373383 0.09781119 0.105520874 0.133365 -0.08459792
0.14159979 -0.14363314 -0.09506396 0.02801655 -0.11623011 -0.12513079 -0.017148977 0.053820092
-0.13836248 0.08665165 -0.027779855 -0.026582828 0.04771458 -0.13958497 0.14499022 -0.008756747
0.06416148 -0.13520004 -0.15903148 0.0033726587 0.06656286 -0.039604418 -0.15966856 0.029258566
0.017500997 -0.03699616 0.15097632 -0.03630828 0.12636448 -0.010453593 -0.032072246 -0.008996465
0.088445306 0.068557195 0.08419217 0.14863606 -0.00033472074 -0.16795008 -0.09743418 -0.046798125
0.05984345 0.15461643 0.075186335 0.08118234 -0.050785795 -0.03575574 0.04024453 0.055448256
-0.061766744 0.060917128 0.11401817 0.09291106 0.044492617 -0.11986708 -0.14284113 0.1564528
-0.1441805 -0.10486108 0.025076855 -0.032176793 -0.06573688 0.036799286 0.13569391 0.16664286
0.11516301 -0.06261322 0.027680906 0.1080151 0.16434926 -0.17105661 0.061086744 0.008869605
0.054575827 -0.06297462 -0.12567103 -0.14435498 0.12413057 0.13382016 -0.010893457 -0.028834537
0.016189728 0.089920655 -0.05298241 -0.0024595729 0.050719444 -0.070541196 -0.12059069 -0.15647584
-0.15629053 0.1553837 0.009229007 -0.028027538 0.02242147 -0.10959702 -0.05596995 0.15087283
-0.1462462 -0.059862737 -0.083286054 -0.13953237 0.072132416 -0.07474925 0.12873836 -0.09378485

branch_t.fc1.bias f4 [128]
00000000: bf36 293e 0729 b63d 5d8d 83bd 5473 663d
00000010: fc75 683d 452c debd 75f6 07be 062f 2ebd
00000020: ff4e aa3b 3d94 adbc 36b2 c1bc a5db 14be
00000030: 58d8 0abe 7e43 c7bd 09ee c03d 2234 db3c
00000040: f630 80ba 1a1a 8abd 8eba 3a3d 93ca 2b3e
00000050: bc16 17be 5d03 203e 11ee 493d 90ee 153e
00000060: fecb 0ebe 91c3 0d3e 46d6 76bb cc7b 0cbe
00000070: a2f3 40bd 0705 54bd 03f3 13be 16f1 903c
00000080: 951f 183c 0c46 263e 4dfd 883d 3942 1e3e
00000090: f7ab 263e 0e04 cdbc c730 c23d 5ff0 2bbe
000000a0: 1eb5 153e 057d de3d 15fe 2c3e bdd3 29be
000000b0: d909 b43b a723 15be a48b b93d 1812 16be
000000c0: 316b 0bbe 31ac 0d3d 1457 10be 29a3 95b9
000000d0: 74d6 693d dab3 1cbe c4a7 06be ee86 013e
000000e0: afe9 0fbe 3c5e 993d 8f6d 8b3d ddc3 0a3e
000000f0: 9d17 163e 6d54 abbc e49f 2abe 887e 133e
00000100: 80a2 923d 8170 22be 8121 f83d d573 de3c
00000110: b585 b73b 1faf d73c 76e9 b33d b44e 87bd
00000120: 020d 913b 9a5f 06be 06e9 e7bd 8829 9fbd
00000130: 025a 213e 8d8a 293e 1077 d03d 6349 8b3d
00000140: 769c 2fbd 9894 23be ee0f d03d 7823 d3bd
00000150: 0b03 83bd 56f6 dc3d 7027 d2bd 214f 19be
00000160: 022a 18be 48ba 0ebe 8e79 5abd 6624 6d3d
00000170: e86b 44bd ec38 cf3d 19c1 133e 7164 e3bd
00000180: 8115 9a3d 5ba0 b43d 196f 8c3d 694e dabd
00000190: 24a9 a6bd 0007 01be 029c 113e c32d a1bd
000001a0: 358e 193e 2d69 6a3b b150 9cbd 90b2 cabd
000001b0: df97 d5bd e122 d3bd e284 fe3d 29d5 96bb
000001c0: aa0f 1ebd 9a29 8a3d f9eb f83d d441 273e
000001d0: cbda 543d 9880 4abd 801d 25be ad4d eb3d
000001e0: ef5f a1bd 4a05 99bd 3371 1d3e 391c 213e
000001f0: 0e34 013e df6f a6bd f130 6d3d b476 97bc
0.1652479 0.08894544 -0.06423447 0.05626233 0.056753144 -0.108482875 -0.1327761 -0.042525314
0.0051974053 -0.02118885 -0.023644548 -0.14536913 -0.13559091 -0.0972967 0.094204016 0.026758257
-0.0009780216 -0.0674326 0.04558807 0.16776495 -0.14754766 0.15626283 0.049299303 0.14641786
-0.13945004 0.13844134 -0.0037664338 -0.137191 -0.047107346 -0.051762607 -0.1444817 0.017693084
0.0092848735 0.16237658 0.06688938 0.1545495 0.16276537 -0.025026347 0.0948196 -0.16790913
0.14619872 0.10863689 0.168938 -0.16584678 0.005494338 -0.14564382 0.090598375 -0.1465534
-0.13615109 0.034588043 -0.14095718 -0.00028541058 0.057089284 -0.15302983 -0.13149935 0.12649128
-0.14053987 0.07488677 0.06808006 0.13551278 0.14657445 -0.02091428 -0.16662556 0.14403737
0.07159901 -0.1586323 0.12115765 0.027154842 0.005600656 0.026328621 0.087847635 -0.06606808
0.0044265995 -0.13122407 -0.113237426 -0.07771593 0.15756992 0.16556759 0.10178959 0.06801107
-0.042873822 -0.15974653 0.10159288 -0.103094995 -0.06397065 0.10789172 -0.10261428 -0.14971592
-0.14859775 -0.13938248 -0.05333858 0.05789604 -0.04795447 0.10118279 0.1442913 -0.11103142
0.07523633 0.08819648 0.06857128 -0.10659487 -0.0813773 -0.12600327 0.14219669 -0.078700565
0.14995654 0.0035768256 -0.07632578 -0.09897339 -0.10429358 -0.10309387 0.12427689 -0.0046030474
-0.038589157 0.06746216 0.12154383 0.16333705 0.05196647 -0.049439043 -0.16124535 0.11489425
-0.07879626 -0.07471712 0.15375213 0.15733422 0.12617514 -0.081268065 0.057908002 -0.01848922

branch_t.fc2.weight f4 [64, 128]
00000000: 5476 fdbc f081 ff3c 5a7a 7f3d b815 4e3c
00000010: 431f 10bd 041a b8bc e2bf a9bd 6a33 763d
00000020: 70dd 2cbc 8537 a7bd 9607 363d 6207 5d3d
00000030: db7f afbd 9045 9a3b b27f 5f3d b110 2bbd
00000040: caf8 48bd 2a48 6e3d fe2e 1fbd 4243 153d
00000050: c7a1 9c3d 18bb fe3c 40cd 48bb d96b aabd
00000060: 284c e23c b0dc 7ebc aee2 9dbd 1a97 673d
00000070: 8e4c 353d 2949 31bd 30c1 c2bc 0016 f739
00000080: 4081 7bbb 009a 293c 8862 2a3c f050 c13c
00000090: 0c4e ec3c c5ee 11bd b2e4 2a3d 381f cfbc
000000a0: 3f62 823d 13f0 b03d d255 89bd 20f4 863c
000000b0: 7cd6 fe3c ddc6 65bd c83d 593c 249d 88bd
000000c0: 16ef 5ebd 50d3 d3bb 4fb4 57bd b40e acbc
000000d0: 20c1 dd3b b00d 893c f08a 703c 538a a13d
000000e0: 8ea2 a1bd 1069 90bc 8e33 7f3d 066c 4ebd
000000f0: 31c2 adbd f0a1 07bd cdc3 18bd 3832 5dbc
00000100: c0d9 64bb a06c 27bb 39a3 94bd 9fa6 a63d
00000110: cbe4 5fbd e857 3bbc 2755 a33d e8f2 9ebd
00000120: a60a ecbc 341c 44bd 2689 5a3d 405e d23b
00000130: 7eb3 d7bc 709c ddbb 1e1c 37bd f565 56bd
00000140: 807c ccbb cf9f 43bd 38fc 003c 12a3 4b3d
00000150: e848 9bbc 6495 babc 5dcb a0bd ae62 1e3d
00000160: 4d87 a5bd 8462 82bd 217d 913d 9c27 e03c
00000170: 4f0f 993d 4452 cb3c a85b 8a3c a85c 3ebc
00000180: e665 9cbd 8590 4dbd ca63 1abd f04c fd3c
00000190: 0dee 87bd 92e1 103d e227 82bd 8f48 b1bd
000001a0: f1ee 5ebd 38b4 5ebc 828c 86bd 56dd 523d
000001b0: f10d b0bd 9772 51bd 5602 38bd ce9f 1b3d
000001c0: 2416 da3c dbb4 833d 8c88 70bd c297 503d
000001d0: 406c 603c 9085 acbd d9ba a43d 9953 8abd
000001e0: bd2e 9d3d 7870 cebc 4a30 40bd 616a aa3d
000001f0: 2a35 2bbd 8076 da3a 6c99 e63c a383 8d3d
00000200: dd65 ac3d 5498 c23c 40ca c03a f1e7 8e3d
00000210: 6312 9f3d f3fc 913d 1be8 a33d f28b 723d
00000220: ff0e 34bd 10fa b83b 649c ed3c e822 ea3c
00000230: 2a60 92bd 022a 593d eed7 f4bc 7819 6dbd
00000240: f8ef df3c 4796 47bd 674f 94bd f0c0 a9bd
00000250: 8980 94bd d090 f33c 1fa2 a7bd 4c85 b9bc
00000260: a0b7 1f3b 701e 893b f26a 91bd 3ac2 5b3d
00000270: da2b 4cbd 3623 633d 2815 2f3c 9fd6 43bd
00000280: b073 91bc 3e75 2c3d cdfc 943d 9087 6abd
00000290: a8ce 3ebc f8cb 6fbc 48a0 37bc 36f7 753d
000002a0: 8f9a 50bd 8001 92bd 7b0a 12bd e0dc 303b
000002b0: f27e 79bd 9ad7 4c3d d6a0 2ebd 50af 3abc
000002c0: 4e52 763d 0849 70bc e0a0 9dbd ba3d 4cbd
000002d0: e826 9cbc 00f1 9d3a 6e47 703d 22e4 4d3d
000002e0: 0148 24bd 9807 aa3c e819 47bc b686 70bd
000002f0: c5e6 68bd a81c b23c 80b9 9d3a 58bd 523c
00000300: d256 74bd dbd8 883d 603a 533b 1077 e63b
00000310: 003a 2fbb fc9c 933c a059 0e3c 0153 863d
00000320: 6029 9fbd 0903 893d e495 ab3c 0024 fa3a
00000330: a86d 3bbc 1ee7 3fbd 6828 bebc 2d64 2fbd
00000340: 544d 95bc 1837 3f3c 5869 0ebd 304e f83c
00000350: 0191 8d3d 1804 94bd 27bf b43d fa59 8cbd
00000360: 41a6 5cbd 26c3 093d fc34 e83c 8f71 8f3d
00000370: b8b6 e0bc 363f 783d 7509 b13d 20cd 24bc
00000380: d011 453c c3e3 53bd 8101 abbd 60df 043d
00000390: e6dc 723d b18a 24bd 02b6 49bd b199 64bd
000003a0: 185f d1bc 8282 85bd e8fd 793c 40f3 10bb
000003b0: 8000 233c 6ccb 99bd 9610 163d 408e 1ebd
000003c0: 2a8f 0b3d 8cb0 fa3c c1af 38bd e08c 8cbb
000003d0: 7c9f 883c c0af 85bc 80fc 26bc c025 d6bb
000003e0: 40a7 9fbc 5ac4 1b3d c4aa df3c ea25 2dbd
000003f0: f90f 913d 9c83 a73c 2c8f 83bd 8753 9b3d
-0.030940212 0.031189889 0.062372543 0.01257842 -0.035186063 -0.022473343 -0.08288552 0.060107626
-0.010550842 -0.081648864 0.04444083 0.05396212 -0.08569308 0.0047079995 0.05456514 -0.041763965
-0.04906539 0.05817429 -0.038863175 0.036441095 0.07648044 0.031095073 -0.0030639917 -0.083213516
0.027624205 -0.015555546 -0.07709251 0.056540586 0.04426246 -0.04328266 -0.02377376 0.00047127903
-0.00383766 0.010351658 0.010399468 0.023598164 0.02884581 -0.0356281 0.041722007 -0.025283441
0.06366395 0.086395405 -0.06705822 0.01647383 0.031108133 -0.056097854 0.013259359 -0.06670597
-0.05442723 -0.0064643994 -0.05266219 -0.021003105 0.006767407 0.01673016 0.014681563 0.078877114
-0.07892333 -0.017628223 0.062305026 -0.050395988 -0.08484305 -0.03311342 -0.037296105 -0.013500743
-0.0034919828 -0.0025546923 -0.07257695 0.08137249 -0.054661553 -0.011434533 0.07975226 -0.077611744
-0.028813671 -0.04787846 0.05335345 0.006419927 -0.026330706 -0.0067630336 -0.04470455 -0.052343328
-0.0062404275 -0.047759827 0.007872634 0.049716063 -0.018955663 -0.022776313 -0.078512885 0.038668327
-0.08082447 -0.063664466 0.071039446 0.027362637 0.07473623 0.0248195 0.016889408 -0.011618771
-0.07636623 -0.050186653 -0.037692823 0.030920476 -0.066372015 0.03537137 -0.06355263 -0.086564176
-0.05442709 -0.013592772 -0.065697685 0.051480614 -0.08596409 -0.051134672 -0.044924103 0.0379942
0.026621886 0.0643098 -0.05872397 0.050925978 0.013697684 -0.084239125 0.08043451 -0.06754226
0.0767493 -0.025200114 -0.046921052 0.083210714 -0.041798748 0.0016667396 0.02814933 0.06909873
0.084178664 0.023754276 0.0014708713 0.06977833 0.07767179 0.07128324 0.08003255 0.059215494
-0.043959614 0.005645044 0.029005237 0.028581098 -0.07147248 0.053018577 -0.02988812 -0.057885617
0.027336106 -0.0487273 -0.07241707 -0.08288753 -0.07251079 0.029732138 -0.08185219 -0.022646569
0.0024370924 0.0041845366 -0.07100476 0.053652026 -0.049846508 0.0554535 0.010686196 -0.0478121
-0.01775536 0.042104 0.072747804 -0.05725819 -0.01164595 -0.014636032 -0.011207648 0.06005021
-0.05092865 -0.07129192 -0.035654526 0.002698712 -0.06091208 0.0500103 -0.042633854 -0.011394337
0.060137086 -0.0146658495 -0.076967 -0.049863555 -0.01906152 0.0012049973 0.05866187 0.050266393
-0.04010773 0.020755574 -0.012152173 -0.05872222 -0.056860704 0.02174218 0.0012033433 0.012862526
-0.05965311 0.06681987 0.003223084 0.0070332363 -0.0026737452 0.018019192 0.00868836 0.065588005
-0.077715635 0.06690032 0.020945497 0.0019084215 -0.011439718 -0.04685127 -0.023212627 -0.042820144
-0.01822535 0.01167085 -0.034768432 0.03031072 0.06912423 -0.07227343 0.08825522 -0.06853099
-0.05386949 0.033633374 0.028345577 0.070040815 -0.027430877 0.060607158 0.08644382 -0.010058671
0.012028173 -0.051730882 -0.08349896 0.03243959 0.059292696 -0.04017133 -0.04924584 -0.055810634
-0.02555804 -0.06519033 0.01525829 -0.0022117645 0.00994885 -0.07509503 0.03663691 -0.03870988
0.03407208 0.030601762 -0.045089487 -0.0042892545 0.01667761 -0.016319156 -0.010192037 -0.006535262
-0.01948893 0.038029052 0.027303107 -0.042272486 0.07083125 0.020448498 -0.06423792 0.07584291

branch_t.fc2.bias f4 [64]
00000000: bfcc 9fbd b8e4 76bd fc55 8b3d 4568 533d
00000010: f484 90bc 030c 953d c68a 9d3d dc0d fd3c
00000020: 1578 fc3b e8f3 babc 5426 91bc 606b 2c3d
00000030: fa5f 9dbb 63e2 84bd 5781 413d a882 493c
00000040: d826 0ebd 56c0 333d 5a61 913d 0cbc c03c
00000050: a5b4 cf3c ef21 b33d 9e5e 9539 56ce 36bd
00000060: c9fd 9d3d 0cc3 b3bd cdbc f6bb 9045 6d3d
00000070: e435 213c 1dc1 013d 883b 933d 765d b43c
00000080: c02c 9e3a 9a54 233d c148 123d f9a3 26bd
00000090: ac38 d03b 1c08 55bd 186e b13d 3d9b 1f3d
000000a0: 1287 3e3b 720c a73d 17dd 1bbc e9f4 9e3d
000000b0: f507 0f3c 1467 1b3c 1fde 19bd 0540 963d
000000c0: e5a3 8ebc 0bd3 1fbd 1900 93bd b3ef 2a3d
000000d0: c494 b83c 177e 74bd 6a7e 75bd 5424 4c3d
000000e0: 980b b63c 2f4b 84bd 0ccc 23bc d788 b83c
000000f0: 3e1f 2a3d cc98 413d b757 48bd af90 11bc
-0.07802724 -0.060276717 0.068035096 0.05161311 -0.017641522 0.07277682 0.076924846 0.030890398
0.0077047446 -0.022821382 -0.017718472 0.04209459 -0.004802701 -0.06488492 0.04724249 0.012299217
-0.034705013 0.043884598 0.070986465 0.023527168 0.025354693 0.08746707 0.0002848999 -0.04463037
0.07714421 -0.087774366 -0.007529831 0.057927668 0.009839509 0.031678308 0.07189089 0.022017222
0.001206778 0.039875604 0.035713915 -0.04068372 0.006354412 -0.052009687 0.08663577 0.038966406
0.0029072207 0.08156671 -0.009513161 0.07761557 0.008729924 0.009485025 -0.037565347 0.073364295
-0.017412135 -0.039019626 -0.07177753 0.0417325 0.022531874 -0.05969056 -0.05993501 0.049839333
0.022222325 -0.06459653 -0.009997379 0.022526188 0.0415337 0.04726486 -0.048911776 -0.008884593

branch_t.fc3.weight f4 [16, 64]
00000000: a021 c33b b8dd da3c feee cbbd 7b05 73bd
00000010: 6078 983b 5e48 ffbd bb8d cb3d 885f 67bd
00000020: 5c6c babd 0b81 50bc 743c a3bb d9ff debd
00000030: e0ea e1bc 4801 e5bd b84b 43bd 981b 893d
00000040: acd9 263d 046d 5abd 77ed 673d 56c8 d8bd
00000050: e8ad f7bd 7eaa 1bbd eda0 8a3c 4068 a53b
00000060: c4ff 37bd 8e99 c4bd 457b f03d 5ad6 d5bd
00000070: 8663 c9bd 3315 923d 907a 4e3c 202d d23d
00000080: 6ef7 e63d c56e 1f3c 0dc5 103d 881b efbd
00000090: eef0 d03d 043e 303d aab6 1cbd 6471 64bd
000000a0: 7053 ddbc ab3f 843d 92b8 703b 08c8 c23c
000000b0: bde4 40bd c3b4 36bd 8c87 633d 1d99 19bd
000000c0: dd58 00be 8c96 cfbd edc0 d23d e34f 36bd
000000d0: 9024 aebd 0186 76bd 0818 ccbc 816c 743d
000000e0: f0ae 9dbd 00be ac3b 1c55 77bd 538c d33d
000000f0: 5a50 b73d 2628 c73d 2066 053d e50c db3d
00000100: 84b4 cf3d d037 1d3c 0084 73bc 504e 303c
00000110: f04c 433d 90bf d43d 809a b5bd 7435 17bd
00000120: ecba fabd a059 133d 6c6a 843d 2a02 893d
00000130: 107a 92bd f273 8c3d 9033 a73d e810 b8bd
00000140: 103b 3bbd a0cd b03c c485 973d a8f5 8dbc
00000150: 1225 a63d b006 1e3d 48b6 b2bc 487e 8f3c
00000160: 0a91 db3d 8426 1f3d c6f2 c8bd 4093 89bd
00000170: 402b 24bc 4412 ac3d 1081 423c 58f1 89bd
00000180: 2048 c5bc e08f c43b 469f a1bd 2272 e83d
00000190: 4cc9 d63d b42e ebbd 0e78 b8bd d8fe 98bd
000001a0: 30d3 ff3c 4047 f03b 688c af3c 5402 383d
000001b0: f648 f9bd 5249 bfbd 00ed c23b 0a2b bfbd
000001c0: c0f3 6dbc 50d8 313d 9ca1 d8bd 1250 aabd
000001d0: e020 94bd b0c4 8bbd f08d b0bd 50c6 d4bd
000001e0: 4c78 313d 30d0 5b3c 96df bbbd d8dd 3cbd
000001f0: 1cfb 133d 7637 a63d 40b3 8d3d a65d 963d
00000200: 809b 55bd 7a4e d13d 52bf 343d f905 a4bd
00000210: 84f4 f73d 3807 df3d f58e 9c3c c08c ee3d
00000220: 532e eebd 77e9 7cbc 2bf0 1d3c 60cd a9bd
00000230: f07a b7bd a022 e33b 26ac 9b3d 68c3 583d
00000240: d73d f53c d002 90bd a414 c8bd 8416 613d
00000250: 407d bebd 181a abbd dbdb babd 046e 8b3d
00000260: 8eb3 893d a58a aebd 1bad bf3d c505 74bd
00000270: 8f39 c03c 7d93 f4bc 36c6 363d 1b92 a5bd
00000280: c87e 333d 1a06 653d d375 c9bb 6cea 75bd
00000290: 440d d8bd 11e2 e3bd f0a1 b93d 7543 d3bd
000002a0: 9d0f 413c 9d4a 35bc 6443 2ebd 0223 283c
000002b0: f581 a13d 3e38 2b3d d227 a0bd 947e be3d
000002c0: 3b41 ac3d 3ca0 45bd 7360 f43c 86ab 84bd
000002d0: c039 9d3d b977 b63d 9e8c bcbd 1509 873d
000002e0: 4ed9 d4bd d2c4 c73d a70c 903d 6d94 36bc
000002f0: bc67 0d3d 505e 3fbd 43b9 bdbd d2c1 2f3d
00000300: 6cb2 983d 4efb dabd 27bd 80bd 2ebd 80bd
00000310: 94ff 0fbd 5006 373c 0e45 e93c b0fc 0ebc
00000320: 6271 f3bb 498b 883d 8e7a 3e3d c5ae bcba
00000330: 3e08 aabd 0ec2 913d 0952 9c3d e89a dd3c
00000340: 5846 16bc 383f 823c 4af3 eb3d f8ce dabc
00000350: 9030 84bc 77ae a3bd ae20 003e d487 44bd
00000360: d3a2 8ebd 2fdc 313d 26ff 95bd 2fac 87bc
00000370: 5732 0cbd 2373 023d 0fb9 993d bce9 e73d
00000380: 0e98 f03d 576e ba3d 2f6a 593d c087 3cbc
00000390: f6d3 2bbc a896 d43d 303e 9b3d 9a39 cabc
000003a0: 9ecd 9d3d abb5 153c d940 76bd 1d2c a33c
000003b0: 887e 8bbd 687d 95ba c07b 823d 4956 833d
000003c0: da2d 69bd 883b 353d 92e4 90bd 0407 dbbd
000003d0: dec6 d63d b963 fbbd 7ad9 f2bd 6683 2f3d
000003e0: fc42 2a3d a477 223d 5a2a febd c3ea a1bd
000003f0: 0a1f bd3d aa55 083c 002d acbd 7381 953d
0.005954936 0.026717052 -0.099576935 -0.0593314 0.0046530217 -0.12464975 0.09939142 -0.05648759
-0.09102699 -0.012726079 -0.004981572 -0.10888643 -0.027577817 -0.11181885 -0.047679633 0.06694716
0.04073493 -0.05332662 0.05662295 -0.10585086 -0.12093717 -0.03800439 0.016922439 0.005047828
-0.04492165 -0.09599601 0.11742262 -0.10441275 -0.09833436 0.0713295 0.012602463 0.10262513
0.11277662 0.009730999 0.035344172 -0.11675173 0.10202204 0.043027893 -0.03826014 -0.0557722
-0.027017325 0.06457456 0.0036731106 0.023777023 -0.04709314 -0.04460598 0.05554919 -0.037499536
-0.12533899 -0.101361364 0.10290704 -0.04450978 -0.085030675 -0.06018639 -0.024913803 0.05967379
-0.07699382 0.005271673 -0.0603839 0.10329499 0.08950873 0.097244546 0.032568097 0.10695819
0.101418525 0.009595826 -0.014863014 0.010760859 0.047680795 0.103881 -0.08867359 -0.03691621
-0.12242684 0.035974145 0.06465611 0.06689866 -0.07152188 0.06858052 0.08164132 -0.089875996
-0.045710623 0.021582425 0.07398561 -0.017329052 0.08112539 0.038580596 -0.021815434 0.01751627
0.107210234 0.03885509 -0.0981193 -0.06717539 -0.010020077 0.084019214 0.011871591 -0.06735486
-0.024082243 0.0059985965 -0.07891707 0.11349894 0.10487613 -0.11483517 -0.090072736 -0.074704826
0.031228632 0.0073327124 0.021429256 0.044924095 -0.12172119 -0.093401566 0.0059486628 -0.09334381
-0.014523447 0.043419182 -0.105776995 -0.083160535 -0.07232833 -0.068246245 -0.086208224 -0.103893876
0.043327615 0.013416335 -0.09173505 -0.046110004 0.03612815 0.08116047 0.06918955 0.07342081
-0.05215025 0.10220046 0.04412777 -0.08008952 0.121071845 0.10890049 0.019111136 0.1164794
-0.116299294 -0.015436522 0.00963978 -0.08291125 -0.08958995 0.006931618 0.07601194 0.05292073
0.029936714 -0.070317864 -0.09769562 0.054953113 -0.09301233 -0.08354586 -0.09123965 0.06808093
0.067237005 -0.08522538 0.09359189 -0.059575815 0.023464946 -0.029855484 0.044622622 -0.08084508
0.04382208 0.055914022 -0.006148079 -0.060038015 -0.10549405 -0.11127103 0.0906409 -0.10315601
0.011783508 -0.0110651525 -0.042544737 0.010262253 0.078861155 0.041801684 -0.07820095 0.093014866
0.08410879 -0.048248515 0.029831147 -0.06478028 0.076770306 0.08909554 -0.09206508 0.06593529
-0.1039301 0.09754337 0.07033663 -0.011143786 0.034522757 -0.046720803 -0.092638515 0.04290945
0.07455906 -0.10692464 -0.06286078 -0.06286083 -0.035155848 0.011170939 0.02847531 -0.008727238
-0.007429288 0.066671915 0.046503596 -0.0014395347 -0.08302353 0.07117091 0.076328345 0.027051404
-0.009172045 0.015899286 0.11521013 -0.026710019 -0.016136438 -0.07992261 0.12512466 -0.0479811
-0.0696465 0.043422874 -0.07324056 -0.016561596 -0.034227695 0.031848084 0.07506 0.11323878
0.11747752 0.09103077 0.05307978 -0.011506975 -0.010487547 0.10380298 0.07580221 -0.02468567
0.07705234 0.009137551 -0.060120437 0.019918496 -0.06811243 -0.0011405172 0.0637126 0.06412942
-0.056928493 0.044246227 -0.07074846 -0.106946975 0.1048715 -0.1227488 -0.118578866 0.04284992
0.041567788 0.03966488 -0.12410422 -0.07906105 0.09234436 0.008321205 -0.084070206 0.07300081

branch_t.fc3.bias f4 [16]
00000000: 87f1 b13d a836 b5bc 60fd bfbd a522 f53c
00000010: 507b f33c 1639 703d 0ef1 c23d bb13 5c39
00000020: 9273 81bc 0b13 9e3c b7e7 a03d 5cc1 cebd
00000030: bf2e 8e3c 4616 6c3d 71a8 fbbd 2106 85bd
0.08688646 -0.022120789 -0.09374499 0.029923746 0.029721886 0.05864819 0.09518634 0.00020988185
-0.015802179 0.01929619 0.07856696 -0.10095474 0.017356275 0.05763843 -0.12287987 -0.064953096

branch_p.fc1.weight f4 [256, 34]
00000000: 5c91 123e 7b3a 343d 36fa 93bc f44a 60bd
00000010: 297d 193b 15d8 fbbd 20f6 7e3d 79dd 023e
00000020: e03d d73d 7c83 773c 1574 2f3e aa0d e7bd
00000030: df84 12be b34d c73d 6f6e 09be e5fe c83d
00000040: 80e6 93bd 46b3 b7bd a799 af3c 431d f53d
00000050: 1781 eabd 6f03 c3bc fe81 263e 9ae7 0a3e
00000060: 3f4e edbd 88d6 85bd eb86 0fbd 9fb4 04be
00000070: a53d f9bd 5862 2a3e cd2e 65bd 3f73 2dbd
00000080: dc3f d73d 8d64 983d 744d e8bb ff2d 2abe
00000090: 8df4 28be 67cd acbd 03fc 19bb b559 103c
000000a0: fd63 2a3d 264e b9bd 399f da3d 7ffe 213d
000000b0: c322 1b3d a0ac 07be e2fa b23d 2651 01be
000000c0: 82fb 72bd 92ec b4bc 2e7f 16bd a9e6 9e3c
000000d0: 1e50 c4bd a468 db3d 796b b13d 3860 7abd
000000e0: f698 6abd fb4a a03b 4b3b 95bd b995 f0bd
000000f0: ebfb 9bbd ce3e 84bc 0e7a 183e 1209 bbbd
00000100: 2d94 273e 3257 e43d 235e 9f3d 9554 613d
00000110: 7949 1a3b b31f b5bc 523c 9fbd 81f2 f9bd
00000120: 5e18 cebd a2d5 213e 3c32 69bd 4d17 433d
00000130: f084 90bc 1d0b 46bd b71c 89bd 932e 383d
00000140: 6217 c63c bbcf 23be a083 49bd 75dc a93d
00000150: 929e 0abe d8f9 463c 2b8b 2dbd 863c abbd
00000160: 3c6a 253e 049f dcbd 41c7 c3bd 4b1a 83bd
00000170: fb26 b93d bb33 3cbd 694c 253d 6c70 923b
00000180: 58fc 00be c5de 09bd fc95 f63d 82a8 23be
00000190: a2ba 8bbd 8863 0fbe ac22 223d f24e e93c
000001a0: 65f7 0dba b375 a4bd 4c71 403d 6b2c 983c
000001b0: 8a8a 13be 0b41 ef3c 59b2 f1bd d14a 11be
000001c0: e729 1d3e 81f0 be3d 66df 263e bcbe 4d3d
000001d0: f5ca dc3d 4147 11be 58be fdbd 460b ad3c
000001e0: bc6b bf3d 29ba 15be 9349 1bbe c174 a33d
000001f0: 7ba9 f63d 6b0c c1bd 13f5 933a 8a04 20bd
00000200: 57c0 403d 0ced ffbd cf24 28be 447b e9bd
00000210: 130f 0f3d 2071 bc3c 6bf3 fe3d 574a 2d3c
00000220: 0b72 863c 1da2 07bd 5374 f5bd 1c68 203e
00000230: c200 eebd 87c8 a43d 651f 113e b26e d43d
00000240: 255c 0dbe bf8d 10be a209 003e d68e 9ebd
00000250: 0823 13be 8603 8d3d 11a0 a0bd 6025 7b3d
00000260: f534 1e3e 6a0e 09be 85ec 133c a75c 28be
00000270: 8f9e 413d 889b 13be f24b 30be 48d2 c33d
00000280: bf3a 75bd a691 0ebe bce8 443d 9bef 9abd
00000290: 84c3 3ebd 12db 8fbc fab1 113d 91f9 2e3d
000002a0: 4bfb 233e bb08 263e ec62 233e 82bd afbd
000002b0: 4af6 79bd ada3 09be 73f6 30bd 32d0 29be
000002c0: ef12 213e 84fa 0f3c 4f79 113e ca13 113e
000002d0: 347c cdbd 070b 9f3b a8cd a93d 2b5a 653d
000002e0: ed66 173e 67e6 57bc b9cf 233e 7e5a d6bd
000002f0: 455e e03d c48d 2d3c 4020 abbd d0bc 7f3c
00000300: 87a1 6d3d 26bb fcbc 4a21 2ebe f5e7 8b3d
00000310: bae7 d73d e737 e43d 21af 453d 164b 893c
00000320: d7c0 e9bd c08f 1f3d 425b db3a 4fcb 49bc
00000330: 5b07 b3bd 8df5 f8bd f548 c63c a089 f6bc
00000340: 87ea 69bd f95a e03d 62a7 7abc 44a2 dfbd
00000350: 6a4d da3b 3ebb de3d 1cb7 313d 8e4d 193e
00000360: f7bc 2ebe e59d 03bc 0209 643d 06c5 f23d
00000370: 5bc3 be3d bd39 51bd edca 0c3e cc08 e638
00000380: d790 be3d 4c2e a53d 8288 a1bd 18c6 c0bd
00000390: 8b52 bf3d b995 b43b 44d2 dcbc ce5a b8bd
000003a0: bdf8 f13d a413 d43a 23c4 223e dacc 29be
000003b0: 71a4 ff3d adb6 3dbb de45 d8bd 7961 a43c
000003c0: 7fd0 c53d f92f 153e 6a8d dcbd f982 a03d
000003d0: f51d 14be 1b64 1dbe fafd b03d 3dcf 343d
000003e0: 01e5 d5bd 8f0c 933d 3b0b eb3d 1e88 12be
000003f0: 0e97 82bd d6d5 1d3e 257c 233e 4181 2cbe
0.14313263 0.044001084 -0.018063646 -0.05475898 0.0023420549 -0.12297074 0.06224644 0.12779798
0.105098486 0.015107032 0.17134126 -0.11281903 -0.14308499 0.09731617 -0.13421033 0.09814242
-0.07221699 -0.089697406 0.021435572 0.11968472 -0.11450403 -0.023805348 0.16260526 0.13564911
-0.1158719 -0.06535059 -0.035040777 -0.12959526 -0.12169961 0.16639078 -0.055952836 -0.042346235
0.10510227 0.074410535 -0.0070893113 -0.16619109 -0.16499539 -0.08437615 -0.0023496158 0.00881045
0.041599263 -0.09048109 0.106749006 0.039549347 0.03787495 -0.13249445 0.08739258 -0.12628612
-0.059321888 -0.022085462 -0.03674238 0.019397097 -0.09585594 0.10713318 0.08663077 -0.061126918
-0.05727478 0.004891751 -0.072867 -0.11747307 -0.07616409 -0.016143229 0.1489031 -0.091325894
0.16365118 0.11149444 0.07781627 0.055012304 0.0023542328 -0.022109842 -0.07775177 -0.12204457
-0.100632414 0.1580415 -0.056932673 0.047629643 -0.017641515 -0.048350442 -0.0669493 0.04496629
0.024181072 -0.15997212 -0.049197793 0.08294002 -0.13537052 0.012144528 -0.04236905 -0.08361153
0.16153806 -0.10772517 -0.09559489 -0.06401499 0.09040638 -0.04594777 0.040356074 0.004468968
-0.12596262 -0.033659715 0.12040326 -0.1598225 -0.06822707 -0.14002812 0.039583847 0.028480027
-0.0005415588 -0.08030262 0.04698305 0.018575868 -0.14408317 0.02920582 -0.11801595 -0.14188696
0.15348016 0.09323216 0.16296157 0.050230727 0.107808985 -0.14187337 -0.12389821 0.02112354
0.093467206 -0.14621796 -0.15164785 0.079812534 0.120440446 -0.09426197 0.0011288248 -0.03906683
0.04705843 -0.12496385 -0.16420291 -0.11400464 0.034926485 0.023003161 0.12448772 0.010576806
0.016411802 -0.033113588 -0.11985078 0.15664715 -0.11621238 0.0804606 0.14172132 0.10372676
-0.13804682 -0.14116572 0.12503675 -0.077420875 -0.14368832 0.06885438 -0.0784303 0.06131494
0.15449889 -0.13384405 0.009028559 -0.16441594 0.047270354 -0.14414799 -0.17216471 0.09561592
-0.059870478 -0.13922748 0.048073515 -0.07565232 -0.046573177 -0.017560516 0.035570122 0.042718474
0.1601383 0.16214268 0.15955704 -0.085810676 -0.061025895 -0.13441344 -0.043203782 -0.16583326
0.15729879 0.008787755 0.14206432 0.14167705 -0.100334555 0.0048536095 0.08291179 0.055994194
0.14785357 -0.013177491 0.15997209 -0.10466479 0.109554805 0.010592882 -0.083557606 0.015608981
0.058015373 -0.030850958 -0.17004886 0.06831352 0.10542245 0.11143475 0.04826272 0.016759437
-0.114137344 0.03895545 0.0016735571 -0.012316539 -0.08741637 -0.1215621 0.02420471 -0.030094922
-0.05710843 0.10954852 -0.015298696 -0.109196216 0.0066620605 0.10875557 0.043387517 0.14970991
-0.17064272 -0.00803325 0.055672653 0.118539855 0.09314605 -0.051080454 0.13749285 0.00010968893
0.0930497 0.08065471 -0.07887365 -0.094127834 0.09341916 0.0055110124 -0.026955731 -0.090016946
0.11815021 0.001618017 0.15895133 -0.16582051 0.124825366 -0.0028947995 -0.10560201 0.02006601
0.09658908 0.14569081 -0.1076916 0.07837481 -0.14464553 -0.15370218 0.08642192 0.04414295
-0.1044407 0.0718013 0.114767514 -0.14309737 -0.06376468 0.15413603 0.15965326 -0.16846181

branch_p.fc1.bias f4 [256]
00000000: 60b5 07be 0454 053d 463a 883c 0721 803d
00000010: ff37 d1bd 8412 d73c 3639 8abd 8d25 20be
00000020: 7d22 89bc 40e4 7cbd 5510 17be 7817 89bb
00000030: c23b 17be b942 f0bd 5fdf dc3d 9bd8 1abe
00000040: 047b 2e3e 01f9 df3d 28a3 a6bd 1a0f 2e3e
00000050: 0528 ffbd 0be5 b0bc c514 b1bd 9f3e 01be
00000060: c989 0c3e 4ee8 1b3e 810e e13d da70 1cbe
00000070: c679 05be 1384 0c3c 293b f43d 0c76 eebd
00000080: 641e c0bd 940e fdbd 9eab 5e3d cc7c f93d
00000090: 03ea c9bd 0271 103d 20d7 12be d83a f33d
000000a0: 886a 133e 32f5 13bc 5771 063e a744 9abd
000000b0: 7bdd 1b3d eebf 2dbe f80a 1a3e 4bd5 8dbc
000000c0: 8dcd b73d 70cc 6bbd 6419 cd3d 26ec 2dbe
000000d0: 000d 853d 7cd3 d0bd e9f6 2d3e 6e4c a33c
000000e0: 4e6d 28be 375f 903d 2737 833d 083a 94bd
000000f0: 29fc bf3b b03e a6bd b727 243d 99d5 b8bd
00000100: db7d 233c dbf6 8e3d e29f 1ebe ebc4 2abd
00000110: 86a4 24be d824 81bd bbcd 6dbd 2dcd dbb8
00000120: ea62 c83d a850 e3bd 679a 123e bc8e edbd
00000130: 1c2e 8e3d d1ca e33c 470c 00be df71 1fbd
00000140: 0fa3 2e3e 998f 2d3e 8ae7 81b9 aea8 1abe
00000150: 89cb 2e3e eb01 b9bc a05e c73d 96ce 88bd
00000160: c802 293d 33da 22be e45c 8b3c 6a33 15bc
00000170: a7a6 a7bd 04be 6f3d 6a66 bd3c f4dd 033e
00000180: dd91 15be 8f82 133d d5b5 6abd ff36 1e3e
00000190: 1336 b73d 8347 233d 3c52 d63d 12ad bd3d
000001a0: c793 c5bd 54b3 c0bd 046f 20be 834e 213e
000001b0: 2d47 673d 7752 80bd 5869 dbbd 1c81 163e
000001c0: 6431 af3d 12c7 13bd 2bfd 213e e5cb 96bd
000001d0: 9113 8d3d b3a8 063e d0ac 0dbe c5d4 5ebd
000001e0: d5ba 07be 63cd 2e3e fafe c0bd 245e f7bd
000001f0: fd2e 073e d7ed 383d 88cb 843d e495 c9bd
00000200: 4756 b5bc 3eb3 75bd 6f1d fabd 0b6b 6a3d
00000210: 68b7 c2bd 6109 283e b3be 883d 9d92 dabd
00000220: 9a3d c33d 319a 11bd 4e30 7e3d 81e8 8fbd
00000230: f2e5 183e 8185 efbd 1e1e 6dbd 53b0 af3c
00000240: a32c c7bd bf83 88bd 938c 2bbe 67a7 ab3d
00000250: f276 e63d 18d2 32bc cd01 ffbd ceae 1abd
00000260: 56ac d53d 930e ab3c 4e46 c83d cd98 1e3e
00000270: 42e4 3dbc 91fa c8bd 9318 523d 415f da3d
00000280: 6439 fcbd 8f02 193e 2d27 12bd f69b 053e
00000290: f3d3 2fbc b7a5 213e cb44 013e fe43 f23b
000002a0: 9f2e 04bb 8c6c 043d fe87 383b 1fbd bd3d
000002b0: 10ef cb3c 0401 cebd 4e3b 1b3e 4a16 16be
000002c0: 011e 54bd f30c 00bb eeaa 0abe be39 a73d
000002d0: 5a4d 273d 6c69 09be c581 5e3c 6bdf aebd
000002e0: 9205 26bd f754 2c3e f9f9 d0bd 1231 e83c
000002f0: 786a 173e 1a64 26be 87a4 c6ba d542 17be
00000300: 0d11 3fbb 0cc4 563d 7ccb 6b3d 5170 2f3e
00000310: 62a4 bfbd f892 333d ba6d 23be ad18 163e
00000320: 8e50 b53d 9abe 613d cf7e 34bc b846 a7bc
00000330: 0c91 043e 0147 083e 39b0 39bd 87dc 0e3d
00000340: efd2 123e f7aa c23c b7d0 07be 8053 183e
00000350: a9a2 863d caa0 2f3e 4490 ccbd 98ab 54bd
00000360: cbb3 47bd 1e33 01be e86f edbd 8103 e4bd
00000370: 5c91 b73d c11c 2e3e 8803 e13d 0016 2abe
00000380: 8dca 1c3e 2894 203e 5c09 313d 1f01 85bc
00000390: e78d f63d bd51 183e 436f a53d d71b f03d
000003a0: 92ba 8fbc de85 023e 1096 da3d 6841 08be
000003b0: 7d26 2dbc 6283 18be 4807 133d a851 8cbd
000003c0: 1324 ed3c 452e 7abd 28f5 15be c6f1 7f3d
000003d0: 0ed1 90bd e05a 0a3e c1c0 2fbd 825b 8cbc
000003e0: 38a7 c7bb 12f7 0dbd bd03 263e 04d9 1dbe
000003f0: a4c2 cabd ae3b 063d 037e cbbd 75a1 b33d
-0.13252783 0.032550827 0.01662935 0.062562995 -0.102157585 0.026253946 -0.06749193 -0.15639324
-0.016740078 -0.061741114 -0.14752324 -0.004183706 -0.1476889 -0.11731476 0.10784792 -0.15121691
0.17039114 0.109361656 -0.08136588 0.16997948 -0.12458805 -0.021593591 -0.086465396 -0.12621544
0.13724436 0.15225336 0.109890945 -0.15277424 -0.13034734 0.008576411 0.119253464 -0.116436094
-0.093807966 -0.12356296 0.054362886 0.12182006 -0.09859087 0.035264023 -0.14339876 0.11876458
0.14396107 -0.009030627 0.13129173 -0.07532626 0.038053017 -0.16967747 0.15043247 -0.01731362
0.089747526 -0.057568014 0.100146085 -0.16984615 0.0649662 -0.101965874 0.1698872 0.019933905
-0.16447946 0.07049411 0.06407004 -0.07237631 0.0058589173 -0.081174254 0.040076938 -0.090251155
0.009978737 0.06980678 -0.15490678 -0.0416917 -0.16078386 -0.063058555 -0.058057528 -0.00010480951
0.09784491 -0.11099368 0.14316712 -0.1159949 0.069423884 0.027806671 -0.12504683 -0.038926955
0.1705439 0.1694931 -0.00024777307 -0.15103409 0.1706983 -0.022583922 0.09734845 -0.06680028
0.041262418 -0.15903549 0.017012067 -0.009106496 -0.08186083 0.058530822 0.023120124 0.12877637
-0.14606424 0.036013182 -0.057302315 0.15450667 0.08945861 0.03986312 0.10464904 0.09261526
-0.09647327 -0.09409204 -0.15667349 0.15752606 0.056464363 -0.06265729 -0.10713452 0.14697689
0.085543424 -0.03607852 0.15819232 -0.073631085 0.068884976 0.13150291 -0.13835454 -0.05440213
-0.13254865 0.17070536 -0.09423633 -0.12078503 0.13201518 0.045148697 0.06484133 -0.098430425
-0.022135867 -0.05998539 -0.12212645 0.05723099 -0.09507638 0.16409828 0.06676998 -0.106724955
0.09533234 -0.03554744 0.062057786 -0.070267685 0.14931467 -0.11695386 -0.05789005 0.021446383
-0.09725311 -0.066657536 -0.16752844 0.08381539 0.11253156 -0.010914348 -0.12451515 -0.037764363
0.10433261 0.020880973 0.097790346 0.15487976 -0.011590065 -0.09813417 0.051292967 0.106626995
-0.12315634 0.14942382 -0.035681892 0.13047776 -0.010731685 0.15785871 0.12623899 0.007393359
-0.002016939 0.03233008 0.002815723 0.092645876 0.024894267 -0.100587875 0.15159342 -0.1465694
-0.051786426 -0.0019538968 -0.13541767 0.0816531 0.040845253 -0.13419122 0.013580744 -0.08538707
-0.040532656 0.16829287 -0.102039285 0.028343711 0.14786708 -0.16249123 -0.0015155234 -0.14771588
-0.002915445 0.05243306 0.057567105 0.17132689 -0.093575254 0.043841332 -0.15959826 0.1465785
0.08853255 0.055113412 -0.011016562 -0.020419464 0.12945956 0.13308336 -0.045334075 0.03487828
0.14338277 0.023763163 -0.13263212 0.14875603 0.06573994 0.1715118 -0.09988454 -0.051921457
-0.04875545 -0.12617156 -0.1159361 -0.11133481 0.08963272 0.17003156 0.10987002 -0.16609955
0.15311642 0.15681517 0.043221816 -0.016235886 0.120387845 0.1487493 0.08077862 0.1172406
-0.017545018 0.12746379 0.106731534 -0.133062 -0.010568258 -0.14893869 0.035895616 -0.06851512
0.028947866 -0.061079282 -0.14644301 0.062486432 -0.07071124 0.13511229 -0.042908434 -0.017133478
-0.006092932 -0.034659453 0.16212364 -0.15414816 -0.09900406 0.03277176 -0.09936144 0.0877103

branch_p.fc2.weight f4 [128, 256]
00000000: 478e 2fbc a576 04bd b1a0 7bbc be74 19bc
00000010: 96ec 88bc 85a1 083d 35fe 693b b6fa 54bd
00000020: 5747 563d 6535 093d b418 25bc fbc5 4abc
00000030: adaf bb3c 2889 4dbd ba61 2abd 5ccf b73a
00000040: d5ae 8c3c e392 99bc 993b 5f3d 86eb a93b
00000050: 7de9 63bd cd18 ccbc 6de9 d9bc 17c9 763d
00000060: 78c1 14bd ba21 723c c92a 70bd 30af f1bc
00000070: 1a81 fc3c 3cd8 53bd 74a4 743d cc8f 4cbd
00000080: f8bf 793b 4535 71bd 085a 0abd 32c1 983c
00000090: d760 603b 3404 25bd de7d 043c 45ca d83c
000000a0: fd17 21bd 5dac 01bd 1634 7cbd 4939 3f3c
000000b0: d1ad 46bd 1457 3fbc 0057 6bbd c652 323d
000000c0: ab7d 30bc 1bfa 69bd dd7b 373d 8eda 183d
000000d0: 7c43 523c 0e62 ddbc fac0 64bd ee9c e6bb
000000e0: 865b 93bc aaa1 2d3d 63a9 b03c 6a9f 8f3c
000000f0: 258a 3cba 7bfc d13b a04c b6bc 2776 373c
00000100: 6792 9b3c 6490 0dbc b0b7 65bd f870 54bd
00000110: 99db 573d 4436 243c 1571 323d f959 cabc
00000120: 7506 ffbc 7dc8 e83b b37c 96bc 32b7 3d3d
00000130: 2650 70bd 05cd f1bc 5414 d43c ca8f 0f3d
00000140: ac27 f3bb d78a fe3c eabb 693d 28e1 bd3c
00000150: d15f 723d b3ca 843c 8648 5c3c 7353 49bc
00000160: 1dbc 80bc e30d 203d dc86 46bd 1dbe 7a3c
00000170: 2f7b c9bb b89c 4dbd ec64 513d 6901 3dbd
00000180: 4a7a 2f3d 845a ee3b 5f50 ee3c 1dfa 373d
00000190: 8515 47bd e841 ddbc cc2f 433c 2eab c33c
000001a0: f815 65bd 6708 0dbd 6f43 8f3c 26dc 36bd
000001b0: fc17 7bbd bddd 94bc f77e e9bc bbf0 373b
000001c0: 1b5e 643d f62c 29bd 6102 08bd 36e0 203d
000001d0: 7af7 39bd 322e 093d d9b3 5fbd 2a2d 11bd
000001e0: 3c0b 4d3c 6bb5 13bd deae aaba 1118 b33c
000001f0: e9b9 4fbd 8202 423d 5313 653d 015c 05bd
00000200: d44b 41bd b58b 093d 200d 75bc be13 1f3d
00000210: 1d7b 17bc eb56 1c3d e25e 8ebc 1231 b73b
00000220: 4627 3a3d e44b 5abd a393 c3bc 77be 3bbd
00000230: df7f 8dbc 637e 533b d011 96bb 2f2c d93c
00000240: bf13 c9bb 1d46 51bd f04d 32bd 3d55 e13b
00000250: b0f1 2e3d d3c1 43bd 9852 febc 823e 75bc
00000260: 9932 743c f5e1 42bd 3745 c03c 912a 42bd
00000270: cec9 423c c361 213d a99e 4abd f910 163d
00000280: 7606 21bd 8d88 9abc 78f1 2ebd 790c aabc
00000290: 42b9 7ebd badc 1a3d 202b 2c3d a2f7 75bc
000002a0: 06e2 71bd 6d11 7c3b deba 7fbd 1211 2cbd
000002b0: 9649 3f3d b391 47bc eb5f 2fbd 8e8e 1f3d
000002c0: 52cf 7cbd 519c ee3c f105 843c 375b 1bbd
000002d0: 0496 2ebd e770 65bd 0acb 30bc d96a 2dbd
000002e0: 3502 f33c 432c b63c af90 5abd 7245 10bd
000002f0: d3df 3f3d 0c6e c3bb 8f84 0dbc cd77 83bb
00000300: 8076 18bd 7f07 273d e14e 40bd 7b34 773d
00000310: f3cb 6c3d 8c5d 10bb 10f3 773d 9f6e 613c
00000320: 02b8 22bd f888 dabc 5abd 4a3d 380c 303d
00000330: 95f5 cb3c 69fb f73c c6df 1e3d 66c6 94bc
00000340: 2b26 3a3d acc7 793d 146c 3ebd 13bb 1d3c
00000350: bed6 66bc 4102 d43c 511c 46bd 1c53 63bc
00000360: 6ef3 8e3b 1d50 29bd 3711 1a3c 8f6e b33c
00000370: c01a 26bc 6e32 b03b 0619 463d e549 7fbd
00000380: 74a6 ccbc f4b9 2a3d 6329 7dbc 651d 55bd
00000390: 77e6 043d 604e 023d c586 bf3c 01a2 46bd
000003a0: fb93 733d e48d 0d3d 40aa 4d3d ac56 763c
000003b0: b1f9 7fbd d16d 67bc a240 073d 235c 8d3c
000003c0: e138 43bc e739 78bd b840 9a3c ea40 bfbc
000003d0: a5c7 203d 7180 1bbd 0a4a 783d e8f8 e63c
000003e0: 13a0 d8bc 4c57 27bd c47b c53c a5f0 183c
000003f0: 3482 13bd 7784 7abd c22e 3f3d 9ff9 dbbc
-0.010715074 -0.03233971 -0.015358136 -0.009366212 -0.016714375 0.033357162 0.0035704498 -0.05199691
0.05231413 0.033498187 -0.01007669 -0.012376304 0.022910917 -0.05017963 -0.041597106 0.001402359
0.01717321 -0.018746799 0.054500196 0.0051855473 -0.055642594 -0.02491417 -0.026600564 0.060250368
-0.03631732 0.014778549 -0.058634553 -0.029502481 0.03082328 -0.05171989 0.059727147 -0.049941823
0.0038108807 -0.058888692 -0.033777267 0.01864681 0.0034237409 -0.04028721 0.00808665 0.026463637
-0.039329518 -0.03165852 -0.06157311 0.011671373 -0.048505608 -0.011678476 -0.057456017 0.04353597
-0.010772149 -0.057123285 0.04479586 0.037317805 0.012833472 -0.027024295 -0.0558481 -0.0070377504
-0.017987978 0.042390503 0.021565145 0.01753207 -0.0007192216 0.006408272 -0.022253335 0.011197603
0.018990709 -0.008640382 -0.05608338 -0.051865548 0.05269966 0.010022704 0.043564875 -0.024701105
-0.031131009 0.007103978 -0.018370008 0.046317287 -0.058670186 -0.029516706 0.0258886 0.035049237
-0.0074205007 0.031072063 0.057063974 0.023178652 0.05917341 0.016209936 0.013445025 -0.012287962
-0.0157147 0.039075743 -0.048468456 0.015304116 -0.006148718 -0.050198287 0.051121637 -0.046143923
0.042841233 0.007273974 0.029091058 0.04491626 -0.048604507 -0.027008966 0.011913251 0.023885336
-0.055929154 -0.03443184 0.01748821 -0.044643544 -0.06130217 -0.01817214 -0.028502924 0.002806707
0.05575381 -0.041302644 -0.033205394 0.039276324 -0.045402028 0.03349132 -0.054614875 -0.035443462
0.0125148855 -0.036061686 -0.0013022085 0.021862062 -0.050714407 0.047365673 0.055926632 -0.032558445
-0.047191456 0.0335805 -0.0149567425 0.038837187 -0.009245661 0.03816883 -0.017379228 0.0055905664
0.04544761 -0.05329503 -0.02387411 -0.04583594 -0.017272888 0.0032271377 -0.00457976 0.026510326
-0.006136387 -0.051092256 -0.04353136 0.0068766163 0.04271096 -0.047792267 -0.031045243 -0.014968516
0.014904642 -0.04757877 0.023470504 -0.047403876 0.011888934 0.039399873 -0.049467716 0.03663728
-0.039312802 -0.01886394 -0.04271075 -0.0207579 -0.062188394 0.037808158 0.042033315 -0.015012654
-0.059053443 0.0038462535 -0.06243407 -0.042008467 0.046701036 -0.0121807335 -0.042816084 0.03895431
-0.061721154 0.029127272 0.016116114 -0.037928786 -0.042623535 -0.056015875 -0.010790596 -0.042338226
0.029664138 0.022237903 -0.053360637 -0.03522248 0.046844315 -0.0059640463 -0.008637561 -0.004012084
-0.037222385 0.040778633 -0.046950225 0.060352784 0.05781169 -0.0022028415 0.060534537 0.013759284
-0.039726265 -0.02667664 0.049496986 0.042980403 0.024897376 0.030271249 0.038787626 -0.01816101
0.045446556 0.060981438 -0.04648979 0.0096271215 -0.014089284 0.025879981 -0.04836685 -0.013874795
0.004362515 -0.041336168 0.009403518 0.021903304 -0.010138214 0.0053771054 0.048363708 -0.06232633
-0.024981715 0.041681245 -0.015451762 -0.052029986 0.03244635 0.031813025 0.023379693 -0.048494343
0.059467297 0.034559146 0.05021119 0.015035313 -0.062493984 -0.014125303 0.033020623 0.017255848
-0.011915416 -0.060602095 0.018829688 -0.023346383 0.039252896 -0.03796429 0.060617484 0.02819486
-0.026443517 -0.040854737 0.024106868 0.009334718 -0.036012843 -0.061161485 0.04667545 -0.026852427

branch_p.fc2.bias f4 [128]
00000000: a19f a73c 705d ee3c b679 d2bb d4dd f53c
00000010: 9855 abbc 432f 8a3c 14f9 243d 6535 58bd
00000020: 2611 42bd 3b20 4cbd 9302 2abd 62ce 4c3d
00000030: 7f04 0e3d 77d3 fabc db04 7e3d 2155 1b3d
00000040: 99d5 6fbd d268 3fbd 0947 e3bb ebc1 1d3d
00000050: 2c2f 623d 6e0c 373d bd32 72bd 6c1e 90bc
00000060: 8abf 57bc 4c76 35bd f235 753d 35e7 4f3d
00000070: 8a7a 73bd 0e9d 19bd c5eb c63c 1d8a 073d
00000080: f8ed 85bc aa99 3bbd 1330 703d 967f 213d
00000090: a8fe cd3c 50ea 5d3d a98b a7bb 7b44 fcbc
000000a0: 3df6 dabb d0db 7cbd 552d e6bc dd82 6ebd
000000b0: b7e5 bebc 72e0 a73c 2149 2dbb d0eb 89bc
000000c0: 0d8f 593d 61f6 25bd 1ffe 2d3b cdcb 763c
000000d0: 3e51 0f3d b035 813b eaa7 22bd 4682 dc3b
000000e0: 4b1d 2f3c 3eff 743d a163 21bd b6cc 58bc
000000f0: bb5d 423b b86b cbbc d545 203d b584 48bd
00000100: eb2c a6bc b577 4a3c ead1 b73c 02b9 60bc
00000110: 3078 5c3d 64da 60bd 946b 6b3d 3e45 803c
00000120: 5d8b 893c d381 183d 452c b0bc 2268 ef3c
00000130: 10b5 45bd e0ac 143d 7cea e53c 5600 2ebd
00000140: d4af 2dbc 48a0 08bd 716b 5dbd a0ac 653b
00000150: 9b09 783c fdf7 dabc e6cd 283b 1712 20bd
00000160: ca9f 683d 4482 12bd 7bfc 2e3d a7d3 21bd
00000170: 3254 0f3d 81e0 463c 5f76 3fbd 3a4f 58bc
00000180: d297 833b 9f96 91bc 8608 68bc a7be 213c
00000190: d6e6 893a afa8 6a3d f541 9b3c 0cda 7bbc
000001a0: b3b2 f8bc 5889 b43c af5a 9bbc 2483 ccbc
000001b0: 98a9 173d 4c1d 2bbd fd7e 12bd e7b6 e1bb
000001c0: 16a7 62bd 0c78 4d3d 4ecb 3a3c 5245 5e3d
000001d0: b41c 79bd 5238 1b3d 9dd6 533d b664 67bd
000001e0: 6076 85bc 91c1 63bd 7c9a 85bc 51fd 783d
000001f0: 7afd 50bd d44e f9bc 5bfa 1ebd 1a97 5dbd
0.02046186 0.029097289 -0.0064232005 0.030013002 -0.020914838 0.01686824 0.040276602 -0.052785296
-0.047379635 -0.049835425 -0.04150636 0.05000151 0.034672257 -0.030618412 0.06201635 0.037922982
-0.058553312 -0.046730824 -0.0069359583 0.038515013 0.055220768 0.04468959 -0.05913042 -0.017592631
-0.013168225 -0.04430227 0.0598659 0.050757606 -0.059443034 -0.037503295 0.024282346 0.0330907
-0.016348824 -0.045800842 0.058639597 0.039428316 0.025145844 0.054178536 -0.0051130843 -0.030794373
-0.006682186 -0.061733067 -0.028097788 -0.05823027 -0.023302896 0.020492766 -0.0026441293 -0.016836077
0.05311494 -0.04051817 0.0026549173 0.015063238 0.034989588 0.0039431676 -0.039710917 0.006729397
0.010688136 0.05981373 -0.039401654 -0.013232401 0.0029657918 -0.024831638 0.039129097 -0.048954684
-0.02028509 0.012357642 0.022438962 -0.013715984 0.053825557 -0.054895774 0.05747564 0.015658017
0.016790086 0.037233185 -0.021505484 0.02922446 -0.048268378 0.03629768 0.028065912 -0.04248079
-0.010601003 -0.03335598 -0.054057542 0.003504552 0.015139009 -0.026729578 0.002575749 -0.03907975
0.05679301 -0.035768762 0.042721253 -0.039508488 0.034992404 0.012138487 -0.046743747 -0.013202483
0.004015901 -0.017772017 -0.014162188 0.009872115 0.0010521065 0.057289775 0.01895235 -0.015371811
-0.030358648 0.022038147 -0.01896414 -0.024964876 0.03702697 -0.041775987 -0.035765637 -0.0068882587
-0.055335127 0.050163314 0.011401011 0.054265328 -0.06081839 0.037895508 0.051718343 -0.05649253
-0.016291797 -0.05560452 -0.016309015 0.060788456 -0.051022984 -0.030433096 -0.038812976 -0.05409918
