d2calcbot/main/calc_bot/actual_models/dota_model_ver0_6.pth (torch, 8366 bytes, 15 tensors)

branch_t.fc1.weight f4 [5, 9]
000000 54 54 89 bd 0e d3 85 be f3 37 3e be 80 12 87 bd
       -0.067055374 -0.26137584 -0.1857603 -0.065953255
000010 9f 6b 8b 3e 56 ee 79 3e 90 ab 91 bd 5c 38 8f be
       0.27230546 0.24407324 -0.07112801 -0.27972686
000020 db c3 62 be c4 1b 5d 3e 80 c5 75 be 9b ee 09 3e
       -0.22145025 0.21592623 -0.24001122 0.13469927
000030 fb 85 30 3e 86 c1 56 be 70 e9 7e 3e 40 d2 9a be
       0.1723861 -0.20972261 0.24893737 -0.30238533
000040 32 28 1d 3e 79 79 74 3e f8 e1 47 3e 2e cf bf 3d
       0.15347365 0.23874463 0.19519794 0.09365688
000050 30 0a 91 bd 98 ff 23 3d d7 5b aa 3e 14 75 8d be
       -0.07082021 0.040038675 0.33273193 -0.27628386
000060 77 e6 6e 3e 58 57 33 3d 31 11 55 3d 88 dc 26 3e
       0.23330103 0.04378447 0.052018348 0.16295063
000070 9c a3 95 bd bd 44 10 3e b8 68 35 be 64 16 ab be
       -0.07306597 0.14088722 -0.17715728 -0.3341552
000080 74 d6 4f 3d 02 6a 25 be 61 2b 49 be 6c 65 f3 3d
       0.050741628 -0.1615372 -0.19645454 0.11884579
000090 46 9b d7 bd 56 17 f0 bd 88 48 3a be c0 66 1f be
       -0.10527663 -0.11723201 -0.18191731 -0.1556654
0000a0 c0 2b 82 be 9e 9d 7e 3e 8d e9 9e 3e e3 01 8b 3e
       -0.25424004 0.24864814 0.3103756 0.27149877
0000b0 9e 7f 3f be
       -0.18701026

branch_t.fc1.bias f4 [5]
000000 32 b4 a1 be 3c 94 02 bd 08 80 55 3c 47 9a 4a be
       -0.3158279 -0.03187965 0.013031013 -0.19785415
000010 06 c8 7b be
       -0.24588022

branch_p.fc1.weight f4 [5, 9]
000000 91 67 2c be 2c e0 00 bd 0e 4f 98 be 83 ab 56 be
       -0.16836382 -0.031463787 -0.29747814 -0.20963864
000010 40 73 96 3e 0a 4e b4 3c 14 d8 97 3e 60 91 b9 bc
       0.29384804 0.022009868 0.29657042 -0.022652328
000020 03 ca 1e 3e ef 1b 9f 3e 88 4e 61 bd 16 21 6c 3e
       0.15506749 0.31076 -0.055006534 0.23059496
000030 d1 1b 9d 3d ec 99 7a 3d f3 94 6f bd 9e 40 3c 3e
       0.07671321 0.061181948 -0.05849166 0.18384025
000040 b7 be 93 3e 6c ac cd bb a8 8f 26 be 9c 83 a4 bd
       0.2885644 -0.006276658 -0.16265738 -0.08032915
000050 10 b1 fd bd e2 4a 2e 3e 6c 81 a6 bd e0 b5 9c be
       -0.123872876 0.17020753 -0.08130154 -0.3060751
000060 3d e5 a3 3e c0 a4 be bd 68 21 40 3d 8c 27 96 3d
       0.32010832 -0.09308767 0.04690686 0.07331762
000070 a0 ff 0d bc 30 c8 a2 bd a8 8d 54 bd 7b 9b 00 be
       -0.008666903 -0.07948339 -0.051892906 -0.12559311
000080 20 81 1d be 5c 76 d7 3d 95 42 86 3e 6d 48 9a 3e
       -0.15381289 0.10520622 0.26222673 0.3013338
000090 10 05 26 3e 19 14 95 3e 35 86 3b be 56 d7 66 bc
       0.16212869 0.29116896 -0.18312915 -0.014089426
0000a0 8d 62 1c 3e ba 69 9a 3e c7 05 8d be 05 b0 9d be
       0.15271969 0.30158788 -0.2754347 -0.30798355
0000b0 c2 47 f7 3d
       0.120742336

branch_p.fc1.bias f4 [5]
000000 a6 60 25 3e 73 0b 05 be c4 5b a3 be 0f 9c a5 be
       0.1615015 -0.12992649 -0.3190595 -0.32345626
000010 e6 99 3b 3e
       0.18320426

branch_h.fc1.weight f4 [5, 9]
000000 18 4b 73 3d 14 33 a8 be f6 d3 4c be 88 0e 28 bd
       0.059397787 -0.3285147 -0.20002732 -0.041029483
000010 88 72 01 3d b3 6b 32 be b2 34 64 3e 50 fc 95 be
       0.031603366 -0.17423896 0.22285727 -0.29294062
000020 38 7d 20 3e 00 42 44 be 8e 5c 42 be f0 2c 25 be
       0.15672767 -0.19165802 -0.1898062 -0.16130424
000030 c2 58 54 3e f5 ce 94 3e 2c fe 85 bd 18 32 9b be
       0.20736983 0.29064146 -0.0654262 -0.30311656
000040 40 6d 86 3c 10 24 8f 3d 05 7b 30 3e 38 a7 4c be
       0.016409516 0.069893 0.17234428 -0.19985664
000050 1b 70 6a be 57 e8 2a 3d e5 ed 37 3e b0 92 26 3e
       -0.22894327 0.041725483 0.17961843 0.16266894
000060 7d f0 87 3e 96 1d 21 be 71 eb ab 3b cc ce 08 3e
       0.26550665 -0.15733942 0.0052465727 0.13360137
000070 0f 78 30 3e f8 f8 81 be 26 51 aa 3d 24 4f 33 be
       0.17233299 -0.2538526 0.08316259 -0.17510659
000080 7a d5 9d bd 26 ba fd 3c f1 eb 9d 3e a2 fb 4e 3e
       -0.07706733 0.030972552 0.30844072 0.20213178
000090 13 cd 18 be a8 ef 52 bd 20 1c 85 bd a4 ab a9 3d
       -0.1492198 -0.051498085 -0.06499505 0.08284691
0000a0 e8 18 1c be 00 81 5f 3c ac e1 a5 bd a4 39 f3 3d
       -0.15243876 0.013641596 -0.08099684 0.118762285
0000b0 4f f1 96 be
       -0.2948098

branch_h.fc1.bias f4 [5]
000000 b4 4e 9f bd cc 1a 9d be 69 bc a0 3e 27 5a 7b be
       -0.07778683 -0.30684507 0.31393746 -0.24546109
000010 00 7c bb 3c
       0.022886276

self_attention_players.query_projection.weight f4 [10, 10]
000000 10 2c 72 3e 16 e4 8d be 70 84 cc bc ca 0a 43 3e
       0.23649621 -0.27713078 -0.024965495 0.19047084
000010 b4 ba 03 be 87 b9 8f be d4 43 92 bd e4 c6 1e be
       -0.1286419 -0.28071234 -0.071418434 -0.15505558
000020 c6 77 30 3e 82 e6 80 3e 14 68 d2 3d 25 2f 16 be
       0.1723319 0.25175864 0.102737576 -0.14666422
000030 98 fd 97 3d 68 b4 8d bd 96 05 c7 3b 6e 62 9b 3e
       0.07421416 -0.069191754 0.006073664 0.30348533
000040 7f bd 9d 3e 5f 7c 8e 3e 60 df 2f 3e 55 43 7a be
       0.30808637 0.27829263 0.17175055 -0.24439748
000050 04 2c a0 3e 6c 94 ca bd 37 3e 07 be 77 36 91 be
       0.3128358 -0.098915905 -0.13207327 -0.28361866
000060 b1 4e 5a 3d 2c 16 58 be 1f a4 cc bc 80 85 f5 bc
       0.053297702 -0.21102208 -0.024980603 -0.029970884
000070 5d d8 82 3e 95 6e 11 3d 4c ee 8f be 78 ab ec bd
       0.25555697 0.03550585 -0.28111494 -0.115561426
000080 a8 20 81 be 7d 15 82 3e a5 77 2a 3d 9f b7 c1 bd
       -0.25220227 0.2540702 0.04161801 -0.09458851
000090 2d c0 0d be d7 8a 95 be 99 e8 94 3e 54 32 cf bd
       -0.1384284 -0.2920749 0.29083708 -0.10117021
0000a0 11 92 fd 3d 40 5a 63 be 66 ff 91 be a9 3a 97 be
       0.123813756 -0.22202396 -0.28515166 -0.29536942
0000b0 96 4f a4 3d bf 4f 7b be e4 15 90 3e 54 96 a4 bd
       0.08022992 -0.2454214 0.281417 -0.08036485
0000c0 0f b9 2d be c2 15 92 be 16 e3 7b 3e 79 d0 a3 bc
       -0.16965126 -0.28532225 0.24598345 -0.019996868
0000d0 81 54 19 be 36 df 55 be b6 3d 6a 3c 17 fe 17 3e
       -0.14973642 -0.2088593 0.01429694 0.14843021
0000e0 04 ed 79 3d 24 3d 04 be 80 01 54 be 3a f7 84 3e
       0.06101705 -0.12913948 -0.20703697 0.2596987
0000f0 38 97 80 3e 77 f8 78 be bc 5d 9f 3d c4 ff b9 3d
       0.2511537 -0.24313532 0.0778155 0.090819865
000100 17 f3 6d be ee 03 d1 bd a8 a7 96 be a2 e1 69 3e
       -0.23237263 -0.10205828 -0.29424787 0.22839978
000110 a3 14 50 be 32 10 53 3e a5 1b 87 be 54 50 93 3b
       -0.20320372 0.20611647 -0.2638828 0.00449566
000120 82 0b 8a be 08 e2 3b 3d cb 21 7a bd 86 f3 9a 3e
       -0.26961905 0.045869857 -0.061067384 0.3026392
000130 22 05 ec 3c a6 a0 c9 bd 3f a7 a1 be ab b8 73 be
       0.028811041 -0.098450944 -0.3157291 -0.23800914
000140 cb 6d 8e 3e 43 19 8d be de 67 a8 bd 92 38 10 3e
       0.2781814 -0.27558336 -0.08222936 0.1408408
000150 b2 5b 28 be 36 4b 74 bd 32 25 f3 3c a0 f8 af bd
       -0.16441229 -0.05964204 0.029680822 -0.08592343
000160 34 6b c7 3d c3 e9 70 3e 67 68 d2 3d 52 e8 82 3e
       0.09737244 0.23526673 0.102738194 0.2556787
000170 0e 63 15 be e8 b4 6f be 13 86 dd 3d 09 1d 0e be
       -0.14588568 -0.23408854 0.10816588 -0.13878264
000180 0f 67 54 3d 68 66 18 3d 86 f4 e4 bd b9 a6 74 be
       0.051856097 0.037207037 -0.11179452 -0.23891725

self_attention_players.query_projection.bias f4 [10]
000000 fe a1 8c be 21 50 74 be 05 5e 83 be 2b 67 3f 3d
       -0.2746734 -0.23858692 -0.2565767 0.046729248
000010 cd 89 87 bd 82 65 44 be b2 36 d4 b8 9c 51 15 3e
       -0.0661808 -0.19179347 -0.000101191355 0.14581913
000020 17 56 0e 3e bc e7 96 be
       0.13900028 -0.29473674

self_attention_players.key_projection.weight f4 [10, 10]
000000 39 7e 5e be 02 55 28 3c 6b a3 5c be 58 76 36 3d
       -0.21727838 0.010274174 -0.21546714 0.044546455
000010 79 9d 4c be 63 05 4e bd b7 87 07 bb a8 08 4a 3d
       -0.19981946 -0.050298106 -0.0020680258 0.04932466
000020 a8 a6 3c bd a5 0d b8 bd b1 33 70 3e 4f db 89 be
       -0.046057373 -0.089869775 0.23457219 -0.26925132
000030 4d 23 84 3e ca 8e 93 bd 28 40 6a be 52 8d 88 3e
       0.25808182 -0.07204969 -0.22876036 0.2667032
000040 1c d2 d6 bb d1 34 57 be 70 16 dc bc 0f 9a bd bd
       -0.0065558087 -0.21016242 -0.026866168 -0.092579
000050 03 71 57 be 3c a8 50 be 55 8a 48 be 02 68 70 be
       -0.21039204 -0.20376676 -0.1958402 -0.23477176
000060 0c 5a 8a be 9a 4c a3 be 77 3f 9a 3e c0 ce 4d bd
       -0.27021825 -0.3189438 0.30126545 -0.050246
000070 f0 0a 75 3d c2 90 b9 bd 11 61 b6 3c 44 25 c4 3c
       0.059824884 -0.090608135 0.022263082 0.02394355
000080 48 57 13 3d c4 e4 82 bd cd 70 68 3e c8 b4 90 3e
       0.03597191 -0.0639129 0.2269928 0.28262925
000090 fe 1d 0f be de 8f 74 3e b6 cb 0c 3e 67 52 00 bc
       -0.13976285 0.23883006 0.13749585 -0.007832146
0000a0 04 5d 06 be fb c0 5a be 30 33 da bd 98 87 4d bd
       -0.1312142 -0.21362679 -0.106542945 -0.05017814
0000b0 56 06 49 3d e4 62 43 be 98 c7 29 3d a1 d3 9e 3e
       0.049078308 -0.19080693 0.041450113 0.31020835
0000c0 4b ab 92 be 17 e3 7f be 0d 44 f1 ba 43 0a 1b 3e
       -0.2864631 -0.24988972 -0.0018407122 0.15140633
0000d0 e4 21 ad bd c4 27 1e be 2d 7b 4e be 13 61 93 bd
       -0.0845373 -0.15444857 -0.20164175 -0.0719625
0000e0 ff 78 9b bd 26 4a 6c 3e a0 c5 7d 3d e7 60 cd bd
       -0.075914375 0.2307516 0.061956048 -0.10028248
0000f0 dc 0a 80 3e 8d f6 6c be b4 0b 33 be fc 9f f8 3d
       0.25008285 -0.23140927 -0.17484933 0.121398896
000100 1e 65 92 be c1 80 56 be 69 ee 86 be 1e ec 3c 3e
       -0.2859277 -0.20947553 -0.26353768 0.18449447
000110 b8 7c 7c 3d 5c 93 21 3e 73 ff 83 3d d3 aa 41 be
       0.06164238 0.1577887 0.064452074 -0.1891282
000120 d3 e6 39 be 5c 71 7b be f9 11 73 3e 00 58 9e be
       -0.18154459 -0.24554962 0.23737325 -0.30926514
000130 85 c0 c4 bd de fc 01 3e 42 d2 8c be 96 21 30 3e
       -0.09607033 0.12694117 -0.27504164 0.17200312
000140 d0 c7 63 3e b7 80 1c bd fa fc d7 bd a0 0c ce 3d
       0.22244191 -0.03820869 -0.10546298 0.10061002
000150 16 20 86 3e d9 94 e2 3d 2d cf 72 3e 7c 03 e8 3d
       0.26196355 0.11063547 0.23711844 0.113287896
000160 10 b1 4a 3d 43 c1 8e bd 93 5f 53 3d cc 92 29 3e
       0.049485266 -0.069704555 0.05160482 0.16559905
000170 7c ea 33 3e 0c 58 8f be e8 22 54 be f2 58 5e 3e
       0.17569917 -0.27996862 -0.2071644 0.21713617
000180 5b a2 fb bd 20 03 7a bc e7 b7 82 be 9b 41 78 3e
       -0.12286826 -0.015259534 -0.2553093 0.24243777

self_attention_players.key_projection.bias f4 [10]
000000 c2 20 3f 3e c1 75 48 3d c4 cb e8 bd db 05 28 be
       0.1866484 0.048940424 -0.1136699 -0.16408484
000010 ba 75 03 bd 5e e4 e2 3d 77 12 2e bd 2d aa 49 bd
       -0.032094695 0.11078714 -0.04249808 -0.049234558
000020 c3 02 3c 3d 2b 09 85 3e
       0.04590107 0.25983557

self_attention_players.value_projection.weight f4 [10, 10]
000000 44 b3 85 3e 58 9a 18 be 67 9b 15 be 16 1c 4e 3e
       0.2611333 -0.14902627 -0.14610063 0.20127901
000010 56 82 7a 3e a3 54 3c be b2 2e 1d be 58 f5 20 3d
       0.24463782 -0.18391661 -0.15349844 0.039296478
000020 7a 17 a0 bd 8b bb 82 be 22 e4 8a 3d e6 39 fa 3d
       -0.07816978 -0.2553371 0.06781794 0.122180745
000030 61 ec 1a be 18 5b 4d 3d 1c 6a 35 3d 61 d5 7d be
       -0.15129234 0.050135702 0.044290647 -0.24788429
000040 f7 0f 08 3e 1b 56 87 be 30 37 f9 3c 07 b8 70 3e
       0.1328734 -0.2643288 0.030421823 0.23507701
000050 f4 4f bf be e3 33 52 3c 70 df 7b bd dd e5 8c 3e
       -0.37365687 0.012829754 -0.061492383 0.27519122
000060 01 1b 53 3c b4 37 3c be 13 10 ac bb 0a 64 46 3e
       0.012884856 -0.18380624 -0.0052509396 0.193741
000070 10 52 e8 3d 27 10 97 be 26 f6 a6 3e bb 26 6c 3e
       0.11343777 -0.2950451 0.3260967 0.2306165
000080 de 68 65 3e 7c 7a 64 be 29 1f 2a be c5 5a 86 be
       0.22403285 -0.22312349 -0.16613449 -0.26241127
000090 0e eb 29 3c e8 1c 93 bd ae 2f 53 3e 76 a3 9c 3e
       0.010370983 -0.07183248 0.20623657 0.3059346
0000a0 8c d4 35 be e0 ae 61 be 30 d1 13 3d 9d 22 10 be
       -0.17756861 -0.22039366 0.03608817 -0.14075704
0000b0 21 4c 3f bd 0d 5f 48 3b e4 58 8f 3e 10 73 9e bc
       -0.04670346 0.0030574233 0.27997506 -0.019341975
0000c0 cf 2d 0d be cb 3e a5 3d 02 2c a4 3e 5f 8a 17 3d
       -0.13787006 0.080686174 0.32064825 0.036997195
0000d0 45 e3 8a be 28 74 38 3d ef fd 21 3e 85 11 b2 3d
       -0.27126518 0.04503265 0.15819524 0.08694748
0000e0 c3 15 6b be 1c 6a ab 3d 88 77 28 3e 4e 93 35 3e
       -0.2295752 0.08369848 0.16451848 0.17731974
0000f0 f9 08 69 3e 0b 25 d3 bd d5 c9 95 be c4 4b d3 bd
       0.22757329 -0.103098 -0.29255548 -0.103171855
000100 29 40 64 be 34 e3 11 be 73 86 77 3c c7 ab 97 be
       -0.222901 -0.14246827 0.015107739 -0.29623243
000110 30 04 bf 3c 8e 05 88 3e 03 01 84 3d 95 79 24 be
       0.023317426 0.26566738 0.064455055 -0.16062005
000120 f8 1a 16 3e 80 1f 7a be 2a 6b 41 be 93 b1 60 3e
       0.14658725 -0.24426079 -0.18888536 0.21942739
000130 3d 2a 04 be e0 dd c0 3c aa f7 29 be 6c c1 30 3e
       -0.12906738 0.023543298 -0.16598383 0.17261285
000140 26 5b f7 3c ec 2e 30 bd 6f a5 8d be ae 55 71 3e
       0.03019483 -0.0430135 -0.27665278 0.2356784
000150 12 ba f5 3c 2e be a6 bd 86 4a 6a be 3a 73 14 3e
       0.029995952 -0.08141743 -0.22879991 0.1449708
000160 ea 15 7b 3e 27 ef a8 3d 72 89 4a 3e 96 0e 10 be
       0.24520078 0.0824874 0.19778994 -0.14068064
000170 f2 6f 7a 3e ba e7 46 be e1 fe 03 be 40 70 ad be
       0.24456766 -0.19424334 -0.12890197 -0.33874702
000180 e5 5a a7 3e f6 d0 a6 bd 80 80 55 be 83 23 63 bd
       0.32686535 -0.08145325 -0.208498 -0.05545379

self_attention_players.value_projection.bias f4 [10]
000000 3a ec c9 bd 6b 03 93 3e b2 cb 8b 3e 59 e8 67 3d
       -0.0985951 0.28713545 0.27303845 0.05661807
000010 46 5a a6 3c 51 c8 3b be d3 1f 5b be d1 06 6b be
       0.020306718 -0.18338133 -0.21398859 -0.22951819
000020 cd 74 1b be d5 5c 41 3e
       -0.15181275 0.18883069

self_attention_players.output_projection.weight f4 [10, 10]
000000 ce a5 40 bd 55 e9 5d 3d 6c 70 9c 3d a4 5e 60 3e
       -0.047033124 0.0541776 0.0763863 0.21911103
000010 75 7f 30 be 19 dd 30 3e a4 44 47 be 13 15 7e be
       -0.17236121 0.17271842 -0.19459778 -0.24812727
000020 09 04 94 3e 0b ce 4e be ce 63 88 bd dd 3b 5c be
       0.2890933 -0.20195787 -0.06659661 -0.21507211
000030 84 97 0d 3e 87 e9 51 bd a3 5d 31 be 15 71 1a 3e
       0.1382733 -0.0512481 -0.17320876 0.150822
000040 03 57 72 be 37 f8 53 bd d4 f2 34 bd 42 d8 2b be
       -0.23666005 -0.051750388 -0.04417689 -0.16781715
000050 22 59 65 be 51 17 bd 3d 12 2e 8b 3e 12 2c 88 3e
       -0.22397283 0.09232963 0.27183586 0.26596123
000060 9d a6 80 be d9 9f 7e be 40 d8 61 3e ab 84 25 3e
       -0.25127116 -0.24865665 0.22055149 0.1616389
000070 48 76 33 be fc 44 4a 3e 80 aa 5a be 82 57 52 be
       -0.1752559 0.19752878 -0.21354103 -0.20541194
000080 4f 29 ee 3d 44 69 72 bd b6 1e 74 3e 9c 50 72 bd
       0.11628973 -0.05918242 0.2383984 -0.059158906
000090 57 70 a1 3d 6e a5 8e 3e e5 70 1a be 9e 44 1c 3d
       0.07882755 0.27860588 -0.15082128 0.038151376
0000a0 ba 6e 85 3e 52 9c 76 3e e4 40 a9 3d 94 60 44 be
       0.2606104 0.24083069 0.0826433 -0.19177467
0000b0 87 4c 0c 3e 81 c8 8e be ed ab 1e 3e cc c1 f2 3c
       0.13701068 -0.27887347 0.15495272 0.029633425
0000c0 35 84 67 be f5 40 35 3d 82 f1 69 be 4e 65 4d 3d
       -0.22609027 0.0442514 -0.22846034 0.05014544
0000d0 e4 a2 52 bc d7 b6 c2 bd 69 88 ab bc 0e 9a 68 3d
       -0.012856219 -0.0950753 -0.020939069 0.056787543
0000e0 d4 52 ad 3d ac c9 95 3e bd 1d ea 3d ec 13 2b be
       0.08463064 0.29255426 0.114314534 -0.16706818
0000f0 37 7f aa bb 73 ed e7 bb 50 12 47 3e ae e6 98 be
       -0.0052031535 -0.0070778667 0.1944058 -0.29863495
000100 1f be 8c be a5 76 3e bd 2b 20 a0 be 74 8b 30 3d
       -0.274888 -0.046499867 -0.31274542 0.043101743
000110 ab e7 5d bb e8 1f 76 3e 08 cd 73 bc f0 d8 3f 3e
       -0.0033860009 0.24035609 -0.014880426 0.18735099
000120 ac d1 3a be 47 81 b4 3d 71 26 31 be 67 f8 b7 bd
       -0.18244046 0.0881372 -0.1729982 -0.08982926
000130 84 65 87 3e 95 65 43 3e fc 2e 8d 3e 6e 5a ad bd
       0.26444638 0.19081719 0.2757491 -0.08464514
000140 93 91 9d be 1d 5f c3 3d 11 82 1f bc f6 f4 47 be
       -0.30775127 0.09539626 -0.0097356 -0.19527039
000150 c9 ea bf bc 1c b6 e6 3d 33 19 6b 3e 65 1f 82 be
       -0.023427384 0.11265203 0.22958831 -0.25414577
000160 0c 21 6e be d1 f3 97 3e 87 75 ec bc 30 7a 2f be
       -0.23254794 0.29678205 -0.028864635 -0.17136455
000170 4f d9 28 3d da 2f 73 be 02 8c ae bb e7 22 04 3d
       0.041222867 -0.23748723 -0.005326749 0.032259848
000180 a7 61 03 3e 5e 7a 0b bd 53 54 a1 be 32 f5 13 be
       0.1283022 -0.034052245 -0.31509647 -0.14449003

self_attention_players.output_projection.bias f4 [10]
000000 6e a2 98 bd 5b 6a 2c be 89 2f 41 3e 51 3e 17 3e
       -0.07452856 -0.16837446 0.1886579 0.14769866
000010 09 f1 c2 3b ec bf 93 bd 72 44 0b 3e 7b e2 85 be
       0.005949144 -0.072143406 0.13600329 -0.26149353
000020 49 ca 29 3e b2 b8 7e be
       0.16581072 -0.24875143

fc.weight f4 [1, 70]
000000 15 d1 6f bd 7e e0 85 b9 e0 bb 4e bc fc 3c a8 bb
       -0.058549006 -0.00025534997 -0.012618035 -0.005134223
000010 1c 36 d1 3c 6c 71 e9 3c 28 78 57 bd fe e5 2d 3d
       0.025538497 0.028496467 -0.052604824 0.042455666
000020 39 14 c0 3d 64 4f 23 bd b0 5f bd bc d7 4a 34 3d
       0.09378857 -0.039870635 -0.023116916 0.044016685
000030 62 8f 0a bd f7 27 74 3d d3 c5 e0 3d 19 b5 36 3a
       -0.033828147 0.059608426 0.10975232 0.00069697347
000040 96 2e b0 3d c2 e7 bb 3d 3d 72 b2 3d f0 49 8e 3d
       0.086026356 0.09175064 0.087131955 0.06947696
000050 96 df 35 3d 1a 9e 59 bd 67 1b bb bc fe eb a5 bc
       0.04440268 -0.053129293 -0.022840215 -0.020254131
000060 3e b3 34 3d 9e 43 21 3d 92 e1 29 bd bb 74 27 bd
       0.04411625 0.039371125 -0.041474886 -0.040882807
000070 0c 4e 96 3d fd 4f 89 bd 96 96 46 bd 44 20 b0 bd
       0.07339105 -0.0670471 -0.048483454 -0.08599904
000080 cb ca 12 3d 9e 99 1a bd c8 f5 75 bc 0d 86 b4 3d
       0.03583793 -0.037744157 -0.015012212 0.08814631
000090 d0 9a f2 bd d5 93 f0 3c 7b de 49 bd 60 e3 98 bc
       -0.118459344 0.029367367 -0.04928444 -0.018663108
0000a0 bf eb b5 3d 0e b4 dc bd 35 47 50 3c 21 89 a5 3a
       0.088828556 -0.1077653 0.01271229 0.0012629369
0000b0 a0 f5 cf bb 58 5c 06 bc 8e ef 5f 3d fb 89 35 bd
       -0.0063464195 -0.008200727 0.054671817 -0.04432104
0000c0 d4 f6 78 3d 75 69 b9 3d fa 7a 41 bd 2e 25 52 3d
       0.06078227 0.090533175 -0.04723642 0.05130499
0000d0 1f ad 9d bd b6 6f b5 3d 05 c8 b5 3d 47 2e 92 3d
       -0.07699036 0.08859198 0.08876041 0.07137733
0000e0 7b 6f a8 3d c9 43 d8 3b 09 a8 87 3d 38 b0 46 bc
       0.08224388 0.0065998775 0.06623847 -0.012126975
0000f0 d8 2b b2 bd c0 b8 1e bc 63 f0 cf 3d 9a 9b df bd
       -0.08699769 -0.0096876025 0.10153272 -0.109183505
000100 f8 ae 15 3c 3c 53 9d 3c 71 d3 84 3d 3e 5b 3f bd
       0.009135954 0.019204728 0.06485642 -0.046717875
000110 61 4c b0 3d a9 bc cb 3d
       0.08608318 0.099480934
