d2calcbot/main/calc_bot/actual_models/dota_model_ver00.pth (torch, 247970 bytes, 27 tensors)

branch_t.fc1.weight f4 [30, 10]
00000000: 996b 0ebe f33c 173e 6e82 02be 7cfa 873e
00000010: 4437 92be 090c 1ebd aa89 9ebe 657e c33d
00000020: ed68 cf3d 0aba abbd d8e0 b4bd cdf4 4cbe
00000030: 8fc0 853d ef56 763e 086c a4bd 7c97 fb3d
00000040: 9738 97be 309d 59bd 2c79 043d 3ebb 58be
00000050: f83e 63be 7b24 1cbe 07d7 d8bd 3b93 833e
00000060: 2f9d 863d 65fa 82be 9897 9bbe 3cc9 c1bd
00000070: 5e25 97be 24e9 8c3d b9fd c53d 600d bd3d
00000080: 1e17 18be 3d03 d33c 0e7d 2b3c 3bd5 553d
00000090: af80 9d3e 4ec9 033e 0104 043c 7cac 9fbd
000000a0: 855b 813e 9644 9d3d 44ae 8bbe 8529 9f3e
000000b0: 736c 57be cafd 22bc 0df8 b73d 7075 9e3e
000000c0: 168d 5dbe afcc 893e 8267 81be fc97 783e
000000d0: 6c9d 133e a17b 63bc 5cb0 ed3d 5fe2 073e
000000e0: 4079 f3bd 611d a83b e26b 423e 94e0 7a3e
000000f0: 4562 9abe 914d 053c 58fe 91be c992 8fbe
00000100: 8c56 023e 8675 093e 921f 323d 7097 033c
00000110: 0b9c 443e 60a9 e93d e904 523c 41d7 d3bd
00000120: 5a07 8b3e 00b5 e83d 06ab 613e 5443 4d3d
00000130: 9864 f33d a369 f83c e179 c83d 546b 8fbe
00000140: 4efa 1fbe 8e3b 6bbd ea35 62bd 560a 5c3d
00000150: f45a 6e3d 8b49 87be d441 8e3c e1c8 b0bd
00000160: dc2a 5c3d 37ea 79be 1787 193e e6c6 85be
00000170: e936 81be 0702 813c 6761 34be 5e4e 0c3e
00000180: 9144 c7bd 7baf 0ebe 19d6 773d a938 8e3e
00000190: 73e6 3fbe bc69 1abe e5ab 153e 0e0d a7bd
000001a0: 1674 cf3d 881c 7dbe d8fb 9c3c 1b08 743e
000001b0: ddbd 273e 8b1e e8bd 269c cdbd f5f6 5fbe
000001c0: d8ff f63c a00a 443e b50b 6dbe a93d 9c3e
000001d0: 9886 5d3e 5d0c 5bbd dfe9 9c3d 792f 983e
000001e0: f72b 613e ac54 83be 5700 62ba 68fa 5bbe
000001f0: a723 3b3e 5283 003d 00c6 96be ee2e ee3d
00000200: 521c 183e 1e67 84be 0ef0 093d 829a 4d3e
00000210: 65e0 793e 6c0a 87be 7a74 0a3d a9ef 303c
00000220: bd59 b2bd 9c52 8bbe 76aa f4bd a2e8 653e
00000230: fcaf 33be 54b0 66be b720 1e3d b1cd 8e3e
00000240: 67b5 d2bb 480c 6d3d 96b1 363e f121 113e
00000250: 5c01 2bbe 6c11 80be f39a d5bd cb5d 5b3e
00000260: 5cc6 ddbd d117 9e3e 15ac 8d3e 8f61 0bbe
00000270: fe0d 373e f9db 43be 2dbe acbd 0469 c43d
00000280: b060 67be 085e 083e 5196 84be 0ade 8a3e
00000290: c76c 343e 665e a03b 2310 de3b f0f9 143d
000002a0: b906 f4bd 3d6b b33c c3ca 0dbe 3228 943e
000002b0: 62c5 2abe 2be7 dbbd 4b49 85be 09f9 403e
000002c0: 0917 83be 173f 063e bb55 f63d a668 ff3a
000002d0: 57d2 80be c00c 0cbe 846e 5b3e 63d4 883e
000002e0: b71e b63d 9fa6 cdbc 62a5 613e 2543 5bbc
000002f0: c19d d6bd 9f8c 183d d81d c23d b12c 9e3e
00000300: 0f22 113e 1ed6 8abc 8dc7 413d ba21 80bc
00000310: a9ad 03be 0227 953e 855a c9bc f15e 853e
00000320: 0b29 db3d 25f0 5dbe eb67 963e d680 a03e
00000330: 4be2 57bc 55af b7bd 288e 0cbe 18af 16bd
00000340: a116 2ebe a1c5 053e 80f6 9fbc 957b 013c
00000350: 6f21 b8bd 070a 8e3e 46c3 93be 52c0 0ebe
00000360: a372 94be d2d7 3abe 8f84 523e ce40 66be
00000370: dfdb dc3d 423e c53d 08a3 93b8 3f5a 1b3d
00000380: ab6d 9fbe 1a51 2e3e ef36 7ebd 81cc 90bd
00000390: 4381 383d 4b13 87be a426 6cbd 5561 9dbd
000003a0: c14e 7fbe d7cf cf3d 3d0a 5d3e a1ad 173e
000003b0: a0d6 c53d 6eaa b83d e070 98bd 11b2 6abe
000003c0: 7a38 1f3e f539 25bd 545c 1ebe 7b6a 8fbe
000003d0: 00de 61be 89df 59be beb2 553e a90e 063d
000003e0: 9b5c 343d 3a2b 3bbe af1d 34be a784 3d3e
000003f0: d4b2 89bd ea31 c03d af79 36be abf6 85be
-0.13908233 0.14769344 -0.12745067 0.26558292 -0.2855779 -0.038585696 -0.30964404 0.09545592
0.10127435 -0.083850935 -0.08831948 -0.20015259 0.06530868 0.240566 -0.08028418 0.12284753
-0.29535362 -0.05312842 0.03234212 -0.21165177 -0.2219199 -0.15248291 -0.10587888 0.25698265
0.06572949 -0.2558166 -0.30389094 -0.094622105 -0.29520696 0.068804055 0.096675344 0.09231067
-0.14852569 0.02575838 0.010466827 0.052205306 0.3076224 0.1286976 0.008057595 -0.07796571
0.25265136 0.07679097 -0.27281392 0.31086364 -0.21037464 -0.009948203 0.08982859 0.30948973
-0.21635851 0.26913974 -0.25274283 0.24276727 0.1441552 -0.013884456 0.116059035 0.13269947
-0.11888361 0.0051304554 0.18986467 0.24499732 -0.301531 0.008136169 -0.2851436 -0.28041676
0.12728328 0.13423738 0.04348714 0.008031711 0.1920015 0.11409259 0.0128185535 -0.10343791
0.27154046 0.11362648 0.22037897 0.050113037 0.11884421 0.030323809 0.097888716 -0.28011572
-0.15622827 -0.057429843 -0.055227198 0.053720795 0.05819221 -0.26423296 0.017365374 -0.086320646
0.05375181 -0.24405752 0.14992939 -0.2612831 -0.25237206 0.015748037 -0.17615281 0.1370177
-0.09729875 -0.13934128 0.060506914 0.27777603 -0.18740253 -0.15079397 0.14616354 -0.08156787
0.101295635 -0.24717915 0.019163057 0.23831217 0.16381021 -0.113339506 -0.100395486 -0.2187155
0.030151293 0.19144678 -0.23148997 0.30515793 0.21633375 -0.053478587 0.07661795 0.2972372
0.21989428 -0.25650537 -0.00086212665 -0.21482241 0.18275319 0.031375237 -0.29447937 0.11630045
0.14854553 -0.25859922 0.0336762 0.20078471 0.24402006 -0.2637514 0.033802487 0.010799327
-0.087085225 -0.27211463 -0.11946575 0.22452024 -0.17547601 -0.22528201 0.038605418 0.27891305
-0.0064303163 0.05787304 0.17841181 0.14173104 -0.16699737 -0.25013292 -0.10429945 0.21422498
-0.1082885 0.30877545 0.2767035 -0.13611434 0.17876431 -0.19126882 -0.08434711 0.09590343
-0.22595477 0.1331712 -0.25895932 0.27122527 0.1761962 0.0048940657 0.006776826 0.03637117
-0.11915345 0.021901721 -0.13846879 0.28936917 -0.16676858 -0.10737451 -0.2603248 0.18845
-0.25603512 0.13110004 0.120280705 0.0019486144 -0.25160477 -0.13676739 0.21428877 0.26724538
0.08892577 -0.025103865 0.22035745 -0.013382708 -0.10479308 0.03724348 0.094783485 0.30893472
0.14173149 -0.016947802 0.047309447 -0.015641082 -0.12859215 0.29131323 -0.024579296 0.26048997
0.10701188 -0.21673639 0.29376158 0.31348294 -0.013176511 -0.08968989 -0.13726103 -0.036788076
-0.1700082 0.1306367 -0.01952672 0.007902999 -0.08990752 0.27742025 -0.2885992 -0.13940552
-0.2899371 -0.18246391 0.2055838 -0.22485659 0.107841246 0.09631015 -7.039873e-05 0.037927862
-0.31138358 0.17023125 -0.062064108 -0.07070256 0.04504515 -0.26381907 -0.057654038 -0.0768458
-0.24932386 0.10147064 0.21585937 0.14812328 0.09660077 0.09016882 -0.07443404 -0.2291949
0.15548888 -0.040338475 -0.15464908 -0.28010926 -0.22057343 -0.21276678 0.20868966 0.032728825
0.044033628 -0.18278208 -0.17589448 0.18507634 -0.06723562 0.0938452 -0.17819856 -0.26164755

branch_t.fc1.bias f4 [30]
00000000: 714f fcbd 6ead 683e e864 f93d 4b44 43be
00000010: a439 25bc c16c 4cbe d1a3 5e3d 12c1 90bd
00000020: 3910 17be 066f 18be 7538 253e 574d 663e
00000030: dfa2 c23c 0f4b 153c d977 e8bd 9210 fb3d
00000040: 261d 3f3e a71a 17bc ad17 903c 305c d03d
00000050: 8a3e 573e 295e 8c3e afbe 003e cbbe 11be
00000060: 3948 063e 5697 68bd 5df7 c5bd 4b95 a0be
00000070: 6e87 7bbe e2eb e43d
-0.1231984 0.22722408 0.121774495 -0.1906902 -0.010084543 -0.19963361 0.054355446 -0.07068075
-0.14752282 -0.14886102 0.16134818 0.2249044 0.023759304 0.009112134 -0.11350984 0.1225902
0.18663463 -0.009222663 0.017589414 0.10173833 0.2101995 0.27415588 0.1257274 -0.14232938
0.13113488 -0.05678495 -0.096663214 -0.31363901 -0.24563381 0.111778036

branch_t.fc2.weight f4 [20, 30]
00000000: f7c1 abbd aadb 03bc dc8f 883d 69db 273c
00000010: aa26 ea3d 827a 233e f15d ff3d 1381 0bbe
00000020: e05a 2ebe 9386 223e 5fa9 fdbd 6b97 463d
00000030: 000e 163e 22f7 023e f57c b6bd 666b 293e
00000040: 4f48 803d 5f02 e03d 7a6b 1bbe db1e 9a3c
00000050: c85f a9bc 9486 05be 6611 82bd 10c4 33be
00000060: 3768 9ebd 48be 2fbe 791e 01bb 0835 233e
00000070: 0693 ef3c aa80 11bc 7edb a4bd 1ecc 30be
00000080: 2075 1cbe 55f5 fa3d efb6 37bd 0990 423d
00000090: 92aa 3abd 82c3 f23d 49b2 85bd 6961 1f3e
000000a0: 1822 383e 7973 1f3e 277b 71bd 436c e2bc
000000b0: 83b5 a6bd 9884 8cbd 5299 283e 08de 883b
000000c0: 35db 17bd d07d 03be 66e9 d3bd 2f39 b2bd
000000d0: 6092 d1bd d421 23be 42ce 25be c93c 0fbd
000000e0: c2ba c43c 2c80 01be efd4 11be 83c8 77bd
000000f0: ea63 403d 3c34 eebd 357a cabd 97b5 15be
00000100: 26ef 013e 406d 423d 1971 4f3d 5073 b4bd
00000110: 622f 22be 8c27 25be e561 04be 2953 203e
00000120: 15e4 acbd 00f7 073e f618 f13d c1ca eabd
00000130: fae2 67bd 6728 22bd cd05 efbd d64d 92bd
00000140: ef21 fb3d 7ccd 323e a6d1 0dbe 1982 2dbe
00000150: f89a 02be c527 a63d 0151 fcbd d145 953d
00000160: fc1b 353d 8103 d4bd f45b a13d beb4 953b
00000170: 711f 1e3e d55d 203e 5068 94bd b273 c13d
00000180: 02c3 1cbe 42e7 873d ccaa 82bd b3f5 253e
00000190: b720 1abe ef6e 12bc caf2 223d 6c59 993d
000001a0: 60bb c43c e1ee 553d 93f0 cb3d e62f 2c3d
000001b0: 7b30 9dbd 6c5e 01bd a5b4 203e 5460 023e
000001c0: 7225 bb3d 170a 31be 97a4 073e 5ccd 203e
000001d0: c311 d7ba 14e0 79bd 8fef 2f3e 4da7 1c3e
000001e0: f86c 9abd de5f db3d 1122 31be 2e17 913c
000001f0: 1e4e e03d e464 7cbd ec39 1e3e f0ea 2b3e
00000200: 22d4 153e 7c8f 1dbe 662a 893d 7b42 023c
00000210: af4e 013e b20f 053d d86c 883d 578c 7d3d
00000220: 3a54 9ebd 01ff 30bd 43a9 d4bd abf0 bbbc
00000230: 17f0 19be dab9 33be e8a8 863d 9819 f1bd
00000240: 596f 03be 6369 3b3e 6f75 2abe acea e43d
00000250: c246 723d 3495 b83d a1f1 2e3e aa80 29bb
00000260: fb81 94bd 04a7 19be 4f54 30be afe4 2a3e
00000270: e8f4 92b8 c760 adbd 0a73 853d 416d 9bbd
00000280: 7978 d53d 9951 b43d 0ab4 30bd 2905 f3bb
00000290: 8afc 243e 74d4 d3bd 08ae 0bbc ab43 1f3e
000002a0: 1267 0b3d eb12 8b3d a2dc 2c3e 9494 173e
000002b0: 91da ef3c 9431 6abc 0759 8dbd d5ce 473d
000002c0: 54f7 373e 650f 003e 7b88 32bc e171 223e
000002d0: e01d 323c eb7d afbd cfb7 043e 376b 9b3d
000002e0: 9829 9c3d 8ed3 30be d9cb 043d 0dfd 02be
000002f0: f119 cbbb 22b6 373d fb9a 91bd c039 c73d
00000300: cac9 8bbc 6ff6 46bd 870f d33d 4bd6 e1bc
00000310: 0a7c be3c fc83 2a3e d2e1 2c3e eb42 e63d
00000320: 3751 13be 8f6f ebbd fbd4 31be dc02 bf3d
00000330: 9f65 5dbd 67e9 82bd 471a 003e 4704 b7bd
00000340: 7ffd d5bc 8c59 133d 68a3 583b 10b3 31be
00000350: 8497 023e 941b 80bc e93c 5ebc 69ec dabc
00000360: 2bfa e43d 0686 2bbc 0e65 fc3d 155f 8ebd
00000370: 0df8 253e 73bd 22be 59d8 bbbc b80e 17bd
00000380: 9f00 cbbd b551 463d 50ce d3bd b189 9e3c
00000390: d8b3 1abe 04ad 71bd 7cb7 113e 85ff ae3b
000003a0: 0d16 efbd 277c 333e f539 863d 4b99 2ebe
000003b0: 21b2 363d 0017 333e 96e8 d23c e086 373e
000003c0: d5ba fdbd 6a35 853d 1ae0 333d f023 2abe
000003d0: 4993 c8bd 7751 13be 340c 2c3e 7f29 1d3e
000003e0: 214c d63d fe69 88bd 9ded a2bd e72d d83c
000003f0: 3a32 2f3e cdf8 333e 90ba 363e d2ce f43d
-0.08386605 -0.008047977 0.06668064 0.010245183 0.11433156 0.15964702 0.1246909 -0.13623457
-0.17026854 0.15871648 -0.123858206 0.048484247 0.14653778 0.12789586 -0.089105524 0.16544876
0.06263792 0.10937952 -0.15177718 0.018813541 -0.020675555 -0.13039619 -0.06350975 -0.1755526
-0.07734721 -0.1716243 -0.0019702 0.15938199 0.02924491 -0.008880774 -0.08049677 -0.17265365
-0.15279055 0.122538246 -0.044852193 0.047500644 -0.045572825 0.118536964 -0.06528146 0.15564503
0.17981756 0.15571393 -0.058955338 -0.027639514 -0.08140089 -0.06861228 0.16464737 0.004176859
-0.037074286 -0.12840962 -0.103472516 -0.08702313 -0.10232997 -0.15930873 -0.16191962 -0.03497008
0.024014834 -0.1264655 -0.14241384 -0.060493957 0.046970285 -0.11631057 -0.098865904 -0.14620052
0.12688884 0.04746747 0.050644968 -0.088110566 -0.15838388 -0.16128367 -0.12927969 0.15656723
-0.08441941 0.13277817 0.11772339 -0.114644535 -0.056612946 -0.039589312 -0.11671028 -0.07143752
0.12262332 0.17461199 -0.13849506 -0.1694416 -0.12754428 0.08113054 -0.12320138 0.07288707
0.04421614 -0.10352231 0.07878867 0.0045686653 0.15441681 0.15660794 -0.072464585 0.09445895
-0.15308765 0.06635906 -0.06380233 0.16207008 -0.15051542 -0.008937581 0.039782323 0.07487759
0.024015129 0.052229766 0.09957995 0.042037867 -0.076752625 -0.03158419 0.1569391 0.12732059
0.091380015 -0.17289005 0.1324638 0.15703338 -0.0016408492 -0.061004713 0.17181228 0.15298195
-0.075403154 0.107116446 -0.17298152 0.017711248 0.109524 -0.061619654 0.15451783 0.1678884
0.14631703 -0.15386766 0.0669754 0.0079504205 0.12627672 0.03248567 0.06661385 0.061901417
-0.07730909 -0.04321194 -0.103838466 -0.022941908 -0.15032993 -0.17551365 0.06575185 -0.1177246
-0.12835445 0.1830192 -0.1664636 0.111775726 0.05914951 0.09012833 0.17084362 -0.0025864043
-0.07251354 -0.15005118 -0.17219661 0.16688798 -7.00744e-05 -0.084657244 0.065160826 -0.07589198
0.10423369 0.08804626 -0.04314045 -0.0074163866 0.16111961 -0.103432566 -0.008525379 0.15553157
0.034033842 0.06790718 0.1688104 0.14802772 0.029279025 -0.014294047 -0.06901746 0.048781235
0.17965442 0.12505873 -0.010896797 0.15863754 0.010871381 -0.08568939 0.12960742 0.07588809
0.07625121 -0.17268202 0.032420967 -0.12791844 -0.006198161 0.04485143 -0.07109638 0.09727812
-0.017063994 -0.04857486 0.10305696 -0.027568003 0.023252506 0.1665191 0.16883019 0.11243232
-0.1438645 -0.114958875 -0.17366402 0.09326717 -0.05405199 -0.06392174 0.12510024 -0.08936363
-0.026121853 0.03597407 0.0033056382 -0.17353463 0.12753111 -0.01563815 -0.013564327 -0.026724057
0.11180528 -0.010468965 0.12323962 -0.06951729 0.16207905 -0.15892582 -0.022930311 -0.03687927
-0.09912228 0.048417766 -0.10342085 0.019352766 -0.15107667 -0.05900289 0.1423015 0.005340519
-0.11674128 0.17527829 0.06554023 -0.17050664 0.04460347 0.17489243 0.025745671 0.17922544
-0.12389151 0.065043285 0.04391489 -0.16615272 -0.097937174 -0.14386545 0.1680153 0.15347861
0.10463739 -0.066608414 -0.079554774 0.026389075 0.17109004 0.17575379 0.17844605 0.1195351

branch_t.fc2.bias f4 [20]
00000000: e911 72bd fb89 d03d 2b25 05be 7ccf 0ebe
00000010: dbbb 13be 7ded 353e fefc 5cbd 7828 d1bd
00000020: 9077 80bd 37bd adbd 863a 2fbd f2d1 2c3e
00000030: b1fe e83d 8ae4 38be 6161 01be c615 33be
00000040: 2987 52ba 597c 2fbe 57a4 1fbe f91d 1abe
-0.05909911 0.10182568 -0.1300246 -0.13946337 -0.1442713 0.17766376 -0.05395221 -0.10212797
-0.06272805 -0.084833555 -0.04278042 0.16876963 0.113767035 -0.1805593 -0.12634803 -0.17488775
-0.00080310047 -0.17137279 -0.15590034 -0.15050496

branch_t.fc3.weight f4 [10, 20]
00000000: 9cdf 213e 8902 073e 05b2 13be 269a 633e
00000010: a06e d43d 3b44 45be 2717 38be 2ef5 a1bd
00000020: cb58 a2bd e730 dabd c5c8 3b3e 7450 e43d
00000030: 26e2 243e fda0 603e 81b8 443e bd8f 0cbe
00000040: 4c5f 273d 307a 0fbe 47d9 21be f43a 343e
00000050: 7150 1cbe e4c1 5c3e 5e60 2a3d be02 3b3c
00000060: 189f 413e 4863 853d 8c92 643d 3a66 173c
00000070: d971 c13d f13f 46be e1a7 38be d18e cf3d
00000080: e986 27bd 382d 06be 324d 58be 57bb 86bc
00000090: dc26 3d3e e5f4 a5bd a8ee 15be 22e3 b93d
000000a0: 86c6 363e e3f5 ee3d 2323 75bd b18a 123e
000000b0: 52eb 3d3d a111 ec3d 9162 24be bf84 aebc
000000c0: 845f 393e a585 f13d 8dc3 38be a0e5 ffbb
000000d0: 3dfc db3d 3f39 bf3d c464 d4bd ca30 e43d
000000e0: 1d93 003e bc3d 1fbd 3f92 b03d 7796 283e
000000f0: 2cbd 37be 650e edbd 38fe 4d3d ac6d 343e
00000100: 6f68 1ebe 086e 4d3d ee84 c4bd dced 8d3d
00000110: 0221 0e3e 1877 a5bd d481 e63d 7c55 7dbd
00000120: e621 3cbe 93ae 02be 80e7 16be 3800 cc3d
00000130: 4241 10be 8444 2dbe 6eea 0a3e 62da 4dbe
00000140: 677a 25bd 7589 0b3e 8598 95bd c1e8 d83c
00000150: aa06 f2bd 8c19 f4bd 8c3d 60be 8fed 4abe
00000160: 3647 25be a833 303c 2921 35be 1636 073e
00000170: d3f9 1f3e 2623 7ebc b322 abbb 4cda 653d
00000180: 6a75 39be 071c 7b3d 36df 063e 9e2c dcbd
00000190: aa6e 1ebe 46d3 923d e610 55be a74a f6bd
000001a0: de29 603b 5ecd 803d 776c c4bd babb 1e3e
000001b0: 8236 3f3e a5e8 1fbe 5658 48bd 0cec b03d
000001c0: 6e32 3e3e 111e 093e 72a0 093e a201 24bd
000001d0: bbb1 573e 64fe 42be b806 883d e14e 17bd
000001e0: 4cbd b6bd eb43 c33d e0c5 80bc 246c 293d
000001f0: ace4 79bc 372a 5b3e f65d 143e c9a2 573e
00000200: f003 a6bd da69 e3bd 2e9f 943d 4bb8 093e
00000210: 9f3a 46be 56f3 3abe 74c4 fcbd d833 2cbd
00000220: cc6f fd3b 34e6 343e 2266 553d 3285 f6bd
00000230: 14fe 53be 0fe7 fb3d 2897 243e 0a58 3abe
00000240: f126 2bbd ad09 7fbd f062 443e 97bf d5bc
00000250: 9fc4 8a3d 19ef 36be f1e5 a23d d6aa 9f3c
00000260: ebca 25be 37c1 993c 5fb4 0e3e b634 0d3d
00000270: c165 22be 39cf 4dbd d543 0dbe 8442 05be
00000280: 6dba e2bd 0f99 2cbe 2759 48be a875 49be
00000290: b0a0 2b3e a98f 4bbe 246b 6abd f840 f13d
000002a0: 247e ebbd bcd0 223e e103 61be 1ae2 30be
000002b0: 72f0 e4bd e84c b13d 6fee 4dbe cc7a 9f3d
000002c0: 3cac ef3d 80b6 233d c8a3 a3bd 74e2 933d
000002d0: bd46 5c3c de02 13bd 4734 1dbe d7b2 003e
000002e0: b86c e0ba caa7 e9bc 3b78 febd d4f5 28bd
000002f0: 3bd1 503d f38a a13d 3c6c ffbd 3200 51bd
00000300: 8cab 2b3e f55a 563e 5aeb 343d 09bc 01be
00000310: e1a2 323e c5a5 543e 48ec 533d 683f 21be
0.15807956 0.13184561 -0.14423378 0.22226772 0.103726625 -0.19264309 -0.17977582 -0.079080924
-0.07927092 -0.10653859 0.18338306 0.11148158 0.16101894 0.21936412 0.19211008 -0.13726707
0.040862367 -0.14011455 -0.15805541 0.17600614 -0.15265061 0.21558338 0.04159581 0.011414228
0.18908346 0.06513077 0.05580382 0.009240681 0.09445543 -0.19360329 -0.1803279 0.10134662
-0.040900145 -0.13103187 -0.21123198 -0.016446752 0.18471855 -0.081033505 -0.14641821 0.09076525
0.17849168 0.11667993 -0.059847962 0.14310719 0.046366997 0.115268 -0.16053225 -0.021303533
0.18102843 0.11793069 -0.18043347 -0.007809356 0.1074147 0.09337091 -0.10370782 0.11142118
0.1255612 -0.038877234 0.08621644 0.16463648 -0.17943257 -0.11575011 0.05029127 0.17619962
-0.15469526 0.050153762 -0.09595667 0.06930134 0.13879779 -0.08079356 0.112552315 -0.061849102
-0.18372306 -0.12761907 -0.14736748 0.09960979 -0.14087394 -0.16920668 0.1356599 -0.20102838
-0.040399935 0.13626654 -0.073044814 0.026478173 -0.11817677 -0.11918935 -0.21898478 -0.19817184
-0.16140446 0.010754503 -0.17688431 0.13204226 0.15622644 -0.01551131 -0.0052226423 0.056116387
-0.18111196 0.061306026 0.13171086 -0.107506976 -0.15471902 0.071692035 -0.20807227 -0.120259576
0.0034204642 0.06289171 -0.095910005 0.155013 0.18673137 -0.1561609 -0.04891237 0.08638772
0.18573925 0.13390376 0.13440111 -0.04004062 0.21063893 -0.19042355 0.066419065 -0.03694046
-0.08922824 0.09534439 -0.015719354 0.041362897 -0.0152522735 0.21402822 0.14488968 0.21058191
-0.0810622 -0.11104174 0.072569236 0.13449208 -0.193583 -0.18256888 -0.12342158 -0.04204163
0.0077342745 0.1766594 0.052099355 -0.12037124 -0.20702392 0.1229993 0.16073287 -0.18197647
-0.041785184 -0.062265087 0.19178367 -0.026092334 0.06775784 -0.17864646 0.07954014 0.01949064
-0.16190688 0.01876889 0.13935994 0.034474097 -0.15859129 -0.05024645 -0.13795407 -0.13013655
-0.11070714 -0.16855262 -0.19565259 -0.19673789 0.16760516 -0.19879021 -0.057231084 0.1177997
-0.11498669 0.15899938 -0.21974136 -0.17273751 -0.11178674 0.08657247 -0.20110486 0.077870935
0.11702773 0.039968967 -0.07990223 0.07220927 0.0134446 -0.035891406 -0.15351973 0.12568222
-0.0017122244 -0.02852239 -0.12425276 -0.041250065 0.050980788 0.078878306 -0.12471816 -0.051025577
0.16764659 0.20933135 0.04416976 -0.12669386 0.17444946 0.20766361 0.051739007 -0.15746844

branch_t.fc3.bias f4 [10]
00000000: d043 ecbd 0121 5b3d 14f1 57be 8040 033b
00000010: 8d7a 183d d699 43bd 6ca9 22be 51df 183e
00000020: 06fa 403e ec71 d03b
-0.11536372 0.05349827 -0.21088058 0.0020027459 0.03722625 -0.04775413 -0.15884942 0.14928938
0.18845376 0.006361237

branch_p.fc1.weight f4 [30, 10]
00000000: 63dd c7bd c760 9ebd 5572 95be 7357 cf3d
00000010: b442 c6bc 15ac 9d3e a8c6 3f3e 45b6 2c3d
00000020: 8405 f93c 8b55 3ebe 98ac 8b3e 474d 8ebe
00000030: 9c9e e53d 821d 9a3c d29b 09bd f81a 253e
00000040: 6630 2abe 5636 023e c44a 903e c3ab 8e3e
00000050: 2ccd a2bd 898f 8bbe 0c76 54be fd29 173e
00000060: 91a4 a2bd 6275 103d a7e5 7c3e 4ad6 aebd
00000070: 9995 663e a6e7 8c3d 2874 b53d 118f 753e
00000080: 06aa 713c d173 22be 1584 9abd 3a9f fabc
00000090: 0962 993d 86a5 f13d 8273 8bbd 27b9 7fbe
000000a0: 3abf 53be d66e 1fbe 7719 23bd 778a 893e
000000b0: e0f0 9f3e c608 55be 928b 613e d1ef 883d
000000c0: ddb1 c2bd c37e 2ebe d0b4 2ebe e0d1 f0bd
000000d0: 9db7 403e 205e e33d b9fc 8c3e 74af 87bd
000000e0: d026 dcbd dc89 123e 30b1 e93d 1f61 d63d
000000f0: 7933 00be 8dc2 9abe a5e6 903d 2b8d e4bd
00000100: 4d10 3cbe dc4b df3d 2bd9 90bd 7716 803e
00000110: f733 35be 4ea9 94bd 9a43 82be 5cdb 0dbc
00000120: c4dc ca3d 5f43 1a3e bb2a 7ebe 5d24 8e3e
00000130: d863 94be c60e 2bbe 0638 bc3d 4d34 d73d
00000140: 87fe 8cbe 1f3b 703e 653c 1d3e 52d9 55be
00000150: 377d 93bd f360 453e 3277 49be 6973 f4bd
00000160: 5da9 a0be 4c7c 5cbe 0e82 61be 8185 713e
00000170: ac04 01bd 4edd 11bc 4f3d a5bd 3446 66be
00000180: 4458 c43d 5f66 933e fa2e f13d 9d88 53be
00000190: cc25 26be e1d5 d8bd 5d56 5abd 9fd4 7f3e
000001a0: 4c15 cb3d ed1a 93be 841a 69be 1d1d 223e
000001b0: 4533 8f3c 74ee 9fbd ea10 2b3e e794 623e
000001c0: cfb0 6abd b948 2abe 9a2d 2c3d f2e6 013e
000001d0: 9d7d 4a3e 988b 25be 498d 353e 08e9 753e
000001e0: 9b63 083e 0784 4ebe 2f69 42be 3045 1dbe
000001f0: 7ddd d9bd 968a 5cbe 793e 31bd 80bd 293c
00000200: fe22 663e 6312 81be 7271 ec3d faae 013e
00000210: c9c6 3b3e 0d88 8abe 7b73 4dbb 78fd 14be
00000220: e6d7 7fbe e647 8bbc 8e42 933e 8344 973e
00000230: 1c64 993e 303c 8bbe 5189 4a3e fe66 0d3e
00000240: c4d6 203e a41c 203e 1fcf c3bd 34e5 44be
00000250: 2ab3 5fbd b11c 20be 280f 983e 3950 903e
00000260: 42f1 0b3e 309a 353e e4cf 883d bf13 093e
00000270: e5f0 363e 8222 953d 8f80 61be 9a9a 1ebe
00000280: 3b71 ad3c 70cc 76bd 9818 553e 4800 923e
00000290: 606a 34be a597 92be f297 a13e 0430 77be
000002a0: f1d2 533d 531e 91be 054c 893e 9693 043e
000002b0: bd7d 3d3e 72df 88be cb8a 983e 16b6 c93d
000002c0: 5c16 0dbe 49d8 4cbe b896 893b 8826 963e
000002d0: 7151 c0bd ca29 143e 0560 ecbd c03a 0f3e
000002e0: 5e14 953e aa7f 95bd ba24 0ebe f813 193e
000002f0: 3ee5 e8bd 6c93 4e3e 5f6c 1d3e 0232 36bd
00000300: 0c2a ffbd 1605 833e 4dbf 513e 6611 853e
00000310: 2b68 b6bd 9a7b 56be eef4 89be f4c2 8b3e
00000320: 694e b43d cca6 1dbd fbc2 5abe b9f5 073e
00000330: 3daa 933e 58e2 9e3d 6c61 043d dcfb 95be
00000340: b821 323e 95bd 9cbe 2baf 863d abf3 843e
00000350: 97fd 52be 3ea2 da3d 9fc6 2b3e 6773 11be
00000360: 1e2d 393d 4085 89be e198 5ebd 718b 89bc
00000370: f8d0 b8bd fea5 9e3d a2f9 e73d 8a71 bebd
00000380: 49e9 a0be b20f a13e 5fd1 4ebc 2f0e a2bd
00000390: 33fe 4f3e b793 6a3e 1abf adbc 694d 9cbe
000003a0: ff68 643e 554a 38be 6dd1 7a3d fd14 8ebe
000003b0: 6b26 843e 7143 8f3d 0239 5b3e 85fe 80be
000003c0: 5958 52bd d9b2 9f3e d6cd 093e 428c fe3d
000003d0: 1ac3 9e3e 8f75 97be 8617 0e3e 283f ea3d
000003e0: 84e9 ae3d e417 523e 8d4e 983e 9ae5 643e
000003f0: c3ce 243d 1ea8 983e 052d 983e c46f 8ebe
-0.09759023 -0.077333026 -0.2918879 0.101241015 -0.024201728 0.3079535 0.18728125 0.042166013
0.030398138 -0.1858732 0.27280116 -0.27793333 0.11211893 0.018812899 -0.033595867 0.16123569
-0.16620025 0.1271604 0.28182042 0.2786542 -0.0794929 -0.27257946 -0.20748156 0.14762111
-0.07941545 0.035268195 0.2469698 -0.08536966 0.22518004 0.06880121 0.08860046 0.23980357
0.014750009 -0.15864493 -0.07544724 -0.030593503 0.07489402 0.11799149 -0.06809141 -0.24972974
-0.20678416 -0.15569624 -0.039819207 0.26863453 0.3123846 -0.20804128 0.22025898 0.06686366
-0.09506581 -0.17040543 -0.17061162 -0.117587805 0.18820043 0.11101937 0.27536562 -0.06625262
-0.107495904 0.14310402 0.11410749 0.10467743 -0.12519635 -0.30226555 0.07075242 -0.11159738
-0.18365593 0.10903141 -0.070726715 0.2501714 -0.17695604 -0.07258855 -0.254422 -0.008658256
0.09905389 0.15064763 -0.24820988 0.27762118 -0.28982425 -0.16704854 0.09190373 0.105080225
-0.2753794 0.23460053 0.1535507 -0.20883682 -0.07201617 0.19275264 -0.19674376 -0.11936075
-0.31379214 -0.2153179 -0.22022268 0.23586084 -0.031498596 -0.008902861 -0.08068334 -0.22487718
0.09587148 0.2878904 0.11776538 -0.20657583 -0.16225356 -0.10587669 -0.05330502 0.24983452
0.099161714 -0.2873148 -0.22764021 0.15831418 0.017480502 -0.07809153 0.16705671 0.22127114
-0.057297524 -0.16629304 0.042035677 0.12685755 0.1977448 -0.16166532 0.17729677 0.24014676
0.13319246 -0.20167552 -0.18985437 -0.15358424 -0.10637949 -0.21537241 -0.04327247 0.010360122
0.22474286 -0.2520934 0.115450755 0.12664405 0.1833755 -0.27056924 -0.003134935 -0.14549816
-0.24984702 -0.017002057 0.28761715 0.29544458 0.2995919 -0.27194357 0.19778945 0.1380882
0.15706927 0.15635926 -0.095609896 -0.19228059 -0.054614224 -0.15635945 0.29699063 0.28186205
0.13666251 0.17734599 0.06680277 0.13386439 0.17865331 0.072819725 -0.22021697 -0.15488663
0.021172157 -0.06025356 0.20810163 0.2851584 -0.17618704 -0.2863132 0.31561238 -0.2413941
0.05171484 -0.28343448 0.2681581 0.12946925 0.18504997 -0.26732975 0.2979339 0.09849183
-0.1377806 -0.20004381 0.0041988753 0.29326272 -0.09390534 0.14469066 -0.11541752 0.13987255
0.291171 -0.072997406 -0.13881198 0.14949024 -0.113718495 0.20173424 0.15373372 -0.044481285
-0.12459192 0.25589818 0.20483132 0.25989836 -0.08906587 -0.20945588 -0.2694468 0.27297175
0.08804018 -0.038489148 -0.21363442 0.1327733 0.2884082 0.077580154 0.03231947 -0.29293716
0.17395675 -0.3061339 0.065763794 0.25967154 -0.2060455 0.106754765 0.16774987 -0.14204179
0.045209043 -0.26859474 -0.054345015 -0.016790124 -0.090242326 0.07746504 0.113269106 -0.092989996
-0.31427982 0.31457287 -0.01262316 -0.079128616 0.20311813 0.22907911 -0.021209288 -0.3052781
0.22305678 -0.17997105 0.06123488 -0.27750388 0.2581056 0.06995285 0.21408466 -0.25194183
-0.051353786 0.31191137 0.13457426 0.12429096 0.31008226 -0.29581878 0.13876161 0.11437827
0.08540633 0.20516926 0.2974743 0.22353211 0.040236246 0.29815763 0.29721847 -0.27819645

branch_p.fc1.bias f4 [30]
00000000: 42d1 8f3e 9a31 26bd c021 0abe 81a9 663d
00000010: bde9 ddbd 277a 903e 2702 d43d 2a7e 913e
00000020: 223f 393e c833 41be 6950 763d 88fe 84be
00000030: 6e27 5c3e 288c 9fbe 3a0f 67bd f6e5 efbd
00000040: 1ab5 1a3e 7241 943e de32 b4bd 40a6 dbbd
00000050: 473e 64be 8dd1 203d 85a7 c73c 308b 76be
00000060: 7ac3 9ebe 3d0d a1bd 84ca 14bd 4d8b 3dbe
00000070: cce1 86be 0cf4 9ebe
0.2808934 -0.040574647 -0.13489437 0.056313995 -0.10835598 0.28218195 0.10351973 0.28416568
0.1809049 -0.18867409 0.06013528 -0.25975442 0.21499416 -0.31161618 -0.056411006 -0.117137834
0.15108147 0.2895618 -0.08798765 -0.10725069 -0.22289382 0.039262343 0.024371872 -0.24076533
-0.31008512 -0.07863853 -0.036325946 -0.1851017 -0.26344144 -0.31045568

branch_p.fc2.weight f4 [20, 30]
00000000: 2a05 0dbe c37c c83c 59c1 2cbe 5f36 ca3d
00000010: a28f 0cbe 938e 5dbd 62a3 b2bd e21e bb3d
00000020: d65f dbbd 099e f13d 9701 b33a 837a 37bd
00000030: 32f4 283d 5959 cabd 1b53 0abe d76f c13d
00000040: d539 313e 4c3f fdbd e863 13be 59ba 873d
00000050: be0d 683d 981f 0dbe 17e9 93bd 50b6 16be
00000060: aaa2 b03c 4b59 47bd 8409 3fbd e330 31be
00000070: 37dd e23d 6dc0 c9bc 4acb f83d 0bbd bebd
00000080: 9284 0d3e 8410 23be c1f6 ec3d c66a 2f3e
00000090: 1c01 efbd 63d9 91bd 139b 263c 6823 c13d
000000a0: a3f3 fbbd 2804 15be 3714 38bc cfa3 be3c
000000b0: b7b8 d93d 249b b03d 888f 963c 4216 03be
000000c0: 1f6c 0a3d f8bb 26be 9cfb f63c 646d 1d3d
000000d0: 1bbd b5bc 9365 c6bd d344 a43d 697e 083e
000000e0: 379f cbbd dc86 313d 61f7 1b3e 24cf d43a
000000f0: 6cd4 013e 1a6c 32be b0ef 0e3c d50b a1bd
00000100: a959 c3bd 958b 08bd e0dd 97bd b446 073e
00000110: 6a89 893d 0325 213e d595 eabb dc6e 10be
00000120: 4ac8 0a3d b681 113c d046 c93d 5969 86bd
00000130: 13ee 03be 282d 1abe 4aa5 48bd 688d 143d
00000140: 0f23 423d 9922 eb3c 7739 24bd f637 593d
00000150: 205c 5f3d 08d0 093e a8e0 903c 408c a53d
00000160: 87ad 923c 2ade 8d3c 2550 c43c 3c7d c6bc
00000170: 6ad9 143e 06bb a3bc e44b 8bbd 7200 11be
00000180: d596 e0bd 4206 4ebd e55e a4bd 220c e0bc
00000190: 1394 103d db96 f8bd 1eb4 c53d df7a 723c
000001a0: 63cc 353e 42b0 ad3d c52c a4bd 0687 173d
000001b0: de6a 023e 64de 493d cd97 08be f3e3 293e
000001c0: 6f02 60bd 5886 6cbd 34dc 153e 8bbf 1fbe
000001d0: 336d 32be 5346 373e d091 8bbc 1bbc 1ebe
000001e0: 278c 563d 55ae ab3d 36f2 103d b36d d83d
000001f0: 95da f0bd 8471 a83b 58f5 e43d dc6c 6d3d
00000200: 58bc 00bd 15ca 10be a139 343d 99f4 ecbd
00000210: 529a f7bd 140a 703d 67b6 89bc 5800 243e
00000220: b15b 253d 6f16 063e 4a29 393d 51e4 893d
00000230: b61e 9b3d 5e3b 5a3d 198a d0bd 6798 ec3d
00000240: c8c6 993c ecc3 f8bd 932c e1bd b68e 33bd
00000250: bfcd 11be 76c5 123d 5784 2a3e b532 16be
00000260: 96c3 62bd a3ad 27be 664e 9bbd b765 e63c
00000270: 254e d3bd c550 24be 7794 ebbc d39b 1c3e
00000280: e2b6 a4bd 0084 b03c 12dc 8fbb 552f fa3d
00000290: 41ca df3d 9629 18bd bbfb 833c d2e1 36be
000002a0: ce98 ecbd 4541 283e 0dc3 e53d 4dc9 27be
000002b0: 2ba3 0bbe 1439 2abe af98 d73d e383 103e
000002c0: 95ea dd3d f9c1 043e 4698 9abc 807c 2cbe
000002d0: f8ce 183e dbbc fcbd f913 f43d ce5e bcbd
000002e0: 6369 0e3e 2ff1 e2bd 38ef 2e3e e68f bf3d
000002f0: c44d 34be 426a 94bd 221e ac3d 6911 db3d
00000300: f813 093d 376a 0b3e f2d1 ffbd 0c00 0c3e
00000310: ecc1 04be 5327 4cbd c5d9 cabd 283c 08be
00000320: 51b3 963d 9d16 0cbe 95ac c93c 1d26 d1bd
00000330: 7669 0c3e 8c86 193e a379 823d 0eef 1abe
00000340: 000a 013e c193 9dbd 1ccd 38be cde1 9a3d
00000350: 479c e33d 2b50 493b 25f9 a03c bdfb 1e3e
00000360: 9d83 fdbd 381a dc3d 7aaa 4bbd 4726 803d
00000370: 55de 15bd eea3 223e 9940 ccbd 2a3c a83d
00000380: 655c 1dbe 05e6 e43d beda b13d 3dd3 d73c
00000390: 0922 1dbe 990d 103d 1ef4 f3bc 7a65 eb3d
000003a0: dcf7 60bd a2c7 6b3d 54ab 1d3d 88b6 d3bd
000003b0: c2a6 063e c7e5 103e 9625 24bd 69a9 303e
000003c0: 9ac0 11be cd23 c73d c381 ffbd 6bb8 c63c
000003d0: a5bf f63d a217 0b3e 55c2 9b3d bba1 d7bb
000003e0: 17a7 fabd 146a 653c 620d 983b 1024 9d3d
000003f0: 218d adbd e4a9 2a3e f6a4 88bc 4024 0e3e
-0.13771501 0.024473554 -0.16870631 0.09873652 -0.13726667 -0.054091047 -0.08722569 0.0913675
-0.10711639 0.11797721 0.001365709 -0.04479457 0.041248508 -0.09880323 -0.13508265 0.0944516
0.17307217 -0.123655885 -0.1439358 0.0662734 0.05665373 -0.13781583 -0.07222193 -0.14717984
0.02156194 -0.04866914 -0.046639934 -0.17303805 0.1107735 -0.024627889 0.12148149 -0.09313401
0.13820103 -0.15924269 0.11570502 0.17130575 -0.116701335 -0.07121541 0.0101688085 0.09430581
-0.123023294 -0.14552367 -0.011235288 0.02327147 0.10630935 0.08623341 0.018378988 -0.1280146
0.03379452 -0.16282642 0.030149274 0.0384344 -0.0221849 -0.096873425 0.0802094 0.13329472
-0.09942477 0.043341503 0.15231086 0.0016236049 0.12678689 -0.1742405 0.008724138 -0.07863585
-0.09538586 -0.03333624 -0.07415366 0.13210565 0.06715663 0.15736775 -0.0071589747 -0.1410479
0.033882417 0.008881023 0.098279595 -0.06563062 -0.12883787 -0.15056288 -0.048985757 0.036267668
0.047396716 0.02870302 -0.040093865 0.053031884 0.054531217 0.13458264 0.01768525 0.08083391
0.01790501 0.01731785 0.023963997 -0.024229638 0.14536062 -0.01998664 -0.06801584 -0.14160326
-0.10966269 -0.050298937 -0.08025912 -0.027349535 0.035297465 -0.121381484 0.09653495 0.014799803
0.17753749 0.08480884 -0.080163516 0.036994003 0.12736079 0.049284354 -0.13339157 0.16590862
-0.05468982 -0.057745308 0.14634782 -0.15600412 -0.17424469 0.1789792 -0.017037302 -0.15501444
0.052379753 0.083828606 0.03538724 0.105677985 -0.11760441 0.0051404852 0.11179608 0.057965145
-0.03142962 -0.14139588 0.04400027 -0.11570091 -0.12089981 0.05860336 -0.016810609 0.16015756
0.040370647 0.13094495 0.045205392 0.06733001 0.07574217 0.053279273 -0.1018259 0.11552506
0.018771544 -0.12146744 -0.1099483 -0.04383727 -0.14238642 0.035832845 0.16652046 -0.1466778
-0.055362307 -0.16374831 -0.07583313 0.028124673 -0.10317639 -0.16046436 -0.028757317 0.15293817
-0.08042695 0.021547318 -0.004390248 0.12216059 0.10927249 -0.037149034 0.016111245 -0.17859581
-0.11552583 0.16431148 0.112188436 -0.16385384 -0.13636462 -0.16623336 0.10527169 0.14112811
0.108357586 0.1296462 -0.018871438 -0.16844368 0.14922702 -0.12340709 0.11917872 -0.0919777
0.1390739 -0.11081158 0.17083442 0.09353618 -0.1760779 -0.072468296 0.08404185 0.1069668
0.03346631 0.13614736 -0.12491216 0.13671893 -0.129646 -0.04984219 -0.099048175 -0.13304198
0.07358421 -0.13680501 0.024618426 -0.10212348 0.13712105 0.14992732 0.063708566 -0.15130255
0.12601471 -0.076941974 -0.18046993 0.07562599 0.11113792 0.003071795 0.019650051 0.15525718
-0.12378619 0.10747188 -0.049723126 0.06257301 -0.036588985 0.15882847 -0.099732585 0.082146004
-0.15367277 0.11176685 0.086843 0.026345843 -0.15345015 0.035169218 -0.02977949 0.114939645
-0.054923877 0.05756343 0.03849347 -0.103375494 0.1314955 0.14150153 -0.040074907 0.17252125
-0.14233628 0.09723625 -0.12475922 0.02425786 0.12048272 0.13583234 0.07605425 -0.006580559
-0.12238901 0.014002342 0.004640267 0.07672894 -0.08474184 0.1666637 -0.016680222 0.13881016

branch_p.fc2.bias f4 [20]
00000000: 05b6 2bbe 138c c53d f0fb 96bc 71b9 1d3e
00000010: 3a6c b4bd f3a6 0a3e 596a 9d3c b386 0bbe
00000020: e8c8 2a3e 593a 2fbe 32de a93c 568d 0b3e
00000030: 2ec4 bd3d a9e3 8d3c 9656 02be f03f b3bd
00000040: f110 2c3d c3d3 313e 48f7 383e 94eb 393d
-0.16768654 0.09645858 -0.01843068 0.15402772 -0.08809705 0.13540249 0.01921575 -0.13625602
0.16678202 -0.17112102 0.020735834 0.13628134 0.09265934 0.01732047 -0.12728342 -0.087524295
0.042008344 0.17365937 0.1806308 0.04539068

branch_p.fc3.weight f4 [10, 20]
00000000: 744a 583e dd02 d33d 62ae 08be f9e9 4c3e
00000010: cf49 14bd 225c 183e 7f96 103e f334 0e3e
00000020: 94e0 4a3e ad47 8fbc ab8e 3ebe 1d11 20be
00000030: b64b 2cbe fa1f 35bc 5244 f23b e56c a73c
00000040: 272a 1d3e e910 f5bd 9b37 43be b7aa f0bd
00000050: e8fa d73d 4a3f 96bd 6844 473e ac6b 083e
00000060: 9880 71bd 98af a03c e0c1 2abc 50a5 0c3d
00000070: 88bc 1dbd a052 713d db78 d4bd d8df 903d
00000080: 1bac ecbd feb1 17be ac4d a63d a84b 28bd
00000090: 9078 f33c c911 d3bd c089 fd3d 7cce 03be
000000a0: 6c0d 263e 1088 da3d f7d7 40be cab8 d5bc
000000b0: f21a 1cbe f8d6 cabd 1c49 9bbd 4911 a6bd
000000c0: ee78 b03d 97c6 0fbd fc71 213e a204 233d
000000d0: bbc2 c3bd 7618 fdbd 2f5f 363e 8819 1cbe
000000e0: 0642 59be 5aaa 34be 4ac7 2bbe fdbf 11be
000000f0: 0577 9cbd 1ff4 333d 8971 2cbe f08f 5c3d
00000100: a8cb bcbc 584a 15be cfec 003d d99f 243e
00000110: 6cd4 6dbd 11c6 90bc a843 883d 6335 2ebe
00000120: 04fe 1fbe 45bb ff3b 1694 5fbd aaad c33d
00000130: 93cd 01be 7ce2 48be 74a6 3bbe 9d33 b93d
00000140: 02b0 5bbe 71b8 023e b87a da3c 345c 563e
00000150: e67a 32be 2aed 5c3e bb1c 4bbd 2647 8abd
00000160: c43b dbbd 1d8c 563e b9a8 1a3e 6afb 1e3e
00000170: 7455 a03c 5425 32be 2d14 8ebd 898c 893d
00000180: d09d 1e3e f368 a1bd d5f0 b23c 0602 06be
00000190: dbf1 f438 5b12 9d3d 0c91 acbd 2c87 9f3d
000001a0: e156 d3bd a57d 883b 2a75 333e cd3a d53c
000001b0: 405d 11be efa3 0fbd 1756 89bd 84ae f53d
000001c0: e4a5 b4bd 2b53 803c 3a7d 403e b6f2 aabc
000001d0: bfd8 26be 7213 9dbb 9c15 e23d 365d 02be
000001e0: 8581 a23d 2df6 57be c6b7 f43a 9472 9b3d
000001f0: 2d5f febd 1d33 733d 9cbe e8bd 6a49 01be
00000200: 6e4c c0bd 39e2 053e 426b cbbd cac5 173e
00000210: 2ed9 2bbe 2017 85bc 52fd 483d 4fda b33d
00000220: 321f 823d 4f01 183e 7af3 413d 0c3b 44be
00000230: 350c d3bd dc87 3bbe 0b7b 33bc d4d8 833d
00000240: 63ee 90bd 97cf 59bd dc7f 583e 4808 cc3d
00000250: 6634 33be 317b cd3c cf0e 093e a588 aabd
00000260: 96b1 41be 85e9 1bbe 272c 99bd 02c7 573e
00000270: 25ba 04bd 3323 c6bd b072 b03d b6a0 09be
00000280: a658 493e 7ed8 073e 3e75 8ebd bb70 743c
00000290: a0f1 13be f055 113e 62f3 593c deb7 253e
000002a0: 4d14 c33d 9f8a bc3d 7428 143e ab82 5c3e
000002b0: 90ed 6f3d d053 333e cf1d 2fbe f8d7 32be
000002c0: f7f7 a63d 3824 cc3d dcd0 4c3e 45b8 f13d
000002d0: 54e9 323e de70 36be e666 16be d3f1 85bc
000002e0: c29c 0e3e ef45 273e 6f54 05be 9d83 ecbd
000002f0: 1a18 0bbe 6fd2 3fbe 6f8b a13d 1f4b eb3c
00000300: 1220 7ebd 0d18 1a3e f489 45bc b1e2 993d
00000310: 5aba 37be 2201 1bbe 70df 9cbd eb21 babc
0.21122152 0.103032805 -0.13347772 0.20011128 -0.0362032 0.14878896 0.1411991 0.13887386
0.19812232 -0.017490232 -0.18609111 -0.15631528 -0.16825756 -0.011054987 0.0073933983 0.020437667
0.15348111 -0.11966116 -0.1906418 -0.11751311 0.105459034 -0.0733629 0.19459689 0.13322324
-0.058960527 0.01961498 -0.0104222 0.03433734 -0.038509876 0.058916688 -0.10374614 0.07073945
-0.11556264 -0.14813992 0.081202835 -0.041087776 0.029720575 -0.103061266 0.12379789 -0.12871736
0.16216058 0.10670483 -0.18832384 -0.02608909 -0.15244654 -0.09904283 -0.07582304 -0.08108766
0.086168155 -0.0351015 0.15766138 0.03979934 -0.09558626 -0.12358181 0.17809747 -0.15244114
-0.21216592 -0.17643109 -0.16775241 -0.14233394 -0.07639889 0.043933984 -0.16840185 0.053848207
-0.02304633 -0.14579141 0.03147584 0.16076602 -0.05806391 -0.01767257 0.066535294 -0.17012553
-0.15624243 0.0078043067 -0.054584585 0.09554608 -0.12676077 -0.19617647 -0.18325216 0.090430476
-0.2145386 0.12765671 0.026669845 0.2093361 -0.17429695 0.21574846 -0.049587946 -0.06751852
-0.10704759 0.20951886 0.15103425 0.15525594 0.019571997 -0.17397052 -0.06937442 0.06716258
0.15489888 -0.078813456 0.021843353 -0.1308671 0.00011679876 0.07669517 -0.08426103 0.07789454
-0.10319305 0.0041653686 0.17525163 0.026029015 -0.14195728 -0.03506845 -0.067058735 0.11996177
-0.088207036 0.015664658 0.1879777 -0.020867687 -0.1629362 -0.004793578 0.11039278 -0.1273087
0.0793486 -0.21090002 0.0018670491 0.075902134 -0.12420497 0.059374917 -0.11364481 -0.12625661
-0.09389578 0.13074578 -0.09932567 0.14821544 -0.16782066 -0.016246378 0.04906971 0.087818734
0.06353606 0.14844249 0.047351338 -0.1916315 -0.10305063 -0.18313545 -0.010954629 0.06437841
-0.07076719 -0.05317649 0.21142524 0.09962517 -0.17500457 0.025083156 0.13384555 -0.08326844
-0.189154 -0.152258 -0.074791245 0.21072009 -0.032404084 -0.096746825 0.08615625 -0.13440213
0.19662723 0.13266179 -0.06955956 0.014919455 -0.14447641 0.14192939 0.013302656 0.16183421
0.095253564 0.092061274 0.14468557 0.21534221 0.058576167 0.1751244 -0.17101215 -0.17465198
0.08152764 0.09967846 0.20001549 0.11802725 0.1747182 -0.17816493 -0.1468769 -0.016350662
0.13926986 0.16335271 -0.1302049 -0.11548541 -0.13583413 -0.18732618 0.07887923 0.028722344
-0.062042303 0.15048237 -0.012056816 0.07513941 -0.17942181 -0.15137151 -0.07659805 -0.022721251

branch_p.fc3.bias f4 [10]
00000000: cdf4 063c 881e 43be a0a4 12be d1f4 28bd
00000010: 3f03 f83d 2f8f e63d 8f97 d0bd 2e25 443e
00000020: 4f33 f83d fb01 453e
0.008237076 -0.19054615 -0.14320612 -0.0412491 0.12109994 0.11257779 -0.101851575 0.19154808
0.12119161 0.19239037

branch_h.fc1.weight f4 [30, 10]
00000000: b0ee 7a3e 2f82 34be a3d8 b8bd 785b 973e
00000010: f9c9 96be a4a2 853e b578 02be 651c b3bd
00000020: 8179 07bd 3e34 0ebe 2641 7c3e e83f ad3d
00000030: a3ec 98bd 1a2f e0bd d1fb 963e 9dc2 c6bd
00000040: 0bff 2d3e 698e c0bd d469 a33d 3d52 863e
00000050: 13fb b2ba a1d7 2cbd f234 693e d7f1 873e
00000060: 6117 fcbc a020 07be d329 853e 2003 1dbe
00000070: b7d5 28be fceb 5abe 8bb4 57be f81f 82bd
00000080: bbb3 86be f1ec 67be 3d01 7dbe 1557 883e
00000090: dbd3 83be 1d62 09b5 6d0b 32be 0724 50bd
000000a0: 7818 98be d817 403e f884 9fbd 7164 00be
000000b0: 32db 283d e4d1 ddbd d5d5 85bb dcb7 c3bd
000000c0: 33a6 f23d 181b 813e 37f7 943e 0123 5c3e
000000d0: 9af1 79be 1064 663e 199a 843d 7abb 293d
000000e0: bec6 53be 29a0 85bc 2a02 9cbe c06f 6fbe
000000f0: 483e 9bbe 56a5 623d 13fc 3c3e 048e 9c3e
00000100: 6ef4 0cbe 6cc0 f4bd 4a96 89be acb8 873d
00000110: 9db7 f93d 52f5 973e 52f6 343e 7854 cbbd
00000120: 078f 01be 4af7 013e b6d9 60be 3fdc d0bd
00000130: a97a 2b3e e280 883e ce5b 5c3e 77cb 83bd
00000140: 1796 9fbd 8534 913e 2049 46be d4fe eebd
00000150: ee8e 623e a642 fc3d fccd d2bd 21ea 6c3e
00000160: be3f 57be 6286 15be 7e41 963a 3eb2 3a3d
00000170: 9cf4 ebbd df0c 3bbe d57f 9e3e 5878 a0bd
00000180: 69ae 833d eaad d03d fc5e 533e 0c77 983c
00000190: 4166 4f3e 8e9d 01be 3851 55be 86a3 e43d
000001a0: eb67 733e 974e 7d3e 1fba 96be 3a62 8dbe
000001b0: a75b b5bd 989e f83d 2a07 083d a191 debd
000001c0: 721e 2e3d 05b1 f43d 266d d3bd 17cf 643e
000001d0: cab1 553e ab42 cebd 361d a53b 9a5f 5fbd
000001e0: ab10 9d3b 6504 413c b9a2 a33d c191 23bd
000001f0: 5fff 8dbc 28de 193e 95a7 713e d610 4e3e
00000200: 6090 223e cb56 11be 65b1 953e 895d 503e
00000210: e73e 9ebe a503 f0bd ebf0 9ebd b213 833e
00000220: 480f 923e 61fe 6e3d be91 8bbe 1daa 02be
00000230: 6634 d23c 3291 d23d eb05 9f3e 842c bf3d
00000240: 3957 423e 250f 60be 8e47 6dbe b8b7 f23d
00000250: f644 a1be 8455 6b3b e73f 8e3b a32d 243e
00000260: 2977 0cbe acbd 83be a65b 3bbd 4204 753e
00000270: f4d2 7ebc 743b 613e b8e5 ff3b 582b 50be
00000280: 510a 803d e6c2 113e ece7 10bc ae35 43bd
00000290: e421 8e3e 94a3 1a3e fe6e 6bbd 5d20 c03d
000002a0: 1d5b 26be 810c ec3c fd62 14be fbb0 4abd
000002b0: 507b 2ebc 0c67 7f3d 8f26 56bd 86d0 9cbe
000002c0: 657e e13d cd09 213c 90a7 7dbe ba39 ca3c
000002d0: 8d3d 4ebe 9432 803e e4ec 5fbe 2b69 5b3e
000002e0: 55a9 023e 73cd 593d 51f8 93be 31d9 d2bc
000002f0: 0c69 b4bd b337 babd 1793 8c3e 75b6 ccbd
00000300: bf03 85bd ff4b 93be bc26 b53b 814f 3fbe
00000310: bdce e5bd a779 a13b cd4e 51be 4785 86be
00000320: e203 b73d e33b 38be 9e98 833e ff09 a63d
00000330: 2ac1 9d3e 0288 66be d8bb b03d 1502 aabd
00000340: 6649 a43d a87c e23c b885 25be a9e4 9e3e
00000350: 216f 80bd 54f3 7abe 2044 5c3e a19c 36be
00000360: b4d2 91be 25f3 7e3e 1485 02bc 2403 fb3d
00000370: 1968 813c 988e b43d 3945 633d 448a 13be
00000380: 0e89 583e 824f 203e 5dda 043e 8eec 933e
00000390: 1763 943d 3491 2e3e b729 423e 7482 fabd
000003a0: 752a 113c 5a41 9abe 2488 5e3e f432 303e
000003b0: 9f9b 68be 5058 a73d bdc4 773e 933b 50be
000003c0: eccb cb3c e3e5 6e3e 21b7 073e b0ad 833e
000003d0: 47f8 97bd 6e92 e2bd 56e7 f3bd 901b 583e
000003e0: f83b 04be c6c5 3ebc 2513 51be 1758 8fbe
000003f0: 09a7 a33d eafb 59be 2f38 5ebe 9a97 09bc
0.24505115 -0.17627786 -0.09025695 0.29561973 -0.29450968 0.26100647 -0.12741359 -0.0874565
-0.03307486 -0.13887116 0.24634227 0.08459455 -0.0746701 -0.10946484 0.29488996 -0.09705088
0.16991822 -0.094021626 0.079791695 0.26234618 -0.0013655148 -0.042197827 0.22774103 0.26551697
-0.030772867 -0.13196039 0.26008472 -0.15333223 -0.16487776 -0.21379083 -0.21064965 -0.06353754
-0.26308998 -0.2264898 -0.24707504 0.26628938 -0.2574757 -5.117925e-07 -0.17387171 -0.05081561
-0.29706168 0.18759096 -0.07789034 -0.12538315 0.041224666 -0.10831049 -0.0040843287 -0.09556553
0.11848106 0.25215983 0.2909486 0.21497728 -0.2440857 0.22499108 0.06474704 0.041438557
-0.20681283 -0.016311722 -0.304704 -0.23382473 -0.30320954 0.055333458 0.18455534 0.305771
-0.13765118 -0.11950764 -0.26872474 0.0662702 0.121932246 0.29679352 0.17672089 -0.099282205
-0.12652217 0.1269199 -0.2195805 -0.101982586 0.1674601 0.2666083 0.21519396 -0.06435292
-0.07792299 0.28360382 -0.19363832 -0.11669698 0.22124836 0.123174 -0.10293195 0.23136188
-0.2102041 -0.14602044 0.001146361 0.04558014 -0.11521265 -0.18266629 0.30956903 -0.07835454
0.064297505 0.101894215 0.20641702 0.018611453 0.2025385 -0.12657759 -0.20831764 0.11164002
0.2377011 0.24737011 -0.29438874 -0.27614003 -0.08855372 0.12139624 0.033209957 -0.1086762
0.042509504 0.11947826 -0.10323553 0.22344624 0.20868602 -0.1007131 0.0050388826 -0.054534532
0.0047932467 0.011780833 0.07990021 -0.039933924 -0.017333684 0.15026152 0.23599084 0.2012361
0.15875387 -0.14193265 0.29236904 0.20348181 -0.30907366 -0.11719445 -0.07760795 0.25600964
0.28527284 0.058348063 -0.2725963 -0.12760206 0.025659751 0.102816 0.31059203 0.093346626
0.18978585 -0.21880777 -0.23171827 0.11851448 -0.31497926 0.0035909126 0.004341114 0.16033034
-0.13717331 -0.25730646 -0.0457417 0.23927405 -0.015553225 0.21995336 0.007809367 -0.20329034
0.06251968 0.14234504 -0.008844357 -0.047658615 0.27760231 0.15101463 -0.057478897 0.09381173
-0.16245694 0.028814556 -0.14490886 -0.049485188 -0.010649517 0.062354133 -0.052282866 -0.3062784
0.11010436 0.009828997 -0.24770951 0.02468573 -0.20140667 0.25038588 -0.2186771 0.21426837
0.12759908 0.053174447 -0.28900388 -0.02573833 -0.088090986 -0.09092655 0.2745597 -0.099957384
-0.06494855 -0.28768918 0.005528299 -0.18682672 -0.11221073 0.004927832 -0.20440216 -0.26273558
0.089362875 -0.17991595 0.25702375 0.08107375 0.30811435 -0.2251282 0.08629578 -0.08301178
0.08021812 0.027647331 -0.16164291 0.3103383 -0.06271196 -0.24506885 0.21510363 -0.17833187
-0.28481066 0.2489744 -0.007966299 0.122564584 0.015796708 0.0881626 0.055485938 -0.14408213
0.21146032 0.1565533 0.12973924 0.28891414 0.072454624 0.17047578 0.18961225 -0.12231913
0.00886022 -0.30127984 0.21731621 0.17206937 -0.22715615 0.08171141 0.24196143 -0.20335226
0.024877511 0.23329882 0.13253452 0.2571845 -0.07420402 -0.110630855 -0.11909358 0.21104264
-0.12913501 -0.011643833 -0.2041746 -0.27996895 0.07990844 -0.21287504 -0.2170112 -0.008397961

branch_h.fc1.bias f4 [30]
00000000: b8c9 883d 11fc 29bb b6d0 553e 0969 1fbe
00000010: a7c7 7e3e dbba a0be 6a01 5f3e 1d0f 4b3e
00000020: 982b 30bd b77a 9a3e 2f25 8b3b 80a1 cbbd
00000030: 40d5 0f3e 7e72 5fbe 55ff 8c3d 70e9 9c3e
00000040: fae3 f13c 800b 913c 8981 933e 4f9a 403e
00000050: 01d1 8c3e 8311 973d 70a6 803d a28d 073e
00000060: d5a3 93be 5c43 1a3e f3c9 823d c218 a0bd
00000070: 1fb6 4cbe 7bc4 e2bd
0.066791 -0.0025937597 0.20880398 -0.15567411 0.24880849 -0.3139256 0.21777883 0.19829984
-0.043010324 0.3017175 0.004246376 -0.09942913 0.14046192 -0.21821019 0.06884638 0.3064685
0.029527653 0.017705679 0.28809765 0.18808864 0.27503207 0.07376387 0.062817454 0.13237622
-0.2883593 0.15064758 0.06386175 -0.07817222 -0.19991349 -0.11072632
