d2calcbot/main/calc_bot/models/dota_model_ver99.pth (torch, 426110 bytes, 21 tensors)

branch_t.fc1.weight f4 [128, 35]
-0.13726074 -0.008165642 0.16305645 0.1411632 -0.00060649094 0.14530556 0.086044736 0.06444669
0.050851494 0.05108721 0.047562476 -0.0242127 -0.037236772 -0.12401056 0.016696993 -0.0059880214
0.0759461 0.06081919 0.09967354 -0.022017542 -0.11701453 -0.06808739 -0.07753984 0.108339384
0.09998515 -0.039968282 -0.16666572 -0.028270349 0.08525943 0.10161113 0.09070999 -0.042259175
0.017200422 0.15618394 0.16903095 -0.024879305 -0.010761795 0.14463043 -0.08124099 -0.10576189
-0.059293147 0.079206 -0.032657824 -0.16373038 0.04078145 -0.02978858 -0.013585109 -0.097398676
0.078949556 0.05964207 -0.14584917 0.16509885 0.14095667 0.025753003 0.032254197 0.0955867
0.16205312 0.036322247 0.041003264 -0.11076591 0.03520121 0.06616044 -0.0068350486 0.09631867
-0.08328848 0.017579308 0.16494687 -0.099687494 -0.121669374 -0.12640351 0.14427571 0.030302275
0.14049509 0.14229827 -0.11086702 -0.10433497 -0.13683724 -0.0427019 0.074837446 -0.08679853
0.05405084 0.05282593 0.12717319 -0.09081905 0.12570177 -0.15585735 -0.0780578 -0.12077055
-0.16662143 -0.1413313 -0.15151104 0.12513651 0.09897852 -0.10896957 -0.07414029 0.16037257
-0.07237812 -0.014753356 0.15737274 0.122934036 -0.08537437 0.005388617 -0.07779042 0.06219993
-0.11357732 0.02679457 -0.026521808 -0.056372244 -0.10752647 0.03320009 0.08463021 0.075514436
0.017523848 -0.11147947 -0.050778285 0.10198578 -0.1286999 0.06826532 -0.09950631 0.15834528
-0.028981455 0.14625041 0.16391812 0.002775618 -0.084571786 -0.056262627 -0.15698084 0.13845351
0.15649153 -0.07318565 -0.0680899 0.15140331 0.055118494 0.08518138 0.036249638 -0.032964602
-0.13774155 -0.008152323 0.006782614 -0.042680103 0.06141144 0.13025151 -0.07510042 -0.12657712
0.11102027 0.022424595 0.12765521 0.008610869 0.09695102 0.105237834 0.13441612 -0.083531134
0.14211741 -0.1429739 -0.09474973 0.028393934 -0.115374565 -0.12648527 -0.018302912 0.05316238
-0.13742448 0.08608962 -0.026501684 -0.02837702 0.046505965 -0.13832337 0.14362352 -0.006712216
0.06492308 -0.13351458 -0.15960194 0.0052205557 0.0672039 -0.039506577 -0.15956862 0.029386604
0.017587617 -0.036832765 0.15095714 -0.03598706 0.12610011 -0.010921406 -0.033266515 -0.0089301085
0.08852382 0.068576664 0.08405085 0.14873073 -0.0008772075 -0.16785794 -0.09764714 -0.046557333
0.059927937 0.15458742 0.07507465 0.08072661 -0.051695526 -0.035256512 0.039819654 0.055636
-0.06166424 0.060299467 0.114694394 0.092777565 0.04493097 -0.12052213 -0.14249782 0.15641019
-0.1442938 -0.10513792 0.02543607 -0.032639235 -0.067888945 0.037857044 0.13533917 0.16738471
0.11480639 -0.061250683 0.027894316 0.1089251 0.16419458 -0.1719749 0.06107384 0.008746738
0.054512665 -0.063969806 -0.12681966 -0.14464495 0.12508251 0.13404489 -0.011091036 -0.027203066
0.01476687 0.09116969 -0.05186039 -0.0030895818 0.053079702 -0.071485005 -0.12029374 -0.15727437
-0.15441878 0.15457578 0.008332486 -0.028429402 0.022062587 -0.110157974 -0.056530844 0.15134315
-0.14642844 -0.059795197 -0.082249336 -0.13925974 0.07248454 -0.0739339 0.12906134 -0.09360882
00000000: 148e 0cbe 2fc9 05bc 45f8 263e 168d 103e
00000010: ebfc 1eba fbca 143e 3938 b03d a0fc 833d
00000020: a849 503d d340 513d dfd0 423d b659 c6bc
00000030: 9685 18bd 40f9 fdbd 22c8 883c 2a37 c4bb
00000040: a189 9b3d 8b1d 793d a421 cc3d 225e b4bc
00000050: 50a5 efbd 6771 8bbd 35cd 9ebd 0ae1 dd3d
00000060: 04c5 cc3d c8b5 23bd 6baa 2abe 3897 e7bc
00000070: 7f9c ae3d 7f19 d03d 29c6 b93d f517 2dbd
00000080: e6e7 8c3c afee 1f3e 7316 2d3e afcf cbbc
00000090: 3d52 30bc 001a 143e ad61 a6bd b199 d8bd
000000a0: 5fdd 72bd c136 a23d 36c4 05bd f0a8 27be
000000b0: 730a 273d 2e07 f4bc 1494 5ebc f578 c7bd
000000c0: 4eb0 a13d 3e4b 743d 7c59 15be ac0f 293e
000000d0: f256 103e f6f7 d23c fa1c 043d f6c2 c33d
000000e0: 41f1 253e a3c6 143d 0af3 273d 3dd9 e2bd
000000f0: 252f 103d 207f 873d 8bf8 dfbb b942 c53d
00000100: 2793 aabd 7b02 903c d5e7 283e f528 ccbd
00000110: cb2d f9bd ec6f 01be 03bd 133e 7a3c f83c
00000120: f2dd 0f3e a3b6 113e 400e e3bd 93ad d5bd
00000130: 101f 0cbe 30e8 2ebd 6044 993d 6dc3 b1bd
00000140: 6a64 5d3d 0160 583d b039 023e 57ff b9bd
00000150: f7b7 003e 1299 1fbe c5dc 9fbd 8d56 f7bd
00000160: cf9e 2abe 27b9 10be b625 1bbe c923 003e
00000170: 40b5 ca3d 702b dfbd ddd6 97bd b538 243e
00000180: fb3a 94bd 0fb8 71bc 5226 213e d7c4 fb3d
00000190: c2d8 aebd ff92 b03b 9550 9fbd 5bc5 7e3d
000001a0: 3a9b e8bd 4980 db3c 4344 d9bc 95e6 66bd
000001b0: d736 dcbd d1fc 073d 9b52 ad3d 50a7 9a3d
000001c0: 2c8e 8f3c 594f e4bd e4fc 4fbd ecdd d03d
000001d0: e8c9 03be b0ce 8b3d f7c9 cbbd 4425 223e
000001e0: 846a edbc abc2 153e 27da 273e 25e7 353b
000001f0: f933 adbd a473 66bd 96bf 20be c2c6 0d3e
00000200: 513f 203e 5ce2 95bd b872 8bbd 7809 1b3e
00000210: eec3 613d 9373 ae3d 807a 143d e405 07bd
00000220: 1f0c 0dbe 5291 05bc b140 de3b 55d1 2ebd
00000230: 908a 7b3d a760 053e 40ce 99bd 6f9d 01be
00000240: 985e e33d c9b3 b73c 0cb8 023e 9a14 0d3c
00000250: 428e c63d ef86 d73d 61a4 093e 5f12 abbd
00000260: 3a87 113e c067 12be 250c c2bd 659a e83c
00000270: 8049 ecbd 5b85 01be fdef 95bc ccc0 593d
00000280: 01b9 0cbe c14f b03d 0f1a d9bc ed76 e8bc
00000290: 0a7d 3e3d a4a4 0dbe 0b12 133e 26f2 dbbb
000002a0: 64f6 843d 0cb8 08be b16e 23be 3211 ab3b
000002b0: 33a2 893d a6d1 21bd f565 23be 2dbc f03c
000002c0: e813 903c f4dd 16bd 8294 1a3e 2b67 13bd
000002d0: 6320 013e b2ef 32bc 7842 08bd 974f 12bc
000002e0: fa4b b53d ec71 8c3d da22 ac3d de4c 183e
000002f0: 66f4 65ba f4e2 2bbe 39fb c7bd e7b2 3ebd
00000300: ff76 753d 2a4c 1e3e bdc0 993d fe53 a53d
00000310: b0be 53bd 2269 10bd ef19 233d 93e2 633d
00000320: a493 7cbd 93fc 763d e5e4 ea3d 2a02 be3d
00000330: 8909 383d 4ed4 f6bd f3ea 11be fe29 203e
00000340: c1c1 13be 8d52 d7bd 4e5f d03c b8b0 05bd
00000350: 5c09 8bbd fd0f 1b3d 5a96 0a3e e666 2b3e
00000360: 9d1f eb3d ffe1 7abd 9f82 e43c 1f14 df3d
00000370: a022 283e 301a 30be 9028 7a3d 7a4e 0f3c
00000380: ac48 5f3d 9a02 83bd 03dd 01be ce1d 14be
00000390: a115 003e 1043 093e 2db7 35bc f7d8 debc
000003a0: bef0 713c 2db7 ba3d 8f6b 54bd 957a 4abb
000003b0: 1a6a 593d bb66 92bd 905c f6bd 880c 21be
000003c0: f51f 1ebe 1d49 1e3e fb84 083c c7e4 e8bc
000003d0: 99bc b43c 819a e1bd e38c 67bd b3f9 1a3e
000003e0: 56f1 15be cfeb 74bd 5772 a8bd 1b9a 0ebe
000003f0: c672 943d a86a 97bd a828 043e fbb5 bfbd

branch_t.fc1.bias f4 [128]
0.16518472 0.088517375 -0.062002614 0.056143437 0.057406988 -0.108590916 -0.13365972 -0.043031786
0.0052341726 -0.021119535 -0.023395455 -0.14646798 -0.13559422 -0.098397344 0.09449465 0.027153552
-0.000811736 -0.068475656 0.046007156 0.16768044 -0.14632952 0.15570562 0.050202847 0.14630662
-0.13939936 0.13846499 -0.0058887335 -0.13727121 -0.04699998 -0.05154956 -0.1445624 0.017742936
0.009044552 0.16209172 0.066919185 0.15504326 0.16286036 -0.023956234 0.09491609 -0.16760105
0.14636694 0.108330056 0.16860367 -0.1656241 0.0051847547 -0.14419189 0.090252936 -0.14652385
-0.13622355 0.03419019 -0.14144959 -0.00044145493 0.058224138 -0.15387516 -0.13085614 0.12627858
-0.14063522 0.07446144 0.06793622 0.13508078 0.14562228 -0.020947676 -0.1665237 0.14335005
0.07149681 -0.15955926 0.12119843 0.0283458 0.0054716878 0.026198737 0.08875948 -0.06560756
0.005079929 -0.13085455 -0.11334829 -0.07746398 0.15748133 0.16560721 0.10151674 0.06723545
-0.0431941 -0.15950838 0.10164855 -0.103583165 -0.06508023 0.10797392 -0.10292118 -0.14981517
-0.14889853 -0.13959028 -0.0530508 0.057736572 -0.047664646 0.10085981 0.14321576 -0.11134867
0.07505166 0.08877802 0.0686095 -0.10537051 -0.083240725 -0.12603098 0.14255244 -0.07849845
0.14739464 0.0038779415 -0.07587701 -0.099248685 -0.10421383 -0.10251628 0.123040676 -0.0031240713
-0.038502727 0.06752222 0.12161933 0.16480587 0.05164874 -0.04976509 -0.1596934 0.11491153
-0.07936095 -0.07483844 0.15334016 0.15726376 0.12579082 -0.08217715 0.057692736 -0.017907163
00000000: 2f26 293e 9948 b53d 74f6 7dbd a9f6 653d
00000010: 9723 6b3d ea64 debd 18de 08be 1942 30bd
00000020: 6c83 ab3b e002 adbc d3a7 bfbc b4fb 15be
00000030: 36d9 0abe 8c84 c9bd 6986 c13d 2071 de3c
00000040: aeca 54ba f73c 8cbd 0072 3c3d 6cb4 2b3e
00000050: 68d7 15be 4b71 1f3e 80a1 4d3d 67d1 153e
00000060: b5be 0ebe c4c9 0d3e 47f6 c0bb d390 0cbe
00000070: 0d83 40bd a225 53bd 2a08 14be a259 913c
00000080: 9a2f 143c 5ffb 253e ed0c 893d a9c3 1e3e
00000090: dec4 263e dd3f c4bc 5e63 c23d 9c9f 2bbe
000000a0: 37e1 153e 26dc dd3d 71a6 2c3e 5d99 29be
000000b0: e0e4 a93b 0aa7 13be 88d6 b83d 590a 16be
000000c0: 307e 0bbe 030b 0c3d 29d8 10be 1473 e7b9
000000d0: 6f7c 6e3d 7391 1dbe 27ff 05be 2c4f 013e
000000e0: ae02 10be 3d7f 983d 2522 8b3d 9e52 0a3e
000000f0: 021e 153e 769a abbc 3085 2abe 5bca 123e
00000100: eb6c 923d 8163 23be e236 f83d 7335 e83c
00000110: d84b b33b bc9e d63c 88c7 b53d 425d 86bd
00000120: 8875 a63b bcfe 05be 2623 e8bd 6fa5 9ebd
00000130: c942 213e f094 293e 02e8 cf3d bdb2 893d
00000140: 4cec 30bd 2a56 23be 1d2d d03d 6923 d4bd
00000150: c948 85bd 6e21 dd3d 57c8 d2bd 2669 19be
00000160: db78 18be c1f0 0ebe cc4b 59bd 2f7d 6c3d
00000170: 013c 43bd 978f ce3d 27a7 123e c60a e4bd
00000180: afb4 993d 40d1 b53d 2383 8c3d 7ecc d7bd
00000190: 1d7a aabd 440e 01be 44f9 113e ccc3 a0bd
000001a0: 9fee 163e 1025 7e3b 6865 9bbd e542 cbbd
000001b0: 0f6e d5bd 0ef4 d1bd c0fc fb3d 38bd 4cbb
000001c0: 09b5 1dbd 1749 8a3d 8e13 f93d dfc2 283e
000001d0: a18d 533d 7bd6 4bbd ab86 23be bc56 eb3d
000001e0: fe87 a2bd e544 99bd 3405 1d3e c009 213e
000001f0: 4fcf 003e 7e4c a8bd 384f 6c3d 0bb2 92bc

branch_t.fc2.weight f4 [64, 128]
-0.030940212 0.031189889 0.062372543 0.01257842 -0.035186063 -0.022473343 -0.08288552 0.060107626
-0.010550842 -0.081648864 0.04444083 0.05396212 -0.08569308 0.0047079995 0.05456514 -0.041763965
-0.04906539 0.05817429 -0.038863175 0.036441095 0.07648044 0.031095073 -0.0030639917 -0.083213516
0.027624205 -0.015555546 -0.07709251 0.056540586 0.04426246 -0.04328266 -0.02377376 0.00047127903
-0.00383766 0.010351658 0.010399468 0.023598164 0.02884581 -0.0356281 0.041722007 -0.025283441
0.06366395 0.086395405 -0.06705822 0.01647383 0.031108133 -0.056097854 0.013259359 -0.06670597
-0.05442723 -0.0064643994 -0.05266219 -0.021003105 0.006767407 0.01673016 0.014681563 0.078877114
-0.07892333 -0.017628223 0.062305026 -0.050395988 -0.08484305 -0.03311342 -0.037296105 -0.013500743
-0.0034919828 -0.0025546923 -0.07257695 0.08137249 -0.054661553 -0.011434533 0.07975226 -0.077611744
-0.028813671 -0.04787846 0.05335345 0.006419927 -0.026330706 -0.0067630336 -0.04470455 -0.052343328
-0.0062404275 -0.047759827 0.007872634 0.049716063 -0.018955663 -0.022776313 -0.078512885 0.038668327
-0.08082447 -0.063664466 0.071039446 0.027362637 0.07473623 0.0248195 0.016889408 -0.011618771
-0.07636623 -0.050186653 -0.037692823 0.030920476 -0.066372015 0.03537137 -0.06355263 -0.086564176
-0.05442709 -0.013592772 -0.065697685 0.051480614 -0.08596409 -0.051134672 -0.044924103 0.0379942
0.026621886 0.0643098 -0.05872397 0.050925978 0.013697684 -0.084239125 0.08043451 -0.06754226
0.0767493 -0.025200114 -0.046921052 0.083210714 -0.041798748 0.0016667396 0.02814933 0.06909873
0.084178664 0.023754276 0.0014708713 0.06977833 0.07767179 0.07128324 0.08003255 0.059215494
-0.043959614 0.005645044 0.029005237 0.028581098 -0.07147248 0.053018577 -0.02988812 -0.057885617
0.027336106 -0.0487273 -0.07241707 -0.08288753 -0.07251079 0.029732138 -0.08185219 -0.022646569
0.0024370924 0.0041845366 -0.07100476 0.053652026 -0.049846508 0.0554535 0.010686196 -0.0478121
-0.01775536 0.042104 0.072747804 -0.05725819 -0.01164595 -0.014636032 -0.011207648 0.06005021
-0.05092865 -0.07129192 -0.035654526 0.002698712 -0.06091208 0.0500103 -0.042633854 -0.011394337
0.060137086 -0.0146658495 -0.076967 -0.049863555 -0.01906152 0.0012049973 0.05866187 0.050266393
-0.04010773 0.020755574 -0.012152173 -0.05872222 -0.056860704 0.02174218 0.0012033433 0.012862526
-0.05965311 0.06681987 0.003223084 0.0070332363 -0.0026737452 0.018019192 0.00868836 0.065588005
-0.077715635 0.06690032 0.020945497 0.0019084215 -0.011439718 -0.04685127 -0.023212627 -0.042820144
-0.01822535 0.01167085 -0.034768432 0.03031072 0.06912423 -0.07227343 0.08825522 -0.06853099
-0.05386949 0.033633374 0.028345577 0.070040815 -0.027430877 0.060607158 0.08644382 -0.010058671
0.012028173 -0.051730882 -0.08349896 0.03243959 0.059292696 -0.04017133 -0.04924584 -0.055810634
-0.02555804 -0.06519033 0.01525829 -0.0022117645 0.00994885 -0.07509503 0.03663691 -0.03870988
0.03407208 0.030601762 -0.045089487 -0.0042892545 0.01667761 -0.016319156 -0.010192037 -0.006535262
-0.01948893 0.038029052 0.027303107 -0.042272486 0.07083125 0.020448498 -0.06423792 0.07584291
00000000: 5476 fdbc f081 ff3c 5a7a 7f3d b815 4e3c
00000010: 431f 10bd 041a b8bc e2bf a9bd 6a33 763d
00000020: 70dd 2cbc 8537 a7bd 9607 363d 6207 5d3d
00000030: db7f afbd 9045 9a3b b27f 5f3d b110 2bbd
00000040: caf8 48bd 2a48 6e3d fe2e 1fbd 4243 153d
00000050: c7a1 9c3d 18bb fe3c 40cd 48bb d96b aabd
00000060: 284c e23c b0dc 7ebc aee2 9dbd 1a97 673d
00000070: 8e4c 353d 2949 31bd 30c1 c2bc 0016 f739
00000080: 4081 7bbb 009a 293c 8862 2a3c f050 c13c
00000090: 0c4e ec3c c5ee 11bd b2e4 2a3d 381f cfbc
000000a0: 3f62 823d 13f0 b03d d255 89bd 20f4 863c
000000b0: 7cd6 fe3c ddc6 65bd c83d 593c 249d 88bd
000000c0: 16ef 5ebd 50d3 d3bb 4fb4 57bd b40e acbc
000000d0: 20c1 dd3b b00d 893c f08a 703c 538a a13d
000000e0: 8ea2 a1bd 1069 90bc 8e33 7f3d 066c 4ebd
000000f0: 31c2 adbd f0a1 07bd cdc3 18bd 3832 5dbc
00000100: c0d9 64bb a06c 27bb 39a3 94bd 9fa6 a63d
00000110: cbe4 5fbd e857 3bbc 2755 a33d e8f2 9ebd
00000120: a60a ecbc 341c 44bd 2689 5a3d 405e d23b
00000130: 7eb3 d7bc 709c ddbb 1e1c 37bd f565 56bd
00000140: 807c ccbb cf9f 43bd 38fc 003c 12a3 4b3d
00000150: e848 9bbc 6495 babc 5dcb a0bd ae62 1e3d
00000160: 4d87 a5bd 8462 82bd 217d 913d 9c27 e03c
00000170: 4f0f 993d 4452 cb3c a85b 8a3c a85c 3ebc
00000180: e665 9cbd 8590 4dbd ca63 1abd f04c fd3c
00000190: 0dee 87bd 92e1 103d e227 82bd 8f48 b1bd
000001a0: f1ee 5ebd 38b4 5ebc 828c 86bd 56dd 523d
000001b0: f10d b0bd 9772 51bd 5602 38bd ce9f 1b3d
000001c0: 2416 da3c dbb4 833d 8c88 70bd c297 503d
000001d0: 406c 603c 9085 acbd d9ba a43d 9953 8abd
000001e0: bd2e 9d3d 7870 cebc 4a30 40bd 616a aa3d
000001f0: 2a35 2bbd 8076 da3a 6c99 e63c a383 8d3d
00000200: dd65 ac3d 5498 c23c 40ca c03a f1e7 8e3d
00000210: 6312 9f3d f3fc 913d 1be8 a33d f28b 723d
00000220: ff0e 34bd 10fa b83b 649c ed3c e822 ea3c
00000230: 2a60 92bd 022a 593d eed7 f4bc 7819 6dbd
00000240: f8ef df3c 4796 47bd 674f 94bd f0c0 a9bd
00000250: 8980 94bd d090 f33c 1fa2 a7bd 4c85 b9bc
00000260: a0b7 1f3b 701e 893b f26a 91bd 3ac2 5b3d
00000270: da2b 4cbd 3623 633d 2815 2f3c 9fd6 43bd
00000280: b073 91bc 3e75 2c3d cdfc 943d 9087 6abd
00000290: a8ce 3ebc f8cb 6fbc 48a0 37bc 36f7 753d
000002a0: 8f9a 50bd 8001 92bd 7b0a 12bd e0dc 303b
000002b0: f27e 79bd 9ad7 4c3d d6a0 2ebd 50af 3abc
000002c0: 4e52 763d 0849 70bc e0a0 9dbd ba3d 4cbd
000002d0: e826 9cbc 00f1 9d3a 6e47 703d 22e4 4d3d
000002e0: 0148 24bd 9807 aa3c e819 47bc b686 70bd
000002f0: c5e6 68bd a81c b23c 80b9 9d3a 58bd 523c
00000300: d256 74bd dbd8 883d 603a 533b 1077 e63b
00000310: 003a 2fbb fc9c 933c a059 0e3c 0153 863d
00000320: 6029 9fbd 0903 893d e495 ab3c 0024 fa3a
00000330: a86d 3bbc 1ee7 3fbd 6828 bebc 2d64 2fbd
00000340: 544d 95bc 1837 3f3c 5869 0ebd 304e f83c
00000350: 0191 8d3d 1804 94bd 27bf b43d fa59 8cbd
00000360: 41a6 5cbd 26c3 093d fc34 e83c 8f71 8f3d
00000370: b8b6 e0bc 363f 783d 7509 b13d 20cd 24bc
00000380: d011 453c c3e3 53bd 8101 abbd 60df 043d
00000390: e6dc 723d b18a 24bd 02b6 49bd b199 64bd
000003a0: 185f d1bc 8282 85bd e8fd 793c 40f3 10bb
000003b0: 8000 233c 6ccb 99bd 9610 163d 408e 1ebd
000003c0: 2a8f 0b3d 8cb0 fa3c c1af 38bd e08c 8cbb
000003d0: 7c9f 883c c0af 85bc 80fc 26bc c025 d6bb
000003e0: 40a7 9fbc 5ac4 1b3d c4aa df3c ea25 2dbd
000003f0: f90f 913d 9c83 a73c 2c8f 83bd 8753 9b3d

branch_t.fc2.bias f4 [64]
-0.07802724 -0.060276717 0.067707166 0.051469747 -0.017641522 0.07277682 0.077450775 0.030890398
0.007727727 -0.023202565 -0.018730868 0.042366393 -0.0048377663 -0.06488492 0.04763522 0.012299217
-0.034836885 0.043884598 0.07112672 0.023527168 0.024890011 0.08719288 -0.00032132881 -0.04463037
0.07780987 -0.087852806 -0.0076269363 0.058033705 0.009512976 0.03154129 0.07214 0.021356445
0.001206778 0.04024124 0.03617818 -0.04068372 0.0058473377 -0.051400833 0.084901646 0.038730457
0.0026691558 0.08157168 -0.009724036 0.07772106 0.008714101 0.0084899105 -0.037565347 0.07232045
-0.017979471 -0.039019626 -0.07161213 0.04194637 0.022531874 -0.06007585 -0.05993501 0.049239896
0.022222325 -0.06459653 -0.010080825 0.023116158 0.0415337 0.0471421 -0.049141373 -0.009035874
00000000: bfcc 9fbd b8e4 76bd 0eaa 8a3d f1d1 523d
00000010: f484 90bc 030c 953d 839e 9e3d dc0d fd3c
00000020: df38 fd3b 4e13 bebc 7a71 99bc 6288 2d3d
00000030: 2086 9ebb 63e2 84bd 261d 433d a882 493c
00000040: 1fb1 0ebd 56c0 333d e3aa 913d 0cbc c03c
00000050: 23e6 cb3c 2e92 b23d 0678 a8b9 56ce 36bd
00000060: c85a 9f3d 2cec b3bd 61eb f9bb c0b4 6d3d
00000070: 50dc 1b3c 7131 013d 23be 933d b6f3 ae3c
00000080: c02c 9e3a 00d4 243d 922f 143d f9a3 26bd
00000090: 069b bf3b ae89 52bd eae0 ad3d d4a3 1e3d
000000a0: 01ed 2e3b 0e0f a73d 9051 1fbc 382c 9f3d
000000b0: 97c5 0e3c 4419 0b3c 1fde 19bd be1c 943d
000000c0: af49 93bc 0bd3 1fbd 61a9 92bd f5cf 2b3d
000000d0: c494 b83c 1812 76bd 6a7e 75bd c6af 493d
000000e0: 980b b63c 2f4b 84bd 0b2a 25bc 195e bd3c
000000f0: 3e1f 2a3d 1318 413d 7748 49bd 340b 14bc

branch_t.fc3.weight f4 [16, 64]
0.005954936 0.026717052 -0.09955907 -0.059222266 0.0046530217 -0.12464975 0.09974659 -0.05648759
-0.090812035 -0.012559926 -0.0053791967 -0.108967066 -0.027586319 -0.11181885 -0.046680443 0.06694716
0.041018635 -0.05332662 0.056515668 -0.10585086 -0.12051424 -0.03765601 0.015605822 0.005047828
-0.045900673 -0.09561 0.11748022 -0.104449466 -0.09815263 0.07075229 0.013049501 0.10208823
0.11277662 0.009710666 0.035684943 -0.11675173 0.101491384 0.04345272 -0.03814827 -0.055385727
-0.027037762 0.0646545 0.004334125 0.024094788 -0.046579942 -0.04456858 0.05554919 -0.037485648
-0.124818355 -0.101361364 0.10301885 -0.04449831 -0.085030675 -0.05971457 -0.024913803 0.05992095
-0.07699382 0.005271673 -0.05995895 0.10318144 0.08950873 0.09697872 0.03190337 0.106978536
0.101418525 0.009595826 -0.014863014 0.010760859 0.047680795 0.103881 -0.08867359 -0.03691621
-0.12242684 0.035974145 0.06465611 0.06689866 -0.07152188 0.06858052 0.08164132 -0.089875996
-0.045710623 0.021582425 0.07398561 -0.017329052 0.08112539 0.038580596 -0.021815434 0.01751627
0.107210234 0.03885509 -0.0981193 -0.06717539 -0.010020077 0.084019214 0.011871591 -0.06735486
-0.024082243 0.0059985965 -0.07891707 0.11349894 0.10487613 -0.11483517 -0.090072736 -0.074704826
0.031228632 0.0073327124 0.021429256 0.044924095 -0.12172119 -0.093401566 0.0059486628 -0.09334381
-0.014523447 0.043419182 -0.105776995 -0.083160535 -0.07232833 -0.068246245 -0.086208224 -0.103893876
0.043327615 0.013416335 -0.09173505 -0.046110004 0.03612815 0.08116047 0.06918955 0.07342081
-0.05215025 0.10220046 0.04459624 -0.0797218 0.121071845 0.10890049 0.01868393 0.1164794
-0.11553677 -0.014623535 0.010271719 -0.08291125 -0.08940377 0.006931618 0.07540316 0.05292073
0.030733697 -0.070317864 -0.09670632 0.054953113 -0.092323296 -0.08354586 -0.08966365 0.06808093
0.067237005 -0.08457864 0.094535224 -0.059088655 0.024122456 -0.028977364 0.04527885 -0.07998548
0.04382208 0.05665504 -0.005431894 -0.060038015 -0.104261786 -0.110644475 0.0906409 -0.10245167
0.012788038 -0.010379917 -0.042544737 0.011034315 0.07942647 0.042580623 -0.07820095 0.09337061
0.08468617 -0.048248515 0.030351726 -0.06478028 0.076770306 0.08968958 -0.09206508 0.06661613
-0.1039301 0.09754337 0.070972346 -0.010567524 0.034522757 -0.045906343 -0.09095615 0.043702867
0.07455906 -0.10692464 -0.062482763 -0.06254306 -0.035155848 0.011170939 0.029059973 -0.008727238
-0.007110796 0.067065194 0.04619658 -0.0011733214 -0.08270392 0.07117091 0.07745765 0.027051404
-0.008744955 0.015899286 0.115246184 -0.026710019 -0.01556188 -0.07922374 0.12391235 -0.0479811
-0.07028022 0.043979716 -0.07299316 -0.016287379 -0.033854492 0.031423323 0.07564829 0.11285524
0.11747752 0.09116507 0.053568967 -0.011506975 -0.010674706 0.104380846 0.076248586 -0.02413696
0.0773012 0.009561497 -0.059097964 0.020369446 -0.06744322 -0.0009425086 0.0637126 0.06431749
-0.056256983 0.044246227 -0.07034183 -0.10693557 0.1048715 -0.12210841 -0.118578866 0.043247465
0.041567788 0.03966488 -0.12351172 -0.07878969 0.09234436 0.008202545 -0.08439191 0.07317364
00000000: a021 c33b b8dd da3c a0e5 cbbd 0c93 72bd
00000010: 6078 983b 5e48 ffbd f147 cc3d 885f 67bd
00000020: a9fb b9bd 26c8 4dbc f943 b0bb 202a dfbd
00000030: b4fc e1bc 4801 e5bd fe33 3fbd 981b 893d
00000040: 2803 283d 046d 5abd f97c 673d 56c8 d8bd
00000050: 2bd0 f6bd 303d 1abd 90af 7f3c 4068 a53b
00000060: 5802 3cbd 2dcf c3bd 7899 f03d 9ae9 d5bd
00000070: 3f04 c9bd 94e6 903d 93cd 553c a213 d13d
00000080: 6ef7 e63d 7c19 1f3c 602a 123d 881b efbd
00000090: b7da cf3d 7bfb 313d 5c41 1cbd 25dc 62bd
000000a0: 4c7e ddbc 9469 843d 4705 8e3b 6f62 c53c
000000b0: 9cca 3ebd 8b8d 36bd 8c87 633d 8d8a 19bd
000000c0: c4a0 ffbd 8c96 cfbd 8cfb d23d dc43 36bd
000000d0: 9024 aebd 4497 74bd 0818 ccbc ac6f 753d
000000e0: f0ae 9dbd 00be ac3b 8497 75bd ca50 d33d
000000f0: 5a50 b73d c79c c63d 1cad 023d 9017 db3d
00000100: 84b4 cf3d d037 1d3c 0084 73bc 504e 303c
00000110: f04c 433d 90bf d43d 809a b5bd 7435 17bd
00000120: ecba fabd a059 133d 6c6a 843d 2a02 893d
00000130: 107a 92bd f273 8c3d 9033 a73d e810 b8bd
00000140: 103b 3bbd a0cd b03c c485 973d a8f5 8dbc
00000150: 1225 a63d b006 1e3d 48b6 b2bc 487e 8f3c
00000160: 0a91 db3d 8426 1f3d c6f2 c8bd 4093 89bd
00000170: 402b 24bc 4412 ac3d 1081 423c 58f1 89bd
00000180: 2048 c5bc e08f c43b 469f a1bd 2272 e83d
00000190: 4cc9 d63d b42e ebbd 0e78 b8bd d8fe 98bd
000001a0: 30d3 ff3c 4047 f03b 688c af3c 5402 383d
000001b0: f648 f9bd 5249 bfbd 00ed c23b 0a2b bfbd
000001c0: c0f3 6dbc 50d8 313d 9ca1 d8bd 1250 aabd
000001d0: e020 94bd b0c4 8bbd f08d b0bd 50c6 d4bd
000001e0: 4c78 313d 30d0 5b3c 96df bbbd d8dd 3cbd
000001f0: 1cfb 133d 7637 a63d 40b3 8d3d a65d 963d
00000200: 809b 55bd 7a4e d13d 8caa 363d 2f45 a3bd
00000210: 84f4 f73d 3807 df3d 0b0f 993c c08c ee3d
00000220: 8b9e ecbd 8d97 6fbc b64a 283c 60cd a9bd
00000230: 5319 b7bd a022 e33b f96c 9a3d 68c3 583d
00000240: 3cc5 fb3c d002 90bd f70d c6bd 8416 613d
00000250: ff13 bdbd 181a abbd 93a1 b7bd 046e 8b3d
00000260: 8eb3 893d 9137 adbd af9b c13d f206 72bd
00000270: 759c c53c f061 edbc 5176 393d 6dcf a3bd
00000280: c87e 333d 1d0f 683d 08fe b1bb 6cea 75bd
00000290: 3487 d5bd 9299 e2bd f0a1 b93d 2ed2 d1bd
000002a0: eb84 513c 8710 2abc 6443 2ebd 46c9 343c
000002b0: 58aa a23d 0569 2e3d d227 a0bd 1739 bf3d
000002c0: f16f ad3d 3ca0 45bd 2fa4 f83c 86ab 84bd
000002d0: c039 9d3d 2caf b73d 9e8c bcbd 0a6e 883d
000002e0: 4ed9 d4bd d2c4 c73d f359 913d 6823 2dbc
000002f0: bc67 0d3d 4a08 3cbd 3847 babd c701 333d
00000300: 6cb2 983d 4efb dabd eded 7fbd 9316 80bd
00000310: 94ff 0fbd 5006 373c 2e0f ee3c b0fc 0ebc
00000320: ae01 e9bb 7a59 893d a038 3d3d 22ca 99ba
00000330: ac60 a9bd 0ec2 913d 1ea2 9e3d e89a dd3c
00000340: 0047 0fbc 383f 823c 3106 ec3d f8ce dabc
00000350: 41f7 7ebc 0e40 a2bd c2c5 fd3d d487 44bd
00000360: 13ef 8fbd 1324 343d 707d 95bd 1c6d 85bc
00000370: 02ab 0abd beb5 003d 7eed 9a3d a620 e73d
00000380: 0e98 f03d c1b4 ba3d 226b 5b3d c087 3cbc
00000390: f6e4 2ebc a0c5 d53d 3828 9c3d e0ba c5bc
000003a0: 1750 9e3d d3a7 1c3c b510 72bd d3dd a63c
000003b0: ac1f 8abd ae12 77ba c07b 823d e3b8 833d
000003c0: b96d 66bd 883b 353d 610f 90bd 0901 dbbd
000003d0: dec6 d63d f913 fabd 7ad9 f2bd 4124 313d
000003e0: fc42 2a3d a477 223d b6f3 fcbd 7d5c a1bd
000003f0: 0a1f bd3d f863 063c aad5 acbd 10dc 953d

branch_t.fc3.bias f4 [16]
0.087024614 -0.022120789 -0.092852235 0.030220814 0.029071419 0.05941307 0.09517851 -2.7288243e-05
-0.015462357 0.020367317 0.07819529 -0.10095474 0.016797755 0.056273844 -0.12287987 -0.06506815
00000000: f639 b23d a836 b5bc 5029 bebd a491 f73c
00000010: 2f27 ee3c 1f5b 733d f3ec c23d 0ee9 e4b7
00000020: d355 7dbc 5cd9 a63c da24 a03d 5cc1 cebd
00000030: 729b 893c 677f 663d 71a8 fbbd 7342 85bd

branch_p.fc1.weight f4 [256, 34]
0.14178713 0.044160984 -0.017442586 -0.055725936 0.0035801872 -0.12271184 0.06303378 0.12817828
0.106757335 0.014902439 0.17126256 -0.110749885 -0.14249648 0.096666194 -0.13225424 0.10026266
-0.07206586 -0.088961825 0.022065297 0.1189759 -0.11484194 -0.023016518 0.1617533 0.13595779
-0.1168576 -0.06634986 -0.03381567 -0.13054834 -0.12439191 0.16796267 -0.055566013 -0.042152554
0.10532074 0.07465671 -0.0073109902 -0.16544594 -0.16492389 -0.084309556 -0.0015683965 0.0093133785
0.04263999 -0.08940623 0.10795839 0.039523788 0.0380026 -0.13200763 0.087389275 -0.1266704
-0.059098773 -0.020866666 -0.036855277 0.018829502 -0.096249856 0.107256785 0.08613751 -0.06067611
-0.057393085 0.0053326963 -0.073069416 -0.1175159 -0.07576434 -0.016636355 0.1469371 -0.09042728
0.16369382 0.1111241 0.07820416 0.05541222 0.002020812 -0.021678796 -0.0773255 -0.12253648
-0.09945853 0.15802327 -0.05626566 0.047686044 -0.016986668 -0.04828155 -0.066946015 0.046247315
0.025041116 -0.16058902 -0.048640177 0.083518475 -0.13530974 0.012115378 -0.041957688 -0.08400715
0.16200972 -0.10704253 -0.0957665 -0.06391363 0.08993647 -0.046291634 0.040825777 0.004103512
-0.12653714 -0.032551534 0.120807394 -0.15984198 -0.06823441 -0.14001338 0.039591983 0.028054327
-0.00076449534 -0.08050828 0.046934307 0.018421054 -0.14423461 0.029310709 -0.11806771 -0.14195651
0.15364385 0.09362041 0.16242099 0.05006413 0.10820468 -0.1408296 -0.12319778 0.021468207
0.09380805 -0.14628772 -0.15359946 0.08010445 0.1203582 -0.09379079 0.00092094764 -0.03914484
0.047031846 -0.12552407 -0.16526398 -0.114279725 0.034699377 0.02286425 0.124124154 0.010240888
0.016291844 -0.032599825 -0.119308434 0.15681793 -0.115725264 0.080570824 0.14218536 0.104344934
-0.13689375 -0.14136407 0.12521525 -0.077982925 -0.14342168 0.068849765 -0.07764428 0.062807605
0.15458761 -0.13413881 0.009319872 -0.16538146 0.04690635 -0.14460921 -0.1725157 0.096134104
-0.05973486 -0.1401189 0.04845064 -0.0763278 -0.04679928 -0.016915904 0.034770686 0.042424925
0.16055478 0.16239834 0.1610427 -0.08637548 -0.06181839 -0.13425486 -0.04367635 -0.16669011
0.1562098 0.007380583 0.14271167 0.14050335 -0.10071608 0.001015364 0.08118293 0.056496225
0.1475037 -0.012428506 0.16116725 -0.10501395 0.109262854 0.009932901 -0.084249884 0.017377788
0.056950454 -0.030911634 -0.1684613 0.066603586 0.104978666 0.11237456 0.048883095 0.015140154
-0.11600725 0.03971459 0.0014203963 -0.012659705 -0.08740732 -0.12340512 0.024446212 -0.030603435
-0.05707662 0.108613364 -0.016322277 -0.109794244 0.0056351474 0.108275235 0.043339644 0.14971566
-0.17075962 -0.008337144 0.05556153 0.11847415 0.09325907 -0.050687563 0.13793698 -6.3626125e-05
0.091869116 0.08214194 -0.07884417 -0.09428245 0.09286984 0.0052205403 -0.026910638 -0.089490056
0.11817323 -0.0013031064 0.15922126 -0.16534683 0.12473586 -0.0029569806 -0.10563169 0.018494453
0.09640359 0.14526388 -0.106520034 0.07837979 -0.1458229 -0.15622589 0.08594405 0.043369785
-0.10286098 0.07304143 0.1137965 -0.14456208 -0.06440674 0.1552115 0.16019796 -0.16819562
00000000: a530 113e 26e2 343d c1e3 8ebc e140 64bd
00000010: 93a1 6a3b 5850 fbbd db17 813d 2b41 033e
00000020: 97a3 da3d 5c29 743c 745f 2f3e d6d0 e2bd
00000030: 99ea 11be edf8 c53d a86d 07be 8256 cd3d
00000040: 4497 93bd 9e31 b6bd 48c2 b43c a3a9 f33d
00000050: 4032 ebbd 238d bcbc a8a2 253e 8538 0b3e
00000060: 0a53 efbd 6fe2 87bd 4d82 0abd 77ae 05be
00000070: 30c1 febd 68fe 2b3e 3099 63bd 28a8 2cbd
00000080: 66b2 d73d 9ee5 983d 0891 efbb a96a 29be
00000090: cfe1 28be 7daa acbd a792 cdba 2497 183c
000000a0: 45a7 2e3d 9d1a b7bd 4a19 dd3d b2e3 213d
000000b0: 9da8 1b3d 022d 07be 26f9 b23d e3b5 01be
000000c0: 8e11 72bd 92f0 aabc 8ff5 16bd 5440 9a3c
000000d0: a51e c5bd 72a9 db3d dd68 b03d 8387 78bd
000000e0: 0315 6bbd e6bd ae3b 6ba5 95bd 2dac f0bd
000000f0: 562a 9bbd f748 88bc ae76 163e f031 b9bd
00000100: 5a9f 273e 0895 e33d 8129 a03d edf7 623d
00000110: 996f 043b bb97 b1bc d55c 9ebd 68f4 fabd
00000120: eab0 cbbd dad0 213e d276 66bd 7152 433d
00000130: a027 8bbc e0c2 45bd fe1a 89bd d36d 3d3d
00000140: 0723 cd3c 7371 24be ec3a 47bd bc0b ab3d
00000150: a38e 0abe 947f 463c d3db 2bbd f10b acbd
00000160: e0e5 253e 1d39 dbbd 3a21 c4bd 26e5 82bd
00000170: 9d30 b83d 4c9c 3dbd ee38 273d c176 863b
00000180: f492 01be c254 05bd de69 f73d 9ead 23be
00000190: 7bbe 8bbd ab5f 0fbe 342b 223d 30d2 e53c
000001a0: 6a68 48ba 86e1 a4bd 303e 403d c0e7 963c
000001b0: 3db2 13be 031d f03c 7ccd f1bd 0c5d 11be
000001c0: d054 1d3e 0fbc bf3d b051 263e 0c10 4d3d
000001d0: 6a9a dd3d a235 10be 1e4f fcbd 18de af3c
000001e0: 6f1e c03d 73cc 15be 2d49 1dbe cd0d a43d
000001f0: 5c7e f63d 6315 c0bd c06b 713a 5756 20bd
00000200: 77a4 403d 6289 00be f63a 29be 7d0b eabd
00000210: ef20 0e3d cf4d bb3c ce34 fe3d 66c9 273c
00000220: 7976 853c 6587 05bd fb57 f4bd e194 203e
00000230: 5e01 edbd 5102 a53d 0a99 113e ccb2 d53d
00000240: e02d 0cbe bec1 10be 6d38 003e 83b5 9fbd
00000250: 22dd 12be 1b01 8d3d f703 9fbd 46a1 803d
00000260: 374c 1e3e af5b 09be 60b2 183c c259 29be
00000270: df20 403d 7014 14be f5a7 30be f5e1 c43d
00000280: 8aac 74bd 547b 0fbe 2e74 463d c051 9cbd
00000290: 9ab0 3fbd 3993 8abc b56b 0e3d c2c5 2d3d
000002a0: 7968 243e c04b 263e 61e8 243e a1e5 b0bd
000002b0: 4835 7dbd 1b7a 09be f9e5 32bd d0b0 2abe
000002c0: 76f5 1f3e d1d8 f13b 0223 123e 1ce0 0f3e
000002d0: 3b44 cebd f615 853a 3c43 a63d 9668 673d
000002e0: 360b 173e efa0 4bbc 0709 253e 8e11 d7bd
000002f0: 34c5 df3d 9bbd 223c 348b acbd dd5b 8e3c
00000300: e144 693d 653a fdbc 1e81 2cbe 7667 883d
00000310: 0eff d63d a224 e63d a439 483d 690e 783c
00000320: 3695 edbd c4ab 223d 972c ba3a a76a 4fbc
00000330: 9c02 b3bd d3bb fcbd 6c43 c83c 0eb4 fabc
00000340: 2dc9 69bd af70 de3d 4cb6 85bc cedb e0bd
00000350: 0ba7 b83b 68bf dd3d e984 313d 104f 193e
00000360: 9cdb 2ebe 8498 08bc 7d94 633d 93a2 f23d
00000370: 9cfe be3d c39d 4fbd 5a3f 0d3e 046f 85b8
00000380: e025 bc3d 093a a83d 0d79 a1bd 2817 c1bd
00000390: 8b32 be3d 1111 ab3b b373 dcbc 9046 b7bd
000003a0: ce04 f23d ffcc aaba e60a 233e ae50 29be
000003b0: 8475 ff3d e7c9 41bb 6d55 d8bd ae81 973c
000003c0: 3f6f c53d 0ec0 143e 2d27 dabd 9585 a03d
000003d0: 9952 15be aef9 1fbe 6f03 b03d 84a4 313d
000003e0: c7a8 d2bd bf96 953d 240e e93d 1508 14be
000003f0: aee7 83bd c3ef 1e3e ef0a 243e 793b 2cbe

branch_p.fc1.bias f4 [256]
-0.13221759 0.032509454 0.016879091 0.062396977 -0.101877116 0.025970701 -0.067264766 -0.15609424
-0.017277438 -0.06184583 -0.14743234 -0.004806696 -0.1473633 -0.11688544 0.10579735 -0.15131837
0.1702781 0.10903272 -0.07988315 0.16977334 -0.124349914 -0.021794701 -0.086928956 -0.12522508
0.1382024 0.15209141 0.10993175 -0.15298611 -0.13035548 0.008413597 0.11874986 -0.11596447
-0.09369919 -0.124077 0.054135676 0.12233428 -0.098602556 0.03644403 -0.14315483 0.11900961
0.14367503 -0.009072318 0.1319641 -0.07549884 0.037797052 -0.16984826 0.15043566 -0.016890474
0.08969897 -0.058012467 0.09997725 -0.16979866 0.065236755 -0.101891026 0.1698762 0.019755516
-0.16422735 0.07128561 0.06350485 -0.07177424 0.005771446 -0.08062302 0.039224405 -0.090111524
0.00935647 0.07183096 -0.15510726 -0.041661836 -0.16088465 -0.062132746 -0.058367167 -1.8957962e-05
0.09752204 -0.11021514 0.14266455 -0.11607477 0.069293305 0.027940677 -0.12436985 -0.038991917
0.17039064 0.16979475 0.00040778844 -0.15082224 0.17048903 -0.022568798 0.097152695 -0.066374026
0.04114007 -0.16046189 0.017274465 -0.0089414455 -0.08006448 0.05862279 0.022983553 0.12890778
-0.14602092 0.03595446 -0.057301227 0.15466835 0.08950677 0.039529905 0.10452318 0.09238579
-0.096523575 -0.0928407 -0.15644827 0.15741672 0.055798557 -0.062216084 -0.10666148 0.14704064
0.085320234 -0.03510824 0.15742147 -0.07433515 0.06882878 0.13143747 -0.1378739 -0.055338442
-0.13230488 0.17086254 -0.09437705 -0.1212053 0.13193984 0.0452105 0.064707175 -0.098543026
-0.021790536 -0.05971671 -0.121659905 0.057740666 -0.09493541 0.16285394 0.06745065 -0.107321724
0.09441248 -0.035363894 0.0619928 -0.069926605 0.14951248 -0.11636469 -0.05816069 0.021525493
-0.09617215 -0.065882914 -0.16701417 0.08348247 0.11383611 -0.011700077 -0.12260653 -0.03794425
0.10492677 0.020896131 0.09772313 0.15482813 -0.012690197 -0.09858742 0.051313244 0.10639743
-0.1227447 0.14982796 -0.035692908 0.12992133 -0.010493327 0.15754771 0.12614207 0.006887601
-0.0016766095 0.0319483 0.002481993 0.09277157 0.024497278 -0.10095763 0.151781 -0.14621474
-0.051351577 -0.0016602558 -0.13395184 0.08103411 0.041083355 -0.13393444 0.013838319 -0.085724264
-0.040949415 0.16755287 -0.10161411 0.029381324 0.14777708 -0.16243023 -0.0009496753 -0.14771917
-0.00299984 0.052833 0.058511216 0.17026637 -0.0935603 0.043659493 -0.15916036 0.14685442
0.089046784 0.055289626 -0.010916285 -0.020367397 0.12982605 0.13284019 -0.045412116 0.034767907
0.14338244 0.024037044 -0.13255166 0.15008904 0.06592513 0.17129461 -0.10014114 -0.05213059
-0.048583247 -0.12652485 -0.11644567 -0.1112509 0.08975904 0.17034523 0.1098427 -0.16669802
0.153539 0.1567908 0.04369731 -0.01682237 0.120130084 0.14845648 0.080976 0.117445864
-0.017770743 0.12772934 0.10657084 -0.13318932 -0.01042738 -0.14878315 0.035772964 -0.068581685
0.029112432 -0.06127277 -0.14672673 0.062411062 -0.06974414 0.1350081 -0.04281564 -0.017876789
-0.006306896 -0.03466997 0.16167155 -0.15443863 -0.09881578 0.032352354 -0.09925606 0.087565124
00000000: 0c64 07be a228 053d 0546 8a3c f993 7f3d
00000010: f3a4 d0bd 82c0 d43c 1cc2 89bd 2bd7 1fbe
00000020: 6a89 8dbc 0e52 7dbd 81f8 16be 7d81 9dbb
00000030: 68e6 16be a261 efbd 48ac d83d 34f3 1abe
00000040: 625d 2e3e 8c4c df3d c799 a3bd 10d9 2d3e
00000050: 2bab febd cd8a b2bc cf07 b2bd 013b 00be
00000060: ee84 0d3e dabd 1b3e e623 e13d 64a8 1cbe
00000070: e87b 05be 2fd9 093c 2033 f33d c87e edbd
00000080: 5ce5 bfbd 151c febd 5fbd 5d3d 658a fa3d
00000090: 23f0 c9bd 5646 153d 2e97 12be 4fbb f33d
000000a0: 8c1f 133e 0fa4 14bc 9921 073e 239f 9abd
000000b0: 15d1 1a3d b4ec 2dbe ce0b 1a3e e45d 8abc
000000c0: 18b4 b73d 7b9e 6dbd dfc0 cc3d b3df 2dbe
000000d0: d99a 853d 3eac d0bd 07f4 2d3e 52d6 a13c
000000e0: 372b 28be 31fe 913d d50e 823d 5ffe 92bd
000000f0: 661e bd3b af1d a5bd c5a9 203d 648c b8bd
00000100: e14b 193c 1c1c 933d 70d4 1ebe 9aa5 2abd
00000110: f2be 24be e87e 7ebd 6912 6fbd ea07 9fb7
00000120: a3b9 c73d 7ab8 e1bd a816 123e 9cb8 edbd
00000130: a6e9 8d3d d9e3 e43c 9fb5 febd fdb5 1fbd
00000140: e27a 2e3e adde 2d3e 70cc d539 2571 1abe
00000150: ad94 2e3e 33e2 b8bc fef7 c63d 1bef 87bd
00000160: 7d82 283d 1f50 24be 2e83 8d3c 247f 12bc
00000170: d9f8 a3bd 731e 703d 0148 bc3c 6700 043e
00000180: 8286 15be fc44 133d b1b4 6abd 6161 1e3e
00000190: 534f b73d 1cea 213d 4010 d63d c334 bd3d
000001a0: 27ae c5bd 4423 bebd fa33 20be d931 213e
000001b0: 078d 643d 4bd6 7ebd 5671 dabd d291 163e
000001c0: 60bc ae3d a8cd 0fbd 1833 213e 073d 98bd
000001d0: 1af6 8c3d 8b97 063e d12e 0dbe 90aa 62bd
000001e0: ee7a 07be 97f6 2e3e c148 c1bd 7c3a f8bd
000001f0: 3d1b 073e a52e 393d 3285 843d edd0 c9bd
00000200: 1182 b2bc 8299 74bd d428 f9bd 7a81 6c3d
00000210: 7f6d c2bd 2fc3 263e 9123 8a3d 7ecb dbbd
00000220: 555b c13d bbd9 10bd 2aec 7d3d ae35 8fbd
00000230: cd19 193e 9c50 eebd e739 6ebd 3b56 b03c
00000240: e7f5 c4bd 9fed 86bd c305 2bbe dbf8 aa3d
00000250: e822 e93d aeb1 3fbc 2219 fbbd 6e6b 1bbd
00000260: d9e3 d63d 5d2e ab3c 1023 c83d 448b 1e3e
00000270: 8bea 4fbc 34e8 c9bd d62d 523d e5e6 d93d
00000280: 9361 fbbd 806c 193e ba32 12bd 190a 053e
00000290: 34ec 2bbc 3054 213e 632b 013e 63b1 e13b
000002a0: aec1 dbba 38dc 023d efa8 223b 05ff bd3d
000002b0: 84ae c83c e0c2 cebd 7a6c 1b3e 51b9 15be
000002c0: 0856 52bd f19c d9ba ac2a 09be 36f5 a53d
000002d0: 0547 283d 1c26 09be 1eba 623c 3490 afbd
000002e0: 93ba 27bd fb92 2b3e 0f1b d0bd 1ab1 f03c
000002f0: e052 173e 1c54 26be a1f3 78ba b243 17be
00000300: f798 44bb 6a67 583d 75a9 6f3d 4f5a 2e3e
00000310: 8b9c bfbd 4cd4 323d effa 22be 0161 163e
00000320: 295e b63d 6077 623d 38da 32bc 87d9 a6bc
00000330: 1ff1 043e 4207 083e 0e02 3abd cb68 0e3d
00000340: d9d2 123e 56e9 c43c 9fbb 07be f1b0 193e
00000350: c103 873d db67 2f3e cc16 cdbd e386 55bd
00000360: 3aff 46bd bb8f 01be 117b eebd 83d7 e3bd
00000370: 96d3 b73d fb6e 2e3e 36f5 e03d e3b2 2abe
00000380: 5439 1d3e c48d 203e f3fb 323d 11cf 89bc
00000390: c306 f63d fa04 183e bfd6 a53d 7587 f03d
000003a0: f393 91bc 7bcb 023e d041 da3d c862 08be
000003b0: 9ad7 2abc 9c5a 18be ac86 123d 8e74 8cbd
000003c0: 327d ee3c 28f9 7abd 883f 16be bea2 7f3d
000003d0: 04d6 8ebd 903f 0a3e 745f 2fbd 5872 92bc
000003e0: 14aa cebb 1902 0ebd 3a8d 253e 2925 1ebe
000003f0: ed5f cabd e783 043d c346 cbbd 5855 b33d

branch_p.fc2.weight f4 [128, 256]
-0.010679394 -0.03230407 -0.015393801 -0.009330533 -0.016678713 0.033321567 0.003606096 -0.052032545
0.05227848 0.033462524 -0.010112368 -0.012340628 0.022875272 -0.05014398 -0.041561455 0.001437962
0.017208874 -0.0187824 0.05446484 0.0052211806 -0.05567824 -0.024949834 -0.026564889 0.060286038
-0.036352955 0.01481422 -0.05859889 -0.029538147 0.030787602 -0.051755555 0.059691474 -0.049977474
0.0038465634 -0.058853053 -0.033812903 0.01861117 0.0034594238 -0.040322855 0.008050986 0.026499316
-0.039365157 -0.03169418 -0.061537452 0.011707045 -0.048469946 -0.011642806 -0.057491653 0.04357163
-0.01080782 -0.057158947 0.04483153 0.03728216 0.012869142 -0.02705995 -0.055812456 -0.007073432
-0.018023536 0.042354845 0.021600805 0.017496422 -0.0007548705 0.006443955 -0.022289008 0.011161923
0.018955037 -0.008675925 -0.056119047 -0.051901177 0.052663997 0.009987026 0.043600507 -0.02473677
-0.031095348 0.0070683286 -0.018334344 0.04635264 -0.05870585 -0.029552385 0.025852934 0.03508488
-0.007384829 0.031107739 0.05702836 0.023214318 0.059209026 0.016174272 0.013480701 -0.01232364
-0.015750363 0.039111353 -0.04843279 0.015268438 -0.0061130747 -0.050233923 0.05108598 -0.046108276
0.04287689 0.007238291 0.029126704 0.04488063 -0.04864014 -0.0269733 0.011948921 0.023920998
-0.05596482 -0.034467503 0.017523885 -0.044607893 -0.06126651 -0.018207796 -0.028538592 0.0027710348
0.055789456 -0.041338168 -0.03316976 0.039311938 -0.045366384 0.033455662 -0.054650508 -0.03540787
0.012479216 -0.036026023 -0.0012665242 0.021826386 -0.050678775 0.04740133 0.055962257 -0.032522783
-0.04715579 0.033616163 -0.014992423 0.038801543 -0.0092099905 0.038204446 -0.017414905 0.0056262314
0.045482926 -0.053259425 -0.023838446 -0.0458716 -0.017237209 0.0031914562 -0.004615441 0.026546001
-0.006172061 -0.051127918 -0.043566957 0.0068409964 0.042746626 -0.04782792 -0.03108091 -0.014932841
0.014869012 -0.04754311 0.023434833 -0.0474395 0.01192461 0.03943553 -0.049432054 0.036672927
-0.039348446 -0.018828265 -0.042675093 -0.020722225 -0.06222401 0.03777249 0.042068973 -0.014977008
-0.059017792 0.0038819164 -0.06239841 -0.041972823 0.046736687 -0.012145072 -0.042780414 0.03898997
-0.061756805 0.0290917 0.016151696 -0.037893154 -0.042659186 -0.056051515 -0.010826267 -0.042302564
0.029628463 0.022273578 -0.053396255 -0.035258077 0.046808653 -0.005928397 -0.008601882 -0.004047744
-0.03718674 0.040743016 -0.046985857 0.060388424 0.057847366 -0.0022385046 0.0604989 0.013723612
-0.039761916 -0.026640974 0.04946138 0.04301607 0.024933055 0.030306913 0.038752005 -0.018125348
0.04548221 0.060945787 -0.046525456 0.009591445 -0.0140536055 0.025915653 -0.048331432 -0.013910472
0.004398197 -0.041300535 0.009439185 0.02186764 -0.010173872 0.0053414404 0.048399374 -0.0622907
-0.02501738 0.041716903 -0.015487403 -0.051994383 0.03241069 0.031848587 0.023344018 -0.04845871
0.059502915 0.03452354 0.05024682 0.01507096 -0.06245832 -0.014160946 0.033056267 0.017220184
-0.011951081 -0.060566477 0.018865354 -0.023310706 0.03921728 -0.037928626 0.060653158 0.02823051
-0.02647885 -0.040819146 0.024142534 0.00929904 -0.03597758 -0.061197147 0.04671111 -0.026816942
00000000: a0f8 2ebc 4651 04bd 4836 7cbc 18df 18bc
00000010: cca1 88bc 327c 083d 4054 6c3b 1420 55bd
00000020: f621 563d 0010 093d 58ae 25bc 5830 4abc
00000030: ec64 bb3c c663 4dbd 583c 2abd 007a bc3a
00000040: a0f9 8c3c 8cdd 99bc 8616 5f3d 7016 ab3b
00000050: de0e 64bd 9863 ccbc 9c9e d9bc 7eee 763d
00000060: d6e6 14bd 58b7 723c 6405 70bd fcf9 f1bc
00000070: 4836 fc3c a2fd 53bd 0c7f 743d 2eb5 4cbd
00000080: a016 7c3b e60f 71bd 667f 0abd 7476 983c
00000090: 80b7 623b 9429 25bd 48e8 033c 1815 d93c
000000a0: 5c3d 21bd c2d1 01bd b20e 7cbd e8ce 3f3c
000000b0: 6c88 46bd 78c1 3ebc 5e7c 6bbd 2a78 323d
000000c0: 4813 31bc 801f 6abd 44a1 373d 2eb5 183d
000000d0: 18d9 523c d4ac ddbc 9a9b 64bd 40c8 e7bb
000000e0: 18a6 93bc 467c 2d3d 2cf4 b03c a854 8f3c
000000f0: 80e2 45ba d027 d33b 7097 b6bc 80e0 363c
00000100: 9847 9b3c 7825 0ebc 16dd 65bd 5496 54bd
00000110: 34b6 573d a0a0 233c 7296 323d c4a4 cabc
00000120: acbb febc 709d e73b e831 96bc 44dc 3d3d
00000130: 8c75 70bd d817 f2bc 88c9 d33c 2ab5 0f3d
00000140: 70fc f1bb a8d5 fe3c 9296 693d f42b be3c
00000150: 2a85 723d e87f 843c 28de 5c3c 18e9 49bc
00000160: e806 81bc 3a33 203d 7661 46bd 7828 7a3c
00000170: 3050 c8bb 16c2 4dbd 883f 513d 08dc 3cbd
00000180: ae9f 2f3d 302f ed3b 209b ee3c c0d4 373d
00000190: e23a 47bd 1cf7 dcbc 68c5 433c f8f5 c33c
000001a0: 5e3b 65bd cc2d 0dbd 408e 8f3c c4b6 36bd
000001b0: 98f2 7abd 8428 95bc c4c9 e9bc 409a 353b
000001c0: 7c83 643d 3652 29bd 04dd 07bd 8e05 213d
000001d0: 1ad2 39bd ce08 093d 36d9 5fbd d807 11bd
000001e0: a075 4c3c 0690 13bd 8001 a6ba 40cd b23c
000001f0: 8c94 4fbd e627 423d ae38 653d 9c36 05bd
00000200: 6e26 41bd 1ab1 093d c8a2 75bc 5eee 1e3d
00000210: 80e5 16bc 447c 1c3d b4a9 8ebc 405c b83b
00000220: 4e4c 3a3d 8e26 5abd d848 c3bc dce3 3bbd
00000230: 0c35 8dbc c027 513b 203d 97bb 0077 d93c
00000240: 003f cabb 826b 51bd 4473 32bd 702a e03b
00000250: 1617 2f3d 36e7 43bd 649d febc e0a8 74bc
00000260: 289d 733c 90bc 42bd 68fa bf3c ec4f 42bd
00000270: 705f 433c 2687 213d 4479 4abd 5a36 163d
00000280: d62b 21bd bc3d 9abc 14cc 2ebd a8c1 a9bc
00000290: 9ade 7ebd 54b7 1a3d 8450 2c3d 2062 75bc
000002a0: a4bc 71bd c067 7e3b 7a95 7fbd b2eb 2bbd
000002b0: f86e 3f3d 20fc 46bc 843a 2fbd f2b3 1f3d
000002c0: b4f4 7cbd b851 ee3c 9050 843c da35 1bbd
000002d0: 66bb 2ebd 4696 65bd a860 31bc 7445 2dbd
000002e0: 64b7 f23c 1477 b63c 08b6 5abd c66a 10bd
000002f0: 6eba 3f3d 0043 c2bb e8ee 0cbc f0a2 84bb
00000300: 2051 18bd 26e2 263d 3e74 40bd da59 773d
00000310: 5cf1 6c3d e0b3 12bb b2cd 773d 00d9 603c
00000320: 64dd 22bd 2c3e dabc 0498 4a3d 9e31 303d
00000330: 6840 cc3c 3446 f83c 6cba 1e3d 9c7b 94bc
00000340: 8e4b 3a3d 4aa2 793d 7a91 3ebd 7025 1d3c
00000350: 1841 66bc 104d d43c 2ef7 45bd c0e8 63bc
00000360: c01e 903b c02a 29bd d0a6 1a3c c423 b33c
00000370: 50b0 26bc 4007 af3b 6c3e 463d 8824 7fbd
00000380: 40f1 ccbc 58df 2a3d e0be 7dbc 10f8 54bd
00000390: 12c1 043d aa73 023d f43b bf3c a47c 46bd
000003a0: 54b9 733d 8e68 0d3d 9ccf 4d3d 30ec 763c
000003b0: 4cd4 7fbd 5003 68bc 0266 073d 5811 8d3c
000003c0: 78ce 43bc 8e14 78bd 848b 9a3c 18f6 bebc
000003d0: 4ca2 203d 0c5b 1bbd 726f 783d ac43 e73c
000003e0: 2cea d8bc fa31 27bd 90c6 c53c 005b 183c
000003f0: 3a5d 13bd dca9 7abd 2654 3f3d 34af dbbc

branch_p.fc2.bias f4 [128]
0.02049753 0.029541701 -0.006272748 0.029081777 -0.020815806 0.016662316 0.03980888 -0.05284778
-0.047379635 -0.048916243 -0.041244004 0.04968329 0.03511841 -0.030593596 0.06029043 0.038140763
-0.058490865 -0.04676748 -0.006899558 0.038558096 0.05596083 0.044840828 -0.059159294 -0.017592631
-0.013003974 -0.043405425 0.0598659 0.050455973 -0.05946198 -0.037157554 0.02443755 0.032874193
-0.015958583 -0.04600486 0.058726273 0.039428316 0.025343534 0.054590188 -0.0048771203 -0.030716453
-0.0058328533 -0.061733067 -0.028030463 -0.05878547 -0.023175284 0.020525198 -0.0029235722 -0.017446954
0.05314113 -0.040951423 0.0024493402 0.015146767 0.034844283 0.0039431676 -0.03969541 0.006743364
0.01050089 0.059827268 -0.03938415 -0.013246716 0.0031136945 -0.024957571 0.039113507 -0.049053125
-0.02028509 0.011794204 0.022456937 -0.015076305 0.053825557 -0.054895774 0.05706214 0.015345351
0.016762393 0.037097037 -0.021586139 0.02889826 -0.04901773 0.036397524 0.027492667 -0.04250603
-0.011279069 -0.03349869 -0.054057542 0.003504552 0.014729299 -0.027608275 0.0022895655 -0.039185803
0.057164192 -0.035768762 0.04275021 -0.0390092 0.0349297 0.012670301 -0.046676226 -0.013202483
0.0040346235 -0.0177096 -0.014020789 0.009695077 0.0007826253 0.057246055 0.0189685 -0.0153093785
-0.03039279 0.022497218 -0.018699162 -0.02493484 0.036450468 -0.041701652 -0.03599547 -0.007258205
-0.054876693 0.050124735 0.0114371255 0.055026796 -0.060812615 0.03799866 0.052117497 -0.056719106
-0.016291797 -0.05577443 -0.016309483 0.06056966 -0.051022984 -0.03138029 -0.038876027 -0.054225795
00000000: 70ea a73c 7001 f23c a08b cdbb e83c ee3c
00000010: e985 aabc 697f 883c a30e 233d ea76 58bd
00000020: 2611 42bd 665c 48bd 79ef 28bd b580 4b3d
00000030: 52d8 0f3d 6c9f fabc 19f3 763d 7d39 1c3d
00000040: 1e94 6fbd 428f 3fbd b015 e2bb 18ef 1d3d
00000050: 2f37 653d 04ab 373d 0451 72bd 6c1e 90bc
00000060: 9f0e 55bc e3c9 31bd f235 753d ecaa 4e3d
00000070: 688e 73bd 8532 18bd 4231 c83c 17a7 063d
00000080: 93bb 82bc 986f 3cbd f68a 703d 967f 213d
00000090: 3e9d cf3c f699 5f3d 40d0 9fbb 12a1 fbbc
000000a0: 8521 bfbb d0db 7cbd 24a0 e5bc 08c9 70bd
000000b0: 18da bdbc 7624 a83c 6799 3fbb eaec 8ebc
000000c0: 83aa 593d aebc 27bd 1c85 203b 252a 783c
000000d0: e1b8 0e3d b035 813b a797 22bd 70f7 dc3b
000000e0: ed0b 2c3c 700d 753d 4651 21bd c108 59bc
000000f0: 200f 4c3b d273 ccbc 7c35 203d eeeb 48bd
00000100: eb2c a6bc 7a3c 413c 9cf7 b73c 9b02 77bc
00000110: 3078 5c3d 64da 60bd feb9 693d 116b 7b3c
00000120: 4951 893c 10f3 173d 6ad5 b0bc 0bbc ec3c
00000130: d1c6 48bd 9215 153d 4d38 e13c ce1a 2ebd
00000140: d8cb 38bc ec35 09bd 716b 5dbd a0ac 653b
00000150: 2853 713c c02a e2bc 890c 163b 4b81 20bd
00000160: 0025 6a3d 4482 12bd d81a 2f3d 1cc8 1fbd
00000170: 7212 0f3d 1897 4f3c 922f 3fbd 3a4f 58bc
00000180: e034 843b b913 91bc 74b7 65bc 1ad8 1e3c
00000190: 1829 4d3a d77a 6a3d d463 9b3c 30d4 7abc
000001a0: 4dfa f8bc 164c b83c fc2e 99bc 2644 ccbc
000001b0: 164d 153d 5acf 2abd fc6f 13bd 3dd6 edbb
000001c0: 62c6 60bd 984f 4d3d c862 3b3c c763 613d
000001d0: a616 79bd 7ca4 1b3d 2879 553d 4b52 68bd
000001e0: 6076 85bc bb73 64bd 779b 85bc e417 783d
000001f0: 7afd 50bd 9e88 00bd 783c 1fbd de1b 5ebd
