d2calcbot/main/calc_bot/actual_models/lr_1e-7_weight_decay_1e-8_epochs_16_right_17_30/dota_model_ver01.pth (torch, 66886 bytes, 33 tensors)

branch_t.fc1.weight f4 [30, 10]
000000 17 11 11 be 60 fc 8e be 14 e6 06 bd 7e cf 7f 3e
       -0.14166676 -0.27926922 -0.032934263 0.24981496
000010 1a d3 0d 3e d3 0c 14 be 10 a8 36 bd a5 30 11 be
       0.1385006 -0.14458017 -0.04459387 -0.14178713
000020 60 25 21 be 94 fc 28 be a8 9d 12 3d 8f ff 55 3e
       -0.15736914 -0.16502601 0.035794884 0.20898269
000030 64 ea 95 bd 8b 49 bc bd 95 50 1a bd e6 47 da bd
       -0.07320097 -0.09193715 -0.037674505 -0.10658245
000040 da 86 e2 3c f1 e6 6a 3d ac 92 80 3d 07 ef 84 3e
       0.027652193 0.05734915 0.062779754 0.25963613
000050 7f 62 41 3e 65 7d 84 3e ee 20 ae 3d d5 64 c8 bd
       0.1888523 0.25876918 0.085023746 -0.09784857
000060 fc 7c 11 be 3c a1 53 b9 c9 3d 0c be 6e 24 95 3e
       -0.14207834 -0.00020182593 -0.13695444 0.29129356
000070 39 f3 a6 3c bf d6 91 be 42 ba 78 3e 4a b2 04 3e
       0.02037965 -0.2848415 0.24289802 0.12958637
000080 89 f7 97 3d a0 d3 f0 bd 68 b9 fe 3d 97 32 2c be
       0.074202605 -0.11759114 0.12437707 -0.16816173
000090 a3 31 95 bd 93 00 32 3e c9 96 a0 3e 00 b2 02 3d
       -0.07284858 0.17383032 0.3136504 0.031908035
0000a0 5c 55 b5 3d a7 4f 1d be c3 10 50 3e 62 cb b4 bd
       0.08854172 -0.15362416 0.20318894 -0.08827855
0000b0 66 cb 64 3e ba e3 97 be 5f f0 02 bd 9f 0c 89 be
       0.22343215 -0.2966593 -0.031967517 -0.26767442
0000c0 49 c2 1a 3e 6d 4f 59 3e e7 88 4a 3e c6 64 06 be
       0.15113176 0.21221705 0.19778787 -0.1312438
0000d0 66 2b 65 3e db f1 25 bc 77 c4 96 be c9 52 45 be
       0.22379836 -0.010128464 -0.29446766 -0.19269861
0000e0 db 26 5f 3e ea f8 85 3e 52 59 f4 bd b3 57 17 3e
       0.21792166 0.2616647 -0.11931099 0.14779548
0000f0 fe 6d 1b 3e ca 94 85 3e 61 57 c4 bc 97 4b 57 be
       0.15178677 0.2609008 -0.023967447 -0.21024929
000100 9f 2a b1 3c 43 a2 b3 bd ef 01 88 3e 85 7d 0d 3e
       0.021626769 -0.08771183 0.26563975 0.13817413
000110 f8 4f c7 3d 9b 2c aa bd 5d 0a 82 3e 3d ff 1a be
       0.0973205 -0.08309289 0.25398532 -0.15136428
000120 f9 76 c1 3d bc 49 48 3e f4 c6 41 be 30 72 8c 3e
       0.0944652 0.19559377 -0.18923551 0.27430868
000130 dc 31 87 3e 21 e4 88 be c2 c2 21 3e 6e 66 82 3e
       0.26405227 -0.2673655 0.1579695 0.25468773
000140 89 42 8e bc 84 a5 fc 3d d7 d0 8a 3e 5b 3c 16 3e
       -0.01736571 0.12336257 0.27112457 0.14671461
000150 10 56 9a be 7e a9 24 3d 12 4c 49 be 76 98 4f 3e
       -0.30143785 0.040200703 -0.19657925 0.20273003
000160 05 0a 66 3e 7d 14 89 3e 8d bb 97 be 1a 93 65 3e
       0.2246476 0.26773444 -0.29635277 0.22419396
000170 12 51 4e be 30 81 98 be a2 be cf 3d f8 3f 93 3d
       -0.20148113 -0.29786062 0.10143782 0.071899354
000180 ad 44 11 3e 9b e2 f0 bd 44 54 4e be c6 47 c3 bc
       0.14186354 -0.117619716 -0.20149332 -0.023837935
000190 97 33 8c 3e 16 15 6d 3e 04 ed 4b 3e d6 46 62 3d
       0.2738311 0.23152575 0.19914633 0.055243336
0001a0 85 32 b1 3d 27 79 8c 3e 71 15 a0 be 0c 16 f6 bd
       0.08652214 0.27436182 -0.31266358 -0.12015924
0001b0 a9 a2 56 be 13 d1 19 3e 61 aa 8c 3e 68 f7 27 3e
       -0.20960487 0.15021162 0.2747374 0.16402972
0001c0 18 1c 58 3e d2 f9 07 be a8 f6 de bd ef 12 24 be
       0.21104467 -0.13278893 -0.1088689 -0.16022848
0001d0 c1 e1 d8 bd ab b7 33 3e 11 5e 36 be aa da 9c 3e
       -0.10589934 0.17550533 -0.17809321 0.30635577
0001e0 0b 9d 10 3e c8 35 c9 3d f8 e8 96 be 39 46 b7 bd
       0.14122407 0.09824711 -0.29474616 -0.08948941
0001f0 3d 40 c6 bd 93 c5 88 3d 93 9d 93 3e b4 83 ce 3c
       -0.09680221 0.06678309 0.28831157 0.025209285
000200 b1 96 24 be 10 87 08 be 59 5b 69 3e 52 bc 7f be
       -0.16073109 -0.13332772 0.22788753 -0.24974182
000210 82 ec d2 bd cd 1d d8 3d 5b 09 0e 3e 68 c0 15 3e
       -0.102990165 0.10552559 0.13870756 0.14624178
000220 3f 0a 98 3e ed 06 29 3c b2 18 58 3d 2f aa 21 be
       0.29695317 0.010316593 0.052757926 -0.15787576
000230 ac b5 43 bd 5d 72 15 3e 54 fa 1a 3d db 9b 98 3d
       -0.047780678 0.14594407 0.037836388 0.07451602
000240 9b 23 21 be 9f 61 bc bb 2f 9e 43 be 58 dd 4d 3d
       -0.15736239 -0.005748942 -0.19103311 0.050259918
000250 56 81 99 3e 7c bc f3 bd 37 27 e1 3d 6d fa 8a bd
       0.29981488 -0.11901185 0.10993808 -0.06786046
000260 9f 4c 79 3e 50 66 6b bd c7 41 37 3e 5c 11 0f be
       0.24345635 -0.05747062 0.17896186 -0.13971466
000270 3f 28 51 bc 0b e4 67 3e 8d 64 6c 3e d8 06 63 be
       -0.012765943 0.22645585 0.23085232 -0.2217058
000280 fd 72 a5 bc d2 ce b7 3b 81 dd 6b be 8d eb 86 bb
       -0.020196432 0.0056093717 -0.23033716 -0.0041174353
000290 59 0b 7e 3d 54 58 80 3e 23 fb 8e 3e 43 13 5a 3e
       0.06202254 0.2506739 0.27925977 0.2129641
0002a0 c8 3a 51 3e c4 88 87 3e 25 b9 4d bd ca 3f 98 be
       0.2043258 0.2647153 -0.050225396 -0.29736167
0002b0 62 3f 34 bd ad b1 8e 3c 8a 0f 5f 3e f7 10 7a bd
       -0.04400576 0.017418707 0.21783271 -0.061051335
0002c0 c2 38 1b 3e 8e ef a1 3e ec 59 8d 3e 1e a0 0e be
       0.1515837 0.31628078 0.27607667 -0.13928267
0002d0 6e c0 4f 3b ae 40 9c 3c 58 a0 52 be 69 28 92 be
       0.003170039 0.01907381 -0.20568979 -0.28546456
0002e0 59 72 0b 3e 3f 80 96 3e 13 42 05 3e 52 ce 60 3e
       0.13617839 0.2939472 0.13013487 0.21953705
0002f0 c0 0f 80 be b7 9b 84 3e 88 d5 e3 bd 1d 6d 87 bc
       -0.25012016 0.2590005 -0.11124712 -0.016531521
000300 26 53 8d bc e8 b9 be 3c 81 f3 35 3e 87 6f 51 3e
       -0.017251562 0.023282006 0.1776867 0.204527
000310 19 57 65 bc 4d 07 4d 3e dd d7 75 3e 1c a8 06 be
       -0.0139978165 0.20022316 0.24008127 -0.13150066
000320 57 d0 eb 3d c5 bd 30 be 4c 5e 9f bd 04 8a 96 3e
       0.11514347 -0.17259891 -0.077816576 0.29402173
000330 4c 6e 22 be 33 55 5e 3e b0 e3 03 be 14 be 11 3c
       -0.15862387 0.21712188 -0.12879825 0.008895416
000340 ff 58 73 3e 83 da 86 3e 4e 20 21 3e bc 3c 6b bd
       0.23764418 0.26338586 0.1573498 -0.057430968
000350 55 f9 88 3d fe 99 9c 3e 93 cc 95 3e ce d0 fe bd
       0.06688181 0.30586237 0.2925764 -0.1244217
000360 00 cc 31 3e 63 f6 92 be 09 0e 97 3e 2f 55 f6 3d
       0.17362976 -0.28703603 0.29502895 0.12027966
000370 c3 4f f2 bd 69 e8 71 3e 39 23 2f be 20 c1 41 be
       -0.118316196 0.23623814 -0.1710328 -0.18921328
000380 f9 26 83 3e d7 23 9a 3e 5f e5 0e bd 4e 88 5e 3e
       0.2561567 0.3010547 -0.034886714 0.21731684
000390 36 7b 6d 3e 4c 2b 55 3e c8 9c 8f 3b 2a 6d 66 be
       0.23191532 0.20817298 0.0043827035 -0.2250258
0003a0 42 3b 2f 3e 83 0b 9c be e6 28 9c be bc ab 9f be
       0.17112449 -0.30477533 -0.30499953 -0.3118571
0003b0 84 ea a7 3d b2 e8 4f 3e 16 27 21 3e f3 46 96 be
       0.08199027 0.2030361 0.15737566 -0.29351005
0003c0 b8 b6 3f 3e 91 dc 3c 3e 44 d5 68 be 71 b9 6e bb
       0.18722045 0.18443514 -0.22737604 -0.003642645
0003d0 bc 27 07 3d f8 74 bf 3d 6c e5 0c 3e 79 ea 49 bc
       0.032996878 0.09348482 0.13759392 -0.012323969
0003e0 59 dd 7d 3e b7 9f 1b 3b e1 2f 1a be ab 57 7b be
       0.24791469 0.002374632 -0.15057327 -0.24545161
0003f0 5f 0d bc 3d 28 e1 97 3e 8d 8f 1d be 57 d2 d5 3d
       0.09182238 0.29663968 -0.15386792 0.1044051

branch_t.fc1.bias f4 [30]
000000 b0 ba 4e 3d fb 0c 83 be c7 09 93 be e8 ca 5a 3e
       0.050471008 -0.2559584 -0.28718397 0.21366465
000010 d7 bd ce bc c2 c0 03 3e d0 af 76 be 1e cd 27 be
       -0.025237007 0.128665 -0.24090505 -0.1638684
000020 e0 fe f2 bd 0c 42 8a 3e a3 55 9a 3e 51 89 f7 3c
       -0.1186502 0.27003515 0.3014346 0.030216845
000030 54 d6 7d be fe 9e 99 3e cb 59 26 be 15 78 64 be
       -0.24788791 0.30004114 -0.16245191 -0.22311433
000040 c7 4c 71 3e bc b0 73 be 01 44 c8 bd 44 63 82 3e
       0.23564444 -0.23797888 -0.09778596 0.2546636
000050 02 36 f9 3d fa 74 48 bd 31 4c 21 bb 33 7e 52 be
       0.12168504 -0.048939683 -0.0024612064 -0.20555954
000060 be 2c a8 3d c0 51 93 be 7f 3a 9b 3e 06 4f 42 3e
       0.08211659 -0.28773308 0.30318066 0.18975458
000070 09 43 fd bd cb 63 72 3e
       -0.123663016 0.2367088

branch_t.fc2.weight f4 [20, 30]
000000 e1 4c e6 bd da 68 0f be f4 05 ea bd 61 15 1a be
       -0.11245132 -0.14004841 -0.11426917 -0.15047218
000010 42 01 89 bd ee 51 3a 3d 80 71 e2 3d 46 fe 8b 3d
       -0.06689693 0.04548829 0.11056805 0.06835608
000020 a4 17 a7 bd 3f e0 32 3e 9d 7d cd 3d 3e c7 b3 3d
       -0.08158806 0.17468356 0.100337245 0.08778237
000030 a7 05 10 3e 57 bc 4f 3b b5 34 0f be 0b c5 8c 3d
       0.14064656 0.0031697953 -0.1398495 0.068735205
000040 e5 0d be bd 9f fe 9c 3d 0c 7d b7 3d d9 35 78 3c
       -0.09279994 0.076657526 0.08959398 0.015149557
000050 00 33 c5 3d c6 76 34 3d 76 08 22 bc b6 6f 32 bd
       0.09628868 0.044058584 -0.009889713 -0.043563567
000060 b1 86 2c 3e 6a 89 ab bc 4b 92 bc bd d2 5b 17 bd
       0.16848256 -0.020939548 -0.09207591 -0.0369528
000070 93 f6 e3 bc c3 bd 1f 3e 65 6b 5a bc 74 90 19 3e
       -0.027827537 0.15599732 -0.013331269 0.1499651
000080 71 0b 78 3d 4d eb 51 bd f1 58 2c be 2d 6f 11 be
       0.060557786 -0.05124979 -0.16830803 -0.14202566
000090 a9 ef e0 bd d8 01 99 3d ee d2 2b 3e eb 5a 91 3d
       -0.109832115 0.07471055 0.16779682 0.07097419
0000a0 4e 26 67 bd ea 93 38 3d ec 7e d4 bd 4b 9b ec 3d
       -0.056433015 0.045062937 -0.10375771 0.11553057
0000b0 31 da 2a be c0 3f ce 3d d0 1a 01 3e 9a 7f aa bd
       -0.16684796 0.10070753 0.12607884 -0.08325119
0000c0 72 b3 fa 3d 0e 6b d2 bd 36 60 b4 bb b1 a5 29 bd
       0.12241258 -0.10274325 -0.0055046333 -0.04141778
0000d0 be 88 2d 3e 6e 57 a1 3d 6c fa 5d bd c9 b2 af 3d
       0.16946694 0.07878004 -0.0541939 0.085790224
0000e0 e4 60 b7 3d bc 22 8f bd e1 cf be 3d 8f 85 85 bc
       0.08954027 -0.06989047 0.093169935 -0.016299037
0000f0 22 01 09 3e 01 ad ee 3d 54 8b 2b bd 5a b9 85 3d
       0.13379338 0.116540916 -0.04188092 0.06529494
000100 ee 8b fd 3d b3 4f 04 be 14 2c 8d bd 25 e9 e2 bd
       0.12380205 -0.12921028 -0.06893173 -0.11079625
000110 19 c6 bd 3d d4 36 b9 3b 3c 2c e7 3d 9f 0b 1b 3e
       0.092663 0.005652288 0.11287734 0.15141152
000120 cc cb 7b bd 21 4a 16 3e 7a 45 d5 bd 5b 22 f5 3d
       -0.061473653 0.14676715 -0.10413642 0.119694434
000130 33 22 cd 3d a3 4a fb bd 94 8e 1e be b9 83 9d bb
       0.100162886 -0.12270095 -0.15484077 -0.0048069623
000140 c9 19 22 be 7b 0d 36 3e 28 dd 39 bc 05 23 9d bd
       -0.15830149 0.1777858 -0.011344232 -0.07672695
000150 7e 69 0b be 5e 08 23 3e bd 4e 55 3d 01 d8 85 3d
       -0.13614461 0.1592116 0.052077044 0.0653534
000160 58 cb 50 3c 93 9f 0d 3e 7e b1 4a bc 35 77 19 3e
       0.012743793 0.13830404 -0.012371419 0.1498688
000170 df 96 cf bd c4 d9 dd bd 53 af 2c 3e 03 e0 16 be
       -0.10136198 -0.10832551 0.16863756 -0.14733891
000180 6c 00 bb bd a3 4a a8 3d 86 f9 12 be 25 cd fe bc
       -0.0913094 0.08217361 -0.14352998 -0.03110368
000190 4c 0f b3 bd b3 f0 65 bc 74 ca 9e 3d 01 47 f0 3c
       -0.08743152 -0.014034438 0.077534586 0.029330732
0001a0 f5 16 1b be dc 2e 01 3e 7c c7 e3 bc e7 44 04 be
       -0.15145476 0.12615532 -0.027805082 -0.12916909
0001b0 9c 37 04 3e 58 ec 8a 3d dd ce 27 be e8 a4 64 bd
       0.12911838 0.0678336 -0.16387506 -0.05582133
0001c0 42 d0 27 3e d5 c1 37 3d f6 b9 fe bd bd 35 38 3e
       0.16388038 0.044862587 -0.12437813 0.1798925
0001d0 9c b2 9b 3d 2e 36 cc bd 3a 41 0a be 00 b4 f5 bc
       0.076024264 -0.099712715 -0.13501444 -0.029993057
0001e0 08 f4 2e 3e df 36 e3 3d 89 97 c9 3d 76 31 66 3b
       0.17085278 0.1109445 0.09843356 0.0035124696
0001f0 4a a2 22 be 95 7d 88 bc 4a 0b bf bc 39 dd 24 3e
       -0.15882221 -0.016661445 -0.023320813 0.16100015
000200 36 4a a0 3c 27 33 01 be e4 3e 86 bd a3 3c 13 bd
       0.019566637 -0.1261717 -0.06554964 -0.0359465
000210 1d 8e 1f 3e de 29 9d 3d 71 c2 59 3d f3 bc 48 bd
       0.15581556 0.07674001 0.05316395 -0.04900832
000220 2e b9 27 3e 6e 48 17 be 35 a2 8f 3c dc 22 9e bd
       0.16379234 -0.14773723 0.017533401 -0.07721493
000230 74 dc e4 bd 02 df b2 3d 21 c3 fe bc c7 65 c4 3d
       -0.111748606 0.087339416 -0.031098904 0.09589725
000240 c5 b0 2b 3e 4c 33 e9 bb 80 c8 06 be 1e 43 38 3e
       0.16766651 -0.0071167108 -0.13162422 0.17994353
000250 01 25 18 bd ad e3 a7 bc dd e0 f6 bb ba b3 f7 bc
       -0.037144665 -0.020494306 -0.00753413 -0.030237067
000260 53 5d 07 3e b9 9b 05 be 35 cf 47 3d 2b 32 36 be
       0.13219194 -0.13047685 0.048781592 -0.17792575
000270 40 7d 51 3d de 7f 44 3b 82 46 1e 3e 1f 43 51 bd
       0.05114484 0.0029983441 0.15456584 -0.051089402
000280 91 14 bb 3d 93 a7 14 be c0 3a e6 bd 19 c4 96 3d
       0.09134782 -0.1451705 -0.112416744 0.073616214
000290 de a5 05 3e 16 70 7b 3d 25 d4 2e bd fe 01 04 3e
       0.13051555 0.06138619 -0.042682786 0.12891385
0002a0 c8 8a 13 be c0 21 ed bd 3e a1 13 be 33 8d 16 be
       -0.1440841 -0.11578703 -0.14416978 -0.147023
0002b0 c2 41 b0 bd a1 ba f1 b9 af 04 02 3e aa 83 80 bd
       -0.08606292 -0.0004610615 0.12697099 -0.06275113
0002c0 f8 6a 2f 3d 0c d4 95 bc f3 d3 07 be 9e 4e c4 bd
       0.042826623 -0.018289588 -0.13264446 -0.095853075
0002d0 78 ff 6f 3c c4 1d 08 bd 39 32 22 3e 0f e9 8c 3d
       0.014648311 -0.03323151 0.15839471 0.0688039
0002e0 79 96 10 3d 71 c4 a9 bd 5e a8 aa 3c a2 3e 0b 3e
       0.035299752 -0.08289421 0.020832237 0.13598111
0002f0 9c 02 14 bd 87 32 09 3e 75 d6 2b be 0a f6 bc 3d
       -0.0361353 0.13398181 -0.16781028 0.09226616
000300 a2 41 34 be 35 da db 3d 72 f5 ab bd bb 84 b8 bd
       -0.17603162 0.10734979 -0.08396424 -0.09009691
000310 b7 8c d1 3d c5 da 7a bd 95 ff 28 3e 86 68 ef 3d
       0.10231917 -0.06124379 0.16503747 0.11689858
000320 1b 4e 2a 3d ec 5d 6a bc ff 9c 2c 3e 29 10 05 be
       0.041578393 -0.014304619 0.16856764 -0.12994446
000330 c8 a4 35 3e 0a ad cc bd 9b 5e 1a 3e 23 05 a6 bd
       0.1773864 -0.09993942 0.15075152 -0.081064485
000340 d0 6e de 3a 13 67 75 3d 0d 12 b2 bc 35 43 a8 bd
       0.001697028 0.059912752 -0.021737123 -0.08215944
000350 b4 73 92 3c ad f7 04 3c 37 57 cd 3d 31 ad fb bd
       0.017877437 0.008115691 0.100264005 -0.12288893
000360 60 57 b0 bd 88 50 76 3c 4a 6c a2 bc a8 c5 ba 3c
       -0.086104155 0.015033849 -0.019827027 0.022799328
000370 b1 86 1f be b3 b3 4a 3d 18 2a fd 3d 06 8f 2e be
       -0.15578724 0.04948778 0.12361544 -0.17046747
000380 3b 5a 0c 3e 43 2e 30 be bc 87 17 be f4 6c f9 3c
       0.13706295 -0.17205147 -0.14797872 0.03044746
000390 cb fe b1 3d 4e 59 27 be d8 0b 34 3e e1 4a 3a 3e
       0.08691176 -0.16342661 0.17582643 0.18192627
0003a0 51 a0 e8 3d 06 79 08 be 3c f8 3a be b2 98 89 3d
       0.11358703 -0.13327417 -0.18258756 0.067185774
0003b0 aa e1 31 be 32 01 07 3e c6 ac db bc 96 50 f9 3d
       -0.1737124 0.1318405 -0.026815783 0.12173574
0003c0 6b d7 16 be c8 4a 31 be 1c 2f d5 3d c7 31 92 3d
       -0.14730613 -0.17313683 0.10409376 0.071384005
0003d0 ac 81 3c bd b6 fc a1 bc 77 cb 8b bc 24 33 07 be
       -0.046022102 -0.019773822 -0.017064793 -0.13203102
0003e0 83 a7 36 be 54 8c 05 3d 79 fc ca bd 5f 6c f9 3c
       -0.17837338 0.03260453 -0.099114366 0.030447183
0003f0 c1 32 84 3d 04 ff ec 3d ca b6 78 bc bb 6f a9 3d
       0.06454993 0.11572078 -0.015180299 0.08273264

branch_t.fc2.bias f4 [20]
000000 4c fd 08 3d e2 0b ec 3c 1c 7f 37 3e 17 93 86 3d
       0.033444688 0.02881426 0.17919582 0.06571024
000010 cf 17 15 3c a0 2e 97 3d 5f 9e d7 bd 14 0e e2 bc
       0.009099915 0.0738194 -0.10528254 -0.027594604
000020 40 79 35 3d 68 38 1e be db 26 2c be 43 e0 1d 3e
       0.044305086 -0.15451205 -0.16811697 0.1541758
000030 f1 f8 a2 bd 6e 00 9d bd 57 01 2a bd 35 46 3e 3c
       -0.07957638 -0.076660976 -0.041505184 0.011613418
000040 e9 3b 0f bd c2 83 a6 3d 2f 5c d5 3d 78 c9 27 bb
       -0.034969244 0.081305996 0.10417973 -0.0025602262

branch_t.fc3.weight f4 [10, 20]
000000 b3 1a 5e bd 46 2c f2 3d 66 c5 0d 3d 20 10 aa 3d
       -0.05422468 0.11824851 0.034612082 0.08303857
000010 59 42 2e 3d b5 58 43 be e9 94 9f 3d 57 bc 54 be
       0.042543743 -0.19076808 0.07792074 -0.20774971
000020 47 ea 29 be 0b 84 f6 bc b4 41 97 3d a4 2d 1c be
       -0.16593276 -0.03009226 0.07385579 -0.15251786
000030 31 e3 c7 3d 0b d6 1d 3e 1a 47 26 3e 71 91 10 3d
       0.0976013 0.15413682 0.1623806 0.035294954
000040 d2 8f e1 3d f8 49 2b 3c 6d ba 8f bd ca 8e ff 3b
       0.1101376 0.010454647 -0.0701798 0.007799004
000050 5e be 29 3e 26 52 4b bd 3a 8c 5b be 5a 76 2b 3e
       0.16576526 -0.04963889 -0.21440211 0.16744366
000060 bd 77 20 be ba de 16 bc 33 0f c0 bd a3 98 d1 bd
       -0.15670677 -0.009208376 -0.09377899 -0.10234191
000070 28 98 2a 3e 6c 55 0c bd da 86 21 be 47 e6 8f 3d
       0.16659606 -0.034261152 -0.15774098 0.07026344
000080 b6 01 22 3e fe b3 52 3e 7e 3b 28 be 3a 4a 14 bd
       0.15820965 0.20576474 -0.16428944 -0.0362036
000090 04 2f 20 bd ca e7 eb 3b 62 cc 1e 3e df e8 0a bd
       -0.039107338 0.0071992623 0.15507653 -0.03391349
0000a0 dc 25 5b be ae 87 e1 bd a7 29 36 3e 85 db c4 bd
       -0.21401161 -0.11012207 0.17789327 -0.096121825
0000b0 eb 34 42 be ad f8 0f be 04 d7 03 3e 88 0b f4 3d
       -0.18965499 -0.14059706 0.1287499 0.11916262
0000c0 80 aa 1f bd 0c be 47 3d a5 98 ef bd 6b 4d bc bd
       -0.03898096 0.048765227 -0.116990365 -0.09194454
0000d0 35 b0 86 3d 2d be 8f 3d 2c 23 31 be 4f 0c aa bd
       0.065765776 0.07018695 -0.17298573 -0.08303129
0000e0 66 de 3b 3d f9 23 3f be 3f ec 19 be 34 21 46 be
       0.045866393 -0.18666066 -0.15031527 -0.19348603
0000f0 fe 01 5f be 1f 24 aa 3b 88 1b 19 bd 1f b9 0c bc
       -0.21778104 0.0051922943 -0.03737977 -0.008589058
000100 cf 29 3b 3e 84 ed 9c bc 61 1f 60 3d a6 2e 1d be
       0.18277667 -0.019156225 0.054717425 -0.15349826
000110 d8 28 59 3e 56 dd bc bd 14 d7 b4 3b f5 a9 b4 bd
       0.21206987 -0.09221904 0.0055188034 -0.08821479
000120 79 67 a9 3c 12 ad 7a bc 6d d7 39 be 35 6f 78 3d
       0.020679222 -0.015300052 -0.18148585 0.06065293
000130 10 ad 95 bb 8e 9d 1c 3e 87 e0 cc bc 92 5c f5 3c
       -0.00456775 0.15294477 -0.025009407 0.029951368
000140 f2 ba 29 3e 24 c8 20 3e 03 93 14 3e 82 aa 28 3e
       0.1657522 0.15701348 0.14509206 0.16471294
000150 c3 37 33 3d 59 81 25 be ac d8 4e be 79 02 7c 3d
       0.04375435 -0.16162623 -0.20199841 0.061525796
000160 ad 5d 89 3d 64 76 29 3e 8c 95 c4 3d 40 e8 f1 3d
       0.0670732 0.16549069 0.09598836 0.11811876
000170 e1 21 43 be 0f 64 17 3d fd 9c d3 3c 04 20 0a 3e
       -0.19055893 0.036960658 0.025831694 0.13488775
000180 90 b9 4d be 01 8e 3d bd 3c 71 5b bd 00 09 3c 3d
       -0.20090318 -0.046278004 -0.053574786 0.04590702
000190 ea 09 52 be 05 63 44 be f4 b0 12 3d 5c b8 3b bd
       -0.20511594 -0.19178398 0.035813287 -0.045830116
0001a0 c0 2e 72 bc 7b 2f f2 bd d4 1d 88 3c c2 1a 9b 3d
       -0.014781654 -0.118254624 0.016615786 0.07573463
0001b0 07 39 da bd a4 70 ef 3d 9e 65 20 be 07 28 58 be
       -0.10655408 0.11691406 -0.15663764 -0.21109019
0001c0 ce 08 5d be 5e 77 b3 3d ea f8 31 3e cd 05 2a be
       -0.2158539 0.08763002 0.1738011 -0.16603775
0001d0 36 e4 ed 3d cc 72 9b bc 32 d4 12 3e 8a ec 0a bd
       0.116157934 -0.018975638 0.14338759 -0.033916987
0001e0 d2 ca b3 bc 59 80 5c 3e 46 de 2d be 57 f4 1f 3d
       -0.021947298 0.21533336 -0.16979322 0.03905138
0001f0 2b 81 63 bb b2 18 20 3e f7 1b b7 bd e7 c6 67 bc
       -0.0034714441 0.1563442 -0.08940881 -0.014146543
000200 e6 67 f4 bd ad d7 1e 3e d2 63 58 be ff c9 03 3e
       -0.119338796 0.15511961 -0.21131828 0.12870024
000210 79 83 3d be 50 90 19 3e 55 7e d9 bd ef 87 66 3d
       -0.18507184 0.14996457 -0.10619799 0.05628198
000220 1e d0 84 3d 70 4d bf 3c 2e 06 6e 3d 5a dd 18 bd
       0.06485008 0.023352355 0.058111362 -0.037320472
000230 e8 a6 43 be 4a bf 04 3e b9 5f e8 3d 6c 46 dd 3d
       -0.19106638 0.12963596 0.11346383 0.108044475
000240 c4 4a 5f 3e 4e 3b d4 3d 97 63 8b 3b 58 96 aa bd
       0.21805865 0.10362874 0.0042538154 -0.08329457
000250 36 8c 50 be 51 61 90 3d df 01 b8 3d 1a 6e 2d be
       -0.20365986 0.07049812 0.08984732 -0.16936532
000260 b7 73 fd 3d 8b d6 7c bd 8a 26 b6 bd 5c 7a 33 bd
       0.123755865 -0.06172804 -0.088940695 -0.043817863
000270 ac 06 43 be 66 dd ec bd 2b 7b 57 3d 70 83 2d be
       -0.19045514 -0.11565666 0.052607697 -0.1694467
000280 af ed 31 3e 1f 29 8a 3c f4 fa 24 be f8 b2 47 3d
       0.17375825 0.016865311 -0.16111356 0.048754662
000290 ff fe f1 bd 52 91 dc 3d 4a 81 46 3e d7 b0 9b 3c
       -0.11816215 0.10769905 0.19385257 0.019005222
0002a0 71 85 ca bd d5 ea d9 bd b5 9c a8 bc 7a d2 e3 3d
       -0.09888733 -0.10640494 -0.020582536 0.111241296
0002b0 fd df ec 3d 45 84 13 3d 4a 5c 04 bc a9 e3 37 3e
       0.1156616 0.036014814 -0.008078644 0.17957939
0002c0 f3 3f e0 3c ae 1f a9 3d 6e 9d 05 be 88 a1 dc 3c
       0.027374243 0.082579955 -0.13048336 0.026932493
0002d0 cb 6e 38 3d ba 02 81 bc c8 89 a4 3d 01 c0 1f 3e
       0.045027535 -0.01574837 0.08034092 0.15600587
0002e0 a7 2b 52 3e 84 28 fb bd 7b 96 25 bd e3 d4 5e be
       0.20524465 -0.12263587 -0.040426712 -0.21760897
0002f0 0b 41 27 3e dc 45 c9 3d b4 52 c2 39 38 c4 b8 bd
       0.16333406 0.09827778 0.00037064182 -0.09021801
000300 43 21 34 be 01 fd 3d 3e 93 8a 5c be 8b 79 7e bd
       -0.17590813 0.18553545 -0.21537237 -0.06212763
000310 26 54 07 be 80 f6 53 3e 1e 16 25 be 08 43 d3 3d
       -0.13215694 0.20699501 -0.16121718 0.103155196

branch_t.fc3.bias f4 [10]
000000 18 4d 28 be c2 1e 42 be ca 52 fc bd 5d 89 3d be
       -0.16435659 -0.18957046 -0.12320478 -0.18509431
000010 8d 60 4c be 24 ff 4b be df cf 56 be 20 67 42 be
       -0.19958706 -0.19921547 -0.20977734 -0.18984652
000020 6f fb cf 3d d2 84 87 bc
       0.10155379 -0.016542826

branch_t.fc4.weight f4 [10, 10]
000000 6f 9c 8f 3e 37 21 83 3e dd df 77 be 06 58 70 3e
       0.28049037 0.25611278 -0.24206491 0.23471078
000010 c3 47 97 3e 04 a4 32 3e 50 30 e1 bc 3c 3f f2 3d
       0.29546937 0.1744538 -0.027488858 0.11828467
000020 e8 39 59 be de 8d 51 be b5 9b 98 be 96 1b 80 3e
       -0.21213496 -0.20464274 -0.29806295 0.25021046
000030 b0 0f 97 3e 20 f7 8e 3e 81 98 39 be cb e4 8a bd
       0.29504156 0.27922916 -0.18124582 -0.0678192
000040 13 f1 b9 3d b1 f2 8f 3e 6f bb 28 be 3d b4 f3 bd
       0.090791844 0.28114846 -0.1647775 -0.11899612
000050 5f 20 6b 3e d2 9f 86 3e 5b 9a 65 be c5 b2 1f be
       0.22961567 0.26293808 -0.22422163 -0.15595539
000060 d1 f0 51 bd 6e ce 05 be 66 c6 3e be 9b 6d 2d be
       -0.05125505 -0.13067028 -0.1863037 -0.16936342
000070 69 09 9c 3e 9c 59 a0 be 24 1f 5e be 28 c8 fa 3b
       0.3047593 -0.31318367 -0.21691567 0.007653255
000080 50 19 5a 3d 6e 7d 62 3c e6 c9 37 be a4 d9 1b be
       0.053246796 0.01382385 -0.17948112 -0.15219742
000090 f6 fc f2 3d d7 d6 1f be 18 62 7a 3e 73 ba c8 bc
       0.11864655 -0.15609299 0.24451482 -0.024502968
0000a0 48 57 49 be b6 47 6c be b9 a8 60 3e 40 47 37 3e
       -0.19662201 -0.2307423 0.21939363 0.17898273
0000b0 96 9b 6f be 20 f2 4c 3e eb 0c 8b 3d a5 93 86 be
       -0.23399195 0.20014238 0.06789573 -0.2628452
0000c0 f5 f8 67 3e b9 39 1f 3d a5 8b 06 be 42 94 2d 3b
       0.22653563 0.038873408 -0.13139208 0.0026486074
0000d0 3e 5e 08 bd 6a d0 6a bd 76 52 88 bd 44 c3 08 be
       -0.033293 -0.057327665 -0.06656353 -0.13355738
0000e0 5b e6 8a be 6f e6 83 3e b0 4b 84 3e 4a c1 8c 3e
       -0.27128872 0.25761744 0.25838995 0.27491218
0000f0 04 8d 94 3e 27 f3 13 3d 8a 09 4d be 60 bd 2f 3e
       0.29013836 0.03612056 -0.2002317 0.17162085
000100 d7 45 33 3e e5 80 55 be 2e f5 6f be 3c 0a 76 3d
       0.1750711 -0.2084995 -0.23433372 0.060068354
000110 d4 58 2b 3e 66 d1 d1 3d a7 2c 2c be 56 b9 90 be
       0.16733104 0.10245018 -0.16813909 -0.282664
000120 ff f0 12 3e 70 1c 81 be ea 55 9b 3d f4 10 2d 3e
       0.14349745 -0.2521701 0.07584746 0.16900998
000130 49 99 9f 3d 7f 08 86 3e 52 0a 0e bd f0 df b2 3d
       0.07792909 0.26178357 -0.03467781 0.08734119
000140 51 28 77 be d5 c2 6b be 8a 97 9c bc 45 d9 09 bd
       -0.24136473 -0.23023541 -0.019115228 -0.03365447
000150 70 93 81 bd 88 e1 ab 3c 6e fb 78 3e 0f 04 99 3e
       -0.063269496 0.020981565 0.24314663 0.2988591
000160 15 11 9e 3e 93 94 39 3e 70 a2 66 3e e6 9f 6b bd
       0.30872408 0.18123083 0.22522902 -0.057525538
000170 16 31 88 3e a1 94 33 bd 45 28 35 3e 70 61 b5 bd
       0.2659995 -0.043842915 0.17691143 -0.08856475
000180 f6 de 8d 3e bc 4e cc 3d e3 0e 1d be 97 12 6a 3a
       0.27709168 0.09975955 -0.1533771 0.00089291617

branch_t.fc4.bias f4 [10]
000000 41 9a 15 be 23 51 91 be 5f 70 f5 bd 0d 87 88 be
       -0.14609624 -0.28382215 -0.11984324 -0.26665536
000010 c6 c9 db bc 9d 3d cd 3d 40 98 ac bc db da 64 3e
       -0.026829612 0.100215174 -0.021068692 0.22349112
000020 5b 9d 06 3d 05 13 c6 bd
       0.03286491 -0.096715964

branch_p.fc1.weight f4 [30, 10]
000000 ba d5 cf ba 2a fe e9 bd b6 31 83 be b7 8d 87 be
       -0.0015856542 -0.11425431 -0.25623864 -0.26475307
000010 19 8a 16 3d 0b 59 8e be b2 0f 93 3e 51 22 4a be
       0.036752794 -0.2780231 0.28722912 -0.19739653
000020 88 00 28 3e 75 13 4c bb 21 5c e8 3d 46 bb a9 bc
       0.16406453 -0.0031139527 0.11345697 -0.020719182
000030 e7 fb 80 3d 6b 88 2d 3e da e6 51 be 7e 34 1c 3d
       0.062980466 0.1694657 -0.20498219 0.038135998
000040 ff a7 8b be 85 c1 9e 3e 97 d8 8a be 6d 08 a1 3d
       -0.27276608 0.3100702 -0.2711837 0.07862935
000050 ae 1c ea b8 14 a5 e6 3b 73 59 e9 3d 15 0d 30 3e
       -0.000111633315 0.007038722 0.11394014 0.1719249
000060 4b 1b 89 be 1d 26 84 be fc d6 a3 3d 96 02 1e 3d
       -0.26778635 -0.25810328 0.079999894 0.038576685
000070 32 5c 07 be 75 a0 7f be 59 b9 9f 3e af d8 24 be
       -0.13218763 -0.24963553 0.31196097 -0.16098283
000080 33 be ba bd 42 99 81 bd c7 c5 e5 bc c6 e1 10 be
       -0.09118309 -0.0632806 -0.02804841 -0.14148626
000090 b9 d9 bf 3b 76 1a 5a bd 12 dd df 3b fb f5 0f 3d
       0.005854812 -0.05324789 0.0068317736 0.035146695
0000a0 93 d7 b4 bc 5b 72 96 be 02 20 85 3e 29 62 2f bc
       -0.02207545 -0.2938412 0.26000983 -0.010704556
0000b0 b1 84 8f 3e 64 4f 86 3e d5 4a 5f bd a2 59 92 bd
       0.28030923 0.26232445 -0.054514725 -0.07146002
0000c0 8a 1b e1 3d 46 67 1e 3e 1d 2b c3 3d 1c 3a 91 3e
       0.10991581 0.15469083 0.095297076 0.28364646
0000d0 50 35 16 ba 03 e7 8b be 60 bf a1 be f7 1d 67 bc
       -0.000572999 -0.27324685 -0.3159132 -0.014106265
0000e0 46 c1 db 3d f6 d6 c5 3c 43 d3 0a be d1 f7 e2 bd
       0.10730223 0.024150353 -0.13557152 -0.110824235
0000f0 b9 93 98 be 15 33 9d be fa 6b ad 3d d2 81 88 be
       -0.29800203 -0.30703035 0.084678605 -0.26661545
000100 0c ae 04 3e e3 fd bc 3d e1 94 90 be e1 ce 8b bd
       0.12957019 0.092281125 -0.28238586 -0.068265684
000110 52 4f 17 be 84 7a d7 bd 0c 07 c6 3d 6e 58 68 be
       -0.14776352 -0.10521415 0.09669313 -0.22689983
000120 5e 63 69 3e 64 39 2f 3e f3 aa 90 3e 65 d5 8e 3e
       0.22791812 0.17111737 0.28255424 0.27897182
000130 1d ab 66 3e e9 53 88 be 61 9f a1 be d6 7c 64 3e
       0.22526212 -0.26626518 -0.3156691 0.22313246
000140 3c 94 d1 bc 33 3d 1d 3e b2 97 40 3d a6 b7 74 be
       -0.025583379 0.15355377 0.047019668 -0.23898181
000150 a6 9f 95 bd 50 1e 89 3e 47 c3 78 3e 22 81 58 3e
       -0.07305841 0.2678094 0.24293242 0.2114301
000160 8d ee e7 3d b0 0a 3e be 98 81 13 be e8 52 9a be
       0.11324797 -0.18558764 -0.14404905 -0.30141377
000170 e1 34 fd bb 04 b7 1a 3e a6 a2 96 3e 24 5f a1 be
       -0.007727251 0.15108877 0.29420966 -0.315179
000180 db 4c 97 be aa 95 01 be 6a 88 25 3e dc de 11 3d
       -0.29550824 -0.12654749 0.16165319 0.035612926
000190 cd 3f 7b be 69 d2 34 3e f0 5e 35 3e b6 06 d7 bb
       -0.24536057 0.1765839 0.17711997 -0.0065620793
0001a0 72 24 5e 3e 61 76 12 be 52 cd 8b 3e 5e 2e 87 3e
       0.2169359 -0.1430297 0.27305084 0.26402563
0001b0 ae 28 85 3d 41 55 b5 bd e7 4f 1a be a9 eb 93 3e
       0.065019 -0.088541515 -0.15069543 0.28890732
0001c0 3a ec 54 3e 50 e7 86 3e 12 9f 90 3e e4 e3 98 3e
       0.20793238 0.26348352 0.2824636 0.29861367
0001d0 18 0e f0 bd 37 1b 78 3d 35 2b f3 3c 29 8f ff bc
       -0.11721438 0.06057283 0.029683689 -0.031196194
0001e0 33 5a 3d bd 85 44 43 3e ca 50 8e be 89 23 24 3e
       -0.0462286 0.19069107 -0.27796012 0.1602918
0001f0 5a 8f ae bd 02 3e a1 b9 c1 68 d6 3d a3 53 83 be
       -0.08523436 -0.00030754512 0.10469199 -0.25649747
000200 9b c0 d9 3d a0 58 f8 3d b3 af 9d be 80 ff 27 3e
       0.1063244 0.12126279 -0.3079811 0.1640606
000210 25 28 33 3d 68 59 de bd 26 f5 52 be 27 d7 09 3e
       0.043739457 -0.10856897 -0.20601329 0.1346098
000220 e1 55 8a bd 3e 88 a0 3b 5a 4b 82 be 81 53 8f be
       -0.06754661 0.004899054 -0.25448114 -0.27993396
000230 7d c1 58 3c 3f 59 00 3e b9 18 a0 3e f3 b8 98 3d
       0.013229725 0.12534045 0.31268862 0.07457151
000240 41 f5 6b 3e 37 21 21 be 78 b2 d5 bd d4 9b 5a 3e
       0.23042776 -0.15735327 -0.10434431 0.21348506
000250 26 91 e8 bc 17 74 2b bd 6d 84 d5 3c e3 f9 03 bd
       -0.028389525 -0.04185876 0.026064122 -0.032220732
000260 5c 2d 85 3d 46 62 9b be 6c 60 6f 3e 75 4e 14 bd
       0.06502792 -0.30348414 0.23376626 -0.036207635
000270 56 86 f0 bc 71 70 1b be 01 7f 8a 3c a9 8b 8f 3e
       -0.029360931 -0.15179612 0.016906263 0.2803624
000280 1d 29 94 bd ed 37 13 3e 5c 0c 74 bd f6 bd 9c 3d
       -0.07234404 0.14376803 -0.0595821 0.0765342
000290 b1 83 23 be 72 be b1 3b c7 61 4f be 8f 41 8f 3e
       -0.15968205 0.005424314 -0.20252143 0.27979705
0002a0 e2 16 00 3e 11 be 4f be 8e 55 8d 3e 17 36 38 3e
       0.12508729 -0.20287348 0.27604336 0.17989384
0002b0 8f ae ab 3d d3 1e 19 be 2f fb ba 3d fe 0f a8 3d
       0.08382904 -0.14953165 0.09129941 0.08206175
0002c0 a7 07 b9 bd 46 6f 4d bd c0 bf 90 3d f4 c4 71 3e
       -0.09034663 -0.050154947 0.070678234 0.23610288
0002d0 ff 59 3e bd ac 13 0c be c8 20 bf bc 73 28 12 be
       -0.046472546 -0.13679379 -0.023331061 -0.14273243
0002e0 b4 99 16 3e 6d ca 9f be e5 97 02 be a2 e1 98 be
       0.1470707 -0.31209126 -0.12753256 -0.29859644
0002f0 1a c8 30 be 97 be ae bd 69 6c 5c be f7 40 76 3d
       -0.17263833 -0.08532446 -0.2152573 0.06012055
000300 96 47 9d be 2c ef 5b bd c6 3b 9a bd 07 76 15 bd
       -0.30718678 -0.05369489 -0.07530932 -0.036489513
000310 cf 15 d5 3d 22 19 ec 3c f0 a9 8c 3e 91 90 9b 3e
       0.1040455 0.028820578 0.27473402 0.30383733
000320 65 ef 01 3e 63 3e 13 3e c4 c9 99 3c a0 d4 ca bc
       0.12688978 0.14379267 0.018772967 -0.02475959
000330 c2 98 02 be a3 4a ec 3d a3 37 bd 3d 36 6d 9e 3d
       -0.12753585 0.11537673 0.092391275 0.07735674
000340 9c 87 4f 3d f8 d0 97 3e 31 56 83 3e f3 12 6a be
       0.050666437 0.29651618 0.25651696 -0.22858791
000350 f8 fe 9b 3e 87 45 91 bc 90 cd f5 3d b6 6b bb 3d
       0.30467963 -0.017733349 0.120020986 0.091514036
000360 f1 33 12 3d 71 10 94 3c 3a db 1a be 00 b8 df bb
       0.035694066 0.018074246 -0.15122691 -0.0068273544
000370 df a7 3e 3d 7b 03 86 be 82 42 5d be eb 16 42 bd
       0.046546813 -0.2617453 -0.21607402 -0.047385138
000380 21 0b 6d 3e 3a 01 6a 3e 45 10 25 3e 78 05 30 be
       0.23148777 0.2285203 0.16119488 -0.17189586
000390 70 ba 50 bd 06 23 2e be 1f 4d 7a be 48 c9 e5 3d
       -0.05095905 -0.17005548 -0.24443482 0.11220032
0003a0 51 37 8d 3e 77 6d 13 3e fc 15 56 be 7d 42 f3 3d
       0.27581266 0.14397226 -0.20906824 0.11877916
0003b0 59 48 7e 3e 74 cb 9b 3d d3 f7 92 3e 48 7d cc bd
       0.24832286 0.07607165 0.287047 -0.09984833
0003c0 74 42 65 be fe 31 67 3e 66 4a 64 3e 6d 1c 52 be
       -0.22388631 0.22577664 0.22294006 -0.20518656
0003d0 5f e3 48 3e 3b 29 ce bd 68 96 e3 3d c3 a0 72 be
       0.19617985 -0.10066458 0.11112672 -0.23694138
0003e0 cd e7 84 be 27 2b b2 3d 02 40 c1 bc 22 c5 94 be
       -0.259581 0.08699637 -0.023590092 -0.2905665
0003f0 a0 07 89 3e 8c 81 01 be 28 5b 90 be cf a3 40 bd
       0.2676363 -0.12647074 -0.28194547 -0.04703122

branch_p.fc1.bias f4 [30]
000000 97 83 2f 3e b2 46 a9 3c df a2 44 3d ab 09 76 be
       0.17140041 0.020663593 0.04800689 -0.24027126
000010 fa 82 53 3e 62 f1 bf bb c8 25 8d be ec f3 da 3d
       0.20655432 -0.0058576325 -0.27567887 0.10691056
000020 7b 64 74 3e 88 0c 96 3d 44 3d af bd 03 45 c2 3d
       0.23866455 0.07326609 -0.08556607 0.09485819
000030 5e 06 02 3d 0f 71 97 be 96 f8 3f 3e ff 2c 5a be
       0.031744353 -0.29578444 0.18747172 -0.21306227
000040 41 ab 7f be 36 16 05 3d ca 0e c6 bd ec 23 83 bc
       -0.24967672 0.032491885 -0.096707895 -0.01600834
000050 0e 11 7f be 26 5d 9a 3e 67 26 7d bd ed aa f1 bd
       -0.2490885 0.30149192 -0.0618042 -0.1180018
000060 c9 78 37 be 6c d9 8b 3c 1d ab b0 bd fb 19 eb 3d
       -0.1791717 0.017071448 -0.08626387 0.11479565
000070 47 cd 8e be ce 88 17 3d
       -0.2789099 0.0369957

branch_p.fc2.weight f4 [20, 30]
000000 91 b1 63 bd e8 04 32 be 03 18 e0 3d 3f a8 87 bd
       -0.055589262 -0.17384684 0.1094208 -0.06623887
000010 03 6f 0d 3e ee f6 13 3c 4b 24 c4 3c db ca 37 3e
       0.13811879 0.009031041 0.023943087 0.17948477
000020 be 52 d2 bd 28 a3 e5 bc a5 93 23 be 5f f1 c3 3d
       -0.10269688 -0.0280319 -0.1597429 0.09567522
000030 e5 3d 51 3c 7c 5f c1 3b 44 6a d4 3c 8b 7c 1c 3e
       0.012771104 0.005901275 0.025929578 0.15281884
000040 63 df 36 be 7d d5 05 3e 45 36 cf bc d6 4f 44 bd
       -0.17858653 0.1306972 -0.025294432 -0.0479277
000050 c7 4a c9 3d 4f 4b b0 3d a2 58 0b 3e a3 d1 90 bd
       0.09828716 0.08608114 0.1360803 -0.07071235
000060 61 94 a7 bd 3f b8 f9 bd 2c b1 ae bd 23 c0 ed 3d
       -0.08182598 -0.12193345 -0.085298866 0.11608913
000070 5a 13 c3 bd 1a 4d 24 be d9 4c 23 3d f1 6e 01 3d
       -0.095251754 -0.16045037 0.03986821 0.031599943
000080 81 72 2d 3e 02 90 6a bd 83 0e f0 3d 93 19 d5 bb
       0.16938211 -0.057266243 0.11721518 -0.006503293
000090 3c b8 ff bd 65 d7 86 bc d8 da 38 3e e6 02 b3 bd
       -0.12486312 -0.01646013 0.18052232 -0.08740787
0000a0 bd 6c e3 3d 98 7e c4 3d c7 93 17 3e aa 03 bf bd
       0.111047246 0.09594458 0.14802466 -0.09326871
0000b0 ee 92 e2 3d d2 f6 a2 bc bb b6 17 bd 77 4e d9 bd
       0.11063181 -0.019893084 -0.0370395 -0.10610669
0000c0 ac ff b1 bd 1b 62 26 be a3 36 2b be 5b f8 25 bd
       -0.08691344 -0.16248362 -0.16720061 -0.040520053
0000d0 ed 2f bd bd c8 ac d2 3c 7e 63 c4 3d 17 8b f7 3d
       -0.09237657 0.025717154 0.09589289 0.12087076
0000e0 a4 b7 1c be fc 20 ca bd 47 28 8b 3d 98 e8 00 3c
       -0.15304428 -0.098695725 0.06794792 0.007867955
0000f0 0f bc 0d 3e cd 68 88 bd c3 75 23 3d 52 c4 35 3c
       0.1384127 -0.06660614 0.03990723 0.01109417
000100 10 6e d6 3d 6e 4f 34 be f9 ee 7b bc 8a 6b 11 be
       0.104702115 -0.17608425 -0.0153768 -0.14201179
000110 71 56 6c 3d b4 ea f6 3c ef 8d 5f 3d 71 5a 2f be
       0.057699624 0.030141212 0.054578718 -0.17124344
000120 3f 9c 01 3e 26 8a 9e 3d 8f 83 12 3e 51 e1 10 3e
       0.1265726 0.077411935 0.14307998 0.14148451
000130 48 fb 71 bb a5 7f 2b be 94 cc 32 bd 28 75 23 3d
       -0.0036923457 -0.16747911 -0.043652132 0.03990665
000140 da 5a 3a be e2 be 28 3e 6b a9 e0 3d 40 0d 25 be
       -0.1819872 0.16479066 0.10969814 -0.16118336
000150 3d 50 3a 3d 25 c0 4d 39 65 d2 32 be 63 43 05 3e
       0.045486677 0.00019621903 -0.17463072 0.13013987
000160 09 f6 28 3c 00 0c b1 bc 1b cd e0 bc a2 d4 28 3e
       0.010312566 -0.021612167 -0.027441552 0.16487363
000170 36 6a a0 bd 6d c4 03 3e c4 4a bb 3d 3d bd 19 bd
       -0.07832758 0.12867899 0.0914512 -0.037533987
000180 bb cb 01 3e 8f 31 07 be 12 0c 71 bc 30 0c a4 bd
       0.12675373 -0.13202499 -0.01471235 -0.08010137
000190 76 6b af bc 7c 89 2a be 86 94 a8 bc ae 42 24 be
       -0.021413546 -0.16654009 -0.020578634 -0.16041061
0001a0 ca 15 80 3a d3 65 f9 3d 8a 34 e3 3d 12 b6 db 3b
       0.0009772119 0.121776246 0.110940054 0.006705054
0001b0 99 f2 b7 bd 20 32 5c 3d 97 09 38 be 30 e3 ab bc
       -0.08981819 0.05375874 -0.17972408 -0.020982355
0001c0 f8 9f 15 3d 09 4c 94 3c 3e a2 90 3b 2e c7 78 3b
       0.03652951 0.018102663 0.004413872 0.0037960517
0001d0 10 bf 0c be a2 b3 4d bc 8c 96 04 3e 45 6a 99 3d
       -0.1374476 -0.012555035 0.12948054 0.074909724
0001e0 8e f7 f2 bc 54 85 4d bd 2c 63 32 3e 7f 00 c6 bd
       -0.029659059 -0.05017598 0.17420644 -0.09668063
0001f0 a2 0a 81 3c f7 83 29 be 49 80 26 bd 62 cb 12 3e
       0.01575214 -0.16554247 -0.040649686 0.14335397
000200 87 b7 be 3d 34 83 00 3e 59 db 6a bc 1d 5f 30 3e
       0.09312349 0.1255005 -0.014334523 0.17223783
000210 ec 31 86 bc bf 86 ec 3d e3 82 ed bd 8d a2 fc bc
       -0.016381226 0.11549138 -0.1159723 -0.030839229
000220 4c e1 0e 3e 6c 39 9d bd 1a b7 13 3d 1a 9b 1e 3e
       0.13953131 -0.07676968 0.03606329 0.15488854
000230 d7 95 29 be 57 eb 1a 3e f0 b5 d7 bd f6 67 21 be
       -0.16561066 0.15128838 -0.10532749 -0.15762314
000240 fa 67 36 3b a0 34 b3 3d b9 4b d6 3d ac 99 aa 3b
       0.002783297 0.08750272 0.10463662 0.0052063074
000250 84 1c 52 bd a9 b2 c3 3d 84 f4 96 3d fe e1 92 bc
       -0.051296726 0.09555561 0.073708564 -0.017930027
000260 5d 7e bd bd 26 2f 21 bd 85 c1 a6 bd 88 fe e3 3d
       -0.092526175 -0.039351605 -0.0814238 0.11132532
000270 ca 22 bf 3d 16 53 ac 3d 4f 3b f9 3d 08 90 34 3d
       0.09332807 0.08414285 0.12169515 0.04408267
000280 3a 12 01 bd 88 17 9f bd fa ed 1c 3e 0b 35 e3 3d
       -0.031511523 -0.0776816 0.15325156 0.110941015
000290 64 07 05 be e5 5f 69 3d 2c 53 16 be 19 86 8d 3d
       -0.129911 0.056976218 -0.14680165 0.06910343
0002a0 36 55 22 3e 5c 44 3f bd 82 9f 1a 3c f1 9f a8 3d
       0.15852818 -0.046696052 0.009437444 0.082336314
0002b0 cd 04 08 be 62 df 10 be fc 94 d5 bb eb cd 2d 3e
       -0.13283081 -0.14147714 -0.0065180045 0.16973083
0002c0 e6 06 18 bc 6b c4 04 3e b9 2a c0 3d 35 d9 94 bd
       -0.0092789885 0.12965553 0.09383149 -0.072679915
0002d0 76 bf 15 3e 1f 44 f5 3d 3b 2f 8a 3d 36 65 62 bd
       0.14623818 0.11975884 0.0674729 -0.055272304
0002e0 75 7c 33 3e 5a 81 0f be 79 03 c5 bd 6e 8e 8b bd
       0.17527945 -0.14014187 -0.09619803 -0.06814276
0002f0 cf d4 18 3c 8a 2e a7 3d 3c 0d 0a 3c 79 bf 66 bc
       0.009328081 0.081631735 0.008426007 -0.014083737
000300 ec b0 2e 3d a3 c2 1e bc 6b e9 fe bd b9 59 1d 3d
       0.042649195 -0.00968996 -0.12446865 0.038415644
000310 ed 29 00 be eb f3 87 bd 6d fc 2d 3d be a9 91 bc
       -0.12515993 -0.066383205 0.04247706 -0.017781135
000320 6f c4 06 3e df 08 26 be a6 86 bf 3d dd 16 e2 3d
       0.13160871 -0.16214322 0.09351854 0.11039517
000330 b6 55 d7 3d 6d 96 67 bd 53 d2 da bc 17 45 60 3c
       0.10514395 -0.05653994 -0.026711619 0.013688347
000340 9c de f1 3d 26 df 8a 3d 2a fa 51 3d bb 26 c8 3d
       0.118100375 0.067808434 0.051263966 0.09773012
000350 01 7f 2e 3e 21 9f 2f bc 12 74 f0 bd 89 f6 06 3e
       0.17040636 -0.010719092 -0.11740889 0.13179983
000360 cb 80 d2 bd bc 82 8f bd 16 83 a1 ba 96 47 ee 3d
       -0.102784716 -0.070073575 -0.0012322392 0.11634748
000370 04 0a 96 bd fc 0f 2d be 8b 74 38 be ce dc 63 bd
       -0.07326129 -0.16900629 -0.18013208 -0.055630498
000380 1a 45 22 3e d6 42 cb 3d 5e 84 30 3e 5e 08 42 bd
       0.15846673 0.09924857 0.17237994 -0.04737126
000390 da 60 7d 3d 69 d4 70 3c 85 1c 6e 3d c6 dc 12 be
       0.061859943 0.01469908 0.058132667 -0.14342031
0003a0 fc 44 35 3e 00 94 2a 3e e1 4f 4f 3c 91 ba 26 be
       0.17702097 0.1665802 0.012653322 -0.16282107
0003b0 89 a7 80 bd b7 91 f5 3d b2 1b 11 be 41 d2 a7 3d
       -0.06281955 0.119906835 -0.14170721 0.081943996
0003c0 2e 53 38 be 6b 8c 80 3b 25 b6 bb 3d bd 3b 36 bd
       -0.1800048 0.003922989 0.09165601 -0.044490565
0003d0 cf ad 95 3d 73 eb 37 3e 40 e1 91 3d c6 f9 d6 3c
       0.07308542 0.1796091 0.07123041 0.026242148
0003e0 a0 b9 b6 bc 08 1c 0d 3d 2b 9f e6 bd 0e 7b 68 3d
       -0.02230531 0.03445056 -0.11260828 0.05675798
0003f0 6a 08 27 be d3 c5 32 3d 31 aa 11 be 44 4e 2c 3e
       -0.16311803 0.04364569 -0.14225079 0.16826731

branch_p.fc2.bias f4 [20]
000000 a4 cb 21 bd ae 7e 84 3d 7d ce 2a be 34 28 3a 3e
       -0.039500847 0.06469475 -0.16680332 0.18179399
000010 db 7e 12 be c0 9c b2 bd 62 55 b8 3d 70 67 3a 3e
       -0.14306204 -0.08721304 0.090006605 0.18203521
000020 61 6e 67 3c 6f d2 26 bd 4d 03 36 be a9 9d 58 bd
       0.0141254375 -0.04072803 -0.17774697 -0.05288473
000030 cd 9d 4a 3c 98 36 02 be 77 61 dc bd 65 96 45 3d
       0.012366724 -0.12716138 -0.107607774 0.04823913
000040 7a 12 d3 bd 75 57 0f bd e8 83 ec 3d 26 50 ab 3d
       -0.103062585 -0.034995515 0.115485966 0.083648965

branch_p.fc3.weight f4 [10, 20]
000000 fc 44 31 be 50 e0 e2 3d bc 67 28 3e d6 87 46 3d
       -0.17311472 0.110779405 0.16445822 0.048469387
000010 a7 55 f9 3d c9 3b 90 3c b7 35 57 bd bb a3 cf 3c
       0.1217454 0.017606633 -0.05254146 0.025346627
000020 5f 7d 0f be d9 4a 17 be cc 4d 67 3d 7f bd 32 3e
       -0.14012669 -0.14774646 0.056470677 0.174551
000030 c5 e8 d7 bd 79 37 31 3e 8e 1e dd 3c 0f 55 00 bd
       -0.10542444 0.17306317 0.026992109 -0.03133112
000040 5e 0c 0d 3e 9e 90 ae 3c 53 85 41 3e 28 a6 5d 3e
       0.13774249 0.021309193 0.18898515 0.21645415
000050 21 8d d2 3c d8 35 86 bd 62 d3 b6 bd e4 be 48 be
       0.025702061 -0.06553239 -0.08927037 -0.19604069
000060 0d c1 76 bd 7d 88 d4 3d 60 e2 33 be 05 f2 8d 3a
       -0.0602427 0.103775956 -0.17566824 0.0010829574
000070 e5 7e 44 be 12 5e 5a be 9d 1f 4b be 4e 6c 46 3e
       -0.19189031 -0.21324947 -0.19836278 0.19377252
000080 d5 f2 f4 bd e7 24 5e bd ed e8 00 be e5 2a bd 3d
       -0.11960379 -0.05423441 -0.12588854 0.09236697
000090 96 26 07 3d e4 2c 55 3b 58 d2 d5 bc e9 26 b8 bd
       0.032995783 0.0032527978 -0.026101276 -0.089917965
0000a0 b7 19 43 3d e3 62 43 3e 2e 99 49 3d 9c 0a a0 3d
       0.047631945 0.19080691 0.04921835 0.078145236
0000b0 ac 3d f3 3d fe fa 2e 3d 6a d1 aa 3b 19 87 bf 3a
       0.11876997 0.042719834 0.0052129524 0.0014612406
0000c0 ba d7 10 bd c2 6a 35 be 3d 1c 98 3d 14 a1 04 3c
       -0.035361983 -0.17716506 0.07427261 0.008095045
0000d0 4d 55 e6 3d 54 df fa 3d 56 71 e8 3b 6c 64 cf bd
       0.112467386 0.12249628 0.007093589 -0.10126576
0000e0 b7 6b ed bd 33 3d 18 3e 39 f8 2b bc a1 b8 04 3e
       -0.115928106 0.14867096 -0.010496193 0.12961055
0000f0 00 69 45 be a7 01 06 bd 70 a6 91 3d 9a a2 36 be
       -0.19278336 -0.03271642 0.071118236 -0.17835465
000100 5f 11 b6 bd 63 1b 5d 3e bf 68 b3 ba b2 49 0d be
       -0.08890032 0.21592478 -0.0013687833 -0.13797644
000110 e0 ea ba bd b3 d1 0c be 1a 0f 10 3c 87 9c 8e bc
       -0.0912683 -0.13751869 0.008792663 -0.017408622
000120 7f 7a b2 bd f2 44 ac 3c 08 4c 70 bd ac 61 91 bd
       -0.087147705 0.02102897 -0.05866626 -0.070987076
000130 3d f0 53 be 51 7f 4f 3e 63 1f 3e 3d 63 c2 1d bd
       -0.20697112 0.20263411 0.04641665 -0.03851546
000140 74 6c 2b be 08 5f d8 3d c8 40 a9 3d f9 e6 2d bd
       -0.1674059 0.10565001 0.08264309 -0.0424566
000150 c9 c3 3c be ca b8 87 bd 66 0c 3d 3c 61 60 86 3d
       -0.18434061 -0.066270426 0.011538601 0.065613516
000160 74 19 d2 bd 74 2a 2e be 37 e9 17 3a 90 fa df 3c
       -0.10258761 -0.17008382 0.00057949446 0.027341157
000170 a9 55 b4 3d ef 74 09 be d7 6b e4 bd 48 71 1d 3e
       0.08805401 -0.13423513 -0.11153381 0.15375245
000180 1e 0e e6 3d 6a d0 3d be 4a c8 9f 3c c5 29 44 be
       0.112331614 -0.18536535 0.019504685 -0.19156559
000190 8a 57 20 bd fd 27 b8 bd 10 4a 55 3e 69 dc da bb
       -0.039145984 -0.08992002 0.20829034 -0.006679107
0001a0 86 66 3a be 34 19 04 bd 8b 6d e2 bd 60 30 ae 3d
       -0.18203172 -0.032250598 -0.1105605 0.085053205
0001b0 88 77 13 3e 5a a8 72 3c a5 71 51 be 4a d3 54 3e
       0.14401066 0.014810646 -0.20453508 0.20783725
0001c0 83 51 0d 3e 1b 28 07 be df 26 4d 3e 8d 5a 87 bd
       0.13800626 -0.13198893 0.2003436 -0.06609068
0001d0 9c f1 d8 bc 37 8c e9 3d 37 0a 2e 3e 73 90 e4 3d
       -0.026482396 0.11403697 0.16996084 0.11160364
0001e0 f5 c5 e0 bd 1d 4e 2e be c8 13 7d 3b 2e 36 50 bd
       -0.10975257 -0.17021985 0.0038616527 -0.05083292
0001f0 f7 c1 9e 3d 5d e9 e4 bc 1e d9 28 bd 92 a6 60 be
       0.077518396 -0.027943308 -0.041222684 -0.21938542
000200 58 f5 14 3e de 8f 91 bd a8 75 13 be 6a 95 6d 3d
       0.14546716 -0.071075186 -0.14400351 0.05800382
000210 07 cb 3f 3e 48 8d f1 bd 88 32 44 3e d0 19 f0 3d
       0.18729793 -0.117945254 0.19159901 0.11723673
000220 5d 00 ef 3c 92 5b 27 3e ad 2b 2a 3e 69 84 03 3e
       0.029174978 0.16343525 0.16618223 0.12843479
000230 8d 1c fc bd b2 5f 4e be c9 5b ba bd 0b 05 21 be
       -0.12310133 -0.20153692 -0.09099538 -0.1572458
000240 ab 27 02 3e fd 59 89 bd 14 21 5e be 63 2d e1 3d
       0.12710445 -0.06706617 -0.21692306 0.10994985
000250 1a 36 ec bc e8 2b 71 bd e3 60 06 be 39 c3 32 3e
       -0.028834391 -0.058879763 -0.13122897 0.17457284
000260 f3 65 cb bd 78 9d e2 3d 03 b1 5a 3d c0 bd 23 3e
       -0.09931555 0.11065191 0.053391468 0.15990353
000270 98 80 08 be 13 2f 9d bd 21 ab 18 be 05 66 0b 3d
       -0.13330305 -0.07674994 -0.1490903 0.03403284
000280 83 5f 4c 3d 39 a7 e2 bd 22 39 3c be 69 02 0c bc
       0.049895775 -0.110670514 -0.1838117 -0.0085454965
000290 7b b4 45 be 23 2a 9c 3d 86 6c 1c 3e 16 18 f1 bd
       -0.19307129 0.076252244 0.15275773 -0.11772172
0002a0 fb 85 24 3e 70 5e ee bd 4a d2 a2 39 88 9a f1 3d
       0.16066734 -0.11639106 0.00031055725 0.117970526
0002b0 42 b2 cf bd 5c 89 4d 3e 29 03 c7 bd 8b 42 52 3c
       -0.10141422 0.2007193 -0.097173996 0.012833248
0002c0 03 4a 59 be 23 e2 43 3e b8 f0 f5 bd a9 c7 01 3c
       -0.2121964 0.19129233 -0.12008804 0.007921138
0002d0 63 e6 04 be f9 3f e8 bd 6c d4 ba 3d 7d e6 5e 3d
       -0.1297851 -0.11340327 0.091225475 0.05441903
0002e0 b5 0d 42 be 44 e3 49 3e 00 32 25 3e 39 00 57 be
       -0.18950541 0.19715601 0.16132355 -0.20996179
0002f0 ec 50 a5 3d 66 93 af 3c 81 43 45 be 15 49 0f be
       0.08072075 0.02143259 -0.19264032 -0.13992722
000300 cb 8c ef bd d6 0e fe 3d 03 0c 27 be c8 7a 2c be
       -0.11696776 0.124051735 -0.16313176 -0.16843712
000310 76 99 92 3d b9 7e 3e bd fc bc ce 3b 1e 35 07 be
       0.071581766 -0.04650757 0.00630915 -0.13203856

branch_p.fc3.bias f4 [10]
000000 bf 75 c4 3d 95 4f aa 3c c6 ee 0e be d9 f7 54 bd
       0.09592771 0.0207899 -0.13958272 -0.05199418
000010 4e 99 70 3d 60 c8 83 bd db 2d 07 3e df ed 30 be
       0.058739953 -0.06434703 0.13201086 -0.1727824
000020 4a 40 04 3e ab c5 cd bd
       0.1291515 -0.10047468

branch_p.fc4.weight f4 [10, 10]
000000 dd 4d 70 bd 5d 9b 31 3e 1a 9a b9 3c 93 96 5b be
       -0.058668006 0.17344423 0.02265649 -0.21444158
000010 f0 67 84 3d 9a df 54 3e b4 47 86 be 4b 23 58 bd
       0.06465137 0.20788422 -0.2622658 -0.052768033
000020 4a 0c c1 3d ae c4 18 be d7 45 38 3e ad 49 95 3e
       0.09426172 -0.14918777 0.17995392 0.29157773
000030 a6 05 29 3e 6f 27 40 3e 94 a1 9c be fb 80 5d 3e
       0.16506061 0.18765043 -0.30592024 0.21631233
000040 09 ad 30 3e f4 ba 9a 3d aa 45 7b be b5 5a 80 be
       0.17253508 0.0755519 -0.24538293 -0.25069204
000050 20 82 3d 3c 42 3c 9b be 74 af 8e 3d 2a df 87 be
       0.011566669 -0.3031941 0.06967059 -0.26537448
000060 88 3a 42 be e8 f5 2f 3d 1f 93 30 be 82 b8 c5 3c
       -0.1896764 0.042959124 -0.17243622 0.024135832
000070 88 d5 ad 3c 75 23 25 3e ad 10 83 be 76 33 a0 3e
       0.021219984 0.16126807 -0.2559866 0.31289262
000080 79 84 8d be c9 c2 74 3e 71 6d 4f be a9 32 6c be
       -0.2764013 0.2390243 -0.20256592 -0.230662
000090 97 7f 6c be c8 d6 39 3e 47 e3 b3 3d ce e0 09 3e
       -0.23095547 0.18148339 0.08783584 0.13464662
0000a0 f8 a6 5f 3e 34 5a 05 be 83 10 8c bd 10 ca 26 be
       0.21841037 -0.13022691 -0.06839087 -0.16288018
0000b0 77 ac 82 bd 47 90 3d 3e 98 40 3d 3e ef 5f 93 be
       -0.06380551 0.18512069 0.18481672 -0.2878413
0000c0 48 9c 74 be 2d 9a 06 be c3 21 7e bd e4 b3 7b be
       -0.23887742 -0.13144751 -0.062043916 -0.24580342
0000d0 d0 a8 82 3d 7c 39 8a bd bb 5e a7 3d 78 d1 88 3e
       0.06379855 -0.067492455 0.08172365 0.26722312
0000e0 50 fd 7e be 63 17 9f be dc c7 9c be 7f c3 92 be
       -0.24901319 -0.3107253 -0.3062123 -0.28664777
0000f0 e1 ed 9c 3e fa f2 43 3e d0 c6 1d 3e 2a 87 50 3e
       0.30650237 0.19135657 0.15407872 0.20364061
000100 b0 92 ae 3d fb 45 80 3e d3 b2 15 be 50 d9 28 3e
       0.08524072 0.2505339 -0.14618997 0.16489148
000110 6c 51 b7 bd 04 54 90 bd 82 d0 81 be 82 18 f5 bd
       -0.08951077 -0.07047275 -0.2535439 -0.11967565
000120 bc 6f cc 3d dc f6 91 3d f3 c9 76 3e a5 9f 04 3e
       0.09982249 0.07127163 0.24100475 0.12951525
000130 07 6d 2c be 74 58 02 3e 21 48 51 3e 6f b6 02 3e
       -0.16838466 0.12729055 0.20437671 0.12764905
000140 7a 6f 5e 3e 37 40 4e 3e 35 89 52 be cb 69 33 3e
       0.21722212 0.20141684 -0.20560153 0.17520826
000150 83 19 0e be 42 cc 92 be b2 a1 53 3d e0 33 d2 bd
       -0.1387692 -0.2867146 0.051667877 -0.102638006
000160 13 df 1d 3e b4 ed 89 3e c0 f9 d7 bd 6f 00 9b 3e
       0.15417127 0.26939166 -0.10545683 0.30273768
000170 5c 69 6b be d8 8c 99 be eb 00 97 be 71 9c 08 be
       -0.2298941 -0.29990268 -0.29492888 -0.13340928
000180 f7 29 67 3d fa 65 6a be ba f9 fc bc c4 a3 47 be
       0.056436505 -0.22890463 -0.030880798 -0.19496065

branch_p.fc4.bias f4 [10]
000000 f1 31 f3 3d 46 6d 94 3e 90 40 97 bd 6b a0 a0 3e
       0.1187476 0.2898962 -0.07385361 0.3137239
000010 8c 97 f7 3d f7 db 82 3e 5a 10 a1 be 40 15 89 be
       0.12089452 0.25558445 -0.31457788 -0.26774025
000020 ab 66 28 3e 20 1b f3 bd
       0.16445415 -0.11870408
