d2calcbot/main/calc_bot/dota_model_ver8.pth (torch, 426084 bytes, 21 tensors)

branch_t.fc1.weight f4 [128, 35]
00000000: af26 59bd 6942 09bd ca7d 0b3e c534 833d
00000010: 0557 c1bd babb a2bc 4f32 9cbd 846e 073d
00000020: bfaa d5bd 02af 1bbe 0372 a8bd a7bc 00be
00000030: 1fc6 eebc a3ad 21bc 4a4a 89bd 3038 b1bd
00000040: 9481 193e 6097 603d 1e9e 88bd 51d3 0f3d
00000050: 8fe3 5c3d a981 c83d e21f 8c3c e7a7 183e
00000060: b2fa af3c 3fb7 90bd da28 16be 6d9e 1e3e
00000070: 6640 1ebe 957f 963d c4e0 fabd 0290 e63d
00000080: 8396 1c3e 6823 123d 0dff b73c 41e2 f6bd
00000090: e16e be3d fb4a 22be 0db3 b8bd 4aaf a53d
000000a0: 65df 1c3e ed4c 5dbd 1ef7 323c 36ed 6e3d
000000b0: ef3d 0e3e 8b1f 9ebd 21fe 093d b9f0 963b
000000c0: 787c fbbc 2330 b6bd 1621 14be 7aac bdbd
000000d0: 1a3e 443d 3e6d 683d 2100 473d 45e4 19be
000000e0: 21fc 64bd bda4 fc3d 8801 18bc 3c76 093e
000000f0: 1712 5dbd 45e9 913c 8768 063d 5335 e43d
00000100: 8962 28be 9b8e cabd ec75 d0bc 5c8b b53c
00000110: 104e 81bd 57c2 9c3d 6dda 07be 8d7b 13bd
00000120: 38d3 4ebd 5bc4 73bd d205 91bd 90ba ba3d
00000130: b9fc b9bc bb50 a33d 2b18 cf3d 78af 143e
00000140: 4cc5 213e 8f3a a83b d892 c2bc 6fc9 d63d
00000150: d36f c7bd e381 18be a710 ba3d a6b6 c63a
00000160: e8b3 babd 8020 bb3d 83b7 053e 773b a53c
00000170: aac2 903c e061 8a3b 42d2 113e 2c33 7d3d
00000180: ccb8 c93d e817 d9bc dc01 bebd 7971 263e
00000190: 28c8 d4bc b2c3 413d 8464 e5bd b9ce df3d
000001a0: 68e0 d83d d051 2d3d 7e03 e3bd 6b36 3a3c
000001b0: fc6c aa3d c2b9 dc3d d355 c43d 2a75 8c3c
000001c0: 5bb5 f5bc 855c e53d c11e 75bd 9838 983d
000001d0: be60 b5bd 4e03 66bd a08a d9bd 3017 063e
000001e0: 66da 06be 09fc 1e3d 8359 55bd 8343 2abe
000001f0: fb4e afbd e8b9 2bbd 68b3 493c 81cd 14be
00000200: 20f0 cebd 3580 06be 7fc1 b9bd 0823 fabd
00000210: cc11 093d ec98 c53d 77dd 8fbd 63c8 08bd
00000220: 9610 5cbd 2bec b03d 8ff1 a3bd 8c34 02bc
00000230: ce8d e8bd a323 c8bd a30d 27be 565d 58bd
00000240: dc07 1fbe 0c2b 02be a041 2a3e cd3b 7abc
00000250: f0ff e23d 38f3 4abd dfbe d83c 2c61 9b3c
00000260: 1529 0abe 8a8b c33d cb5e 9f3d 02e9 003e
00000270: 09b7 e6bd a8db 93bd 2a30 b8bd 7524 debd
00000280: 140b 6b3c 35b6 823c a7e2 f93d 32a2 27be
00000290: 6d77 bbbd 2c6d a93d d1d5 4b3d a81f 37bd
000002a0: 7400 7d3d 824e acbc 5f8d 873d 84b7 1c3e
000002b0: 76e6 843d 731c 1fbe 45c6 91bd 3591 233e
000002c0: 5213 92bd e70d bdbd ef0a ed3d 5730 403d
000002d0: c9ac 3a3d fac3 093e 612e 503c c1f3 2c3d
000002e0: 2d93 11be b5ac 21be 2586 28be 6567 923d
000002f0: ea9e 0fbe 6f52 063d b919 a0bd f25c d2bd
00000300: 3aed 21be fc6a 3ab9 be3b c13d dc52 23be
00000310: 15f2 ed3c f53a 5d3d 93dd 28be 8155 f6bd
00000320: 816e 11be 72bb f93c 572a 3d3d 4b99 09be
00000330: 9e8e 22be 7da8 09be 3101 58bc b874 14be
00000340: 7337 aabb 2fc5 04be 0a55 cbbd 5a83 1c3e
00000350: 81c4 0c3c 4bb4 8bbd ff5a 263e b176 e3bd
00000360: 71b6 c7bd 9d4d f3bd b384 05be ca1c debd
00000370: 6dae ab3c 1df6 a73d 7926 8fbc 3bb8 833d
00000380: 1b4e 713d 4973 033e ab40 063e ed02 0d3e
00000390: 7a0d 11be cc0d 823d eab7 e8bd e0d7 29be
000003a0: 4e57 e9bb 6104 723d e0c9 b83d 7760 a3b9
000003b0: cfaf fcbd c089 9d3d fae4 f7bd b40f 613d
000003c0: 99ed e63c c9f8 6f3d 7aa2 d23c f4e6 25bd
000003d0: bfa7 183d 979a 01be 7dff 99bd 7630 173d
000003e0: 846b c13d 230d 19be 8916 693d 3828 0ebe
000003f0: 7b1a 5a3d d9f6 23be cfa3 89bd 0979 0bbe
-0.053015407 -0.0335106 0.13622203 0.06406549 -0.09440426 -0.019864906 -0.07626783 0.03306438
-0.10432958 -0.15203479 -0.08224871 -0.12571965 -0.029147206 -0.009868058 -0.06703623 -0.08653295
0.14990836 0.054831862 -0.066707835 0.035113636 0.053927954 0.09790356 0.017105047 0.149078
0.021481846 -0.070662014 -0.14664021 0.15490122 -0.15454254 0.07348553 -0.12249902 0.11257936
0.1529179 0.035678297 0.022460485 -0.12054873 0.09298492 -0.15848915 -0.09018526 0.08090074
0.15319593 -0.05402844 0.010923175 0.05833169 0.13890813 -0.0772086 0.03368962 0.004606333
-0.030699 -0.088959 -0.14465746 -0.09261413 0.047910787 0.056744806 0.048584107 -0.15028484
-0.05590451 0.12336109 -0.009277709 0.13424009 -0.05397233 0.017811427 0.03281453 0.11142983
-0.16443838 -0.09890481 -0.025446855 0.022161178 -0.06313717 0.07654255 -0.13266917 -0.0360065
-0.050494403 -0.05951343 -0.07081188 0.09117615 -0.022703515 0.079743825 0.101120315 0.14520061
0.15797919 0.005133934 -0.023751661 0.10487639 -0.09738126 -0.14893298 0.090852074 0.0015160635
-0.09116346 0.09137058 0.13058285 0.020169957 0.017670948 0.0042230934 0.14240363 0.06181638
0.098497 -0.026500657 -0.092776984 0.16254224 -0.025974348 0.04730577 -0.112008125 0.10928101
0.10589677 0.04231435 -0.110846505 0.011365513 0.08321568 0.10777618 0.09586682 0.017145712
-0.029993704 0.11199287 -0.059843782 0.074326694 -0.08856343 -0.056155495 -0.10622144 0.13094783
-0.1316925 0.03881458 -0.05208732 -0.16627316 -0.08559986 -0.04192534 0.01231084 -0.14531519
-0.10104394 -0.13134845 -0.090701096 -0.12213713 0.033464238 0.09648308 -0.07024663 -0.03339423
-0.053726755 0.086387955 -0.08005058 -0.007947098 -0.11355172 -0.09772422 -0.16313796 -0.052823387
-0.15530342 -0.12711734 0.16626596 -0.015273047 0.110839725 -0.049548358 0.026458202 0.018967234
-0.13492234 0.09548099 0.07781752 0.12588885 -0.1126538 -0.072196305 -0.089935616 -0.108467974
0.014345903 0.015956024 0.12201434 -0.16370466 -0.09153638 0.08272776 0.049764458 -0.044707924
0.06176801 -0.02103353 0.06618761 0.1530438 0.064892694 -0.15538196 -0.07117895 0.15973361
-0.07132591 -0.09231167 0.11574351 0.0469211 0.045574937 0.13453665 0.01270637 0.04222465
-0.142163 -0.15788539 -0.16457422 0.07148627 -0.14025465 0.03279346 -0.07817406 -0.10271634
-0.15813151 -0.00017778197 0.09435223 -0.15949577 0.029046098 0.054011304 -0.16490774 -0.12028027
-0.1420231 0.030484889 0.046182957 -0.13437383 -0.15874717 -0.1344318 -0.013183878 -0.1449765
-0.0051945983 -0.12965845 -0.09928329 0.15284482 0.008591772 -0.068214975 0.1624565 -0.11106623
-0.09751595 -0.11880038 -0.13038902 -0.10845335 0.020957196 0.08201239 -0.0174744 0.064316235
0.058912378 0.12836947 0.13110606 0.13770647 -0.14165297 0.06350288 -0.11363204 -0.16586256
-0.0071210032 0.059086207 0.090228796 -0.00031161655 -0.1233822 0.07692289 -0.12104221 0.054946616
0.028189467 0.05858687 0.02571224 -0.040503457 0.03726935 -0.12656628 -0.07519434 0.03691145
0.09444335 -0.14946418 0.056906257 -0.1388253 0.05324791 -0.16012134 -0.06720697 -0.1362039

branch_t.fc1.bias f4 [128]
00000000: 3f08 d33d 765a c83d a563 4c3d 378a 1fbd
00000010: 16d5 cfbc 7a8b 4b3d f442 3b3d 924e c63d
00000020: 00e2 003e 5865 f8bd 3da9 d9bd 731b 1e3c
00000030: 11bc f53d 110e 893d 7b08 59bc 0619 17be
00000040: c109 19be a2a5 d8bc afcd 0e3d 7618 483d
00000050: 395c 053e d735 dbbd e9a0 d3bd 1e6e ebbd
00000060: e381 fabc c4f7 0fbe 82ac 09bd c7a2 eabd
00000070: 9641 adbd ee60 87bd ee78 a33c 2293 22bd
00000080: ae59 6cbd 2085 473d e0a9 cf3d 9cb7 e1bd
00000090: 7fed 123e e70c 12be cede d3bd 0a49 c23d
000000a0: 4278 e93d 07d9 203e c693 763d b5c4 fd3b
000000b0: 98a7 233d ff46 b8bd bbf7 d43d 3dee ef3d
000000c0: 20b0 203c a4cd 813d 4783 bf3d 452e d63d
000000d0: 74f5 20be 84e6 cc3d 69c2 863d b5ee 1dbe
000000e0: fcaf 50bd 175c 123e 0a47 c9bd 80b4 7ebd
000000f0: c1dd fd3c a978 48bd 28a6 1fbd a9a9 77bd
00000100: 8adf 78bd e049 21be 879a 793b 0276 dd3d
00000110: 3ea2 0dbd 00fd f53d ae9d db3b c1fc 473d
00000120: e7f6 76bd fde9 153d 16f4 403c eb71 b2bd
00000130: 6006 debd 2784 fd3d af9b 143e 9d7e 29be
00000140: 1429 e43d c699 4b3d 06c0 edbd 4dac 033d
00000150: b11e 39bd cde3 7b3d c7b6 b53d 7be3 d63c
00000160: 4206 8cbd 5981 b03d 0b45 173e d8c8 153c
00000170: fbb6 f7bd b013 103e cb26 713d 5e43 94b9
00000180: ed7f 99bd c7f2 1fbd 7104 2a3d 15df fb3d
00000190: 8204 25bd 7cd7 603d 4e80 893d 4f4c 6e3d
000001a0: 7000 01be 9e66 193e c025 15bc 793c cfbd
000001b0: 9b2e 0bbe 1ffa f53c 49d4 8fbd 5e84 7e3c
000001c0: f236 f5bd d43f 203e f1c5 ee3d 6df0 1dbe
000001d0: 8d9c 9abd a14c 703a e2ab 223e 5dcf 77bd
000001e0: a778 043e 257d 183e 2088 143d 19b5 5abd
000001f0: 84ce acbb 7edb 693d 666e 96bc 6552 873d
0.10304307 0.09782879 0.049899716 -0.03895017 -0.025370162 0.049693562 0.04571815 0.09682955
0.12586212 -0.12128705 -0.10627983 0.009650099 0.119987614 0.06692136 -0.013246651 -0.1475564
-0.14945127 -0.026446167 0.034864124 0.048851453 0.13023461 -0.107036285 -0.103334256 -0.114956126
-0.030579513 -0.14059359 -0.033611782 -0.114568286 -0.08459775 -0.06610285 0.019955125 -0.039691098
-0.057702713 0.048710942 0.10139823 -0.11021349 0.1434841 -0.14262734 -0.10345231 0.09486587
0.113998905 0.1570779 0.06019952 0.0077443966 0.03995475 -0.089979164 0.10398813 0.11715362
0.0098076165 0.06338051 0.09351211 0.10458044 -0.15718633 0.10004905 0.065800495 -0.15423091
-0.05094908 0.14292942 -0.09828003 -0.062183857 0.03098953 -0.048943195 -0.03897682 -0.060464535
-0.06076006 -0.15750837 0.003808649 0.10813524 -0.034578554 0.120111465 0.0067021465 0.04882503
-0.06029406 0.0366001 0.011776945 -0.087131344 -0.1084106 0.12378722 0.14512514 -0.16552205
0.111406475 0.049707197 -0.11608891 0.03214674 -0.045195285 0.061496545 0.08872753 0.026231518
-0.06837131 0.08618421 0.14772432 0.009142123 -0.12095448 0.1407001 0.058874886 -0.00028278952
-0.07495103 -0.03904989 0.041508142 0.12298409 -0.040287502 0.054893002 0.06713925 0.058178242
-0.12597823 0.14980552 -0.009103239 -0.10118956 -0.13591997 0.030026494 -0.07022912 0.0155344885
-0.119733706 0.15649348 0.11658848 -0.15423746 -0.07549391 0.0009166692 0.1588588 -0.06050049
0.1293665 0.14891489 0.03626263 -0.053395364 -0.005273642 0.05709409 -0.018363189 0.066075124

branch_t.fc2.weight f4 [64, 128]
00000000: a1ab b2bd 6799 33bd ef59 b3ba 2ea4 ee3c
00000010: 5167 523d d8e6 723d 0143 993b 6f52 a5bd
00000020: 95c8 1f3d 6bc8 25bd 04b9 093d 14ce d53c
00000030: f63e 533d 7cfb ca3c 84ca 8b3c 27c1 89bd
00000040: 7c6a 593c 33e0 5cbd a9f0 973d 5289 acbd
00000050: 61f0 383c d2e7 ed3c 4b97 cf3c fb06 24bd
00000060: e730 a1bd d5d4 5cbc 595e 9cbd 6966 debc
00000070: c95f 923d 2a2e 98bd f2b3 22bd 2af8 9bbc
00000080: ef04 3bbc 270a a93d b4da 043d 53ea ebbc
00000090: 58ea 5f3c 5cbd 723d 6db0 97bd a89f 80bc
000000a0: 0be3 e43c b9a4 2a3c ce0b af3d 9f21 a83d
000000b0: bf3d 093d 7c23 e63b db85 f2bc 7095 a4bd
000000c0: 393d b53d 4316 92bd abb4 05bd 49f7 69bb
000000d0: e8b5 003c 4971 573d 8a92 3c3c b77e 74bd
000000e0: c2e5 7c3c 58f5 553d dc4d 443d 57b3 4abd
000000f0: 3cbe 8a3c 1dfd 2b3d 6189 623d 031b 343d
00000100: be4b b43c fbce 90bd 8a94 a03d 2ec4 8e3d
00000110: aac1 75bc bc5b 03bc 483e 87bd 3655 27bd
00000120: f273 9e3d 0c76 a23d 5c71 aa3d e1ff e3bb
00000130: 28a5 54bc 4f2c 313d 9ab7 893d 443d b13d
00000140: 27f4 243d 9639 45bc 9370 a5bd 24b5 a23d
00000150: 5f3a d2bc 358d 9fbd 5c22 32bc afb1 053d
00000160: 8627 ae3d 4a0a 8d3d 0fc8 1c3d 7ee1 a93d
00000170: 8078 883b cbbb aebd 0c70 67bd bdc3 a2bd
00000180: a159 773d 23a7 4a3d 29ee 46bd 2694 06bc
00000190: ffc9 033d 4246 4abd fc8e 2c3d 776a 3b3d
000001a0: 9f56 acbd 9286 d6bc e81d 3a3c 764e 923c
000001b0: 32bc 73bd e09a 93bc 4dd9 9bbd f847 7ebc
000001c0: 9633 383a 392b 343d e101 90bd ea77 50bd
000001d0: e27f 3b3d 958b 9abd 2a72 3d3d 7cc3 efbc
000001e0: 73d8 ba3c 5e71 af3d 52d3 74bd 223b a93d
000001f0: b904 573d 86e5 833c f471 62bd add7 2bbd
00000200: 676b 39bd 36ae da3c 0ed5 a4bd 218f fdbc
00000210: de88 86bd 501b 84bd d291 b839 1199 b2bd
00000220: 4565 b03d b152 373c 02fe 3dbc ef8e b1bc
00000230: 7e31 44bd 315c ac3d 03cf 8a3c ecaa 8a3d
00000240: a78b a1bd 3614 b33d 9b4f 1f3d f5f1 a83c
00000250: 47b0 163d 0363 6bbd ccd1 99bd a67c 2abd
00000260: 260a 34bd 7e94 d13c e5ec 30bd 1f59 03bc
00000270: 0948 b2bc 5877 48bd b042 89bd f557 96bd
00000280: fa91 3fbd 37f7 9d3d 9a17 9ebd 3b67 823d
00000290: 401b 4039 59bc e93c 74da a9bc 4fda 4b3d
000002a0: 2e85 2cbd 232e 7ebc 0a84 99bd 0134 81bd
000002b0: 2fe6 763c d145 50bb beae b43c 2b3b 213d
000002c0: b79c b1bd 7fa1 d03c edd6 1e3d c37c 763d
000002d0: e06c 60bd 3577 14bd 7844 763d eb69 34bc
000002e0: 5664 1cbd 45c8 18bd 97ce ef3c 9176 2dbd
000002f0: 3119 a6bd 6be9 003d 3e83 e939 141a cdbb
00000300: 22c2 91bd 1eb1 b23d bf01 f8bc 8193 44bd
00000310: 619b 8c3d 985e 6c3d c896 883c 2ccd 23bc
00000320: 5bb7 6fbd c2a5 76bd fc75 423d 2f97 78bd
00000330: b763 173d 2388 40bd 6950 58bd 0737 a7bc
00000340: be41 b43c 0132 853c f2a4 d73c ff30 9abd
00000350: 1f5b 6a3d aec9 d83c 581e 593d 0781 5bbd
00000360: fba1 6a3d 4f66 3dbd 77ce a0bd 0237 ff3c
00000370: f0fa 0d3d 3d4e adbd aa7d 8bbd b835 1abc
00000380: 1750 9a3d 51dd 503d 84e9 2d3d d198 88bc
00000390: ede8 283c 173f b6bb e279 a3bc 84de 7a3d
000003a0: b689 a7bc 6924 a93d 84e9 a4bd 4f07 e53b
000003b0: 5a10 a63d d490 853c 8a21 1a3d f380 be3c
000003c0: 5015 72bd f836 84bd dfd2 f3bc 0e05 96bd
000003d0: 9ebb 69bd 73df af3c 80ad 3e3c 8c45 853d
000003e0: ffa8 443d e4ee 2a3d 9623 6ebb f1dc 213d
000003f0: 7fb3 dbbc 62ff 9a3d 10d0 5dbd 7868 8e3c
-0.08724142 -0.043847468 -0.0013683419 0.029131021 0.05136806 0.05930218 0.004677177 -0.080723636
0.03900965 -0.040474337 0.03362371 0.026099242 0.051573716 0.02477812 0.01706434 -0.06726294
0.013270017 -0.05392475 0.07418949 -0.08424629 0.01128778 0.029041205 0.025340697 -0.04004572
-0.078706555 -0.0134784775 -0.07635183 -0.027148442 0.07147176 -0.0743068 -0.03972239 -0.019039232
-0.0114147505 0.082538895 0.032435134 -0.028798258 0.013666712 0.05926262 -0.074066974 -0.01570113
0.027940294 0.0104152495 0.085471734 0.08209538 0.03350615 0.007023273 -0.029604843 -0.080363154
0.08849568 -0.07133152 -0.032643 -0.0035700372 0.00785587 0.05259827 0.011509547 -0.059691157
0.015435638 0.05223593 0.047925815 -0.049487438 0.016936414 0.041989435 0.055306796 0.043971073
0.022008773 -0.070707284 0.078408316 0.06971012 -0.014999786 -0.008017477 -0.06603676 -0.040852748
0.077369586 0.07932672 0.08322403 -0.0069579934 -0.012978829 0.043255147 0.06724472 0.086542636
0.040271904 -0.012037655 -0.080781125 0.07944706 -0.0256626 -0.07790605 -0.01087245 0.032640155
0.08503632 0.06886728 0.03827673 0.08294962 0.0041647553 -0.085319124 -0.05650334 -0.0794749
0.06038821 0.0494758 -0.04856697 -0.008214032 0.03217506 -0.04938341 0.042128548 0.04575583
-0.08414959 -0.026187215 0.011359669 0.017859679 -0.05950565 -0.018018186 -0.07609806 -0.015520088
0.000702673 0.043986533 -0.070316084 -0.05089561 0.045776255 -0.075461544 0.046251453 -0.029268019
0.02280829 0.08566545 -0.059771843 0.08263232 0.05249474 0.016100656 -0.055284455 -0.04195373
-0.045268442 0.026694398 -0.080484495 -0.030952038 -0.06569074 -0.06450522 0.0003520386 -0.08720601
0.08613066 0.011189149 -0.011596205 -0.021674601 -0.047898762 0.084160216 0.016944414 0.06770882
-0.07887965 0.08744089 0.038894277 0.020623187 0.036789205 -0.05746747 -0.07510719 -0.04162278
-0.04395499 0.025583502 -0.04319467 -0.008016854 -0.021762865 -0.04894194 -0.06702173 -0.07340995
-0.046770073 0.07713168 -0.077193454 0.06367346 0.00018320698 0.028532194 -0.02073405 0.049768742
-0.042119198 -0.01551393 -0.074958876 -0.06308747 0.0150695285 -0.0031779895 0.02205598 0.039363068
-0.08672469 0.025467632 0.038779188 0.060177576 -0.05479133 -0.036246497 0.06012389 -0.011011581
-0.038181625 -0.037300367 0.029273314 -0.0423494 -0.08110274 0.031472605 0.00044539006 -0.0062592123
-0.07117106 0.08725189 -0.03027427 -0.047992233 0.06865574 0.0577074 0.01667346 -0.009997647
-0.05852447 -0.060216673 0.0474758 -0.060691055 0.03696033 -0.04700483 -0.05281106 -0.020411981
0.022004005 0.016259195 0.02632377 -0.075288765 0.057215806 0.026463356 0.053007454 -0.053589847
0.057283383 -0.046240147 -0.0785188 0.03115416 0.03466314 -0.084621884 -0.06811078 -0.009412222
0.07534807 0.050992314 0.042459026 -0.016674431 0.01030944 -0.00556172 -0.01995558 0.061247364
-0.020451408 0.08258898 -0.08052352 0.0069893966 0.081085876 0.016304411 0.03762964 0.023254847
-0.059102356 -0.06455797 -0.029763637 -0.07325183 -0.05706369 0.021468854 0.011638045 0.06507406
0.04801273 0.04173173 -0.003633713 0.039517347 -0.026818989 0.07568242 -0.054153502 0.017383799

branch_t.fc2.bias f4 [64]
00000000: 2bcb 56bd 316d 16bb 0f1f 35bd 0d39 f5bb
00000010: 103c 10bc ece9 c53c 105f 82bd c007 71bd
00000020: 66d8 f93a 0080 68b7 e278 41bd 999a 29bd
00000030: da50 2bbd d986 93bb ec16 a93d 8ddd 8abd
00000040: 0054 6e3d f923 aebd 5b5f 5d3d 0f6d 2f3d
00000050: f535 70bd 5aca 273d fb17 0abd 417c 8abc
00000060: 6e25 ab3d e750 b43d 878b ae3d 40ff 9fbc
00000070: 6165 a63c c9c3 80bd 2911 b9bc 22cc c7bc
00000080: 8ff7 843d 1708 dcbc 9dd1 74bd da67 3abd
00000090: aa70 88bc a064 353b 471b a33d 333f 3dbd
000000a0: f806 efbb 9202 083d 6d3b afbd 2902 f63c
000000b0: 0f95 84bd 2280 f1bc 98d7 873c cd68 82bd
000000c0: 03b6 963c 959e aabd cc2e 5abd 385f 0d3d
000000d0: 1362 41bd bfc3 bbbb 1e4c 453d a851 6bbc
000000e0: 6b64 d8bc 38a5 80bb 497c 033d 1e74 453c
000000f0: 687f aebc 49c5 80bd fce6 47bd 03b2 95bd
-0.05243985 -0.0022953267 -0.044219073 -0.0074836076 -0.0088033825 0.024159394 -0.06365788 -0.05884528
0.0019061684 -1.385808e-05 -0.047234423 -0.0414072 -0.041825153 -0.004502159 0.08256325 -0.06780539
0.058185577 -0.08502955 0.054046016 0.042828616 -0.058645207 0.040964462 -0.033714276 -0.016904952
0.083567485 0.088044934 0.085227065 -0.019530892 0.020312013 -0.06287343 -0.02259119 -0.02438933
0.064925306 -0.026859326 -0.059770215 -0.045509197 -0.016655285 0.0027678385 0.07964187 -0.04620285
-0.007294532 0.033205576 -0.085562564 0.030030327 -0.06473743 -0.029480044 0.016582295 -0.063676454
0.018397337 -0.08331028 -0.053267285 0.034514636 -0.04721267 -0.005730122 0.048168294 -0.01436273
-0.02641507 -0.0039259456 0.03210095 0.01205161 -0.021300986 -0.06287629 -0.04880427 -0.07309344

branch_t.fc3.weight f4 [16, 64]
00000000: 73a3 243c a9c4 e6bc 6af4 90bd e21c f03c
00000010: d0a7 69bd 9009 6dbc ec22 993d cb42 1dbd
00000020: 04e5 3f3d cc10 f03d 4b7b a83d 600b 373d
00000030: 38f5 3abb 31eb debc 5305 79bd 7448 a1bd
00000040: 0fa2 11bd 73ca dc3d f257 6fbd 7d26 d8bd
00000050: 2b06 f63d fc97 f7bd e2c5 b3bd f2d0 fb3c
00000060: 0e0c b4bd af08 c93c 6403 5f3d 6023 91bb
00000070: 2d19 b6bd 8380 fa3d a599 43bd c889 d1bd
00000080: f757 00bd 61e3 1abc f8e4 5b3d 3092 d7bc
00000090: 136d 25bc 005b 633b 0ae0 b2bd 0a05 d83d
000000a0: 5cd8 b63c 9d38 cfbd 81b2 04be d08b f53c
000000b0: 8cee ac3d 7689 8abd ad98 febd 3c5e 603d
000000c0: d5e7 c53d 30d0 0cbd b1d2 3f3c 07c3 77bd
000000d0: a42d 45bd 8032 9c3d 22dc 863d f84b 9c3d
000000e0: 6f7f 0d3d 55db d93d 9818 cc3d 9c3a c23d
000000f0: 6872 c63d 6038 8b3d 6cb8 3f3d fb9d 0dbd
00000100: c412 433d 9b90 bcbd 92d3 db3d fcdf babd
00000110: 0c50 963d 6694 93bd 204d e5bb 0d96 a63d
00000120: ca0d 203d 3004 0fbc 07c3 f63d 0c5f f1bd
00000130: bf49 933d 6492 00bd ad57 ca3d f4b0 eebd
00000140: 0367 fcbc c383 5a3d 274b babc 2234 93bd
00000150: e593 91bd d41b cc3d ba15 b03d fb9a 91bd
00000160: 4f7d d7bd 3061 243d 5e3a f13d 9e0f a2bd
00000170: 53f1 d03d aa27 d5bd 69e4 613d 7e56 02bd
00000180: b7bf ec3d ed7e 0b3d b0aa cb3d 9c5f 3e3d
00000190: 312f 8ebd 7645 f63d 5d03 b63c a84f e73d
000001a0: 7c1a 8fbd 6ffe bf3d 9721 4abd 4bde b73d
000001b0: 25fb e03d 8cf4 4e3d 7601 27bd a02c 033d
000001c0: d2ef 1c3d fab8 d1bc ac3f 3e3d c5fc 3ebd
000001d0: a4e1 aabd a375 cbbd f02a 61bc d874 92bc
000001e0: d51f 963c aa08 ddbd 4646 8f3d 038a 8dbd
000001f0: 5381 42bd a226 a4bd cac0 b63d 9d8f 703c
00000200: ed40 b03d 4831 623c e0f9 fd3c 9e58 ff3d
00000210: 5689 c03d 60ab 8c3b 34d4 03bd 746a 45bd
00000220: dc2f 4fbd a84d 6cbd 5f51 3cbd e832 c73d
00000230: 66a8 97bd 5e3d 283d fad2 383d 540c 35bd
00000240: f4da 55bd 7834 69bd 1c67 92bc 57c6 35bd
00000250: 6ca4 0a3d 046e 563d 7899 993d f52c c73d
00000260: c4f7 0e3d b615 c8bd 000b 953a 3043 6e3c
00000270: 7cae 2fbd 8440 303d 28ff 68bd 7914 9ebc
00000280: c5cd d2bd 2058 88bd 50e3 b43c e054 783c
00000290: 3294 5c3d 58dd ef3d 34eb 533d 8063 b6bb
000002a0: 7cde 63bd 38f8 5a3d 4d2a 4cbd 2c2e f73d
000002b0: cf2a a53d f88a 6dbd b879 6ebd 77de c1bd
000002c0: 8093 d4ba 5f9e f1bd e3b8 a73d 9d5c 2fbc
000002d0: 15b7 89bd c90a 8c3a 9483 5c3d 0cb5 373d
000002e0: 2f34 7ebd 1171 bf3d 3f56 59bd fc2f e0bd
000002f0: 22f2 933c 39d3 a1bd 68ba a2bc 47a0 cdbd
00000300: f44a d13d 2012 e2bd a0eb d7bc 8426 debd
00000310: 5eb8 f33d 44f6 bb3d 20cb 7ebc a476 ee3d
00000320: 20d0 c5bb 20da 81bb f02b 7f3c c093 0b3b
00000330: 2ae0 c1bd 2028 06bc 0462 d5bd 9ce1 d93d
00000340: 0477 82bd 5aca cbbd becc 973d b442 5cbd
00000350: dc6f 23bd 503c a53d 3810 8e3d 50a5 bf3d
00000360: 4699 8a3d 2078 9fbd c8a5 af3c 1ecd a9bd
00000370: c24f febd 5443 0cbd 9a5b 903d 78d9 833c
00000380: 6677 eabd 6007 0f3c fab5 a83d c0ca e7bd
00000390: e864 f7bd 40c6 763b 7889 fbbc 9e14 d63d
000003a0: 1664 c4bd 6c5e 4c3d bca7 aabd a034 0b3d
000003b0: 6a6f b93d 64e2 bbbd c8ad d93d e684 d8bd
000003c0: b251 d9bd 003f 5c3c 1227 8b3d 6844 d4bc
000003d0: d06b 3c3c 2cfa bb3d 4038 923b 00a0 acbd
000003e0: 30a7 7f3c ec8e 11bd 8eb6 e1bd f02c 1abd
000003f0: 5442 85bd 4cae 79bd cefd eebd e4b8 15bd
0.010048735 -0.028169947 -0.07077868 0.029310647 -0.057044804 -0.014467612 0.07477364 -0.038393777
0.046849266 0.11721954 0.08226641 0.044688582 -0.002852751 -0.027211757 -0.060796093 -0.078751475
-0.03555494 0.107808016 -0.05843348 -0.10554216 0.12012895 -0.120895356 -0.087779775 0.030739281
-0.08791362 0.024540273 0.054446593 -0.004429266 -0.08891521 0.12231543 -0.04775395 -0.10231358
-0.03133389 -0.009453625 0.05368516 -0.026314825 -0.010096806 0.0034691691 -0.08734138 0.10547836
0.022319965 -0.1011822 -0.12958719 0.029973894 0.08443937 -0.067645 -0.12431464 0.05477737
0.09663359 -0.03437823 0.011707948 -0.060488727 -0.04813923 0.076268196 0.06584956 0.076316774
0.03454536 0.106375374 0.099656284 0.09483835 0.0968979 0.06797862 0.046806738 -0.03457449
0.04762532 -0.09207269 0.10733713 -0.09124753 0.073394865 -0.07206039 -0.0069977194 0.08134089
0.03907565 -0.008729026 0.12048917 -0.11785707 0.071918 -0.03138961 0.09880004 -0.11654845
-0.030810839 0.053348314 -0.022740914 -0.07187678 -0.07108287 0.09966245 0.08597894 -0.07109638
-0.105219476 0.040131748 0.11778711 -0.07913135 0.10202279 -0.10407956 0.05514947 -0.031820767
0.11560004 0.034056593 0.099446654 0.0464779 -0.06942595 0.12024967 0.0222184 0.1129449
-0.06987473 0.09374701 -0.04934844 0.08977946 0.10985402 0.050526187 -0.040772878 0.03202498
0.038314648 -0.025600899 0.04644744 -0.04662778 -0.08343819 -0.09934547 -0.013743147 -0.017877981
0.018325726 -0.10792668 0.069958255 -0.06911089 -0.047486614 -0.08015181 0.0892349 0.014682678
0.086061336 0.013805695 0.031002939 0.12468074 0.09401195 0.0042928904 -0.032184795 -0.048197225
-0.05058275 -0.057691246 -0.04597604 0.097265065 -0.07405166 0.04107415 0.045123078 -0.04420121
-0.052210763 -0.056934804 -0.017871432 -0.044378605 0.03384821 0.052351013 0.07499975 0.09725372
0.034904256 -0.09769766 0.0011371076 0.014542386 -0.04289101 0.043030277 -0.05688396 -0.019296871
-0.10293154 -0.066574335 0.022081047 0.0151569545 0.053852268 0.1171214 0.05173798 -0.0055660605
-0.0556321 0.053459376 -0.04984503 0.120693535 0.08064806 -0.05799386 -0.05822155 -0.0946626
-0.0016218275 -0.11797785 0.08189561 -0.010703233 -0.06724373 0.0010684367 0.05383642 0.044850394
-0.062061485 0.093477376 -0.053060766 -0.10946652 0.018059794 -0.07901616 -0.019864276 -0.10040336
0.10219374 -0.11038613 -0.026357472 -0.1084719 0.119003996 0.09177831 -0.015551358 0.11643723
-0.0060367733 -0.00396277 0.01557444 0.0021297783 -0.09466584 -0.0081882775 -0.104190856 0.10638735
-0.06370357 -0.09950705 0.07412098 -0.05377455 -0.0399016 0.08068144 0.06936687 0.09357703
0.06767516 -0.07786584 0.021441355 -0.08291076 -0.12417556 -0.034243897 0.070487216 0.016094908
-0.11448555 0.008729786 0.08237834 -0.11317968 -0.12079793 0.0037654787 -0.030705199 0.10453151
-0.095894024 0.049894735 -0.08332774 0.033985734 0.09054454 -0.0917404 0.10628849 -0.10572223
-0.10611285 0.013442755 0.067945614 -0.025911525 0.011500314 0.09178576 0.004462272 -0.08428955
0.015603825 -0.03553669 -0.11021148 -0.037640512 -0.06506792 -0.060957238 -0.11669503 -0.03655328

branch_t.fc3.bias f4 [16]
00000000: 0c19 6abd 37ce 563d 9b21 febc 6099 663c
00000010: d2d2 edbd 4d5e b5bd 84eb d8bc c768 e23d
00000020: 6525 613c d0e2 d03d 2f51 cabd a86e c53c
00000030: f0c7 35bc 8822 703b 045c 50bd 2a78 b83d
-0.057152793 0.052442756 -0.031021884 0.014074653 -0.116124764 -0.08855877 -0.02647949 0.11055141
0.013741826 0.10199511 -0.09878766 0.024100617 -0.011095032 0.0036641676 -0.050869003 0.090072945

branch_p.fc1.weight f4 [256, 34]
00000000: c682 11bd 0b65 593d 4399 0dbc 7c1a a2bd
00000010: cf02 19be 2ae6 463d 209d 27bd 5157 ddbc
00000020: 55bf c23d dcd9 ce3d 84a2 513c ecc0 1c3e
00000030: 514f 81bc 698f 623c b45d 9cbc 5c9a 11bd
00000040: 7045 02be d727 0bbe 6db2 21be b0e6 3dbd
00000050: 14e3 ddbc b01a 28be cdf1 bdbd 63ed 903d
00000060: 6f24 17be 5f4e 0ebe a656 0fbe 1a4f e23d
00000070: 8150 2dbe 0d48 0dbe c276 bb3d 155a b13d
00000080: 1840 d63a 20c7 713d a1f3 223d fe5a 11be
00000090: a6d7 36bc 3906 c03d db7b afbd 43b9 64bc
000000a0: 8efb 103e 7ffe 273e 6225 2cbe 5d4e 5d3d
000000b0: 093a fabd f8b1 d0bc 3163 b33d 2322 5dbd
000000c0: b488 ce3d b046 47bd d432 21be 4a36 333d
000000d0: abd9 91bd 35da 88bd 8f07 e9bd 3367 813b
000000e0: dc49 c4bd b9f6 84bd 9777 313d 77ad c03d
000000f0: 15e3 d03d c25f 333c e532 93bd b65a f7bd
00000100: d6ce 46bc c7ca 5bbd db6e 1bbd 4e5f 203e
00000110: 0f6c 21bd 8f7c 263e 1fff de3d f646 293d
00000120: d7a4 9c3c ded0 d53d 48a8 003c dc1e 063e
00000130: 4fb7 09bd efa6 72bd cbdb ebbd 53e2 b53d
00000140: 5c24 cebd b2cd 1c3e f0cb 25bd 593f c73d
00000150: e524 08bd 96a6 a23d b890 abbd b6ab cabd
00000160: d04c ad3d 7a03 0e3d 67eb 18be b66f 86bd
00000170: ff09 cb3c 9cf9 8cbc 8bec a43c 78cf e93d
00000180: a2d3 7fbc e161 743d 2ff4 f1bd 6ad7 efbd
00000190: 79ee a2bd f97d bc3d bcc9 743d 49b1 78bd
000001a0: 9726 ba3c 0356 13be e193 973d 77d9 e7bd
000001b0: 91dd 723c e6b2 b4bd 49c1 2ebe d5b0 e0bc
000001c0: 152f ebbc a7b6 633c 8c43 d43d b3b8 72bd
000001d0: d0e0 d7bd 2b3a 94bd e4e8 92bd 58f4 d9bd
000001e0: 1c88 15be cca9 243e f0c1 3038 7778 e73c
000001f0: dddc e03d 51bf 00be 4aeb c5bd fa4c 1ebe
00000200: ef8b cabd e541 7e3d 977b 1abe 3d9f 57bd
00000210: b4c2 273e 68ba 273e 2984 1dbb 7a14 cfbd
00000220: 3a16 2ebc e9f7 20bd e518 a53d a985 2abd
00000230: cc4b 74bd df8e 2bbe 1950 223c ce8f 903d
00000240: 5eee 26bd 91b8 263d f8e3 193d 8697 f33c
00000250: 4b6c 3a3d 0de0 2dbd 846c 4a3c eb90 783c
00000260: 1322 0cbe a8b6 9f3d 0d0a c23d 55f1 1e3e
00000270: ce2f a3bb bc8a 1e3e acd5 8b3a eed2 023e
00000280: 7ce7 6ebc 95c6 cbbd f765 36bd dd48 aabd
00000290: 4a8c 1b3e b3b4 1a3c 891b 27be 53e3 1abe
000002a0: f935 23be 5d92 2f3d ac05 2b3e b384 a33d
000002b0: 06a7 0d3e 20fd 05bd d803 003e 797b 883d
000002c0: 651c 163e a6bc c63d 2181 fc3d b0dc 2a3e
000002d0: 285f f63d 9d3d a2bc 53f9 9e3d 4b78 ce3a
000002e0: 05bc 5fbd 3930 a3bd 8b48 02bc fba4 b8bd
000002f0: 1ebf 15be 96c7 103d 3660 6c3d 5632 17bd
00000300: 263f 753d 490c 0b3d 199c 123c d261 ce3d
00000310: 405d 1fbe 8390 e83d f348 a93d e07b 4a3d
00000320: cca7 05bc ce5d c63d 146e 8b3c 1b46 c63d
00000330: f54d 08be a35b 8dbc 5e9e c3bd 0c9c 68bd
00000340: c2ec 21be 1e29 1bbe bb3b 02be cc28 e83c
00000350: 120b 90bd 4c70 083e d39b 8cbd 7606 ce3d
00000360: 5323 8ebc 9d54 1bbe d6bc d23d e316 d83d
00000370: 3b4a 72bc e8fc 1c3e 641f a73d 9e0a 72bd
00000380: 0200 2d3e 24bb dcbd 48ae 6eba a0cb 08be
00000390: 5b80 a5bd b4fd c53d 984e 10be f9ec e93c
000003a0: 7c65 133e 9a37 703c 5753 be3c 3c43 d0bd
000003b0: 138c 253e 9960 b2bd 2bcf b5bd 3254 0e3d
000003c0: 9b64 aebd 528c 0cbe 0a13 153e 7d10 92bd
000003d0: 8aa0 643d 9877 3abb c629 41bd 5c9e d9bc
000003e0: 77f5 bbbd 78a8 093e a0ad 46bd 980b 043e
000003f0: e0bb 223e 2761 81bd 28e4 0e3d 9204 153e
-0.035525106 0.053074878 -0.0086424975 -0.07915208 -0.14942478 0.048559345 -0.04092133 -0.027019175
0.0950915 0.10100147 0.012795094 0.15307969 -0.015784891 0.013828137 -0.01908765 -0.0355476
-0.12721801 -0.13589416 -0.1579072 -0.04636258 -0.027085818 -0.1641643 -0.092746355 0.07076528
-0.14759992 -0.13897084 -0.13997898 0.11050244 -0.16925241 -0.13797016 0.09153511 0.0865976
0.0016346006 0.05902779 0.039783124 -0.14194867 -0.011159813 0.09376187 -0.085685454 -0.013960185
0.1415846 0.16405676 -0.16811135 0.05402981 -0.122181006 -0.025475487 0.08759154 -0.053987633
0.10084668 -0.048651397 -0.15742046 0.043752946 -0.07121595 -0.06682245 -0.11378395 0.00394907
-0.095844 -0.06492371 0.04332694 0.09408086 0.101995625 0.010948123 -0.07187442 -0.120778486
-0.0121342745 -0.05366018 -0.037947517 0.15661356 -0.039409693 0.16258453 0.10888504 0.04132744
0.01912157 0.10440229 0.007852621 0.1309771 -0.033622082 -0.05924123 -0.115165316 0.088810585
-0.10065529 0.15312842 -0.040477693 0.097288795 -0.03323831 0.0794193 -0.08377212 -0.098960325
0.084619164 0.034671284 -0.14933549 -0.06564276 0.02478504 -0.017208867 0.020132324 0.11416525
-0.015614422 0.059663657 -0.118141524 -0.11711009 -0.07955641 0.09203715 0.0597627 -0.060715947
0.02272348 -0.1438828 0.074012525 -0.11320775 0.014823333 -0.08823185 -0.1706592 -0.02742807
-0.028708974 0.013898528 0.10364446 -0.059258174 -0.105409265 -0.07237657 -0.071733266 -0.10642308
-0.14602703 0.16080397 4.214229e-05 0.028255684 0.10979626 -0.12572981 -0.096640185 -0.15459052
-0.098899715 0.06207456 -0.15086208 -0.052642096 0.16382867 0.16379702 -0.0024035072 -0.101113275
-0.010625416 -0.039298926 0.08061389 -0.041631375 -0.059642598 -0.1675372 0.009906792 0.070586786
-0.04075467 0.04070336 0.037570924 0.029735338 0.045513432 -0.04245 0.012354974 0.01517127
-0.13684873 0.07798511 0.09474573 0.15521748 -0.004980064 0.1548261 0.0010668538 0.12775776
-0.014581557 -0.09949986 -0.044530835 -0.08314679 0.15190235 0.009442496 -0.16319098 -0.1512578
-0.15938558 0.042864192 0.16701382 0.07984295 0.13833246 -0.032712102 0.12501466 0.066641755
0.14659269 0.097039506 0.12329317 0.16685748 0.12029868 -0.01980477 0.077623986 0.0015752403
-0.05462267 -0.07968182 -0.007951866 -0.090158425 -0.14623687 0.03534659 0.05770894 -0.03691324
0.059874676 0.033947263 0.008948349 0.100772515 -0.15562916 0.113556884 0.08265867 0.049434543
-0.008157682 0.096858606 0.017020263 0.0968134 -0.13310988 -0.01725561 -0.095516905 -0.056789443
-0.15812972 -0.15152404 -0.12718098 0.028339766 -0.070333615 0.13324088 -0.068656586 0.10059826
-0.017350828 -0.15168996 0.10289924 0.1055124 -0.014788206 0.15330851 0.08160284 -0.059092157
0.16894534 -0.10777882 -0.00091049494 -0.13358927 -0.080811225 0.09667531 -0.14092481 0.02855538
0.14394182 0.014661694 0.023233099 -0.10169074 0.16166715 -0.08709831 -0.08877405 0.034748264
-0.08515283 -0.13725403 0.14558044 -0.07132051 0.055817164 -0.002845263 -0.04715898 -0.02656477
-0.09177678 0.13443172 -0.048505425 0.12895048 0.15891981 -0.063173585 0.034885556 0.14552525

branch_p.fc1.bias f4 [256]
00000000: 1358 db3c 7937 27be fdbf 2abe 63ae 00bd
00000010: 76e0 06bc 4190 89bd cb94 a33b 121e 5ebd
00000020: 6bb8 ddbd 10f1 293e 3640 1ebe 20a1 12be
00000030: d421 84bd fc97 80bc cbd8 f33d 0288 e33b
00000040: 6122 ea3c a248 213d a548 1bbe 3310 0cbe
00000050: d0df f4bc 4929 d1bc 8204 003e 7727 61bc
00000060: da2e fbbb 4eb8 c53d a695 b1bd bf8a 793d
00000070: 8924 1a3d 300a 68bd 99d1 50bc 966e 28b9
00000080: c7d8 d6bd 4897 833d 8c1e 82bd 47cb ebbd
00000090: 80f8 d9bd a443 3e3d ec16 233e 0abb 06bd
000000a0: 94a2 8fbc 0e03 043d dd36 79bd ec34 a8bd
000000b0: 0dea 4dbd cf12 8dbb ce9d 743d 2bd1 1f3d
000000c0: 3c77 00be 9b83 14be 4972 893d 0ed2 cebd
000000d0: 920e d0bd 8e44 dbbc 407f 0f3e 3015 b9bc
000000e0: 7f3f 89bd 2807 1b3e a3c6 06be fd87 003e
000000f0: c6bf f4bd 497d efbd d70d 0c3e fb10 dbbd
00000100: c2f1 8d3d 62cf ae3d 97ce 0c3e 0623 f63d
00000110: 544e b0bd a345 32bd b8e6 0d3e 4206 263e
00000120: 07cf 18be 765c cd3c 2331 44bd c505 1dbc
00000130: 1ce9 aa3c f58c 203c 8add a1bd 3e40 273e
00000140: d3b1 81bd acb5 c23d c455 61bd 9865 1cbe
00000150: ada6 0abe 677f d6bc 062a 9ebd 5d66 08bd
00000160: d3d7 a13b 8b9b 0ebe d9fe 7fbd 33e9 26be
00000170: 97af ca3d fcab aabc 8c9e 083d ce40 113d
00000180: 6e72 f93d 848d 00bd e230 ca3d d91e 23be
00000190: ab5c b93d ad81 093e 060c 293d 18e4 c83d
000001a0: dbac 213e e9c5 033e 55eb 28be 62e0 0fbe
000001b0: a0e7 403c 6202 9b3d c397 f7bd a464 5a3c
000001c0: 929d 08be 5d07 1c3e dd61 94bd b3ee fabb
000001d0: 2940 403d acef e9bd cfad 173e eb09 933d
000001e0: 988b f9bd 4dff 06bd a384 b6bd 85ff 5c3d
000001f0: d680 a5bd 8831 13be b840 e9bd 020d 983d
00000200: 6519 19be 8553 adbc 9aec 04be ebef 2b3e
00000210: 4f1a bbbd a82e bdbb abd4 f0bd e261 c4bd
00000220: f90b 2a3e 85f2 ba3d a850 d5bd 94c0 ad3a
00000230: c450 983d c7bb e43c 6692 ba3d a46c 23bd
00000240: db9d 923d a715 9dbd 8f08 04be ad22 babc
00000250: 2ef3 143e 6065 a0bd 66f4 8b3d 27a2 1c3e
00000260: 0a74 2abe a602 223e 2717 163e 1a6f cbbc
00000270: 20f2 c53d 9567 a13c 2ad4 1dbe 74c3 2ebe
00000280: 82e9 dbbd 2815 2e3e ada2 ecbd 34fb a43d
00000290: e483 123e deba 2cbe d6a3 04bd 92ac 5b3d
000002a0: 5eb2 c83c 4d77 983c 9700 2d3e 2a86 f33d
000002b0: 98de c13d 7e7b 233e ddaa dcbc 830b 4ebd
000002c0: 9984 2a3e 54db d3bd dea4 123d 7c2e e63d
000002d0: 0d84 713d c7d4 fd3d 8059 243e 5a7b 6f3d
000002e0: 5ec9 293b 63bd 5dbd aef7 1f3c 7632 44bd
000002f0: 0913 193e 91f7 13be 490e ebbd 9d39 1dbe
00000300: ced5 15be 1e12 dfbd 7a59 d2bd 7e32 733d
00000310: 38d5 663d f97c a2bc 8fd2 20bd 060a 243e
00000320: 0bd2 f33d 8f66 76bd 4b48 ac3c 709d 22bd
00000330: 5ebe 973d 5ff2 25be 6c9b f83d 691c fd3b
00000340: af72 273d 707e 24be d343 c43d 895d 7abd
00000350: 5a44 de3d 8b4e 15be 7cd2 a73d b8d8 fb3d
00000360: 585f 09bd 3d0d 08be 06e7 823d e247 f53c
00000370: 3101 9f3d 1245 1fbe 0e56 f93d 47ec babd
00000380: b013 9abd 383c 28bd cbe6 a0bd c75b 163e
00000390: 8ab1 813d d4bc c9bd 10b8 0bbe 7b2d 0abc
000003a0: a84e d83c 019e 093d 7a42 97bd 4b06 dc3d
000003b0: a04f 59bd 2a8f d0bd 5631 a43d 1ac5 15be
000003c0: 0c92 19be fb52 0a3e 2672 77bd fa6c 0bbd
000003d0: 8abf d4bd 026f 2c3e fa08 eabd 4fad ad3d
000003e0: 5ae7 0f3e 106f 16be 7bfc 98bd 8e6f 52bd
000003f0: 49f4 163e 89ec 40bc 0015 cdbc eb60 d4bd
0.026775395 -0.16329755 -0.166748 -0.031416308 -0.008232227 -0.067169674 0.0049921027 -0.054227896
-0.108261906 0.16595864 -0.15454182 -0.14319277 -0.06451765 -0.015697472 0.11906584 0.0069437036
0.028580846 0.03937591 -0.1516443 -0.13678055 -0.029891878 -0.025532382 0.1250172 -0.013742319
-0.0076654973 0.09654294 -0.08671121 0.060923334 0.0376325 -0.05665034 -0.0127452845 -0.00016062925
-0.10490566 0.06425339 -0.063534826 -0.115133815 -0.10643101 0.046451226 0.15926713 -0.032893218
-0.017533578 0.032229476 -0.060843337 -0.08213219 -0.050272036 -0.0043052207 0.059720807 0.039017837
-0.12545484 -0.14503329 0.06711251 -0.100986585 -0.10159029 -0.026766088 0.14013386 -0.02259311
-0.06701564 0.15139449 -0.13161711 0.12551875 -0.119506404 -0.11693818 0.13677154 -0.10696598
0.06930877 0.08535649 0.13750683 0.12018399 -0.0860869 -0.043523442 0.13857543 0.16213325
-0.14922725 0.025068503 -0.047898423 -0.009583895 0.020863108 0.009799232 -0.07903583 0.163331
-0.063327454 0.095073074 -0.055013433 -0.1527313 -0.13540144 -0.026183797 -0.07722859 -0.033300746
0.0049390583 -0.13926522 -0.0624989 -0.16299896 0.09896772 -0.020833962 0.033354327 0.035462193
0.12180029 -0.03138496 0.09872605 -0.15929736 0.09050878 0.13428374 0.041271232 0.098091304
0.15788595 0.12868465 -0.16496022 -0.14050439 0.011773974 0.07568814 -0.12089493 0.013329659
-0.13341358 0.15237184 -0.072452284 -0.0076578497 0.046936188 -0.11422667 0.14812396 0.07179626
-0.121848285 -0.032958318 -0.08912017 0.05395462 -0.08081214 -0.14374363 -0.11389297 0.07424356
-0.14951093 -0.02115799 -0.12980881 0.1679074 -0.09135877 -0.005773384 -0.11759313 -0.09588982
0.1660613 0.09128288 -0.104157746 0.0013256245 0.0743728 0.02792157 0.091099545 -0.03989853
0.07159015 -0.076701455 -0.1289389 -0.022721613 0.1454589 -0.07831836 0.06833725 0.15296231
-0.16645828 0.15821323 0.1465727 -0.02483325 0.09665322 0.019702712 -0.15412965 -0.17066747
-0.107378975 0.17000258 -0.115544654 0.08055726 0.14308125 -0.16868159 -0.03238281 0.053631373
0.024499115 0.018611575 0.16894756 0.11890824 0.094662845 0.15965077 -0.026936943 -0.050303947
0.16652144 -0.10344568 0.03580176 0.11239335 0.058963824 0.123941 0.16049767 0.058467247
0.0025907378 -0.05413569 0.009763641 -0.047899686 0.14948668 -0.14449908 -0.11477334 -0.15354009
-0.14632341 -0.108921275 -0.102709725 0.059374325 0.056355685 -0.019834982 -0.039263304 0.16019449
0.11905297 -0.0601564 0.021030566 -0.039700925 0.074093565 -0.16205738 0.12139019 0.007724334
0.040880855 -0.16063857 0.09583249 -0.06112436 0.10852881 -0.14580743 0.081944436 0.12297195
-0.033538193 -0.132863 0.063917205 0.029941503 0.07763899 -0.15553692 0.12174617 -0.091270976
-0.07523286 -0.041073054 -0.0785652 0.14683448 0.06332691 -0.09850469 -0.13644433 -0.008433695
0.026404694 0.03359795 -0.07385726 0.10743388 -0.053054452 -0.101835564 0.080172226 -0.1462597
-0.14997119 0.13508217 -0.060411595 -0.034039475 -0.10388096 0.16839221 -0.114274934 0.084803216
0.14053097 -0.14690804 -0.07470032 -0.051375918 0.14741625 -0.011775144 -0.025034428 -0.10370048

branch_p.fc2.weight f4 [128, 256]
00000000: 5c8c 063d 4b63 febc c961 30bd 7caa 2dbd
00000010: 9359 243d fbc0 713d 488d edbc 0d87 203d
00000020: 7db5 f03c 78ab 64bd 19cb ecbb 08f8 37bd
00000030: 4bc9 29bd 6382 6ebc 10e0 283d 6b66 4bbd
00000040: 2500 cb3c 2ce2 2dbb acbe 6dbc 607c 7c3d
00000050: 1250 3a3d ceb5 44bc 079b b9bc 778a f93c
00000060: 2f0a d6bc f137 66bd 0f5b 5a3d 74fa 60bc
00000070: 9111 f73c a7ce 79bd 1db1 29bd 7984 113d
00000080: 13d9 b43c 29d0 4e3d 6f87 e5bc 1977 883c
00000090: fe23 703d 1e39 8c3b 2d74 2a3d e556 113d
000000a0: 1b29 dc3a 8f87 1a3c 63e4 72bc 6ab4 323d
000000b0: edc7 6ebd 9ce7 98bc ade4 43bb 7fa9 f03c
000000c0: 484d 523b 47cc f73c 0913 41bd eda2 5c3d
000000d0: 4135 cebc fd0d 43bc bd3e 6f3d ac90 9cba
000000e0: b38b 273d b7c6 d83c 360b 593d d4b7 413d
000000f0: da93 b4bc 6088 0cbd c635 ca3c 9a81 54bd
00000100: d04e 0f3d c8d0 31bd eab2 e7bc f99a 69bd
00000110: caa4 633b 6f91 77bc f712 7bbc c9f8 533d
00000120: 7a1f 21bd 947a 9e3c 64dd 203c 16cc 7ebd
00000130: 0c91 33bd 4cc1 88bc 2277 64bd 5243 9ebb
00000140: 32ce 863b 4692 2c3d eb5f 1fbc 1eae 1e3d
00000150: 95ec f0bc aeee 1d3d 9ca4 0d3d fdc9 32bd
00000160: f00e 6fbd 7c14 c73c 48d0 f53b e5d5 073d
00000170: 1873 8a3c 5ad8 51bd ae8a d53b 806e 3a3d
00000180: 6696 403d 452b 19bd b5bc 35bd 4d4a 3f3d
00000190: 4845 18bd e43c 69bb 7b2a 203d 26fa 1abd
000001a0: 8719 d4bc 0c9f 52bd 6ead b9bc 7d93 cfbc
000001b0: 1e91 3e3d aaf6 d63b 1e48 553c cd49 dc3c
000001c0: 1b42 d73b e6ac 54bd 3e99 383d 0a3d c1ba
000001d0: 07ad 66bc e414 d5bc 5767 e43c 2ef6 c13c
000001e0: e725 b33c 81b0 653d c634 1cbd bafe 853c
000001f0: d115 df3a b1ec 4d3d dce0 b73b 5261 cb3c
00000200: 15c6 e6bc 98dc 763d bc8e 163d cdd0 af3c
00000210: 2ddf 113d 1df2 863c d8bd 3cbd b487 a8bc
00000220: 1327 e23c 95f3 623d e34a 41bd 5edf 423d
00000230: 8044 5cbc 2704 6c3d 9a6e 1bbd 2aea 653d
00000240: 0045 2c3c c5db e33c 0cad 113d 0253 cabc
00000250: d83b 7d3c 972c 5f3d 708d 61bd b2e9 3cbd
00000260: 46da f13c 066b 28bd cf83 8a3b 7867 913c
00000270: 04a1 f43c f167 533d 9bb8 bfbc 37fa 62bd
00000280: 994c 733c 1217 343a 004e 5cbd 5c81 6ebb
00000290: 2f7d 183d cc6c a7bc ebc9 7bbd 6de1 d1bc
000002a0: 6b7a 0e3d 84ab 8c3c ea7b 483c 4d82 2c3d
000002b0: 9132 7f3d 8978 683d 71dc 503d c88e ac3c
000002c0: 37cd 1f3d e078 26bd 7cb5 2bbd 9a25 113d
000002d0: e017 34bd df56 083b ae81 cf3c 9360 30bd
000002e0: 53c1 8bbc acdd d63c 4724 fe3b 74e4 c4bc
000002f0: 2191 533d fa47 d4bc 774d 30bd 27f2 583c
00000300: c475 98bc e2a8 7a3d 2487 1abc 36c9 313d
00000310: c448 e0bc 0c5a 47bd 960c 9d3c 7bc7 6ebd
00000320: a2d9 81bc c0b4 a1bc 87ac 033d 7703 a93c
00000330: 776a 043d 46a0 08bd 0f92 00bd ac20 d93c
00000340: 4e5d f9bb 7082 48bd 5222 7b3d 2a99 a3bb
00000350: de45 84bc 2fc3 ef3c b1d2 373d fec9 1e3d
00000360: ea35 053d 71d9 263d f62a fe3b 7aa2 57bd
00000370: 54ba 353d 20de 703d ac11 96bb be71 b5bb
00000380: 278e b93b c8b6 423d 4142 603c 91e5 9cbc
00000390: 8bbe 5e3d 3d6a 033d d534 12bd 7ba1 f43c
000003a0: 52d1 2abb 1f05 2a3c d72e 653d 8fad 26bd
000003b0: ed8b 17bd 535d 1b3d 3e3c 50bb 2cea 79bc
000003c0: cf85 583d 3abf 36bd f084 a43c 2c1f 713d
000003d0: 7e60 4fbc 0c8e 523b 4436 e33c e76d d63c
000003e0: 4709 753c fa0f 3c3d 76d4 5cbd 0cb4 d6bc
000003f0: be2c 323d d050 69bd 815e 74bd 17d4 3b3d
0.0328487 -0.031053206 -0.043062005 -0.042398915 0.040124487 0.05902193 -0.028998032 0.039191294
0.029383415 -0.055827588 -0.0072263596 -0.044914275 -0.041451734 -0.014557454 0.041229308 -0.04965822
0.024780342 -0.0026532514 -0.014510792 0.06164205 0.045486517 -0.012006236 -0.02265693 0.030461533
-0.026127903 -0.056205694 0.053309496 -0.013731588 0.030159744 -0.060988095 -0.041428674 0.035526726
0.022076165 0.050491486 -0.028018681 0.016658353 0.058628075 0.00427927 0.0416147 0.03548326
0.0016796918 0.009431734 -0.014824959 0.043629088 -0.058296133 -0.018665127 -0.002989094 0.029377697
0.003208952 0.030248774 -0.047137294 0.053866316 -0.025171878 -0.011905191 0.05840944 -0.0011944971
0.040904712 0.026461942 0.052989207 0.047294453 -0.022043157 -0.034309745 0.024683844 -0.05188141
0.03498727 -0.043412 -0.028283555 -0.05703256 0.0034735673 -0.015110358 -0.015324346 0.051750932
-0.03933666 0.01934556 0.009818409 -0.06220635 -0.0438395 -0.016693734 -0.055777676 -0.0048298026
0.004113936 0.042131685 -0.0097274585 0.03874027 -0.029409686 0.0385577 0.03458081 -0.043649662
-0.058363855 0.02430176 0.0075016357 0.03316297 0.016900584 -0.05123172 0.006516776 0.045515537
0.04701843 -0.03739478 -0.04436942 0.046701718 -0.037175447 -0.0035589272 0.039103013 -0.037836216
-0.025891079 -0.05142121 -0.022665706 -0.025338883 0.046525113 0.0065601664 0.013017682 0.02689066
0.0065691597 -0.0519227 0.04506802 -0.0014742923 -0.014079339 -0.026010938 0.027881308 0.023676958
0.02186866 0.05607653 -0.038136266 0.016356815 0.0017020052 0.050274555 0.005611522 0.02482668
-0.028170625 0.06026897 0.036757216 0.021461869 0.035613228 0.01647287 -0.046079487 -0.02057252
0.027606523 0.05540808 -0.04719056 0.0475763 -0.013444066 0.057621147 -0.037947275 0.05613152
0.010514498 0.027814755 0.03556542 -0.024697784 0.015456162 0.054485884 -0.055066526 -0.046121307
0.029523026 -0.04111769 0.0042271386 0.017749533 0.029861934 0.051612798 -0.023403456 -0.055414405
0.014849805 0.0006869893 -0.053785324 -0.0036393022 0.03722876 -0.02043762 -0.06147186 -0.025620187
0.034784716 0.017171629 0.012236575 0.042116452 0.062304083 0.056755576 0.05099148 0.021064177
0.039014068 -0.04064262 -0.041921124 0.03543625 -0.04396808 0.0020803732 0.02533039 -0.04306085
-0.017059958 0.026228748 0.0077557894 -0.024034716 0.051652078 -0.025913227 -0.043042626 0.013241327
-0.018610843 0.061196215 -0.009431634 0.04340478 -0.027378447 -0.04866986 0.01917104 -0.05829571
-0.015850846 -0.019739509 0.032146957 0.020631535 0.032328095 -0.033355974 -0.031389292 0.026504837
-0.0076099997 -0.04895252 0.061312027 -0.004992624 -0.016146597 0.029267875 0.044878665 0.038766854
0.03252212 0.040734712 0.007756586 -0.052645184 0.04436715 0.058805585 -0.0045797434 -0.0055372408
0.005662698 0.047537595 0.013687671 -0.019152435 0.054380935 0.03208374 -0.035694916 0.029862156
-0.0026064706 0.0103771975 0.055952873 -0.040692862 -0.036998678 0.037930798 -0.0031774188 -0.015253585
0.052861985 -0.04461596 0.02008292 0.05886762 -0.012657283 0.0032128124 0.027735837 0.026175452
0.014955825 0.045913674 -0.053913556 -0.0262089 0.0434997 -0.056961834 -0.05966044 0.04585656

branch_p.fc2.bias f4 [128]
00000000: 1d98 26bd 9f31 f9b9 2495 103c a096 893b
00000010: df8e 85bc 6ed0 293d 7080 8dbc 5cee e43b
00000020: 7f7e 2dbd 1054 453c a856 1a3d 6f24 063c
00000030: b190 203d 21c7 b9bb 9a11 253d 05b5 ea3c
00000040: a8d9 b53c 348e 623d 74b2 43bb 077e 763d
00000050: 75e9 773d bdb2 30bd b411 4f3d 2a7c f13c
00000060: 7ad8 643d 0c71 04bd 7867 3e3d 93cc 3f3b
00000070: bda4 a7bb ef60 c53c 7f3e 0cbd 00a4 663a
00000080: 6ba7 bebc 8e0a 6abd 90e7 0e3d c552 3c3d
00000090: 7c14 e73c 34c3 0abd f340 89bc 25db fdbc
000000a0: 0ac4 5fbd 948a 49bd e062 1ebd 7532 8abb
000000b0: 24fc b9bc d017 b5bb f9f1 b5bc 3dde 82bd
000000c0: d09e 5bbc 8a7c 86bc 2001 20bd 4824 38bd
000000d0: e1ba 393d 4687 60bd 0a98 143d eabc b5bc
000000e0: e30b bcbb 6153 bcbc ad05 703d fb4d 4bbd
000000f0: bd78 15bb dc17 f5bc b443 8abc 52eb 2cbd
00000100: 100d 653c 1659 3ebd cd17 61bc 165e 883c
00000110: 78d5 233c 8201 08bd fc5d 20bd b4c7 adbc
00000120: c073 44bd e0ae 913c e4b4 b7bc 8529 143d
00000130: 997a 9dbc cb9f 1ebd bca1 bd3c ce9f 12bd
00000140: 8023 9cba e081 e63b b09b 8f3c fa08 0bbd
00000150: eb9c 56bd f27e 24bd a5d7 433c 94eb 61bd
00000160: fcf5 2dbd f61a 423c 8008 de3b 72af c6bc
00000170: 0051 f7ba c07c 083b 98fb 1ebc fc0e 2cbd
00000180: 902d 343c 9779 f5bc 6849 6e3d 8b5c 90ba
00000190: c0c1 653d 3d19 c03a 3ed7 f13a 4728 eebb
000001a0: 5793 0d3b f1cb 333d 2c1a 79bd 6a7f eb3c
000001b0: ec38 173d 18e3 2ebd 6ae3 6dbd a928 aebc
000001c0: 4376 4b3d 9eb5 6d3d 2daa 2abd cfa9 9d3c
000001d0: 5a50 4cbd deb5 083d 83af 6abd a071 4b3c
000001e0: b5bd 233d cce9 04bd 3836 54bc 860a 6c3c
000001f0: 36ec cf3c 1aca 283d 81ae a23b 964b f0bc
-0.04067241 -0.00047529952 0.00882462 0.004198864 -0.016303478 0.04145854 -0.017273158 0.0069864225
-0.042356964 0.012043968 0.037680298 0.008187397 0.03920049 -0.00566949 0.04029999 0.02865077
0.022198513 0.055311397 -0.0029861005 0.060178783 0.060525376 -0.043139208 0.050553992 0.029478151
0.05587051 -0.032334372 0.046485394 0.0029266223 -0.005116074 0.024094073 -0.03423929 0.00087982416
-0.02327319 -0.057138972 0.034888804 0.045977373 0.02820801 -0.033877566 -0.016754603 -0.030988285
-0.054630317 -0.049204424 -0.038668513 -0.0042174407 -0.022703238 -0.0055265203 -0.022210108 -0.06390045
-0.013404563 -0.016416807 -0.039063573 -0.044956475 0.045344237 -0.054816507 0.03627781 -0.022184808
-0.0057387217 -0.022988977 0.058599163 -0.049634915 -0.0022807561 -0.029918604 -0.016877986 -0.042216606
0.013980165 -0.046471678 -0.013738585 0.016646426 0.009999625 -0.033204563 -0.03915213 -0.02121339
-0.04796195 0.017783582 -0.022425123 0.03617241 -0.019223498 -0.03872661 0.02314841 -0.035796933
-0.0011912435 0.0070345253 0.017530292 -0.033944108 -0.052395742 -0.040160127 0.011953269 -0.055156305
-0.042470917 0.011847248 0.0067759156 -0.02425358 -0.0018868744 0.002082631 -0.009703539 -0.042006478
0.010997191 -0.029965205 0.058175474 -0.0011013908 0.056092978 0.0014655959 0.0018450988 -0.007267985
0.0021602714 0.043895666 -0.060815975 0.02874728 0.03691952 -0.042697042 -0.058078207 -0.021259623
0.04967333 0.05803453 -0.0416662 0.01924601 -0.049881317 0.033376567 -0.057296287 0.012417227
0.03997584 -0.03244953 -0.01295238 0.014406806 0.025381189 0.041208364 0.00496465 -0.029332917
