d2calcbot/main/calc_bot/dota_model_ver4.pth (torch, 420964 bytes, 21 tensors)

branch_t.fc1.weight f4 [128, 35]
00000000: 58eb c1bd af0b 08be 5b78 1dbe 91f5 0c3d
00000010: 613c fabd fd8f efbd 9313 94bd 57f7 9abd
00000020: 7259 57bd c23c 0fbe 5e32 35bc 3521 053e
00000030: 4467 f4bd 0c62 48bd 20f1 9ebd 855e 03bc
00000040: a32c 2bbe 6345 5c3c dc0a ca3d 97b0 0bbe
00000050: a468 9cbb 4b4c 2ebd 703e 0dbe c533 4fbd
00000060: 1dfd a83c 5128 02be f036 0a3e 9f7f 20be
00000070: 3df7 debd 1188 46bd 5e36 b63d f361 123e
00000080: e56b 22be b251 0dbe 4d31 2bbc e1ae 113e
00000090: 545e 093e 59ac f0bd 60fe 1cbe 0e20 c03d
000000a0: fbfc 773d 3f6f b83d 1574 ff3d bd50 8c3c
000000b0: e70c f4bd c17b 21be 1b79 323d a8cd d4bd
000000c0: 0d9b 283e c8eb 1bbe b0fa bebb e6ae 0f3e
000000d0: 0cb6 80bd 7eb9 293c 002b e33d 0120 1c3a
000000e0: 4c6f fabd f5b3 f7bc 3b2d 13be 6d2a 143e
000000f0: bebc f039 3f30 21be 2c28 41bd f5f3 02be
00000100: c719 c03d 702d e5bc 0d5e 0ebe 3633 54bd
00000110: 1da2 56bc 763d 0c3e 3278 49bd 5b0c b33d
00000120: adcb 8abd d8a6 c7bc 3b87 d03d 4dc9 17be
00000130: 36d8 1ebe d02c 0bbe 3034 44bd 51f1 173e
00000140: 6f12 8b3d bf2d 683c 3a7e 533d 81aa 0abe
00000150: f5b7 383d eb9e 463c 91ce b4bd d710 9a3d
00000160: 0a1c ddbd 63fb 113d 54b6 2abe 6697 193e
00000170: 7871 313d b327 903d d132 753d 50ee 2cbe
00000180: f4dc 9a3d fe3f 41bc bc5b 03be 907c 193d
00000190: 5704 9b3d 55ff d0bd a94f 8f3d 3e28 d9bd
000001a0: 9cc8 4fbd 7e98 e1bd 24b8 f0bd 1390 8a3d
000001b0: 04a1 0abe 10db cebd 4c9c c33c a994 b8bd
000001c0: 11cb 2bbe 6d97 8fbc 6b86 1abe 10a0 fe3b
000001d0: 2860 07be 3653 d73d 3598 cebd c805 7e3d
000001e0: 9373 b3bd b201 0bbd 6584 12be 9db9 a6bd
000001f0: cdb5 87bc 859c a33d 4bc8 4e3d 4d66 963d
00000200: 7d14 8d3d e5c8 013e 34cc 0a3e df11 7dbd
00000210: 2cf4 f0bc 5f3d 06be b283 a8bd e77e 07be
00000220: f099 0b3e 1c2f 973d 6985 0d3e cee0 a63d
00000230: ebed 1a3e 30fb 00bd 2850 903d 895b 803c
00000240: 048a e1bd e935 e63d 5fe0 28be 6e40 9d3d
00000250: 8a2d b0bd b9bb 183e 66af ce3c a4bf e13d
00000260: 042c 1c3e 76ef 853d 9ce1 f23d c245 19bd
00000270: c5bd 1d3e 2da7 123d d6ac 91bd 3636 fa3d
00000280: 38f2 053e 7588 8f3d 7a9d 0e3e 8438 cfbd
00000290: 3e17 763c b481 f6bd 8b65 873d 99f2 4cbd
000002a0: 64c7 1ebe d627 973d 2990 0ebe de37 a73d
000002b0: 29c5 48bc c2ac 953d 5a7c 78bd 5979 99bd
000002c0: 54da babd 3c5d f1bd 0645 67bd e9d7 e83d
000002d0: a704 203e f785 afbd 2295 85bc aa9f dcbd
000002e0: f414 cb3d 287e 203e f46d e63d 181b 83bd
000002f0: e71e 283e e0a4 a4bd 5e47 433d 8568 abbd
00000300: 6cec 453c 7b3f 233e fe39 e83c 71a2 ff3d
00000310: c9a6 c53d 5c77 f5bd 6646 3fbd e86b a43c
00000320: 2acf ca3c c05d 5d3d 0ea0 62bc 3341 a33b
00000330: c190 e73c 52c8 54bc 1d27 f93d 1095 5c3d
00000340: b54e c73c e14f 68bd 5859 303d dfab e0bd
00000350: be03 213e b972 003e 7315 08be f935 c7bd
00000360: 22c5 22be 2a45 f9bd 3b56 2b3e c949 083e
00000370: 13b4 113e d218 a8bd c1c9 f93c ca95 2a3e
00000380: ea91 113e 1428 0a3e e9e3 a33c 213b a53d
00000390: 5e0f d6bd 3892 d13d 277d 95bc 2ba1 e73d
000003a0: 6540 a43d 7e7a 89bd 21de 293e 39f2 823d
000003b0: 6877 2a3e 32f3 0d3e 9245 aa3d 1ab5 1a3e
000003c0: c0dd e83d 0d01 2abe 91b1 9fbd 8b93 233e
000003d0: d38e 4abd c651 e13c 8125 2bbe dcc0 bc3d
000003e0: 1f95 1b3e d7bf a33d 1e55 cbbc 10d6 b3bd
000003f0: dc91 1ebe a478 763d 619b 0abe cadf df3d
-0.094687164 -0.13285707 -0.15377943 0.034413878 -0.122185476 -0.116973855 -0.07230296 -0.075667076
-0.052575536 -0.13988021 -0.011059372 0.13000949 -0.11933759 -0.04892163 -0.07760835 -0.008018141
-0.16716246 0.013444277 0.098653525 -0.13641582 -0.0047732163 -0.042553227 -0.1379335 -0.05058648
0.020628506 -0.12710692 0.1349752 -0.15673684 -0.10887001 -0.048469607 0.088970885 0.14295177
-0.15861471 -0.13800696 -0.010448766 0.14226867 0.1341489 -0.11751623 -0.15331411 0.09381114
0.060543995 0.090055935 0.12473313 0.017128343 -0.119165234 -0.15769865 0.043572526 -0.10390788
0.16465397 -0.15226662 -0.005828224 0.14031562 -0.06284723 0.010359166 0.11092186 0.00059556967
-0.122282594 -0.030237177 -0.14372723 0.14469309 0.0004591699 -0.1574106 -0.04715745 -0.12788375
0.09379917 -0.027975768 -0.13903065 -0.05180665 -0.013100174 0.1369532 -0.049186893 0.08742591
-0.06777129 -0.02437155 0.10182043 -0.14822884 -0.15512165 -0.13591313 -0.047901332 0.14838149
0.06790625 0.014171063 0.05163405 -0.13541605 0.04509731 0.01212285 -0.08828462 0.07522743
-0.10796364 0.03564013 -0.16671115 0.1499916 0.043321103 0.07038822 0.059862915 -0.16887784
0.07561675 -0.011795042 -0.12827963 0.037472308 0.07569187 -0.10204951 0.06997616 -0.10603379
-0.050728425 -0.11015414 -0.11753872 0.06765761 -0.13537985 -0.101003766 0.02387824 -0.0901273
-0.16776682 -0.01752826 -0.15090339 0.007770546 -0.13220274 0.10513918 -0.10087625 0.062017232
-0.087622784 -0.033937164 -0.14308317 -0.08140872 -0.016566182 0.07988838 0.050483983 0.07343731
0.068886735 0.12674291 0.1355446 -0.06178462 -0.029413305 -0.13109349 -0.08228244 -0.13232003
0.13632941 0.07382032 0.13820423 0.08148347 0.15129821 -0.03148955 0.070465386 0.015668647
-0.110126525 0.11240751 -0.16491841 0.076783046 -0.08602436 0.1491536 0.02523012 0.11022881
0.15251166 0.06539814 0.11859438 -0.03742004 0.15404423 0.035803962 -0.07113044 0.12217371
0.1308068 0.07008449 0.1392726 -0.101182014 0.01502019 -0.12036458 0.06611165 -0.050036047
-0.15505749 0.07380645 -0.1392218 0.08164953 -0.012254038 0.073083416 -0.060665466 -0.07493848
-0.09123674 -0.11785361 -0.05646231 0.113693066 0.15626775 -0.08570474 -0.016306464 -0.10772641
0.09916106 0.15673125 0.11251441 -0.06401652 0.16418038 -0.0803926 0.047675483 -0.08369545
0.012080293 0.15942185 0.028347965 0.12482155 0.09650952 -0.119856566 -0.046697997 0.020070985
0.024756987 0.054044485 -0.013832105 0.0049821376 0.028267266 -0.012987213 0.121656634 0.053853095
0.024329523 -0.056716803 0.043053955 -0.10970282 0.15724084 0.12543763 -0.13289432 -0.09727091
-0.15895513 -0.12171395 0.16732113 0.13309397 0.14228849 -0.08207859 0.030491712 0.16658702
0.14215818 0.13491851 0.020006137 0.080679186 -0.1045215 0.10232967 -0.018248154 0.11310037
0.08020095 -0.06712817 0.16588642 0.063938566 0.16647112 0.13862303 0.08314051 0.15108147
0.113704205 -0.16601963 -0.0779754 0.15974252 -0.049452614 0.027504813 -0.16713525 0.092164725
0.15193604 0.07995575 -0.02482086 -0.087810636 -0.15485328 0.060173646 -0.13535835 0.10931356

branch_t.fc1.bias f4 [128]
00000000: 97fe dcbd db8a 3bbc eab5 09bd 825a 85bd
00000010: 50a1 063e a502 76bd 3349 c6bd 2bc1 f8bd
00000020: 662a 253e 7f11 4abc f7a3 a5bd bf23 e8bd
00000030: 3add 133e db0d b33d dabe 1abe 469c 1fbe
00000040: 55bf 5e3b ec29 ee3b 4765 823d ba2f 8abd
00000050: da1e 033d 7f0d ad3d 2667 12be 036f c23d
00000060: 381b 6bbd be4c 85bd 92fb 273e b16b 9a3c
00000070: 100e 5cbb c1c2 1dbe be69 c7bd a830 1c3e
00000080: 6fca 8d3d b2a0 f5bd 7476 163d 6149 b2bd
00000090: 9a27 babd 662e 87bd 3665 b3bd fe19 eebd
000000a0: ea5e 40bd fed8 b63c 00e9 67bb 9e31 d7bd
000000b0: cc61 263d ec9d b93d fb82 77bd b713 36bc
000000c0: f1fc d4bd 60de 44bd bc23 99ba 0b95 983d
000000d0: 8f6c d93a 7b8c 1d3e af53 ad3d c363 6f3c
000000e0: e695 bf3d d345 c1bd 81e7 813d b776 fb3d
000000f0: 4611 22be cb0e a0bc 5343 febd 158a c63c
00000100: 000a 12be 12ce 86bb 8cf2 02be a821 26be
00000110: c1e7 f03d 6c59 3a3d 6e00 2dbe a415 263e
00000120: 285b adbd 30ae 70bd 5848 ec3d 4fc8 8bbd
00000130: e314 03bd 34d8 df3d 1a2d cd3d cd58 89bd
00000140: 93ca e5bd 9ec9 1a3e d044 8e3c 0247 38bc
00000150: 162f d4bd 6db0 a2bc f231 f3bd 6280 0d3e
00000160: 183c d9bd cd4b e4bd 70d8 753d fa89 b93d
00000170: 9078 b53c ef65 cfbc 6f54 893d 2510 e9bb
00000180: 76d7 4b3d 62c1 80bd 2044 13bd 5225 0bbe
00000190: 03de 273e ec45 e5bd 29e1 eb3b 7a0d fabc
000001a0: f4da debd 2e1d ad3d 47c6 92bd f1a0 08be
000001b0: 5a5f 6d3c 7920 083e ebc5 f2bc aa91 f73d
000001c0: 5ce0 de3d ce31 75bc 67e6 c8bd b78d 133e
000001d0: e186 a5bd e59e 91bd 0f1a d2bd 2547 40bd
000001e0: e192 1d3e 61ac f4bd 1c6b 54bd 1a38 b73d
000001f0: 5dda 67bd fe0a b43d df6c 34bd a1b0 b2bd
-0.10790747 -0.01144668 -0.033620752 -0.065114036 0.13147473 -0.060061116 -0.096819304 -0.12146219
0.16129455 -0.012333273 -0.080879144 -0.11334943 0.1443986 0.08742877 -0.15111867 -0.15586957
0.0033988554 0.007268181 0.06366973 -0.06747384 0.032011844 0.0844984 -0.1429716 0.0949383
-0.057399005 -0.06508778 0.1640456 0.01885018 -0.0033577718 -0.15406324 -0.097369656 0.15252936
0.06923377 -0.11993541 0.03673406 -0.08705402 -0.09089585 -0.06600647 -0.08759539 -0.11626051
-0.046965517 0.022320267 -0.0035386682 -0.105075106 0.04062061 0.09063324 -0.060427647 -0.011113099
-0.10399807 -0.048063636 -0.0011683623 0.07450303 0.0016588139 0.1538562 0.08463227 0.014611187
0.09354763 -0.09437146 0.06342984 0.122785024 -0.15826902 -0.019538304 -0.12415185 0.024235765
-0.14261627 -0.004113921 -0.12787837 -0.16223776 0.117629535 0.045495436 -0.16894695 0.16219193
-0.08464652 -0.05875987 0.11537236 -0.06825315 -0.03200234 0.10929909 0.10018368 -0.067063905
-0.112202786 0.15115973 0.017366797 -0.011247398 -0.103605434 -0.019859517 -0.11874761 0.13818505
-0.10607165 -0.1114727 0.060020864 0.0905952 0.022152215 -0.02531716 0.067055576 -0.0071125203
0.049766026 -0.06286885 -0.03595364 -0.13588455 0.16393284 -0.11194977 0.007198472 -0.030524004
-0.10881606 0.08452831 -0.07166725 -0.13342644 0.014488066 0.13293637 -0.02963539 0.1208833
0.10882637 -0.014965488 -0.09809571 0.14409529 -0.08082367 -0.07110385 -0.102588765 -0.04694285
0.15388061 -0.11946941 -0.05185996 0.089462474 -0.05660473 0.08791159 -0.04404914 -0.087250955

branch_t.fc2.weight f4 [64, 128]
00000000: c092 613b 63a0 9fbd 9690 efbc f022 89bb
00000010: 166c 703d 67eb 8e3d 12c6 313d 4b71 9d3d
00000020: 4804 cbbc 4e50 393d d233 2f3d 7541 66bd
00000030: b2ae 463d a008 bdbc bf5d 833d 14fe 8fbc
00000040: 8416 f73c 080e 88bc fbb6 89bd 0476 ca3c
00000050: 5358 a5bd 3e3f 443d de03 1f3d 70f4 a83c
00000060: f02b 633c 938b b33d 147c 43bd 0bf3 80bd
00000070: 8e9c 283d fd85 88bd 1463 083d 733e 15bd
00000080: 93e5 9a3d c6ea f5bc 283c 193c b01c a7bc
00000090: ad4d 5ebd 4075 a0ba 00c5 a9ba f0a8 b7bb
000000a0: c20c 4f3d 524c 563d bbdb b33d bf77 9bbd
000000b0: 1db4 913d 2edb 353d 662d a2bd f374 8b3d
000000c0: ec65 aebd 3220 e8bc c06f cd3a 0620 4c3d
000000d0: 66dd 193d fa67 563d 9062 efbb d149 b03d
000000e0: 6e82 97bd 0a85 793d d28d 22bd 9bd5 933d
000000f0: 0845 403c a09d 663c 26c3 403d 103c d6bb
00000100: e137 18bd a60c 16bd 6b23 9c3d c858 ec3c
00000110: b00b 8cbc d6d3 4e3d 2a98 353d 3b46 ac3d
00000120: 6493 2ebd 78fc abbc c0a9 d93b 7aea 7d3d
00000130: 0935 893d 2019 533b 0076 3bbd bd80 8b3d
00000140: 722a 9abd 0408 a9bd faf0 66bd 8049 adbb
00000150: fe21 3a3d b013 a4bc 84df 9c3c bcad c4bc
00000160: 1088 a73b 0b6c 973d 09af b33d 58f4 f23c
00000170: 785d 453c 9513 9f3d 009c 9139 5423 fc3c
00000180: 162a eebc f81a 023d f8da 323c e21d ffbc
00000190: 660b aabd eea6 eabc 8deb 883d eeb9 673d
000001a0: d08a 133d 6cad b5bc efbf b13d e0ee d7bb
000001b0: 809a adbc 60c8 59bc 54b3 c7bc ce4a a8bd
000001c0: 9805 82bc bccd 07bd 1063 14bc 206a d73b
000001d0: 9f6f 89bd 00e2 95ba c773 a83d a89d 2c3c
000001e0: dadc 2ebd b07d dbbc beed 5d3d c83a 15bd
000001f0: ea4d 3d3d 1c61 84bc 7000 55bd 50c8 aebd
00000200: e30f 923d 7105 8ebd f685 3c3c e458 af3d
00000210: 72d4 31bd cf46 f3ba 93e6 873b 3766 a13d
00000220: 9b65 0fbb f917 91bb 5bc4 e53c 775e e8bc
00000230: f11c 72bd 733e 923d 486f a03c 6a98 6bbd
00000240: 44b6 e93c f069 073c b002 313d d8ba a6bd
00000250: cdc2 90bd 0263 a13d 00c7 f6bc 0ed6 243c
00000260: 1dca 00bd db72 3abc 0d40 873d 7a3a 543c
00000270: 68de f93b ff2e b43d 39fe 25bd f799 3abd
00000280: b8f5 243c 73d2 47bd 1137 a53d c2a5 9d3c
00000290: edda 9ebd 838e 74bd 748d 92ba 8194 a838
000002a0: 40c3 ecbc 1bd6 8abc 3516 29bc 8e49 04bc
000002b0: fd55 97bd 2ba7 a2bd efb1 23bd e30f 583d
000002c0: 873a 393c 780c 753d c15d 59bd 582b 863c
000002d0: 5d6f a83d 022b 9a3c e8a9 523b 8bba b13b
000002e0: dd4a b9bc 02d7 00bd 0d68 853d 8f20 3d3d
000002f0: 75cb 03bd 94d9 a73d 949c 133d bbab a3bc
00000300: 4ae1 5a3d 452b 7d3d 1e4f 76bd ba16 893c
00000310: 3314 05bd 252c 233c 5415 37bd d1c5 183d
00000320: bf8f 823b 4dcb b63c e892 1a3b ae90 a33d
00000330: d9e6 8bbd 554a 363d ae90 943c bc11 063c
00000340: 7daa b1bd 0325 0abc 6bf8 b23d 1834 913d
00000350: 3053 8ebd 9bc9 8fbd 3a87 51bd 8bde b6bc
00000360: 2859 1bbd 1da5 7fbc 602c 433c fee2 90bd
00000370: 1279 fabc eed7 933d 5047 a4bd 8571 583d
00000380: 9d6c 7f3d dd10 afbd 452f ae3a 296b 643d
00000390: ad21 1c3d 2be1 d6bc 9c4a 073d 91ef 4cbd
000003a0: 035f 833d 43fa d0ba 3d8b 36bd 9b4a f5bb
000003b0: a97f 7e3c 8488 adbc 5737 8bbc 11c6 333d
000003c0: 0605 b0bc 6e9a 2d3d 9449 813d afce 01bd
000003d0: 33f3 49bd 90ef 85bc 971f d0bc b9d5 de3c
000003e0: acc9 a2bc 98c7 32bd aa1c 6ebd 8949 153d
000003f0: 35cf ef3c 4c1f e2bc 3a97 81bc 2c6d 883d
0.0034419745 -0.07794263 -0.029243749 -0.004185073 0.05869683 0.06978493 0.043401785 0.076876245
-0.024782315 0.0452426 0.04277403 -0.05621477 0.048506446 -0.023075402 0.06414365 -0.017577209
0.030162103 -0.016608253 -0.06724354 0.024714477 -0.08073487 0.047911875 0.038822047 0.02062437
0.013865456 0.08766856 -0.047725752 -0.06296357 0.041164927 -0.06666181 0.033297613 -0.03643651
0.07563319 -0.030019175 0.009352721 -0.020399421 -0.054273296 -0.0012241974 -0.0012952387 -0.0056048557
0.050549276 0.05231888 0.08782145 -0.07591199 0.07114432 0.04439848 -0.07918815 0.06809416
-0.08515534 -0.028335664 0.0015673563 0.049835227 0.037564658 0.052345254 -0.0073054507 0.08607829
-0.07397924 0.06091789 -0.03968603 0.072184764 0.011735208 0.014075667 0.047061108 -0.0065379217
-0.037162665 -0.036633156 0.07623943 0.028850928 -0.017095417 0.05049499 0.044334568 0.08411833
-0.04262103 -0.02099441 0.00664255 0.061991192 0.06699569 0.003221102 -0.04576683 0.06811664
-0.07527627 -0.08253482 -0.056382157 -0.005288303 0.045442574 -0.020028919 0.01914955 -0.024008624
0.0051126555 0.073936544 0.0877362 0.029657528 0.0120462105 0.07767407 0.00027772784 0.030778565
-0.029072803 0.031764 0.010916464 -0.031142179 -0.08302955 -0.028644051 0.06685553 0.0565738
0.036021054 -0.02217742 0.086791866 -0.0065897554 -0.021191835 -0.013292402 -0.024377503 -0.08217393
-0.015871808 -0.033155188 -0.009056821 0.0065739304 -0.06710743 -0.0011435151 0.08225208 0.010535635
-0.04269109 -0.02679333 0.054181807 -0.03643301 0.046216883 -0.016159587 -0.05200237 -0.085343
0.071319364 -0.069346316 0.011506548 0.085618764 -0.043415494 -0.0018560531 0.0041473596 0.07880824
-0.002188063 -0.0044279066 0.028047731 -0.028365357 -0.059109632 0.071408175 0.019584313 -0.0575184
0.028529294 0.008265004 0.043215454 -0.08141106 -0.07068405 0.07880212 -0.030124187 0.0100608
-0.03144275 -0.011379923 0.066040136 0.012953395 0.00762539 0.08798026 -0.04052565 -0.04555699
0.01006835 -0.048784684 0.08067144 0.019244079 -0.077566005 -0.059706222 -0.0011181072 8.038525e-05
-0.028901696 -0.016947797 -0.010320236 -0.008074177 -0.07389448 -0.07942041 -0.039964613 0.052749526
0.011305458 0.059826344 -0.053067926 0.01637809 0.08224366 0.018819336 0.003214473 0.005423849
-0.022618705 -0.031455047 0.06513987 0.04617363 -0.032176454 0.081957966 0.036037996 -0.019979348
0.05343751 0.061808843 -0.060134046 0.01673447 -0.032489967 0.009959255 -0.044698074 0.037298027
0.003984421 0.022313738 0.0023586098 0.0798658 -0.0683114 0.044504482 0.018135395 0.008182939
-0.08675096 -0.008431676 0.08738788 0.07090014 -0.069494605 -0.07020875 -0.051154353 -0.022322914
-0.037926823 -0.015603331 0.011912435 -0.07074545 -0.030575309 0.0721892 -0.08021414 0.052842636
0.06235944 -0.08548138 0.0013289234 0.05576626 0.038118053 -0.026230415 0.033030137 -0.050033156
0.064146064 -0.0015943724 -0.04456638 -0.0074857003 0.015533366 -0.02118326 -0.016994162 0.043890063
-0.02148677 0.042383604 0.06312862 -0.03169125 -0.0493042 -0.016349584 -0.025405688 0.02720152
-0.019871555 -0.04364738 -0.058132805 0.03644708 0.029273609 -0.027602814 -0.01581918 0.06661448

branch_t.fc2.bias f4 [64]
00000000: 9d83 a13d e5f7 073d 9386 a23d 675e 03bc
00000010: 2a71 adbd 0e0d 2bbd 9d01 67bc d2ee af3d
00000020: bb46 633d cbdb 853d 3e74 883d 9011 58bb
00000030: 3928 a3bb 5d20 9cbd e873 3ebd f874 d0bc
00000040: a324 92bd 0162 79bc f376 a7bd 0ba2 163d
00000050: e1bb 82bd b4cb ed3c 42c7 aabd a139 3dbd
00000060: 4c96 87bd 5a29 fbbc 66c1 733d 052c 383c
00000070: 9028 60bd b5e0 4e3d 2025 283b da04 7a3d
00000080: c2b4 93bd 0531 583d e014 e93c 882d 83bc
00000090: e454 b8bc c037 37bd b4fd 7abd f2cf 68bd
000000a0: 755d dfbc 04e5 9b3c 86cd 30bd 3758 8c3d
000000b0: 945e 693d 5fc7 223d d73c 4a3d 5765 0fbd
000000c0: e0f2 9e3d 17c8 863d b4b7 6a3d 49d5 8ebd
000000d0: 3308 b63d 004a c5bb d8dc 4fbd 94aa 52bd
000000e0: 2b3c 9a3c 869d 89bd f8ec a33d 4adc 2e3d
000000f0: 3423 813c 8ae4 883d 88b9 acbc f04e b83b
0.07886431 0.033195395 0.07935824 -0.008018113 -0.0846885 -0.041760497 -0.014099506 0.08590473
0.055487376 0.06536063 0.066627964 -0.0032969452 -0.00497916 -0.0762336 -0.046497256 -0.0254464
-0.07135894 -0.01522112 -0.08176985 0.03677563 -0.06383491 0.029027797 -0.08338787 -0.046197537
-0.06620464 -0.030659366 0.05951061 0.011240964 -0.054726183 0.050507266 0.0025656894 0.061039783
-0.07212211 0.052781124 0.028452337 -0.016012922 -0.022501417 -0.0447309 -0.061277106 -0.056838937
-0.027266243 0.019030102 -0.043164752 0.06852763 0.056974962 0.039740916 0.049374428 -0.035008755
0.077611685 0.06581133 0.0573041 -0.06974275 0.088882826 -0.0060207844 -0.050747722 -0.051432207
0.018827518 -0.06719498 0.080041826 0.042690553 0.015763856 0.06684215 -0.021084562 0.0056246445

branch_t.fc3.weight f4 [16, 64]
00000000: beac d9bd e589 65bd 3814 9b3d 3df1 a8bd
00000010: 967d e8bd 01d8 833d d2e5 bc3d 39d9 debc
00000020: fe25 b63d 90c1 94bd ad74 f33d 61aa 633d
00000030: 95de e2bc 486d bfbd ae2b e5bd 807f 52bc
00000040: 5848 debd 6f3d b8bd e0be e0bc d50e 473d
00000050: e141 683d e67a 913d 7547 af3d 6a98 f8bd
00000060: 470f 06bd bf40 08bc c1b7 ea3d cf29 f8bd
00000070: a2c0 a9bd 9303 923d 94c3 fc3d 0233 b73d
00000080: b019 33bc 5f9d f03d 58b6 b0bd 0c9b c8bd
00000090: e637 fabd 8443 c4bd 4f86 633c 6fe4 06bd
000000a0: bae4 fe3c 8086 3fbb d2da d63d 7214 b0bd
000000b0: 8b90 743d 2e41 ee3d 3f43 7c3d 2316 153d
000000c0: cc2e 95bd e067 cabc 1b29 80bd 8a78 c23d
000000d0: b6c0 35bd 5888 bdbc 1c50 a5bd ac6f b0bd
000000e0: bbfc b23d 975e e73d 6659 5ebd c3cb c43c
000000f0: 78a2 d7bc 78fc d9bc 026e c43d f08b 153d
00000100: 2c37 51bd 587d a73d 6083 d53c 8cc4 e7bd
00000110: de83 07bd f740 023c abfd a13d c805 6cbc
00000120: b964 c63d e2c9 f43d 9a13 3e3d df09 da3d
00000130: 705a 8bbc d801 abbd 2000 aa3b e0bb cbbc
00000140: ac38 bfbd 440a fbbd 18c0 393d 96ac 483c
00000150: 673d d03c c0cb 023d 46a6 7d3d 04c6 d83d
00000160: 10ba 5abc b648 f3bd 0aec e6bd b09d d43d
00000170: 6af2 7c3d 7baf e0bd 1456 d1bd c47d 08bd
00000180: 02ee ff3d 3a40 d8bd 24cc ec3d 8040 da3b
00000190: 7c29 b1bd 17d5 b23c ebf8 493d b5ff 8cba
000001a0: e38a fd3d 1842 fdbd a09a e73d c020 a1bd
000001b0: 45a9 c3bd 1016 aabd 19d5 ac3d eba4 b5bd
000001c0: 6314 843c 88ca 9f3c 201e 1c3d 1a5a dc3d
000001d0: d837 febc 008b 1a3b 8a78 69bd 3f2b ddbc
000001e0: 6fc8 d0bd b49e 9c3b 8a0d 28bd 999c 8e3d
000001f0: b09d 7c3d 38e9 cb3d ea37 ad3d acb4 af3d
00000200: 3046 c4bc 7089 a73d 8c1e ef3d 15a0 ea3d
00000210: 6f4e d7bc ef3f f23c 7fa8 1c3c cf43 ea3d
00000220: d4a2 d7bd a1e7 cbbd baea a5bd a6b3 613d
00000230: c377 e3bd c46f b0bd b834 f03c e0ae 0ebc
00000240: 4aa4 d3bd 0688 80bc 7654 f23d 93d3 e1bd
00000250: ee8f 653d 00af d3bc a761 11bd aec3 933d
00000260: 2659 c23c 5e62 733d 1409 a93d b96d bcbc
00000270: 1278 5c3d 7365 e7bd acf4 8bbd e605 833d
00000280: 8e58 c1bd 8f25 133d 7ce2 363d 027b f7bd
00000290: e276 13bd 06cd ff3b 8086 e0bd eb70 2a3d
000002a0: 1018 91bc 34a8 ce3d e2f5 a83d b0dc 663c
000002b0: 6538 f5bd 61a6 3abd 2c66 cd3d ff15 d5bd
000002c0: 5819 003e 82ba b83d 9a07 903c ec61 c63d
000002d0: 311b bd3c 6486 efbd c5e2 d7bd 79f0 92bd
000002e0: 583b e33d 8b9f 253d 0814 7a3d 16f5 913d
000002f0: 888b c9bc d27c 633c 9ce3 92bd 74bd 293d
00000300: 6890 c4bd 7033 9b3d b41b cb3d 64bb 5cbd
00000310: f038 9b3c 30d9 0d3d 08a6 abbc 1847 963d
00000320: f4da da3d f83b 593d fee8 cbbd 34b4 d8bd
00000330: 002c 00bc 9092 003c 242b ea3d f806 6dbd
00000340: 4e22 d33d d0b8 f83c 58bb f0bd 5cd3 cbbd
00000350: ccd0 02bd b049 51bc 2666 e1bd e076 913d
00000360: e6f8 ad3d b26b e8bd 5adb b4bd d029 f9bc
00000370: 5278 d9bd bcb1 e33d 5c96 eebd cce9 eabd
00000380: 2a83 a33d 7047 05bd f826 673d 788c a23d
00000390: 1acb 823d e6f1 9c3d 548f 1cbd dce0 eebd
000003a0: 4c8b 983d c44b 9a3d c821 f33d 6084 d33c
000003b0: 4007 34bb 0670 f53d d86e f3bd 2076 3bbc
000003c0: b88c c83c 9e54 bcbd 30dc f73d a0ef ca3d
000003d0: 86e7 87bd e008 893d 0a83 d33d 5670 ec3d
000003e0: c0d7 2b3c b45a c2bd 94e8 213d 5c9b 7ebd
000003f0: 12c1 e03d 22ed 9bbd e0c1 37bc d661 c73d
-0.10628651 -0.05603971 0.07572216 -0.082491376 -0.113520786 0.06437684 0.09223522 -0.02720319
0.08893965 -0.072634816 0.118874885 0.055582408 -0.027694026 -0.093470156 -0.11189972 -0.012847781
-0.10853642 -0.089960925 -0.027434766 0.04859813 0.056703452 0.07103519 0.08558551 -0.12138446
-0.032729413 -0.008316218 0.114608295 -0.12117349 -0.08288695 0.07129588 0.12341991 0.08945276
-0.010931417 0.11748766 -0.08628529 -0.09795198 -0.12217693 -0.0958319 0.013887002 -0.032932695
0.031114925 -0.0029224455 0.104909554 -0.0859765 0.05970816 0.11633526 0.06158757 0.036398064
-0.072843164 -0.024707735 -0.0625784 0.09495647 -0.044373237 -0.023136303 -0.0807192 -0.0861505
0.08739611 0.112973385 -0.054284476 0.024022942 -0.026322588 -0.026609644 0.09591295 0.036510408
-0.051078007 0.08178204 0.026063621 -0.11316785 -0.033084743 0.007950059 0.079097115 -0.014405675
0.0968718 0.119525686 0.046405412 0.10646414 -0.017010897 -0.08349961 0.005188003 -0.02486986
-0.09336981 -0.122578174 0.04534921 0.012248179 0.025419904 0.031932592 0.06192615 0.105846435
-0.013350025 -0.11879103 -0.1127549 0.10381639 0.06175462 -0.1097097 -0.10221496 -0.033323064
0.12496568 -0.10559125 0.11562374 0.006660521 -0.08650491 0.021830125 0.049309652 -0.0010757359
0.12380006 -0.12366122 0.11308789 -0.07867575 -0.0955377 -0.08304989 0.08439083 -0.08869346
0.016123002 0.019505754 0.038114667 0.10759373 -0.031032488 0.0023581386 -0.05699972 -0.02699816
-0.1019448 0.004779661 -0.041028537 0.069634624 0.06167382 0.09956592 0.084579304 0.08579382
-0.02395925 0.08180511 0.11675748 0.114563145 -0.026282517 0.029571502 0.009561657 0.11438715
-0.10529104 -0.09956289 -0.08101411 0.055102967 -0.11106827 -0.086150676 0.029322013 -0.008708686
-0.1033407 -0.015689861 0.11832516 -0.11026683 0.056045465 -0.025840282 -0.03549352 0.07215057
0.02372415 0.059419982 0.08253685 -0.023001539 0.053825445 -0.11298647 -0.06833777 0.063976094
-0.094407186 0.03592449 0.044649586 -0.12084009 -0.036002047 0.007806423 -0.10963154 0.041611593
-0.01771167 0.10090676 0.082500234 0.014090702 -0.11973647 -0.045568828 0.10029253 -0.10404586
0.12509668 0.090199485 0.01758175 0.09686646 0.023084255 -0.11695555 -0.105413 -0.07174773
0.11095303 0.040435355 0.06105426 0.071268246 -0.024602666 0.01388474 -0.07172319 0.041440442
-0.09597856 0.0757817 0.09917393 -0.053889647 0.018948048 0.034630954 -0.020953193 0.07337779
0.10686293 0.053035706 -0.09956549 -0.10581246 -0.00782299 0.007847443 0.1143401 -0.057867974
0.103092775 0.030361563 -0.11754483 -0.09952423 -0.031937405 -0.012773916 -0.110058114 0.07102752
0.08494739 -0.11348666 -0.088309005 -0.030415446 -0.106186524 0.111178845 -0.116497725 -0.114703745
0.07984002 -0.03253883 0.056433648 0.079369485 0.06386395 0.07663326 -0.038222626 -0.11663982
0.07448444 0.075339824 0.11871678 0.025819957 -0.0027470142 0.119842574 -0.11886376 -0.011441737
0.024481162 -0.09195827 0.12102544 0.09908986 -0.066359565 0.06691146 0.10327728 0.11544864
0.0104884505 -0.094899565 0.039528444 -0.06215988 0.10974325 -0.07613589 -0.011215657 0.097354576

branch_t.fc3.bias f4 [16]
00000000: 0d8c 28bb c833 ca3d f199 87bd 8c75 7dbd
00000010: fbd8 3c3d a0d3 96bd b2ea a4bd 9ed4 95bd
00000020: ffe3 f33d 0c1b e03d bc74 f33d 3e8c efbd
00000030: 00b1 fb3d 0800 a53a 51bf 24bd ac0a 22bd
-0.0025718242 0.09873158 -0.06621159 -0.06187968 0.046105366 -0.07364583 -0.08052577 -0.07315944
0.11908721 0.10942659 0.118875 -0.11696671 0.122896194 0.001258851 -0.040221516 -0.03956096

branch_p.fc1.weight f4 [256, 34]
00000000: 7426 c4bd fb47 e7bd 16ed af3b a3b5 2c3e
00000010: dfe0 1d3e 6972 b53d 0446 dc3d ff20 8cbd
00000020: e714 e83c ad29 163e ce54 65bb 797c 953d
00000030: 4ae4 eabd 5bf9 293d 5217 a4bd ebb7 2dbb
00000040: f3b5 97bd 6d68 4a3d de81 79bc 8096 f6bd
00000050: e750 bbbc 3c0d 17bd ba91 20be 34d4 92bd
00000060: f2e0 e8bd 2c95 db3d 2c95 82bd 23cd dc3d
00000070: 764c 713c e89e a0bd c8fe ef3c 81ae 8dbd
00000080: 9132 19be 805b 19be 5608 ae3d b940 6dbc
00000090: 5deb 67bd 73c2 c73c e7a6 993c f347 f93d
000000a0: ed6e 89bb 1e3e aebd 4464 f93d 92b4 41bd
000000b0: 0b21 b13d f67c 063e cc21 023e 633e 593d
000000c0: 545c 5ebd eed5 0ebe 9ff1 d73c 8e24 08be
000000d0: 095b 66bd 74bc fa3d 33da 2abe 4666 0b3e
000000e0: 2139 1a3e 002b 66bc 14be f03d 1b1c ccbd
000000f0: 0716 253e 5bf9 dabd cf65 6ebd cea5 aabd
00000100: 30e0 97bd 7340 55bd 7b8d 3e3d 9f64 1c3e
00000110: 64ba f43c 680d cfbd dc2e 85bd f5a2 c03c
00000120: 2ad8 ce3d 828f f63c 1045 60bc 086a e63d
00000130: aca2 5cbd 08d9 f13d 8763 a03d 0c6b 1dbe
00000140: 42d5 cdbd faf0 c13d dde9 513d 4c1e 83bc
00000150: 6bd8 0c3e 78aa 93bd 70be dc3d f3b2 4d3d
00000160: 6262 dc3d d281 133e 12f4 8cbd 947f 8bbc
00000170: c499 053e c077 293d 5fc2 b1ba 0485 ecbd
00000180: d5f7 a63c 16fa 13bd ce8b f3bb d006 853c
00000190: 4f0c 023e 5027 a73d 237f c0bd 8e8c 323d
000001a0: 2a61 d2bc 1948 25be 9079 a9bd 15e5 9dbd
000001b0: 612d d53d 7a80 c6bd af02 253e a4a6 2dbe
000001c0: ebb5 c2bd 1749 103c b274 56bd 4b74 1fbe
000001d0: 06fa a33b 3ccb 29be 8beb 59bd 2861 fd3d
000001e0: 5ec4 88bc a0bf b6bd ab74 483c 3adc 1f3e
000001f0: a501 e73d f476 a43c 4780 a3bd d961 20be
00000200: 9d0f 273b bfaf 263e 7011 90bd e319 0c3e
00000210: b68d 63bd a9d9 2b3e 7098 433d 820e 653d
00000220: b4a8 02be 9ad4 cabd 6908 243e 01e6 e6bd
00000230: 56ae 1abe 5803 c2bd 1f56 19be 6187 203e
00000240: ba27 85bd 31d5 12be 380e 113e 9c8a 04be
00000250: 6441 b9bd b914 0bbe 12e9 14be 9294 b83c
00000260: 4c07 23bd c032 6cbd 6051 4e3d 4b03 edbd
00000270: 0b6d 52bc 665f 20be 09a7 253e 2c6c 0c3e
00000280: 6f88 13be 9bee f2bd 2857 293e f727 2cbd
00000290: 8ad3 82bd b3b1 213e 4b1d 24bd e379 cd3d
000002a0: bfa5 6e3d 3356 013e 9853 b5bb 1c9c 6f3c
000002b0: 66d5 60bd 0e8f e83c a1a8 2d3e eddb 8ebc
000002c0: bc96 17be 7770 19bc f6e1 f2bd cfcf 60bc
000002d0: 813d 003e eca4 c0bd 256e 0cbe 3164 abbc
000002e0: 1095 bbbd 69c4 c43d 5139 b0bd 68cf 18bd
000002f0: 4d15 0fbe b6cd 88bd b4c6 eb3d 8eaa 28be
00000300: 75a8 0bbe dbd7 c9bd 5614 fd3d fe0d 09be
00000310: d9f3 bbbd 2ff8 9e3d 17f7 54bc f3e2 18be
00000320: 7041 3bbd 6252 ec3d 390b 54bd 6ae9 f23d
00000330: e406 6d3d f4ab 113e 7722 d3bd cf2c 6fbd
00000340: ec27 213e 0956 8abc 8a7c a63d da7e 22be
00000350: 7234 893c 6ef3 b5bd 2361 e1bd 9b46 25be
00000360: 471f 9abd c60d 9cbc c6b6 ce3b 7e3e f33d
00000370: 0faf d3bd 06ee 213e a337 403c fa05 e0bd
00000380: 7eb6 993d 8206 28bd 59e8 25be 6eba a3bd
00000390: 5670 83bd 6074 0abe 27a7 bdbd 4e2e e43c
000003a0: 2c40 4abc dc19 edbd 27b8 b13d ed52 44bd
000003b0: f895 9abd 00e8 f2bd 6618 f7bd 05dd 5c3d
000003c0: 82e6 823d 1ad4 ffbb a03e ffbd 1747 1a3d
000003d0: 9731 18be abdc 7dbc 9940 db3d 243f c13d
000003e0: 5d45 5d3b e8db 273e 5de8 103e f29d 2e3e
000003f0: 2609 b5bd ed29 b33c fc12 113e 0eb5 8f3d
-0.09577647 -0.11293026 0.005368839 0.16866164 0.15417813 0.08859713 0.10755542 -0.06842231
0.02833028 0.14664336 -0.0034993174 0.07299132 -0.11469324 0.04149757 -0.080122605 -0.0026507329
-0.07407751 0.049415994 -0.015228717 -0.12040424 -0.022865726 -0.036877856 -0.1568059 -0.07169381
-0.1137103 0.10721812 -0.063761085 0.10781314 0.014727702 -0.07842809 0.029296294 -0.069180496
-0.14960696 -0.1497631 0.08497684 -0.014480763 -0.056620944 0.024384713 0.018756343 0.12171926
-0.0041941316 -0.08507942 0.12177327 -0.047291346 0.086488806 0.13133606 0.12708205 0.053038012
-0.05428727 -0.13948795 0.026360331 -0.13295195 -0.05623916 0.12242976 -0.16684799 0.13613233
0.15060855 -0.014048338 0.117550045 -0.09966298 0.16121684 -0.10692092 -0.05820256 -0.08332406
-0.07415807 -0.052063417 0.046521645 0.15272759 0.029874034 -0.10109979 -0.06503078 0.023515204
0.10099824 0.030097727 -0.013688341 0.112506926 -0.053866073 0.118089736 0.07831483 -0.15372866
-0.10050441 0.09469791 0.05124842 -0.016005658 0.13754432 -0.07210249 0.107785106 0.050219487
0.107609525 0.14404991 -0.0688249 -0.017028607 0.13046938 0.041373968 -0.0013561955 -0.11548808
0.020381847 -0.036127172 -0.0074324375 0.0162386 0.12700008 0.08161795 -0.093992494 0.043591075
-0.025681097 -0.16140784 -0.08275139 -0.077097096 0.10409046 -0.09692474 0.16114305 -0.169581
-0.09507354 0.0088064885 -0.052357383 -0.15571706 0.0050041704 -0.16581434 -0.053203147 0.12372047
-0.016695198 -0.08923268 0.012234847 0.15611354 0.112796105 0.020076253 -0.07983451 -0.15662326
0.0025491484 0.1627798 -0.07034576 0.1368175 -0.055555068 0.1678225 0.047752798 0.05592204
-0.12759668 -0.09903832 0.16018833 -0.112743385 -0.15105566 -0.09473294 -0.14974259 0.15676643
-0.06501718 -0.14339139 0.1416558 -0.129435 -0.090456754 -0.13582124 -0.14542034 0.022531781
-0.03980188 -0.057665586 0.050370574 -0.11572894 -0.012843381 -0.15661392 0.16177 0.1371314
-0.14407514 -0.11861917 0.16537154 -0.0420303 -0.06388004 0.15790443 -0.040067 0.10033014
0.058263537 0.12630539 -0.005533647 0.014624622 -0.054891013 0.028388526 0.16958858 -0.017438853
-0.14803594 -0.009365193 -0.11859505 -0.01372142 0.12523462 -0.09406456 -0.13713892 -0.020921798
-0.09159291 0.09607775 -0.08604682 -0.037307173 -0.1397297 -0.06679861 0.11512509 -0.16471311
-0.1363848 -0.09855624 0.123573944 -0.13384244 -0.091773696 0.07762181 -0.012998364 -0.14930324
-0.045716703 0.11539151 -0.051768515 0.118609264 0.0578679 0.14225751 -0.10309308 -0.058392342
0.15737885 -0.016886728 0.08129223 -0.15868703 0.01674864 -0.08884321 -0.110048555 -0.16140215
-0.07525497 -0.019049536 0.0063084094 0.11877154 -0.10336124 0.15813455 0.011732015 -0.1093864
0.07505511 -0.04102183 -0.16201915 -0.07994543 -0.06417911 -0.13520956 -0.092603974 0.027854111
-0.012344401 -0.11577198 0.086777024 -0.047930647 -0.075481355 -0.11860657 -0.120652005 0.05392172
0.06391622 -0.007807267 -0.12463117 0.037665453 -0.14862667 -0.015494506 0.107056804 0.09435871
0.0033763268 0.16392481 0.1415114 0.17052439 -0.088396356 0.021870578 0.14167398 0.07016955

branch_p.fc1.bias f4 [256]
00000000: 6816 953d 14ff a53d e0e4 243e 0582 9abd
00000010: 3cd1 90bd 24d1 d73c 7557 003d 6fb5 c73c
00000020: 4675 2f3e 8c26 2cbe ed6b 113d 2e6d 613d
00000030: 2438 1cbd f1d1 573c d7b3 5a3c be98 27bd
00000040: ed85 5e3d 344c b6bd e7e0 e63b 93dc 023e
00000050: bdd8 1f3e 9dc6 bb3d 37e7 023e b2f7 9dbd
00000060: 9117 d0bd f548 143e 52fa 87ba 145f 9f3d
00000070: 2035 41bd 0ed7 2d3d 0d5d d3bd de6d 303e
00000080: fd1a 203e 5c47 0bbb fedf c7bd 7f54 053e
00000090: 8a47 c43d 603e bc3c 6f4b 41bd bb79 d8bd
000000a0: db42 dbbd eb25 cd3d 8a8b 89bd 4738 083d
000000b0: 0806 bfbd b816 0ebd 311c 0dbe fc12 bbbd
000000c0: d66c 093e 0992 c8bc be46 0f3e abf9 dabd
000000d0: dce8 203e abcb 6ebd 6fbb 013e 1675 133e
000000e0: 0b08 afbd fb3e 433d a027 e63d f1dc 2dbe
000000f0: 365f a63d 2d93 29be 2e50 233d 3748 45bd
00000100: 0f1d b5bd a6ed f5bc 2c08 02be 0a13 91bd
00000110: 12af db3d c22b 08be 8865 d1bd 118e c53d
00000120: d9f4 12be 2de3 9ebd 110f 12be b12c adbc
00000130: 589a 8dbd 0368 853d c7ab a33c f81b ba3d
00000140: b5c7 38bd eeaf 92bd 204b 1dbe c197 093d
00000150: 7508 953c 247c 0e3e 7a66 19be 41a1 03bd
00000160: 3eb3 a7bd 88c6 283e fb3c d8bc aca3 c73d
00000170: 2cca 543b 932a 08be d314 1c3e 29b0 ea3c
00000180: a499 f93d 1d3a 23be 90f8 39bd 0e85 12be
00000190: 1f2d a63d 5fef 563d 8c53 15be e5a0 b43c
000001a0: e45c 123c 15ca 003e 3655 16be b3cf f83d
000001b0: b5e1 a0bd 8c09 143e 56f1 a8bd de89 aebd
000001c0: 18ff 45bd 60cd 6f3c 9d5c 27be 2b70 bf3d
000001d0: a2ed c2bd 659d a53d 5908 203d f610 b4ba
000001e0: 4d3b c03d 356a a4bd db87 d43d 6439 a7bc
000001f0: 604a 11bd f116 a2bd dfe6 0b3e f58b 073e
00000200: 0ca6 babd 9780 7bbc 2d76 5b3c 6a5e d33d
00000210: 28f2 26bd dcdd 8c3d b8f5 16bc f557 ad3d
00000220: 1099 bf3a 83f4 a9bc 37ba b8bc ca54 c7bd
00000230: 79e1 06bc 431f f0bd 4a4f 8cbc 52ff 1a3e
00000240: a53c 203e a202 523d 9926 83bc 916a d13d
00000250: de3c 15be 5a5f a5bd 81eb 0cbe 14a5 09bd
00000260: e47d 15be 0ccd 44bd 36a9 30be 1307 7ebd
00000270: 4d38 e8bd 0648 223c 0c6a 3cbd 4cb6 4ebd
00000280: feeb 013e 5f11 013e 9cf2 edbb cc9a f53d
00000290: 75de 983d 0ea4 06be b694 07be 83ba fa3d
000002a0: 6322 34bd be1b ce3b 5652 19be 4942 2a3e
000002b0: 0336 1ebe bebb 4fbd 8e0e 8abc fafe e83d
000002c0: 02d0 12be aea8 62bd f243 e43d 5398 4abd
000002d0: cee6 963d 2a70 0e3c 704c 0bbe 7827 89bd
000002e0: 4e5f 18be 0f5e 033c a439 0f3e 78ea 453d
000002f0: 29b0 efbd 15d4 a4bd 2f13 aebd 4b02 1c3e
00000300: 7e29 a43d 4bc2 29be 0e84 0e3d e036 fb3d
00000310: 9d09 823d ce75 49bd a158 f9bd 798e ac3d
00000320: ebd0 83bd edeb 22bd a9df 563d 0003 22be
00000330: a2be 18be 4e57 fbbd 0dc2 32bd e92c f6bb
00000340: a94e 0bbe 56a8 023d d20e f83d 10b2 37bd
00000350: ecc8 9cbd 287a 173e 3adb b0bd 5308 08be
00000360: 2597 eeba 0c74 b33d 7ed7 833d 1db4 0b3e
00000370: 25ed afba 90e0 9a3c a29d 9dbd 3e00 cdbd
00000380: f830 2dbe 2f52 91bd 0a71 003e f802 2f3e
00000390: 4ae4 2fbc df02 123b c448 82bd fc47 e83d
000003a0: 46f5 f1bc 4b8c 123e 63f3 cbbd fb4d 7e3d
000003b0: 3c5a 893d bdaa 17be 62c4 ebbd 0bb9 393d
000003c0: 16ba d3bd c2ec 1c3e 15df adbc 43ad b5bd
000003d0: fe76 b2bd 88f2 013e 547c 033e 6404 81bb
000003e0: 9ca4 c9bd 9648 113e 6de4 223e 3222 f2bd
000003f0: b068 cb3c 5c36 873d 073f 963d 36c3 f63d
0.07279664 0.08105293 0.16102934 -0.075443305 -0.07071158 0.026344843 0.031333406 0.024378506
0.1713458 -0.1681158 0.035503317 0.055035762 -0.038139477 0.0131726125 0.013348541 -0.04091715
0.05432694 -0.08901253 0.0070458534 0.12779455 0.15610023 0.09168742 0.12783514 -0.0771326
-0.10160745 0.14480956 -0.0010374284 0.077818066 -0.047169805 0.04244142 -0.103204824 0.17229411
0.15635295 -0.002125225 -0.0975952 0.13020514 0.095839575 0.022978961 -0.04719108 -0.10570093
-0.10706111 0.10016998 -0.06716068 0.033256795 -0.09327322 -0.034689635 -0.13780285 -0.0913448
0.13420424 -0.024483697 0.1399183 -0.10692152 0.15713829 -0.0582997 0.12669156 0.14400133
-0.08546456 0.047667485 0.112380266 -0.16978814 0.08123629 -0.1656005 0.039871387 -0.048164573
-0.08843433 -0.030020546 -0.1269843 -0.070837095 0.107267514 -0.13297942 -0.10224444 0.09646238
-0.14351214 -0.07758174 -0.1426356 -0.021139475 -0.06914204 0.06513979 0.01997937 0.09087366
-0.04511233 -0.07162462 -0.15360689 0.03359199 0.01819251 0.13914543 -0.14980498 -0.032136206
-0.081884846 0.16481984 -0.026396265 0.09748015 0.0032469137 -0.13297491 0.15242319 0.028648453
0.12187508 -0.15940137 -0.045403063 -0.14308569 0.08114075 0.052474376 -0.14582652 0.022049377
0.00893328 0.12577088 -0.14680943 0.121489905 -0.0785555 0.14456767 -0.08249156 -0.0852239
-0.04833898 0.014636368 -0.16343923 0.09347566 -0.09517981 0.08086661 0.03907046 -0.0013737965
0.09386311 -0.0802807 0.10377475 -0.020413108 -0.03547132 -0.07914532 0.13662289 0.13236983
-0.09113702 -0.015350482 0.0133948745 0.103207424 -0.040758282 0.06878254 -0.009213857 0.08464042
0.001461776 -0.020746475 -0.022549732 -0.09732969 -0.008232468 -0.11724713 -0.017127652 0.1513646
0.15648134 0.051272042 -0.016009616 0.10225404 -0.14574 -0.080748275 -0.13761713 -0.033604696
-0.14598805 -0.04804711 -0.17252049 -0.062018465 -0.113388635 0.009904867 -0.04599957 -0.05046682
0.1268768 0.12604283 -0.0072615873 0.11992416 0.07464305 -0.1314852 -0.13240322 0.122426055
-0.043978106 0.006289928 -0.14972815 0.16626848 -0.15450291 -0.050716154 -0.016852643 0.11376758
-0.14337161 -0.055336647 0.11145772 -0.049461674 0.07368241 0.008693734 -0.13603377 -0.06696981
-0.14880106 0.008018031 0.13986832 0.04831931 -0.11703522 -0.08048264 -0.08499753 0.1523525
0.080157265 -0.16578023 0.034793906 0.12266326 0.0634949 -0.049184613 -0.12175108 0.08425612
-0.06436332 -0.039775778 0.052459393 -0.15821457 -0.1491647 -0.122725114 -0.043642092 -0.007512678
-0.13604225 0.03189882 0.12112202 -0.044847548 -0.0765551 0.14792693 -0.08635564 -0.13284425
-0.0018203004 0.087623686 0.06437586 0.13642927 -0.0013422115 0.018905908 -0.07696082 -0.10009812
-0.16913211 -0.070957534 0.12543121 0.17090976 -0.010735581 0.0022279543 -0.06361535 0.11341855
-0.0295359 0.1431133 -0.09958532 0.062086087 0.06706664 -0.14811225 -0.115120664 0.045342486
-0.103382275 0.15324691 -0.021224538 -0.08870938 -0.08714102 0.12690175 0.12840396 -0.003937291
-0.0984585 0.14187846 0.1590745 -0.118229285 0.024830192 0.06602165 0.0733624 0.12048952

branch_p.fc2.weight f4 [128, 256]
00000000: 8c8e 45bd 5041 4cbd 00a5 1a3a 4e51 2dbd
00000010: a885 023d 988e 233d a4c6 dc3c b2c3 20bd
00000020: 5c91 393d 9826 973c f8df 48bc 865f 463d
00000030: 94aa 623d c4c9 793d 1277 21bd d8d2 46bd
00000040: 00e1 c5ba 50ca a13b ccae fd3c d021 6c3c
00000050: e024 76bc 7898 babc 08f9 1bbd 42ab 20bd
00000060: 5cfe d0bc 965f 133d 8889 0b3d bc63 953c
00000070: 30db 8b3c 388f 753d 468b 0c3d 300f f3bb
00000080: 9a0b 3d3d e07f f2bb ea79 20bd 0010 8e38
00000090: 74e2 573d 685a af3c ccc6 513d 6612 71bd
000000a0: 66c4 373d 046e 083d 2e69 7c3d 00dc abbb
000000b0: 321d 2a3d 22fe 003d 5ec3 583d 24b9 62bd
000000c0: d093 f63c d037 763d 0043 013a 9036 3dbc
000000d0: 1cdc 973c 941e 933c 30b8 05bd 1ac5 2fbd
000000e0: 189e 28bc 4013 3b3d 102b 80bb 8221 27bd
000000f0: 2839 6a3d fc72 683d 6028 c83c 9a72 363d
00000100: c45c fabc c4cb dabc f056 733d 1057 353d
00000110: c4aa 833c 70ac ab3b 72ef 6c3d f0f2 bc3c
00000120: 8c23 763d 9e9f 09bd c859 4b3c 3a3a 4e3d
00000130: e07d afbb 742e f2bc eccb 50bd 8ab6 5d3d
00000140: ccfb f1bc d8c7 56bc ea61 323d 2005 763c
00000150: d61f 193d e87e 76bc c051 cfba 90e1 f33b
00000160: 60fa 7f3c cc68 323d c07e 903a 98c1 7cbc
00000170: 3019 60bc c4a8 cbbc 9822 863c 3835 503c
00000180: 7c50 443d 38c7 77bd 989a b53c 7855 9a3c
00000190: fe0e 2b3d 003c 503b 28f0 783d a6a8 113d
000001a0: 102c 6d3d c0d9 7fbb 2edf 4fbd d036 4c3c
000001b0: 4c2f 2d3d d816 473c f64f 5ebd f8f7 57bd
000001c0: 003b 6d3b 340c a5bc 00e7 31bd eccc ffbc
000001d0: 0656 7f3d e010 633b ac55 703d d897 b2bc
000001e0: 68c0 97bc be88 0a3d 5a17 09bd 5c08 cb3c
000001f0: 4a89 5cbd 14d3 60bd b855 adbc e897 0abc
00000200: 406f 07bc 88d7 e73c 8caa 203d 4044 3f3b
00000210: 0ee3 25bd 80c0 acbc eabd 513d 564a 653d
00000220: 280b 7abc 18aa 4c3d a4d5 f53c c01b d33b
00000230: 188d 173d d262 2b3d 3af3 043d 4ce1 3cbd
00000240: 8003 f33c 3e00 123d 68ce 69bd 949d 573d
00000250: 9c52 e83c 3863 e43c 54d7 ab3c a01e 973c
00000260: c0e3 2e3b defe 27bd d043 b3bb c894 0d3d
00000270: 1049 53bd 565b 53bd aee9 49bd 8032 39bd
00000280: 1094 cb3b b8f9 90bc 88c6 963c d06c 643c
00000290: 807d 0a3d 20bf 0f3b 0ae9 4dbd 3c3d 0f3d
000002a0: f039 6c3c 8e0e 213d 5e4a 063d 920d 23bd
000002b0: 04ad 533d 5070 953c 1e9a 1bbd e408 adbc
000002c0: 8807 093c ac1a 65bd 8aa5 77bd b497 6f3d
000002d0: e895 c2bc 3014 793d 8018 843b e007 7abb
000002e0: 20d3 16bc 520f 0cbd 803a af3c ac34 4ebd
000002f0: 7eeb 24bd 38d1 623c 2864 55bd 288c 0cbc
00000300: d06a f6bc 0a2e 6abd c07a 9e3b 34c3 c03c
00000310: 5848 adbc f4b7 dc3c 902e d5bc a4d2 fa3c
00000320: b6a9 353d aa3e 0f3d 40f2 50bd d655 0d3d
00000330: 605b 61bd 4e3c 2d3d f0c3 c9bc a0a3 bf3c
00000340: 2609 19bd 9840 623c b8e9 f6bc a0cb 1cbd
00000350: 882a c23c 8006 723c bcf6 433d 38e7 35bc
00000360: d299 60bd 0cf3 19bd 6481 4fbd 3021 fc3c
00000370: 783e 1cbc 204e dcbc e81f 8ebc 3abe 243d
00000380: da0a 44bd b03e 743d da74 65bd d036 d63c
00000390: 3433 0c3d 408b eb3c 80b9 53ba 5081 0e3d
000003a0: 2031 253b d043 c9bb f072 c9bb 28fa 413d
000003b0: c462 f6bc 30d6 e73c fe63 09bd 90f6 6d3c
000003c0: 4092 1bbc 803f 163a 409c a83c a819 31bd
000003d0: a037 13bc 8051 a53c 9818 2bbc 3888 24bd
000003e0: 1831 8b3c 98af 76bd 9a15 20bd 2e10 703d
000003f0: 0085 1f3b 0092 3c3c e0b4 093c fc00 57bd
-0.048231646 -0.049866974 0.00058992207 -0.042313866 0.031865746 0.03993091 0.026950188 -0.03924913
0.04530464 0.01845102 -0.01226043 0.048430942 0.055338457 0.060983434 -0.039420195 -0.04854092
-0.0015096962 0.0049374476 0.030967139 0.014412358 -0.01502344 -0.02277778 -0.03807929 -0.039225824
-0.025511913 0.03597983 0.034066707 0.018236034 0.01707229 0.059951037 0.03431251 -0.007417582
0.046153642 -0.007400498 -0.039178766 6.774068e-05 0.052706197 0.021405414 0.051214978 -0.058855437
0.044865035 0.033308044 0.061623745 -0.005244732 0.04153175 0.03149236 0.05292069 -0.055352345
0.03009978 0.06011182 0.0004930943 -0.011548653 0.018537574 0.017958917 -0.032646358 -0.04291258
-0.010291599 0.045672655 -0.0039113835 -0.04080344 0.057183415 0.056750283 0.024433315 0.044542886
-0.030561812 -0.026708491 0.059409082 0.044272482 0.016072638 0.005239062 0.05784554 0.02306506
0.060092494 -0.03359949 0.012411542 0.050348498 -0.0053555816 -0.029563166 -0.050975725 0.05412916
-0.029539011 -0.01310917 0.04355041 0.01501587 0.037383877 -0.015044905 -0.001581721 0.0074426606
0.015623659 0.043556973 0.0011024103 -0.015427016 -0.01367788 -0.024860747 0.016373917 0.012708001
0.04792832 -0.060492724 0.022168443 0.018839583 0.041762345 0.0031774044 0.060775906 0.035561226
0.05790335 -0.0039039701 -0.05074995 0.01246424 0.042281434 0.0121514425 -0.054275475 -0.052726716
0.0036198497 -0.02014742 -0.04343319 -0.031225644 0.062337898 0.003464751 0.058675453 -0.02180092
-0.018524364 0.033821814 -0.033469535 0.02478426 -0.053841867 -0.0548888 -0.021159038 -0.008459069
-0.00826627 0.028301015 0.039225146 0.0029184967 -0.04049974 -0.021087885 0.051206507 0.055979095
-0.015261449 0.0499669 0.030009098 0.006442517 0.03699979 0.04184229 0.03245852 -0.046113297
0.029664755 0.035644762 -0.05708161 0.052640513 0.028359704 0.027879342 0.0209767 0.01844722
0.0026686043 -0.041014545 -0.0054707304 0.034565717 -0.05158335 -0.051600777 -0.04929512 -0.045214176
0.006212719 -0.0176972 0.018405214 0.013941959 0.033811092 0.0021933988 -0.05027107 0.034970507
0.01441811 0.03932052 0.032785766 -0.039807864 0.051678672 0.018242031 -0.037988774 -0.021122403
0.008363612 -0.05593364 -0.060460605 0.058494285 -0.023753121 0.060810268 0.004031241 -0.0038151667
-0.00920561 -0.034194298 0.0213902 -0.0503432 -0.040263645 0.013843827 -0.05209747 -0.008578338
-0.030080229 -0.057172813 0.0048364103 0.02353058 -0.02115266 0.026943184 -0.02602318 0.03061802
0.044351302 0.03497187 -0.051012278 0.034505688 -0.055018783 0.04229384 -0.024629563 0.023393452
-0.03736224 0.013809346 -0.030140743 -0.03828013 0.023701921 0.0147720575 0.047842726 -0.01110249
-0.054834194 -0.037585303 -0.050660506 0.030777544 -0.009536378 -0.026892722 -0.017349198 0.040220477
-0.04786191 0.059630096 -0.05601964 0.026149184 0.03422852 0.028752923 -0.0008076653 0.03479129
0.0025206283 -0.006142117 -0.006147735 0.04735771 -0.030076392 0.028300375 -0.033542626 0.014524117
-0.009495318 0.0005731508 0.020582318 -0.04323736 -0.00898543 0.020180464 -0.010442875 -0.04016897
0.016991183 -0.060226053 -0.0390831 0.05860918 0.0024340749 0.0115094185 0.00840494 -0.052491173

branch_p.fc2.bias f4 [128]
00000000: c8c3 103d e783 463c 1aea 25bd ec9a 16bd
00000010: 604a 803d 5c89 12bd b2b5 363d b1dd 1b3d
00000020: 804b 1bba 0e8b 09bd 9458 13bd 7555 ad3b
00000030: b0b8 983b 8007 123d a0a6 dd3c 9e04 04bd
00000040: 2ed7 533d 165e d23c be64 0abd 35b5 5f3b
00000050: 7041 953b aae4 07bc 323a 35bd 507e 3d3c
00000060: b52e 143d 423c 203d 531a a0bb 1812 433c
00000070: 6669 c63a ecd4 f4bc fec1 0abd e849 f3bc
00000080: a8c9 4e3d a4b6 b6bc 5665 68bd 26fb e33c
00000090: 81b3 09bc c768 a93c 0058 a23c 2392 d03c
000000a0: 0047 33bd de31 0e3d cc31 31bd a4c0 783d
000000b0: 54ae 04bd 8486 6dbd 12fe cdbc e73b 583d
000000c0: 0e29 35bd e00b ed3c 6ee3 7b3d 364b 8e3c
000000d0: fe57 41bd ebad d23c 436e 1a3d fc0f 623d
000000e0: 08ee d9bc 869c 123d f401 74bd de52 6bbd
000000f0: 38bc f63c 1ee6 49bd 3436 603d b144 243d
00000100: 26dd 7d3d 00f2 eeb9 30d2 05bd 0721 003c
00000110: 32be 57bd f444 9e3c 0db4 98bc 37e0 21bd
00000120: 3734 283d 5cd1 5cbd 503a ed3c aa77 0bbd
00000130: 3082 093c 704d f3bc 2020 0cbd 6b32 86bc
00000140: 4928 f0bc 9068 413d 1a6e 0d3d e605 723d
00000150: 40f2 c03a c5d6 cfbb 84c9 c4b9 b0a8 2dbd
00000160: f116 ddbc cabc 7f3d b4c3 eb3c fc16 20bd
00000170: 05c2 df3b 4a79 57bd 3326 11bd 9669 193d
00000180: 6dc7 3b3d 6434 fe3c 219d 3b3d b869 6dbd
00000190: b4f0 93bc 6cc7 893c b847 ee3c 3c45 e7bc
000001a0: a2b6 7fbd 868f d73c cd0e fcbc eb9a 7d3c
000001b0: 4e43 1f3d 5bee b63c c4e0 21bd 030f 353b
000001c0: fc83 3fbd 1205 7b3d b488 5c3d 7d84 943c
000001d0: f2e5 1ebd dff7 83bc f0d2 dbbc b069 873c
000001e0: f5d2 0bbd 09fd 29bd 14e2 b03c d01f 433c
000001f0: 8061 55bc 8af8 083d a0b5 773b dff6 cfbb
0.03534296 0.012116409 -0.04050646 -0.03676884 0.06264186 -0.035775527 0.044606872 0.03805322
-0.0005924031 -0.03357988 -0.035973147 0.0052897283 0.0046606883 0.035651684 0.027056992 -0.032230966
0.051718883 0.02567963 -0.03378748 0.0034135107 0.00455492 -0.008294264 -0.044244952 0.01156576
0.036177356 0.039119966 -0.0048859506 0.011906169 0.0015137612 -0.029886685 -0.03387641 -0.029698327
0.050485283 -0.022303887 -0.056737266 0.027829718 -0.0084046135 0.020679845 0.019817352 0.025460308
-0.043768883 0.034715526 -0.04326038 0.06073059 -0.032392815 -0.057989612 -0.025145564 0.052791502
-0.044228606 0.028936327 0.06149619 0.017369848 -0.047203057 0.025717696 0.03770281 0.055191025
-0.02660276 0.035793804 -0.059572175 -0.057452075 0.030119047 -0.049291722 0.054739192 0.04010457
0.06197848 -0.00045575202 -0.032671154 0.007820374 -0.05267162 0.019319989 -0.018640542 -0.03952047
0.04106542 -0.0539106 0.02895847 -0.034049667 0.0083928555 -0.029700011 -0.034210324 -0.016381463
-0.029316084 0.04721886 0.03452883 0.059087656 0.0014720634 -0.006342741 -0.00037534174 -0.0423972
-0.026988478 0.062435903 0.028779842 -0.03908442 0.006828549 -0.052605905 -0.03543682 0.03745421
0.045844484 0.031030841 0.045804147 -0.05796215 -0.018059112 0.016818725 0.029086933 -0.028231256
-0.06243003 0.026313554 -0.030768776 0.01547883 0.038882546 0.022330454 -0.039520994 0.0027627356
-0.04675673 0.061284132 0.053841308 0.018129582 -0.03879351 -0.016109405 -0.026833981 0.016529888
-0.03413673 -0.04150108 0.021592177 0.01190944 -0.013023734 0.03344015 0.0037797466 -0.006346568
