d2calcbot/main/calc_bot/dota_model_ver03.pth (torch, 77722 bytes, 15 tensors)

branch_t.fc1.weight f4 [64, 34]
0.036790106 0.08205847 0.14937499 0.09330119 -0.056214172 -0.0471585 0.036699817 -0.050389588
-0.0891893 0.014608639 0.03241076 0.09801238 -0.005957572 0.1456678 0.11214703 -0.0712986
0.021719683 -0.16536602 0.10116179 -0.059204318 0.07877913 0.11241378 0.124380544 -0.080736585
-0.14111663 0.16677856 0.1407042 -0.15651308 0.01836399 -0.06542979 0.08682299 -0.148375
-0.04112345 -0.034206435 0.13353856 0.14091662 0.016036496 -0.0008184612 -0.14883088 -0.047995113
-0.0028442647 0.16052122 -0.08357079 0.11481047 0.13205369 0.14459537 0.00713414 -0.104771964
-0.15407164 0.0445087 0.08840451 0.10777713 0.0019472995 0.08446654 0.0148802325 -0.0963994
-0.102378204 -0.05380544 -0.122266755 0.019627642 0.07855371 -0.101949275 -0.1057269 0.08398368
0.031429663 0.0758734 -0.12846175 0.0025339893 0.05948214 0.039022617 0.14768277 0.1626906
0.053025227 -0.05328876 0.11537425 0.09265187 0.0744849 0.007487476 -0.15278004 0.041283075
-0.1064438 -0.024401255 -0.16621755 0.03547519 0.011950795 0.060531475 0.008773547 -0.023395503
-0.07450621 -0.045306128 -0.07443073 0.0001499259 0.026174424 -0.08167569 -0.08735751 0.11183556
-0.10021263 0.15876512 -0.16016278 0.08000713 -0.042511992 0.17112398 0.067477964 -0.061422803
0.012009995 0.15944573 0.0046824245 -0.09520553 -0.13396665 0.010327884 0.16383125 0.078959934
-0.14349973 0.12976651 -0.14299962 0.055422217 -0.15884234 0.02809507 0.034024786 0.11696183
0.0049299523 0.16782951 -0.07842519 -0.07942224 0.044836886 -0.02252699 -0.08049713 0.121761434
-0.06712927 0.11385175 0.056813084 -0.120953165 -0.014804146 0.1607677 -0.0049238056 0.074000426
0.15031722 0.08407657 -0.061650243 0.028488124 -0.058480266 0.07224932 0.03737901 0.12952785
0.14859353 -0.16547668 0.023290081 0.1214857 0.13588242 -0.0119522745 -0.12407449 -0.09560186
-0.15646654 -0.08132754 -0.0606619 -0.10098734 0.043158296 -0.040661797 0.100138895 0.14022794
-0.08847037 -0.15595299 -0.1065746 -0.12889059 -0.120180555 0.09969612 -0.076713264 0.15693271
0.004731183 -0.08758647 -0.085997984 -0.004222067 -0.04152258 0.08989007 -0.023400411 -0.11373325
0.038190924 -0.045543224 0.024783704 -0.09068595 0.04240328 -0.028984549 -0.037684485 -0.1566348
0.004747181 0.05381324 0.15798666 0.013828706 0.13277782 -0.0024678514 0.1329105 -0.045845885
0.004095224 0.09535411 0.16885741 0.08712738 -0.017138986 -0.044545338 0.04059282 -0.018629964
-0.113933794 0.11087126 0.050904527 0.05065906 -0.0043735555 0.164627 0.022856347 0.074822925
-0.14758947 -0.08667744 -0.12948675 0.13939078 0.15320627 0.091584206 -0.050530262 -0.12848033
0.0041470756 -0.060529884 -0.08762509 0.037113767 -0.044634912 -0.009379351 -0.031088531 0.084315985
-0.121129185 -0.056246046 -0.15683377 0.072166435 -0.10451075 0.022582449 0.028315812 -0.008452342
0.07774945 0.016043313 -0.14690702 -0.086849645 -0.064012736 -0.12474906 -0.11184328 0.04978137
0.045739826 -0.14989232 0.07742549 0.08985915 -0.08251137 -0.063270845 0.015904643 -0.1605056
-0.02658412 0.09914856 -0.06894302 0.13722213 0.13548763 0.113275595 -0.054667264 -0.036822625
00000000: 39b1 163d 450e a83d c2f5 183e b214 bf3d
00000010: d540 66bd 4529 41bd 8c52 163d 5065 4ebd
00000020: e1a8 b6bd 1359 6f3c 25c1 043d b7ba c83d
00000030: bc37 c3bb f129 153e 58ad e53d 0005 92bd
00000040: 7aed b13c b655 29be ea2d cf3d 3a80 72bd
00000050: f456 a13d 3239 e63d 3abb fe3d 3959 a5bd
00000060: e180 10be 00c8 2a3e c314 103e f744 20be
00000070: 1470 963c 0e00 86bd 40d0 b13d 9eef 17be
00000080: 1071 28bd 0c1c 0cbd 55be 083e 724c 103e
00000090: f85e 833c 008e 56ba 1f67 18be 8696 44bd
000000a0: d866 3abb ad5f 243e 2a27 abbd c021 eb3d
000000b0: 1539 073e cf10 143e 81c5 e93b af92 d6bd
000000c0: f5c4 1dbe c14e 363d 6c0d b53d 42ba dc3d
000000d0: 873c ff3a cbfc ac3d 38cc 733c 0c6d c5bd
000000e0: aaab d1bd 1863 5cbd fe66 fabd 26ca a03c
000000f0: c4e0 a03d c8ca d0bd 5887 d8bd a3ff ab3d
00000100: 64bc 003d 8363 9b3d 7a8b 03be 4911 263b
00000110: 8ba3 733d 2ed6 1f3d 273a 173e 5d98 263e
00000120: fb30 593d 5145 5abd 5649 ec3d 43c0 bd3d
00000130: 8a8b 983d 8059 f53b 5f72 1cbe 7118 293d
00000140: 35ff d9bd 24e5 c7bc ef34 2abe 6f4e 113d
00000150: 44cd 433c daef 773d ecbe 0f3c eda7 bfbc
00000160: b696 98bd eb92 39bd 236f 98bd 6d35 1d39
00000170: bf6b d63c 9645 a7bd 7fe8 b2bd 0b0a e53d
00000180: 483c cdbd 5393 223e b601 24be c7da a33d
00000190: 0e21 2ebd 203b 2f3e e331 8a3d 7a96 7bbd
000001a0: 92c5 443c be45 233e 066f 993b 1efb c2bd
000001b0: 8e2e 09be 4936 293c 61c3 273e bfb5 a13d
000001c0: 98f1 12be 83e1 043e 7e6e 12be 6802 633d
000001d0: 91a7 22be a227 e63c 935d 0b3d af89 ef3d
000001e0: 708b a13b 80db 2b3e 639d a0bd 21a8 a2bd
000001f0: e2a6 373d 868a b8bc aedb a4bd 0f5e f93d
00000200: 127b 89bd 1b2b e93d d6b4 683d 4bb6 f7bd
00000210: 178d 72bc 4aa0 243e e057 a1bb 898d 973d
00000220: c2ec 193e 5630 ac3d f784 7cbd ed5f e93c
00000230: 0189 6fbd 74f7 933d bc1a 193d f3a2 043e
00000240: e728 183e b872 29be d7ca be3c 7fcd f83d
00000250: c324 0b3e 79d3 43bc c41a febd e8ca c3bd
00000260: c438 20be 0e8f a6bd 9d78 78bd 73d2 cebd
00000270: c1c6 303d fc8c 26bd 9f15 cd3d ea97 0f3e
00000280: f42f b5bd 24b2 1fbe c943 dabd e5fb 03be
00000290: 3921 f6bd 7b2d cc3d d81b 9dbd f8b2 203e
000002a0: 0a08 9b3b 8960 b3bd b61f b0bd 4459 8abb
000002b0: 9513 2abd 4918 b83d 38b2 bfbc faec e8bd
000002c0: 166e 1c3d 888b 3abd 3207 cb3c 8eb9 b9bd
000002d0: 10af 2d3d 0171 edbc 0c5b 1abd df64 20be
000002e0: 3e8e 9b3b 466b 5c3d 41c7 213e cc91 623c
000002f0: e9f6 073e adbb 21bb b119 083e e5c8 3bbd
00000300: 3b31 863b 0449 c33d f5e8 2c3e d76f b23d
00000310: 0f67 8cbc 2c75 36bd a844 263d de9d 98bc
00000320: 1f56 e9bd 7910 e33d 4481 503d e07f 4f3d
00000330: 0b50 8fbb fb93 283e 3c3d bb3c c33c 993d
00000340: b221 17be f183 b1bd 2d98 04be 75bc 0e3e
00000350: 1be2 1c3e 8090 bb3d d2f8 4ebd 5990 03be
00000360: 31e4 873b 2fee 77bd c874 b3bd 9b04 183d
00000370: 19d3 36bd d9ab 19bc 60ad febc dcad ac3d
00000380: 9412 f8bd 4162 66bd 0899 20be ffcb 933d
00000390: bb09 d6bd d4fe b83c 90f6 e73c b17b 0abc
000003a0: 1b3b 9f3d 446d 833c cb6e 16be 3ade b1bd
000003b0: 1c19 83bd 6f7c ffbd 170e e5bd 8de7 4b3d
000003c0: af59 3b3d 5f7d 19be 4191 9e3d 1308 b83d
000003d0: b9fb a8bd 2594 81bd 744a 823c 945b 24be
000003e0: f1c6 d9bc 660e cb3d 0032 8dbd f583 0c3e
000003f0: 45bd 0a3e 09fd e73d c8ea 5fbd 52d3 16bd

branch_t.fc1.bias f4 [64]
0.018871898 0.15634632 0.16535969 -0.05725442 0.03242685 0.038819168 -0.11025624 -0.07471529
0.16787587 0.06952138 0.13204178 0.16596715 -0.03309479 -0.012514243 -0.06551496 0.05169319
0.12957735 -0.16724528 0.16057709 0.14466852 0.13932808 0.10588523 -0.042916898 -0.08576564
0.15319803 0.16650182 -0.037377782 0.08564232 0.12008367 -0.14694855 0.0051559233 -0.08512823
-0.058804993 0.039936684 -0.076082416 0.0039229514 0.16734725 0.0018616364 -0.06727769 -0.10719786
-0.068149455 0.013546345 -0.15446983 -0.13063289 0.12311759 -0.09735947 0.040876456 -0.023337793
-0.14670351 0.08041616 0.009342732 0.12084076 0.09216632 0.10441527 -0.0020169339 0.11800202
0.15734927 0.098014764 0.13613455 0.14063403 0.10737127 0.13895467 -0.04338197 -0.10046417
00000000: 3d99 9a3c 4019 203e 0d54 293e 9c83 6abd
00000010: 04d2 043d d900 1f3d 06ce e1bd 5404 99bd
00000020: a7e7 2b3e 3a61 8e3d f635 073e 4bf3 293e
00000030: 678e 07bd 8a08 4dbc b52c 86bd 3dbc 533d
00000040: edaf 043e 5942 2bbe 526e 243e fc23 143e
00000050: 05ac 0e3e 5bda d83d a1c9 2fbd e5a5 afbd
00000060: f2df 1c3e 747f 2a3e 7219 19bd 3e65 af3d
00000070: 6dee f53d ae79 16be 05f3 a83b b657 aebd
00000080: 81dd 70bd a694 233d 19d1 9bbd 1a8c 803b
00000090: 145d 2b3e 2702 f43a e3c8 89bd 8d8a dbbd
000000a0: f191 8bbd 7df1 5d3c 572d 1ebe a1c4 05be
000000b0: 1325 fc3d 6764 c7bd 126e 273d e62e bfbc
000000c0: 7239 16be 3ab1 a43d 4212 193c 5c7b f73d
000000d0: b2c1 bc3d acd7 d53d 892e 04bb 0bab f13d
000000e0: 2b20 213e f7bb c83d db66 0b3e 5e02 103e
000000f0: 78e5 db3d 224a 0e3e 4bb1 31bd 29c0 cdbd

branch_t.fc2.weight f4 [16, 64]
-0.0077685835 0.08077437 0.06018035 -0.013630028 0.110904634 0.12424814 0.01625984 -0.07252893
0.10392799 0.10845572 -0.059328422 0.050561365 0.096837364 0.12194517 -0.0497651 -0.053240143
-0.08509317 -0.011450419 0.080609486 -0.040288057 -0.10642188 -0.11950465 -0.117454045 -0.036521643
-0.06249061 -0.12417223 -0.1121026 -0.08581952 -0.10629514 -0.1242752 0.07808993 0.10229588
0.011998242 0.01489593 -0.053525746 0.056153536 -0.107701875 0.02790858 0.1061382 0.043156512
-0.055740435 0.07663386 0.11475218 -0.067177914 -0.059596907 -0.0368705 0.078185804 -0.057397492
-0.010678796 -0.06689716 -0.09770343 0.039817434 -0.067889355 0.01032227 0.00102961 -0.03891804
0.099519946 -0.08075825 0.020827321 0.0006545314 0.08255177 0.11749293 0.03163957 0.09071179
-0.092385605 0.07597476 -0.045544717 0.10175108 -0.028510422 0.08292874 0.008684488 0.094745934
0.08007038 0.108540595 -0.085051574 -0.058194753 -0.044535596 0.063268766 -0.11441908 -0.04889652
0.033047 0.04090305 -0.015491387 -0.07681132 -0.01567755 -0.012783639 -0.06650951 -0.08594239
-0.011101293 0.033060167 -0.12289393 0.08922458 -0.11954629 -0.044600487 -0.08242782 -0.12255198
0.031244356 0.045031965 0.09889067 -0.12440327 0.091967314 -0.0104328105 0.005672682 -0.0048706774
0.07065755 0.037674163 0.014370052 0.07791978 0.09096584 -0.12122098 0.10112974 0.016437562
0.019206977 0.01194213 0.12002892 0.040864542 -0.009151463 0.048942596 -0.07417745 -0.070632815
-0.0026266875 -0.020754335 0.04983216 0.061865546 0.037477206 -0.0110802995 -0.061918933 0.055888858
-0.038364902 0.0030184889 -0.07202897 -0.07625975 -0.04406971 -0.12347858 0.07288937 0.0030560263
0.04478372 0.06360573 0.012547171 0.097198024 0.034834813 -0.10271525 0.06491292 0.042812027
-0.10741639 -0.07083886 -0.085696846 0.0057673524 0.04702696 0.012536864 0.112083375 -0.007516403
-0.050507046 0.0418366 3.6813803e-05 -0.0075522847 0.11892446 -0.07804878 -0.012940848 0.044182878
0.12201574 0.079412095 -0.06961211 -0.07955704 0.10907017 0.1153045 -0.0026358496 -0.102063835
0.08731218 -0.008748658 -0.023651585 -0.03704813 0.006588673 0.123743765 -0.037211962 0.07150117
-0.021121796 0.09140965 0.09865181 0.124605864 -0.038316865 -0.11236896 0.061237264 -0.10100634
0.018220525 0.04299842 0.059737083 0.08316789 0.12131919 -0.066030145 0.12178698 0.03010003
-0.09942335 -0.024640456 0.06351841 -0.030134423 -0.039574828 0.032554034 -0.050138842 0.06675052
0.037397206 -0.049404293 0.1200977 -0.07759473 -0.028693788 0.122673094 0.027890211 -0.11284349
-0.036451623 0.015846953 0.10838377 -0.064881496 0.050606493 0.090833955 0.07876089 0.009714266
0.06879516 0.09977753 -0.026382469 -0.07004548 -0.062137343 0.038249377 -0.05413908 0.031229498
0.043598097 -0.10990434 0.0004662241 -0.035725683 0.09202533 -0.03381025 -0.024888676 -0.08535328
0.09614434 -0.08791722 -0.118702 -0.049024463 -0.091234446 0.07850359 0.09532866 -0.06505948
0.019024774 -0.07169553 -0.042329114 -0.026976107 -0.046237614 -0.026501097 0.048321098 -0.05148568
-0.07728268 0.0573656 -0.073097564 -0.12517214 -0.07439595 0.11362075 0.041788053 -0.05746503
00000000: 9a8f febb 086d a53d ac7f 763d 7b50 5fbc
00000010: f821 e33d cf75 fe3d 5b33 853c 0c8a 94bd
00000020: 33d8 d43d 081e de3d 5c02 73bd 6f19 4f3d
00000030: ab52 c63d 64be f93d 7dd6 4bbd 5612 5abd
00000040: 5445 aebd 8a9a 3bbc 9616 a53d 1705 25bd
00000050: b7f3 d9bd dbbe f4bd bf8b f0bd b897 15bd
00000060: 27f6 7fbd 034e febd 0c96 e5bd 25c2 afbd
00000070: 44b1 d9bd ff83 febd 9ded 9f3d 8180 d13d
00000080: 4694 443c 0f0e 743c d03d 5bbd 4001 663d
00000090: cd92 dcbd 89a0 e43c fc5e d93d e2c4 303d
000000a0: 1550 64bd 37f2 9c3d 3103 eb3d 9394 89bd
000000b0: e31b 74bd 8505 17bd e11f a03d a219 6bbd
000000c0: 1ef6 2ebc 6101 89bd bc18 c8bd 9b17 233d
000000d0: 9309 8bbd bd1e 293c fbf3 863a 8668 1fbd
000000e0: 1dd1 cb3d 9564 a5bd 0f9e aa3c dc94 2b3a
000000f0: e710 a93d 22a0 f03d 7e98 013d 1ac7 b93d
00000100: aa34 bdbd a898 9b3d 198d 3abd df62 d03d
00000110: b08e e9bc 8bd6 a93d 6249 0e3c 280a c23d
00000120: f0fb a33d 884a de3d 852f aebd 9f5d 6ebd
00000130: f56a 36bd 0e93 813d 8d54 eabd b847 48bd
00000140: 4b5c 073d f589 273d 96cf 7dbc 414f 9dbd
00000150: 356e 80bc 7872 51bc 2336 88bd 9002 b0bd
00000160: 33e2 35bc 196a 073d d0af fbbd 60bb b63d
00000170: afd4 f4bd 00af 36bd ebcf a8bd 88fc fabd
00000180: 2af4 ff3c 7073 383d 3187 ca3d 24c7 febd
00000190: 5c59 bc3d 61ee 2abc e8e1 b93b 349a 9fbb
000001a0: e8b4 903d 3950 1a3d 5e70 6b3c 6894 9f3d
000001b0: 4c4c ba3d b542 f8bd 1c1d cf3d 11a8 863c
000001c0: f357 9d3c eca8 433c b9d1 f53d 9461 273d
000001d0: 05f0 15bc 0878 483d 59ea 97bd f0a7 90bd
000001e0: 8124 2cbb ff04 aabc cf1c 4c3d ba66 7d3d
000001f0: b381 193d 258a 35bc b59e 7dbd b7eb 643d
00000200: 8424 1dbd d7d1 453b ed83 93bd 122e 9cbd
00000210: 7182 34bd 56e2 fcbd 0647 953d 9d47 483b
00000220: 226f 373d b943 823d a692 4d3c c20f c73d
00000230: f3ae 0e3d 5f5c d2bd 11f1 843d aa5b 2f3d
00000240: 20fd dbbd f713 91bd d481 afbd 0ffc bc3b
00000250: 579f 403d 6b67 4d3c f88b e53d 294c f6bb
00000260: 7ae0 4ebd db5c 2b3d 8568 1a38 2879 f7bb
00000270: ab8e f33d 0ad8 9fbd da05 54bc 1bf9 343d
00000280: 63e3 f93d cfa2 a23d cb90 8ebd cdee a2bd
00000290: 2e60 df3d c424 ec3d 38be 2cbb d806 d1bd
000002a0: bad0 b23d 8856 0fbc f8c0 c1bc c8bf 17bd
000002b0: cce5 d73b 5f6d fd3d 926b 18bd 356f 923d
000002c0: 9e07 adbc fc34 bb3d f609 ca3d 5c31 ff3d
000002d0: 25f2 1cbd b321 e6bd edd3 7a3d 69dc cebd
000002e0: 3643 953c 1c1f 303d dfae 743d ed53 aa3d
000002f0: 3276 f83d d03a 87bd 746b f93d 5794 f63c
00000300: 789e cbbd c8da c9bc f115 823d 77dc f6bc
00000310: 3719 22bd 6157 053d 635e 4dbd 7fb4 883d
00000320: d02d 193d 285c 4abd c8f5 f53d fce9 9ebd
00000330: 3c0f ebbc 083c fb3d 037a e43c 7d1a e7bd
00000340: 4c4e 15bd 78d1 813c 4ff8 dd3d 97e0 84bd
00000350: c148 4f3d 2707 ba3d 644d a13d 9628 1f3c
00000360: 7ae4 8c3d 2958 cc3d 0c20 d8bc 0174 8fbd
00000370: ba83 7ebd 61ab 1c3d f1c0 5dbd 01d5 ff3c
00000380: eb93 323d 8715 e1bd 8a6f f439 1855 12bd
00000390: c777 bc3d 9e7c 0abd 56e3 cbbc b3cd aebd
000003a0: 53e7 c43d f20d b4bd 091a f3bd e0cd 48bd
000003b0: 20d9 babd 7dc6 a03d ac3b c33d e83d 85bd
000003c0: d8d9 9b3c 1bd5 92bd 4b61 2dbd fffc dcbc
000003d0: a763 3dbd d418 d9bc 58ec 453d a6e2 52bd
000003e0: 6246 9ebd 31f8 6a3d 2db4 95bd 202d 00be
000003f0: e75c 98bd ffb1 e83d f329 2b3d 7460 6bbd

branch_t.fc2.bias f4 [16]
-0.013595628 0.0687158 0.006049549 -0.0039000458 -0.0033255992 -0.07676596 0.10930162 -0.05655473
-0.016450267 -0.12011376 -0.016621307 0.08574333 0.06536956 0.08155439 0.09146508 0.08498817
00000000: 32c0 5ebc dfba 8c3d 4c3b c63b e997 7fbb
00000010: 4cf2 59bb 7937 9dbd 87d9 df3d efa5 67bd
00000020: b6c2 86bc 34fe f5bd 6829 88bc 339a af3d
00000030: 7ae0 853d fd05 a73d 0b52 bb3d 470e ae3d

branch_p.fc1.weight f4 [128, 34]
0.07080726 0.10201875 -0.13934739 0.10854513 0.14074956 -0.02922507 0.16512266 0.106291346
0.028034272 0.12474213 0.035093404 -0.058468945 -0.06290586 -0.033704225 -0.0034039845 0.042081714
0.028184079 -0.05066193 -0.10805095 0.060741242 0.15436064 -0.14354154 0.023394743 0.1368084
0.020700188 -0.1617136 -0.145527 0.116477154 0.110947445 0.056451257 0.122128606 0.017524133
0.017447816 0.018172825 -0.059045855 -0.05782562 0.11828512 -0.03584701 -0.13376077 -0.014349729
0.114028916 0.03805465 0.010852392 -0.028620388 0.05512564 -0.03369075 0.025151862 0.02754157
-0.1384206 0.14057253 -0.14253914 -0.103029825 0.0069271517 0.15379152 -0.033779677 -0.055149697
-0.08432258 -0.15938944 -0.09771772 0.05657047 -0.04717763 0.040350404 0.022567505 0.1323672
-0.10188022 -0.11049479 0.110201195 0.12105375 0.013318948 -0.09509031 -0.09522107 -0.04821012
0.067250416 0.13566822 0.1711929 0.08512864 0.065233774 0.01675271 0.020479461 0.105541356
0.0065253233 -0.026149014 -0.04102348 -0.069456585 -0.07039581 -0.08266855 -0.06548345 -0.091646664
0.08790247 0.06769335 -0.13849476 0.0173999 0.08066292 -0.040402643 -0.07769611 0.1210384
-0.06775203 -0.045458842 -0.1491163 0.024607988 -0.019664804 0.1490825 -0.0058174897 -0.14312102
-0.0862835 -0.03490592 0.14609177 -0.13958977 0.088355444 -0.105825976 0.091452815 -0.02874652
-0.12736654 -0.029602937 -0.15838125 -0.09879526 -0.06794998 -0.026532149 -0.1704299 0.07923906
-0.0754198 0.054787945 0.006053991 0.1120303 0.0128877275 -0.15748204 0.07784692 -0.04023448
-0.04927357 -0.11458142 -0.122476354 0.018479446 0.058735497 -0.020786518 0.0052261315 0.07106254
-0.046806358 -0.015851112 0.115763895 -0.0027181972 -0.025044492 -0.026552778 -0.031489648 -0.020176366
-0.10518101 0.083935335 0.008926856 0.0074332966 0.1251793 0.0754975 0.002333647 0.14406694
0.11114693 -0.021274392 0.11131393 0.13421921 0.10085267 -0.002766002 0.00745238 -0.06582523
-0.028237335 -0.14909558 -0.00701852 -0.14601077 -0.08087551 -0.1279306 0.121073745 0.13564117
0.14031354 -0.042480793 -0.026061377 -0.08896802 -0.16489555 -0.10785668 -0.16168776 -0.08458717
0.14702131 0.105499506 0.1701206 -0.027099729 0.1437701 -0.15027125 -0.040268935 -0.1697933
-0.0663602 -0.1249677 0.1601042 0.02559451 0.035155136 0.053897846 0.10162907 0.1467414
-0.06414831 -0.11558251 -0.16130641 -0.11661754 -0.056486487 0.02911315 -0.14826004 -0.10566284
0.02022322 -0.09030597 0.066338666 -0.022133177 -0.09006308 0.052354354 0.064929016 0.027772808
-0.10584696 0.15857789 -0.09041129 0.13277563 -0.06385073 0.08688284 0.056984786 0.052483235
-0.08875116 0.12931779 -0.10949888 0.043496553 -0.15603863 0.17161562 0.12729923 0.0012388162
-0.14838904 0.0026639844 -0.14573643 0.16361602 0.09114376 -0.07523895 -0.15212394 -0.13556476
0.04889639 0.048991375 -0.029066673 -0.05845964 0.15106986 0.1545856 0.15128282 0.05703006
0.07334782 0.0040165046 0.046594515 0.16767392 0.037776206 -0.06403326 -0.043591447 0.0108903535
-0.07619024 -0.023609964 0.08478791 0.034012403 0.12595747 -0.0203137 0.08310457 -0.0609917
00000000: 6603 913d 35ef d03d 15b1 0ebe e94c de3d
00000010: a720 103e 6a69 efbc ea15 293e 47af d93d
00000020: 21a8 e53c cd78 ff3d 1abe 0f3d 227d 6fbd
00000030: cad4 80bd 710d 0abd 6215 5fbb e05d 2c3d
00000040: 4ce2 e63c e282 4fbd d149 ddbd cfcb 783d
00000050: b710 1e3e 8efc 12be 55a6 bf3c 8017 0c3e
00000060: 7193 a93c 4098 25be 0805 15be 938b ee3d
00000070: 6a38 e33d 6f39 673d 901e fa3d c58e 8f3c
00000080: b9ee 8e3c 2ddf 943c 11da 71bd 8fda 6cbd
00000090: 783f f23d 50d4 12bd 95f8 08be 201b 6bbc
000000a0: fe87 e93d 31df 1b3d 3bce 313c 4e75 eabc
000000b0: 6ccb 613d 50ff 09bd 470b ce3c dc9e e13c
000000c0: 21be 0dbe 3ff2 0f3e c8f5 11be 4d01 d3bd
000000d0: 29fd e23b 867b 1d3e 8f5c 0abd a6e4 61bd
000000e0: 51b1 acbd fc36 23be 3a20 c8bd 70b6 673d
000000f0: 553d 41bd 7746 253d 7ddf b83c 448b 073e
00000100: 94a6 d0bd 184b e2bd 2ab1 e13d 07eb f73d
00000110: b837 5a3c b5be c2bd 4403 c3bd fa77 45bd
00000120: 96ba 893d 9cec 0a3e 314d 2f3e ed57 ae3d
00000130: 4999 853d fb3c 893c 8bc4 a73c 1126 d83d
00000140: 61d2 d53b 7536 d6bc 3d08 28bd 413f 8ebd
00000150: ae2b 90bd 214e a9bd 301c 86bd 3fb1 bbbd
00000160: 3606 b43d d0a2 8a3d 92d1 0dbe 3c8a 8e3c
00000170: 9a32 a53d 3e7d 25bd 231f 9fbd fbe2 f73d
00000180: 94c1 8abd 0d33 3abd f1b1 18be b196 c93c
00000190: 1518 a1bc 15a9 183e a4a0 bebb 518e 12be
000001a0: 67b5 b0bd 83f9 0ebd 1599 153e 9ff0 0ebe
000001b0: b3f3 b43d 4abb d8bd 9d4b bb3d d27d ebbc
000001c0: 606c 02be dc81 f2bc b22e 22be 2b55 cabd
000001d0: 5c29 8bbd f359 d9bc 2d85 2ebe 1748 a23d
000001e0: b275 9abd 5369 603d 8f60 c63b 2470 e53d
000001f0: 0c27 533c f942 21be 356e 9f3d e9cc 24bd
00000200: 15d3 49bd aaa9 eabd e2d4 fabd 3562 973c
00000210: a294 703d 7d48 aabc f83f ab3b 3d89 913d
00000220: 06b8 3fbd 31da 81bc 9f15 ed3d c823 32bb
00000230: 1b2a cdbc 3685 d9bc 4afb 00bd e848 a5bc
00000240: 2469 d7bd 4ae6 ab3d f341 123c 0393 f33b
00000250: 012f 003e 6f9e 9a3d 1af0 183b 4986 133e
00000260: 00a1 e33d a247 aebc 8ff8 e33d c370 093e
00000270: d88b ce3d d045 35bb 1833 f43b 61cf 86bd
00000280: fc51 e7bc 83ac 18be 9dfb e5bb d983 15be
00000290: 0fa2 a5bd 3d00 03be 83f5 f73d 85e5 0a3e
000002a0: 5aae 0f3e 5700 2ebd ab7e d5bc de34 b6bd
000002b0: 61da 28be f7e3 dcbd 7a91 25be 0a3c adbd
000002c0: c18c 163e 2010 d83d 1834 2e3e 4000 debc
000002d0: 7838 133e b5e0 19be 0af1 24bd 4bde 2dbe
000002e0: dbe7 87bd 11ef ffbd 5bf2 233e 94ab d13c
000002f0: d5fe 0f3d fdc3 5c3d e722 d03d 6143 163e
00000300: 3060 83bd 86b6 ecbd 822d 25be 2dd5 eebd
00000310: 605e 67bd b37e ee3c 7bd1 17be c265 d8bd
00000320: 2bab a53c 56f2 b8bd 91dc 873d a350 b5bc
00000330: fe72 b8bd 8571 563d 81f9 843d cd83 e33c
00000340: 4ac6 d8bd 3e62 223e 8e29 b9bd 56f6 073e
00000350: 2cc4 82bd a1ef b13d e168 693d a9f8 563d
00000360: 2bc3 b5bd e26b 043e f340 e0bd 7129 323d
00000370: 97c8 1fbe 01bc 2f3e bb5a 023e c65f a23a
00000380: 4cf3 17be 3e96 2e3b ee3b 15be f58a 273e
00000390: 94a9 ba3d e116 9abd 61c6 1bbe 7dd1 0abe
000003a0: 9547 483d 2eab 483d 3b1d eebc 6073 6fbd
000003b0: 0fb2 1a3e b04b 1e3e e2e9 1a3e 5a98 693d
000003c0: 6237 963d e29c 833b e4d9 3e3d b6b2 2b3e
000003d0: 39bb 1a3d df23 83bd f28c 32bd 746d 323c
000003e0: a109 9cbd af69 c1bc 49a5 ad3d 9750 0b3d
000003f0: fffa 003e eb68 a6bc bb32 aa3d 6fd2 79bd

branch_p.fc1.bias f4 [128]
-0.13250719 0.001562854 0.075574875 -0.09271438 -0.07797216 0.020494705 0.14507711 -0.035186503
0.009651695 -0.015749011 -0.057165124 0.050624784 -0.046396412 0.042444874 0.0061537144 0.0047749546
-0.04493449 -0.16452853 -0.02667927 -0.10434135 0.15983294 -0.083917916 0.13297206 -0.016023029
-0.01600036 -0.02394172 -0.16312204 0.12582274 -0.15606599 0.088347584 -0.016123664 0.15017967
-0.103989616 -0.08746801 -0.13709296 -0.040613323 -0.1428915 -0.039534364 0.037513763 0.1455645
0.051278453 -0.14827438 -0.03067901 0.027682332 0.01903648 -0.1689488 -0.034361273 -0.16020496
-0.054299038 0.11330373 0.00106845 0.13904203 0.025195267 0.10648978 -0.042343132 -0.11417848
-0.16048625 0.07261575 0.017949466 0.115281 -0.061111845 0.06610198 -0.14115226 0.02082333
0.13534746 0.059238236 -0.050273336 0.06596667 -0.062131047 0.047925327 -0.12997876 0.0021750492
-0.1552656 -0.050934855 -0.12396508 -0.004445159 0.08136125 0.063685924 0.05164206 0.08349954
-0.14621764 0.10965185 -0.005498264 -0.1383463 -0.14066063 0.046262424 -0.13940561 -0.100848146
-0.042673357 0.012710856 -0.0647075 0.114042036 0.01463071 -0.10186063 -0.072230615 -0.11619347
-0.106667 0.0006048921 -0.09802449 -0.10738084 0.15840504 0.061692115 -0.10006491 -0.08766271
-0.058829024 -0.1262771 -0.13181672 0.13820076 0.13442853 -0.16489711 -0.0024050486 0.008343956
0.086431265 0.10582804 -0.036664765 -0.090322234 -0.0514538 0.14667198 0.010885325 0.16057742
-0.07592648 -0.13259143 0.029684352 0.09419292 0.112067536 0.0054410743 0.14055367 -0.06331415
00000000: f7af 07be aed8 cc3a 00c7 9a3d 09e1 bdbd
00000010: deaf 9fbd 83e4 a73c 188f 143e b91f 10bd
00000020: 2522 1e3c 1204 81bc fa25 6abd ef5b 4f3d
00000030: 2a0a 3ebd adda 2d3d 19a5 c93b 3977 9c3b
00000040: 3a0d 38bd 2b7a 28be 7c8e dabc ebb0 d5bd
00000050: 3fab 233e 28dd abbd d429 083e ba42 83bc
00000060: 3013 83bc 6d21 c4bc 7709 27be add7 003e
00000070: c3cf 1fbe 94ef b43d c615 84bc b3c8 193e
00000080: 82f8 d4bd 6e22 b3bd 1962 0cbe 285a 26bd
00000090: 2652 12be c9ee 21bd 08a8 193d dc0e 153e
000000a0: 5b09 523d 3dd5 17be 8c52 fbbc 0fc6 e23c
000000b0: 64f2 9b3c ea00 2dbe 68be 0cbd c50c 24be
000000c0: ab68 5ebd c90b e83d 3c0b 8c3a 0961 0e3e
000000d0: 4e66 ce3c 5017 da3d fe6f 2dbd 68d6 e9bd
000000e0: 8256 24be 91b7 943d c20a 933c 7218 ec3d
000000f0: 6a50 7abd 7a60 873d 388a 10be b095 aa3c
00000100: 8698 0a3e cba3 723d 6aeb 4dbd 8919 873d
00000110: 207d 7ebd 594d 443d 2719 05be 458b 0e3b
00000120: f2fd 1ebe 11a1 50bd 67e1 fdbd b2a8 91bb
00000130: baa0 a63d c46d 823d a086 533d cf01 ab3d
00000140: 14ba 15be 2691 e03d c82a b4bb a7aa 0dbe
00000150: 5709 10be ab7d 3d3d 58c0 0ebe 7989 cebd
00000160: 42ca 2ebd 3241 503c 5e85 84bd df8e e93d
00000170: a5b5 6f3c 4e9c d0bd a5ed 93bd d8f6 edbd
00000180: 3a74 dabd 9f91 1e3a 10c1 c8bd 7cea dbbd
00000190: ee34 223e dfb0 7c3d d5ee ccbd 8288 b3bd
000001a0: b4f6 70bd c94e 01be f6fa 06be 8084 0d3e
000001b0: a2a7 093e cada 28be 059e 1dbb 17b5 083c
000001c0: e002 b13d 5fbc d83d cb2d 16bd ddfa b8bd
000001d0: 38c1 52bd 2e31 163e 5d58 323c 686e 243e
000001e0: 587f 9bbd 0cc6 07be 992c f33c 38e8 c03d
000001f0: aa83 e53d 0a4b b23b 4ded 0f3e d9aa 81bd

branch_p.fc2.weight f4 [16, 128]
-0.0817238 -0.010319869 0.08492933 0.038653858 0.07581214 -0.06850775 -0.044581573 -0.010239969
-0.019297069 0.03477925 0.029831067 0.002536391 -0.028597992 -0.04954402 -0.06348878 -0.022109708
-0.018497253 -0.07761367 -0.06160746 0.0093615595 -0.007932891 0.07766713 0.020688603 0.05411977
0.06756006 0.042194806 0.049418963 0.047560774 -0.005009091 -0.078836955 -0.042036906 0.0007883629
-0.016691495 0.041090112 -0.04064243 -0.044474658 -0.0825715 -0.0732229 0.050577253 -0.069291815
0.079784796 0.02734893 -0.012748422 0.0111266505 -0.05257751 -0.024969874 -0.05440142 0.05821231
-0.05094739 0.050511196 0.06402726 0.07428937 0.030177867 0.044571962 -0.058952767 0.039319076
0.08735722 -0.052749187 0.03776423 -0.020493897 0.06466027 0.053658772 -0.07369817 -0.029979259
0.084182344 -0.017742053 -0.024810335 -0.061516058 -0.08004698 0.030057687 0.056551438 -0.051984098
-0.038555454 -0.01826306 0.022026952 0.07378314 0.07600239 -0.064766966 -0.07672258 0.009338537
0.04210809 -0.014667682 0.011522741 -0.069490634 -0.0122556975 -0.08111755 0.05110393 0.0019360658
0.021985373 -0.08649354 0.08260326 -0.024392035 -0.05269375 -0.007049538 -0.05843444 -0.07572007
0.053991284 -0.06454437 0.0872597 -0.042782485 -0.033600513 -0.031169048 -0.022864925 0.06382645
-0.0025114622 -0.0022262214 0.06506838 0.06958086 -0.07555128 -0.0057865707 0.037126027 -0.0031090893
0.017089961 0.066351496 0.028811106 0.07409911 0.017514154 0.01002203 -0.024495674 0.048601992
0.04529559 -0.07461068 0.08407599 0.02440889 -0.016216801 -0.07153482 0.009736389 -0.033838674
-0.025685111 0.041361082 -0.080921635 -0.023235682 -0.06385682 0.047402818 0.024361962 -0.0048851385
0.0038777608 -0.008207633 -0.031955384 -0.033589877 0.027973212 0.032047465 0.057859454 -0.02342303
-0.063641466 -0.03467086 -0.040364295 0.08189804 0.0029985681 0.008720765 -0.04880163 0.01198504
0.07686456 0.017098675 -0.054302245 0.07387769 -0.0061311573 -0.049921904 -0.012455762 -0.083821915
0.06861871 0.004858137 0.051193252 -0.03727763 -0.03653904 0.041043337 -0.056568563 0.03395982
-0.039008945 0.08083075 0.078119315 0.044035636 -0.004910596 -0.0064183627 -0.035467565 -0.055572364
0.05310406 0.017993547 -0.057699107 0.07339184 -0.018835442 0.04650762 -0.0081096655 -0.0085145235
-0.08479332 -0.059214316 -0.07628109 0.013059215 0.01365012 -0.066854075 -0.01708257 -0.069009
0.0025191135 0.04830093 -0.036642116 0.040572543 -0.019052144 0.058996264 -0.0871889 -0.08046692
-0.03973948 0.058352888 -0.03347515 0.048616603 0.07088051 0.051489174 -0.0051784148 0.058143437
-0.016019063 -0.0010418246 0.044299997 -0.0016781442 0.034505885 0.0004319088 0.06086458 0.03049394
0.0552847 0.0027309498 -0.07363303 0.074867986 -0.07090391 -0.0036022947 0.026216805 -0.05603413
-0.03615979 -0.036432788 -0.041035946 0.08435864 -0.08125071 -0.044243705 -0.048950415 -0.02158593
-0.0077187223 -0.045723945 0.08850359 0.08629418 -0.011195881 0.068741046 0.026865365 -0.074140064
0.08757715 0.03273528 -0.08251346 -0.057166263 0.015437747 0.006264948 -0.06214069 0.015899822
0.045625634 0.009543556 -0.054613076 -0.0007216283 0.030272918 -0.03827113 0.07046947 0.04840725
00000000: cf5e a7bd ab14 29bc 6eef ad3d 8253 1e3d
00000010: 6543 9b3d cb4d 8cbd 2b9b 36bd 8bc5 27bc
00000020: e314 9ebc b074 0e3d 4860 f43c 9439 263b
00000030: 5646 eabc acee 4abd 6806 82bd 6b1f b5bc
00000040: 8d87 97bc eaf3 9ebd 1b58 7cbd 3a61 193c
00000050: f5f8 01bc f20f 9f3d 257b a93c b1ac 5d3d
00000060: ee5c 8a3d 76d4 2c3d 8a6b 4a3d 16cf 423d
00000070: 4d23 a4bb 4575 a1bd e42e 2cbd 23aa 4e3a
00000080: 9abc 88bc 1b4e 283d ad78 26bd 0f2b 36bd
00000090: 3f1b a9bd e3f5 95bd 182a 4f3d dee8 8dbd
000000a0: 3666 a33d dd0a e03c c2de 50bc 8e4c 363c
000000b0: 845b 57bd 9f8d ccbc 06d4 5ebd 0870 6e3d
000000c0: 36ae 50bd d4e4 4e3d b920 833d 0625 983d
000000d0: 9337 f73c 1791 363d 7578 71bd 0a0d 213d
000000e0: 58e8 b23d 880f 58bd aaae 1a3d d1e2 a7bc
000000f0: 9b6c 843d 4dc9 5b3d 11ef 96bd 1097 f5bc
00000100: cb67 ac3d c857 91bc 0b3f cbbc 43f8 7bbd
00000110: acef a3bd 8a3b f63c 7ba2 673d 47ed 54bd
00000120: 53ec 1dbd 6a9c 95bc de71 b43c 9d1b 973d
00000130: 24a7 9b3d 8ba4 84bd ba20 9dbd aa00 193c
00000140: 8879 2c3d b850 70bc e1c9 3c3c 1b51 8ebd
00000150: 1fcc 48bc f520 a6bd 5b52 513d 97c3 fd3a
00000160: ab1a b43c 8623 b1bd e62b a93d ced1 c7bc
00000170: 67d5 57bd d0ff e6bb f458 6fbd 2013 9bbd
00000180: f725 5d3d d72f 84bd 37b5 b23d b03c 2fbd
00000190: b1a0 09bd 3b56 ffbc 394f bbbc 71b7 823d
000001a0: 5897 24bb cce5 11bb 9242 853d 6980 8e3d
000001b0: a1ba 9abd 469d bdbb 7611 183d ddc1 4bbb
000001c0: 3f00 8c3c 4be3 873d 4505 ec3c 46c1 973d
000001d0: d879 8f3c 7133 243c 27ab c8bc e212 473d
000001e0: de87 393d 7ccd 98bd 0830 ac3d 27f5 c73c
000001f0: 19d9 84bc d980 92bd 6085 1f3c 6c9a 0abd
00000200: 9569 d2bc 3d6a 293d 3eba a5bd c258 bebc
00000210: 5dc7 82bd 7529 423d bd92 c73c 8313 a0bb
00000220: 0822 7e3b 4f79 06bc a6e3 02bd 8a95 09bd
00000230: 1428 e53c 3444 033d 09fe 6c3d a7e1 bfbc
00000240: 7556 82bd 0803 0ebd 0855 25bd 29ba a73d
00000250: a083 443b 8ae1 0e3c 38e4 47bd e75c 443c
00000260: 2b6b 9d3d 8512 8c3c 086c 5ebd 304d 973d
00000270: e0e7 c8bb e97a 4cbd 4113 4cbc d3aa abbd
00000280: f787 8c3d 0231 9f3b 04b0 513d 6eb0 18bd
00000290: f6a9 15bd 0f1d 283d 70b4 67bd 7419 0b3d
000002a0: d8c7 1fbd 988a a53d 05fd 9f3d b65e 343d
000002b0: 11e9 a0bb 2151 d2bb 7046 11bd d99f 63bd
000002c0: a583 593d 3467 933c e655 6cbd 764e 963d
000002d0: c94c 9abc c67e 3e3d 67de 04bc 8080 0bbc
000002e0: 1fa8 adbd b68a 72bd 4339 9cbd 51f6 553c
000002f0: c1a4 5f3c caea 88bd bff0 8bbc 9754 8dbd
00000300: b617 253b 32d7 453d 0b16 16bd 652f 263d
00000310: 3e13 9cbc 11a6 713d 1890 b2bd d7cb a4bd
00000320: ddc5 22bd 7003 6f3d 3d1d 09bd 3422 473d
00000330: cd29 913d 50e6 523d b1af a9bb d027 6e3d
00000340: 693a 83bc d58d 88ba ea73 353d 2df5 dbba
00000350: 0b56 0d3d d171 e239 234d 793d 6dce f93c
00000360: 3672 623d bcf9 323b eacc 96bd 6354 993d
00000370: 1236 91bd 7a14 6cbb a0c4 d63c 0b84 65bd
00000380: 4a1c 14bd 8c3a 15bd 4f15 28bd 39c4 ac3d
00000390: c666 a6bd e338 35bd 3b80 48bd fad4 b0bc
000003a0: 56ed fcbb 0849 3bbd 5f41 b53d 01bb b03d
000003b0: ee6e 37bc 1bc8 8c3d c114 dc3c bfd6 97bd
000003c0: a65b b33d 6e15 063d d1fc a8bd 2c27 6abd
000003d0: 9bee 7c3c 314a cd3b 3c87 7ebd 5840 823c
000003e0: f2e1 3a3d 935c 1c3c f6b1 5fbd a82b 3dba
000003f0: e9fe f73c 30c2 1cbd 4c52 903d ae46 463d

branch_p.fc2.bias f4 [16]
-0.069844596 0.014492822 0.04588134 0.0047315946 0.022572234 0.005497894 -0.057376556 -0.0042051612
0.0061902176 -0.08554719 -0.08209073 -0.03634471 0.06911507 0.00034895574 -0.040133145 -0.0060979994
00000000: af0a 8fbd 4d73 6d3c 12ee 3b3d 7e0b 9b3b
00000010: 68e9 b83c ad27 b43b ae03 6bbd 73cb 89bb
00000020: 4fd7 ca3b 5d33 afbd 2f1f a8bd 31de 14bd
00000030: 348c 8d3d 0cf4 b639 a762 24bd bad1 c7bb

branch_h.fc1.weight f4 [128, 34]
0.103846416 -0.021148877 0.084667936 0.024423989 -0.12746751 0.053840544 -0.0869631 -0.13619515
-0.08503496 0.11941347 0.04388664 -0.07804095 -0.13631621 0.08156095 -0.076959364 -0.11748688
-0.090213686 -0.05401165 -0.16456151 0.07200551 -0.08497393 -0.06770859 -0.12723106 -0.030287342
-0.16735084 0.103286944 -0.096049584 0.09047054 0.039214592 -0.08402685 0.108107224 0.034459714
0.08174176 0.064581186 0.018166369 0.1089583 -0.08926449 -0.032442294 0.15199804 -0.15287696
-0.037017986 0.012714978 0.10041222 0.08407349 0.03133427 -0.08088122 -0.14257474 0.11073551
-0.04957687 -0.016407954 0.14161909 0.0800985 -0.043694 -0.025231674 0.03316959 0.121465296
0.16310078 -0.005108828 0.06410217 0.16737236 0.0072479732 -0.052342065 -0.045572225 -0.0613725
0.021891654 -0.039724804 0.06840319 -0.052306496 0.16878629 0.006616625 0.15907921 0.0627243
-7.480396e-05 0.11603364 -0.16394824 0.075554356 0.13533333 -0.105331436 0.022141447 0.09325496
-0.04955732 0.047882095 0.008754439 0.097772226 0.031572275 -0.04678791 -0.01762825 -0.1150004
-0.115253165 0.015298459 0.10846687 0.1400935 0.022603352 0.008470718 -0.07386977 0.011617444
0.015596843 -0.03186829 0.054542225 0.017050968 0.012858734 0.014289864 0.09580343 -0.023673128
0.02597458 -0.034293666 0.12971717 -0.14027497 0.11784503 -0.15817595 -0.09991161 0.011788291
0.102346815 -0.14590679 -0.10857107 -0.16477661 0.03266635 -0.061469235 -0.03979677 0.08685304
-0.14849381 -0.06824881 0.04283444 -0.07246501 0.09366907 0.033867616 -0.03692824 -0.06196803
-0.064025685 -0.057948645 -0.008026017 -0.07923969 -0.036678184 -0.034020513 -0.07297672 -0.029089525
0.047196828 0.026150245 -0.011378667 0.15264092 -0.10384658 -0.0328985 -0.0918452 -0.12576333
0.0033586586 -0.1468118 0.011161357 0.15381673 -0.08404903 -0.12909663 -0.02876562 -0.050660282
0.0696177 -0.11616018 0.0015826558 0.12786983 -0.16985056 0.11920703 -0.083083436 0.017888127
-0.12945044 -0.07174731 -0.015179068 -0.13299084 -0.059194237 0.12690504 0.15594856 -0.12690294
-0.06470988 0.10716778 -0.09278183 0.03524535 -0.095848225 -0.030043898 -0.12596792 0.11482504
-0.14922611 0.16602145 -0.034689575 0.16168329 -0.11106183 -0.11146766 0.050409842 0.09370992
0.15603481 0.11419786 0.04061942 0.15914646 -0.038882446 -0.040624253 -0.0941491 -0.028997587
0.037831943 0.017851528 -0.0576022 -0.0273557 -0.09433663 -0.061637603 0.06671432 0.07801686
-0.07890525 -0.066378854 -0.15146764 -0.10585624 0.102692276 -0.13983624 0.096097596 0.024318414
-0.021388566 -0.15781789 -0.017720953 0.00805397 0.008853109 0.1611973 -0.06716437 0.14596412
-0.11575455 -0.120388344 0.13239115 0.170475 0.012458259 -0.005251132 0.01563146 0.023135802
-0.10384178 0.09572815 -0.014362465 -0.12790501 -0.11537635 0.11873908 -0.008609406 -0.120038
0.07645977 0.015895909 0.07281064 0.028947802 -0.0173962 -0.16040686 -0.11990437 0.05676873
0.023117177 -0.124131836 0.13214889 -0.03679236 0.084256835 -0.09782683 0.11310747 -0.108020045
0.13553646 -0.12828636 0.14379603 0.051605437 0.122467756 -0.0043581626 -0.13900377 -0.046644982
00000000: 6ead d43d 6940 adbc 6266 ad3d d114 c83c
00000010: d886 02be e787 5c3d b619 b2bd be76 0bbe
00000020: cf26 aebd 0d8f f43d 7ac2 333d efd3 9fbd
00000030: 7a96 0bbe 6d09 a73d df9c 9dbd f69c f0bd
00000040: f4c1 b8bd 523b 5dbd d082 28be a077 933d
00000050: d006 aebd cdaa 8abd dc48 02be 291d f8bc
00000060: 055e 2bbe 1b88 d33d a5b5 c4bd 9e48 b93d
00000070: 7b9f 203d 4516 acbd 5267 dd3d a125 0d3d
00000080: 3968 a73d 2443 843d a3d1 943c 8725 df3d
00000090: 4dd0 b6bd 36e2 04bd 60a5 1b3e c78b 1cbe
000000a0: 2ca0 17bd 7c52 503c eca4 cd3d b92e ac3d
000000b0: 5d58 003d 0ea5 a5bd 1dff 11be 4dc9 e23d
000000c0: 1e11 4bbd f969 86bc 9804 113e af0a a43d
000000d0: 7bf8 32bd a8b2 cebc d6dc 073d ccc2 f83d
000000e0: e403 273e f567 a7bb 0048 833d a963 2b3e
000000f0: 6880 ed3b a264 56bd f1a9 3abd bb61 7bbd
00000100: 2056 b33c 7ab6 22bd f916 8c3d 563f 56bd
00000110: 50d6 2c3e 46d0 d83b a9e5 223e 9975 803d
00000120: 12e0 9cb8 0ca3 ed3d 0ce2 27be 3ebc 9a3d
00000130: d294 0a3e 02b8 d7bd fb61 b53c 75fc be3d
00000140: 9efc 4abd 0420 443d c76e 0f3c ce3c c83d
00000150: ee51 013d aea4 3fbd 1f69 90bc 5485 ebbd
00000160: da09 ecbd 63a6 7a3c e123 de3d ac74 0f3e
00000170: aa2a b93c c4c8 0a3c 0949 97bd 1857 3e3c
00000180: e789 7f3c 5388 02bd ab67 5f3d 79ae 8b3c
00000190: 70ad 523c 0920 6a3c 9734 c43d 26ee c1bc
000001a0: a4c8 d43c 8477 0cbd 94d4 043e 3ea4 0fbe
000001b0: bc58 f13d e0f8 21be 759e ccbd ad23 413c
000001c0: 359b d13d 9768 15be 825a debd 33bb 28be
000001d0: 27cd 053d 2ac7 7bbd f001 23bd 02e0 b13d
000001e0: c30e 18be 08c6 8bbd 2a73 2f3d 8968 94bd
000001f0: 92d5 bf3d c5b8 0a3d 1142 17bd 30d2 7dbd
00000200: e61f 83bd 8f5b 6dbd 8e7f 03bc 6b48 a2bd
00000210: dd3b 16bd 1859 0bbd d274 95bd 284d eebc
00000220: 7651 413d 0a39 d63c 976d 3abc e74d 1c3e
00000230: 84ad d4bd 94c0 06bd 5619 bcbd 1ac8 00be
00000240: f11c 5c3b d555 16be 20de 363c 2282 1d3e
00000250: e621 acbd e831 04be e1a5 ebbc 2881 4fbd
00000260: ba93 8e3d 63e5 edbd 1e71 cf3a 4ff0 023e
00000270: 4eed 2dbe d122 f43d a627 aabd 1f8a 923c
00000280: a88e 04be 41f0 92bd a0b1 78bc c02e 08be
00000290: a875 72bd 65f3 013e fbb0 1f3e d8f2 01be
000002a0: 9d86 84bd c87a db3d 6604 bebd 6e5d 103d
000002b0: 134c c4bd 9f1e f6bc bcfd 00be 6429 eb3d
000002c0: bbce 18be 8701 2a3e a816 0ebd 4e90 253e
000002d0: 6274 e3bd 2849 e4bd 8d7a 4e3d fdea bf3d
000002e0: 97c7 1f3e 91e0 e93d 8d60 263d 4af7 223e
000002f0: 3343 1fbd 9e65 26bd 3ed1 c0bd 598c edbc
00000300: abf5 1a3d 5e3d 923c 49f0 6bbd 1019 e0bc
00000310: 9033 c1bd b677 7cbd 84a1 883d 4ec7 9f3d
00000320: 1399 a1bd a3f1 87bd 551a 1bbe 28cb d8bd
00000330: 5450 d23d 3b31 0fbe d1ce c43d 6937 c73c
00000340: 1337 afbc 039b 21be 882b 91bc ccf4 033c
00000350: a10c 113c e810 253e 798d 89bd 9e77 153e
00000360: b910 edbd 2a8e f6bd 8c91 073e 0091 2e3e
00000370: ba1d 4c3c b011 acbb 8c0d 803c 4b87 bd3c
00000380: 00ab d4bd 1f0d c43d 8b50 6bbc 88f9 02be
00000390: 704a ecbd 7a2d f33d 770e 0dbc 7cd6 f5bd
000003a0: f196 9c3d 2338 823c bf1d 953d f123 ed3c
000003b0: 7a82 8ebc b241 24be 6c90 f5bd 5486 683d
000003c0: 3c60 bd3c d538 febd 0a52 073e 96b3 16bd
000003d0: d98e ac3d 6f59 c8bd e4a4 e73d 9d39 ddbd
000003e0: 12ca 0a3e 805d 03be 443f 133e 3960 533d
000003f0: 60d0 fa3d ebce 8ebb 0157 0ebe cf0e 3fbd

branch_h.fc1.bias f4 [128]
-0.096991986 0.06443918 0.15776022 -0.103719175 -0.118931256 0.14472744 -0.06509714 0.121862665
0.01210438 0.02173655 0.039466925 -0.011322127 0.038217597 0.0909002 -0.10125064 -0.00088382466
0.022816762 -0.004960443 -0.084586605 -0.040937882 0.10450196 -0.10755255 -0.00023518434 -0.15429701
-0.115188524 0.10180517 -0.03935753 -0.08001699 -0.094569996 0.004475395 0.047589637 0.002256226
-0.09602788 -0.14970212 0.13287412 -0.13007824 0.07724957 -0.0061561614 -0.054193508 -0.08943517
-0.017955568 -0.1298848 0.103609934 0.15395278 0.056372173 -0.085592136 -0.13444458 -0.078640014
0.042132456 0.08472402 0.03250351 0.13200943 0.019118598 0.10252083 0.11716366 0.002489026
0.15754294 0.08335011 -0.07651005 -0.08349745 0.1000102 0.03023898 -0.046076898 0.0960693
-0.020201905 -0.1499378 -0.07451371 0.058141813 -0.069367185 0.12007536 0.15224133 -0.12450564
0.12602474 0.10111982 0.060262557 -0.1206233 0.09553228 -0.064585336 0.0012550332 0.031096982
0.13751286 -0.10118918 0.007341577 -0.018517546 0.07078574 0.069572814 0.0043995404 0.03723759
-0.16730453 -0.056403726 -0.074534565 0.06861509 0.05662559 0.042983685 -0.08550653 0.1228735
-0.1075084 -0.11801505 -0.02232428 -0.09040372 -0.0109608155 0.15555975 -0.115212016 -0.00877215
0.1036975 -0.031452995 -0.015458261 0.04111898 -0.09922026 0.121667765 0.038184125 -0.032591656
-0.035567712 0.09171814 0.085461125 0.033126228 0.03196115 0.10677488 -0.06649918 -0.11136966
0.15170948 0.08861316 -0.067417026 0.12559794 0.017834729 -0.082540035 0.08826397 -0.04970286
00000000: bca3 c6bd b0f8 833d e58b 213e b86a d4bd
00000010: 3b92 f3bd 6e33 143e a651 85bd 2293 f93d
00000020: 7351 463c d910 b23c 12a8 213d 7180 39bc
00000030: 0e8a 1c3d e229 ba3d 7f5c cfbd 78b0 67ba
00000040: 38ea ba3c 368b a2bb be3b adbd 7bae 27bd
00000050: 2005 d63d 8344 dcbd d19b 76b9 0900 1ebe
00000060: f6e7 ebbd 3b7f d03d 5d35 21bd f3df a3bd
00000070: eaad c1bd 56a6 923b 5aed 423d 31dd 133b
00000080: 44aa c4bd 834b 19be 2710 083e 3b33 05be
00000090: 0635 9e3d a0b9 c9bb 03fa 5dbd c929 b7bd
000000a0: 8e17 93bc 8500 05be 7231 d43d cca5 1d3e
000000b0: 82e6 663d ee4a afbd d7ab 09be 040e a1bd
000000c0: 1593 2c3d c983 ad3d 6722 053d 7b2d 073e
000000d0: 9b9e 9c3c 71f6 d13d 80f3 ef3d ed1e 233b
000000e0: f052 213e 76b3 aa3d 4db1 9cbd b600 abbd
000000f0: 26d2 cc3d bdb7 f73c 21bb 3cbd fbbf c43d
00000100: 777e a5bc 4b89 19be a59a 98bd 1c26 6e3d
00000110: 6210 8ebd 12ea f53d 27e5 1b3e d0fc febd
00000120: a10c 013e e817 cf3d dfd5 763d 5909 f7bd
00000130: 6ea6 c33d 5145 84bd ed7f a43a 19bf fe3c
00000140: 2cd0 0c3e 463c cfbd 9d91 f03b 1cb2 97bc
00000150: 1df8 903d 317c 8e3d 052a 903b 7186 183d
00000160: e151 2bbe 9807 67bd 94a5 98bd 1186 8c3d
00000170: 3cf0 673d a90f 303d 0c1e afbd 1aa5 fb3d
00000180: 5d2d dcbd e0b1 f1bd 69e1 b6bc 9625 b9bd
00000190: fe94 33bc 0e4b 1f3e 47f4 ebbd 10b9 0fbc
000001a0: 5b5f d43d dbd4 00bd a544 7dbc 606c 283d
000001b0: fe33 cbbd f32c f93d f566 1c3d d47e 05bd
000001c0: 73af 11bd b8d6 bb3d 3e06 af3d 5eaf 073d
000001d0: b2e9 023d caac da3d b930 88bd c715 e4bd
000001e0: bb59 1b3e d17a b53d f011 8abd bf9c 003e
000001f0: 231a 923c c00a a9bd bec3 b43d 3a95 4bbd

branch_h.fc2.weight f4 [16, 128]
-0.03474232 -0.007343933 0.039519988 0.08389633 0.03856886 0.0539302 0.034359373 0.07474952
-0.04850138 0.013880588 0.043748803 0.085459284 0.0421172 -0.028333146 0.045755364 -0.053827584
0.0006323606 -0.05708216 -0.081136346 0.019099027 0.053057246 -0.04032884 0.050897665 0.041832514
-0.03491884 -0.045869585 0.085846685 0.026211157 -0.053302538 0.023133576 0.037575625 -0.029004417
0.03340011 -0.025123008 -0.017862424 0.066970624 0.007711053 0.07004259 0.03608609 -0.019676417
0.034214012 -0.062331066 -0.01539053 0.05674597 -0.0026803613 0.07239995 -0.019373171 0.056384213
0.0005895719 0.032728195 -0.063609846 0.016047694 0.07206469 -0.0132195875 0.027751468 -0.07589365
0.0433126 0.06292736 0.069662385 -0.08131016 0.07855434 -0.00048509985 0.012920991 0.08449573
-0.05344958 0.040956803 -0.017161734 -0.053589337 -0.081320815 -0.02841711 -0.08414949 -0.05686908
0.010291189 0.04074604 -0.032211225 0.08388335 -0.05603399 -0.08211407 -0.06344644 0.06207656
0.040076576 -0.005330384 -0.073591344 -0.085646085 -0.07895497 0.010774016 -0.0685175 -0.0021115392
-0.010934219 0.012228265 0.03956593 0.005829446 0.02020713 0.000114783645 0.08243539 0.06080457
-0.08648156 -0.03544824 -0.03945221 -0.0025043264 0.02629511 -0.07886219 -0.03886643 -0.028132472
-0.057248145 -0.078594156 -0.049699385 -0.042601496 -0.032835525 0.06820343 0.019580528 -0.053337373
-0.0048590973 0.031150654 0.06528843 -0.017508306 0.011462085 0.026660413 0.056244157 0.04806506
0.0788882 -0.056141075 0.022296578 0.019940346 -0.0476462 0.019961886 0.021532394 0.083412446
0.07754332 0.056893982 -0.02005776 -0.041171115 0.08468702 -0.019341102 0.012336238 0.072230786
-0.0012399249 -0.06188988 -0.060251143 -0.03980748 0.029896056 -0.050695583 -0.013064994 -0.03295191
-0.064668216 -0.07312343 0.034683384 -0.0023203266 0.060227998 -0.077747874 0.07294401 0.019382294
0.040000435 -0.06675612 -0.084780954 -0.01750176 0.06778704 -0.0062224674 -0.027475312 -0.070741855
0.05841002 -0.028569302 -0.042323638 0.07800514 0.0073879063 -0.033837084 0.053504687 0.04921796
0.073955745 -0.0072742286 0.045280874 0.049615204 0.004791766 0.069766186 0.030951131 -0.0031157788
0.023266705 -0.056421004 0.040221013 0.043386236 -0.011068611 0.081011795 0.05115369 0.010078304
-0.014127035 -0.04515626 0.039016265 0.0366595 0.0489865 0.06803983 -0.0352803 0.048527732
-0.03888707 0.07246033 -0.07618344 0.06981286 0.0016546076 -0.015518443 0.0659142 -0.038861345
0.013343709 0.02249049 -0.0059235636 -0.08425648 -0.00090901 0.03857951 -0.01359116 0.056342185
-0.07566591 -0.030052423 0.050628044 -0.0840936 0.024986321 -0.0150190545 0.073667035 -0.06692785
-0.028560882 0.002024641 0.043610536 -0.04602635 -0.009479122 -0.0831481 0.025347602 0.00904612
0.032547437 -0.019569019 -0.036641072 0.023404153 0.01323584 -0.020699132 0.08619804 0.072923526
0.029170312 0.045079835 0.019811707 -0.04393805 -0.0072939764 0.018005995 -0.05197207 0.012729637
0.006666584 -0.06655255 0.046059947 0.07022637 -0.05214725 -0.0829453 0.067914635 -0.056970198
-0.008977379 -0.062394507 -0.071585804 0.08648827 0.051051203 -0.076866426 0.073136985 0.046759818
00000000: f74d 0ebd 60a5 f0bb b6df 213d d7d1 ab3d
00000010: 62fa 1d3d eae5 5c3d 6abc 0c3d 4716 993d
00000020: 62a9 46bd 686b 633c f231 333d 4705 af3d
00000030: 1683 2c3d ea1a e8bc fa69 3b3d 507a 5cbd
00000040: 00c5 253a fcce 69bd d02a a6bd 9075 9c3c
00000050: 8e52 593d db2f 25bd 127a 503d 9258 2b3d
00000060: 0f07 0fbd bfe1 3bbd 63d0 af3d c8b8 d63c
00000070: c353 5abd a082 bd3c e6e8 193d ac9a edbc
00000080: 8ece 083d c4ce cdbc 3854 92bc e527 893d
00000090: 00ad fc3b 7d72 8f3d 02cf 133d 7030 a1bc
000000a0: fe23 0c3d dc4e 7fbd 9028 7cbc 766e 683d
000000b0: 00a9 2fbb 6d46 943d 7cb4 9ebc 22f3 663d
000000c0: 808d 1a3a 000e 063d e145 82bd 7476 833c
000000d0: a796 933d f896 58bc 0c57 e33c 216e 9bbd
000000e0: 8e68 313d 0fe0 803d 27ab 8e3d f185 a6bd
000000f0: 19e1 a03d 0055 feb9 90b2 533c 190c ad3d
00000100: f2ed 5abd 52c2 273d c496 8cbc 7e80 5bbd
00000110: 878b a6bd 00cb e8bc 9156 acbd 8def 68bd
00000120: 609c 283c 52e5 263d ebef 03bd 09cb ab3d
00000130: e683 65bd 6c2b a8bd 35f0 81bd fe43 7e3d
00000140: 5627 243d 80aa aebb 0fb7 96bd 3767 afbd
00000150: 25b3 a1bd 8085 303c e752 8cbd c061 0abb
00000160: 7025 33bc 1059 483c e20f 223d f004 bf3b
00000170: 6c89 a53c 00b8 f038 e3d3 a83d 360e 793d
00000180: 3e1d b1bd 2c32 11bd a498 21bd a01f 24bb
00000190: d868 d73c 8082 a1bd 6832 1fbd 1276 e6bc
000001a0: 087d 6abd f9f5 a0bd 9591 4bbd e87e 2ebd
000001b0: 8b7e 06bd 3dae 8b3d 5867 a03c 4a78 5abd
000001c0: 1039 9fbb a82f ff3c f1b5 853d 946d 8fbc
000001d0: 78cb 3b3c f066 da3c 4660 663d dedf 443d
000001e0: 2390 a13d 2ff4 65bd 50a7 b63c f059 a33c
000001f0: a928 43bd 1c87 a33c b464 b03c 25d4 aa3d
00000200: 08cf 9e3d aa09 693d 2c50 a4bc 0ba3 28bd
00000210: 6370 ad3d 3b71 9ebc ef1d 4a3c bced 933d
00000220: fa84 a2ba 3e80 7dbd e7c9 76bd 2b0d 23bd
00000230: 93e8 f43c 2ca6 4fbd 8e0e 56bc 95f8 06bd
00000240: c570 84bd bdc1 95bd 2a10 0e3d 9f10 18bb
00000250: a2b1 763d 473a 9fbd ab63 953d 9ec7 9e3c
00000260: 7fd7 233d 6fb7 88bd a3a1 adbd da5f 8fbc
00000270: eed3 8a3d d7e5 cbbb e813 e1bc 1be1 90bd
00000280: 583f 6f3d 2b0a eabc 8d5b 2dbd 29c1 9f3d
00000290: 4016 f23b c198 0abd bb27 5b3d c698 493d
000002a0: 1c76 973d a75c eebb 7078 393d 5039 4b3d
000002b0: 3f04 9d3b 93e1 8e3d 3a8d fd3c 1832 4cbb
000002c0: d199 be3c b619 67bd cabe 243d c4b5 313d
000002d0: 1f59 35bc 83e9 a53d 8886 513d 791f 253c
000002e0: 1475 67bc c5f5 38bd 85cf 1f3d 4628 163d
000002f0: 11a6 483d 7758 8b3d 1382 10bd 04c5 463d
00000300: 0c48 1fbd 1566 943d 1006 9cbd 0bfa 8e3d
00000310: 6bdf d83a 1141 7ebc 06fe 863d 132d 1fbd
00000320: 929f 5a3c fa3d b83c 741a c2bb a98e acbd
00000330: a14a 6eba 8c05 1e3d 75ad 5ebc 10c7 663d
00000340: bbf6 9abd 8030 f6bc 5a5f 4f3d 4439 acbd
00000350: 1db0 cc3c 7b12 76bc bede 963d 7811 89bd
00000360: 83f8 e9bc d7af 043b f6a0 323d 2086 3cbd
00000370: 524e 1bbc 8d49 aabd c6a5 cf3c 2d36 143c
00000380: 7650 053d 354f a0bc f314 16bd 11ba bf3c
00000390: 23db 583c 3a91 a9bc 9988 b03d ee58 953d
000003a0: 94f6 ee3c a2a5 383d 294c a23c 62f8 33bd
000003b0: 4f02 efbb 4f81 933c aae0 54bd f88f 503c
000003c0: 5c73 da3b b44c 88bd 5ba9 3c3d d8d2 8f3d
000003d0: 5b98 55bd 3adf a9bd d416 8b3d 9559 69bd
000003e0: db15 13bc 6291 7fbd 949b 92bd c320 b13d
000003f0: 111b 513d 256c 9dbd d8c8 953d 3987 3f3d

branch_h.fc2.bias f4 [16]
-0.04559997 0.013300737 0.05839335 -0.06629584 0.05974341 -0.03800462 0.05755595 0.02379053
-0.026875034 -0.044171643 -0.069200255 0.05352079 -0.0710578 0.047551945 0.005681626 0.08296938
00000000: 09c7 3abd 56eb 593c de2d 6f3d 1dc6 87bd
00000010: 82b5 743d bbaa 1bbd cabf 6b3d 5ce4 c23c
00000020: 0829 dcbc 53ed 34bd ddb8 8dbd 9e38 5b3d
00000030: c086 91bd d4c5 423d ef2c ba3b daeb a93d
