d2calcbot/main/calc_bot/dota_model.pth (torch, 420770 bytes, 21 tensors)

branch_t.fc1.weight f4 [128, 35]
00000000: 946f fc3d 0665 08be cb60 243c 4e4d 9c3d
00000010: dbf7 ac3d 044e 17be 9da8 c33c 4d0d 6c3d
00000020: 2369 f23d 2c26 8a3d ff39 143a e6ac cebd
00000030: 7357 fc3d c8b9 043e 05d7 21bd 2075 62bd
00000040: 7a58 0ebd 4475 cebd 94f6 f6bd f9fe dfbd
00000050: ba41 2abe 9fb5 12be 57e9 113c 0a88 183e
00000060: d998 1a3e f66a c23d 70d3 cf3d 0cef 0b3b
00000070: e9e2 293e 75c8 09be 3251 2a3e fcd7 683d
00000080: 7d53 babd c754 23be 99e8 d5bd a01b 17bd
00000090: 963c 11be 7d21 3dbd c5b7 a0bd 89da 04be
000000a0: a4fc 123d dfaa 1dbc 704f 063e 9141 9e3c
000000b0: 12b5 033e d137 d93c f5aa 273e 78f0 24be
000000c0: 1790 103e 77d7 003e 0e87 a6bb f90b 2d3c
000000d0: 6d34 cfbd 828d 0f3e aea1 3e3c 430b f43d
000000e0: 0b54 4b3c fc8d bbbc 79d7 d3bd 6f20 263e
000000f0: 0469 be3a 3657 ddbd 6486 8fbd 4757 6fbd
00000100: 6806 65bd de1a 13be a25c 56bd 123d d93d
00000110: 1b93 a7bd 3eeb 2c3e ddcc 19be 7bc1 47bc
00000120: 9d0b 07bd 04c9 3d3d b21a 373d 149f 593d
00000130: 1c57 f93c 8af5 ee3d 090f cbbd af40 113e
00000140: 7885 17bc 60a9 f2bd bbe4 fc3d 66c4 35bd
00000150: 0c9f fc3d a920 e53d fbb4 e3bd d1c5 c23a
00000160: 9031 a13d 4520 27bd e626 67bd 6c44 433d
00000170: 4224 28be 2792 afbd 5038 9c3c 5768 03be
00000180: fd80 dd3d b4de b8bd 3a35 833d bbad a03d
00000190: 045f 903d d8c9 12bb e0f4 f3bd 58e6 cfbd
000001a0: f869 31bd 97ef c63d 23de 90bd 83d5 bc3c
000001b0: cc2f bb3c 777d edbd f308 1d3d 6b23 cabd
000001c0: e541 83bd b347 25bd 6f9a b43c bb97 23be
000001d0: 166f 8abc d732 fd3d dbd2 c43c d514 173e
000001e0: 1900 e83d 662f a83c 6c65 513b 65cc 13be
000001f0: 1458 163e 5fc3 4b3d ee66 9ebc c820 133e
00000200: f612 4fbd 4043 bfbd dedc 24be 9cb0 f33d
00000210: 79b7 c43d bf74 75bd e8f1 85bc a0f4 353c
00000220: 76f7 bebd ee40 2ebd bce2 b6bc 94e8 babd
00000230: 2e58 dfbd 8e8b 0f3e f75a 86bd 67c6 14be
00000240: a1f9 8d3d 40ae aa3d fb73 5bbd 07ab abbd
00000250: fefc e6bc 0921 2c3c dc21 08bd db51 e6bd
00000260: 8af7 0a3e 10c8 17be 0446 b9bd 4df8 d5bd
00000270: 6e22 293d 6931 3e3d 7dcd 24be 3842 d8bd
00000280: 2135 7fbc 8f81 e53d d50c 14be c399 f0bc
00000290: ec6f a13d 433a 813d 33d4 f4bd dfff 14be
000002a0: 040b 0a3e 8334 2d3b 7a1b 2a3e 93f9 ccbc
000002b0: 52f2 bf3d 8391 153e 518e 163e eb18 89bd
000002c0: b284 4ebd b3f8 233e 1b40 d53d 453d bbbb
000002d0: d399 17be ebca 093d acaf fc3d e1e4 ffbd
000002e0: 5766 cf3d 3475 0f3e a46c 853d 462b 76bd
000002f0: 805b 5a3d cf9c 1bbe 223c ac3d e332 d3bc
00000300: acf8 013e 076c febd 70b7 823d e71f 80bd
00000310: f3a0 a7bc aa70 df3d 3601 0bbc 5b7f 4fbd
00000320: 1863 1e3d 1edf c1bd 2e49 d0bd 1874 923d
00000330: 9b6d fa3d ced1 21be 0886 92bc feec 123c
00000340: 9f5d 2abe 25d8 e4bd 0268 d9bd 50c9 c43c
00000350: 827a 11be 04c0 ccbc dae2 0e3e f63d f2bd
00000360: 0efb f1bd 2394 233e 06d5 b1bd d689 b13d
00000370: 7c5a a0bd 46b1 c73d ddf9 0ebe 1177 2dbc
00000380: 545f 9abd dafc be3d 0e39 1c3e b839 873c
00000390: 2fdc ef3d 3b9c 19be acb8 2cbd 2279 50bd
000003a0: 57ce 0e3e 30aa d3bd f125 1abe 4cbf 0a3c
000003b0: be0f c33d b181 993d 7fed b1bc 397d e13d
000003c0: 855b 843d 929a 083e fc64 ad3d 2cfe 7dbc
000003d0: 5306 dc3b 5df0 733d 41d1 57bb 5481 9f3d
000003e0: 296c 103c 2519 a7bd 3fe0 47bd 325b 0fbe
000003f0: f252 183e 34dd cfbd 3065 a23d 348e 1dbe
0.12325969 -0.13319787 0.010032843 0.07631932 0.08445712 -0.14775854 0.023884112 0.057629872
0.118364595 0.06745562 0.0005654394 -0.100915715 0.12321367 0.12961495 -0.0395117 -0.05528748
-0.034752347 -0.100809604 -0.1205875 -0.10937304 -0.16626635 -0.14327095 0.00890573 0.14895645
0.15097369 0.094930574 0.101477504 0.00213522 0.16590466 -0.13455375 0.16632536 0.056846604
-0.090979554 -0.15950309 -0.10444755 -0.03689158 -0.14183268 -0.046174515 -0.07847551 -0.1297399
0.035885468 -0.009623258 0.1311624 0.019318374 0.12862042 0.026515873 0.16373809 -0.16107357
0.14117466 0.12582193 -0.0050820177 0.010561937 -0.10117421 0.14018825 0.011635227 0.119162105
0.012410174 -0.022894852 -0.103438325 0.1622331 0.0014527147 -0.1080765 -0.07008055 -0.058432844
-0.055914313 -0.14365718 -0.052334435 0.10607351 -0.08182355 0.16886613 -0.15019555 -0.012192125
-0.03297006 0.04633428 0.044703193 0.053130224 0.030437045 0.116679266 -0.09914977 0.14184831
-0.00924813 -0.11848712 0.123483144 -0.044376753 0.12335023 0.1118787 -0.11118504 0.0014859979
0.078707814 -0.04080226 -0.05643358 0.047672674 -0.16420081 -0.08572798 0.01906982 -0.12832771
0.10815618 -0.09026852 0.064066365 0.078456365 0.07049373 -0.002239814 -0.119119406 -0.101513565
-0.04331395 0.09713667 -0.07073619 0.02305103 0.02284994 -0.11596196 0.038338613 -0.09870037
-0.06409053 -0.04035158 0.022046296 -0.1597585 -0.016898673 0.123632126 0.024026325 0.1475404
0.113281436 0.020530414 0.0031951321 -0.14433439 0.14682037 0.049746867 -0.01933619 0.14367974
-0.050555192 -0.09338999 -0.16099879 0.1189892 0.09605307 -0.05992579 -0.016350701 0.011105686
-0.09324543 -0.04254239 -0.022324912 -0.09126392 -0.10905491 0.1401808 -0.06560319 -0.1452881
0.069323786 0.08334017 -0.053577404 -0.0838223 -0.028196808 0.010505923 -0.033235416 -0.112460814
0.13570991 -0.14822412 -0.090465575 -0.1044775 0.0412926 0.04643384 -0.16094013 -0.10559505
-0.015576632 0.11206352 -0.1445802 -0.029370194 0.078826755 0.06309941 -0.11954536 -0.14550732
0.13480765 0.0026429005 0.16612044 -0.02502135 0.09372391 0.1460629 0.14702727 -0.06694206
-0.050419517 0.1601284 0.10412618 -0.005714091 -0.14804773 0.033640783 0.12338194 -0.12494827
0.10126942 0.14009553 0.06514862 -0.060099863 0.053309917 -0.15196536 0.08409907 -0.0257811
0.12692517 -0.12422948 0.06382644 -0.06256085 -0.020462489 0.10910161 -0.008484175 -0.050658565
0.038668722 -0.09466384 -0.10170208 0.071510494 0.12227937 -0.1580269 -0.017886177 0.008967636
-0.16637276 -0.11174039 -0.10615541 0.024021775 -0.1420689 -0.024993904 0.13953725 -0.11828224
-0.11815463 0.15974478 -0.08683209 0.08668868 -0.078297585 0.09750609 -0.13962503 -0.01058747
-0.07537714 0.09325571 0.1525614 0.016507015 0.117119186 -0.15001003 -0.042168304 -0.05089677
0.139459 -0.10335195 -0.15053536 0.00846846 0.09524487 0.0749544 -0.021719692 0.110102125
0.064627685 0.13340214 0.08466527 -0.015502494 0.006714621 0.0595554 -0.0032931122 0.07788339
0.00881485 -0.08159093 -0.048797842 -0.13999632 0.14875391 -0.10149613 0.07929456 -0.15386277

branch_t.fc1.bias f4 [128]
00000000: fb1b aebd 5e01 50bc 7c94 04be 1e2e 15be
00000010: 9920 afbd 4a46 b8bd d150 27be 9ae9 28be
00000020: d024 df3b f6f8 013e 1e07 103e 9a5f a4bc
00000030: 2d99 d4bd 9e80 a53d 46b6 2a3e 3a60 333d
00000040: 8cc9 3e3d 2018 9e3d 2d12 353d fa59 2d3e
00000050: 2ed1 4cba dd26 8ebd 9a0d d43d 6e5c eb3d
00000060: 6521 263e 3c0b bebc 9bcd 51bd d454 d13d
00000070: 711b 1d3e 6d13 0c3e a7ea 9b3d de1d d5bd
00000080: c62e 2d3e c0ee 2c3c ca39 213e 92a0 a13d
00000090: d268 0a3e d130 15bd b529 2abe 1607 f0bd
000000a0: aa32 1bbe 6a50 343d 5208 57bd f4b3 2abd
000000b0: 1d4c a6bd d479 f13d 6583 e3bd 9f5c 1abe
000000c0: 2249 abbd 7959 ea3d 192a 4f3d 111b 943d
000000d0: b2d7 f63d 8670 f4bc 80db 2a3e be2b 7039
000000e0: a51d 2cbd c6f8 c2bc cccb 62bd aa92 d63d
000000f0: 306a 37bd 38d5 833d 883c 02be a2b5 0abe
00000100: c73b 033e d3ca 253e 9978 2c3c 1fb9 1dbd
00000110: 73f4 a43d eb30 fe3d 1eef edbd 2b17 88bd
00000120: 45a2 9cbd eb70 0dbd 5ce4 2abe a760 f63d
00000130: 5e19 f33d cfc8 19be f672 133e dcfe 0fbe
00000140: 4eb1 773d 5de4 223e 1701 053e 4212 823d
00000150: 96f1 743d 1211 b8bd 6941 ac3d dab7 fbbd
00000160: 0ab3 0cbe 1023 28be f25a 06be 26f4 02be
00000170: 506f fabc 6cec d23d 9aca a33d c5b9 663c
00000180: 58e3 133e 8131 12be 0016 24be a47a ddbc
00000190: 9d0d 183e 5b88 633c 6fac c73d e3a9 b4bd
000001a0: 48f4 003e 0c72 1ebe f82a 103e 5180 173e
000001b0: 7cc1 163c 5778 38bc 6763 a9bd dae4 bcbd
000001c0: 45fb d2bc 6aeb 16be ff3a 1b3c cb83 0dbe
000001d0: f90d 733d 6a7a ffbd 0bad 74bd 7498 b83d
000001e0: 100d 583d e4c9 10be 8eb8 09be 53e1 0fbe
000001f0: 3045 a5bb 9bda 543d 9711 d6bd d409 3abd
-0.085014306 -0.012695638 -0.12947267 -0.14568374 -0.085511394 -0.089977816 -0.16339423 -0.16495362
0.0068098083 0.12692627 0.14065215 -0.020065118 -0.103807785 0.080811724 0.16671094 0.04379294
0.04657893 0.07719445 0.044206787 0.16928855 -0.00078131526 -0.06941006 0.10354157 0.11492239
0.16223677 -0.023198716 -0.05122147 0.10221258 0.153425 0.13679285 0.07613116 -0.10406087
0.16912374 0.010554969 0.15744701 0.078919545 0.13516548 -0.036423508 -0.16617472 -0.117201015
-0.15156046 0.044022 -0.05249817 -0.041675523 -0.08119986 0.11790815 -0.11109046 -0.15074395
-0.08363558 0.11442847 0.050577257 0.07231725 0.12052859 -0.029838812 0.16685295 0.00022904479
-0.04202046 -0.023800265 -0.055370137 0.10477193 -0.044779003 0.064371526 -0.12718403 -0.1354585
0.12815772 0.16190653 0.0105268 -0.038506623 0.080544375 0.12411674 -0.116178736 -0.06645044
-0.07648138 -0.034531515 -0.16688675 0.12030154 0.11870073 -0.15018009 0.14399323 -0.14062065
0.060471825 0.15907426 0.12988697 0.06351139 0.059800707 -0.08987631 0.084109135 -0.12290926
-0.13740173 -0.16419625 -0.1312063 -0.12788448 -0.030570656 0.10299 0.079976276 0.014082377
0.14442194 -0.14276697 -0.16024017 -0.027036019 0.14848943 0.01388749 0.09749686 -0.08821466
0.12593186 -0.15473193 0.14078891 0.14795043 0.009201404 -0.01125916 -0.082709126 -0.092233375
-0.02575458 -0.14738241 0.009474515 -0.13819806 0.059339497 -0.124745205 -0.05973534 0.09013453
0.052746832 -0.14139515 -0.13449308 -0.14050798 -0.005043648 0.05196629 -0.10452574 -0.04541953

branch_t.fc2.weight f4 [64, 128]
00000000: fdf2 2b3d 863b e13c 90a8 b13c cdc5 4e3d
00000010: cec6 acbd 3649 99bd 3a50 05bc 423a 7cb9
00000020: 636b 363c cccf 893d f3b7 91bd 6608 7fbd
00000030: 42a6 6d3d 6263 73bd 8937 973c 0d55 173d
00000040: 340a a23d dbe9 9ebd 47af afbb 46ab 52bd
00000050: 2f3a 093d e576 15bc 23a7 0c3d 8de0 8f3c
00000060: 6d98 913d dfc7 1fbd 6495 4d3a 3e0e 40bd
00000070: 9bb5 aabc 23b8 343d e2fa c2bc 8e79 ba3b
00000080: 0d63 8f3d 864b 85bd 8065 0ebd 9ad3 f3bc
00000090: 3d04 90bd 66b8 7cbd 34bd 3abd 87d8 80bd
000000a0: 477a 1eba 6c87 94bd c400 ca3c 4216 163d
000000b0: 6812 833d 14b9 33bd 885c 883d 4969 18bd
000000c0: 4446 7fbd 33cd 473c 53c8 703d 1c46 7ebd
000000d0: b8f2 6f3d 5251 9ebd f41e 1c3c 987b 8d3d
000000e0: d29a 1dbd 5ec0 8ebd 3711 adbd 2818 17bc
000000f0: 5fde 6fbd ec13 ed3c 4816 48bc 02f8 6dbd
00000100: b87e 51bc 6d9d 9b3d a628 9d3d 59db b33d
00000110: 940c 09bd 79d0 a53d bbee 5e3c 4119 22bd
00000120: c652 743b 8af8 b53d 4d3d ff3b f36f 913d
00000130: bcdd 99bd 2b33 ab3d 4ad5 5cbd b015 c1bc
00000140: 196f fc3c 6c6d a7bc 2179 13bd 1902 f8bc
00000150: 9223 1c3d 8547 843d 5714 823d ccc7 06bd
00000160: c43a 8b3d 206d 2f3d 48bf 2ebd cced 84bb
00000170: 9876 9dbd f5a3 993d cc6d 6c3d 82f2 c03b
00000180: 81e8 643d 2492 a13c 12e0 16bc 5fcc e1ba
00000190: e77c 6c3d 9a74 cfbc 150f b13d 2175 67bd
000001a0: 7cd6 563d 6203 0c3d 78a2 7abc 9a50 13bd
000001b0: ae29 3e3d e573 c23c 18c5 a83d fca9 a43c
000001c0: be32 a5bd 56ff 9c3d cfae 813c f642 7ebc
000001d0: de6a 53bc 05aa 313d 741a 8c3d f113 823c
000001e0: f3b2 50bd c39f d5bb e986 a7bb 6935 b43d
000001f0: b737 8fbd a55f ec3c 4eec 8d3d 548d 8f3d
00000200: 70bb d63b 2065 ccbc 3c14 913c 84ab d0bc
00000210: 8074 f1ba 7d43 963d 3604 3a3d ca49 4fbd
00000220: 52a5 233d dd65 983d f07d 433c d0d1 a1bd
00000230: 0e24 5b3d 092f 4cbd 1ef6 4f3d 085b 69bd
00000240: 8fc7 ab3d d429 c5bc f0d9 b93c f809 76bd
00000250: 23b0 8f3d 096e ad3d 2816 0e3c 14a5 0f3d
00000260: 8041 72ba b269 94bd 28c7 adbc e6a9 afbd
00000270: 166b 043d c010 cd3a 03d6 b43d fce4 ae3c
00000280: 7c48 bf3c c02e aebc 601d 4b3c cca8 943c
00000290: 00c8 95b8 a88b 78bd be01 10bd 7124 3fbd
000002a0: f8d9 133c 3857 90bc 2e00 623d 7488 9abd
000002b0: 51bd a7bd 7ae5 b3bd a0b0 86bd ec4a 02bd
000002c0: 23c8 a63d d485 933c 9d1c 99bd b97e a43d
000002d0: 50ce a03c 51fe 98bd 2200 313d 3466 ce3c
000002e0: 3e3f 90bd dc7e 9fbc da2f d9bc 946b 0d3d
000002f0: c8ab 87bc 12d1 363d 14fc 943c 082e 61bc
00000300: 906a 7d3c b746 903d b9e9 82bd d16d 2ebd
00000310: cb2b 64bd 5c76 073d 2635 7d3d c472 d0bc
00000320: 2cdb 43bd 5029 573c 12be 87bd 2011 323c
00000330: f408 b9bc 8e2f f3bc 6c90 9ebc 90b5 5abc
00000340: e074 963b 03a1 a7bd 875e 913d c2c8 603d
00000350: 9a5d 5e3d 373f 25bd 801b db3a 6331 923d
00000360: 9ca9 87bc 2254 353d dccd af3c a793 92bd
00000370: 58a3 80bd 98bb b23c fffa b33d ac2d 74bd
00000380: 3828 97bd 9275 9abd 09ab 41bd d1b1 983d
00000390: 0064 9e3b da92 f9bc 651f 9a3d a451 d13c
000003a0: 5235 3a3d c8bf ac3c e097 ad3b 3710 b4bd
000003b0: 38d9 a4bc 1026 6bbd cc6d 8abd d2a6 203d
000003c0: 5e7c 8fbd ccf3 a83c ca17 683d e23a 503d
000003d0: 195f aa3d b21b 103d 576e 48bd 089e 81bc
000003e0: 5051 c6bb b0cf 40bd 4e53 abbd 940c 87bd
000003f0: 3085 533c 1ed8 9ebd f646 dabc 4068 a7bb
0.04197978 0.027494203 0.021686822 0.050481606 -0.084363565 -0.07484667 -0.008136803 -0.00024054295
0.011134001 0.06729087 -0.07115164 -0.06226387 0.058019884 -0.05942095 0.018459098 0.036946345
0.07912102 -0.07759448 -0.005361471 -0.05143287 0.033502754 -0.009122585 0.03433908 0.017563129
0.07109151 -0.03900897 0.00078423903 -0.046888582 -0.02083855 0.04412092 -0.02380127 0.00569076
0.07001314 -0.065085456 -0.034764767 -0.029763985 -0.070320584 -0.061699294 -0.045590594 -0.06291299
-0.00060454424 -0.07252392 0.024658568 0.03664232 0.06399995 -0.043877676 0.06658274 -0.037209783
-0.06232287 0.012194919 0.058784794 -0.06207858 0.058581084 -0.07730354 0.009528864 0.06908339
-0.038477726 -0.06970285 -0.08450549 -0.009222068 -0.05856168 0.028940164 -0.0122123435 -0.058097847
-0.01278656 0.07598386 0.07673769 0.087820716 -0.03345926 0.08096404 0.0136067225 -0.039574865
0.0037280782 0.08885296 0.00778929 0.07101431 -0.075129956 0.08359369 -0.053914346 -0.023569912
0.030814694 -0.020437919 -0.03600419 -0.030274438 0.03811986 0.06458954 0.06351536 -0.032905385
0.06798318 0.04282868 -0.04266289 -0.004056668 -0.076886356 0.075019754 0.057721898 0.005888284
0.055885796 0.019723006 -0.009208696 -0.0017227045 0.057736304 -0.025324155 0.08645455 -0.056508187
0.052450642 0.034182914 -0.015297525 -0.03596554 0.046426468 0.023736903 0.08240718 0.020100586
-0.08066319 0.07665889 0.015830426 -0.015518894 -0.012903897 0.043375034 0.06840983 0.01587865
-0.05095191 -0.006519289 -0.005112518 0.0879925 -0.06993049 0.0288542 0.06929837 0.07009378
0.006553106 -0.024950564 0.017709844 -0.02547241 -0.001842156 0.07337091 0.045414172 -0.05060748
0.039952584 0.07441304 0.011931881 -0.07901347 0.05350118 -0.049849544 0.050771825 -0.05697158
0.08387672 -0.024067797 0.022686929 -0.0600681 0.07016017 0.08468253 0.008672275 0.03506954
-0.00092413276 -0.07246722 -0.02121313 -0.085773274 0.032328688 0.0015645251 0.08829882 0.021349423
0.023349993 -0.021262527 0.01239714 0.018146895 -7.1421266e-05 -0.06068006 -0.03515791 -0.046665613
0.009024136 -0.017619714 0.055175953 -0.075455576 -0.08190406 -0.087840036 -0.06576657 -0.031809732
0.08143642 0.01800815 -0.07476161 0.08031983 0.019629627 -0.07470382 0.043213017 0.025195219
-0.070433125 -0.019469671 -0.026512075 0.034526423 -0.016561404 0.04463298 0.018186606 -0.013743885
0.015467301 0.07044738 -0.06392235 -0.042585198 -0.055705827 0.03307186 0.061818264 -0.02544535
-0.04781644 0.013132408 -0.0662805 0.010868341 -0.022587277 -0.029685762 -0.019355975 -0.013348952
0.0045915693 -0.081850074 0.07098108 0.054878958 0.054288484 -0.04034349 0.001671657 0.07138326
-0.016560368 0.04426969 0.021460466 -0.07157069 -0.06281155 0.021817967 0.08788108 -0.05961387
-0.07380718 -0.07541956 -0.047282252 0.07455791 0.0048336983 -0.030465532 0.07525519 0.025551625
0.045461006 0.021087542 0.005297646 -0.08792155 -0.02012311 -0.057409346 -0.06759223 0.039221592
-0.07006143 0.020624064 0.056663312 0.050837405 0.0831892 0.035182662 -0.048933353 -0.015822425
-0.0060521737 -0.047073066 -0.083654985 -0.06594196 0.012910172 -0.07756065 -0.026645165 -0.005108863

branch_t.fc2.bias f4 [64]
00000000: d5c6 08bd 2622 72bd c03d 8f3a 1542 83bd
00000010: 4fb7 28bb 5d63 a43d 426e 29bd 50ae 94bc
00000020: c235 973d 34d1 c03c ad67 803d 8319 353d
00000030: 94d8 adbd d028 2dbd 1eee 743d bbec 6fbd
00000040: 0b2b 70bc 1e7a 323d ba00 80bd 94e3 963d
00000050: f8a3 a7bc 596b c3bc 7bf1 893b b870 15bc
00000060: df73 9c3d 151c 873d 38c5 003d 880d 7fbd
00000070: e83e 79bd c65c d2bc 660f 83bb aeaf bbbb
00000080: 1dbc a7bb 81c4 b33d 2a61 8d3d e6a0 0a3d
00000090: 4876 973d 8d18 703c 6aa0 293d 4703 85bd
000000a0: 248f 503c 3274 84bd eab0 343c 50b7 98bc
000000b0: b5ec 6fbd cdbf 453b 7881 023d 40e3 d23c
000000c0: 9404 d73c 1949 98bd 9617 7fbd 8182 c8bb
000000d0: 5066 20bd b105 23bd a0b1 6f3b 376d 54bd
000000e0: 132c bcbc d7a3 173d 24d5 903d 7f70 8f3d
000000f0: 40bf b53d 68cf 6dbd 792f 893d 8cf3 6c3d
-0.033392746 -0.059114598 0.0010928437 -0.064090885 -0.0025744026 0.080267645 -0.041364916 -0.018149525
0.073833 0.023537256 0.062697746 0.044213783 -0.084885746 -0.04227525 0.0597974 -0.058575373
-0.0146587 0.04357349 -0.062501386 0.07367626 -0.020463929 -0.023854898 0.004209695 -0.0091211125
0.07639288 0.06597153 0.031438082 -0.062268764 -0.060851008 -0.025679003 -0.0039996384 -0.0057277298
-0.0051188604 0.087777145 0.06903298 0.03384485 0.07395607 0.014654291 0.04141275 -0.06494766
0.01272944 -0.06467475 0.011028508 -0.018642098 -0.05857535 0.0030174137 0.031861752 0.025743127
0.0262473 -0.07435817 -0.062278353 -0.006119073 -0.039160073 -0.03980035 0.0036574379 -0.051861968
-0.022970235 0.037021484 0.07071903 0.07003879 0.08874369 -0.058059126 0.06698508 0.057849452

branch_t.fc3.weight f4 [16, 64]
00000000: e047 fc3d 828c c53d b4c1 9c3d 0c4d 383d
00000010: 682c ef3c 60f1 c73c 943f 5dbd 5e86 e0bd
00000020: ded6 80bd e4ea 733d f0b2 b63c 141c 82bd
00000030: d46f debd 0054 70bb fe22 a8bd e4d0 fb3d
00000040: caef ddbd f0fb 093c 08fb fcbd 105d 233c
00000050: feaa 9dbd 78c4 9cbc 1c53 213d fcf0 053d
00000060: e822 e43c dc1d ec3d 70ff eebd 548d 143d
00000070: c871 7dbd aadf bbbd d81f 10bd acc8 babd
00000080: 082f 0d3d eac0 98bd e8d5 893c 7490 01bd
00000090: aeb7 db3d aa29 d23d 967f bd3d a49d 5ebd
000000a0: 9439 1ebd 062d ab3d 2c73 89bd 94cd 23bd
000000b0: b615 b53d 285b a13d 2001 ce3d b6bd e9bd
000000c0: 90ea cabd d842 423d 0c0a fe3d 8860 80bd
000000d0: b0cd c9bc 18ca df3d 7af5 cabd e027 b83c
000000e0: ec27 3c3d 6cad 433d 90d3 e23d d013 773d
000000f0: b4e0 a83d 486f c0bc 60ca ca3c b023 513c
00000100: 7f52 e73d 82e9 ac3d e811 933d 874a 113c
00000110: 17a8 453d 7018 8a3d ed4e f6bd fa07 8e3d
00000120: 20b8 193d 0ab5 dc3d a031 c13b 059f e9bd
00000130: 029a ea3d 7cf9 a53d 33de 2dbd 2ad2 c2bd
00000140: 3c4d 9f3d 8f47 fabd 29e5 a93d 4cb4 31bc
00000150: 729f 7a3c 0f88 813a a04d ecbd d4d5 d23d
00000160: 3222 84bd af40 77bd af1d 5f3d 1ec9 27bc
00000170: 234e 14bc 1070 a9bd d775 85bd cbe6 09bc
00000180: f7a8 f93d 553f 63bc 590f 89bd 1f04 7a3c
00000190: 5360 c03d 3a09 f33d ec44 423d e3f2 8ebd
000001a0: 0d63 9d3d ed60 82bd 598c f4b6 406c de3c
000001b0: 85f4 0b3d 939f fa3d e403 8dbd cf60 9ebc
000001c0: 6404 723d 8dd3 d73c 560d 94bc 4960 3e3d
000001d0: caaf 753d ac12 9f3d bb43 92bd b20b 64bb
000001e0: e648 fcbd 892c fcbd 2c8c 2ebc 70d3 87bd
000001f0: abe1 a43d 00df 7c3a dc42 d2bd db59 653d
00000200: de06 a53d 709c 5a3c fc25 023d c799 d73d
00000210: 54eb 08bd df0b e3bb b71e b23d 20dd da3b
00000220: 9175 343c 3bc6 f23b d890 e43d a2e7 073d
00000230: e5cb a8bd a09f da3d 5b74 bdbd d4c6 803d
00000240: 79bb 6d3d e3f1 94bd 4b2a f13d 90cc 023d
00000250: e5cb 34bc 10d4 113d a6fb f73d 7020 bbbc
00000260: e8f4 f6bc 5f11 403b 7db9 9ebd 9ac6 d53d
00000270: 9644 003d ab8c e6bd c26f c93d f38e cabd
00000280: 4833 d7bc d83d b33c 6193 0c3d d6f5 8a3d
00000290: cd81 2c3d 7a7e ddbd 100a 7cbd 1171 22bd
000002a0: 0033 1b3c f862 21bb cb94 db3d c8de 663d
000002b0: b331 10bc 539f 1c3c 241d c1bd 4585 38bd
000002c0: bcae 463d ee8f edbd b6cc 60bd b4f6 37bc
000002d0: 8d9a c5bc 8947 4bbd fec6 743c b978 2e3d
000002e0: 460d f8bd 21c5 f4bd 0ded a63d 409d 693c
000002f0: 56f9 0f3c f44a bfbd cac0 95bd 12e5 a0bd
00000300: 63e4 97bd 7452 85bd 60af df3b 5e1f 8bbc
00000310: 8d61 11bd 545d 05bd 094c 763d b46a dabd
00000320: 08cc f03c 7d6f c83d 6c62 07bd 5413 a0bd
00000330: 5194 94bd f890 11bd 3d48 5d3d 2cf8 243d
00000340: 866d 6f3d e73f 853d 0ec0 75bd d2b6 e2ba
00000350: 965c bb3d 6115 cfbd 4b61 fc3d c00f ef3d
00000360: 1317 343b 3aa8 1abd ae73 14bc 7895 fabd
00000370: c21a c3bd 0676 913d 9677 be3d 2196 f1bd
00000380: 1379 f63d e1ee ddbd e0cc 04bd eb67 cdbd
00000390: 0137 003c bdd8 b0bd 0088 633c 6a00 9bbd
000003a0: 0807 dcbc 06ae 113d 0e19 39bd f048 e23c
000003b0: a86f e5bd f669 22bc 4c46 00bd a710 e53d
000003c0: 305d e13c d777 f2bc 0b13 edbd 7938 bebd
000003d0: 00d8 f23c f40d 32bd 0499 8bbd e616 14bc
000003e0: 3031 e83d 9ade 74bd 7031 3e3d f376 ebbd
000003f0: 7aa1 ee3c 9247 cbbd 0a01 edbd 57b9 a93c
0.123183966 0.0964594 0.076541334 0.044995353 0.02919598 0.024407089 -0.05401571 -0.109631285
-0.06290983 0.05955018 0.02230212 -0.06353012 -0.10861173 -0.0036671162 -0.08209799 0.12295702
-0.10836752 0.008421883 -0.12352568 0.009970918 -0.0769863 -0.019136652 0.0393859 0.032700524
0.027848676 0.11529133 -0.116698146 0.036267594 -0.06187609 -0.0917352 -0.03518662 -0.091203064
0.03446868 -0.074586704 0.016825631 -0.0316319 0.107283935 0.10261853 0.09252851 -0.054349557
-0.03862913 0.08358197 -0.067114204 -0.039990976 0.08842032 0.07878715 0.10058808 -0.114131376
-0.099080205 0.04742703 0.1240426 -0.06268412 -0.024634212 0.10927218 -0.09910102 0.022479951
0.04593651 0.04777281 0.110755086 0.06032163 0.08245984 -0.023490563 0.024754703 0.012764856
0.11295032 0.084429756 0.0718115 0.008867866 0.048256006 0.06742942 -0.12026773 0.06935115
0.03752911 0.10776718 0.0058958083 -0.11407284 0.11455156 0.08104226 -0.042448234 -0.09512742
0.07778403 -0.1222068 0.08295662 -0.010846209 0.015296804 0.0009882468 -0.11538243 0.10294691
-0.06451835 -0.06036442 0.054471668 -0.010240821 -0.009051832 -0.08273327 -0.06516617 -0.008416842
0.121904306 -0.01387008 -0.066923805 0.015259772 0.093933724 0.11866994 0.04742901 -0.06979921
0.07684908 -0.063661434 -7.2881053e-06 0.027151227 0.03416874 0.122374676 -0.06885508 -0.019333271
0.05908622 0.026345992 -0.018072765 0.046478543 0.0599821 0.07767233 -0.07141825 -0.003479701
-0.12318592 -0.12313182 -0.010653537 -0.066321254 0.08050855 0.00096462667 -0.10266659 0.055993896
0.080579504 0.013342962 0.031774506 0.105273776 -0.03342755 -0.0069289054 0.08697265 0.006679192
0.011014358 0.007408885 0.11160439 0.033179887 -0.08242015 0.10674977 -0.09250709 0.062879235
0.058040116 -0.07272699 0.11775645 0.031933367 -0.01103494 0.03560263 0.12108545 -0.022842616
-0.030146077 0.002930723 -0.07750223 0.10438271 0.03131541 -0.11257299 0.09835769 -0.09890547
-0.02626957 0.021880075 0.03432024 0.06785171 0.042115975 -0.10815139 -0.061533034 -0.03965861
0.009472609 -0.002462564 0.107217394 0.056364805 -0.008800912 0.00955947 -0.09429386 -0.04504897
0.048506483 -0.11599718 -0.054882728 -0.011228252 -0.024121547 -0.049628768 0.014940022 0.0425956
-0.12111907 -0.11951662 0.081506826 0.014258683 0.008787474 -0.09340468 -0.07312162 -0.07856192
-0.07416608 -0.06509867 0.0068263263 -0.01698273 -0.035493422 -0.032559708 0.060131107 -0.10664883
0.029394165 0.0978689 -0.033052847 -0.078161865 -0.072548516 -0.035538644 0.05402397 0.040275738
0.05845406 0.06506329 -0.05999761 -0.0017296916 0.09148519 -0.101114996 0.12323245 0.11672926
0.0027479574 -0.03775809 -0.009060783 -0.1223554 -0.09526588 0.07102589 0.09300153 -0.11796213
0.12034812 -0.10836578 -0.032421947 -0.100295864 0.007825614 -0.086350895 0.013887405 -0.07568438
-0.026858822 0.035566352 -0.04518991 0.02762267 -0.11202937 -0.009912958 -0.03131704 0.11184817
0.027510256 -0.02959816 -0.11575898 -0.09288115 0.029644012 -0.043470338 -0.06816295 -0.009038663
0.11337507 -0.059782602 0.046433866 -0.11497297 0.029129732 -0.0992576 -0.11572464 0.02071826

branch_t.fc3.bias f4 [16]
00000000: 4884 fbbd bd59 ac3d 0c91 913d 8742 02bd
00000010: 8210 593b 842b 60bd cdec ed3c 037d 973d
00000020: 646f a7bd f66d c2bd 8875 f93c 0864 a6bc
00000030: 74a3 f93d cc13 283d a4ff 083d ef21 16bd
-0.1228109 0.08415554 0.071077436 -0.031801727 0.0033121412 -0.054729 0.02904358 0.07396891
-0.08175543 -0.0949363 0.030451551 -0.02031137 0.12189379 0.041034505 0.033446923 -0.036653455

branch_p.fc1.weight f4 [256, 34]
00000000: 081a 00be 4408 063c 915f 073e 107e c8ba
00000010: 24a2 a1bd ac7d d3bd 0ff0 05be e1d5 0f3e
00000020: e48e 843d c7c7 bebd 031d bd3d 98e1 3c3d
00000030: 6100 1a3e 0479 4bbd 33a3 e23d 2307 b5bd
00000040: 6457 ab3d 14dc ccbd ff79 cdbd e513 04bd
00000050: e57d ef3d 0d87 5b3c de91 aa3d fa9a 0abe
00000060: 21ba 183e 0383 4d3d ecf2 d33c e99b a0bc
00000070: c81b 19be d2ea 60bd f4fb e73c 0f92 babd
00000080: 2cef 02bd f333 f23d f491 21bd d68e 56bd
00000090: 5948 acbc 8464 8abd 8906 003e 8df2 183c
000000a0: 370f 823d 818a f9bd 7489 383d 6ac2 0e3e
000000b0: 1992 513d dd6b 9a3d bea2 cabd 38bc 25bd
000000c0: 918f 08be 4bc2 013e db5a 10be 4f0b debb
000000d0: f2c2 1d3d 8b37 25be 6112 d13d b0ef 45bd
000000e0: 0f4b eebc 635c 273e 994a ec3d 1fcb 0dbe
000000f0: eb43 063e 397b 783d ff1f 88bd 768e d4bd
00000100: 3110 9fbd b0a3 fc3d cb1c e4bc eede 22be
00000110: b3b7 303d ec77 d6bd af0a c5bd 090a 4f3d
00000120: bc01 cabd 5bf7 ae3d ae61 dabb b0db d5bd
00000130: c010 2abe ce6e 0d3e 5c69 99bd 812e 23be
00000140: 13d6 133c 52af 6fbd e249 a2bd 1051 d1bd
00000150: a2b7 093d 072f 07be dfab 2a3e 57d7 16be
00000160: 3174 4c3d cf89 c23d a4fc cc3d 61e1 b53d
00000170: 31a1 063e 01e0 8dbb dae7 093e 2647 e2bd
00000180: 3726 273e 1c6c 093e 49f1 95bb 8446 3e3d
00000190: 5eb6 1b3e 4596 2a3e d958 e4bd 832f c3bd
000001a0: 2a66 0cbb 85ff 003d 8ce2 b9bd 9033 793d
000001b0: 4527 b43a 2f53 013e bc99 82bd 3829 113e
000001c0: 56d5 06be eff5 da3c 2d2e 8cbc 32b6 cdbc
000001d0: 055d 23be a246 fa3d 233a c63d 62e4 93bd
000001e0: 10d8 d0bd 8323 9ebc 91dc 24be 8aec 073e
000001f0: b40f 08be e6f9 c639 27e9 f93d 1067 383d
00000200: 8b78 de3d 2a33 fabd 6972 cdbd 1b5f 8a3d
00000210: 3f8b 2a3e 912a 8f3d 7599 10be 0355 05bd
00000220: 42e2 273d 8b0d 143e 803f 243e a799 aabd
00000230: 911d 84bd 70ef 2d3e 7d8a e7bd 39eb b33c
00000240: fc71 893d d7e4 403d b7be 3abd a296 9d3d
00000250: a57d 343d 8d17 0cbe 2350 bdbd e42f 31bd
00000260: 8597 06be 12c7 1e3e dfb5 dfbd 2fe9 253e
00000270: 8f6e 023e ee59 91bd e802 f13d ff63 07be
00000280: 6d8a 97bd fe01 68bc cc7b 8abd 55ce fc3d
00000290: f126 bb3d 833d abbd c9c3 bb3d 3cd1 a23d
000002a0: 2af0 b9bd a32d 323d 9029 17be 3480 693c
000002b0: a96b 183e 420f a03c 81eb 10be 1cd8 9ebd
000002c0: 80e2 90bd 0010 ea3d 5b77 85bd 14fd 073d
000002d0: 33d1 1c3e 6e93 1f3d 5f45 8e3d e3dc 303d
000002e0: 4669 d53d 2720 04be 18c1 eb3c 1383 653d
000002f0: 212b e33d bc6b 2b3e b3a5 ee3d a8b2 f83d
00000300: e6ee 53bc 8935 2ebe 31dc febd adfc 24bc
00000310: 3154 ce3d 7d6f 1bbe 2c1d 07be e341 0d3d
00000320: c160 f0bc 3a8e 2b3e 9a50 173e 2fae ef3c
00000330: 3aef d8bd c4ae b13d fe35 a93d 4c39 fc3d
00000340: ef37 01bd 087e 13be 243d ebbd 85c1 0a3d
00000350: 669d 083e 6b43 07be 06f6 29bd 7cc2 f6bd
00000360: 6a51 1dbe 2428 1cbe 6cc2 07be 7e7e 063e
00000370: 31f2 253e 5582 97bd e26b 053e dee7 233e
00000380: de3d fa3d 36a9 133d 6617 f7bd 6246 1abe
00000390: dc6d 7abd 7f2c 1bbe fe54 9fbd 96e8 c8bb
000003a0: 4809 103e e8a8 26be 3fa9 673c 009e 03bd
000003b0: ae07 223d b47d 8e3d 1782 a9bb 777f ef3d
000003c0: 92ff a8bc dbb8 92bd a59d e63d b121 0d3e
000003d0: eaf7 c4bd ab57 07be 423f 17be 6055 c43d
000003e0: b389 efbd b758 4ebd 1454 283a 666f 143e
000003f0: 05e7 daba 6d32 b5bd 8024 203e 6b2e 88bd
-0.1250993 0.008180682 0.1322005 -0.0015296359 -0.07892254 -0.103267044 -0.13079856 0.14046432
0.06472567 -0.09315448 0.09234049 0.04611358 0.15039207 -0.049675956 0.11066284 -0.08839252
0.08366278 -0.10002914 -0.100330345 -0.032245535 0.11693934 0.013398898 0.08328603 -0.13535681
0.14914753 0.05017377 0.02587267 -0.019605594 -0.14952004 -0.054911442 0.028318383 -0.0910989
-0.031966373 0.11826315 -0.039445832 -0.052382313 -0.021030592 -0.06757453 0.12502493 0.009335172
0.06350558 -0.12184621 0.04505296 0.1394135 0.05116472 0.075401045 -0.09894322 -0.040462703
-0.13336016 0.12671773 -0.14097159 -0.0067762504 0.038515992 -0.16134469 0.102085836 -0.048324287
-0.029088525 0.16343836 0.11537666 -0.13847016 0.13111846 0.06066439 -0.06646728 -0.10378735
-0.0776676 0.123359084 -0.02784576 -0.15905353 0.04314394 -0.10472092 -0.09621178 0.05054668
-0.09863612 0.08543273 -0.0066644764 -0.10442293 -0.16607952 0.138118 -0.07490799 -0.15935709
0.009023207 -0.058516808 -0.07924248 -0.102205396 0.03362239 -0.13201533 0.16667126 -0.14730583
0.049915496 0.09498941 0.10009125 0.08880878 0.13147427 -0.004329682 0.1346735 -0.11048727
0.16323172 0.13420147 -0.0045758826 0.046453968 0.15206286 0.16658886 -0.11149759 -0.095305465
-0.00214232 0.031493682 -0.090764135 0.06084019 0.0013744613 0.12629388 -0.06376979 0.1417588
-0.13167319 0.026728598 -0.017111862 -0.025111292 -0.15953453 0.122205034 0.096790574 -0.07221295
-0.10197461 -0.019304043 -0.16099764 0.13273826 -0.1328724 0.00037951692 0.122026734 0.045020163
0.108628355 -0.1221679 -0.10031588 0.06756421 0.1665468 0.06990541 -0.14121039 -0.032551777
0.04098726 0.14458291 0.16039848 -0.08330088 -0.06450952 0.1698587 -0.113057114 0.021962749
0.06711194 0.04709324 -0.045592036 0.076947466 0.044065136 -0.13680859 -0.092438005 -0.043258563
-0.13143738 0.15505627 -0.10923361 0.16202234 0.12737487 -0.07097231 0.117681324 -0.13221739
-0.073994495 -0.014160631 -0.06761894 0.12344042 0.09138287 -0.08361342 0.091682024 0.079500645
-0.09079011 0.043500554 -0.14761949 0.014251757 0.14884819 0.019538525 -0.14152338 -0.07756063
-0.070744514 0.11428833 -0.06516906 0.03320034 0.15314178 0.03895896 0.06946825 0.043179404
0.1042047 -0.1290289 0.028778598 0.056033205 0.110922106 0.16740316 0.11652698 0.12143451
-0.012935376 -0.1701261 -0.12444342 -0.010070008 0.10074652 -0.15179248 -0.13194722 0.034486663
-0.02934301 0.16753474 0.14776841 0.029257862 -0.10592504 0.08675912 0.08262251 0.12315616
-0.031547483 -0.14403546 -0.11486271 0.03387596 0.13341293 -0.13209312 -0.04149439 -0.12048814
-0.15363088 -0.15249687 -0.1325776 0.1313419 0.1620567 -0.07397906 0.13029435 0.16006419
0.122188315 0.036050044 -0.1206501 -0.15065911 -0.061139926 -0.15153693 -0.07779883 -0.006131242
0.1406604 -0.1627537 0.0141394725 -0.032133102 0.039558105 0.0695757 -0.0051729786 0.11694234
-0.020629678 -0.07164165 0.11260537 0.13782384 -0.09617598 -0.13217036 -0.14770225 0.095865965
-0.11696186 -0.050377574 0.000642122 0.1449562 -0.0016700929 -0.088475086 0.15638924 -0.066494785

branch_p.fc1.bias f4 [256]
00000000: 45be c8bd 00a8 883d f134 0fbe 0798 dbbd
00000010: 104a 9dbd 97b3 82bd 457c 0c3e a0e3 a1bd
00000020: 03b2 2abd 8b51 27be a410 fa3d 6465 a33d
00000030: d68a 013d f3af bfbc 4057 263e 2a68 f8bd
00000040: 9245 e1bd ccb3 ed3d 6eb1 00be cb05 5abd
00000050: 6331 c3bd 4380 073e babe 5d3d 0cb4 14bd
00000060: 80e7 c73d cd01 2f3e c150 083e 0f00 da3d
00000070: c395 d8bd aaea 86bc c1e8 87bd a820 f03c
00000080: a444 f83b 7ab5 0d3e 67c4 74bc f652 d9bd
00000090: 46ab 263e 4baa 9ebd 6d3c 00be 885c 13be
000000a0: 616b 0bbe dfb2 aebd 17ec be3b 2e7a 903d
000000b0: b626 0abe 2df5 1b3d 4860 293e 4a73 e1bd
000000c0: 96cb d63d ef03 273b 528e b93b 4ca0 85bd
000000d0: 1d0c b1bd 76c3 f93d e39e 79bd 6d43 123e
000000e0: a7bf 1d3e a2c5 8cbd dfee 613d 8c90 57bd
000000f0: 8254 143d d76a 043d a8a3 ac3d ff85 933d
00000100: 34da 0bbe 8e86 883b ea91 e6bc ee90 9cbd
00000110: c097 9b3b 689c 9cbc 6262 003e 8ab0 a33c
00000120: d49d e6bc d16f 81bd a45c 2ebe d24c a9bd
00000130: bdad 053e 0aae 89bd 8f3c 2a3e a41a 1cbe
00000140: 744d bf3d c9fc 86bd c01a 273e dfac 8b3c
00000150: 8926 28be 1a1b 0f3e bbd9 0c3e ebb2 dc3a
00000160: 902d 223e e198 023e 3fc6 143c 090d 02be
00000170: 138a ecbd 2022 baba 2cfb 1abe acef 053e
00000180: 020f a83a cc60 da3d bb3e 213e aff2 b33d
00000190: 036d 08be c5a9 803d 6995 02be 524a e13d
000001a0: 13ab a3bc db6f 0fbe df7f 033d f63e 1c3b
000001b0: d762 3d3d 4646 a03d 711d 29be 4d4e cfbd
000001c0: d45b 1dbe 3dec 45bd 5b3e 2bbd 502a 103d
000001d0: ae12 44bc 6bc5 1cbc bac4 da3d 13ee 223d
000001e0: b76a 13be 48ee 2c3e 7eb7 173e cadc 00bd
000001f0: c6cc 10be 1d57 243d d7b5 373d d0b0 373d
00000200: 524e b23d 0d36 19be ba59 60bd 7eee afbc
00000210: e81a b13c de71 393d 0182 8f3d 2415 f1bd
00000220: f246 043e 67aa 813d 6786 d13d 14cd a8bd
00000230: d10c 6d3d e4d8 473d a502 c3bd e599 5d3d
00000240: f4a4 563d 620f e9bd 5d34 07be 45fa 93bc
00000250: 0e16 f33d 4626 1b3e dbb6 143d 6c99 b0bd
00000260: f185 f6bd f009 b8ba fbeb c5bd fa48 a53d
00000270: 6172 6a3d bae8 973d 2cdc e33d bdf5 e23d
00000280: 0fb2 22be ad09 b3bd 86d8 11be cfe1 49bb
00000290: e6d9 463d 96a9 f73d 7ab2 26bd b414 713d
000002a0: a35c cc3d 53a6 10be a6ad 58bd 8d4b f53c
000002b0: 3b50 e3bd fe44 873d 0a69 1a3e b9e7 b93d
000002c0: 13c4 20be b8c4 a2bc 623f 1d3e a73d 2b3e
000002d0: 71bc 14be 6e12 cd3d d574 48bd c5c7 c53b
000002e0: c85c ed3c ff49 333d f148 c6bd adea b33b
000002f0: f432 2abe 37d6 293e 59bc 1cbe 2f50 08bd
00000300: f57a f43d 003c 2e3e 4255 14bd 7d65 a3bd
00000310: caa1 273d e2b0 ac3d 5b7a 79ba 8881 34bc
00000320: ee94 12be b342 283e 1cd1 37bd 4ddf 743c
00000330: fa23 d7bd 464a 873d 8796 29be 370f 59bd
00000340: 0175 e8bd 46a0 dfbd edd3 193e ce16 c7bd
00000350: 790c 92bd 43c6 3dbc 9b0f 7ebd 7ba2 cd3c
00000360: 873a 20be aeec 1fbe dd93 af3c d22a 00be
00000370: ee39 1d3e 9d05 dfbd 7785 c9bd f744 2a3e
00000380: adac 253b b6b1 c2bd fae4 abbd 6482 1b3e
00000390: 1d4c 6f3c 2c6a dbbc a7b9 f63d 49b5 823d
000003a0: 767b a4bd 3607 223e 73fd c5bd f621 b3bc
000003b0: 15f5 283d fdca c63d eebc 5bbd e777 11b9
000003c0: 81b9 903d e89f 133e 97c9 a2bc 75aa 09be
000003d0: d0e6 953d bd90 07be 79d2 813d dced b13d
000003e0: 2c61 8d3c 10f3 103e 558c 6c3b 772a 0cbe
000003f0: 608d 0cbe 97fd e3bd 8e77 e23d d601 153e
-0.09801916 0.066726685 -0.1398504 -0.10722356 -0.07680142 -0.0638191 0.1371928 -0.07904744
-0.04167367 -0.163397 0.12210205 0.07978323 0.031626545 -0.023399329 0.1624422 -0.12129243
-0.109995976 0.11606559 -0.12567684 -0.05322818 -0.09530904 0.13232522 0.05413697 -0.03630452
0.09760952 0.1709053 0.13312055 0.106445424 -0.1057544 -0.016469318 -0.06636191 0.029312447
0.007576542 0.13838759 -0.014939404 -0.10611527 0.16276273 -0.077473246 -0.1252305 -0.14390767
-0.1361518 -0.08530211 0.005826484 0.07054554 -0.1349133 0.038075615 0.16540635 -0.11008318
0.1048805 0.0025484522 0.005662718 -0.06524715 -0.086448886 0.12195484 -0.06094254 0.14283533
0.15405141 -0.06873633 0.055159446 -0.052628085 0.036213405 0.032328453 0.084296525 0.07203292
-0.13657457 0.004166431 -0.02814575 -0.07644831 0.0047483146 -0.019117549 0.1253753 0.019981641
-0.02815143 -0.063201554 -0.17027527 -0.082666054 0.13054557 -0.067226484 0.16624664 -0.15244538
0.09340945 -0.06591184 0.16318798 0.017050205 -0.1642095 0.13975182 0.13754933 0.001683799
0.15837693 0.12753631 0.009080469 -0.12700285 -0.11549773 -0.0014200844 -0.15134877 0.13079709
0.0012821855 0.10662994 0.15746586 0.087865226 -0.13322835 0.06282381 -0.12752308 0.110005036
-0.019979035 -0.14007513 0.03210437 0.0023841239 0.04623684 0.078259036 -0.16515137 -0.101223566
-0.15367061 -0.048320998 -0.041807514 0.035196602 -0.011967344 -0.0095685525 0.10682054 0.039777827
-0.14396177 0.16887772 0.1481609 -0.03146056 -0.14140615 0.04012214 0.04485115 0.044846356
0.08706345 -0.14962025 -0.05477307 -0.021476027 0.021619275 0.045274608 0.07007218 -0.117716104
0.12917688 0.0633133 0.10230713 -0.082422405 0.05787355 0.048790827 -0.09521989 0.054101843
0.052403405 -0.11379887 -0.13203569 -0.018063674 0.11869441 0.15151319 0.036307197 -0.08623013
-0.12037266 -0.0014041048 -0.0966415 0.0807056 0.057237986 0.07417436 0.11125979 0.11082027
-0.15888236 -0.0874208 -0.14242753 -0.0030804758 0.048547648 0.12092893 -0.040697552 0.058857635
0.099786066 -0.14125948 -0.05289998 0.029943252 -0.11099287 0.06604956 0.15079132 0.09077401
-0.15699796 -0.019869193 0.1535621 0.16722737 -0.1452501 0.10013281 -0.048939545 0.0060357773
0.028974906 0.04377174 -0.09681881 0.005490622 -0.16621 0.16585623 -0.15306224 -0.033279594
0.11937515 0.17015076 -0.03621412 -0.07978342 0.04092578 0.08432175 -0.00095168286 -0.011017211
-0.14314625 0.16431694 -0.044877157 0.014945817 -0.10504909 0.066059634 -0.16561328 -0.052993026
-0.11350442 -0.109192416 0.1502225 -0.097211465 -0.07131285 -0.011582914 -0.0620266 0.02510189
-0.15647326 -0.1561763 0.021432811 -0.12516335 0.1535413 -0.108897425 -0.098399095 0.1662787
0.0025279925 -0.09506552 -0.08393283 0.15186459 0.014605549 -0.026784025 0.12047129 0.06382234
-0.08031361 0.15823063 -0.09667482 -0.02186678 0.041249353 0.09706686 -0.053646974 -0.00013872945
0.07066632 0.14416468 -0.019871516 -0.1344393 0.073194146 -0.13238807 0.063389726 0.08687946
0.01725825 0.14155221 0.0036094387 -0.13688074 -0.13725805 -0.11132353 0.110579595 0.14551482

branch_p.fc2.weight f4 [128, 256]
00000000: 57b5 f53b 438c 583d 2664 48bd 3f8c dabc
00000010: 97ac 84bc c776 5a3d fd4b dfbb 9a39 00bc
00000020: dc8f 173c e6a5 d0bc 3485 083d f15c c2bc
00000030: dd27 1f3d 5d67 adbc 90cd 993c 4531 0bbd
00000040: 1509 453c 1fa6 b73b 7e5d c2bc d581 2abd
00000050: ce82 febb 770d a23c 5ee3 c63b c7d6 bf3c
00000060: fb77 76bd cec6 473d 7f90 20bd 7215 b6bc
00000070: c4aa 183d 3fab 183c f5b1 d2bc 4577 25bd
00000080: bbdb 7d3d 3733 573d a70e 6e3b 6c08 d03c
00000090: 8c32 2f3d 6173 40bd 67e0 0abd 43fc 2cbd
000000a0: 9262 4e3d 081e 0b3d fe09 5d3c 93fa 14bd
000000b0: 374e 10bd 5553 af3c 0ff0 4c3d f793 0d3d
000000c0: a764 213a 0109 cb3c f3c8 bfbc d4a0 693d
000000d0: e383 a6bc 17ff 1f3d 10cd 95bc 8a39 64bd
000000e0: a1bd b9bc fa18 413c 9eb3 7bbd d983 13bc
000000f0: 5cb8 a83b a42d 963c dfe2 6d3c 3d77 4c3d
00000100: ce15 a2bc bd61 f9bb b39f c2bc 2a6e f1bc
00000110: 6cf4 0ebd c3ea 9bbc ebda 2dbd f927 6dbd
00000120: 3ec3 703d fd91 32bc 29a7 8e3c 89ad efbc
00000130: c358 0d3d 9b50 0d3d 3f7a f83c f7bf 473d
00000140: 1912 913c 732a a33c 3f2d 483d b681 583c
00000150: 0467 7d3d a746 f8bc 15c6 0e3a 37e2 12bd
00000160: 43bd b1bb 0b3b bcba 6fc5 43bd cac2 a93c
00000170: 90e5 0c3d b002 1bbd f01c 0abd 8891 a03c
00000180: 1afb 1a3d e209 4bbc dca6 ac3c fa15 4dbd
00000190: 9cc3 6c3d f357 19bd 395d 303d f2f9 d23b
000001a0: 895d d8bc 6e80 443c 77e7 393c 1c35 da3c
000001b0: 9fb8 863c 923d 4abd 7390 d83c 3d40 5fbd
000001c0: 1cb0 19bd 9dc6 0e3d d14c 20bd 7af0 fb3c
000001d0: b234 d63c c9e9 6bbd daba 45bd b65e 3abd
000001e0: 470e ffb9 8d33 efbc 1e8c c1bc c41a 2d3d
000001f0: 8ca6 46bd 2f10 18bc 1fbb 5cbd b73d 493d
00000200: 3d8e 65bd a3a7 63bd ad0f 34bd bfd6 27bd
00000210: cc04 53bd 12e5 7cbd 8574 2bbd 0d09 b73c
00000220: 7e81 e6bc 8712 dfbc 9a94 6dbd 4d60 2bbc
00000230: 7b31 3f3c 75e6 543d c4b8 823b 6d64 e8bb
00000240: c219 4d3d 872d 88bc 804d 60bd adc4 39bb
00000250: 1081 23bd cdcd a9bc 0bd9 c3bc 1678 b9bc
00000260: 24e0 5a3d c2d4 72bd 52c7 18bd 845b 6cbd
00000270: ece9 4f3d db3a 253d 83c8 bcbc 17d0 c4bb
00000280: a4e9 99bc eba3 343c 4d1b adbc e086 4abc
00000290: 2ce0 0d3d e981 62bd 5476 cdbc e834 5e3d
000002a0: 4f3c 59bc 4b7d e03c f1e4 093d 2da4 d5bc
000002b0: 5d8b 4dbd 9d8f f0bc e80f 88bb 195d 6bbc
000002c0: bf95 6abc b1fa 2cbc 8311 7cbd 2094 08bb
000002d0: cddb 3a3d 7c3e 18bd 88c1 3abb 6c92 8bbb
000002e0: 9fe8 393d 5ab2 22bd 66b4 3abd b042 683d
000002f0: 0e57 12bc 7cdd c93a 3aef 76bd 9aa5 073d
00000300: 5e3f fabb 8542 79bd 4656 3fbd f7ca 0a3d
00000310: 3396 18bd e6c3 6c3d 07e6 e8bc b9ac 373d
00000320: 81ef 7cbd 4341 6fbd cc40 4ebd abc1 7abc
00000330: 22df 733d 7320 763d de97 f3bc eaec f2bc
00000340: d0df a7bc 59cf 20bd 964b 7dbd 8ea0 1d3d
00000350: 0441 093b cfd0 c0bc 80a0 6fbd cd14 c53c
00000360: 508d 12bd 96f5 febc 2957 7d3d b4e4 58bd
00000370: d446 5f3d 596e 5a3d 00e0 5f3d 9f4c 5c3d
00000380: 4db4 9d3c 983a 4bbd 15b8 eabc f355 403c
00000390: 49aa 0ebd 1905 3a3d 135b ca3b 195a 1d3c
000003a0: 2e36 d2bc ddad 1d3d 7fee aebc 4e99 fd3c
000003b0: ce0e 223d 2bb0 613c e06b 93bb be4d 19bd
000003c0: c5f7 423d 1cd5 6ebd 911e 43bd 33f7 0d3d
000003d0: 96c4 2ebd 38cf d13c 6a2b 4c3d 4901 303d
000003e0: c0de 22bd a9d7 6e3d 22da 7dbd 1163 4fbd
000003f0: ce36 aabb fb71 0d3d c67a 6f3c 187c 6cbc
0.007498424 0.05286814 -0.048923634 -0.026678203 -0.016195579 0.05333593 -0.0068144784 -0.007826233
0.009250607 -0.025469732 0.033330157 -0.023725959 0.038856376 -0.021167452 0.018774778 -0.033982534
0.012026091 0.00560452 -0.023726221 -0.041627724 -0.007767058 0.019781811 0.0060695847 0.023417844
-0.060173016 0.04877358 -0.039200302 -0.022227023 0.03727223 0.009318172 -0.025719622 -0.040396947
0.06197713 0.052539077 0.0036324651 0.02539464 0.042772815 -0.046985034 -0.033905413 -0.042232763
0.050386973 0.033964187 0.013491152 -0.03637178 -0.03523084 0.02140204 0.050033625 0.03456494
0.0006156661 0.024784567 -0.02341125 0.057038143 -0.02032656 0.039061632 -0.018286258 -0.055718936
-0.02267343 0.01178574 -0.061450593 -0.009003603 0.0051489305 0.01833231 0.014519422 0.049918402
-0.019785788 -0.0076105283 -0.023757791 -0.029471476 -0.034901068 -0.019032842 -0.042445105 -0.05789945
0.058779947 -0.010899064 0.017413693 -0.029257553 0.034508478 0.0345007 0.030331729 0.048767056
0.017708825 0.019917702 0.048871275 0.013214519 0.06186582 -0.030307127 0.00054463866 -0.035860267
-0.005424173 -0.0014360858 -0.04779571 0.020722765 0.034398615 -0.03784436 -0.033719003 0.019600645
0.037837125 -0.012392493 0.021075659 -0.050069787 0.057803735 -0.03743739 0.043057654 0.006438487
-0.026411789 0.011993511 0.011346689 0.026636653 0.016445456 -0.049375124 0.026436066 -0.05450462
-0.037521467 0.03485738 -0.039135758 0.030754317 0.026148174 -0.057596 -0.0482739 -0.04550048
-0.00048648028 -0.029199386 -0.023626383 0.042261854 -0.048498675 -0.009281202 -0.05388939 0.04913112
-0.056043852 -0.055579793 -0.043960262 -0.040976282 -0.051518247 -0.061741896 -0.04185917 0.022343183
-0.028137919 -0.027230514 -0.058003046 -0.010459972 0.011669512 0.051977593 0.003989311 -0.00709205
0.050073393 -0.016623272 -0.05476141 -0.0028345988 -0.039918005 -0.020728016 -0.023907205 -0.02264027
0.053436413 -0.059284933 -0.03729946 -0.057704464 0.050760195 0.040339332 -0.02304483 -0.0060062516
-0.018788166 0.011025409 -0.021131182 -0.012361258 0.034637615 -0.055299673 -0.025080837 0.054249674
-0.013259008 0.027403494 0.0336656 -0.026079262 -0.050181735 -0.029365355 -0.004152287 -0.014365458
-0.014317929 -0.010557816 -0.061540138 -0.0020840243 0.045619775 -0.037168965 -0.0028496701 -0.004259398
0.04538786 -0.03972087 -0.045582198 0.056704223 -0.008931888 0.001540109 -0.060286738 0.033116914
-0.0076369485 -0.060854454 -0.046713136 0.03388497 -0.037252616 0.05780401 -0.028429998 0.044842456
-0.061751846 -0.058411848 -0.050354764 -0.015304963 0.059538968 0.06008954 -0.029735502 -0.029653985
-0.020492464 -0.039260242 -0.061839662 0.038483195 0.0020943293 -0.023537068 -0.058502674 0.02405777
-0.035779297 -0.031122964 0.0618507 -0.052952483 0.054510906 0.053327892 0.054656982 0.05378401
0.019251013 -0.049616426 -0.02865223 0.011739242 -0.034830365 0.045415018 0.0061754077 0.0096040005
-0.0256606 0.038495887 -0.021353958 0.03095689 0.0395649 0.013774912 -0.0044989437 -0.037427656
0.047599573 -0.058308706 -0.047636572 0.034659576 -0.042667948 0.025611505 0.04984609 0.042969976
-0.039763212 0.05831114 -0.061975606 -0.050631586 -0.0051945215 0.03453253 0.014616674 -0.014433883

branch_p.fc2.bias f4 [128]
00000000: 7aed 153b 8118 543d 58eb 8ebc 5804 55bc
00000010: c5ef 47bc a1e8 5cbc e8bb 13bc 5afb a13c
00000020: 9471 363d bafa f539 71c3 723d 7e82 e4ba
00000030: dea2 32bd 98e3 8bbc 59e8 28bd f8e9 00bd
00000040: ece8 243d 1b66 273c 2e3f bd3c 4a01 33bc
00000050: 24a9 383d 2ad3 33bc 62f9 053d e9bb 4dbd
00000060: 06bc 753d 7850 48bc 001c d4bb 1e54 353c
00000070: 2855 22bc 44b5 ec3c f04c 0e3c de13 453d
00000080: 595c 493d 68c3 493c 395c 6b3c c0da fb3c
00000090: 90b5 713d 449a 273d 8122 903b 8e28 273d
000000a0: e4b8 743d c074 01bc 338f d3bb ccf0 41bd
000000b0: 4e00 443d 6737 2ebd 6027 0bbb bd54 c1bb
000000c0: 6e6b d7bc bee3 813b 58b4 0cbd 20ea 4fbd
000000d0: 08cf 6c3d b9b4 2bbd 926c 97bb 4381 76bd
000000e0: 8649 4dbc 8043 34bd 7296 333d e6be 803c
000000f0: 4235 46bd fbb1 fc3c 885d 4f3c 5ce0 e6bc
00000100: 68ca 4fbc 94b1 51bd 4462 f2bc 7201 bb3c
00000110: d0ae 8dbc b4c6 debc 0c5c ccb9 f616 53bc
00000120: 7939 5e3d 15f9 9cbc e6e7 513d 1810 82bc
00000130: c7cb d7bc e381 7c3d e391 d8bb 1f28 4fbc
00000140: f5e2 163d 0649 79bd 4ab1 1bbd ffed fabc
00000150: 04ac 213c aebe 33bd 3025 b13b d0d7 a43c
00000160: 3e99 1e3d 5c33 513d ebad 043d d86c f43c
00000170: b7a4 0ebd e593 803c 44b1 a23c b1c8 683d
00000180: 0ca2 2bbd 215e fe3c 3410 6b3c d84d ef3c
00000190: f4d3 723d f013 fabb 02ad 5bbd a0a3 a43c
000001a0: cede 6dbd c2d8 b53c ac3b 8c3c 70f9 c33b
000001b0: ac3f ac3c 00d4 26b9 0db4 ee3c 7039 ebbb
000001c0: a84d fa3c 6f97 1d3d 89d2 023d 4c1c e43c
000001d0: bcf1 583d 80ae 033d bc05 11bd bcc6 32bd
000001e0: 1e0c 56bd 3e64 163d 67e5 013b e885 5cbd
000001f0: ab6d be3c 158e 0f3c 72b8 353d e5db 64bd
0.0022877143 0.05178118 -0.017446205 -0.013001524 -0.012203162 -0.013483197 -0.009016968 0.019773174
0.04454191 0.00046916847 0.05926842 -0.0017433909 -0.043612354 -0.017076299 -0.04123721 -0.03147313
0.040261194 0.010217215 0.023101415 -0.0109256 0.04508318 -0.010975638 0.032708533 -0.050228033
0.059993766 -0.0122262165 -0.0064730644 0.011067418 -0.009907998 0.028895028 0.0086853355 0.04811465
0.049160335 0.012314655 0.014365249 0.030743957 0.059011042 0.040918604 0.0043986444 0.04081016
0.059746638 -0.0079013705 -0.0064562797 -0.047348782 0.047851853 -0.042533305 -0.0021233186 -0.005899994
-0.026296344 0.0039639166 -0.034351677 -0.05076039 0.057814628 -0.041920397 -0.004621097 -0.060181867
-0.012529736 -0.044009686 0.043844648 0.015716027 -0.048390634 0.030846586 0.012656577 -0.028183155
-0.012682535 -0.051194742 -0.029587872 0.022827838 -0.017295271 -0.027194358 -0.00038978492 -0.012883892
0.05425403 -0.01916174 0.051246546 -0.015876815 -0.026342286 0.061647307 -0.006609188 -0.012643843
0.036837537 -0.060860656 -0.038010873 -0.030631064 0.009867672 -0.04388302 0.0054060444 0.020122439
0.038720362 0.05107437 0.032392424 0.029837057 -0.034825053 0.015695522 0.019859917 0.05683202
-0.041902587 0.031050744 0.014347125 0.029211923 0.059284166 -0.0076317713 -0.05363179 0.020097554
-0.05807381 0.022198085 0.017118298 0.005980663 0.021026455 -0.0001590997 0.02913859 -0.007178478
0.030554608 0.038474496 0.031939063 0.027845524 0.05296491 0.032148838 -0.03540586 -0.04364656
-0.05225765 0.036716692 0.0019820572 -0.05383864 0.023245653 0.008761902 0.044365354 -0.05587377
