d2calcbot/main/calc_bot/dota_model_ver1.pth (torch, 426084 bytes, 21 tensors)

branch_t.fc1.weight f4 [128, 35]
-0.017464628 -0.12081115 0.042956248 -0.024746107 0.10869206 0.047957808 -0.072652474 0.10412632
0.085139126 -0.12338694 0.13110112 -0.14627516 -0.08097339 0.098019816 -0.015243086 0.06713689
-0.07835685 0.028761676 -0.12727307 -0.02570113 -0.017320607 -0.082727954 -0.13146643 0.029028896
0.120856725 0.046495646 -0.018845044 0.020777572 -0.06403116 -0.07325022 0.039464075 0.06200211
0.1151365 0.035577778 0.08893788 0.089011215 0.0485684 0.007861216 0.07803898 0.09662224
-0.1471633 -0.00034886322 0.12559648 0.030854084 -0.09818392 -0.15181057 0.11952126 0.0052706366
0.066105045 -0.118862316 -0.047791712 0.076431245 0.10231373 0.105373755 0.03529399 -0.004542342
0.0054963175 0.14611648 -0.04804205 -0.14205208 0.09875657 0.070415474 0.050452698 -0.15230718
-0.027734807 0.055511255 0.095551506 0.059049997 -0.09960772 0.1558869 -0.007103236 -0.08270208
-0.1281849 0.0050146934 0.091561265 -0.011741428 -0.10268734 0.06974939 0.1617871 0.112460725
0.16741185 0.04917212 0.035031106 0.14698386 0.064560264 0.13207985 -0.07257412 0.07980384
-0.10708699 -0.1483133 0.06382103 0.07590005 -0.10916304 -0.086524576 0.14184439 0.12391603
-0.15225868 0.0048910268 -0.034573186 0.088323444 0.074642755 -0.049868535 0.024243439 -0.09515112
0.068005815 0.13499245 0.0718506 -0.14057386 0.15965341 -0.08700104 0.041762326 0.02518017
-0.14100334 -0.03757109 -0.012215088 0.06294595 0.017225511 -0.09518402 -0.0327891 -0.042733863
-0.119477764 -0.10224985 0.06398877 0.072776966 -0.101158805 0.01751787 0.09715263 0.14348638
-0.0908291 -0.043120462 0.042705532 -0.11930632 -0.147834 0.08010954 -0.002748242 0.13097814
0.04877068 -0.14252447 0.13049985 -0.10857267 0.056814346 0.13945422 -0.16916616 0.051819596
0.120649874 0.017731274 -0.14620306 0.053238206 -0.022035856 0.14629346 -0.035796497 0.14191589
0.055759534 0.0921719 0.115579985 -0.025254948 -0.058894143 0.012705981 0.039973084 0.056348637
-0.15250202 -0.15080985 0.085046515 0.038585827 -0.055188637 -0.03692037 -0.15244608 0.01320283
-0.10986316 -0.09858226 0.14828308 0.15221018 0.14847538 -0.10955213 0.14175017 0.08269933
0.011773087 -0.114620596 0.081357084 -0.006881955 0.06809652 -0.08313435 0.045961685 -0.07080032
0.046429336 0.084208585 -0.09425217 0.11129957 -0.09321463 -0.061836805 0.100058995 0.049517617
-0.12805997 -0.040569905 0.1654114 0.109422036 -0.16150014 -0.06282249 0.16502534 -0.13675456
-0.1530985 0.08466639 -0.16640691 -0.118198425 -0.097179495 -0.087385505 -0.14584468 0.068802945
0.016824817 0.06756617 0.10473375 -0.07592137 -0.11148398 -0.055836286 -0.036372196 0.08593162
-0.0641725 0.043158114 -0.08244702 0.06346633 -0.15518159 0.09280624 0.16772182 -0.12707576
-0.043661013 -0.11471639 -0.15483911 -0.14877853 -0.10556395 -0.0495113 0.07556644 -0.15552287
0.11380475 0.058080353 0.060369417 0.104611106 -0.11025738 -0.13806434 -0.060275525 -0.049121246
-0.13661976 0.112139724 -0.0153160505 -0.11030392 -0.010959024 0.14263672 -0.07904081 0.04256392
0.09772862 0.12888187 -0.057318836 -0.015868269 -0.1193299 -0.10000245 -0.08065425 0.101170175
00000000: fb11 8fbc d66b f7bd e4f2 2f3d 59b8 cabc
00000010: f199 de3d 686f 443d d2ca 94bd 2e40 d53d
00000020: 6c5d ae3d 4bb2 fcbd 5f3f 063e 28c9 15be
00000030: 60d5 a5bd 9dbe c83d 23be 79bc 117f 893d
00000040: 8e79 a0bd 9b9d eb3c df53 02be 2d8b d2bc
00000050: f2e3 8dbc 466d a9bd 239f 06be 02ce ed3c
00000060: bb83 f73d 3872 3e3d ec60 9abc ba35 aa3c
00000070: c522 83bd 3604 96bd 15a5 213d edf5 7d3d
00000080: afcc eb3d 01ba 113d 1025 b63d 834b b63d
00000090: a9ef 463d 54cc 003c e7d2 9f3d e2e1 c53d
000000a0: fab1 16be a1e7 b6b9 5d9c 003e b4c1 fc3c
000000b0: a714 c9bd 3b74 1bbe 90c7 f43d 4eb5 ac3b
000000c0: 1562 873d 166e f3bd 3ec1 43bd fc87 9c3d
000000d0: dc89 d13d 32ce d73d 6e90 103d edd7 94bb
000000e0: 741a b43b 8f9f 153e bec7 44bd 1a76 11be
000000f0: e240 ca3d fd35 903d 7da7 4e3d 6af6 1bbe
00000100: 1b34 e3bc c55f 633d 82b0 c33d 69de 713d
00000110: 22ff cbbd d1a0 1f3e 43c2 e8bb b55f a9bd
00000120: e742 03be 4c52 a43b 7984 bb3d 1e5f 40bc
00000130: bd4d d2bd c5d8 8e3d 84ab 253e cf51 e63d
00000140: 036e 2b3e b468 493d c77c 0f3d f082 163e
00000150: 2c38 843d f13f 073e bda1 94bd 3270 a33d
00000160: 6c50 dbbd 71df 17be 9ab4 823d 7c71 9b3d
00000170: df90 dfbd cc33 b1bd a83f 113e b0c7 fd3d
00000180: b3e9 1bbe e844 a03b 9d9c 0dbd ece2 b43d
00000190: 4dde 983d f342 4cbd 2d9a c63c 97de c2bd
000001a0: a246 8b3d 763b 0a3e 6826 933d 98f2 0fbe
000001b0: 2f7c 233e 9a2d b2bd f90e 2b3d a546 ce3c
000001c0: 2e63 10be 25e4 19bd cb21 48bc cee9 803d
000001d0: 841c 8d3c d7ef c2bd dd4d 06bd b409 2fbd
000001e0: c2b0 f4bd 5f68 d1bd 8b0c 833d 170c 953d
000001f0: 592c cfbd a381 8f3c f5f7 c63d 18ee 123e
00000200: 9b04 babd 159f 30bd ffeb 2e3d df56 f4bd
00000210: cc61 17be 7810 a43d da1b 34bb 221f 063e
00000220: c4c3 473d eff1 11be c1a1 053e 595b debd
00000230: 29b6 683d 16cd 0e3e e539 2dbe c940 543d
00000240: 4817 f73d 2d41 913c 41b6 15be 4e10 5a3d
00000250: 8a84 b4bc f4cd 153e 599f 12bd 6652 113e
00000260: 1c64 643d 9fc4 bc3d 33b5 ec3d 77e3 cebc
00000270: fc3a 71bd bf2c 503c d1ba 233d d4cd 663d
00000280: 7d29 1cbe e66d 1abe de2c ae3d 2c0c 1e3d
00000290: 7b0d 62bd d039 17bd d31a 1cbe af50 583c
000002a0: f0ff e0bd 7fe5 c9bd 85d7 173e fcdc 1b3e
000002b0: ee09 183e de5c e0bd f526 113e 445e a93d
000002c0: e8e3 403c 34be eabd 8b9e a63d 0682 e1bb
000002d0: 3076 8b3d 5842 aabd 5242 3c3d c2ff 90bd
000002e0: b02c 3e3d 8d75 ac3d 4807 c1bd 07f1 e33d
000002f0: 50e7 bebd 9748 7dbd bbeb cc3d fcd2 4a3d
00000300: 2722 03be a12c 26bd 9b61 293e a918 e03d
00000310: 4b60 25be 14a9 80bd 67fc 283e 6309 0cbe
00000320: dac5 1cbe 9365 ad3d 9366 2abe 0412 f2bd
00000330: 0b06 c7bd 2cf7 b2bd 4f58 15be 8fe8 8c3d
00000340: 33d4 893c 2260 8a3d a67e d63d aa7c 9bbd
00000350: b751 e4bd 97b4 64bd 03fb 14bd ebfc af3d
00000360: df6c 83bd 90c6 303d fcd9 a8bd a3fa 813d
00000370: ece7 1ebe 3311 be3d 45bf 2b3e 2620 02be
00000380: e4d5 32bd 6df0 eabd 258e 1ebe 6659 18be
00000390: ea31 d8bd 5ccc 4abd 94c2 9a3d 6341 1fbe
000003a0: 7712 e93d aae5 6d3d ec45 773d 593e d63d
000003b0: 9fce e1bd bd60 0dbe 78e3 76bd 5c33 49bd
000003c0: 0de6 0bbe 83a9 e53d 2cf0 7abc 06e7 e1bd
000003d0: 7a8d 33bc 5c0f 123e 26e0 a1bd 8157 2e3d
000003e0: f125 c83d 9cf9 033e 28c7 6abd 2cfe 81bc
000003f0: 3c63 f4bd 16ce ccbd 0e2e a5bd 4f32 cf3d

branch_t.fc1.bias f4 [128]
-0.13766217 -0.00066342094 -0.15104641 -0.14690426 -0.038445804 -0.15386485 -0.1574278 -0.007246925
0.045312747 0.12749995 0.14510654 -0.024875652 -0.1612585 -0.15473202 -0.038822453 0.015537469
0.033790104 0.063433796 0.08196485 0.10607151 0.12508495 0.07068443 -0.0986136 0.14161272
-0.10352182 0.10483384 -0.07009772 -0.094476335 -0.08685733 0.019126737 -0.059867166 -0.10839252
0.14717893 -0.08769042 0.03605444 -0.023592988 0.016166175 -0.024412975 -0.03883733 -0.16542928
0.01514016 -0.15988265 -0.16413079 0.12518875 -0.10421219 -0.08998391 -0.13038172 0.121426314
0.01519396 0.069043204 -0.16829145 -0.13619134 0.019643128 -0.09986218 0.085018806 0.027698398
0.039484985 0.070282236 -0.01026463 0.018130811 -0.06210984 0.08622591 0.15181872 0.064448304
-0.14953114 -0.07713045 0.013331894 -0.0053048376 0.1221866 -0.11399886 -0.03745493 0.1138723
-0.1041989 -0.10644368 0.1001676 -0.077493176 -0.11050499 0.097894624 -0.12186606 -0.044644084
-0.0041022957 -0.03227996 -0.07195974 0.02974295 0.16269147 0.123760894 0.082752906 -0.08191856
-0.13252917 -0.025672467 0.16269083 -0.10190917 -0.08775645 -0.16737278 -0.13253784 -0.074447714
-0.045350827 0.1321476 -0.00020975653 0.01932176 -0.10277347 -0.15707853 -0.051760744 -0.16470787
-0.09725514 0.1245307 0.059830796 -0.0634377 -0.10232803 -0.16548237 -0.09873497 -0.114658
0.11536953 -0.049688317 0.1110417 0.16772597 -0.0023899989 0.16224493 0.12476142 0.10840329
0.11080547 -0.15463889 0.011077695 -0.051954493 -0.092000075 -0.0058672605 0.15191838 0.07026681
00000000: 50f7 0cbe 6de9 2dba e9ab 1abe 126e 16be
00000010: 5979 1dbd bf8e 1dbe c134 21be 9d77 edbb
00000020: dc99 393d 598f 023e cf96 143e 06c8 cbbc
00000030: f320 25be 1272 1ebe 4b04 1fbd de90 7e3c
00000040: 7e67 0a3d 94e9 813d 30dd a73d 053c d93d
00000050: 4516 003e 00c3 903d edf5 c9bd ed02 113e
00000060: 3f03 d4bd 20b3 d63d 658f 8fbd cf7c c1bd
00000070: 41e2 b1bd adaf 9c3c 4637 75bd e6fc ddbd
00000080: 13b6 163e 0997 b3bd d2ad 133d 1546 c1bc
00000090: ed6e 843c b8fd c7bc e413 1fbd 4b66 29be
000000a0: 6f0e 783c 47b8 23be e711 28be 7b31 003e
000000b0: 336d d5bd 7c49 b8bd c982 05be 5cae f83d
000000c0: 16f0 783c 8666 8d3d 9854 2cbe be75 0bbe
000000d0: a0ea a03c 8b84 ccbd 571e ae3d c0e7 e23c
000000e0: 02bb 213d 22f0 8f3d fb2c 28bc 1187 943c
000000f0: e366 7ebd 3697 b03d 5e76 1b3e 79fd 833d
00000100: b11e 19be 92f6 9dbd 046e 5a3c 34d4 adbb
00000110: f83c fa3d 3c78 e9bd 576a 19bd e135 e93d
00000120: 3c66 d5bd 25ff d9bd ac24 cd3d beb4 9ebd
00000130: 7150 e2bd fa7c c83d ea94 f9bd b7dc 36bd
00000140: 8d6c 86bb fe37 04bd a15f 93bd 7da7 f33c
00000150: 9898 263e 5a76 fd3d 5b7a a93d ebc4 a7bd
00000160: bab5 07be 114f d2bc 6d98 263e c1b5 d0bd
00000170: a7b9 b3bd c563 2bbe 00b8 07be 0b78 98bd
00000180: cac1 39bd b351 073e 17f2 5bb9 ab48 9e3c
00000190: e67a d2bd 32d9 20be 1303 54bd 2ea9 28be
000001a0: b42d c7bd f409 ff3d 2311 753d a0eb 81bd
000001b0: 5c91 d1bd 3674 29be 8f35 cabd d0d1 eabd
000001c0: dc46 ec3d fa85 4bbd d569 e33d 5bc0 2b3e
000001d0: 87a1 1cbb 8923 263e ea82 ff3d 8b02 de3d
000001e0: faed e23d a859 1ebe 387f 353c 3cce 54bd
000001f0: 896a bcbd 2642 c0bb 7e90 1b3e 0ce8 8f3d

branch_t.fc2.weight f4 [64, 128]
-0.048690695 -0.07433884 -0.032807875 -0.057202313 -0.07237897 0.040003516 -0.040549863 0.04216761
0.06111657 0.041508846 -0.0064965338 0.08705922 0.029960275 0.079757236 0.03494647 0.059861176
-0.05665043 -0.009473771 0.0018089414 0.07531636 0.07551663 0.024118915 0.042737775 0.032494083
-0.07087725 0.024238735 0.06664162 0.049820803 0.036009908 -0.048334606 -0.020028569 0.028298676
-0.013547979 -0.051751357 0.056846894 0.08157525 -0.043988496 -0.027991395 0.086329855 -0.07209289
0.046917982 0.04243145 -0.026195869 -0.08738507 -0.011716023 -0.08372249 0.055895768 0.04003256
0.067431726 -0.058358528 0.0723192 -0.085198864 -0.0047639087 -0.041883178 0.04297086 -0.048387058
-0.038732786 -0.030390859 -0.0023485199 -0.068052806 0.052319966 -0.022597857 -0.084690385 0.04474219
-0.086250596 0.028417721 -0.07554744 -0.058588594 -0.037085168 -0.06382522 0.05385425 -0.016303495
0.043802924 0.041524567 -0.03146628 -0.01077278 0.06494812 0.06307141 0.05957315 0.0031300038
0.054707818 -0.046811134 0.053280108 0.03719642 0.08132803 -0.07037151 0.012419254 -0.000492014
-0.038173307 -0.051747035 -0.03662345 -0.064884715 -0.0009658709 0.07387211 -0.060100984 0.06655643
-0.081512176 0.055498682 0.039919622 0.011045285 0.045172207 0.08344107 -0.069056936 0.008310579
-0.05457354 -0.055292387 -0.07718943 -0.0672697 0.066791706 0.019679546 0.032454066 -0.081148885
0.088049166 0.018777102 -0.05697687 0.026109912 -0.06462101 0.066961475 -0.001493685 0.086520426
-0.02926797 -0.05267416 0.07026862 0.050298296 0.043578453 -0.032608405 0.065512665 0.048963137
-0.036644615 -0.0085591925 0.04309966 -0.021805089 -0.0326378 -0.082688294 0.01896096 0.0626621
0.013588266 0.07824404 -0.082348704 0.07478537 0.06137391 0.08380491 0.07574479 -0.0036912938
0.072708614 -0.053777926 -0.05744251 0.0725709 0.002719099 -0.01330782 0.044147614 -0.068731
-0.05681404 0.013953136 -0.04579878 0.061581872 0.03879259 -0.03281024 0.03759977 -0.035910822
-0.037948363 0.051396556 0.065769516 0.045920115 0.006715975 0.02976649 0.05031232 0.07264129
0.0467193 -0.042714976 0.07114913 0.029223736 0.088492416 -0.06762296 -0.0448093 -0.010852621
0.04379363 0.048463244 -0.04047002 0.06874053 0.03910371 0.058756217 -0.031074671 0.060543656
0.0018471541 0.057252508 0.005989538 0.042743936 0.07022525 -0.017855322 -0.050738253 -0.03012325
0.043478645 0.04922917 -0.0652326 -0.08019209 0.011758344 0.02536684 -0.046234664 0.06576083
0.016811786 0.019270683 0.06452403 -0.022837758 0.040895827 -0.06991832 0.031109734 0.018669471
0.073361754 0.08957391 -0.019963635 -0.062016588 0.062363703 -0.059617788 -0.019303853 -0.048123576
0.024143854 0.071421586 -0.028672548 0.036935985 0.026713591 0.006833811 -0.04054365 0.08669226
0.04161223 0.068191245 0.011171899 -0.05153323 0.025085757 0.046498403 -0.043101415 0.001657152
0.046644527 -0.0315989 -0.07358895 -0.074155375 0.026926974 0.0040234253 0.057195593 0.07964403
0.0553001 -0.029403793 0.0510884 -0.033477593 -0.06876799 -0.029935705 -0.053404715 -0.07457655
0.062646076 0.040053766 -0.037056446 -0.020660544 0.029633882 -0.0840173 0.018026523 -0.031856038
00000000: e56f 47bd f63e 98bd 8d61 06bd f94c 6abd
00000010: 6d3b 94bd bada 233d 9d17 26bd f2b7 2c3d
00000020: 5e55 7a3d 2e05 2a3d e0e0 d4bb 1b4c b23d
00000030: 406f f53c c357 a33d 0824 0f3d fe30 753d
00000040: 480a 68bd e037 1bbc 001a ed3a 773f 9a3d
00000050: 77a8 9a3d 0895 c53c ce0d 2f3d 8418 053d
00000060: 1728 91bd 5090 c63c 677b 883d e610 4c3d
00000070: 207f 133d 82fa 45bd f412 a4bc a0d2 e73c
00000080: 58f8 5dbc 3bf9 53bd 4ad8 683d ed10 a73d
00000090: 482d 34bd 364e e5bc b5cd b03d 70a5 93bd
000000a0: 122d 403d 9acc 2d3d b898 d6bc f2f6 b2bd
000000b0: 90f4 3fbc b276 abbd f6f2 643d 2ef9 233d
000000c0: a519 8a3d 5a09 6fbd 171c 943d be7c aebd
000000d0: 901a 9cbb b28d 2bbd 3602 303d 8231 46bd
000000e0: 45a6 1ebd 40f6 f8bc a0e9 19bb 455f 8bbd
000000f0: 764d 563d 241f b9bc 2772 adbd 9643 373d
00000100: 27a4 b0bd 48cc e83c 9eb8 9abd 98fa 6fbd
00000110: 9ee6 17bd ccb6 82bd 4696 5c3d e88e 85bc
00000120: b26a 333d aa15 2a3d c9e2 00bd 5080 30bc
00000130: 8503 853d 952b 813d fa02 743d c020 4d3b
00000140: 4e15 603d 08bd 3fbd 3e3c 5a3d 465b 183d
00000150: 4f8f a63d f01e 90bd 207a 4b3c 80fa 00ba
00000160: 9d5b 1cbd b3f4 53bd 7902 16bd 47e2 84bd
00000170: 8032 7dba 434a 973d 732c 76bd bd4e 883d
00000180: dbef a6bd 9652 633d c282 233d 48f7 343c
00000190: 7e06 393d 27e3 aa3d b96d 8dbd 1829 083c
000001a0: 8188 5fbd 457a 62bd 7e15 9ebd b2c4 89bd
000001b0: 17ca 883d 0037 a13c 8eee 043d 6331 a6bd
000001c0: 1f53 b43d 70d2 993c 9460 69bd 74e4 d53c
000001d0: 0558 84bd 1923 893d c0c7 c3ba 9f31 b13d
000001e0: 62c3 efbc dcc0 57bd ffe8 8f3d 9605 4e3d
000001f0: 527f 323d 6490 05bd 812b 863d 928d 483d
00000200: aa18 16bd db3b 0cbc 4589 303d 96a0 b2bc
00000210: 37af 05bd 7b58 a9bd 0454 9b3c fd54 803d
00000220: 52a1 5e3c 693e a03d 70a6 a8bd 1229 993d
00000230: 3663 7b3d e9a1 ab3d 1620 9b3d a2e9 71bb
00000240: 41e8 943d 3e46 5cbd d648 6bbd 0da0 943d
00000250: e932 323b 0b09 5abc 21d4 343d d7c2 8cbd
00000260: d7b5 68bd b29b 643c 8097 3bbd 463d 7c3d
00000270: fbe4 1e3d 0864 06bd 3702 1a3d 3a17 13bd
00000280: be6f 1bbd 3285 523d 2bb2 863d bb16 3c3d
00000290: ae11 dc3b dbd8 f33c 4b14 4e3d f5c4 943d
000002a0: bd5c 3f3d e6f5 2ebd a3b6 913d 9e66 ef3c
000002b0: 833b b53d e87d 8abd f589 37bd 31cf 31bc
000002c0: f360 333d 6581 463d e4c3 25bd d6c7 8c3d
000002d0: 362b 203d 5caa 703d 4f90 febc a0fc 773d
000002e0: 351c f23a 9b81 6a3d e343 c43b 4414 2f3d
000002f0: 42d2 8f3d 5345 92bc ead2 4fbd 09c5 f6bc
00000300: aa16 323d 87a4 493d ab98 85bd c03b a4bd
00000310: 12a6 403c 1fce cf3c 8f60 3dbd 9dad 863d
00000320: dfb8 893c 8ddd 9d3c 2d25 843d 4016 bbbc
00000330: 6282 273d 5631 8fbd d7d9 fe3c b8f0 983c
00000340: b03e 963d 8772 b73d c78a a3bc 1b05 7ebd
00000350: 1571 7f3d c831 74bd 1d23 9ebc 3a1d 45bd
00000360: 55c9 c53c 7b45 923d b1e2 eabc 304a 173d
00000370: 76d6 da3c 29ee df3b 1911 26bd b68b b13d
00000380: 9671 2a3d daa7 8b3d 570a 373c 8214 53bd
00000390: a580 cd3c 1c75 3e3d 1c8b 30bd cb34 d93a
000003a0: 550e 3f3d d96d 01bd ceb5 96bd c6de 97bd
000003b0: f595 dc3c f0d6 833b ed45 6a3d 691c a33d
000003c0: 5c82 623d 39e0 f0bc 1242 513d cd1f 09bd
000003d0: 3bd6 8cbd b93b f5bc e7be 5abd 97bb 98bd
000003e0: 964c 803d 6b0f 243d 80c8 17bd 4d40 a9bc
000003f0: c1c2 f23c 4311 acbd 5cac 933c 7a7b 02bd

branch_t.fc2.bias f4 [64]
-0.0003727451 0.080838 0.012718126 0.063514665 0.05711519 -0.03497798 -0.02012315 0.017333843
0.08714145 -0.034299348 -0.076051 0.061351277 0.009422876 0.024577588 -0.022724856 0.071968205
0.019241612 0.0044487016 -0.08358796 0.03637976 -0.056726255 -0.07574171 -0.04871613 0.06352188
-0.058381576 -0.044019386 0.01636835 0.081162155 -0.05943597 -0.07436182 -0.052395105 0.05932739
0.0015188232 0.038351662 0.04213693 0.0048294193 -0.008634481 0.01661608 0.07846441 0.00051045325
-0.037148576 0.073396176 0.07352205 0.057452753 -0.042762708 0.0045074434 0.046606444 0.050046187
0.034426965 -0.08633234 -0.03787707 0.022032479 -0.081931695 0.063161105 -0.068534456 -0.037084233
0.075707175 0.08189665 -0.051768027 -0.0036465547 -0.057543725 -0.05789837 0.05751906 -0.060299926
00000000: 006d c3b9 658e a53d b05f 503c fa13 823d
00000010: 9ef1 693d 1245 0fbd 4ed9 a4bc b4ff 8d3c
00000020: 3777 b23d 797d 0cbd a0c0 9bbd 7a4b 7b3d
00000030: 6862 1a3c f056 c93c 7a29 babc 1164 933d
00000040: 96a0 9d3c 6ac6 913b 2a30 abbd f102 153d
00000050: ca59 68bd 781e 9bbd 918a 47bd c217 823d
00000060: 8521 6fbd ac4d 34bd eb16 863c 5838 a63d
00000070: 2273 73bd 034b 98bd 409c 56bd 4701 733d
00000080: 4013 c73a a216 1d3d c697 2c3d 1b40 9e3b
00000090: a377 0dbc 721e 883c f3b1 a03d f0cf 053a
000000a0: 1b29 18bd bc50 963d bb92 963d 9453 6b3d
000000b0: f327 2fbd 2db3 933b 66e6 3e3d 3bfd 4c3d
000000c0: 4a03 0d3d 03cf b0bd fd24 1bbd 757d b43c
000000d0: cecb a7bd 9c5a 813d cb5b 8cbd a3e5 17bd
000000e0: 5d0c 9b3d 6eb9 a73d b60a 54bd 09fb 6ebb
000000f0: f8b2 6bbd d726 6dbd 1b99 6b3d 0efd 76bd

branch_t.fc3.weight f4 [16, 64]
-0.11311595 0.05323391 -0.109521315 -0.012187256 0.05762273 0.05187512 0.015556766 -0.028766051
0.11961032 -0.016273696 0.07785182 -0.10157254 -0.035586864 0.075119406 0.0005589924 -0.023410307
-0.12590528 -0.08002916 0.0835229 0.102894664 0.07819976 -0.034194313 0.056878813 -0.06798784
0.10615858 -0.016808685 -0.027713493 -0.10685056 0.072896734 0.027587712 -0.035890147 0.042054772
-0.10911523 -0.012285247 0.10956165 0.08662494 -0.045114033 -0.062029872 -0.09856318 0.00749088
0.0063663935 -0.033563666 0.06745546 0.12392951 0.0052323043 0.05180588 -0.0655179 0.014860547
0.04417494 0.019528748 -0.07736049 -0.11051832 0.11998646 -0.072861925 -0.07392289 -0.11343326
-0.041038364 0.017266802 0.122547954 0.08543027 -0.022238076 0.045662105 -0.068270706 -0.0170746
-0.11026506 -0.03199531 0.066335425 0.11360104 0.0771855 0.05292797 0.115289405 -0.03235939
0.11672323 -0.003972964 -0.033791363 0.098532595 0.122101665 0.011774595 -0.12067951 -0.03917498
0.08570158 0.029525861 0.02392444 0.014413716 -0.06917101 0.017038202 -0.0026790982 -0.12250996
-0.08526655 0.038575314 -0.012961176 -0.077394225 0.105986424 0.102145374 -0.04319273 0.061161395
-0.05774781 0.08186975 -0.08767918 0.056670804 -0.07359964 0.08364918 -0.04269436 0.03919254
0.10885303 -0.013389301 -0.06436822 -0.009221995 0.108648285 -0.10194254 0.09800099 -0.087129295
-0.05880167 -0.09951484 0.05441255 0.09404936 0.034595493 0.07410391 0.08391866 0.042824984
-0.06290415 0.018071206 0.077662 -0.11287586 0.105452955 0.0113848 0.11651562 -0.11159812
0.060176194 0.08411868 0.10451889 -0.031429265 0.09751275 0.07034202 0.08761274 -0.006959766
0.07775004 -0.10053581 0.09734097 -0.09168389 -0.098756015 0.003399731 0.08783209 -0.06959164
-0.102587044 -0.04244069 -0.027115718 0.10291072 -0.028644651 -0.10708983 0.008931368 0.048720453
0.07009859 0.04034986 -0.10279756 0.08320321 -0.004371269 0.11886643 0.11396128 0.00037585266
0.055198237 0.09713189 0.068175286 -0.011378001 0.032275267 0.086581 -0.06413618 -0.10257762
0.120203726 -0.02251192 0.03832988 0.018344725 0.12077911 0.04808676 0.018046573 -0.004710489
-0.033330537 0.05355522 0.06864781 -0.10142867 0.116699696 -0.117844254 -0.10102253 -0.027863666
0.10366735 0.049450606 0.0891711 0.098695725 -0.049113363 -0.02109082 0.05270956 0.0697113
0.035208672 -0.016857537 0.028745607 -0.10314007 -0.11363126 0.030813565 0.11915613 -0.031243488
-0.08673891 0.07297129 0.086683705 -0.09850032 -0.005874023 0.071457334 -0.07176446 -0.096902214
0.050482422 -0.1162857 -0.04556918 -0.041386586 0.02814366 -0.10940338 -0.081339784 0.081448704
0.08461293 0.107768446 0.0038924827 -0.059526667 -0.056981217 0.004540384 0.019464493 0.05018407
-0.025772631 0.043463275 0.035880774 -0.018755779 -0.12021324 0.057158727 0.055016533 -0.08839241
0.08785342 0.00927699 0.036382645 -0.075822815 -0.10788615 0.1244866 -0.06680632 -0.112957984
0.12183891 -0.114065915 0.07865673 0.11654489 0.07512332 -0.1180103 -0.009490166 -0.02367872
-0.08087017 -0.094856694 -0.07005081 0.09004916 0.08444475 -0.031217545 0.1169873 -0.028758138
00000000: 56a9 e7bd cd0b 5a3d b64c e0bd 0ead 47bc
00000010: d005 6c3d 017b 543d cee1 7e3c c8a6 ebbc
00000020: 41f6 f43d 6a50 85bc c670 9f3d 4405 d0bd
00000030: 88c3 11bd 34d8 993d 5889 123a f9c6 bfbc
00000040: 50ed 00be 54e6 a3bd 0e0e ab3d 70ba d23d
00000050: 3227 a03d 560f 0cbd c2f9 683d 353d 8bbd
00000060: ab69 d93d 5eb2 89bc 6807 e3bc 77d4 dabd
00000070: e24a 953d a0ff e13c 8c01 13bd a041 2c3d
00000080: ce77 dfbd 1048 49bc dc61 e03d 6b68 b13d
00000090: 7ec9 38bd 0913 7ebd 7edb c9bd 0e76 f53b
000000a0: 2e9d d03b 0e7a 09bd 1726 8a3d c1ce fd3d
000000b0: c073 ab3b 6732 543d 402e 86bd a779 733c
000000c0: c8f0 343d c1fa 9f3c 2d6f 9ebd 6e57 e2bd
000000d0: 76bb f53d a238 95bd e264 97bd b24f e8bd
000000e0: d817 28bd 1c73 8d3c 6cfa fa3d 11f6 ae3d
000000f0: a02c b6bc 3008 3b3d 83d1 8bbd 08e0 8bbc
00000100: a6d2 e1bd 840d 03bd deda 873d a9a7 e83d
00000110: 6e13 9e3d 00cb 583d da1c ec3d 488b 04bd
00000120: 970c ef3d a32f 82bb d068 0abd 75cb c93d
00000130: 7010 fa3d 3bea 403c d226 f7bd f275 20bd
00000140: 4f84 af3d 38e0 f13c 30fd c33c 8227 6c3c
00000150: 88a9 8dbd b393 8b3c cf93 2fbb 80e6 fabd
00000160: 3ba0 aebd 2601 1e3d 1d5b 54bc dd80 9ebd
00000170: 690f d93d 9831 d13d dcea 30bd 5f84 7a3d
00000180: f888 6cbd 54ab a73d 2491 b3bd a51f 683d
00000190: 68bb 96bd 4350 ab3d 48e0 2ebd 5b88 203d
000001a0: 56ee de3d cc5e 5bbc 7cd3 83bd da17 17bc
000001b0: fe82 de3d 40c7 d0bd beb4 c83d d870 b2bd
000001c0: 05da 70bd 70ce cbbd b2df 5e3d f39c c03d
000001d0: 01b4 0d3d cac3 973d 8cdd ab3d 4069 2f3d
000001e0: e4d3 80bd 110a 943c 410d 9f3d 752b e7bd
000001f0: b8f7 d73d 5087 3a3c be9f ee3d 8e8d e4bd
00000200: 507b 763d 6a46 ac3d 000e d63d f9bb 00bd
00000210: c4b4 c73d 7a0f 903d 4f6e b33d c00e e4bb
00000220: 6a3b 9f3d b8e5 cdbd b45a c73d c3c4 bbbd
00000230: 9840 cabd 05ce 5e3b 50e1 b33d 1086 8ebd
00000240: 2819 d2bd 4ad6 2dbd c821 debc dbc2 d23d
00000250: 30a8 eabc ea51 dbbd df54 123c 198f 473d
00000260: d98f 8f3d e545 253d 8787 d2bd 7266 aa3d
00000270: dd3c 8fbb 3e70 f33d 8864 e93d 170e c539
00000280: 8c17 623d 16ed c63d 7c9f 8b3d cc6a 3abc
00000290: 1233 043d 6151 b13d d459 83bd 3714 d2bd
000002a0: 5f2d f63d eb6a b8bc cbff 1c3d ad47 963c
000002b0: 0a5b f73d 9ff6 443d 68d6 933c 725a 9abb
000002c0: 9a85 08bd b85c 5b3d 3997 8c3d d6b9 cfbd
000002d0: 4000 ef3d 5458 f1bd e6e4 cebd 5842 e4bc
000002e0: 8c4f d43d b88c 4a3d 569f b63d fc20 ca3d
000002f0: 182b 49bd a8c6 acbc fbe5 573d ccc4 8e3d
00000300: f836 103d d118 8abc e87b eb3c 1a3b d3bd
00000310: 82b7 e8bd bb6c fc3c 2108 f43d 58f2 ffbc
00000320: 2ba4 b1bd f971 953d 3a87 b13d 89ba c9bd
00000330: e07a c0bb 3958 923d 3ff9 92bd ab74 c6bd
00000340: a8c6 4e3d 3227 eebd c0a6 3abd fb84 29bd
00000350: 888d e63c e10e e0bd 7995 a6bd 94ce a63d
00000360: 8b49 ad3d b4b5 dc3d 0619 7f3b 3cd2 73bd
00000370: 2365 69bd 80c7 943b 0074 9f3c d08d 4d3d
00000380: 2021 d3bc 8c06 323d b8f7 123d b8a5 99bc
00000390: 5c32 f6bd 451f 6a3d 0459 613d 1407 b5bd
000003a0: 7eec b33d 84fe 173c f805 153d fe48 9bbd
000003b0: 6af3 dcbd d5f2 fe3d c0d1 88bd 8456 e7bd
000003c0: ae86 f93d 649b e9bd c816 a13d 16af ee3d
000003d0: 41da 993d 62af f1bd a47c 1bbc e0f9 c1bc
000003e0: 429f a5bd 3a44 c2bd cd76 8fbd b26b b83d
000003f0: 5ef1 ac3d f0bb ffbc 0a97 ef3d 3096 ebbc

branch_t.fc3.bias f4 [16]
0.10858908 0.042670757 -0.06086508 0.016833283 0.038991272 -0.12083446 0.11437894 0.059538614
-0.036622528 -0.0825707 -0.12311906 0.06619233 0.09541533 0.09974483 -0.095540054 0.06574481
00000000: f463 de3d 88c7 2e3d aa4d 79bd f4e5 893c
00000010: 50b5 1f3d 0f78 f7bd 813f ea3d c3de 733d
00000020: 8101 16bd d41a a9bd d925 fcbd d88f 873d
00000030: 1d69 c33d 0447 cc3d 81aa c3bd 37a5 863d

branch_p.fc1.weight f4 [256, 34]
-0.1081819 -0.11432862 0.061949622 -0.16614862 0.022767324 0.003534091 0.110287145 -0.11064051
0.057237994 -0.0027811665 -0.15568094 0.15876423 0.13034284 -0.08964191 0.11761205 -0.021805985
0.16047327 0.07477736 -0.003483215 -0.09356865 -0.036766216 0.07779207 -0.14310329 -0.028274678
0.12035361 0.07015448 0.050243177 -0.063964695 -0.018849734 0.07138663 0.15934412 0.061441507
-0.061767243 0.08218039 -0.11017012 0.14845057 -0.06609959 -0.012910216 0.15247047 0.021667572
0.05705492 0.13857193 0.103007436 -0.056503925 0.10246592 -0.00926976 0.036231007 -0.101487465
-0.028881721 0.021809094 0.13966636 0.105608225 -0.15283208 -0.00039772285 -0.06319332 -0.05347319
0.1499406 -0.1652626 -0.04537898 0.021424955 -0.01442925 -0.0140206525 -0.009374138 0.17103201
-0.09868993 -0.08785354 0.08998891 -0.16210286 -0.059939608 -0.10638403 -0.07247461 0.1319073
0.12897182 -0.0746329 0.13264602 -0.10244883 -0.008604933 -0.15125915 0.10579816 0.083649285
-0.15560931 -0.05949953 -0.03309314 0.099467866 -0.09169697 -0.028795123 0.11125626 0.16509618
-0.0274222 0.06502481 -0.049976755 -0.051344085 0.14250654 0.07177781 0.13982804 -0.157783
0.14266536 0.1406153 -0.110353224 0.012229693 -0.092244096 -0.030915996 -0.042560603 -0.0024610737
-0.04223558 0.04297806 0.05342756 0.1357034 0.15531284 0.011189531 -0.07137343 0.07745255
0.027648672 0.029359387 0.021611428 0.08895479 -0.088141724 0.13180381 0.05814015 0.005468194
-0.09140418 -0.122462645 0.11314712 -0.12895177 0.006954263 -0.1603236 0.0697906 0.15058027
0.04148644 0.041448317 -0.074223675 0.11215018 -0.026895644 0.1457501 -0.12996797 0.079611406
0.11783759 0.09248482 0.038793474 -0.102183454 -0.101406395 -0.12932968 0.10504917 0.105537884
-0.14368738 0.010306792 0.024064876 -0.11689493 0.046066437 0.12239933 0.10749482 0.0067696474
-0.008578513 0.15173799 -0.07109949 -0.048367944 0.07143661 0.05955292 0.057723306 0.009388186
-0.09091781 -0.079551905 0.06583992 0.11972364 -0.022637814 -0.10838261 -0.102201946 0.006374821
0.0070583518 -0.025813298 0.100336656 -0.07790693 -0.10720048 0.0041079246 0.13141342 0.0046396567
0.12010833 -0.123090245 -0.14985754 0.14313795 0.117678784 -0.13143949 -0.07149189 0.1257196
0.13060781 -0.08943966 0.11900122 0.08355886 -0.046471063 -0.043136835 0.039485753 -0.06299311
-0.0023122712 0.004279746 -0.023760887 -0.120572746 0.11380503 0.0871434 -0.16374719 -0.10165383
0.07391245 -0.030141788 -0.029017312 -0.07492523 -0.092679195 -0.083267555 0.03249982 0.079473466
0.097399056 0.15195152 0.0657486 0.005828674 0.04566814 0.043772202 -0.016578892 0.10660745
0.11392415 0.0007737417 -0.07290648 -0.021235263 -0.047798716 -0.1551872 -0.018566167 0.16922584
0.041198518 -0.073165454 0.028518638 -0.059618548 0.10617148 0.07562074 -0.120819435 0.00472766
0.13221166 -0.119644135 -0.010438211 0.14102584 0.15884319 0.019836728 0.08537711 -0.105969936
0.00884233 -0.15903367 0.085824646 0.021468349 0.12456075 -0.16431503 -0.05584151 -0.16980867
0.038749814 0.16851509 0.044708658 -0.16294006 0.04218708 0.06798361 -0.05131038 0.021538954
00000000: 798e ddbd 2025 eabd e3be 7d3d dd22 2abe
00000010: 8a82 ba3c 359c 673b 3ade e13d 7e97 e2bd
00000020: 6372 6a3d 3b44 36bb d36a 1fbe 1793 223e
00000030: 9878 053e 2d96 b7bd 96de f03d 77a2 b2bc
00000040: 1b53 243e df24 993d a746 64bb eca0 bfbd
00000050: 2c98 16bd 7351 9f3d ab89 12be 4ca0 e7bc
00000060: f47b f63d 27ad 8f3d cacb 4d3d ecff 82bd
00000070: c26a 9abc 2733 923d 1b2b 233e 17aa 7b3d
00000080: a6ff 7cbd 314e a83d dfa0 e1bd 6d03 183e
00000090: 395f 87bd 5f85 53bc 3821 1c3e 3180 b13c
000000a0: 6bb2 693d cde5 0d3e 90f5 d23d a970 67bd
000000b0: a7d9 d13d 31e0 17bc f766 143d a9d8 cfbd
000000c0: 5c99 ecbc fca8 b23c b304 0f3e 2049 d83d
000000d0: 0380 1cbe 7585 d0b9 806b 81bd b406 5bbd
000000e0: 078a 193e 993a 29be 4fdf 39bd 6383 af3c
000000f0: a968 6cbc e1b6 65bc fc95 19bc 0423 2f3e
00000100: f21d cabd 8fec b3bd 1b4c b83d 4bfe 25be
00000110: 3c83 75bd dfdf d9bd 916d 94bd b512 073e
00000120: 3011 043e 22d9 98bd 5cd4 073e b1d0 d1bd
00000130: b4fb 0cbc aee3 1abe b5ac d83d 5150 ab3d
00000140: 0c58 1fbe c7b5 73bd ac8c 07bd cfb5 cb3d
00000150: 9fcb bbbd c0e3 ebbc 52da e33d f90e 293e
00000160: 86a4 e0bc ba2b 853d 6db4 4cbd 2d4e 52bd
00000170: 3ced 113e 3f00 933d 152f 0f3e de91 21be
00000180: de16 123e 75fd 0f3e df00 e2bd 0d5f 483c
00000190: 79ea bcbd 8b43 fdbc 0754 2ebd f749 21bb
000001a0: 37ff 2cbd c309 303d dbd6 5a3d d5f5 0a3e
000001b0: 540a 1f3e 4b54 373c 3c2c 92bd 719f 9e3d
000001c0: 787f e23c 1983 f03c 730a b13c ee2d b63d
000001d0: a683 b4bd 94f7 063e 5e24 6e3d 892e b33b
000001e0: 1d32 bbbd b2cd fabd adb9 e73d ef0b 04be
000001f0: 96e0 e33b df2b 24be 60ee 8e3d b731 1a3e
00000200: afed 293d b6c5 293d 9502 98bd feae e53d
00000210: 4154 dcbc 843f 153e 5316 05be 4e0b a33d
00000220: d654 f13d ae68 bd3d e8e5 1e3d 8f45 d1bd
00000230: 28ae cfbd 006f 04be 0524 d73d 3f24 d83d
00000240: c922 13be d2dd 283c b423 c53c 9c66 efbd
00000250: 29b0 3c3d 80ac fa3d 3f26 dc3d ebd3 dd3b
00000260: e48c 0cbc 3461 1b3e 9c9c 91bd 771d 46bd
00000270: 5b4d 923d c3ed 733d 466f 6c3d e8d0 193c
00000280: 1e33 babd 1cec a2bd 14d7 863d ab31 f53d
00000290: f072 b9bc b4f7 ddbd 414f d1bd e0e3 d03b
000002a0: bf49 e73b 6976 d3bc 4e7d cd3d ab8d 9fbd
000002b0: ed8b dbbd c59b 863b 3d91 063e 4308 983b
000002c0: 5bfb f53d bd16 fcbd 4174 19be c192 123e
000002d0: 9301 f13d 1398 06be 576a 92bd a4bc 003e
000002e0: 0ebe 053e 242c b7bd e9b6 f33d e820 ab3d
000002f0: 7158 3ebd 40b0 30bd d0bb 213d 8802 81bd
00000300: 7989 17bb 1d3d 8c3b 31a6 c2bc d8ee f6bd
00000310: 9d12 e93d 3d78 b23d 58ad 27be e22f d0bd
00000320: 695f 973d e9eb f6bc b7b5 edbc 6672 99bd
00000330: 97ce bdbd 2e88 aabd 881e 053d fcc2 a23d
00000340: 2879 c73d 2e99 1b3e 34a7 863d 76fe be3b
00000350: 840e 3b3d 7b4a 333d 75d0 87bc 0255 da3d
00000360: 1151 e93d edd4 4a3a fe4f 95bd 93f5 adbc
00000370: 96c8 43bd 65e9 1ebe 1318 98bc 8a49 2d3e
00000380: c7bf 283d c5d7 95bd eb9f e93c 9432 74bd
00000390: 6f70 d93d 0cdf 9a3d 2e70 f7bd 7dea 9a3b
000003a0: 7e62 073e fc07 f5bd 0805 2bbc 1469 103e
000003b0: caa7 223e a280 a23c 32da ae3d c406 d9bd
000003c0: 6cdf 103c b9d9 22be d5c4 af3d 64de af3c
000003d0: b519 ff3d 3342 28be 11ba 64bd 53e2 2dbe
000003e0: 20b8 1e3d 388f 2c3e 6d20 373d c2d9 26be
000003f0: 5ccc 2c3d fe3a 8b3d d52a 52bd 7672 b03c

branch_p.fc1.bias f4 [256]
0.026151033 0.0372663 0.16242366 0.14653192 0.0687481 -0.048235606 -0.0073444787 0.014100526
-0.027406892 0.11530537 -0.1589397 0.0017235234 -0.013544168 0.05693149 0.11357321 0.01757279
0.10808434 0.12790605 -0.0048786527 0.06328142 -0.035578854 0.016279776 0.10064124 -0.16063529
-0.00925436 -0.16504303 0.06454758 0.15707497 -0.041656636 -0.11837183 0.090750694 0.14640626
0.17069072 -0.14413983 -0.1218019 -0.10119424 -0.07356809 0.03652593 0.03700304 0.14786145
-0.12594591 -0.06676055 -0.060358252 0.08555517 -0.07629932 -0.09254029 0.0058262344 -0.08627987
-0.034049217 0.02468087 0.097984605 -0.07321472 0.07086896 0.0012735738 0.1126599 -0.13204311
0.019549496 -0.059586402 -0.10336781 0.018473135 0.04595821 -0.0055217925 0.10032333 0.04309282
-0.095249616 -0.16899805 -0.021560866 0.12609911 -0.050277025 -0.14986178 0.022435728 -0.13558173
-0.035523668 -0.111405455 0.05585015 -0.05529485 0.08559529 0.15026838 0.023957504 0.046964943
0.14118911 0.06541642 -0.018659858 0.11113315 0.1627674 -0.0076268353 0.07095707 -0.075530104
-0.109070785 0.0026047595 -0.13210693 -0.14466749 0.0044623083 -0.09300996 0.07910255 0.09994021
-0.15693969 -0.08296445 0.0031841486 -0.08252616 -0.027790723 0.15499838 -0.10187396 0.08672903
0.12740341 0.07485554 0.14250949 0.023471046 -0.13243577 -0.034409467 -0.1660587 -0.13855319
0.005266972 0.07370358 -0.12416686 0.15058206 0.104625724 0.16207258 -0.13015887 -0.126584
0.11377251 -0.02804674 0.13340399 0.08010797 0.021350356 -0.0014571248 0.15783884 -0.13512766
0.14238411 0.1615127 -0.06022307 -0.1645518 0.06650845 -0.14555033 -0.082493864 0.16363014
0.01525207 -0.16104834 -0.14110875 0.04395327 0.0023118993 -0.034137104 -0.014023213 0.008102422
-0.12667103 -0.10004676 -0.05548771 0.0135316355 0.0039883666 -0.1070845 -0.13527368 0.012849447
0.06401868 -0.03427943 0.068739556 0.034012135 -0.14072326 0.030875036 0.16346489 -0.10723043
0.039354987 0.11093623 0.06868472 -0.026618171 0.05266707 0.15232109 -0.0053515737 0.009521937
-0.12747239 -0.13133545 -0.038868804 -0.16042605 -0.16399461 0.13776569 -0.009524625 -0.0019612513
-0.0039463174 -0.13866237 -0.07773606 -0.095046565 -0.16364834 -0.055938415 -0.01379157 -0.06567765
-0.13428313 -0.049703605 0.013670716 0.10862949 0.16644496 0.1014082 0.07396618 0.09193431
0.1319497 0.12980261 -0.045281004 0.112869285 0.1702393 -0.13260184 0.13437515 -0.09142547
0.008440489 -0.07546281 0.16705768 0.018675894 -0.073945925 -0.09233469 -0.09326464 0.021478625
0.07741925 -0.1605527 -0.15170097 -0.12419694 0.08991293 -0.105249375 0.1548077 0.14923082
-0.16056113 -0.13696535 -0.10241842 0.064190134 -0.15590827 -0.07786935 -0.11065049 0.008374949
-0.14343639 -0.010212514 0.024550717 0.14949727 -0.13779485 -0.010116904 -0.03835359 0.09734
0.13185629 -0.019153614 0.044842105 -0.09505244 0.14990926 -0.118214116 0.09443506 -0.11591376
-0.022465711 0.11351755 0.05248464 -0.038421944 -0.14134458 -0.08487859 -0.14265212 -0.022205126
0.1141852 -0.008275178 -0.098596886 -0.11517877 0.02501741 0.15039963 -0.10371098 -0.13498563
00000000: b13a d63c 8ca4 183d 6352 263e 770c 163e
00000010: cecb 8c3d b392 45bd f4a9 f0bb e505 673c
00000020: 6b84 e0bc 3925 ec3d 17c1 22be d9e7 e13a
00000030: 5ce8 5dbc fe30 693d 1299 e83d d0f4 8f3c
00000040: 535b dd3d cef9 023e 1bdd 9fbb b099 813d
00000050: 22bb 11bd 2a5d 853c ff1c ce3d 947d 24be
00000060: 999f 17bc 0a01 29be 8631 843d 43d8 203e
00000070: 26a0 2abd ee6c f2bd 80db b93d 86eb 153e
00000080: 8cc9 2e3e 6499 13be 4673 f9bd ed3e cfbd
00000090: deaa 96bd 379c 153d 8090 173d fe68 173e
000000a0: f7f7 00be c1b9 88bd 373a 77bd 8d37 af3d
000000b0: d142 9cbd c385 bdbd ffe9 be3b 80b3 b0bd
000000c0: 3177 0bbd 892f ca3c 27ac c83d 99f1 95bd
000000d0: bf23 913d 0cee a63a 3cba e63d 4f36 07be
000000e0: 4426 a03c df10 74bd 81b2 d3bd f954 973c
000000f0: ad3e 3c3d 27f0 b4bb 5176 cd3d 1982 303d
00000100: 3b12 c3bd d30d 2dbe 6aa0 b0bc 2020 013e
00000110: 48ef 4dbd 5e75 19be 22cb b73c f0d5 0abe
00000120: 4481 11bd 8b28 e4bd 20c3 643d da7c 62bd
00000130: 954c af3d f4df 193e 8742 c43c 505e 403d
00000140: e193 103e 0bf9 853d 8fdc 98bc c799 e33d
00000150: 7fac 263e 88ea f9bb f151 913d 87af 9abd
00000160: 8160 dfbd 9db4 2a3b 0a47 07be b723 14be
00000170: 8e38 923b 027c bebd 8500 a23d 74ad cc3d
00000180: ccb4 20be 44e9 a9bd 26ad 503b 7a03 a9bd
00000190: 5fa9 e3bc e5b7 1e3e 4ba3 d0bd fd9e b13d
000001a0: 0a76 023e dd4d 993d 02ee 113e 5a46 c03c
000001b0: 3e9d 07be f1f0 0cbd 4b0b 2abe e3e0 0dbe
000001c0: 9096 ac3b e7f1 963d 324b febd 2f32 1a3e
000001d0: 0346 d63d 5bf6 253e 5e48 05be 3c9f 01be
000001e0: 9001 e93d 47c2 e5bc 0e9b 083e a60f a43d
000001f0: f1e6 ae3c fffc beba 81a0 213e e85e 0abe
00000200: 24cd 113e 9663 253e 77ac 76bd 4480 28be
00000210: 9535 883d 250b 15be 8bf2 a8bd a98e 273e
00000220: d1e3 793c dbe9 24be d07e 10be 5808 343d
00000230: 3c83 173b 59d3 0bbd 9ec1 65bc 05c0 043c
00000240: 0db6 01be 51e5 ccbd 1547 63bd cbb3 5d3c
00000250: d8b0 823b 1e4f dbbd 2f85 0abe 7d86 523c
00000260: 3a1c 833d 9668 0cbd 53c7 8c3d 4f50 0b3d
00000270: c219 10be a5ed fc3c 5763 273e a19b dbbd
00000280: b232 213d 8932 e33d 93aa 8c3d 5a0e dabc
00000290: 6db9 573d 0ffa 1b3e 415c afbb e601 1c3c
000002a0: 1f88 02be cd7c 06be e534 1fbd ba46 24be
000002b0: 34ee 27be 7312 0d3e 2c0d 1cbc 5688 00bb
000002c0: 1c50 81bb 82fd 0dbe 1534 9fbd c6a7 c2bd
000002d0: 6e93 27be ae1f 65bd 0af6 61bc 0182 86bd
000002e0: 8481 09be 0296 4bbd 24fb 5f3c 2379 de3d
000002f0: 8c70 2a3e 1aaf cf3d 957b 973d 0e48 bc3d
00000300: d21d 073e faea 043e 9378 39bd 0328 e73d
00000310: 3653 2e3e c7c8 07be a499 093e 473d bbbd
00000320: fa49 0a3c 3f8c 9abd 2b11 2b3e 30fe 983c
00000330: f670 97bd f819 bdbd 8801 bfbd f1f3 af3c
00000340: fc8d 9e3d ed67 24be 8057 1bbe f75a febd
00000350: 4524 b83d fc8c d7bd e985 1e3e f7cf 183e
00000360: 236a 24be a540 0cbe c0c0 d1bd 1e76 833d
00000370: 6ba6 1fbe f779 9fbd b99c e2bd 1537 093c
00000380: fde0 12be 6352 27bc 961e c93c d015 193e
00000390: 181a 0dbe 5fc1 25bc a718 1dbd 325a c73d
000003a0: 5605 073e 0ae8 9cbc 5bac 373d dbaa c2bd
000003b0: d081 193e 3e1a f2bd 2b67 c13d 3264 edbd
000003c0: 030a b8bc e47b e83d 22fa 563d 5460 1dbd
000003d0: a2bc 10be d4d4 adbd 6613 12be 86e7 b5bc
000003e0: eed9 e93d 9d94 07bc 2aed c9bd d9e2 ebbd
000003f0: 50f1 cc3c 5c02 1a3e 6c66 d4bd ac39 0abe

branch_p.fc2.weight f4 [128, 256]
-0.026032481 -0.060630016 -0.012855836 0.053720765 -0.040370032 0.041891366 0.02115263 -0.023979833
0.03860687 -0.041258156 0.039933547 -0.03549961 0.03151851 0.05507837 -0.04137713 -0.021331497
0.05551148 0.0071635563 0.00615779 0.0431777 -0.028903175 0.02101763 0.061691705 0.03476867
0.047594264 0.06358721 -0.053872574 -0.038034584 0.051450398 -0.059629295 -0.044923693 0.02418209
-0.054707177 -0.04231206 -0.03584835 0.022946337 0.062424887 0.0035126 -0.015287238 0.03484994
0.043928523 0.01196114 0.02533646 0.012930375 -0.030281294 0.035169046 -0.014539662 -0.05258231
-0.053874403 0.040903438 -0.037917256 -0.006683171 0.062899075 -0.022513518 0.056083255 0.05379898
0.016947867 -0.0582836 -0.060270615 0.0029017716 -0.058462523 -0.058126625 -0.04719006 -0.021222338
-0.005588448 -0.0128307715 -0.038060445 -0.03955263 -0.024012187 -0.019899458 -0.04520798 -0.043551102
0.013099124 0.015153686 -0.036594696 0.052614972 -0.019386426 0.03247478 0.021345101 0.05807784
-0.003412298 0.014287382 -0.0035436747 0.048694674 -0.021964846 0.050431777 0.013852169 -0.0515967
0.049511388 -0.0012908874 -0.043571904 0.05598176 0.023765672 -0.01780151 0.040637873 -0.055328958
0.007718728 0.057981603 -0.022709185 -0.031880528 -0.049729716 -0.041444276 0.054079752 -0.05016675
0.036012523 -0.013771835 -0.008045195 0.0076172417 0.028353175 0.014120198 0.025962122 -0.05635678
0.01120807 -0.022623748 -0.03175913 0.052159492 0.007662481 0.037914917 -0.030008147 -0.062411346
-7.484325e-05 0.058763526 0.059874434 0.017370395 -0.0053572142 -0.030499717 0.006197043 -0.011305958
-0.022061663 -0.044493616 -0.044961482 -0.054786757 -0.062072527 -0.0039004334 0.009456559 0.06038339
-0.054511946 0.04369438 -0.047306627 0.03400939 -0.060820036 0.04992023 -0.055732273 -0.011726498
-0.0061976463 0.043136634 -0.009211709 0.061462946 -0.007740665 0.050687708 -0.017313149 0.01712495
-0.041712683 -0.015322786 0.005156252 0.053903125 0.045012362 -0.05515761 0.017069917 -0.0390562
0.050875932 0.0070421565 0.02291261 -0.059924122 -0.06087235 -0.02121931 0.02417947 -0.0014008181
0.011730613 0.0009416101 -0.009436674 0.032848295 0.018727295 -0.013809383 0.044656094 0.020778926
0.0093241455 0.03879074 -0.012916193 -0.019035542 -0.046951655 0.04871444 0.0406369 0.04751348
-0.025933655 0.04473848 0.06259647 -0.01448312 -0.039018705 0.03649509 -0.009925969 -0.029030234
0.04356566 -0.037261687 -0.013055957 -0.030338861 0.029751929 -0.053328346 0.02604397 -0.050843224
-0.05365304 0.041691482 -0.030057136 0.04023404 0.0065198573 -0.018798083 -0.021447357 -0.03681336
-0.033824157 -0.05715536 -0.037462953 0.02356337 0.03502924 -0.056765765 0.056962606 -0.0014247582
0.03244948 0.0127093205 -0.014851653 0.059647005 0.049380723 -0.0046750084 -0.047271352 -0.036221325
-0.037531927 0.041341525 0.022110265 -0.019999072 -0.02445607 0.024262896 0.009510832 0.030086022
0.0075316136 -0.0194123 0.028927527 -0.026956178 0.04075266 -0.02769308 -0.019333553 0.004527966
-0.05893071 -0.013665693 -0.0048252787 -0.020142486 -0.05684482 -0.02633018 2.4125518e-05 -0.029262627
-0.059433434 0.04586825 -0.033967722 0.013936702 -0.061084405 -0.02353188 -0.02311681 -0.049733788
00000000: 1242 d5bc 2e57 78bd 49a1 52bc 4e0a 5c3d
00000010: 0c5b 25bd 4896 2b3d 4848 ad3c 5b71 c4bc
00000020: 3d22 1e3d 50fe 28bd 5c91 233d 0a68 11bd
00000030: 8e19 013d db99 613d 117b 29bd 64bf aebc
00000040: 0160 633d 44bc ea3b 49c7 c93b 1adb 303d
00000050: 5ac6 ecbc 2a2d ac3c 71b0 7c3d 9869 0e3d
00000060: 34f2 423d 033a 823d 7da9 5cbd 27ca 1bbd
00000070: a7bd 523d d93d 74bd e801 38bd 8519 c63c
00000080: a214 60bd 694f 2dbd b8d5 12bd f5f9 bb3c
00000090: 3db1 7f3d a633 663b 5377 7abc d0be 0e3d
000000a0: 65ee 333d a8f8 433c 688e cf3c ecd9 533c
000000b0: 7a10 f8bc 6b0d 103d c337 6ebc 8c60 57bd
000000c0: 68ab 5cbd 5d8a 273d 204f 1bbd 80fe dabb
000000d0: 3bd1 803d 456e b8bc 8eb7 653d 525c 5c3d
000000e0: 41d6 8a3c c9ba 6ebd 52de 76bd a62b 3e3b
000000f0: 6676 6fbd 2f16 6ebd 5d4a 41bd 78da adbc
00000100: 4d1f b7bb 2838 52bc 45e5 1bbd f001 22bd
00000110: 35b5 c4bc 3004 a3bc 012c 39bd a462 32bd
00000120: b59d 563c 2a47 783c 52e4 15bd cc82 573d
00000130: 48d0 9ebc 4604 053d ecdb ae3c 07e3 6d3d
00000140: dca0 5fbb a015 6a3c ff3c 68bb 1174 473d
00000150: 9fef b3bc 8d91 4e3d 35f4 623c 1057 53bd
00000160: 74cc 4a3d fe32 a9ba 7478 32bd 214d 653d
00000170: 3ab0 c23c 79d4 91bc e673 263d 9ea0 62bd
00000180: 62ed fc3b 1e7e 6d3d 9d08 babc 2895 02bd
00000190: 63b1 4bbd 79c1 29bd bb82 5d3d a67b 4dbd
000001a0: de81 133d 43a3 61bc fecf 03bc 0e9a f93b
000001b0: eb44 e83c 6758 673c 84ae d43c 5ed6 66bd
000001c0: 0ea2 373c 7055 b9bc dd15 02bd 31a5 553d
000001d0: 8d15 fb3b ac4c 1b3d a5d3 f5bc 0aa3 7fbd
000001e0: 2af5 9cb8 06b2 703d e53e 753d 5c4c 8e3c
000001f0: 928b afbb 8bda f9bc 9110 cb3b a03c 39bc
00000200: a9ba b4bc f03e 36bd 8829 38bd 1468 60bd
00000210: c33f 7ebd 6a9e 7fbb afef 1a3c 9354 773d
00000220: eb47 5fbd e1f8 323d 98c4 41bd 6e4d 0b3d
00000230: 6e1e 79bd 2879 4c3d 8647 64bd 7f20 40bc
00000240: a015 cbbb 0ab0 303d b5ec 16bc 92c0 7b3d
00000250: 68a5 fdbb ea9d 4f3d 4ed4 8dbc a049 8c3c
00000260: ebda 2abd 6c0c 7bbc c7f5 a83b 86c9 5c3d
00000270: e25e 383d f2ec 61bd 36d6 8b3c 65f9 1fbd
00000280: 4863 503d e4c1 e63b 3ab3 bb3c ff72 75bd
00000290: 4955 79bd 1ed4 adbc 0614 c63c a89b b7ba
000002a0: c231 403c 62d6 763a 489c 1abc ef8b 063d
000002b0: fc69 993c c040 62bc 4fe9 363d 9138 aa3c
000002c0: 4dc4 183c 0ae3 1e3d 719e 53bc 6df0 9bbc
000002d0: 6150 40bd cb88 473d e172 263d 7f9d 423d
000002e0: d172 d4bc b23f 373d 9432 803d 9c4a 6dbc
000002f0: 14d2 1fbd e07b 153d 88a0 22bc d0d0 edbc
00000300: e871 323d b69f 18bd a7e8 55bc 3489 f8bc
00000310: 51ba f33c d36e 5abd 2a5a d53c fc40 50bd
00000320: 4ac3 5bbd b0c4 2a3d 623a f6bc 73cc 243d
00000330: 87a4 d53b 70fe 99bc 5eb2 afbc 9bc9 16bd
00000340: 338b 0abd bd1b 6abd c172 19bd f807 c13c
00000350: d27a 0f3d 3883 68bd 9f51 693d f4be baba
00000360: bfe9 043d c13a 503c 5954 73bc 6b50 743d
00000370: 7143 4a3d d030 99bb 9b9f 41bd d05c 14bd
00000380: 14bb 19bd bb55 293d 9620 b53c 18d5 a3bc
00000390: 1958 c8bc fbc2 c63c 52d3 1b3c f676 f63c
000003a0: c1cb f63b 8b06 9fbc 6cf9 ec3c 34d3 dcbc
000003b0: 43ec 263d 99dc e2bc 6661 9ebc 555f 943b
000003c0: 5461 71bd 12e6 5fbc 5f1d 9ebb db01 a5bc
000003d0: 1dd6 68bd 64b2 d7bc 2861 ca37 2db8 efbc
000003e0: 7970 73bd 59e0 3b3d bd21 0bbd c456 643c
000003f0: a433 7abd eec5 c0bc 775f bdbc a8b5 4bbd

branch_p.fc2.bias f4 [128]
-0.034653105 -0.025563678 0.060206354 -0.022702247 -0.02156987 -0.05817624 0.0055975365 -0.0148181
-0.030323002 0.015784493 -0.02254272 0.032492206 -0.02587439 -0.01912792 -0.0070951995 0.01146794
-0.030279687 0.009536713 -0.031438135 -0.029548233 0.016889036 0.043983884 0.06060712 0.013986316
-0.012200646 0.02956754 -0.039176114 -0.06051269 -0.05020109 0.015691157 0.053481285 0.028892726
-0.015163452 0.037435703 0.004644636 0.0069775865 -0.03529202 -0.017261617 0.040712252 -0.030461513
-0.020053566 0.05506926 -0.044709727 -0.05431337 0.059453055 0.0051759062 -0.018364392 -0.036409523
0.029091757 0.058984913 -0.05431439 -0.015112528 0.029187074 0.048828416 0.05914452 -0.00712188
0.03713447 0.008982321 -0.0030622557 -0.015436921 0.012183536 -0.041289724 0.02014049 0.017847843
0.024801837 -0.011482902 -0.0015374944 0.011224918 -0.04372824 -0.006915435 -0.054771677 0.050801154
-0.029002357 -0.050328843 0.048004724 0.058349535 0.060587183 -0.028793618 -0.021351602 0.007900879
-0.033893682 0.04839118 0.042511787 0.0447542 -0.017295979 -0.04880415 0.01467669 -0.009401917
-0.029483974 -0.036842834 -0.051631104 0.037445948 0.055020317 0.01253055 -0.04213781 -0.055278834
0.057976596 0.05602567 -0.057374053 -0.027500754 -0.036675937 0.021600064 -0.034699094 -0.052891046
-0.044526935 0.00073186914 -0.052902542 -0.055575885 -0.01982095 0.02032949 -0.010638947 0.010792211
0.04068064 0.018998867 -0.048384402 0.03125269 0.059735563 -0.050098445 0.024197869 -0.021074155
0.0013826713 -0.05511089 0.04530161 -0.0039426824 0.056308474 -0.037477147 -0.052321628 -0.0591773
00000000: 6af0 0dbd eb6a d1bc f09a 763d 10fa b9bc
00000010: 4cb3 b0bc 364a 6ebd 8a6b b73b 9ec7 72bc
00000020: f267 f8bc 7b4e 813c 83ab b8bc 8c16 053d
00000030: 87f6 d3bc 28b2 9cbc d97e e8bb 07e4 3b3c
00000040: 1b0d f8bc e03f 1c3c 46c5 00bd 230f f2bc
00000050: e05a 8a3c 7228 343d 2c3f 783d dc26 653c
00000060: 38e5 47bc a037 f23c 2277 20bd 28dc 77bd
00000070: a89f 4dbd be8a 803c 310f 5b3d 70b0 ec3c
00000080: 2170 78bc 2e56 193d 0832 983b 3da4 e43b
00000090: 5d8e 10bd 3c68 8dbc e4c1 263d 6c8a f9bc
000000a0: 6047 a4bc 4e90 613d 8c21 37bd b277 5ebd
000000b0: 0c85 733d a69a a93b ec70 96bc 2722 15bd
000000c0: d651 ee3c 2a9a 713d c478 5ebd 899a 77bc
000000d0: bb19 ef3c 4e00 483d 8641 723d a95e e9bb
000000e0: 501a 183d 962a 133c 20b0 48bb 24eb 7cbc
000000f0: 749d 473c 6a1f 29bd abfd a43c a435 923c
00000100: 392d cb3c c822 3cbc c085 c9ba b8e8 373c
00000110: 621c 33bd e09a e2bb 4458 60bd df14 503d
00000120: 5a96 edbc 9e25 4ebd 9aa0 443d ecff 6e3d
00000130: 442a 783d 98e0 ebbc 8ee9 aebc b072 013c
00000140: 1ad4 0abd d435 463d d720 2e3d 2e50 373d
00000150: 4cb0 8dbc dce6 47bd 8076 703c 800a 1abc
00000160: 6088 f1bc 83e8 16bd 237b 53bd ec60 193d
00000170: fc5c 613d f04c 4d3c b298 2cbd 0f6c 62bd
00000180: de78 6d3d 2c7b 653d 0e01 6bbd 4349 e1bc
00000190: 8239 16bd 9ef2 b03c a320 0ebd 48a4 58bd
000001a0: e061 36bd e8da 3f3a 56b0 58bd 8aa3 63bd
000001b0: 8c5f a2bc 088a a63c fa4e 2ebc d0d1 303c
000001c0: bea0 263d 83a3 9b3c b92e 46bd d202 003d
000001d0: 47ad 743d 0734 4dbd 9c3a c63c b5a3 acbc
000001e0: c03a b53a f5bb 61bd 2e8e 393d 9e31 81bb
000001f0: b7a3 663d a381 19bd 344f 56bd e663 72bd
