d2calcbot/main/calc_bot/dota_model.pth (torch, 489058 bytes, 28 tensors)

branch_t.fc1.weight f4 [128, 35]
0.04339199 0.0019459618 -0.12237485 0.014490657 -0.11207502 -0.16206336 -0.0775298 0.11420659
-0.04670554 -0.048560567 -0.011865204 0.11276177 0.161107 0.09214274 -0.041879676 0.051688164
-0.13133392 -0.16384718 -0.09756708 0.15542796 0.10876551 -0.07945179 0.16023287 0.07204113
0.15966773 -0.12708543 -0.09425163 -0.115099154 0.03546774 0.00943979 0.076263264 0.046210453
0.076113455 -0.034124404 -0.013792768 0.004463698 -0.10557249 0.07962064 -0.059631895 -0.15086173
-0.020063959 -0.06249336 -0.02970567 0.07593998 0.018113554 0.019881606 0.07495946 0.051828828
-0.061548427 -0.03635373 0.0509287 -0.13645338 0.11387032 -0.11108744 0.15827686 0.045720123
0.07868439 -0.075235404 -0.0845095 0.16408952 0.035472125 0.030449674 -0.09287834 0.150976
-0.0017342266 0.15579718 0.08958906 -0.037677485 0.10402857 -0.16471753 0.061960943 -0.0706383
0.09611743 0.06513875 0.14739674 -0.16100623 0.062156845 0.07369129 -0.13572088 0.11107941
-0.09159072 0.05340968 -0.021145187 -0.019448735 0.014661928 -0.15763098 -0.1269317 0.013003898
-0.012250874 0.043047354 -0.07998334 -0.026186593 0.015929364 -0.13978489 -0.15097803 -0.07617578
0.117175765 -0.13922879 0.13578364 -0.05572684 0.093983844 -0.15002012 0.047351055 0.029066753
0.13047406 -0.03477288 -0.027907344 0.07881889 0.14744492 0.10542006 0.038257465 -0.09891353
0.04103392 -0.0076228436 0.09863864 0.14576432 0.16616897 -0.14740661 -0.15174937 0.09022678
-0.0073314314 0.07383413 0.14836057 -0.05999215 -0.087947994 -0.1528297 -0.037485808 0.11889852
0.060573902 0.056597635 0.05713434 0.1437262 -0.14201295 -0.13065101 -0.017332088 0.014192846
0.013604889 -0.084264405 -0.12668614 0.00020591085 -0.061798926 -0.024065755 -0.1418589 -0.14821711
-0.044902224 -0.01894017 0.037848417 -0.020687047 -0.07729277 -0.08425287 -0.053632643 -0.07043902
0.025646556 -0.16897859 0.056105882 0.072116226 -0.10932494 -0.09234951 -0.12087239 0.13994178
-0.015228328 0.043212138 -0.12742965 -0.116456896 -0.14746284 -0.16689801 0.102513924 -0.16631588
0.10354303 -0.04004856 0.11649937 0.0584096 0.09954797 -0.025897339 0.124254085 0.1462264
-0.031533718 0.15173864 -0.036954865 -0.08154313 -0.0935326 -0.16893137 0.030960474 -0.10663959
0.11142669 0.11411587 0.12906313 -0.08854595 -0.048041005 -0.07469216 0.1642471 0.02589787
0.11086877 0.009846525 0.15891872 -0.13457647 0.15400326 -0.031454984 -0.02302138 -0.0032036433
0.15685889 -0.1623844 -0.031707097 0.13399921 0.13029765 0.0803164 -0.1228871 -0.0067975055
-0.014057756 -0.15780516 0.12941258 -0.026042406 -0.053973168 -0.08958391 0.00761299 -0.14013496
-0.16791043 0.1329816 0.16087234 0.15493074 0.12698789 0.031397544 0.10704272 0.05751712
0.09095129 -0.04176688 -0.14441961 0.12438192 -0.037754383 0.045350716 0.010184425 -0.025156641
0.15173686 0.124091126 0.16472329 0.089987226 -0.06631521 -0.10965435 0.06658184 -0.072777376
0.12316972 0.08345395 0.057789117 0.054593105 -0.05484293 0.113704994 -0.04483921 -0.162657
-0.08858124 0.12373407 0.0059389933 -0.009814134 -0.045487624 -0.14939371 0.14570317 -0.09674012
00000000: cdbb 313d a50f ff3a aa9f fabd 386a 6d3c
00000010: 9787 e5bd f0f3 25be f2c7 9ebd 25e5 e93d
00000020: 4f4e 3fbd 72e7 46bd 4666 42bc a5ef e63d
00000030: 3cf9 243e 55b5 bc3d 068a 2bbd f8b6 533d
00000040: 667c 06be 8ec7 27be 40d1 c7bd 8228 1f3e
00000050: 74c0 de3d 9fb7 a2bd 1614 243e 4d8a 933d
00000060: f07f 233e af22 02be 0007 c1bd 1bb9 ebbd
00000070: 9f46 113d 59a9 1a3c ea2f 9c3d 2c47 3d3d
00000080: 5fe1 9b3d 08c6 0bbd 10fb 61bc 3644 923b
00000090: 6436 d8bd 2510 a33d 9340 74bd 7f7b 1abe
000000a0: 2c5d a4bc 0af9 7fbd 4e59 f3bc 6c86 9b3d
000000b0: e062 943c c0de a23c 5884 993d 774a 543d
000000c0: 341a 7cbd a6e7 14bd 9d9a 503d 6fba 0bbe
000000d0: d834 e93d d081 e3bd 5413 223e 0645 3b3d
000000e0: 4825 a13d 0515 9abd 5113 adbd 1507 283e
000000f0: 384b 113d 9871 f93c 0037 bebd 7499 1a3e
00000100: fd4e e3ba 4c89 1f3e 787a b73d b553 1abd
00000110: ee0c d53d b6ab 28be c2ca 7d3d d0aa 90bd
00000120: 37d9 c43d 7767 853d 2cef 163e d1de 24be
00000130: 2d98 7e3d 76eb 963d 6afa 0abe 9a7d e33d
00000140: ea93 bbbd 1cc4 5a3d ac38 adbc f452 9fbc
00000150: 9538 703c 046a 21be 62fa 01be 4d0e 553c
00000160: e4b7 48bc 6c52 303d 4ece a3bd 4485 d6bc
00000170: 4c7e 823c c523 0fbe fc99 1abe 0c02 9cbd
00000180: d9f9 ef3d fe91 0ebe de0a 0b3e d441 64bd
00000190: 9a7a c03d e09e 19be 2ef3 413d 661d ee3c
000001a0: fe9a 053e 026e 0ebd f19d e4bc cc6b a13d
000001b0: cdfb 163e 79e6 d73d dcb3 1c3d 2d93 cabd
000001c0: 2f13 283d 0cc9 f9bb 0e03 ca3d 3e43 153e
000001d0: 3328 2a3e c2f1 16be 3064 1bbe d1c8 b83d
000001e0: 813c f0bb 5936 973d d5eb 173e 54ba 75bd
000001f0: 141e b4bd 647f 1cbe b88a 19bd 1181 f33d
00000200: 571c 783d ecd2 673d b305 6a3d f62c 133e
00000210: d86b 11be 61c9 05be 06fc 8dbc 1c89 683c
00000220: 0ae7 5e3c d192 acbd 03ba 01be c6e9 5739
00000230: df20 7dbd 8c25 c5bc 7643 11be 3ac6 17be
00000240: 65eb 37bd 6a28 9bbc f106 1b3d e277 a9bc
00000250: ac4b 9ebd c58c acbd e7ad 5bbd 5542 90bd
00000260: ba18 d23c b908 2dbe 48cf 653d acb1 933d
00000270: c1e5 dfbd bd21 bdbd f28b f7bd e64c 0f3e
00000280: 3d80 79bc 36ff 303d eb7c 02be f480 eebd
00000290: 8000 17be 50e7 2abe d2f2 d13d b64e 2abe
000002a0: 5e0e d43d f509 24bd 3997 ee3d e83e 6f3d
000002b0: cedf cb3d a826 d4bc ed78 fe3d 60bc 153e
000002c0: 8029 01bd 6061 1b3e fc5d 17bd 1600 a7bd
000002d0: 058e bfbd 58fc 2cbe d2a0 fd3c db65 dabd
000002e0: ad33 e43d 95b5 e93d 2029 043e 9457 b5bd
000002f0: a5c6 44bd 34f8 98bd 6430 283e c527 d43c
00000300: 2a0f e33d 5253 213c 97bb 223e 6ace 09be
00000310: 08b3 1d3e f1d6 00bd 5597 bcbc 37f4 51bb
00000320: 9e9f 203e 1948 26be 4ddf 01bd 1737 093e
00000330: bf6c 053e ed7c a43d 3bac fbbd 9cbd debb
00000340: 8152 66bc ad97 21be bb84 043e e256 d5bc
00000350: f812 5dbd c577 b7bd 6476 f93b 8a7f 0fbe
00000360: b6f0 2bbe 542c 083e b8bb 243e 2aa6 1e3e
00000370: 1d09 023e b69a 003d 3739 db3d 1297 6b3d
00000380: ac44 ba3d bf13 2bbd bce2 13be f3bb fe3d
00000390: 57a4 1abd acc1 393d 93dc 263c 4d15 cebc
000003a0: e860 1b3e 7d23 fe3d 39ad 283e 394b b83d
000003b0: 45d0 87bd 7692 e0bd 0f5c 883d 4e0c 95bd
000003c0: 6840 fc3d e8e9 aa3d 48b4 6c3d 059d 5f3d
000003d0: fba2 60bd 2ade e83d 52a9 37bd 8e8f 26be
000003e0: 156a b5bd 4a68 fd3d e39b c23b 76cb 20bc
000003f0: 3b51 3abd aafa 18be 3633 153e af1f c6bd

branch_t.fc1.bias f4 [128]
-0.06631935 0.01228581 -0.0765053 -0.05539902 -0.119884424 -0.099877514 -0.14324015 0.11582715
0.15859771 -0.006264564 0.03140566 0.056759816 0.13053933 -0.05268205 0.10302934 -0.16936024
0.11964908 -0.07189062 -0.09478049 -0.048684295 -0.043867204 0.06428183 0.11663989 0.0635412
-0.023961008 0.100173794 -0.13584067 0.15287635 0.12089236 -0.030313281 -0.049851034 0.00094719423
-0.11988432 0.16758426 -0.05901279 -0.08943167 -0.11092352 0.020437134 0.061490312 0.035975248
-0.048639957 0.021690955 -0.12491281 -0.014855091 -0.01536518 0.09249624 0.14763768 0.15326808
0.0054173777 -0.1042594 -0.07662705 0.059062015 -0.10213897 0.07084938 -0.10134669 0.043932352
0.14081617 -0.11326393 -0.11759103 -0.064957716 0.05577602 0.02519207 0.037849404 -0.14329204
-0.011002176 0.14071898 0.13404374 -0.16488536 0.0036812786 0.07083264 0.055641383 0.1269761
-0.054122206 0.10235855 0.0818506 -0.027847681 -0.03844649 -0.038463026 -0.01745449 0.10757223
-0.08187066 0.06563535 0.15044993 0.08910911 -0.08560807 0.06278441 0.11826055 0.13257866
-0.15560286 0.101398066 -0.11899875 0.13964657 0.10924266 0.14184776 -0.026243595 -0.16467617
0.068908535 -0.120336 0.16114928 0.12413407 -0.15030193 0.032234974 0.16913386 0.14100984
0.12939015 0.0880612 0.11387886 0.020212734 0.08542068 0.0036785 -0.06581396 -0.14276375
0.07198087 0.15171155 -0.10866768 -0.07060978 -0.073072195 0.14239109 -0.11974408 -0.022906436
-0.08093648 -0.04153289 0.07984634 -0.1326437 -0.02160711 -0.02177694 -0.1689907 0.14437595
00000000: 70d2 87bd 6c4a 493c d0ae 9cbd 15ea 62bd
00000010: f785 f5bd 958c ccbd 8cad 12be c936 ed3d
00000020: 7067 223e f946 cdbb 39a3 003d fb7c 683d
00000030: 1aac 053e 22c9 57bd 0c01 d33d c56c 2dbe
00000040: 940a f53d 643b 93bd 461c c2bd 2f69 47bd
00000050: 19ae 33bd 31a6 833d e5e0 ee3d e321 823d
00000060: e049 c4bc eb27 cd3d d119 0bbe 9e8b 1c3e
00000070: 6a96 f73d 8f53 f8bc 9930 4cbd 214d 783a
00000080: e985 f5bd 359b 2b3e 65b7 71bd f427 b7bd
00000090: df2b e3bd c76b a73c 44dd 7b3d c85a 133d
000000a0: b13a 47bd 3bb1 b13c 4ad2 ffbd c562 73bc
000000b0: 3cbe 7bbc ab6e bd3d 552e 173e 4ff2 1c3e
000000c0: 4284 b13b f485 d5bd a5ee 9cbd 03eb 713d
000000d0: 3c2e d1bd 7b19 913d da8e cfbd 69f2 333d
000000e0: 1d32 103e ebf6 e7bd 91d3 f0bd 8d08 85bd
000000f0: 6575 643d 9a5f ce3c fa07 1b3d 26bb 12be
00000100: 7942 34bc a318 103e c342 093e b5d7 28be
00000110: 9b41 713b b410 913d 38e8 633d 0606 023e
00000120: 3faf 5dbd 5ca1 d13d 4aa1 a73d d220 e4bc
00000130: 117a 1dbd 688b 1dbd b8fc 8ebc d44e dc3d
00000140: ceab a7bd d46b 863d 8c0f 1a3e d67e b63d
00000150: 4953 afbd 1d95 803d 9632 f23d b3c2 073e
00000160: 5b56 1fbe caa9 cf3d 9eb5 f3bd 83ff 0e3e
00000170: 9eba df3d 8a40 113e cffc d6bc dfa0 28be
00000180: eb1f 8d3d b972 f6bd 5104 253e 013a fe3d
00000190: c0e8 19be d208 043d 6d31 2d3e e264 103e
000001a0: da7e 043e 6e59 b43d 5239 e93d 2d95 a53c
000001b0: 0af1 ae3d fd12 713b 78c9 86bd a930 12be
000001c0: b56a 933d 465a 1b3e 298d debd dc9b 90bd
000001d0: e0a6 95bd f8ce 113e 623c f5bd 47a6 bbbc
000001e0: 06c2 a5bd 641e 2abd 7a86 a33d c0d3 07be
000001f0: 6501 b1bc 8e65 b2bc e60b 2dbe 4ad7 133e

branch_t.fc2.weight f4 [64, 128]
0.07216132 0.049971666 -0.02091295 -0.059836913 -0.0746795 0.0078034317 -0.039991308 0.01039304
0.010089649 -0.055829857 -0.0138535695 0.061853733 -0.055374674 -0.0039501735 -0.079947695 0.08497659
-0.06635444 -0.036475655 -0.06373772 -0.011929832 0.05940198 0.010130206 -0.028929874 -0.08619651
-0.08864602 -0.034171153 -0.082006425 0.024231927 0.008833193 0.08150693 -0.02810172 -0.06037262
0.057232354 -0.0132777365 -0.07500675 0.04330974 0.074370794 -0.08337214 0.035002597 -0.03860565
-0.0062507014 -0.01358519 0.05016516 0.042219207 0.03907791 0.038757272 -0.05303114 -0.010653498
-0.011833892 -0.07484756 0.017683582 0.026936391 0.042938408 0.008597557 0.026544776 0.08381288
-0.047014616 -0.008083794 -0.00916872 -0.03877097 -0.0674177 -0.019439494 0.047931984 -0.0055268146
-0.06789225 -0.04360723 0.04579165 -0.026818978 -0.03874058 -0.014648927 -0.052649632 0.03512801
0.02676029 -0.013509944 0.022137713 0.056184564 0.062420122 0.039489668 0.08521175 -0.025009045
0.017967943 0.067292884 -0.0020556168 0.07353733 0.07014347 0.021367932 0.0049308124 -0.040286202
-0.055173215 0.0025386978 -0.04829321 0.067560874 0.032258056 0.0040135058 0.07305161 -0.0045685926
0.07325283 0.050737318 -0.017211594 -0.08365937 0.074485935 0.086413145 0.02078464 0.018633487
0.08486207 0.008281284 0.057901528 -0.062361132 -0.01517763 -0.044266123 -0.016357573 0.035442863
-0.07812158 -0.08016875 -0.009657037 -0.06313453 0.06704412 -0.026352081 0.032517225 0.06004299
-0.071136646 -0.03215771 0.050569493 -0.058492754 -0.064023845 0.082943305 -0.08755458 0.036457613
0.08445985 0.06855976 0.06903512 -0.07522608 -0.02172367 -0.03912483 0.0843854 0.06591217
-0.021774076 0.008241938 -0.044078246 -0.073093124 -0.007964486 0.047836114 -0.08546493 -0.048847012
0.061310917 0.087204605 0.031057777 -0.04277795 0.0302658 -0.06952362 0.032460604 -0.08221544
-0.05567494 -0.07395527 -0.014461496 0.05278366 -0.01770367 0.035561416 -0.0022807377 0.0059855403
-0.079110965 0.04167425 0.07817914 -0.07633611 0.07029618 -0.06640809 0.053791147 -0.045235053
0.030789012 -0.058179952 -0.08343406 0.013947013 -0.041148078 0.009341457 0.047102515 0.029235534
-0.072247736 0.05427008 -0.07908945 0.055251855 0.04880023 0.031658757 0.088273965 -0.03438357
0.07872203 0.057087258 0.00019113919 -0.01355929 0.037242822 0.045108117 0.069810696 -0.002866688
-0.05989303 0.064682655 -0.05285229 -0.07221526 0.013325325 -0.025722155 -0.064268894 -0.04558221
-0.038565934 -0.04678132 0.0014574943 0.01896736 -0.010822771 0.05551113 -0.056147877 0.014371175
0.03524158 -0.057652667 -0.055902187 -0.005068982 0.02694226 0.0510326 -0.03196873 0.009104227
-0.013476429 0.019047355 -0.026622843 0.030311491 0.034601144 -0.013088859 -0.08690842 0.0024748724
-0.025599396 0.029512627 -0.053050194 0.041569177 0.01960989 -0.082004845 -0.0528964 -0.029990006
0.031162646 -0.012714443 0.0060463054 0.052956626 0.016643777 -0.006876089 -0.01607204 -0.01448528
0.06061813 0.05785287 0.058755193 0.009140297 -0.027620843 -0.07743941 0.048308685 -0.04273123
-0.033588942 0.013498207 -0.0035015095 0.0046598692 0.0275891 0.052058082 -0.08550484 -0.00695963
00000000: 50c9 933d 17af 4c3d a351 abbc 8d17 75bd
00000010: 91f1 98bd eeb3 ff3b edcd 23bd 9247 2a3c
00000020: 0e4f 253c d9ad 64bd 15fa 62bc 575a 7d3d
00000030: 8ed0 62bd 7570 81bb 9ebb a3bd 3508 ae3d
00000040: d6e4 87bd 7f67 15bd ec88 82bd 5875 43bc
00000050: 7e4f 733d 2af9 253c 58fe ecbc cc87 b0bd
00000060: 0b8c b5bd 0df7 0bbd fcf2 a7bd 0982 c63c
00000070: 19b9 103c 1bed a63d 9435 e6bc 4849 77bd
00000080: 796c 6a3d dd8a 59bc 249d 99bd 8e65 313d
00000090: b74f 983d 03bf aabd e25e 0f3d f520 1ebd
000000a0: afd2 ccbb 6b94 5ebc fc79 4d3d 0cee 2c3d
000000b0: 2910 203d f2bf 1e3d 2e37 59bd 028c 2ebc
000000c0: f1e2 41bc ad49 99bd 29dd 903c b5a9 dc3c
000000d0: 2fe0 2f3d c5dc 0c3c 6e74 d93c 16a6 ab3d
000000e0: 6692 40bd e471 04bc 6638 16bc 4fce 1ebd
000000f0: 4b12 8abd 933f 9fbc 5454 443d 481a b5bb
00000100: 180b 8bbd 7f9d 32bd 0690 3b3d 79b3 dbbc
00000110: 71ae 1ebd 0e02 70bc 24a7 57bd 63e2 0f3d
00000120: 6538 db3c d058 5dbc 265a b53c c921 663d
00000130: 3eac 7f3d ebbf 213d 7f83 ae3d c5df ccbc
00000140: 8231 933c dad0 893d 87b7 06bb bd9a 963d
00000150: 61a7 8f3d cd0b af3c a792 a13b 2503 25bd
00000160: 4ffd 61bd 4860 263b 1acf 45bd 5b5d 8a3d
00000170: 0621 043d ba83 833b 159c 953d 22b4 95bb
00000180: 9405 963d efd1 4f3d 54ff 8cbc 9b55 abbd
00000190: 158c 983d 60f9 b03d 8d44 aa3c 41a5 983c
000001a0: 2acc ad3d 39ae 073c 272a 6d3d 636e 7fbd
000001b0: 98ab 78bc 6550 35bd 5100 86bc 892c 113d
000001c0: 35fe 9fbd 832f a4bd 8d38 1ebc ad4c 81bd
000001d0: 6d4e 893d 52e0 d7bc c830 053d a3ef 753d
000001e0: 17b0 91bd ceb7 03bd f521 4f3d 1996 6fbd
000001f0: ef1e 83bd 2ede a93d d14f b3bd 9454 153d
00000200: 49f9 ac3d 0f69 8c3d 4962 8d3d 2210 9abd
00000210: d7f5 b1bc 5c41 20bd 41d2 ac3d f6fc 863d
00000220: 8c5f b2bc 3209 073c 648b 34bd d9b1 95bd
00000230: 7a7d 02bc cdef 433d 3d08 afbd ce13 48bd
00000240: 2821 7b3d 5498 b23d e16c fe3c ef37 2fbd
00000250: fcef f73c 6662 8ebd 69f5 043d 9260 a8bd
00000260: 680b 64bd dc75 97bd e9ef 6cbc ae33 583d
00000270: 4907 91bc d9a8 113d 6e78 15bb 5a22 c43b
00000280: ee04 a2bd 9eb2 2a3d 631c a03d 1b56 9cbd
00000290: 72f7 8f3d f700 88bd 1b54 5c3d 6448 39bd
000002a0: 3d39 fc3c 1a4e 6ebd 7adf aabd 0382 643c
000002b0: e38a 28bd e90c 193c 91ee 403d 5c7f ef3c
000002c0: 9ff6 93bd 4e4a 5e3d a6f9 a1bd c54f 623d
000002d0: c0e2 473d 9dac 013d fbc8 b43d c9d5 0cbd
000002e0: 0439 a13d 54d4 693d 896c 4839 c927 5ebc
000002f0: ee8b 183d 4ac3 383d e9f8 8e3d 0bdf 3bbb
00000300: 6552 75bd 5778 843d a57b 58bd 98e5 93bd
00000310: 7752 5a3c 45b7 d2bc 699f 83bd 69b4 3abd
00000320: 50f7 1dbd c59d 3fbd 6509 bf3a 7061 9b3c
00000330: fe51 31bc a35f 633d 51fb 65bd 1475 6b3c
00000340: 7a59 103d 3425 6cbd b1f9 64bd b419 a6bb
00000350: 04b6 dc3c 8f07 513d a5f1 02bd e529 153c
00000360: 3dcc 5cbc 3309 9c3c 2618 dabc ce4f f83c
00000370: eeb9 0d3d a772 56bc 0bfd b1bd 7831 223b
00000380: d3b5 d1bc 77c4 f13c 294b 59bd 7144 2a3d
00000390: eca4 a03c 28f2 a7bd e5a9 58bd 9aad f5bc
000003a0: ce48 ff3c 3d50 50bc 1620 c63b 0ce9 583d
000003b0: 8858 883c d150 e1bb 83a9 83bc ab53 6dbc
000003c0: b74a 783d 22f7 6c3d 49a9 703d 2fc1 153c
000003d0: 1b45 e2bc 8e98 9ebd 54df 453d f106 2fbd
000003e0: 8f94 09bd 9527 5d3c 9579 65bb d1b1 983b
000003f0: 8902 e23c db3a 553d 291d afbd 9c0d e4bb

branch_t.fc2.bias f4 [64]
0.054055102 0.04519906 -0.05127505 0.030043958 0.06789953 0.058943618 -0.028008854 0.023608545
-0.036717087 -0.010601063 -0.068579875 0.03417241 -0.048854817 0.0023743233 0.081302166 0.01105975
-0.010953678 0.068271145 0.05128432 0.0069342474 -0.0064918483 -0.029017387 -0.04208667 -0.047373116
-0.05368698 0.05898951 -0.079470135 -0.007033806 -0.010975946 0.007673437 -0.08425163 -0.056140967
0.01030271 0.011639042 -0.05138217 0.036496248 -0.02880408 0.008911758 0.043634597 -0.072383784
0.03165044 0.06644979 0.04833935 0.05311648 -0.027252726 0.05216868 -0.020756906 -0.06256397
-0.010079994 -0.035280548 -0.08024149 -0.055063963 -0.017327884 0.038770497 -0.060892228 -0.071065724
0.013934631 0.08560763 -0.04335057 -0.08357945 -0.08009494 0.01534997 0.016445275 0.005346937
00000000: e268 5d3d a622 393d c905 52bd bf1e f63c
00000010: e90e 8b3d dd6e 713d d372 e5bc b566 c13c
00000020: a864 16bd 15b0 2dbc 9b73 8cbd 5ef8 0b3d
00000030: fd1b 48bd 899a 1b3b c081 a63d f433 353c
00000040: 0e77 33bc bed1 8b3d 820f 523d af38 e33b
00000050: 92b9 d4bb dfb5 edbc 1263 2cbd 500a 42bd
00000060: e1e6 5bbd fc9e 713d 3dc1 a2bd d77b e6bb
00000070: 74d4 33bc 7471 fb3b 1e8c acbd 12f4 65bd
00000080: b3cc 283c aeb1 3e3c 1c76 52bd 177d 153d
00000090: 89f6 ebbc 9f02 123c 31ba 323d f33d 94bd
000000a0: e4a3 013d d416 883d 7bff 453d ab90 593d
000000b0: 1c41 dfbc d3ae 553d 630a aabc 8a21 80bd
000000c0: 8f26 25bc 5682 10bd a655 a4bd c08a 61bd
000000d0: 35f3 8dbc d0cd 1e3d 216a 79bd e88a 91bd
000000e0: 144e 643c 0e53 af3d 5e90 31bd b42b abbd
000000f0: d108 a4bd 717e 7b3c 3eb8 863c 5c35 af3b

branch_t.fc3.weight f4 [32, 64]
0.0840048 -0.038232494 -0.10957892 0.0931974 0.036831915 0.09355168 -0.07971005 -0.06798409
0.029124727 0.03708901 0.040461946 0.08930377 0.013586117 0.013724388 0.089262396 -0.06879683
-0.05264119 -0.06760152 -0.019233603 -0.041247055 -0.024353705 -0.078468576 0.059288003 -0.030855913
-0.07281149 0.050405093 0.08430742 -0.06514517 0.11321136 -0.114342034 -0.08237242 0.056319185
0.027830893 -0.056247313 0.0717973 -0.049637362 0.041085675 -0.004559867 -0.10203267 -0.107846655
-0.11379823 -0.005515612 -0.002048398 -0.06414002 0.12417673 0.0717161 -0.04151003 0.09648061
-0.068986244 0.087992005 0.0062303003 0.038277812 -0.081774816 -0.10616247 -0.0010970964 0.09886313
0.08169659 -0.00027774432 -0.041261125 0.05715851 -0.033116896 -0.061885413 0.1010186 -0.032703515
0.10867634 -0.009532864 0.081589915 -0.10129109 -0.035393227 0.084857136 0.035728645 -0.027448839
-0.11929688 0.07452838 -0.07468341 0.087699965 0.03129481 0.004288069 -0.102441594 0.08329952
-0.04833637 0.062615246 0.0024526767 0.006598413 0.10484469 0.019893643 -0.060857177 0.010686292
0.09779468 -0.10906994 -0.03934516 0.055787005 0.06803315 -0.01533427 -0.091158696 -0.08736212
0.04136494 -0.10627628 0.10082944 -0.07998073 -0.031418923 -0.06857307 0.10820674 0.04111733
0.028668059 -0.017891008 -0.057428986 -0.09810921 -0.107640125 0.10063959 0.08631445 0.04136776
-0.11899783 0.09783106 -0.006018429 -0.025498116 -0.09351067 -0.05208779 0.08653779 0.06158125
0.049495276 -0.03274391 -0.07275675 0.08356297 -0.09616951 -0.08730729 0.12350894 -0.033062644
0.02480388 0.060386203 0.114418775 0.06570278 -0.059467737 -0.11457354 0.01737187 -0.025374876
-0.108934574 0.06330133 0.040315624 0.035609156 -0.11870383 -0.06312013 0.116684906 0.016515767
-0.077724814 0.019686963 -0.052215032 0.013679163 0.018710388 0.035346292 -0.09404835 -0.11099109
0.111323625 0.0046640905 0.012630289 0.02847917 -0.012231853 -0.108848885 -0.01711121 -0.07566239
0.02394642 0.12123125 0.053819466 -0.12487533 0.09200363 -0.046869326 -0.114436366 0.022293305
-0.0029284477 -0.05513682 0.07962718 0.08043887 0.049044035 0.046120852 0.031219075 0.0538568
0.049563754 -0.061279606 -0.089483105 -0.0005369587 -0.0741743 -0.110236034 -0.07498189 0.07739352
0.041160032 -0.0947556 0.080082536 0.057331778 -0.023991106 0.11722557 0.017938554 0.060270894
-0.08500834 -0.09657878 -0.11047416 -0.06458865 0.056050453 0.049259305 0.04367324 -0.018738754
-0.047967125 -0.035985436 0.09155284 0.022887852 0.08776899 -0.075894035 0.03702008 0.01766281
-0.05447567 -0.010184343 0.0114528425 -0.113346554 -0.04000842 0.055623133 -0.07162746 0.122960314
0.103335954 -0.015605416 -0.059533574 0.10882407 0.05893531 -0.07838253 0.07739294 0.0060117603
0.11856745 0.092839874 -0.033971842 0.1130711 0.10854053 -0.051061004 -0.07288793 -0.008250949
-0.047595184 -0.085301176 -0.09089494 0.02507337 0.035367545 0.11767641 0.08044785 0.10056517
-0.006640221 0.1145111 0.1115764 0.04764203 0.0011817147 0.055394135 -0.108560845 0.071176015
-0.047508806 0.014524817 -0.11050311 -0.065373085 -0.04534402 0.05567314 0.065265566 0.105605826
00000000: b50a ac3d ad99 1cbd ea6a e0bd 47de be3d
00000010: 10dd 163d 0698 bf3d 063f a3bd 3e3b 8bbd
00000020: fb96 ee3c a5ea 173d 6dbb 253d e5e4 b63d
00000030: 4e98 5e3c 41dc 603c 34cf b63d 5ae5 8cbd
00000040: 4a9e 57bd aa72 8abd ca8f 9dbc acf2 28bd
00000050: 6c81 c7bc 22b4 a0bd fad7 723d 8ac5 fcbc
00000060: 311e 95bd 9275 4e3d 5ea9 ac3d d56a 85bd
00000070: 5cdb e73d 282c eabd dfb2 a8bd f2ae 663d
00000080: 9dfd e33c 9563 66bd 760a 933d 8c50 4bbd
00000090: 7449 283d f06a 95bb 81f6 d0bd b5de dcbd
000000a0: 0c0f e9bd 4fbc b4bb 6a3e 06bb d85b 83bd
000000b0: 5f50 fe3d e4df 923d 6c06 2abd a097 c53d
000000c0: a948 8dbd 2735 b43d 8c27 cc3b 32c9 1c3d
000000d0: 8e79 a7bd b66b d9bd 72cc 8fba c178 ca3d
000000e0: 8b50 a73d 369e 91b9 6d01 29bd 0b1f 6a3d
000000f0: 95a5 07bd 8f7b 7dbd d7e2 ce3d 1ff4 05bd
00000100: b391 de3d bb2f 1cbc 9d18 a73d b471 cfbd
00000110: 7df8 10bd 94c9 ad3d 3358 123d 63dc e0bc
00000120: ec51 f4bd 56a2 983d 9ef3 98bd 0a9c b33d
00000130: fd2e 003d ee82 8c3b e6cc d1bd f098 aa3d
00000140: 5cfc 45bd 6c3c 803d 16bd 203b 8037 d83b
00000150: d0b8 d63d fef7 a23c 6045 79bd 8f15 2f3c
00000160: 9448 c83d 1060 dfbd 6428 21bd ea80 643d
00000170: f754 8b3d 973c 7bbc 69b1 babd e9ea b2bd
00000180: 496e 293d 61a7 d9bd aa7f ce3d f0cc a3bd
00000190: 21b1 00bd 0a70 8cbd 7f9b dd3d a56a 283d
000001a0: 47d9 ea3c 2a90 92bc a83a 6bbd 7bed c8bd
000001b0: 6d72 dcbd 211c ce3d a1c5 b03d 3e71 293d
000001c0: 22b5 f3bd a75b c83d 3e36 c5bb 6de1 d0bc
000001d0: 8682 bfbd 025a 55bd ba3a b13d 9f3c 7c3d
000001e0: 8fbb 4a3d 7a1e 06bd 7e01 95bd 1023 ab3d
000001f0: 85f4 c4bd 2ace b2bd 41f2 fc3d b26c 07bd
00000200: 8231 cb3c 8657 773d 6454 ea3d 2e8f 863d
00000210: 7194 73bd 88a5 eabd 744f 8e3c f9de cfbc
00000220: 1719 dfbd 21a4 813d ff21 253d e8da 113d
00000230: fe1a f3bd 2045 81bd 7ff8 ee3d 134c 873c
00000240: 302e 9fbd 8e46 a13c 6edf 55bd 911e 603c
00000250: 8746 993c 46c7 103d 6c9c c0bd 4c4f e3bd
00000260: a4fd e33d 3ad5 983b 46ef 4e3c 264d e93c
00000270: 1c68 48bc 2aec debd cf2c 8cbc e2f4 9abd
00000280: 482b c43c 1748 f83d cd71 5c3d a3be ffbd
00000290: 666c bc3d 0dfa 3fbd 9d5d eabd 73a0 b63c
000002a0: 33eb 3fbb 25d7 61bd 9313 a33d 22bd a43d
000002b0: 66e2 483d 38e9 3c3d 25bf ff3c f398 5c3d
000002c0: 5d03 4b3d 5300 7bbd eb42 b7bd b0c2 0cba
000002d0: b2e8 97bd 6ec3 e1bd 1b90 99bd 7e80 9e3d
000002e0: 6c97 283d 390f c2bd 5002 a43d bad4 6a3d
000002f0: ff88 c4bc f613 f03d e0f3 923c 9dde 763d
00000300: da18 aebd 18cb c5bd 4740 e2bd 0e47 84bd
00000310: 2995 653d 20c4 493d b6e2 323d 0482 99bc
00000320: 2d79 44bd 7765 13bd 0e80 bb3d 4e7f bb3c
00000330: 3ac0 b33d 556e 9bbd 5ea2 173d 99b1 903c
00000340: e121 5fbd 3bdc 26bc b4a4 3b3c 3d22 e8bd
00000350: dedf 23bd 15d5 633d 6bb1 92bd 9ed2 fb3d
00000360: cda1 d33d dcad 7fbc 7ad9 73bd 27df de3d
00000370: 2766 713d 0587 a0bd 3180 9e3d 4dfe c43b
00000380: 7ed3 f23d d522 be3d 0f26 0bbd d291 e73d
00000390: 7f4a de3d 5825 51bd 4446 95bd fd2e 07bc
000003a0: 2bf3 42bd 62b2 aebd 2027 babd ab66 cd3c
000003b0: 8fdd 103d 5400 f13d d8c1 a43d 1df5 cd3d
000003c0: 3696 d9bb cc84 ea3d 2b82 e43d 4a24 433d
000003d0: c4e3 9a3a f6e4 623d 2655 debd bbc4 913d
000003e0: 9898 42bd 7ff9 6d3c 744f e2bd 53e2 85bd
000003f0: a7ba 39bd 8509 643d f4a9 853d de47 d83d

branch_t.fc3.bias f4 [32]
-0.104667224 -0.045767996 0.064878136 -0.12002091 -0.052147277 0.03104655 -0.04180416 -0.004160594
-0.060907938 0.060802616 0.08660328 -0.044916067 0.11576938 0.043821488 0.075900234 0.11911258
-0.12001394 -0.06709335 0.05418416 -0.07680191 -0.026668413 -0.10304525 0.0063736294 -0.060058873
0.010478135 0.063396044 -0.016872898 0.01532432 -0.048591398 0.063239574 0.005265968 0.040487148
00000000: c55b d6bd 3977 3bbd d4de 843d 86cd f5bd
00000010: 6298 55bd 5655 fe3c d73a 2bbd 9855 88bb
00000020: 9a7a 79bd 2a0c 793d 0f5d b13d e9f9 37bd
00000030: 7f18 ed3d 297e 333d 9571 9b3d 4cf1 f33d
00000040: dec9 f5bd 3d68 89bd 36f0 5d3d 524a 9dbd
00000050: b777 dabc 6309 d3bd e1d9 d03b 4b00 76bd
00000060: 7cac 2b3c c9d5 813d 0839 8abc db12 7b3c
00000070: c607 47bd c083 813d 248e ac3b dad5 253d

branch_t.fc4.weight f4 [1, 32]
0.043536052 -0.03339633 0.06579472 -0.16177334 -0.15262672 0.0003370169 0.1718133 0.059369706
-0.15818189 0.091200165 -0.029920261 0.16288136 0.057187136 0.07863171 -0.14809358 -0.1552181
-0.16835812 0.12571321 0.1597807 -0.094403416 0.07926779 -0.17532308 -0.04429884 0.053366043
-0.13207684 0.038033456 -0.16408366 0.05159851 -0.018121315 0.016646491 -0.09352499 0.0057091117
00000000: dc52 323d 97ca 08bd 62bf 863d e9a7 25be
00000010: 2e4a 1cbe a5b1 b039 d3ef 2f3e a62d 733d
00000020: 6ffa 21be 27c7 ba3d 561b f5bc 5fca 263e
00000030: 0f3d 6a3d a909 a13d d8a5 17be 7ef1 1ebe
00000040: 1266 2cbe f7ba 003e 8d9d 233e 9456 c1bd
00000050: 2757 a23d e587 33be b372 35bd 5a96 5a3d
00000060: 273f 07be f8c8 1b3d 8c05 28be f658 533d
00000070: 2773 94bc 395e 883c 088a bfbd 8013 bb3b

branch_p.fc1.weight f4 [256, 34]
-0.029375361 0.16057368 -0.0144668985 0.046756696 -0.060740046 -0.025012331 -0.031345617 0.06620066
0.0297505 -0.14436233 -0.0050353026 0.14482613 0.014139665 -0.029160496 -0.2058453 -0.241583
0.1274374 -0.0876061 -0.0034619088 0.11089637 0.00075071916 -0.036611926 -0.1414081 -0.10039452
0.12701586 0.2716476 -0.009888777 -0.05813219 -0.041123167 -0.09106641 -0.20784508 0.17277427
0.04338071 0.05826389 -0.026437884 -0.043716636 -0.2804085 -0.25408223 -0.07347839 -0.09005577
0.16965112 -0.1059396 0.17716992 0.13745321 0.069241226 0.15024504 0.11113443 0.19648924
0.11493563 0.0040509086 0.032063633 0.10179855 0.05454502 -0.020935345 -0.077178545 -0.1511525
0.11717644 0.056646656 0.13697766 -0.061015263 0.0122488635 -0.07873491 -0.11688595 -0.09282567
0.006777414 -0.024899926 -0.11361761 0.18670584 0.19076563 0.08034191 -0.027242959 -0.07904475
-0.056923106 -0.0036986996 0.23291367 -0.041388556 0.119087435 0.090309754 0.16128469 -0.058886256
0.17083663 -0.06960444 0.1663147 0.023813898 -0.12034604 0.15969412 0.036788378 0.07478506
-0.01734982 -0.094579 0.11095741 -0.028498588 -0.07244626 0.015303106 -0.043381877 0.10860738
-0.06758038 0.062101904 0.16064888 -0.0020989103 -0.020051766 -0.13232161 0.0751483 -0.08420145
-0.11768346 0.11258779 0.1453191 -0.034689218 -0.13981023 -0.16194995 0.045946084 -0.14764346
0.21105716 -0.07399489 0.15995915 0.18533303 -0.05525028 0.0880992 -0.17772415 -0.15899274
0.03582651 0.010421816 0.057966392 0.07356555 -0.16837594 0.0993142 -0.12857214 -0.0053720996
0.0093970625 0.015191309 -0.007820048 -0.045872774 0.19165409 -0.0492955 -0.047694016 0.008621851
0.13945681 -0.20066322 0.07949761 -0.14064232 -0.12951224 -0.16373274 0.072301425 0.09881299
0.066279 0.24700122 0.09746149 0.04896719 0.15328807 0.0150435995 -0.05998715 0.100890465
-0.08494261 -0.13153064 0.026578268 -0.19175848 -0.11488257 0.08737295 0.080064476 -0.087943584
-0.015738001 -0.21865204 0.07229072 -0.13941553 0.19717245 0.06549224 -0.05275492 0.04412833
-0.003822438 -0.08338377 0.15934475 0.04144004 -0.24841154 -0.016167527 -0.032443803 0.052723743
0.072254814 0.11249753 -0.056831773 0.19205259 0.16764253 -0.14032082 0.1168623 -0.14799806
0.024560777 0.05559685 0.0591178 0.005500991 0.0584578 0.072031416 -0.29471332 -0.16686727
-0.07670624 0.034533642 0.12520139 0.14957625 -0.07658425 -0.09529628 -0.07686831 0.11990562
0.23935841 0.052628312 -0.054968853 0.13827598 0.08473418 0.19817476 -0.050626297 -0.11533449
0.13872372 0.16958179 0.08713267 -0.058430355 0.008540933 -0.0050065527 0.045016233 0.16102052
-0.11641572 -0.11485667 -0.031607926 -0.15031458 0.038168475 -0.05173757 -0.050730195 -0.00030559214
0.12474168 0.16063818 0.10365591 -0.08044595 -0.00510077 0.14981495 0.18772455 0.0013764948
0.101578325 -0.14929411 0.11249401 0.0065645943 0.110422075 -0.16183314 0.09720548 -0.015922485
0.105287604 0.22669323 -0.08377002 -0.07048143 -0.14489485 -0.19631946 0.042361487 -0.03807445
0.003929459 -0.055495933 -0.119753025 -0.31685442 -0.33437815 -0.0011486366 0.1907881 -0.17783847
00000000: 99a4 f0bc 6d6d 243e 9206 6dbc f383 3f3d
00000010: 8eca 78bd a9e6 ccbc 4364 00bd 3694 873d
00000020: 52b7 f33c b8d3 13be 2eff a4bb 4d4d 143e
00000030: 0eaa 673c fee1 eebc 1cc9 52be 8961 77be
00000040: f37e 023e d46a b3bd 31e1 62bb a31d e33d
00000050: e9cb 443a 63f6 15bd 49cd 10be a49b cdbd
00000060: 7210 023e 6515 8b3e 8904 22bc 051c 6ebd
00000070: c470 28bd 0781 babd 57d5 54be bdeb 303e
00000080: f9af 313d 1ea6 6e3d 4394 d8bc 3710 33bd
00000090: b491 8fbe 1117 82be d77b 96bd 296f b8bd
000000a0: 06b9 2d3e dcf6 d8bd 086c 353e 89c0 0c3e
000000b0: 58ce 8d3d d6d9 193e 739a e33d 7a34 493e
000000c0: 5f63 eb3d 7cbd 843b 2855 033d c27b d03d
000000d0: 996a 5f3d 9a80 abbc c90f 9ebd b9c7 1abe
000000e0: 34fa ef3d 5306 683d df43 0c3e 24eb 79bd
000000f0: 75af 483c c53f a1bd e761 efbd 631b bebd
00000100: 1215 de3b eefa cbbc 59b0 e8bd d12f 3f3e
00000110: 1158 433e 4d8a a43d a02c dfbc 37e2 a1bd
00000120: 3428 69bd e265 72bb ec80 6e3e 0c87 29bd
00000130: 1de4 f33d 52f4 b83d d027 253e b732 71bd
00000140: ccef 2e3e c68c 8ebd 674e 2a3e 5d15 c33c
00000150: fc77 f6bd db86 233e 69af 163d e928 993d
00000160: 3621 8ebc a2b2 c1bd a33d e33d df75 e9bc
00000170: b45e 94bd e1b9 7a3c 32b1 31bd 8c6d de3d
00000180: 9567 8abd 915e 7e3d 2481 243e df8d 09bb
00000190: 9a43 a4bc 517f 07be 5ae7 993d cf71 acbd
000001a0: 0704 f1bd 6d94 e63d 88ce 143e 4816 0ebd
000001b0: 6a2a 0fbe 35d6 25be f631 3c3d d92f 17be
000001c0: 5e1f 583e a28a 97bd 55cc 233e f1c7 3d3e
000001d0: 1e4e 62bd 5a6d b43d 52fd 35be fece 22be
000001e0: d2be 123d 44c0 2a3c 2b6e 6d3d 89a9 963d
000001f0: be6a 2cbe 3e65 cb3d 6aa8 03be 7008 b0bb
00000200: 23f6 193c f8e4 783c a91f 00bc 17e5 3bbd
00000210: f840 443e 14ea 49bd cd5a 43bd aa42 0d3c
00000220: c4cd 0e3e a97a 4dbe a5cf a23d 8a04 10be
00000230: db9e 04be 8ea9 27be c512 943d 775e ca3d
00000240: 49bd 873d e3ed 7c3e e499 c73d d291 483d
00000250: 8cf7 1c3e 6e79 763c 16b5 75bd a99f ce3d
00000260: 64f6 adbd f8af 06be abba d93c 565c 44be
00000270: 8e47 ebbd 97f0 b23d d8f8 a33d c41b b4bd
00000280: fbec 80bc 52e6 5fbe 280d 943d f2c2 0ebe
00000290: 93e7 493e cc20 863d 8b15 58bd e8bf 343d
000002a0: de81 7abb 1cc5 aabd 452b 233e 08bd 293d
000002b0: 985f 7ebe c371 84bc cbe3 04bd daf4 573d
000002c0: 55fa 933d 1b65 e63d 6fc8 68bd 6fa9 443e
000002d0: 7caa 2b3e 43b0 0fbe 8055 ef3d ce8c 17be
000002e0: af33 c93c 86b9 633d 8225 723d a841 b43b
000002f0: 7271 6f3d 3585 933d aae4 96be 41df 2abe
00000300: 2918 9dbd 2673 0d3d cb34 003e 842a 193e
00000310: 34d8 9cbd b22a c3bd 226d 9dbd 1491 f53d
00000320: 5f1a 753e c990 573d 0527 61bd 3898 0d3e
00000330: 1d89 ad3d 53ee 4a3e 855d 4fbd 7d34 ecbd
00000340: 970d 0e3e d9a6 2d3e 9d72 b23d ab54 6fbd
00000350: 45ef 0b3c 020e a4bb f162 383d 90e2 243e
00000360: 5d6b eebd f939 ebbd 5077 01bd 11ec 19be
00000370: 8c56 1c3d c6ea 53bd 77ca 4fbd e237 a0b9
00000380: 9178 ff3d 567e 243e 8d49 d43d d9c0 a4bd
00000390: 5c24 a7bb 1769 193e dd3a 403e 806b b43a
000003a0: 4c08 d03d 8ee0 18be 4263 e63d cf1b d73b
000003b0: f824 e23d 96b7 25be ab13 c73d df6f 82bc
000003c0: 07a1 d73d 4522 683e 9e8f abbd 9158 90bd
000003d0: 515f 14be f807 49be 3d83 2d3d f4f3 1bbd
000003e0: b1c2 803b b44f 63bd 1341 f5bd be3a a2be
000003f0: 9d33 abbe d98d 96ba f55d 433e 4a1b 36be

branch_p.fc1.bias f4 [256]
-0.051483884 -0.17489281 -0.15858439 0.11376027 -0.17989105 -0.16887036 -0.061488014 -0.032307945
0.19539109 0.03759271 -0.18475825 0.110213354 0.10964378 0.15671732 -0.062644 0.19100496
-0.02218604 -0.10898416 0.16940786 -0.12481984 -0.015401963 0.0846216 -0.09800659 0.15920714
-0.11902234 0.045120586 -0.13418953 0.11616796 0.11856507 0.13860767 0.110686414 0.101053245
0.038207646 -0.021441277 0.12037555 -0.008615078 -0.11149193 0.04249156 -0.16356108 -0.04224174
0.14607556 -0.062147427 0.073806286 -0.046689223 -0.13832818 -0.06647423 0.08049222 0.14995758
0.04670362 -0.082077414 0.09342637 0.057111353 0.1037531 -0.049447466 0.19969821 0.07667927
0.06069778 -0.18620053 -0.06166737 0.06951508 -0.03804402 -0.21601751 -0.15698127 -0.02249155
-0.121214695 0.08034876 -0.18021357 -0.0040840846 0.04461549 -0.012981019 0.10770046 -0.08618045
-0.124228805 -0.07447396 0.20591156 0.0069542183 0.10847135 -0.11617776 0.15392296 -0.12692954
0.053784728 0.008446093 -0.045153137 0.10522376 -0.17578956 0.13087694 0.043949917 0.030525034
0.058707427 0.082969435 0.046858586 -0.16929592 -0.061460227 0.16569234 -0.050892983 0.05622686
-0.08822313 0.008685807 0.051349707 0.012674596 0.21855341 0.014840723 0.019157754 0.065832905
0.029241823 0.17998302 0.0026852957 0.0819211 0.05884883 -0.12200154 0.16789483 0.17606646
0.019791564 -0.17886966 0.16168006 -0.03465643 -0.078634374 -0.12128295 0.05721749 0.010853577
0.17677957 -0.05032847 -0.030996867 -0.11949433 -0.024399031 0.031069148 -0.025938036 0.11416875
-0.05717625 -0.11570892 -0.07414999 0.12179221 -0.075047724 0.048674792 -0.08898648 -0.12423899
0.08602542 0.1988933 0.09887287 -0.06759772 -0.028235955 0.18726204 -0.03640427 -0.16580224
0.021704672 -0.06987354 0.023932172 -0.105553366 -0.12896277 -0.1514246 0.0005854689 0.12313217
0.058882307 -0.1355844 -0.09564069 -0.048274525 -0.14655317 -0.045817297 0.043930262 -0.06894606
0.15352735 -0.1181234 0.2082224 0.20192787 -0.16444404 -0.14284125 0.21225695 0.08888474
-0.051988594 0.16653189 0.09887231 -0.010030317 0.13146408 0.19356222 -0.050806984 -0.08292201
0.025304377 -0.016010271 0.11552081 -0.12735519 -0.029635822 0.08035696 0.04486802 -0.0038165671
-0.1485261 0.13780658 0.03513777 0.053624615 0.12979558 0.1622749 -0.11515838 0.19874378
0.024664769 -0.16893686 0.04131056 -0.11195765 -0.087161146 0.13591778 0.034988753 0.0137072895
0.06025558 0.18859313 0.12623335 -0.111657426 -0.13836633 0.101727076 -0.058762256 -0.17060845
-0.15803589 0.10725452 0.0011273095 -0.058862954 0.062362973 0.0732726 0.10744449 0.068594515
-0.10844796 -0.21616584 0.1250878 -0.13636236 0.05214864 0.032298055 0.15593624 0.16106503
0.010961542 -0.060448468 0.16372551 -0.097365275 0.12456964 -0.060650025 -0.13590065 -0.132199
0.19998424 0.20327112 0.10453687 -0.021173947 -0.06998531 0.02404987 -0.015001611 0.1037003
-0.035915896 -0.030027641 -0.050956085 -0.067724206 0.124073125 -0.13844536 -0.09934495 -0.039743856
0.057667676 -0.13553403 0.1176342 0.11730192 0.09384719 -0.13482268 -0.084982514 0.0024100156
00000000: c4e0 52bd 1a17 33be f263 22be 25fb e83d
00000010: 5c35 38be 5aec 2cbe dbda 7bbd 5655 04bd
00000020: 9a14 483e d0fa 193d 4431 3dbe 8ab7 e13d
00000030: eb8c e03d 817a 203e 7f4b 80bd ce96 433e
00000040: 80bf b5bc 1633 dfbd 4179 2d3e 8ba1 ffbd
00000050: 8458 7cbc 174e ad3d aeb7 c8bd 3207 233e
00000060: fcc1 f3bd 5dd0 383d fb68 09be 78e9 ed3d
00000070: 3ed2 f23d 2bef 0d3e 8faf e23d 01f5 ce3d
00000080: 9f7f 1c3d 9ea5 afbc 7587 f63d 4226 0dbc
00000090: e255 e4bd a10b 2e3d 8e7c 27be ad05 2dbd
000000a0: d594 153e 4d8e 7ebd c027 973d 333d 3fbd
000000b0: e7a5 0dbe a423 88bd 1bd9 a43d 7b8e 193e
000000c0: 4c4c 3f3d 3418 a8bd 5356 bf3d 98ed 693d
000000d0: 817c d43d 6d89 4abd b07d 4c3e 050a 9d3d
000000e0: 3c9e 783d 5aab 3ebe ed96 7cbd ec5d 8e3d
000000f0: 0cd4 1bbd b233 5dbe b3bf 20be 3340 b8bc
00000100: 693f f8bd e48d a43d e889 38be c9d3 85bb
00000110: bbbe 363d 57ae 54bc 0f92 dc3d 607f b0bd
00000120: ac6b febd ce85 98bd 7bda 523e 36e0 e33b
00000130: 3a26 de3d 9bee edbd fb9d 1d3e d1f9 01be
00000140: 604d 5c3d 7b61 0a3c 7ff2 38bd 8e7f d73d
00000150: 2e02 34be 9b04 063e d404 343d a30f fa3c
00000160: 3377 703d e1eb a93d caee 3f3d e95b 2dbe
00000170: b8bd 7bbd 41ab 293e 2975 50bd 234e 663d
00000180: 54ae b4bd ea4e 0e3c 1254 523d 1ca9 4f3c
00000190: 77cc 5f3e 8126 733c b9f0 9c3c 67d3 863d
000001a0: 8c8c ef3c 784d 383e c9fb 2f3b 40c6 a73d
000001b0: 790b 713d f2db f9bd 9fec 2b3e c44a 343e
000001c0: eb21 a23c 9c29 37be 758f 253e e7f3 0dbd
000001d0: 0f0b a1bd 3263 f8bd e35c 6a3d 34d3 313c
000001e0: b405 353e 3a25 4ebd 24ed fdbc 71b9 f4bd
000001f0: 7ae0 c7bc ba84 fe3c 017c d4bc 4ed1 e93d
00000200: a531 6abd ccf8 ecbd f3db 97bd 326e f93d
00000210: 9fb2 99bd 385f 473d 8b3e b6bd 0371 febd
00000220: 182e b03d afaa 4b3e dc7d ca3d ac70 8abd
00000230: 174f e7bc 9fc1 3f3e a51c 15bd 10c8 29be
00000240: ffcd b13c dc19 8fbd 670d c43c 5d2c d8bd
00000250: d10e 04be 0d0f 1bbe 277a 193a b82c fc3d
00000260: 932e 713d a3d6 0abe 44df c3bd 82bb 45bd
00000270: 0912 16be ebaa 3bbd 38f0 333d 9833 8dbd
00000280: 4636 1d3e aeea f1bd 4138 553e 2ec6 4e3e
00000290: 0564 28be fa44 12be e359 593e 3409 b63d
000002a0: fef1 54bd 5687 2a3e 917d ca3d 3356 24bc
000002b0: 859e 063e 2d35 463e fc1a 50bd 04d3 a9bd
000002c0: 204b cf3c f927 83bc 2d96 ec3d 6669 02be
000002d0: d3c6 f2bc 3192 a43d 87c7 373d 5f1f 7abb
000002e0: 3a17 18be 2b1d 0d3e 9fec 0f3d 7ca5 5b3d
000002f0: 22e9 043e 642b 263e 28d8 ebbd 7d83 4b3e
00000300: c50d ca3c c9fd 2cbe 4335 293d 0d4a e5bd
00000310: 8b81 b2bd 082e 0b3e 5e50 0f3d 8a94 603c
00000320: 8ece 763d 8f1e 413e 5143 013e a6ac e4bd
00000330: e7af 0dbe 4956 d03d b1b0 70bd fbb3 2ebe
00000340: 29d4 21be 42a8 db3d 3bc2 933a 481a 71bd
00000350: 5170 7f3d f20f 963d db0b dc3d 487b 8c3d
00000360: f719 debd 945a 5dbe 0417 003e 93a2 0bbe
00000370: d099 553d f74a 043d c0ad 1f3e 3bee 243e
00000380: 0a98 333c d098 77bd a9a7 273e 7267 c7bd
00000390: 5e1e ff3d 296c 78bd 8a29 0bbe 2d5f 07be
000003a0: abc8 4c3e 4e26 503e 6d17 d63d fc74 adbc
000003b0: 7554 8fbd 3c04 c53c 51c9 75bc d360 d43d
000003c0: 8c1c 13bd 87fc f5bc 54b7 50bd fdb2 8abd
000003d0: 0d1a fe3d 9fc4 0dbe 5d75 cbbd 74ca 22bd
000003e0: f134 6c3d 6fc9 0abe 33ea f03d fd3b f03d
000003f0: f532 c03d f50e 0abe 500b aebd 5af1 1d3b

branch_p.fc2.weight f4 [128, 256]
0.016954286 0.03614741 -0.0061177756 0.008956304 0.015513278 -0.07920166 0.0010129742 -0.043175347
0.095078185 0.04359492 0.05452461 0.031859282 -0.037745684 0.05752017 -0.03221108 0.040903915
0.02838132 0.115419544 0.038236395 0.038750153 0.0015127178 -0.06345377 -0.062379822 -0.03564015
-0.017393176 0.04720818 -0.01695338 -0.089375965 -0.02087021 -0.049893104 -0.0024500382 -0.010594646
-0.051348437 0.056512415 -0.013454338 0.0119426055 0.054597784 0.051717874 -0.05465491 0.0062035373
-0.03325713 -0.028348288 0.024829337 -0.00046782588 0.06013562 0.047911994 -0.042584546 -0.005258798
0.018481316 0.054875955 0.019698221 0.013480764 -0.027317869 0.03821113 -0.020832388 0.014975647
-0.014593283 0.017993314 -0.0029758543 0.061187867 0.004789918 -0.03706146 0.013126165 0.043046724
0.056223046 -0.066949725 0.016745934 0.0517833 -0.022340044 -0.0043906267 0.028417496 -0.04641475
-0.02837111 -0.014680218 0.01728269 0.018226529 -0.03405794 -0.040465143 0.009952499 -0.018117925
-0.007281276 -0.04879361 0.036965407 0.0071061905 0.030440183 0.03558594 0.026619734 -0.03943185
-0.041138984 0.013886928 0.06686479 0.024114834 0.027072761 -0.009721197 0.103279665 -0.012168457
0.013492353 0.006827544 -0.01482631 0.07214504 -0.05333263 -0.012916553 -0.03658776 0.020716228
0.0025423123 -0.019588498 0.04039331 -0.044223797 0.022257661 0.0034476111 -0.053110383 -0.011344763
-0.009477997 -0.037597198 -0.042945128 0.02426852 0.00086807547 -0.041042607 -0.050891183 -0.03362602
0.021387374 0.032671038 -0.035379145 0.048967656 -0.007471575 0.023931764 -0.009403979 0.028835164
-0.0049650925 0.02090993 -0.039203886 -0.027431872 0.0035925265 0.038121544 -0.0036620202 -0.058379218
-0.04237093 0.037048355 0.013598619 -0.027220642 0.039572153 0.038044304 0.05801089 0.056552105
-0.0382798 0.0050891936 0.023376625 0.03141193 -0.022119831 0.1259212 -0.045024533 -0.069247715
-0.0010705811 0.057785317 0.030561214 -0.024708357 0.034331676 -0.00923299 0.032186918 0.034603
-0.066659 -0.010981653 0.08271043 0.047022708 0.011518293 0.029298227 0.05804125 0.083156906
0.01113102 0.05295802 -0.0633238 0.029065074 0.0007254634 0.065154746 -0.009424207 0.061794158
-0.06270826 -0.02450022 0.04243624 -0.011641398 0.021012394 0.006530432 -0.006684528 0.0038220636
-0.036083892 0.08192088 -0.05163634 -0.04832365 0.04178475 0.037449118 -0.007060076 -0.033080235
-0.014682001 -0.0021632407 0.0056741703 0.04315324 0.02312945 0.013809744 0.031100228 0.0367372
0.0011787347 0.052268457 0.066891626 -0.018296136 0.053514082 -0.030821571 0.032795466 -0.025924295
-0.029413277 -0.028957877 0.09084255 -0.037554283 0.024224015 0.001017593 -0.047137193 -0.028811788
-0.03242165 -0.03256915 -0.00015462565 0.049225345 0.047106188 -0.05527647 0.04564005 -0.060522113
-0.054998323 0.037757576 -0.022614613 0.025938513 0.037473902 0.018609857 0.040931813 -0.01105436
-0.036626842 -0.048623763 0.04619239 -0.0012816351 -0.04732761 -0.028896874 -0.059387714 -0.024785096
-0.063061036 0.016267816 0.004700704 -0.008752833 -0.013848155 -0.045181293 0.012780877 0.01866685
0.00086892577 -0.033757105 0.04404903 -0.05583636 0.12563446 0.062571116 0.053525127 0.050807953
00000000: b7e3 8a3c 4e0f 143d 9f77 c8bb 76bd 123c
00000010: 672b 7e3c 7b34 a2bd c6c5 843a a2d8 30bd
00000020: 5ab8 c23d 9690 323d 3355 5f3d e17e 023d
00000030: 389b 1abd 459a 6b3d c4ef 03bd dd8a 273d
00000040: f17f e83c 1561 ec3d c49d 1c3d 7bb8 1e3d
00000050: 6346 c63a 0df4 81bd fc81 7fbd 68fb 11bd
00000060: 227c 8ebc 5d5d 413d d1e1 8abc bf0a b7bd
00000070: 01f8 aabc b65c 4cbd d290 20bb 2b95 2dbc
00000080: bd52 52bd 9079 673d 956f 5cbc ebaa 433c
00000090: eda1 5f3d 1fd6 533d d4dd 5fbd 0b47 cb3b
000000a0: a138 08bd ab3a e8bc e566 cb3c 8746 f5b9
000000b0: c550 763d 5e3f 443d 226d 2ebd ff51 acbb
000000c0: 2166 973c 9cc5 603d 2a5e a13c 6cde 5c3c
000000d0: b9c9 dfbc 4683 1c3d afa8 aabc 6b5c 753c
000000e0: aa18 6fbc b766 933c 8d06 43bb 21a0 7a3d
000000f0: bff4 9c3b c2cd 17bd 200f 573c c351 303d
00000100: 234a 663d f01c 89bd c52e 893c ba1a 543d
00000110: 7802 b7bc 3fdf 8fbb cfcb e83c 651d 3ebd
00000120: 886a e8bc 4c85 70bc 6e94 8d3c cd4f 953c
00000130: 5780 0bbd c7be 25bd ce0f 233c 0b6c 94bc
00000140: c597 eebb cfdb 47bd 0a69 173d 0cdb e83b
00000150: b15d f93c 90c2 113d a111 da3c 4b83 21bd
00000160: 5a81 28bd ff85 633c 68f0 883d 798c c53c
00000170: b2c7 dd3c a845 1fbc 4a84 d33d 355e 47bc
00000180: 080f 5d3c 97b9 df3b 0dea 72bc c7c0 933d
00000190: 5173 5abd f39f 53bc 0cdd 15bd 14b5 a93c
000001a0: ec9c 263b 0f78 a0bc 7573 253d 0324 35bd
000001b0: b355 b63c 51f1 613b 468a 59bd 63df 39bc
000001c0: 9a49 1bbc 85ff 19bd 3be7 2fbd c6ce c63c
000001d0: 8f8f 633a 4b1c 28bd 4673 50bd 70bb 09bd
000001e0: 9334 af3c 11d2 053d b9e9 10bd 4f92 483d
000001f0: 1dd4 f4bb 8c0c c43c 2613 1abc b937 ec3c
00000200: 37b2 a2bb 4d4b ab3c 4194 20bd ceb8 e0bc
00000210: 9870 6b3b 5625 1c3d 81fe 6fbb 0c1f 6fbd
00000220: 248d 2dbd 04c0 173d becc 5e3c d3fd debc
00000230: 6916 223d 58d4 1b3d d49c 6d3d 2ea3 673d
00000240: 48cb 1cbd 40c3 a63b 5680 bf3c cca9 003d
00000250: a634 b5bc 7df1 003e a56b 38bd bfd1 8dbd
00000260: be52 8cba 4cb0 6c3d 835b fa3c 2e69 cabc
00000270: 5f9f 0c3d f845 17bc 6ed6 033d e0bb 0d3d
00000280: 8484 88bd 64ec 33bc 1664 a93d e29a 403d
00000290: 39b7 3c3c d602 f03c a9bc 6d3d 2b4e aa3d
000002a0: e25e 363c 82ea 583d e9af 81bd e119 ee3c
000002b0: 062d 3e3a da6f 853d fd67 1abc df1b 7d3d
000002c0: 306d 80bd afb4 c8bc 9fd1 2d3d 90bb 3ebc
000002d0: 2f22 ac3c 3cfd d53b e309 dbbb 967b 7a3b
000002e0: b4cc 13bd 22c6 a73d a080 53bd 05ef 45bd
000002f0: 7c26 2b3d 3f64 193d 3658 e7bb 247f 07bd
00000300: c78c 70bc 28c5 0dbb 64ee b93b 74c1 303d
00000310: f979 bd3c 4442 623c e8c5 fe3c bf79 163d
00000320: c67f 9a3a 7317 563d 7afe 883d c7e1 95bc
00000330: 9531 5b3d 857d fcbc 8a54 063d 305f d4bc
00000340: 1df4 f0bc 1239 edbc a90b ba3d 85d2 19bd
00000350: 7171 c63c c160 853a ee12 41bd b306 ecbc
00000360: 90cc 04bd 3b67 05bd 0223 22b9 84a0 493d
00000370: 6bf2 403d 9469 62bd 10f1 3a3d 09e6 77bd
00000380: ec45 61bd b0a7 1a3d 4842 b9bc 017d d43c
00000390: 3c7e 193d b373 983c 1ea8 273d 591d 35bc
000003a0: 0706 16bd b629 47bd 3b34 3d3d 8afc a7ba
000003b0: 99da 41bd 23b9 ecbc 8840 73bd 1d0a cbbc
000003c0: 2526 81bd 1544 853c 5d08 9a3b 0b68 0fbc
000003d0: 5fe3 62bc 0510 39bd e266 513c 39eb 983c
000003e0: 9fc8 633a e444 0abd c16c 343d abb4 64bd
000003f0: 52a6 003e 4925 803d 2a3d 5b3d 001c 503d

branch_p.fc2.bias f4 [128]
0.09284281 0.03652347 -0.06761887 0.04329069 -0.091762505 -0.030105423 0.02130301 -0.029277908
-0.046172056 0.0122462725 -0.040896453 -0.021924 -0.053666476 -0.04303152 -0.0048694983 0.031117894
-0.08508377 0.073547386 0.044737063 0.05234938 0.03537518 0.07475039 0.09803128 0.07029289
0.0439682 0.055769525 0.02807215 -0.013652203 -0.04543731 0.049653973 -0.028810862 -0.0021868122
-0.044361703 0.040024366 -0.017305214 0.026357127 0.049425334 -0.024784306 -0.07078664 0.024390697
-0.023516675 0.029813359 -0.020512916 -0.08380876 -0.009621737 -0.045851305 -0.043409582 0.025449159
-0.10571582 0.048006225 -0.10603574 -0.03592938 0.032814864 -0.0065874974 -0.038674723 0.05262568
0.011227929 -0.017994374 0.053035375 -0.03146548 -0.029116426 -0.007379632 -0.02475629 -0.020731471
0.051931325 0.06664764 0.066705085 -0.06914893 -0.038918905 -0.06065742 -0.034272812 -0.07239429
-0.07164918 -0.091941684 -0.05403832 0.02005264 -0.060060594 6.10809e-05 -0.039025683 -0.023474459
-0.04423896 -0.048147336 -0.00411495 0.002801095 0.01178463 0.020531788 -0.033829533 0.03738898
-0.012210661 -0.06593768 -0.0298247 -0.073523834 -0.03514469 -0.03076448 -0.0011574475 0.012009619
0.069559425 -0.041904643 -0.023852782 0.05059818 0.05462646 -0.020331072 -0.008956091 0.077406555
0.03886424 -0.052207697 0.010717124 -0.00014122722 0.061872732 -0.065105796 0.0019782986 0.053366397
-0.009437483 -0.057202857 0.012669057 0.052283272 -0.035501692 0.020033626 0.028293125 0.023971038
-0.057093017 -0.059425782 0.038131688 0.06174787 -0.027032822 0.071277246 0.06351723 -0.071905866
00000000: 5f24 be3d a299 153d c37b 8abd 9451 313d
00000010: fbed bbbd a69f f6bc a683 ae3c 39d8 efbc
00000020: e91e 3dbd 97a4 483c 0a83 27bd f699 b3bc
00000030: 61d1 5bbd d241 30bd 5090 9fbb f4ea fe3c
00000040: 6640 aebd 03a0 963d 363e 373d 4e6c 563d
00000050: 91e5 103d bc16 993d a0c4 c83d b8f5 8f3d
00000060: 0018 343d 966e 643d 91f7 e53c 7dad 5fbc
00000070: 791c 3abd f761 4b3d c204 ecbc 9f50 0fbb
00000080: 9eb4 35bd 97f0 233d aac3 8dbc e7ea d73c
00000090: 3872 4a3d 7508 cbbc 96f8 90bd 00cf c73c
000000a0: 0ba6 c0bc 253b f43c b40a a8bc eda3 abbd
000000b0: 7da4 1dbc 94ce 3bbd 3fce 31bd c17a d03c
000000c0: 8981 d8bd 2da2 443d 4429 d9bd b02a 13bd
000000d0: e168 063d efdb d7bb 6369 1ebd 068e 573d
000000e0: 59f5 373c f068 93bc 9f3b 593d f2e1 00bd
000000f0: 9285 eebc d7d0 f1bb b4cd cabc 0cd5 a9bc
00000100: f1b5 543d 8f7e 883d ad9c 883d f49d 8dbd
00000110: 6e69 1fbd ea73 78bd a661 0cbd 7543 94bd
00000120: cebc 92bd ec4b bcbd 4957 5dbd 6f45 a43c
00000130: 1902 76bd 8f18 8038 65d9 1fbd 824d c0bc
00000140: e933 35bd 2436 45bd b4d6 86bb 9392 373b
00000150: 5214 413c 4832 a83c d690 0abd 3025 193d
00000160: 390f 48bc 560a 87bd ee52 f4bc aa93 96bd
00000170: e1f3 0fbd ca05 fcbc 7eb5 97ba fec3 443c
00000180: 2c75 8e3d 34a4 2bbd e966 c3bc 0a40 4f3d
00000190: ffbf 5f3d 598d a6bc 91bc 12bc 5487 9e3d
000001a0: 1c30 1f3d bdd7 55bd e096 2f3c 6516 14b9
000001b0: 436e 7d3d 3056 85bd 58a6 013b b996 5a3d
000001c0: ac9f 1abc 8b4d 6abd e091 4f3c fc26 563d
000001d0: 396a 11bd 8f1d a43c fcc6 e73c e95e c43c
000001e0: 5eda 69bd 7368 73bd f92f 1c3d 56eb 7c3d
000001f0: f073 ddbc cef9 913d 5215 823d 6243 93bd
