d2calcbot/main/calc_bot/dota_model.pth (torch, 501346 bytes, 17 tensors)

branch_t.fc1.weight f4 [128, 35]
00000000: ff91 18be fee4 223e 4ebd 853d 08e5 4a3d
00000010: f6f7 18be 0dc2 bd3d 4e34 0fbe 232c 6cbd
00000020: 1cd6 03be 99a1 973d ea82 9fbd eb15 963c
00000030: cb29 c1bc 0032 bdbd 6eef cbbd c999 f23d
00000040: ac51 633d fec4 b5bd dc90 0c3e 9e12 293b
00000050: 1fb3 99bb bed4 ddbd 4c6a 953b 8441 863d
00000060: 5a3d 1ebe db5b bdbd c92b ce3d 6aa5 b93d
00000070: 35c3 afbd 2414 443c fda2 c03d c169 be3d
00000080: b9fa df3d 5c8f bbbd b2af 863c d073 e03c
00000090: 7381 91bd 169a e1bd 4f83 f63c 392f 8cbd
000000a0: 087b aa3d 5398 e6bd 1d2f adbd 2d59 273d
000000b0: 68cd 81bd 2910 2f3d 7f47 243e 7592 6139
000000c0: 0485 9abb 67db d03c 9b20 44bd 3d8b a6bd
000000d0: 9bda ba3c fa44 15bc bb5f 8c3c f744 f13d
000000e0: dace afbd dea3 88bc c435 f7bd 2a98 bdbd
000000f0: d15c 52bd ac4e d8bc c0de ccbd 96bb 8dbd
00000100: 2f68 d53d 6c10 223e 2c8a 9e3c 0aa3 2cbe
00000110: 8e2f b9bd 3ed2 a33d 69df 26be 1be3 17be
00000120: 041b 8fbd d616 ad3d 3add 933d effb 81bc
00000130: ec7a 133e 660d a13d 5099 5ebd 37f6 263e
00000140: 2935 c63d 2650 4d3d 6783 f63d 5707 16be
00000150: c824 a5bd 0e9d 183e cb1c 45bc c094 013d
00000160: 666a 8b3c 75e6 babd a2ab 9fbd feb0 a7bc
00000170: a54e b7bd ef2b c3bb 21ef 5f3c aca7 87bd
00000180: 84ee d8bc b3c6 8e3b fea7 0b3e d674 b33d
00000190: 269d 603d 5a0e 85bd f567 303d bb2e 113e
000001a0: 48b1 1a3e a567 5e3d bc19 08bd 61a9 16be
000001b0: 3bb5 cd3d 6a6e a83d 5911 26be 371e e63d
000001c0: 7df4 003e 460c c6bd 44cd e93d 36ea c5bd
000001d0: d448 a53d 834d 853d 94c6 22be 396f 7d3d
000001e0: 474f e5bd 46ad 783d d14b a9bd c0b5 5dbd
000001f0: 0fab f63b d74b aa3d 27bd 173d db04 063e
00000200: f7a8 ea3d e4a0 793d 3fa9 c73d 580c 62bc
00000210: f976 5cbd 3c8c 93bd 64a1 7cbd 1eba 28be
00000220: 0d54 d8bd 79e8 c3bd 1bd3 e5bd ebf0 163e
00000230: 8d14 ff3b ffdd 23bd ad52 0d3e 9d26 a73b
00000240: a3d5 853d dc1a c73a c224 2a3e 598b 2a3d
00000250: 086d b8bc 0f29 163e 3476 dabd c935 2d3d
00000260: 1fbd 8ebc 96d4 45bd a878 6c3d 8377 cfbd
00000270: 4d4f a1bd 2326 263e f1ea 0b3e 5db1 d1bd
00000280: afe2 3a3d d44a b63d bee3 25bd a1da f8bc
00000290: e5ee dcbd e4b9 903d d778 05bd 01dd f83d
000002a0: b26d 323d 08e3 07be c077 a3bd 9d5c b0bd
000002b0: b2c5 d7bd 017e edbd 943f 8f3d 75d0 bd3d
000002c0: 6013 bb3d d1c6 643a 149c 2b3e 3616 993d
000002d0: 3b56 cb3c be81 a9bd 85a8 08be d41f 803d
000002e0: d3ef 683d c20e 77bd df70 14be 45cc 1fbd
000002f0: c7d2 49bd 2bf7 f0bb 33ce 1e3d c620 bd3d
00000300: 10be 3d3d 7c34 d2bd c1ca 20be 4689 20bc
00000310: 4e15 7dbd eac8 a13d f6e8 ddbb 23d4 953d
00000320: 792d 9dbc 0b5a 20bc 2797 013e 9418 b03d
00000330: 82ff 01be 101e 1c3e 68be df3c 1985 593d
00000340: 0c4e 00be 2a63 763c 793d 3b3d 44c6 0cbe
00000350: 8c71 31bd 08fa d33d c2de 213e abf6 f43d
00000360: d4c3 83bc b2b7 dd3d 4f09 0abe 44ed 1bbe
00000370: ec1a 82bd e25b 413c 12b7 573b 9204 613d
00000380: 83bf 2fbd 7dd5 293e ff31 21be e40e 0f3e
00000390: 183e 713d db63 0a3e 3dda cfbb 538c bf3d
000003a0: 7864 14be 48b8 fc3d 39aa 3dbd 0fc2 e13d
000003b0: 0eb2 e8bd e907 b4bd 2f3d 073e 93a4 2bbe
000003c0: b66c 2c3e 320a be3d 010e ba3d 2956 13be
000003d0: c5e5 7cbd dea4 1abe 2f1b 58bd 7899 963c
000003e0: 70da c2bd e048 4cbd 2b73 c93d c2d1 eebd
000003f0: 636f da3d 466e 883a ede1 a0bd 66cf ffbd
-0.14899443 0.15907666 0.06530248 0.049534827 -0.1493834 0.09265528 -0.13984796 -0.05765928
-0.12874645 0.07403869 -0.07788642 0.018320998 -0.023579499 -0.09238052 -0.09957777 0.118457384
0.05549781 -0.08875464 0.13727134 0.002579845 -0.0046905424 -0.10831593 0.0045597907 0.06555465
-0.15453091 -0.09246036 0.10066945 0.09064753 -0.08582155 0.0119676925 0.094060875 0.09297515
0.109364934 -0.09158203 0.0164412 0.027398974 -0.071047686 -0.11015718 0.03009191 -0.068449445
0.083242476 -0.11259522 -0.08456252 0.04085653 -0.06338006 0.04274002 0.16042899 0.00021512232
-0.0047155637 0.025495244 -0.047882657 -0.08132026 0.022809317 -0.009110684 0.017135492 0.11780732
-0.08584376 -0.0166797 -0.12070802 -0.092575386 -0.051358048 -0.026404701 -0.10003424 -0.06920545
0.10420262 0.15826577 0.019352995 -0.1685907 -0.090422735 0.07999085 -0.16296162 -0.14832728
-0.06987575 0.08451621 0.0721993 -0.015867202 0.1440236 0.07863884 -0.05434543 0.16304861
0.09678108 0.050125264 0.12036782 -0.14651237 -0.08063656 0.14903662 -0.012030791 0.031636
0.017018508 -0.091259874 -0.07796408 -0.020470139 -0.08950547 -0.005956165 0.013667853 -0.06623778
-0.02648092 0.004357183 0.13638303 0.08762519 0.05483737 -0.06496878 0.04306789 0.14177983
0.1510669 0.054298062 -0.033227667 -0.1471305 0.100443326 0.08224185 -0.16217555 0.11236232
0.12593265 -0.0967031 0.114161044 -0.09663813 0.080705315 0.06508925 -0.15896064 0.06187365
-0.111967616 0.06071212 -0.08266414 -0.05412841 0.007527716 0.083152466 0.037045624 0.1308779
0.11458009 0.060944453 0.09749078 -0.013796888 -0.0538244 -0.07204482 -0.06167735 -0.16477248
-0.105629064 -0.09565825 -0.11221906 0.1474034 0.0077844323 -0.040006634 0.1380107 0.0051010386
0.065348886 0.00151905 0.16615584 0.0416368 -0.022512928 0.146641 -0.10667077 0.04228762
-0.017424164 -0.04829844 0.057732254 -0.10130217 -0.078764535 0.16225486 0.13663842 -0.102389075
0.04562634 0.08900991 -0.040500395 -0.030377688 -0.10787753 0.07066706 -0.032585945 0.12151528
0.043561645 -0.132702 -0.07981825 -0.086114146 -0.10535754 -0.11596299 0.069945484 0.09268276
0.09134555 0.0008727136 0.16758758 0.074749395 0.024821391 -0.082766995 -0.13345535 0.06256071
0.05686934 -0.06031681 -0.14496182 -0.039013166 -0.04927328 -0.0073536835 0.038770866 0.09234767
0.046323836 -0.10263917 -0.15702344 -0.009798354 -0.061787896 0.078996494 -0.006772156 0.073158525
-0.019186722 -0.009787093 0.12655316 0.08598438 -0.12695125 0.15245843 0.027312472 0.053105447
-0.12529773 0.015038291 0.04571292 -0.13747507 -0.043321177 0.10350424 0.15807632 0.11961111
-0.016084589 0.10826053 -0.13480113 -0.15227228 -0.06352791 0.011801692 0.0032915515 0.054936
-0.04290725 0.16585346 -0.15741728 0.13970524 0.058897108 0.13514654 -0.0063431547 0.093529366
-0.14491451 0.12339836 -0.046304915 0.11023342 -0.11362086 -0.08790571 0.13206933 -0.16761999
0.16838345 0.09279288 0.09084702 -0.14388336 -0.061742563 -0.15101954 -0.0527603 0.018383726
-0.0951432 -0.049874187 0.0983642 -0.11661102 0.106657766 0.0010408841 -0.07855592 -0.1249073

branch_t.fc1.bias f4 [128]
00000000: d3e4 ebbb f330 183d a9db 933d c0c4 fc3d
00000010: 41e8 e2bd 0c7c 32bd 3ff3 b6bd 323d 233e
00000020: 89f4 cf3d 4f39 6ebd 5323 2bbd e464 7a3d
00000030: 9cdb 5b3c cbd3 9ebd 39e1 ee3d a05a dfbd
00000040: 276a 403d de64 26be 25a2 86bd b0ad c9bd
00000050: 2467 113e 27a5 de3d 2565 e23d 8f9b 3d3d
00000060: 470c ac3d 1ba4 9b3d ee88 ef3d 7335 db3c
00000070: a091 a93d f466 1bbe 348b 913d 009a 0b3d
00000080: e44b 113e 9d52 09be 1a3a 183e 888f 4c3d
00000090: 21b3 b73d 59b4 8cbd 8a51 10be 67d2 a43c
000000a0: b900 1ebe 82e2 d03d 8c9a 11be a133 703d
000000b0: 1b1b 09be 7654 bdbd 942b 80bd 6e4a 1d3e
000000c0: 588b 78bd 5767 9bbd 3eaa dbbc a0df 8e3c
000000d0: b05d 07be 4c1e d7bc 07e8 2e3d 11f8 da3d
000000e0: b71f e1bd 88c6 853c 7dc3 27ba 81ca 91bd
000000f0: ea6a fabd e4ea 06be ade9 223e 679f 1fbd
00000100: 8f8f a63c f8d7 e7bd f77c 85bc a6e1 113e
00000110: 2fa2 893d f03d 98bd dbbe 2bba ba5b e43d
00000120: a83f 04bd d644 243e a029 2bbe 6ad1 18be
00000130: d30f 5c3d 9a23 81bc 173d 16be 2123 123e
00000140: 705c 17be 21c2 b63d 45fd b4bd a14b d9bc
00000150: e71b 2a3e 42e9 5ebd 782f 173c 67fe 26be
00000160: 40fe bebc fa2b 25be 7262 c9bb 9870 a53d
00000170: f082 8f3d 7341 0ebe 7d0a 8a3d ab89 2ebd
00000180: 3b14 e13d 7359 f43d dc2e 7fbd fce9 dcbd
00000190: 2972 163e c05d fb3d 0176 1e3e 891c 89bd
000001a0: dffc 863d aa1e f1bd b424 de3c 89b5 14be
000001b0: eede 443c 5a94 983d 1e03 2fbd 30fa e7bd
000001c0: ad3a 06bd 51b4 e43d 4f68 613c 347d 91bb
000001d0: 388d e3bd 06e5 163d 02e0 203e cf57 2ebd
000001e0: 971e 8cbd fb34 03be c232 823d ba10 68bd
000001f0: 08a7 e4bd 92f1 1bbe bbf4 77bd dceb cb3d
-0.007198909 0.037156057 0.07219631 0.123422146 -0.11079455 -0.04357533 -0.08933114 0.15941313
0.10154063 -0.058160122 -0.041781735 0.061131373 0.013419058 -0.0775524 0.116640516 -0.10905957
0.046976235 -0.16249415 -0.06573895 -0.098475814 0.14199501 0.10871344 0.11054448 0.04629093
0.08400779 0.0759966 0.11696039 0.026758885 0.08279729 -0.15175992 0.07106629 0.034082413
0.14189106 -0.1341042 0.14865914 0.04994157 0.08969713 -0.06870336 -0.14093605 0.020119859
-0.15429963 0.10199453 -0.14219111 0.058642987 -0.13389246 -0.09244625 -0.06258312 0.15360424
-0.060679764 -0.0758807 -0.026814576 0.017440617 -0.13219333 -0.026259564 0.042701747 0.10691846
-0.10992377 0.016330019 -0.00063996745 -0.07118703 -0.122274235 -0.13175541 0.15909453 -0.038970377
0.020332126 -0.1132049 -0.01629494 0.14246234 0.06720387 -0.07433689 -0.0006551572 0.11150308
-0.03228727 0.16041884 -0.16715097 -0.14923635 0.05372603 -0.015764046 -0.14671741 0.14271213
-0.14781356 0.08923746 -0.0883737 -0.02652532 0.16612206 -0.05442167 0.009227626 -0.16307984
-0.023314595 -0.16130057 -0.006145769 0.08078116 0.07007396 -0.13892154 0.06740282 -0.04261176
0.10990187 0.119311236 -0.062300548 -0.107868165 0.14691986 0.12273741 0.15474702 -0.06694896
0.065912 -0.11773427 0.02711711 -0.14522375 0.012016041 0.07450171 -0.042727582 -0.11327016
-0.0327708 0.11167205 0.013757779 -0.004439974 -0.1111092 0.036839508 0.15710452 -0.04256421
-0.06841772 -0.12813179 0.063573375 -0.056656577 -0.11164671 -0.1522887 -0.060536128 0.09957096

branch_t.fc2.weight f4 [64, 128]
00000000: 9043 3b3c c368 4cbd e946 81bd 4ade 793d
00000010: 70fb d2bb 662e 40bd aace 64bd 3413 3fbd
00000020: 8eb9 163d 7b8c ad3d b594 ab3d a690 4cbd
00000030: 1dc3 3cbd 9285 793d c00f d9bc bab8 163d
00000040: 80d1 0aba 3334 a8bd c81c 7c3c da75 513d
00000050: a04b c13b 69ee 963d d750 71bd 196d a73d
00000060: c2f1 5dbd c430 db3c b7b1 ae3d 4e67 7c3d
00000070: 1e14 2a3d 7107 69bd 2cca de3c 301d 5ebc
00000080: 454f 99bd 98f6 13bc 2cb1 f53c 2a39 2a3d
00000090: 889c 85bd 2092 03bd 1854 adbc 45cd 24bd
000000a0: 7f7f 8d3d 354c 9a3d 2bc4 983d f0a9 b53c
000000b0: 3016 99bc 2678 96bd 70c0 f53c fd4c 17bd
000000c0: e0d3 413b 30f0 25bc d034 db3c 38c9 71bc
000000d0: 43e8 46bd d080 99bc f03f 11bd 400d 813c
000000e0: 5017 0f3c 810b b03d c8f7 1f3c 814b 843d
000000f0: aaa5 573d 35f7 42bd 805e c2bc b0ae 543c
00000100: 203c 8e3c 4955 8c3d 9a67 91bd 40a8 cabb
00000110: 942c fbbc 7045 4d3c 4a69 363d 4b25 a1bd
00000120: 446c bdbc 90cd 64bc 7296 5f3d 87cf 5bbd
00000130: c9f6 4dbd ed3d aa3d 3a36 e0bc 207d 2f3c
00000140: c75b 843d 1a89 90bd 52f4 243d 5263 91bd
00000150: 8ace 623d abbb 60bd 3561 9f3d 80a8 f43a
00000160: ef4e 903d 986e 6bbc a0c6 193c 003f c6bb
00000170: e87e 00bc 808b 443a 7e3e 573d 0058 6a3b
00000180: 58e1 b3bc dc81 9fbc 6ada dbbc 9656 043d
00000190: aca5 033d d4e1 01bd 0f7a 8cbd d67e 7fbc
000001a0: ff53 29bd 8637 76bd 28eb a6bd 44a4 f2bc
000001b0: 7abb 793d da36 58bd c0a1 793b e4f7 29bd
000001c0: f86e 073c 5741 1ebd 6e35 00bd f834 bc3c
000001d0: b90c 8e3d 33f7 09bd 7e23 423d e018 6e3b
000001e0: f6a9 68bd f226 fbbc d09f efbc 80c5 3ebd
000001f0: c06a a4bd 7754 a0bd 28d8 88bd 5685 413d
00000200: d89b abbc 0015 56bd 7d38 a53d 700e fabb
00000210: 6e8a 463d cab5 5c3d 7cb6 58bd 145f 9ebd
00000220: 1a62 5c3d e81a 233c 40c2 713a a074 01bd
00000230: 001e d1bc 8a9f 8ebd b69e 3c3d 405f edba
00000240: 1f55 30bd 206a c53b 1c59 de3c d830 e7bc
00000250: 7857 35bd c1c6 99bd 9014 ca3b 227a 023d
00000260: aef7 93bd 560b 4cbd 5769 a33d a123 0bbd
00000270: 4a76 423d 00c5 4cba 407d 0ebc 18af ea3c
00000280: 7793 b23d 8f9f 873d 225e 503d 738f 21bd
00000290: 85cc a03d c428 afbc b758 abbd 3f97 8d3d
000002a0: 3377 ab3d a24d 563d e19f 01bd 8098 be39
000002b0: 1491 973c 9efb 793d 3229 473d 99d9 abbd
000002c0: e919 55bd 7b51 44bd 08ea b83c b4f8 b63c
000002d0: a181 9bbd 507e 53bc 4e6c 583d d685 ddbc
000002e0: c06b 173c b021 eebb 2019 dfbc c0b3 ccba
000002f0: 6196 a63d e7ce a83d 908f fcbb 0ac3 0fbd
00000300: 8217 783d 1855 a53c ad25 b4bd 3b8b 88bd
00000310: 3080 e9bb 7f53 933d e164 67bd a849 07bd
00000320: d991 58bd f6ca 33bd e01d 893b 766c 733d
00000330: e0fe 97bb e29f efbc 3c87 a5bd 71af 9f3d
00000340: da4a 493d 4e06 4a3d dce8 c03c a241 fcbc
00000350: 702d 113c 70dd a0bc ac0f a6bc 2006 303b
00000360: 565c 3c3d 4e0c 93bd 424c 85bd 8c80 e3bc
00000370: ad10 adbd 1a9a 5cbd 9010 a4bd 4059 96bb
00000380: a011 71bb 23c3 adbd 9064 cc3c 0ab4 753d
00000390: a5dc b13d c8a5 92bc 7626 6ebd 82b5 3e3d
000003a0: 9a33 7cbd 98da 4bbc de13 103d 1dac a5bd
000003b0: 6a9b 753d aa59 233d 4cdb e3bc d3b3 4ebd
000003c0: b744 61bd e082 6a3c c075 78bd bdc5 b3bd
000003d0: 0aac aebd 629b 3f3d faa6 223d ce90 023d
000003e0: 50c4 d33b 06dc 4d3d 4f92 a83d d8a8 9ebc
000003f0: e4ed 973c a228 193d f231 38bd e0f2 2b3c
0.011429682 -0.049904596 -0.06312353 0.061003007 -0.006438665 -0.04691925 -0.055861153 -0.046649173
0.036798052 0.0847406 0.08377973 -0.049942635 -0.046084512 0.0609184 -0.026496768 0.036797263
-0.00052955 -0.08213081 0.015387721 0.051137783 0.005898908 0.07369692 -0.058914986 0.081751056
-0.054185636 0.026756652 0.0852999 0.061621957 0.04152309 -0.056891862 0.027196012 -0.0135567635
-0.074858226 -0.0090309605 0.029991709 0.041558422 -0.065239966 -0.032121778 -0.021158263 -0.040234823
0.069090836 0.075340666 0.07459291 0.02217576 -0.018687338 -0.07347135 0.029998988 -0.036938656
0.002957575 -0.010128066 0.026758581 -0.014757447 -0.048561346 -0.01873818 -0.035461366 0.015753388
0.0087335855 0.08595944 0.0097636655 0.06459714 0.052648224 -0.047599036 -0.023726702 0.012981102
0.017362654 0.06852204 -0.070998386 -0.0061846077 -0.030660905 0.012528762 0.044534005 -0.07868441
-0.023122914 -0.013965026 0.054586835 -0.05366471 -0.05028418 0.08312593 -0.027369607 0.0107109845
0.06462818 -0.070574 0.040272065 -0.07099022 0.055372752 -0.054866474 0.07782213 0.001866594
0.070463054 -0.014369629 0.009385735 -0.0060499907 -0.007842757 0.0007497594 0.05254983 0.0035758018
-0.021958038 -0.019471101 -0.026837546 0.032309137 0.03214042 -0.031709507 -0.06859218 -0.015594205
-0.04133987 -0.060111545 -0.08150321 -0.029619344 0.060969807 -0.052786686 0.0038090795 -0.041496173
0.008266203 -0.03863653 -0.031300955 0.022974476 0.069360204 -0.033683013 0.04739713 0.0036330745
-0.056802712 -0.030658219 -0.02925101 -0.04657507 -0.080281734 -0.078286104 -0.066818535 0.0472463
-0.020948336 -0.05226612 0.08067415 -0.0076311156 0.04847186 0.053884305 -0.052908406 -0.077329785
0.053804494 0.009955145 0.0009222366 -0.031605363 -0.025527 -0.069640234 0.046049796 -0.0018110052
-0.043049928 0.006024614 0.0271421 -0.028221533 -0.04427287 -0.075086124 0.006167002 0.031854756
-0.072249755 -0.0498155 0.07979076 -0.033969525 0.04747609 -0.0007811338 -0.008696854 0.028647944
0.08719533 0.0662223 0.050871022 -0.039443444 0.07851509 -0.021381743 -0.083665304 0.069136135
0.08372345 0.05232013 -0.031646613 0.00036353245 0.018501796 0.061030976 0.04862327 -0.08391113
-0.052026663 -0.04792927 0.022572532 0.022335388 -0.07593084 -0.012908533 0.052837662 -0.027041357
0.009241998 -0.0072671995 -0.02723366 -0.0015617535 0.08134151 0.082425885 -0.0077075437 -0.035098113
0.060569294 0.020182177 -0.087962486 -0.06667181 -0.007125877 0.0719366 -0.05649269 -0.03302923
-0.052873466 -0.04389473 0.0041844696 0.05942961 -0.0046385378 -0.029251043 -0.080824345 0.07797135
0.04914365 0.04932242 0.023548536 -0.030793015 0.008860931 -0.01963684 -0.020271145 0.002685912
0.045986496 -0.07180081 -0.06508686 -0.027771257 -0.08450446 -0.0538579 -0.080109715 -0.004588276
-0.0036784187 -0.08484485 0.024950296 0.05998615 0.08684663 -0.017901316 -0.058142148 0.046559818
-0.06157265 -0.0124422535 0.035175197 -0.08089469 0.059962668 0.039880432 -0.02781453 -0.050464462
-0.054997172 0.01431343 -0.06065917 -0.0877795 -0.085289076 0.046779044 0.039710023 0.031876378
0.0064626113 0.05025866 0.08231031 -0.01936762 0.018546052 0.037392266 -0.044969507 0.010494918

branch_t.fc2.bias f4 [64]
00000000: a060 183c 2afb 3d3d 4e2b 573d 2a99 783d
00000010: b057 873c 9ffe ad3d be56 80bd 04b5 a63c
00000020: d439 db3c 80bf 6e3c c8b9 c03c dcef 1b3d
00000030: 1a69 3dbd da65 593d 4965 363c e887 0f3b
00000040: c081 f03a 143d 00bd ddc7 b03d 8a88 5d3d
00000050: 13a5 a43d a4d8 8a3b d012 66bc 5513 973d
00000060: aa6a 3e3d 547c bdbc 61aa 95bd 5adb 583c
00000070: 7427 723d 5c68 05bd deb8 563d 2d66 393d
00000080: ec6a 5fbd 979d 0d3d b033 403b 64f5 a3bb
00000090: 98f4 7f3d b6cb 063d fc21 053d 0856 f43c
000000a0: 5d32 893d bdd3 8a3d ace5 03bd 31ab a1bd
000000b0: 0034 4ebd 8abe 453d d04b 23bd 251d 943d
000000c0: 1345 a4bd 9c77 a53c e7e4 95bd 6322 973d
000000d0: 40ed 96bd 6b7a 5abd b957 623d 70de fb3c
000000e0: 3679 6dbd b665 5f3d 7e94 de3c 3795 1dbd
000000f0: 6e34 4c3d 3fc6 a0bd 921b afbd dd1e 3cbc
0.009300381 0.046382107 0.052531533 0.060692944 0.016521305 0.08495831 -0.06266545 0.020349987
0.026760973 0.014572024 0.023526087 0.038070545 -0.04624281 0.05307565 0.011132547 0.0021901075
0.0018349215 -0.03130825 0.08631871 0.054085292 0.08039298 0.0042372514 -0.014042571 0.07376734
0.04648844 -0.023130573 -0.07307888 0.013235891 0.059119657 -0.032570228 0.052422397 0.045263458
-0.054545328 0.034574118 0.0029327683 -0.005003618 0.062489122 0.032909118 0.032503113 0.02982618
0.06699059 0.06778667 -0.032201454 -0.0789398 -0.05034256 0.048277415 -0.039867222 0.072321214
-0.08020987 0.020198636 -0.0731905 0.073796056 -0.073694706 -0.053339403 0.05525944 0.030745715
-0.057976924 0.05454036 0.027170416 -0.03847238 0.04985469 -0.078503124 -0.085501805 -0.011481968

branch_p.fc1.weight f4 [128, 34]
00000000: ee41 a3bd 8c91 21bb 0416 143e fca4 f8bb
00000010: c65e 2bbd 7e20 acbb 243e e73d 7048 42bd
00000020: 736c 043e c143 bb3d 7e4d a43d 906d 593d
00000030: d707 dc3d 1c45 9fbd 45ce d03c 55ea 673c
00000040: 5a88 7cbd 0c31 963d 5f80 53bd 4103 183e
00000050: 8621 48bc d710 c53b f65b 2c3e a7d3 a63b
00000060: 957b 5b3d d2e2 973d e388 00be 8816 80bb
00000070: c2ce 9c3c 4b82 103d 6fc7 bfbb 8a15 09be
00000080: 57f8 2cbe f169 c0bd a2b5 aabd 9dd1 24be
00000090: 3f43 dc3d 8734 b7bd 881c 1c3e aa93 cfbd
000000a0: 5eb5 8d3d 9f7b b13d 88d6 bf3d ef1a f0bd
000000b0: b38a 933d 111c d0bd 9e7c afbc 32b2 9f3a
000000c0: 3ef8 193e 31ab 6c3d 6eee 29bd e742 103c
000000d0: ab9b 86bd 48aa 933c f263 b13d 520b a63d
000000e0: 45bb 3a3d ace6 043e 36ee b63d a592 40bd
000000f0: 82fb 36bd 25d2 9fbb d1be 993d 1722 593c
00000100: a729 e2bd 94f8 193e 023e 27be f751 e63d
00000110: 3bda afbd 308d ba3b e10c 1e3e 121a 223e
00000120: 8370 143e e878 1bbe 8bda 19be 95fb dbbc
00000130: 5b19 d1bd 138d 913d b931 ae3c 277c 313d
00000140: b2dd 003e e0d7 3cbc c554 d9bd b178 2bbe
00000150: 62bd 413d cd39 edbd 5773 d03c c4ee e03d
00000160: 64e9 94bc a136 293c 5fb0 91bd 3aab 8abd
00000170: 6435 ffbd 0448 20be bcb5 bbbd ca6d 523b
00000180: b537 9abc db37 2dbe 5a0b 42bd 4b64 843d
00000190: 29a7 ff3d 200d a03d d39d ba3a 762c 45bd
000001a0: 8345 193d 97d5 b2bc 8363 043e 2161 b73d
000001b0: 2747 e8bd a9a2 ef3d 7404 563d 7259 5f3d
000001c0: ec22 aa3b c833 00bd 6cab 0d3e 929c 83bb
000001d0: 87cb f0bd 7952 e23c a835 29be e54e cc3a
000001e0: 206d b7bd 0627 89bd e51b 45bd c40a 18be
000001f0: ab22 4b3b c32b 073e 12c8 ec3c aa60 94bd
00000200: e40d 77bd 39ae 9c3d c6e6 89bd 3d7d df3d
00000210: 8590 0dbd 0605 c0bd 82d6 55bd 2124 3e3d
00000220: d795 553d 8ff7 0fbe adfe aa3d f5b5 ffbd
00000230: e21f 48bd 9857 d53d 93b2 27be f95e 7bbd
00000240: af76 07bd c1f1 c63d d691 d13d ebc6 cabd
00000250: a66b 27be f612 293e fc06 123e d1c0 efbd
00000260: a7cf bcbb 05ca 1ebe 8133 bdbd b1db 723a
00000270: 5627 1d3e c62a 0dbe 124f 06be 86ee a43d
00000280: ca22 f23b c53b 043e 8e45 093e 33bc 87bc
00000290: cc96 26bc 0b84 b4bc 57f2 2f3d 73b7 94bd
000002a0: e7cf 0e3e 6c26 a2bd 535d 1cbe c69c f33b
000002b0: 1abe 85bd 36f0 c43d 70ae 26be aa14 a4bd
000002c0: 48bd 0d3e f5e0 9f3d 54e7 89bd c16a 9f3d
000002d0: bcdc 1e3e bf6e 113c b19f 163e a36f d33d
000002e0: 7ae4 453d 0e01 a5bd a9c5 0b3e 4519 983d
000002f0: 370e 1f3e 21fb 023e 379b 373c 2383 0d3e
00000300: 8ed1 1cbe 5594 f6bd ccc1 45bd 93d4 23be
00000310: 1b9e 23be aa4f f9bd 7f8d d1ba 0c1b 2cbe
00000320: 9aaa ff3c 71a7 16be a4bd 483d 2f6d dbbc
00000330: b1d6 2bbd e43c f2bd 85ba 06be 8405 11be
00000340: 83d4 20be f9fa 053e 8996 073e 3320 3ebd
00000350: 5ccd 78bc dea0 c43b 7101 a1bb f653 56bd
00000360: b8ee 0e3c fd64 80bd 246d 15be b27c d2bb
00000370: 271b b2bd ec41 0bbd 1569 a5bd 0ca3 02bd
00000380: 020e 1c3e 3480 bfbc 7ef0 5e3b 8248 073c
00000390: b863 77bd 3edb d4bd 9528 14be b5a0 3dba
000003a0: 330f 7dbd 2c9c 9a3d 448f 85bd 2576 483d
000003b0: 0e6d ddbd db03 56bc 9a19 09bd f3e7 023e
000003c0: 5be9 da3d 9d9d 2abe 58e0 983d f767 96ba
000003d0: 6cc7 ee3d d35d 113e 94a6 183e 1315 0e3e
000003e0: ce52 143e 5491 6cbd 56a4 1fbe 1943 09be
000003f0: e00f fe3c 232c 2fbd c739 23be 083a 97bc
-0.079715595 -0.0024653403 0.14461523 -0.007588027 -0.04183843 -0.005252897 0.11291149 -0.047432363
0.12931995 0.091437824 0.08022593 0.053083003 0.10743683 -0.077768534 0.025488982 0.01415499
-0.061653472 0.07333574 -0.051636096 0.14844991 -0.012215024 0.0060139704 0.16831955 0.005091149
0.053584654 0.074163094 -0.12552218 -0.003908936 0.019141559 0.035280507 -0.0058526318 -0.13387123
-0.16891609 -0.09395207 -0.08335425 -0.16095586 0.10755014 -0.08945566 0.15245259 -0.101355866
0.06919359 0.08666157 0.093670905 -0.11723887 0.07204189 -0.10161603 -0.021421727 0.0012183844
0.15036103 0.05778045 -0.04148715 0.008805013 -0.0657266 0.018025532 0.08661641 0.08107628
0.04558875 0.1297862 0.08932154 -0.04701485 -0.04467345 -0.004877346 0.075070985 0.013252757
-0.11043101 0.15036231 -0.16332248 0.11246102 -0.08586546 0.0056931004 0.154346 0.15830258
0.14496045 -0.15182841 -0.15024774 -0.026853362 -0.10209914 0.07106986 0.021263944 0.04333129
0.1258457 -0.011526078 -0.10611872 -0.16745259 0.04729975 -0.1158329 0.025445623 0.10983041
-0.018177696 0.010327966 -0.07113718 -0.0677094 -0.12461355 -0.15652472 -0.091655225 0.0032108896
-0.018825391 -0.16915838 -0.047374107 0.06464442 0.12483055 0.078150034 0.0014237709 -0.048138104
0.037419807 -0.021830363 0.12928586 0.08954073 -0.11341696 0.11700947 0.05225034 0.05452866
0.0051921513 -0.031299382 0.13834924 -0.0040164674 -0.1175757 0.027627217 -0.16524374 0.0015587477
-0.08956361 -0.06696896 -0.048122305 -0.14847857 0.0030996006 0.13200288 0.028903995 -0.07245
-0.06031598 0.07650418 -0.0673347 0.10912559 -0.034561653 -0.09375958 -0.052206524 0.046421174
0.05214485 -0.1405928 0.08349357 -0.124858774 -0.04885853 0.10417098 -0.16376714 -0.06136987
-0.03307217 0.0971408 0.10232894 -0.09901222 -0.16349658 0.1651114 0.14260477 -0.11706699
-0.005762059 -0.15506752 -0.09238339 0.0009264304 0.15347037 -0.13785848 -0.131161 0.08053307
0.007389401 0.12913425 0.1340544 -0.016569233 -0.010167789 -0.02203562 0.042955723 -0.07261553
0.13946496 -0.07917485 -0.15269975 0.0074344603 -0.065303996 0.09616129 -0.1627748 -0.08011754
0.13841736 0.07806579 -0.067335755 0.077840336 0.15513891 0.008876502 0.14709355 0.103240274
0.048313595 -0.08056842 0.1364962 0.07426695 0.15532766 0.1279111 0.01120644 0.13819556
-0.15314314 -0.12040011 -0.048280522 -0.1599906 -0.15978281 -0.12173398 -0.0015987604 -0.16807193
0.031209279 -0.14712311 0.04900898 -0.026785461 -0.041952793 -0.1182802 -0.13157089 -0.1416226
-0.15706067 0.1308402 0.13241018 -0.046417426 -0.01518568 0.006000622 -0.004913502 -0.052326165
0.008723907 -0.06269262 -0.14592415 -0.0064235562 -0.08696585 -0.033998415 -0.080766834 -0.031893775
0.15239719 -0.023376562 0.0034017856 0.008257033 -0.060397834 -0.1039338 -0.14468606 -0.0007233725
-0.061782073 0.07549319 -0.065214664 0.048940796 -0.10811816 -0.013062443 -0.03347168 0.12783794
0.1068904 -0.16661687 0.07464665 -0.0011475076 0.116591305 0.14195947 0.14907295 0.13875227
0.14484712 -0.057755783 -0.15590033 -0.13404502 0.03101343 -0.0427667 -0.15940009 -0.018460289

branch_p.fc1.bias f4 [128]
00000000: 03bc babc 2c4e 23be 50d5 44bd 73d2 13be
00000010: 5245 a8bd 0c1d 8abd b79b e83d 9116 37bc
00000020: 2394 2f3e 3a2e 9e3d 24ac b7bc 786a 13be
00000030: 82a2 083e 6383 dd3d 8867 0dbd 5075 14be
00000040: bc1e 053e 5883 8f3d 8b24 f63d fd12 173e
00000050: 2f8f be3d 1a3d 1a3d 2515 983d 7724 1e3e
00000060: b442 313c 0e92 043e 599c a6bc 8f1e a93d
00000070: c789 5b3d ee70 06be 50af 213e a33c 46bb
00000080: 2bee 59bd e9b3 a5bc b335 6e3b d6f0 4f3b
00000090: 2c00 36bc ee37 8f3d c594 94bd 9b88 15be
000000a0: b44f 453d 3d27 1b3d f029 15bd 4efe d43d
000000b0: d93a c0bd 6060 18be 291b 043d 7b30 603d
000000c0: eae3 f93d dab8 21be a938 0fbe f6af fcbd
000000d0: 5a84 7ebd 5d22 cabd 5efa d43c 5358 10be
000000e0: 638d b3bc 1d23 0d3e 8391 033b b85a 2b3e
000000f0: 4f2a f5bd 0985 ba3d 7c98 8fbd 2d3a dd3d
00000100: 7f37 643d 4f1a 91bd bfa0 fbbd 606c d43d
00000110: 531d 6a3c ff06 913b a710 01be 643b d7bd
00000120: 84f0 883d 7000 ad3d efc0 53bd ceb9 883d
00000130: 6d62 253e 2e55 3bbd bbeb ab3d d198 543c
00000140: d1ac b63b 6bff 393d 9a9c 59bd 71d2 d4bd
00000150: 2817 c13d d6bb 6cbd e4ca 5bbd 03bd d33d
00000160: 7720 1fbd ab31 b73d fa6c e63d 21dc 003e
00000170: 0701 0cbd ba87 963d c290 0d3d dc59 d33d
00000180: 792b 1bbe 4341 d5bc 8742 5d3d 36f1 2dbe
00000190: 0ca4 f4bd 3cf8 40bc 8f6c 153e e13d 143e
000001a0: ff30 043d 959e 73bd 8384 d53c 3c7d 85bc
000001b0: 4844 18be 964d 0d3e f70d f2bd 3bfc 24be
000001c0: 3ccf 823c 1311 293e ff50 87bc a132 023e
000001d0: e1b5 ac3d 4219 d2bc 9d0e 113e 2ec0 173d
000001e0: 7f4e 213e d57e 1a3e 225f 1f3e 1ea5 fd3c
000001f0: f486 e73c 7a7f 6fbd dd94 05be 7624 19be
-0.02279473 -0.15947789 -0.048054993 -0.14435749 -0.08216347 -0.067438215 0.11357825 -0.011174814
0.17146353 0.07723661 -0.02242095 -0.14396083 0.13343242 0.10816076 -0.034522563 -0.14497876
0.13000005 0.07007474 0.12018689 0.14753337 0.09304654 0.037655927 0.07425908 0.15443598
0.010819126 0.1294634 -0.020338224 0.08257782 0.05359819 -0.13129017 0.15789533 -0.0030248545
-0.05320565 -0.02022739 0.0036347925 0.0031729243 -0.011108439 0.069930896 -0.07254938 -0.14602892
0.048171714 0.037879217 -0.036416948 0.10400067 -0.09386224 -0.14880514 0.032252464 0.054733735
0.12201674 -0.15793172 -0.13986458 -0.123382494 -0.06213794 -0.098698355 0.02599829 -0.14096193
-0.021918004 0.13782926 0.0020075745 0.16733825 -0.1197096 0.09107406 -0.07011506 0.10802112
0.055716988 -0.07085096 -0.12286519 0.103722334 0.014289218 0.004425883 -0.12604009 -0.10509375
0.066865 0.08447349 -0.051697668 0.066760644 0.16150828 -0.04573553 0.083945714 0.012975887
0.0055748005 0.0454096 -0.053127863 -0.10391701 0.09428245 -0.05779632 -0.05366029 0.103387855
-0.03884932 0.0894502 0.112512544 0.12583973 -0.034180667 0.073501065 0.03456188 0.10319874
-0.15153302 -0.026032096 0.054018524 -0.16986546 -0.11945352 -0.011777934 0.14592193 0.1447673
0.03227329 -0.059477407 0.026064163 -0.016295068 -0.14869797 0.13799128 -0.1181907 -0.16111843
0.015967958 0.1651042 -0.016518114 0.12714626 0.08433128 -0.02564681 0.14165731 0.03704851
0.157526 0.15087445 0.15563634 0.030962523 0.028262593 -0.05847118 -0.13045068 -0.14955315

branch_p.fc2.weight f4 [64, 128]
00000000: 1735 4dbc b845 b8b9 daf7 833c 3ad4 813c
00000010: 98f3 50bd f3eb 70bd 4061 813d 5bdd b4bc
00000020: e59f 4abd 16fc 83bd 6b75 7b3c 5fca fabc
00000030: 6fd3 83bd 688a a83b 1ab6 873d d787 373c
00000040: 14d3 e53c ccbd b73c ad79 72bd 2cc5 873d
00000050: e579 4abd 6bb8 753d a616 02bd 60ca b3bd
00000060: 0fc0 2dbd 1c04 cfbc ee0b e1bc 085b 9abd
00000070: 12bd 4bbd 80dd 5f3c 57c9 a93d b900 3d3a
00000080: e042 353d 9aff bfbc a3aa 6dbc 54d3 afbd
00000090: deca 72bd cd10 763c 8986 813d fa78 37bd
000000a0: 2a07 9f3b 29ad f93c 11d4 923b 1f45 eb3b
000000b0: f0e1 6f3c 8199 a03d 613a 23bd 6a20 9a3d
000000c0: 92e2 a33d 3c8e 893c 6e15 ae3d 6be1 9b3d
000000d0: 0697 9bbd e6ce d3bc 9cfb e2bc bcba 56bb
000000e0: 48db f5bb c12c a33d 459f 96bd ad9c 2bbc
000000f0: 516d 943d 1388 a33d 506a 92bd baa4 09bd
00000100: bbfa 5e3b 5e6b a7bd 74d7 52bd c30a 3ebc
00000110: 9b28 58bd 1c51 a03b 458d 9d3d 41f9 43bd
00000120: b79a d1bc 1c6c 793c d378 343d e231 abbd
00000130: 06b4 903d 8e5d f63c 6f8e 5abd 1929 d2bc
00000140: 7e07 cdbc 5a55 cd3a 9739 073d 9a91 39bd
00000150: 099a 1cbc 5fc7 89bb 7170 a33c 0ed0 97bd
00000160: d085 70bc 6ab2 d9bb db56 163d f7bc 3b3d
00000170: 8c7c 433d be49 853c a600 ab3d 8eb8 933d
00000180: 1570 7bbd aca4 6cbd 6430 ab3d af92 65bd
00000190: 39f5 ac3d 83e4 493c 73e1 e5bc 339f 123d
000001a0: 0b66 0ebd d81e 6b3d ca4c 373d 5115 8fbd
000001b0: cd99 923c d767 953d 865f 71bd 2cc4 ad3c
000001c0: 03b4 bebc e20a 2d3d 6666 93bd 52f6 8abd
000001d0: d7aa 9dbd 99c6 b03d 67b3 03bc 072e 573d
000001e0: d739 59b9 16a9 9abc a397 a0bd ec1b 6bbd
000001f0: aa3a 463d 1816 8fbd f889 b4bc b5bd c8bb
00000200: e346 a9bd ba11 3a3d 518f 74bc bf08 80bd
00000210: 301a 1c3c 282e 783d f80e 12bd 3a2f 9d3c
00000220: 02b2 5c3d 6ee6 a43d 2a92 a1bd 78b8 e2bc
00000230: 34e3 74bd b7c1 96bd 4ad0 183d 1761 e93c
00000240: 6d45 1d3d 6374 6ebd 06c3 76bd 03fe d2bc
00000250: d921 933d 06c4 f4bc bf29 6cbb f04d 813d
00000260: 4ae5 37bd b03b 6d3c eaba 1bbd 36a6 bc3c
00000270: 0563 f5bc f7e1 62bd 3afb b93d cff2 0f3d
00000280: 8a1d c5bc 3149 873c b882 5b3c c3c7 a73c
00000290: 0830 1a3c 6dc6 983d eef6 b93d 00d2 863d
000002a0: a682 a1bd e38c 9ebd f22d 81bd 8219 7bbd
000002b0: e086 a7bd bf84 9cbc d0a0 a6bd af41 5fbd
000002c0: 4dbd f5bc b6b3 17bc 69f3 c9bb 6cf5 a2bc
000002d0: 66ab 46bd 3ddb 39bb 91f3 6a3c 1635 2c3c
000002e0: e5c2 393d 6ef4 ad3c cdaa 7dbd 8800 ce37
000002f0: 6996 d63b 6817 4e3d 5efb 9dbd 683c 92bd
00000300: 2269 d33c d056 a7bd 38e1 acbd 6e2e 8abd
00000310: 96b3 0c3d dadc 903c d051 2a3c 5ea3 e53c
00000320: 3cbe 033d e509 913a 488b 7d3d 643f 81bd
00000330: 4d5a 943d f22b aebd 7470 513d b884 893d
00000340: 997a 96bd a81a a23d 087e 483d c0cf aabd
00000350: 4050 433d fa2f b5bd 2eba 0dbd 9084 983d
00000360: 7e0c 46bc a079 953c 7655 cbba 1907 113d
00000370: ba19 56bd 8751 893c d976 e1bc b302 433d
00000380: 8bd7 81bc f5c1 e53c 26bb 6cbd f105 6d3d
00000390: c287 eb3c a2b3 b23d caa8 90bd 7165 eabc
000003a0: 7a88 9bbc a205 303d fdac 84bd 84cc 383d
000003b0: 4ec7 e1bc 4627 01bd b2ff e1bc d677 673d
000003c0: 4dfc d83b bec7 603c 85db 8ebd 2cb2 49bd
000003d0: cdd1 8cbd 1442 c13c a788 b5bd 6c7a b9bd
000003e0: 691b 863d 6bd9 5dbd 56dd 313d 7399 04bd
000003f0: 135c 1a3d 650f 91bd 3701 8fbd 44a4 b8bb
-0.012524865 -0.0003514716 0.016109396 0.015848268 -0.05101356 -0.05881877 0.06317377 -0.022078207
-0.049468894 -0.06444566 0.015347819 -0.030614076 -0.06436812 0.0051434524 0.0662653 0.01120182
0.028054751 0.02242937 -0.05919807 0.066294044 -0.049432654 0.059990328 -0.03175988 -0.08778834
-0.04241949 -0.025270514 -0.027471509 -0.07536894 -0.04974086 0.01366365 0.08290356 0.00072098855
0.04425323 -0.02343731 -0.014506015 -0.085852295 -0.0592755 0.015018654 0.06324489 -0.044793107
0.004853149 0.030478077 0.0044808467 0.0071798707 0.01464127 0.078417785 -0.039850596 0.07525714
0.08002199 0.016791455 0.08500181 0.076113544 -0.07597165 -0.025855493 -0.027707867 -0.003276511
-0.007502947 0.079675205 -0.07354597 -0.010474366 0.07247413 0.079849385 -0.07149184 -0.03360436
0.0034023959 -0.081747755 -0.051475003 -0.0115992455 -0.0527731 0.0048924815 0.07692961 -0.04784513
-0.02558647 0.015223529 0.04406054 -0.08359124 0.07065587 0.030073907 -0.05335849 -0.025654363
-0.025027987 0.0015665696 0.033013906 -0.045304872 -0.009558209 -0.004204675 0.019951077 -0.0741273
-0.014680341 -0.006643583 0.036703926 0.045834508 0.0477262 0.016270515 0.08349733 0.072129354
-0.061386187 -0.05777423 0.08358839 -0.05604809 0.0844521 0.012322548 -0.028061604 0.035796355
-0.034765285 0.05740246 0.044750966 -0.06986488 0.017895604 0.072951965 -0.05892899 0.021211706
-0.023279196 0.042246707 -0.07197265 -0.06785263 -0.07698601 0.086316295 -0.008038378 0.05253413
-0.0002071628 -0.018879455 -0.078414224 -0.057399675 0.04839579 -0.06986636 -0.022038445 -0.0061261305
-0.08265474 0.04542706 -0.014926747 -0.06251668 0.009527728 0.060590893 -0.035658807 0.019187558
0.0538807 0.080517635 -0.07889207 -0.027675852 -0.05978699 -0.07361167 0.037308015 0.028488679
0.038396288 -0.058216464 -0.060244583 -0.025755888 0.0718419 -0.029878628 -0.0036035625 0.063136935
-0.0448964 0.014479563 -0.038020052 0.023028474 -0.029954443 -0.055391278 0.09081121 0.03514367
-0.024061937 0.016514393 0.013397865 0.020480996 0.009410866 0.07459722 0.09080301 0.06583023
-0.07886247 -0.07741716 -0.063075915 -0.061303623 -0.08180022 -0.019106267 -0.08136141 -0.054506
-0.029997492 -0.009259155 -0.00616305 -0.019892417 -0.048503302 -0.0028359436 0.014340297 0.010510704
0.04535188 0.021234717 -0.061930466 2.4557361e-05 0.006548692 0.05031529 -0.0771396 -0.07140428
0.025806967 -0.08170855 -0.084413946 -0.06747137 0.034350954 0.017683435 0.010395482 0.028032001
0.032163844 0.0011065571 0.061900407 -0.06310919 0.07243786 -0.08504476 0.051132634 0.06714767
-0.073476024 0.079152405 0.048948318 -0.083404064 0.047683954 -0.088470414 -0.034601383 0.07447159
-0.012087939 0.018246472 -0.001551314 0.03540716 -0.05227063 0.016762508 -0.027522491 0.047609996
-0.01584985 0.028046587 -0.057795666 0.057866994 0.028751258 0.087256685 -0.07063444 -0.028612824
-0.018985976 0.042974122 -0.064783074 0.045116916 -0.027560856 -0.031531595 -0.027587745 0.05651077
0.0066218735 0.013719497 -0.06975464 -0.049242184 -0.06875954 0.023591079 -0.08863955 -0.09056553
0.06548197 -0.054162424 0.043423973 -0.032372903 0.037685465 -0.070830144 -0.069826536 -0.0056348164

branch_p.fc2.bias f4 [64]
00000000: 0315 2fbc 4b16 da3c 1409 54bd 1de9 453d
00000010: 613b c0bb 5abd 15bd 2fa9 3a3d b361 1f3c
00000020: 941a 8c3c 414e c73c 4f0f dd3b b917 3d3d
00000030: ca11 96bc 6a18 84bd ad8d 3a3d a309 59bd
00000040: 04d7 823d 1434 6ebd 8942 573d 2915 803d
00000050: d67b 3b3d cc1c 963d 014b 85bd f153 5dbd
00000060: e757 7c3d e4f4 8fbd d239 e0bc 2add d83c
00000070: fdbb 8dbd 103d 64bd 292b 133d 052c 8e3d
00000080: 027c b23c 38bd e13c 3d78 b13d 425d 0dbd
00000090: 802e 0b3d cddf 6c3d 14b5 a7bd c462 613d
000000a0: 4926 17bd 71b4 ab3c 6fb8 a13c 3ca8 1ebd
000000b0: b0aa 21bd 020e 3abd fcae b2bd 0372 d63c
000000c0: e257 75bd 1f05 6c3c 90cb 57bc f18c ffbb
000000d0: 991e 2d3d bdd1 a6bd db82 8b3d fe7f ad3d
000000e0: 99d7 52bb b467 b0ba 60be ca3b 5837 ed3c
000000f0: e791 b43d 1f28 ecbb 6ce1 71bd 0406 273d
-0.010686162 0.026621958 -0.05176647 0.048318017 -0.0058664535 -0.036557533 0.045571502 0.009727883
0.017102517 0.024329307 0.0067462097 0.0461652 -0.01831903 -0.06449969 0.04554527 -0.052987706
0.06388667 -0.058155134 0.052553687 0.06254036 0.045772396 0.07329711 -0.065084465 -0.05403513
0.061607268 -0.07029131 -0.02737132 0.026472647 -0.069206215 -0.055722296 0.035929833 0.0694199
0.021787647 0.027556047 0.08665512 -0.034512766 0.033979893 0.05783062 -0.08188835 0.05502583
-0.036901746 0.020960065 0.019741265 -0.03873466 -0.03946942 -0.045423515 -0.08724782 0.026177412
-0.059898265 0.014405518 -0.013171092 -0.007798784 0.04226551 -0.08145473 0.06812068 0.08471678
-0.0032171963 -0.001345864 0.0061872452 0.028957054 0.08816891 -0.0072069312 -0.05905287 0.04077722

branch_h.fc1.weight f4 [128, 57]
00000000: a2dd bebd a406 993d 2922 13bd d066 b23d
00000010: 66df d2bd 25b5 fcbd f93f e9bd b603 febd
00000020: 04c3 fc3d c194 9c3d 9d41 8d3d 6ba5 76bd
00000030: 6585 e2bd 352c babd 31b4 9a3d 5f09 bcbc
00000040: 0c8f b73d 4658 b33c 8841 99bc 2ff1 acb9
00000050: 9703 3b3d 5b68 a13d b9e5 d4bd 873f b8bd
00000060: e877 e5bc d6d0 a83c b47f 91bc 8084 5c3d
00000070: 8945 fbbd bcbc f53d 141d 33bc 5926 fb3c
00000080: 7cc4 8cbc a9c8 c8bb 365b 59bd 8914 053e
00000090: 7d03 393d b7c3 28bd c420 57bc fda3 8abd
000000a0: 9139 a23c 736b ebbc 639e c03d 71ee 5fbc
000000b0: 77ac a13d 6f9f f33d d336 95bd ee57 2abd
000000c0: 2c49 de3d ecf5 f6bc 2033 17bd 5430 a5bd
000000d0: 9fbf 593c bfe6 05be e64a f1bd e066 87bd
000000e0: 21c3 2b3d 8a3d a13d c12d 013d ce24 a53c
000000f0: c6cc 2cbb d1d5 23bd b5ae 033e 037f afbd
00000100: 6d13 d73d 5f0a f93d 5d60 60bd c21d 8b3d
00000110: 35cd 9abd a76b 973d 73b5 973d 3ae7 f0bd
00000120: dd4a 6f3c be7c 933d f7d2 31bb e4b9 09bd
00000130: 4900 783c 9647 bdbd 00d6 723c 69ab 80bd
00000140: 26c0 8b3d 54d5 05be 8143 063e 54b2 553d
00000150: 1fcb b03c f726 8c3d 969d 883d 1563 f7bc
00000160: 51f4 553d 3653 b33c 7f60 f13c 2eb0 d33d
00000170: 1162 ba3c a7ab ecbc aa73 393d 0fd5 9bbd
00000180: baf0 afbc df74 cc3d c394 813d 0965 003b
00000190: 1e30 053e a4f1 5cbc a68b b5bd f441 5bbd
000001a0: 1bde b6bd 8142 1bbd 191a 1ebd 6abf 0dbd
000001b0: 552f 36bd 0c49 93bd 21aa ce3a 2198 dabd
000001c0: 77e5 cd3d 4130 fe3c 3637 9c3d 144e 74bb
000001d0: d0ce 1e3d fd8d 593d 55d9 fabd f0e0 163d
000001e0: 3102 d83d 2050 f5bd 6fd8 bfbc 6071 d43d
000001f0: 55c7 7d3d ad0b 483d 13e4 7ebc 5f5c f3bd
00000200: 56ed 673d 82a7 013e 49f8 083d c2d5 10bd
00000210: cb9a 81bc a82c 82bc b8b1 003e fba1 c3bd
00000220: b84c 803d 866b d9bd 335d f8bd 32dd 7c3b
00000230: eefe cebd 5294 463c 2a42 a2bd f546 7a3d
00000240: 111c 95bd 00ca e63d 137b 57bc e055 efbc
00000250: d8b8 913c 6038 943c a24d ea3d d785 f2bd
00000260: 63e7 ed3d 3d5c 64bd 1113 e83d 9e30 fbbd
00000270: b54e a23d 33e0 14bd f128 83bc 5b18 e9bd
00000280: 6178 5d3d b645 9b3d a99d 86bd 9e1b a7ba
00000290: a893 7f3d 0c5c 9d3c 311b d13d ef16 7abd
000002a0: e317 813d 6f16 e63d 6ba8 c33d 2ec9 fb3d
000002b0: ad4d 033d d682 123d ca8a 083d 6f2e af3d
000002c0: eecf 97bd 68a6 863d 9865 f73c c296 383d
000002d0: 4692 34bd e202 b6bd f191 55bd 0313 f53d
000002e0: 65e2 563d e3df 4abd 2e9f 923c 4d9c 6cbd
000002f0: 790e ae3d 364b c9bd c7b5 843d cacf 00bd
00000300: 2aa0 efbd 2b78 393c 4aea c7bd ae4a d0bd
00000310: f332 e3bd 2607 78bb ccb9 b53c bf79 de3d
00000320: 7b04 cb3c 8bce 203d 8d41 fd3d bd0b 9ebc
00000330: 3b4d 863b b98a a9bd a32e fdbd 59a1 cfbd
00000340: 4fae c53d baa7 9fbd ed5e 323d 1262 573d
00000350: 2bae a1bd f179 a5bd 26f5 a1bd 3e6f 4a3d
00000360: d1ea bfbd 0662 c5bd 1b42 36bb 7433 503d
00000370: 0faa bebd d133 d9bd 2937 8fbd 7850 f93d
00000380: aa1e 033e 1277 543d 414d 1fbd e6e0 01be
00000390: e0e7 8b3d 6b2e e93d 9913 373d 1caf 963d
000003a0: 9ac8 fa3b 112a 6ebd 5dd4 04be 2efd c33d
000003b0: 6b71 eabd e752 e03d 81ab 82bd 7d56 d33c
000003c0: b91f 9fbc cdd0 8dbd 2745 5bbd e265 51bd
000003d0: 5020 40bc 2b0b 99bd a030 8a3c 03da b2bd
000003e0: bbec 23bd d494 843c c3ef 9a3d 8fe9 023e
000003f0: 45bd a2bc b30f 133d 8f41 e43d a0fa 9abd
-0.09319617 0.0747197 -0.03592125 0.08711016 -0.10296516 -0.12339238 -0.11389155 -0.124030516
0.12341884 0.0764556 0.0689728 -0.06021635 -0.11060599 -0.09090463 0.075539 -0.022953687
0.08962831 0.021892678 -0.018708006 -0.00032986092 0.04565772 0.07881232 -0.103953786 -0.08996492
-0.028011277 0.020607393 -0.017761089 0.0538373 -0.12269122 0.11998889 -0.010932226 0.030657934
-0.017183535 -0.006127436 -0.0530655 0.12996115 0.045169342 -0.041202273 -0.0131303705 -0.067695595
0.01980284 -0.02873776 0.0940521 -0.013667689 0.07894223 0.11895644 -0.072858475 -0.041587763
0.108538 -0.030146562 -0.03691399 -0.080658585 0.013290315 -0.13076304 -0.11781864 -0.06611419
0.041934136 0.07873066 0.031537775 0.020159151 -0.0026367172 -0.039998833 0.12859614 -0.085691474
0.10501752 0.12160181 -0.0547794 0.06792785 -0.075586714 0.0739358 0.074076556 -0.11762853
0.014605251 0.07201527 -0.0027133801 -0.033624545 0.015136787 -0.092421696 0.014821529 -0.06282694
0.06823759 -0.1306966 0.13111688 0.05217202 0.02158123 0.068433695 0.06670682 -0.030198613
0.05223495 0.021890264 0.029464958 0.10336338 0.02275184 -0.028890444 0.04527632 -0.07608997
-0.021477092 0.09983229 0.06327202 0.0019591472 0.13006637 -0.013485346 -0.088645265 -0.053529695
-0.08929082 -0.03790522 -0.038599107 -0.034606375 -0.044478733 -0.07191667 0.0015767255 -0.106735475
0.100535326 0.031028869 0.07627718 -0.0037277984 0.03877145 0.053113926 -0.12248484 0.03683561
0.10547293 -0.11978173 -0.023418633 0.10373187 0.061957676 0.04883926 -0.015557307 -0.11882853
0.056622826 0.12661555 0.03343991 -0.035360105 -0.015820881 -0.015890434 0.12567794 -0.0955238
0.06264633 -0.106162116 -0.12127151 0.003858399 -0.10107218 0.012120323 -0.07922776 0.061102826
-0.07280744 0.11268997 -0.013151902 -0.029215753 0.017788336 0.018093288 0.114405885 -0.11841934
0.11616399 -0.055752028 0.11331762 -0.12265132 0.079251684 -0.036346626 -0.016010733 -0.113815986
0.05406988 0.07581656 -0.0657304 -0.001274932 0.062396675 0.01920893 0.102102645 -0.061057027
0.06303384 0.112347476 0.095536076 0.12294231 0.0320565 0.035769306 0.033335485 0.085537784
-0.07412706 0.06574708 0.03019981 0.04506565 -0.04408481 -0.088872686 -0.052141134 0.11966517
0.052462 -0.04952992 0.017898168 -0.057766248 0.08498854 -0.098287985 0.06479984 -0.031448163
-0.11700471 0.011320154 -0.09761484 -0.10170494 -0.11093702 -0.0037846058 0.022183321 0.10863065
0.02478241 0.039259475 0.123660184 -0.019292707 0.004098562 -0.08278412 -0.12362411 -0.101381965
0.09652387 -0.07795663 0.04354756 0.05258376 -0.07894548 -0.08079899 -0.079080865 0.049422495
-0.093709596 -0.09637837 -0.0027810398 0.05083032 -0.0930978 -0.10605586 -0.06992943 0.12173551
0.12804666 0.051871367 -0.038892034 -0.12683448 0.06831336 0.11385807 0.044696424 0.07357618
0.007653308 -0.058145586 -0.12971635 0.095697746 -0.11447414 0.10953312 -0.06380368 0.025798077
-0.019424306 -0.06924591 -0.053532746 -0.051122554 -0.011726454 -0.07472833 0.01686889 -0.08732989
-0.040020686 0.016184248 0.07565262 0.12784408 -0.019865641 0.035903644 0.11145317 -0.07567334

branch_h.fc1.bias f4 [128]
00000000: 3e30 98bc 9e74 a3bd f0aa 2e3d 16f3 e3bd
00000010: aa52 a63d b18a d0bd fd77 ae3d e4be 273d
00000020: 7e23 43bd 0efb de3d b25b a5bd f045 6cbd
00000030: a2fb 883d 8d9c ef3d ea6e 503d 75a9 13bd
00000040: 81b5 43bd bbf8 65bb 546a 90bd d7a8 ab3d
00000050: 0c61 03be 58c4 e9bd 11b0 c53d 6a5c ed3d
00000060: fad5 08bd b4b1 8dbc aee5 91bd c82c e63d
00000070: 0d62 e0bd f6c5 663d 5dd0 9bbd 6169 233d
00000080: e3fd 9cbd a890 7cbd 5e93 8dbd e56d 06bd
00000090: c5ec 903d 3715 ab3b 8a2d 12bd 0b10 38bd
000000a0: dc60 423d c405 3bbd f02d 593d cf92 cb3d
000000b0: 76ee 8bbd 23c9 58bd f684 52bc af47 483d
000000c0: b0e2 92bd 12b5 cfbd d5c4 5abd cb17 8ebd
000000d0: ff05 59bd 0b02 a5bd 3089 b73d 5e18 b1bd
000000e0: a4ff 80bd ab07 a5bd 13de 0c3d b03b fcbd
000000f0: 4794 e23c 33b3 db3d bed9 013e cef4 d33d
00000100: d7c5 633d 50a6 363d ff3f a1bd 8d2f 673d
00000110: 6417 aebd 8042 d5bd 6182 183d 021b 70bd
00000120: 3807 97bc 0fa8 023e f078 7cbd 281e 6abd
00000130: 2e77 f53d 41f9 ed3b 9f8d d93c cca5 073d
00000140: dec3 d83d ddab 553d d630 833d d06f 853d
00000150: 083c c7bd c8af 6f3d a796 c6bd ccde 483d
00000160: bcc7 213d c227 c23d 7ea0 ccbd 7419 0b3b
00000170: 7cbd f3bd 7ca9 c13d d2ab e33d 44db a7bd
00000180: 4bec e3bc d14b c33d ade4 a3bd 3ade b6bd
00000190: 41f1 89bd 7260 fc3d f4ce cd3a 9ac1 2fbd
000001a0: e725 3b3d 325c f6bc b44a 173d 069c 8abd
000001b0: ae2b 06be 83d8 c7bd b118 493d b880 bd3d
000001c0: ff7a 6abd 5cfd a6bd 2221 34bd 6d44 8fbd
000001d0: 1740 aa3c be47 00be f528 ba3d db63 ea3d
000001e0: 8a86 5ebd 47a2 f9bd 332e 953d f37f cabd
000001f0: 5945 9b3d 57a0 7e3d 44b7 73bc 270a e3bc
-0.018577691 -0.07981227 0.042643487 -0.11130349 0.08121236 -0.10182703 0.0851898 0.04095353
-0.04764127 0.10887729 -0.0807413 -0.057683885 0.0668862 0.116997816 0.050887026 -0.03605028
-0.047780517 -0.0035090882 -0.070515305 0.08381813 -0.12829989 -0.11414403 0.096527226 0.11589892
-0.03340719 -0.01729665 -0.07123886 0.1123901 -0.10956202 0.056341134 -0.076081015 0.03989542
-0.076656125 -0.061661392 -0.06912874 -0.032819647 0.0707641 0.005221035 -0.03568796 -0.044937175
0.047455654 -0.045659795 0.053022325 0.09940111 -0.06832592 -0.052926194 -0.012849083 0.048896488
-0.071721435 -0.10141958 -0.05341037 -0.06938132 -0.052984234 -0.0805703 0.08961713 -0.08647226
-0.062987596 -0.08058103 0.034391474 -0.12316072 0.027658595 0.10727539 0.12680718 0.10349427
0.055608597 0.0445922 -0.078735344 0.056441832 -0.08500555 -0.104130745 0.037233714 -0.058619507
-0.01843606 0.12759422 -0.061638772 -0.057157665 0.11985622 0.0072623794 0.026556788 0.0331171
0.10584234 0.052165855 0.06405799 0.06515467 -0.09728247 0.058517247 -0.096967034 0.0490406
0.039497122 0.094802395 -0.09991549 0.0021224888 -0.11901376 0.09456155 0.111167565 -0.081961185
-0.027822634 0.09535945 -0.08002601 -0.08929105 -0.06735469 0.12323083 0.0015701936 -0.042909242
0.045690443 -0.030073259 0.036936477 -0.0676804 -0.131026 -0.09758093 0.049095813 0.09253067
-0.057246204 -0.08153793 -0.04397691 -0.06995473 0.020782514 -0.12527367 0.09089843 0.11444827
-0.054327525 -0.12189155 0.072842024 -0.098876856 0.075815864 0.06216463 -0.014875237 -0.027714802
