d2calcbot/main/calc_bot/dota_model_ver01.pth (torch, 77722 bytes, 15 tensors)

branch_t.fc1.weight f4 [64, 34]
-0.055612244 -0.09366896 0.10548753 -0.10176502 0.057432566 -0.12309892 -0.0042403103 -0.039305933
-0.1052854 0.051394973 0.14176072 0.055628415 0.07195598 -0.12739733 -0.056477364 -0.051814623
-0.023983957 -0.091896296 -0.17247328 0.15968323 -0.09197366 0.1620128 0.11152844 -0.15652946
-0.07437877 0.051916342 0.12191819 -0.034083664 0.057438757 -0.08333013 0.05399528 -0.13847037
0.004558026 -0.05846792 -0.06277274 0.10182403 0.07695284 -0.13628913 0.10817344 0.05135668
-0.14129311 -0.021258939 -0.04377212 -0.14843811 0.08465953 0.06742305 0.16645974 -0.1255057
0.12077054 -0.0784263 0.15172046 -0.046510916 -0.010625272 0.13966686 -0.090288155 -0.018047415
-0.100836486 0.013701752 -0.11165946 0.055990744 -0.07169132 0.07140697 -0.16200455 0.045432474
0.0044807107 -0.106639676 0.135141 0.15197176 0.051622204 -0.15641566 0.1424485 0.09152347
0.13154064 0.055490755 -0.1511636 0.13342492 -0.08120382 -0.103590794 0.0007735397 0.020642502
-0.07895643 -0.006175524 -0.028306985 -0.112773314 -0.057351954 0.004333076 -0.1158879 0.0640284
-0.14900187 -0.09334563 0.00877362 0.013283132 -0.15571329 0.107287 0.09768006 -0.09328557
-0.15699778 0.11767768 0.060154278 -0.038094405 0.15872668 -0.07987068 -0.108328864 -0.042048004
0.040203366 -0.15429102 0.11792353 0.14073274 -0.004433686 -0.021695312 0.040168088 0.04648672
0.06620645 0.06432708 0.12937468 0.15675081 0.15180561 -0.14896224 0.009703975 -0.10389616
-0.13529207 -0.012974412 -0.14072832 0.10031929 -0.15365246 -0.10388741 0.113774605 0.04416798
0.13122982 -0.027784841 0.07851441 -0.1703396 0.059943836 -0.16652267 0.100085154 0.13168181
0.07054019 -0.14475277 -0.112683706 0.12292811 0.1507232 -0.15552485 0.09600563 0.037902437
-0.026293632 0.17061229 0.14753656 -0.010713805 -0.024663284 0.05396948 0.090358056 0.08400949
0.11571647 0.06425343 0.1527054 0.07623559 -0.12910059 -0.05307918 -0.0622044 0.12554073
0.075087436 -0.021313716 0.08940576 -0.12705281 0.07473657 0.16193828 0.1701453 -0.12978855
-0.01771886 -0.096075 -0.15210329 0.0051835165 -0.08481529 0.12724695 -0.035974823 0.14629148
0.07555765 -0.016844213 -0.07501479 -0.044427432 0.08873835 0.14500715 -0.054569 0.046699334
0.032092087 0.11895482 0.08668149 -0.1579741 0.07587193 -0.08436072 -0.1696518 0.06251818
-0.14228186 -0.13945577 0.08066778 0.019776132 0.09845231 -0.098077625 -0.066285215 -0.01954494
0.046990085 0.017473161 0.00737408 -0.025659062 -0.120044485 0.00978238 0.16915376 0.047924664
0.11377469 -0.05757326 -0.025262382 -0.009585641 -0.012525237 -0.16776034 0.032884225 -0.0055552246
0.12905814 -0.0022394455 0.10329217 -0.08905899 0.08782025 -0.026421068 -0.12394593 -0.16231997
0.044234496 -0.10228668 -0.022168143 -0.00052218867 0.13566947 -0.0630348 0.12653346 -0.014496733
0.06579282 -0.16563368 0.0401846 0.06405549 -0.114904195 -0.040431518 0.048871294 0.022994075
-0.14952178 -0.015046177 0.02249881 0.039777182 0.08584307 -0.15968578 0.033548754 0.058428537
0.1305503 0.07931717 0.010489397 0.03542151 0.12741397 0.044673458 -0.021390868 -0.012788301
00000000: aac9 63bd 83d5 bfbd d909 d83d 2e6a d0bd
00000010: 693e 6b3d 491b fcbd 4df2 8abb 42ff 20bd
00000020: df9f d7bd 8983 523d b929 113e 9fda 633d
00000030: a85d 933d 7274 02be cf54 67bd 923b 54bd
00000040: 017a c4bc 2034 bcbd d69c 30be 0084 233e
00000050: b05c bcbd afe6 253e 0669 e43d 4249 20be
00000060: e653 98bd 3ba6 543d 3eb0 f93d 509b 0bbd
00000070: e744 6b3d fda8 aabd 282a 5d3d 2dcb 0dbe
00000080: 7e5b 953b 0f7c 6fbd ff8e 80bd 1e89 d03d
00000090: 7399 9d3d 618f 0bbe 098a dd3d 625b 523d
000000a0: 24af 10be 3a27 aebc 654a 33bd 2900 18be
000000b0: fa61 ad3d 1915 8a3d 6c74 2a3e 9184 00be
000000c0: 8b56 f73d f89d a0bd 9c5c 1b3e 3b82 3ebd
000000d0: 9f15 2ebc d404 0f3e ffe8 b8bd 2cd8 93bc
000000e0: 5c83 cebd 507d 603c b7ad e4bd 8d56 653d
000000f0: e6d2 92bd d13d 923d 85e4 25be 6717 3a3d
00000100: edd2 923b e765 dabd 6762 0a3e 7c9e 1b3e
00000110: ce71 533d 6d2b 20be 05de 113e a870 bb3d
00000120: 97b2 063e 464a 633d a1ca 1abe 8ba0 083e
00000130: 304e a6bd 6927 d4bd 5fc7 4a3a 771a a93c
00000140: e9b3 a1bd 0d5c cabb 0de4 e7bc b2f5 e6bd
00000150: e2e9 6abd 7afc 8d3b a356 edbd 5221 833d
00000160: f293 18be fe2b bfbd 3bbf 0f3c 7ea1 593c
00000170: 4e73 1fbe 49b9 db3d 7c0c c83d 810c bfbd
00000180: 07c4 20be ff00 f13d 5564 763d e108 1cbd
00000190: 3f89 223e 3d93 a3bd 86db ddbd 873a 2cbd
000001a0: 49ac 243d 77fe 1dbe e481 f13d 3e1c 103e
000001b0: 7448 91bb 5eba b1bc 4b87 243d dc68 3e3d
000001c0: 3f97 873d ebbd 833d cc7a 043e 4983 203e
000001d0: ee72 1b3e 8f89 18be 6cfd 1e3c 83c7 d4bd
000001e0: 018a 0abe a192 54bc 161b 10be 3374 cd3d
000001f0: 1257 1dbe ecc2 d4bd a902 e93d 7ce9 343d
00000200: 1c61 063e 099d e3bc 2acc a03d 816d 2ebe
00000210: ab87 753d eb84 2abe 72f9 cc3d 99d7 063e
00000220: 6077 903d 123a 14be b7c6 e6bd bcc1 fb3d
00000230: 2f57 1a3e e841 1fbe 9a9e c43d 963f 1b3d
00000240: be65 d7bc fdb4 2e3e d313 173e f588 2fbc
00000250: a80a cabc 1a0f 5d3d a50d b93d 2b0d ac3d
00000260: c2fc ec3d 4d97 833d ce5e 1c3e 6821 9c3d
00000270: f232 04be 8e69 59bd 0aca 7ebd c08d 003e
00000280: 71c7 993d 1a9a aebc 5e1a b73d 221a 02be
00000290: 7d0f 993d 26d3 253e 923a 2e3e 4ae7 04be
000002a0: 2527 91bc f8c2 c4bd f7c0 1bbe 7dda a93b
000002b0: a4b3 adbd 064d 023e 565a 13bd 6fcd 153e
000002c0: f8bd 9a3d e0fc 89bc 5ba1 99bd 8af9 35bd
000002d0: 74bc b53d c17c 143e be83 5fbd cd47 3f3d
000002e0: fe72 033d 969e f33d 1186 b13d f6c3 21be
000002f0: be62 9b3d 50c5 acbd 34b9 2dbe 8809 803d
00000300: 56b2 11be 7ecd 0ebe 2635 a53d 8e01 a23c
00000310: 5da1 c93d ecdc c8bd 8bc0 87bd b61c a0bc
00000320: ad78 403d e023 8f3c 44a2 f13b f432 d2bc
00000330: e2d9 f5bd 4746 203c a536 2d3e a74c 443d
00000340: b402 e93d f0d1 6bbd 0ef3 cebc 180d 1dbc
00000350: a736 4dbc 5ec9 2bbe 9cb1 063d 9a08 b6bb
00000360: d127 043e a9c3 12bb d88a d33d 8f64 b6bd
00000370: 1adb b33d ff70 d8bc 5dd7 fdbd 3537 26be
00000380: 3b2f 353d ae7b d1bd f799 b5bc 7de3 08ba
00000390: f0ec 0a3e 6418 81bd fd91 013e b583 6dbc
000003a0: 63be 863d e09b 29be 9b98 243d 862f 833d
000003b0: e452 ebbd 859b 25bd 442d 483d 125e bc3c
000003c0: 3d1c 19be 3e84 76bc 6d4f b83c 66ed 223d
000003d0: 7ece af3d ab84 23be 6b6a 093d c352 6f3d
000003e0: faae 053e 0a71 a23d b8db 2b3c 2516 113d
000003f0: cf78 023e 84fb 363d e73b afbc 0686 51bc

branch_t.fc1.bias f4 [64]
0.10675483 0.0029549822 -0.1599254 0.02828396 0.07580143 0.09035855 0.11867493 0.15666565
-0.14972351 -0.09160758 -0.1443691 0.10909776 0.0374786 -0.017364142 -0.10378154 -0.021878261
-0.004021703 -0.15364178 0.094641946 -0.13507958 0.08749856 0.109772265 -0.07820396 0.09910847
0.12634166 -0.15352382 -0.03260516 0.03855299 -0.035013545 0.045957327 0.061036922 0.15870744
0.089203514 -0.16124263 0.13270472 -0.10044557 -0.02815485 0.011227563 0.12664922 0.10532342
-0.05606214 -0.13512072 0.11249417 -0.12453397 -0.09831487 0.14040028 0.16178049 0.13544498
0.16092545 -0.012592489 -0.12778826 0.12611039 0.10917342 -0.029055404 0.10281992 0.037428413
-0.13917367 0.079206124 -0.056571808 0.15194952 0.071392775 -0.076863505 0.01736896 0.009967197
00000000: 47a2 da3d 60a8 413b 7cc3 23be c3b3 e73c
00000010: c83d 9b3d e70d b93d d70b f33d f66c 203e
00000020: 1f51 19be c19c bbbd 7ed5 13be a56e df3d
00000030: 2983 193d 3f3f 8ebc 6b8b d4bd 0a3a b3bc
00000040: 7dc8 83bb 4554 1dbe a3d3 c13d 4d52 0abe
00000050: 7232 b33d 48d0 e03d 6629 a0bd 62f9 ca3d
00000060: b55f 013e 5935 1dbe fd8c 05bd bde9 1d3d
00000070: 5d6a 0fbd c03d 3c3d da01 7a3d 3484 223e
00000080: 55b0 b63d ca1c 25be bfe3 073e 68b6 cdbd
00000090: 00a5 e6bc d0f3 373c 55b0 013e ceb3 d73d
000000a0: 6aa1 65bd 165d 0abe 5863 e63d ab0b ffbd
000000b0: 4e59 c9bd 17c5 0f3e c9a9 253e 17b2 0a3e
000000c0: a4c9 243e ba50 4ebc edda 02be 1523 013e
000000d0: 5096 df3d 9905 eebc 4093 d23d 894e 193d
000000e0: 8b83 0ebe d236 a23d d7b7 67bd a898 1b3e
000000f0: 6036 923d 9d6a 9dbd 5949 8e3c 744d 233c

branch_t.fc2.weight f4 [16, 64]
-0.014961519 -0.044924513 -0.060719844 -0.012314753 -0.09518226 -0.04228972 -0.08790662 -0.034868043
-0.06554492 0.10981696 -0.09460826 -0.052142683 -0.08168162 0.028405776 0.05177395 0.015987385
-0.033533324 0.07125673 -0.06680394 0.104928814 -0.034519136 0.09819896 0.119723216 -0.007914078
0.01211602 -0.017967977 0.11677255 0.026464146 -0.028640114 0.08576213 -0.09180316 -0.07380627
-0.08609151 0.0044965586 0.0118026165 -0.12237271 0.0011112974 -0.10402144 -0.08514863 -0.06590368
-0.014196011 0.098832235 0.043125637 0.025816528 -0.07030024 0.028809348 0.058951188 0.03135676
0.045143843 -0.055297773 -0.12215421 -0.06913584 -0.11397164 -0.024479661 0.068834 7.831001e-05
0.112364724 -0.021270735 -0.099037595 0.070754066 0.05199769 -0.017766694 0.086387895 -0.034927394
0.09608701 0.12477764 0.07217629 -0.023467274 -0.10631161 -0.0050847074 -0.0018506377 0.0087706
-0.061749384 -0.03814325 0.11206648 0.08626524 -0.06967879 0.106223725 0.00071155175 0.108763866
-0.0003670492 -0.07159817 0.02552719 -0.039061442 0.040268037 -0.027434941 -0.037143532 -0.08717178
-0.094945334 0.12403372 0.09077523 0.11952202 0.118506245 -0.0057083867 0.07767818 -0.08534578
0.11717822 -0.027404172 -0.00933333 -0.08762797 0.08518089 0.09171041 -0.0027818002 0.013949798
-0.05763258 0.093500674 -0.038151342 -0.10190084 0.04919971 0.06388847 0.03073933 0.11251475
-0.008721643 0.044000298 0.069041334 0.11886847 0.0645762 0.051374048 0.018911278 -0.078461155
0.113746874 0.10434892 -0.039498832 -0.022982463 0.05964395 0.107482575 -0.0025435742 0.06373372
-0.09644059 0.07901896 -0.019320102 -0.07476062 0.005251716 0.10441141 -0.0059911907 0.03304362
-0.1120045 0.03805258 -0.05100099 0.014859042 -0.010470236 0.01962194 -0.030939365 0.024990093
-0.05117703 -0.0506633 -0.11183168 -0.0012079319 0.058745325 0.0442724 -0.09889895 -0.04594438
0.07569606 -0.0024329103 0.027423156 0.030044692 0.11332919 -0.07647831 -0.026087178 0.007763766
0.07181388 -0.0070576626 -0.060297687 0.03020302 -0.041326102 -0.0072841295 0.015015348 -0.10436822
-0.07314862 0.052382115 -0.04439478 0.05655464 0.110520445 0.00016398911 -0.0712953 0.062276065
0.03758813 -0.005227628 -0.05181981 0.10370462 0.11792877 0.004232186 0.120229304 -0.016823962
0.022103053 0.090429015 0.043174695 -0.018321384 0.037971567 0.1010351 -0.0073817177 -0.09081597
-0.08757773 -0.09857999 0.047641397 -0.039038442 0.11261054 0.0105136745 0.022545531 0.021799583
0.051552135 -0.031650968 0.05839641 0.09185442 0.0017368721 0.11806028 0.0818434 0.045991603
-0.054266013 -0.0050498117 0.045389276 0.015900705 -0.10521142 -0.098263696 -0.104938194 0.10015437
-0.003081986 0.07934478 -0.047013313 0.075592585 0.023772256 0.06609087 -0.012320519 -0.061653733
0.0953716 -0.02929057 -0.074495494 0.122570224 0.08997365 -0.123734266 -0.06341841 0.0582445
-0.08215036 -0.035060693 0.059159525 0.090921946 0.020279355 -0.0885825 0.106772654 -0.012003745
-0.004274852 -0.008636676 0.048639853 0.00820088 -0.10065769 -0.018305352 0.01616151 0.024428256
0.117547974 0.006643819 -0.06256777 0.08691951 -0.07938134 0.026665263 0.0934854 -0.05732129
00000000: 2921 75bc c402 38bd 5fb5 78bd d1c3 49bc
00000010: ebee c2bd fc37 2dbd 6308 b4bd cbd1 0ebd
00000020: 6a3c 86bd b7e7 e03d fac1 c1bd 9193 55bd
00000030: b148 a7bd 3bb3 e83c ec10 543d faf7 823c
00000040: 3d5a 09bd 0cef 913d 81d0 88bd ebe4 d63d
00000050: f063 0dbd 891c c93d 7231 f53d 0daa 01bc
00000060: 4582 463c 9431 93bc 7226 ef3d 56cb d83c
00000070: ac9e eabc 0ea4 af3d 4c03 bcbd be27 97bd
00000080: bf50 b0bd de57 933b c35f 413c 8b9e fabd
00000090: f4a8 913a 3109 d5bd 6862 aebd 82f8 86bd
000000a0: 6396 68bc 8e68 ca3d 82a4 303d 2f7d d33c
000000b0: 92f9 8fbd 9501 ec3c cd76 713d f26f 003d
000000c0: c0e8 383d eb7f 62bd fd2b fabd 1797 8dbd
000000d0: f769 e9bd 9289 c8bc d7f8 8c3d 5e3a a438
000000e0: 7a1f e63d f73f aebc 39d4 cabd 82e7 903d
000000f0: 88fb 543d 758b 91bc 23ec b03d 0710 0fbd
00000100: 44c9 c43d 6b8b ff3d 2ad1 933d 713e c0bc
00000110: e7b9 d9bd 9e9d a6bb 1991 f2ba 90b2 0f3c
00000120: ecec 7cbd 193c 1cbd 1c83 e53d d5ab b03d
00000130: c1b3 8ebd d38b d93d 6e87 3a3a 97bf de3d
00000140: 8270 c0b9 10a2 92bd 661e d13c e4fe 1fbd
00000150: 19f0 243d 3ebf e0bc d123 18bd 1e87 b2bd
00000160: b372 c2bd 6405 fe3d 5de8 b93d f6c7 f43d
00000170: 67b3 f23d 6b0d bbbb bd15 9f3d c5c9 aebd
00000180: 22fb ef3d b77e e0bc d3ea 18bc 4b76 b3bd
00000190: 5273 ae3d abd2 bb3d dd4e 36bb b28d 643c
000001a0: 2410 6cbd 487d bf3d 9544 1cbd 63b1 d0bd
000001b0: a385 493d f5d7 823d 0cd1 fb3c 226e e63d
000001c0: 39e5 0ebc a839 343d 8b65 8d3d 5071 f33d
000001d0: 8740 843d 986d 523d d3eb 9a3c 3eb0 a0bd
000001e0: 1ff4 e83d e3b4 d53d 87c9 21bd b845 bcbc
000001f0: 374d 743d d31f dc3d 18b2 26bb d386 823d
00000200: a582 c5bd b1d4 a13d 3145 9ebc 191c 99bd
00000210: 9616 ac3b a6d5 d53d c051 c4bb bf58 073d
00000220: 9e62 e5bd 06dd 1b3d 6ae6 50bd 5773 733c
00000230: 5a8b 2bbc 31be a03c 8d74 fdbc 06b8 cc3c
00000240: 019f 51bd 5284 4fbd 0208 e5bd 7853 9eba
00000250: f09e 703d fa56 353d 888b cabd 2d30 3cbd
00000260: 8906 9b3d 7671 1fbb 87a6 e03c 4920 f63c
00000270: 2219 e83d a9a0 9cbd c7b4 d5bc 3167 fe3b
00000280: 2813 933d f743 e7bb b5fa 76bd 536c f73c
00000290: 8f45 29bd b5af eebb ef02 763c 01bf d5bd
000002a0: f2ce 95bd a18e 563d 4dd7 35bd d7a5 673d
000002b0: 8b58 e23d 7ef4 2b39 4503 92bd 3015 7f3d
000002c0: 03f6 193d 864c abbb 0241 54bd 1663 d43d
000002d0: a484 f13d 26ae 8a3b c83a f63d 68d2 89bc
000002e0: 7611 b53c d932 b93d f3d7 303d ba16 96bc
000002f0: 1388 1b3d 7eeb ce3d 56e2 f1bb b9fd b9bd
00000300: f45b b3bd 4ee4 c9bd a023 433d c6e6 1fbd
00000310: 5ba0 e63d 8c41 2c3c 68b1 b83c 0a95 b23c
00000320: 5528 533d 72a4 01bd 1331 6f3d 2c1e bc3d
00000330: c2a7 e33a 97c9 f13d 839d a73d b161 3c3d
00000340: 0a46 5ebd e478 a5bb 1bea 393d 3242 823c
00000350: 1679 d7bd 7a3e c9bd d6e9 d6bd bc1d cd3d
00000360: 25fb 49bb 847f a23d 0891 40bd 49d0 9a3d
00000370: 09be c23c a65a 873d 01dc 49bc a088 7cbd
00000380: 2f52 c33d c7f2 efbc 1891 98bd 1906 fb3d
00000390: 1b44 b83d 6468 fdbd 83e1 81bd c991 6e3d
000003a0: 733e a8bd cd9b 0fbd 4251 723d 4935 ba3d
000003b0: e420 a63c be6a b5bd 9fab da3d 5bab 44bc
000003c0: 0f14 8cbb d880 0dbc 953a 473d fc5c 063c
000003d0: 9e25 cebd 1bf5 95bc 2565 843c c41d c83c
000003e0: febc f03d 65b4 d93b 8823 80bd db02 b23d
000003f0: af92 a2bd 1c71 da3c 4675 bf3d bbc9 6abd

branch_t.fc2.bias f4 [16]
0.09444849 0.050819196 -0.019584017 0.06368276 -0.08244699 0.030099077 0.007985339 0.08486047
-0.018717617 -0.023492666 -0.05386377 -0.04637045 -0.024653234 -0.06549999 -0.061903935 -0.021558944
00000000: 366e c13d ca27 503d a96e a0bc 1b6c 823d
00000010: f8d9 a8bd 5792 f63c f0d4 023c 53cb ad3d
00000020: b055 99bc b173 c0bc 42a0 5cbd f1ee 3dbd
00000030: 94f5 c9bc dc24 86bd fb8e 7dbd 629c b0bc

branch_p.fc1.weight f4 [128, 34]
0.12472034 -0.072697796 0.0767221 -0.07070893 -0.1535905 -0.027625708 -0.100084245 0.07492222
-0.06086466 0.13087553 0.06793373 0.12547785 0.16106606 -0.096237406 -0.16356288 -0.02773865
-0.103814915 0.12886626 0.13681094 -0.050509386 0.05952634 -0.09800312 -0.14142725 0.12355649
0.072280586 0.054519285 0.1357587 -0.13501796 -0.15111412 -0.14408639 -0.038158387 0.064263165
-0.023919724 -0.063587576 -0.030063849 -0.11912529 0.04075714 0.077907264 -0.017622517 -0.14023359
0.065557875 0.15610068 0.07185582 -0.0648376 0.04359732 0.16159444 -0.09704069 -0.13354093
-0.15218483 0.04677782 -0.15824656 0.1438967 -0.06804138 0.122160874 0.15577504 0.09668957
-0.076055996 0.111009195 -0.15581545 0.091044135 -0.15237547 0.015583178 0.1425303 0.12096488
0.02396713 -0.047194287 0.0590207 0.12045375 0.0964112 0.16779813 -0.004234705 -0.05088385
0.109987915 -0.14648831 -0.07565622 0.032654762 0.13129634 -0.024079494 -0.13106261 0.10688764
-0.029015258 0.063549876 0.039895102 -0.1699234 0.16494557 -0.012641335 -0.108949676 -0.0671058
-0.03086155 0.09578825 0.13832144 0.00201902 -0.056205772 -0.13715005 -0.056722883 0.009800723
-0.13256404 -0.009046755 -0.16965097 -0.016644558 -0.12708881 -0.09098786 -0.15828992 -0.09026102
-0.09211375 -0.109167784 0.15504014 -0.061645284 -0.0015435487 0.059904587 0.057679903 0.098733716
0.044833157 0.055964213 0.12300119 -0.13558403 -0.03791668 0.13432495 0.120860755 0.1467669
-0.08305315 -0.14633778 0.0948937 0.07469485 0.028363228 0.16778362 -0.023853622 0.10514994
-0.15694287 -0.08513092 -0.09976718 -0.020158913 -0.12694192 -0.13466817 -0.03278262 -0.020995276
0.11695794 -0.012601051 -0.1306418 -0.050061412 0.05621058 -0.13325478 -0.03354483 0.0610135
-0.05309423 0.12741752 -0.14598677 0.07204442 -0.009835557 -0.04792114 -0.03642868 -0.036098216
-0.06611844 -0.06592904 -0.029741177 0.14622106 0.115117006 0.12130875 -0.026138002 0.106906764
0.0009328294 -0.1041278 -0.08221893 -0.14415129 -0.089042105 -0.004783519 -0.07631181 0.14384726
-0.07077294 0.096443385 -0.12673198 0.00476092 0.13858871 0.16672151 0.061428644 0.07279594
-0.07567821 -0.054232888 -0.04382399 0.011375083 -0.033800315 -0.07996414 -0.019445896 -0.09324843
0.1011385 0.09436337 -0.15705873 0.0364485 -0.16584022 -0.06310035 -0.08653405 0.14049657
0.11505742 -0.15347429 -0.012228252 -0.13538605 0.07541845 0.10024142 0.110790215 0.060349472
0.00630347 0.036215473 0.16137338 -0.12039932 0.13276854 -0.060787562 -0.16984655 0.028692247
-0.113070555 0.032049544 0.10867381 -0.07870354 0.12980072 -0.15879174 -0.052622203 0.05760857
-0.12034144 0.16462252 -0.032168504 0.16130693 0.05231038 0.15591113 -0.096821465 0.14603332
0.12825273 -0.01263535 0.095609784 -0.16039054 -0.052821577 0.15990119 0.08536712 0.03930418
-0.0066671013 0.15860178 -0.0681053 -0.06634508 0.16412067 -0.13403669 0.09973161 -0.16288047
-0.10754047 0.12502027 0.083048895 0.029999243 -0.021588027 0.10835094 -0.16402954 -0.16819866
0.0038811718 -0.082767546 -0.06317212 0.12620105 -0.043161254 0.168735 0.030801358 0.013840777
00000000: 616d ff3d 95e2 94bd 7a20 9d3d d8cf 90bd
00000010: d446 1dbe 4f4f e2bc f8f8 ccbd d270 993d
00000020: 394d 79bd 3c04 063e d720 8b3d 447d 003e
00000030: 80ee 243e 1e18 c5bd 077d 27be 2a3c e3bc
00000040: ea9c d4bd 84f5 033e 2b18 0c3e eee2 4ebd
00000050: e4d1 733d dcb5 c8bd 4ed2 10be 2f0b fd3d
00000060: d807 943d 9d4f 5f3d 5404 0b3e 2642 0abe
00000070: a9bd 1abe 628b 13be f84b 1cbd 689c 833d
00000080: 4cf3 c3bc 343a 82bd 7648 f6bc f6f7 f3bd
00000090: f5f0 263d d88d 9f3d 195d 90bc 6599 0fbe
000000a0: 3543 863d dbd8 1f3e 2529 933d 93c9 84bd
000000b0: 1a93 323d 0379 253e 45bd c6bd f4be 08be
000000c0: 57d6 1bbe 199a 3f3d 630b 22be a859 133e
000000d0: 4759 8bbd 7b2f fa3d 7e83 1f3e 2e05 c63d
000000e0: 3fc3 9bbd ca58 e33d 168e 1fbe 5975 ba3d
000000f0: 5108 1cbe 9650 7f3c 77f3 113e 6fbc f73d
00000100: b756 c43c cc4e 41bd b1bf 713d 75b0 f63d
00000110: 3c73 c53d 46d3 2b3e 48c3 8abb 956b 50bd
00000120: 5841 e13d 0801 16be a6f1 9abd 00c1 053d
00000130: 8c72 063e 5c42 c5bc 4735 06be e8e7 da3d
00000140: 68b1 edbc 7026 823d 0c69 233d 6600 2ebe
00000150: 7ee7 283e 9a1d 4fbc 0221 dfbd c46e 89bd
00000160: 5cd1 fcbc a12c c43d 23a4 0d3e 8951 043b
00000170: 0638 66bd 1071 0cbe 4156 68bd 3693 203c
00000180: debe 07be d738 14bc fcb8 2dbe 2b5a 88bc
00000190: 9223 02be d857 babd c116 22be c5da b8bd
000001a0: 22a6 bcbd 5c93 dfbd d8c2 1e3e c47f 7cbd
000001b0: e650 caba 835e 753d c341 6c3d e734 ca3d
000001c0: f9a2 373d bb3a 653d 0ce8 fb3d 8ad6 0abe
000001d0: 854e 1bbd 7b8c 093e d885 f73d 104a 163e
000001e0: c517 aabd 92d9 15be a157 c23d 9df9 983d
000001f0: 005a e83c 78cf 2b3e ac68 c3bc da58 d73d
00000200: a2b5 20be 1f59 aebd bc52 ccbd 4e24 a5bc
00000210: 10fd 01be 74e6 09be 1247 06bd 49fe abbc
00000220: a587 ef3d a374 4ebc f7c6 05be 320d 4dbd
00000230: 113d 663d f173 08be 4e66 09bd 4be9 793d
00000240: 5679 59bd bd79 023e 8e7d 15be 068c 933d
00000250: 5125 21bc f548 44bd 3d36 15bd b9db 13bd
00000260: 1b69 87bd ce05 87bd c5a3 f3bc f9ba 153e
00000270: 77c2 eb3d b970 f83d 5d1f d6bc eff1 da3d
00000280: 1f89 743a f540 d5bd 6662 a8bd 659c 13be
00000290: b55b b6bd 11bf 9cbb 5e49 9cbd b24c 133e
000002a0: 67f1 90bd 1c84 c53d 07c6 01be 7e01 9c3b
000002b0: 33ea 0d3e 0bb9 2a3e 9a9c 7b3d 0a16 953d
000002c0: 2dfd 9abd 4e23 5ebd c980 33bd 8e5e 3a3c
000002d0: 3372 0abd 3dc4 a3bd 004d 9fbc 08f9 bebd
000002e0: b421 cf3d 9541 c13d 01d4 20be 064b 153d
000002f0: 05d2 29be c23a 81bd c438 b1bd 55de 0f3e
00000300: 3aa3 eb3d 5d28 1dbe 0259 48bc a4a2 0abe
00000310: fd74 9a3d 604b cd3d fbe5 e23d 0231 773d
00000320: 578d ce3b ad56 143d 103f 253e eb93 f6bd
00000330: 7af4 073e 61fc 78bd 41ec 2dbe 010c eb3c
00000340: 8991 e7bd 6246 033d 6090 de3d 522f a1bd
00000350: 7bea 043e 4d9a 22be 618a 57bd f7f6 6b3d
00000360: 9375 f6bd ce92 283e 1fc3 03bd a52d 253e
00000370: 6943 563d 2ba7 1f3e 554a c6bd c289 153e
00000380: af54 033e 8004 4fbc 10cf c33d 6b3d 24be
00000390: 705b 58bd 23bd 233e f5d4 ae3d 6bfd 203d
000003a0: b377 dabb 8168 223e cb7a 8bbd eedf 87bd
000003b0: 400f 283e ea40 09be 1640 cc3d 23ca 26be
000003c0: 2e3e dcbd 5005 003e 8a15 aa3d f9c0 f53c
000003d0: 60d9 b0bc 19e7 dd3d 5cf7 27be 453c 2cbe
000003e0: 425b 7e3b 0882 a9bd 6260 81bd d93a 013e
000003f0: dbc9 30bd dec8 2c3e 2153 fc3c 6dc4 623c

branch_p.fc1.bias f4 [128]
0.16421027 0.025689637 -0.13492735 -0.05166876 -0.034462612 -0.167354 -0.16213381 0.0117291
-0.1690325 -0.12020239 0.014910695 -0.09096072 -0.034889244 -0.0728376 -0.021419808 -0.12251748
0.03375819 0.1702469 0.15396854 0.109671324 -0.09592396 -0.15527499 -0.12627657 0.013128441
0.0643445 -0.10229854 -0.014890664 -0.14619933 0.13357799 0.16984299 0.0114027215 -0.1582976
-0.08275692 0.14808755 -0.018396325 -0.009788721 0.122480646 -0.027507734 0.05245861 0.052993324
-0.16725612 -0.048269656 -0.048437297 -0.033859834 0.1496354 -0.064934306 -0.13931149 -0.104488686
0.022401834 -0.08681719 -0.06776208 0.08163533 0.1265453 0.028989267 0.14205083 0.0014311883
0.07734846 -0.03409276 0.07287437 -0.0047337054 0.08367519 -0.12631619 -0.10783717 -0.08630784
-0.14541833 0.0060369754 -0.0927865 0.06797401 0.04670176 -0.036039535 0.042661037 0.14174372
-0.14145385 -0.1677166 0.13363412 0.064081 -0.062455263 -0.11475253 -0.060451187 -0.056594398
-0.001775226 0.012658437 -0.039908096 0.07586212 -0.015763517 0.10659271 0.15523534 -0.115140945
-0.051685844 -0.026957043 0.12500048 0.12953703 0.03312909 0.16893081 0.16062352 -0.03244747
-0.011648457 0.055393174 0.13283333 -0.08969676 -0.114724964 0.06763003 0.014562613 -0.108363755
-0.05276971 -0.044679306 -0.08602596 0.16580357 -0.13421552 -0.09731236 0.09280407 0.02756691
0.054293066 0.0676263 -0.096272446 0.054016374 -0.169755 -0.11686378 0.053718057 -0.058359157
0.07522713 -0.08109972 -0.06558354 0.04108764 0.06086863 -0.009396084 0.13627158 0.051083766
00000000: bd26 283e 1373 d23c 652a 0abe 9fa2 53bd
00000010: ab28 0dbd d95e 2bbe 6806 26be 692b 403c
00000020: db16 2dbe ac2c f6bd fd4b 743c 9d49 babd
00000030: 06e8 0ebd e12b 95bd 9878 afbc 72ea fabd
00000040: 0746 0a3d 3455 2e3e eea9 1d3e 5c9b e03d
00000050: c873 c4bd 6800 1fbe a54e 01be ac18 573c
00000060: 0dc7 833d e681 d1bd f9f7 73bc 47b5 15be
00000070: abc8 083e 52eb 2d3e 7bd2 3a3c c418 22be
00000080: 767c a9bd 43a4 173e e4b3 96bc df60 20bc
00000090: 22d7 fa3d e657 e1bc d7de 563d 870f 593d
000000a0: 3045 2bbe 67b6 45bd 3066 46bd 9cb0 0abd
000000b0: 063a 193e 47fc 84bd aca7 0ebe 2afe d5bd
000000c0: 0d84 b73c 36cd b1bd d8c6 8abd 6d30 a73d
000000d0: 1795 013e e67a ed3c c675 113e b696 bb3a
000000e0: df68 9e3d daa4 0bbd 283f 953d 331d 9bbb
000000f0: e65d ab3d 0859 01be bcd9 dcbd 2ac2 b0bd
00000100: 8be8 14be d2d1 c53b d906 bebd f535 8b3d
00000110: 584a 3f3d 319e 13bd 57bd 2e3d 4425 113e
00000120: 47d9 10be e6bd 2bbe 62d7 083e e63c 833d
00000130: 17d1 7fbd 6003 ebbd aa9b 77bd 87cf 67bd
00000140: b3ae e8ba 5565 4f3c ac76 23bd 995d 9b3d
00000150: 7e22 81bc 474d da3d 03f6 1e3e 04cf ebbd
00000160: 89b4 53bd 04d5 dcbc 2000 003e 5ba5 043e
00000170: 5eb2 073d 33fc 2c3e 7e7a 243e a3e7 04bd
00000180: 2bd9 3ebc f4e3 623d 7605 083e efb2 b7bd
00000190: ecf4 eabd 9d81 8a3d 0798 6e3c d1ed ddbd
000001a0: 0d25 58bd a601 37bd 612e b0bd 69c8 293e
000001b0: cb6f 09be b44b c7bd 0f10 be3d 00d4 e13c
000001c0: 6862 5e3d a87f 8a3d 7d2a c5bd 4640 5d3d
000001d0: 41d4 2dbe 4756 efbd 7707 5c3d 030a 6fbd
000001e0: ae10 9a3d 9c17 a6bd aa50 86bd 834b 283d
000001f0: 6251 793d 08f2 19bc c78a 0b3e 363d 513d

branch_p.fc2.weight f4 [16, 128]
0.07911259 0.0061293016 -0.036762282 -0.00985088 0.06510239 -0.027631573 0.06757363 -0.07077061
0.001257297 -0.02646372 -0.06990507 -0.039357506 0.0096621085 0.015709454 -0.042004924 -0.025020555
-0.041230906 0.010228148 -0.043973323 -0.02554547 0.0018874801 0.04577161 -0.057237867 -0.057949994
0.014626267 -0.06629803 -0.07898653 0.06865209 -0.04081947 -0.06874909 -0.03044925 0.04493644
0.042318933 -0.030216277 -0.086430795 -0.014388335 0.08664308 0.043719467 0.077166036 0.086041644
-0.054882463 -0.042545754 -0.081734575 -0.077851556 0.024704447 -0.009213754 -0.014234706 0.04083241
-0.02420131 0.062575474 -0.07346778 0.015877781 0.06775954 -0.05201767 0.064034306 0.08303392
0.05286971 0.066719756 -0.006393213 0.03179358 -0.08451785 -0.04049885 -0.066852614 -0.052090228
-0.06835683 0.027667956 0.052817434 0.00716118 0.082182616 -0.062320374 -0.054805055 0.08208235
0.0073499037 0.037094392 -0.049308535 0.070011586 0.024411865 -0.015856938 -0.05880139 -0.057607416
0.0424138 0.08143495 -0.028422862 -0.076278664 -0.020000251 -0.011882394 0.08113993 0.0009535944
0.050610974 -0.058556154 0.061787542 0.07350142 0.04511739 -0.0680333 -0.05917868 -0.032366708
0.030643666 0.023640625 0.038038313 0.0522441 0.029962007 0.07918127 0.040579535 0.040963475
0.05422315 -0.031340882 -0.07919174 0.05420577 0.059430942 0.046660475 0.06955565 0.015524922
-0.028375603 -0.010450385 -0.03994328 0.08743898 -0.03719161 0.044543426 0.059725653 -0.06130586
-0.0035826534 -0.072324425 -0.04996387 -0.08250535 0.0007100818 -0.06581989 -0.020218385 -0.06893628
-0.03693412 -0.04173266 0.032659005 0.007273004 0.02020427 0.0066265655 -0.029141327 -0.05016676
-0.025148388 -0.08217557 0.016775075 -0.026275652 -0.03015204 -0.027126206 0.061922282 0.04448906
-0.087154716 0.01588205 0.069167115 0.06923645 -0.07822894 0.008646396 0.087228015 0.037472166
-0.029510308 0.020969477 0.056284294 -0.061256513 0.016472375 0.06412273 -0.021498116 -0.056213368
-0.036592923 -0.016250296 0.025825405 0.049774375 0.067956835 -0.0043758284 0.085068345 0.054421272
-0.03779728 0.06718822 0.040674035 0.010805172 -0.0807884 -0.0143815335 -0.085288994 0.071320765
-0.039992258 0.0715638 0.01911268 -0.010350128 -0.04694518 -0.03930532 0.04651875 0.0021448738
0.03355385 0.06283711 0.0038627663 0.023731872 0.08303857 0.0030656653 -0.031451315 -0.046145592
-0.044921152 -0.08687384 0.012704341 -0.023627922 -0.0050152293 -0.06299095 -0.021149524 0.046462122
0.062005423 -0.08632689 -0.067980915 0.023209788 -0.009513771 0.011549037 -0.065742746 0.080370896
0.0042071524 -0.0006582603 0.0037186171 -0.045319136 -0.06771196 -0.0052503496 0.029802658 -0.042260952
0.036636684 -0.011979212 -0.08597925 0.042826336 0.05067535 0.015929706 0.08876423 -0.016556695
0.050191924 0.069519125 0.037627865 -0.013394941 0.0701066 0.044277254 0.076512255 -0.07605146
-0.065577224 -0.047173556 -0.031317502 -0.0785129 0.08848844 -0.066624045 0.052977502 -0.0063904603
0.02780917 0.070077695 0.015329069 -0.074701756 -0.05437909 0.081290565 0.06247723 -0.02586995
-0.03498106 -0.05260704 0.04660446 -0.049007006 -0.08450671 -0.0052826935 0.008994657 0.025468465
00000000: c805 a23d 4fd8 c83b 0c94 16bd 9665 21bc
00000010: 6754 853d 9c5b e2bc 0b64 8a3d 2ef0 90bd
00000020: e3cb a43a 71ca d8bc 642a 8fbd 5635 21bd
00000030: d24d 1e3c 1db1 803c 5b0d 2cbd e8f7 ccbc
00000040: bde1 28bd f693 273c 5f1d 34bd bc44 d1bc
00000050: 5365 f73a 037b 3b3d 4172 6abd f95c 6dbd
00000060: 03a3 6f3c 43c7 87bd b1c3 a1bd 7899 8c3d
00000070: 5132 27bd 53cc 8cbd b570 f9bc 460f 383d
00000080: 9e56 2d3d 2088 f7bc a102 b1bd 0dbd 6bbc
00000090: ed71 b13d 2f13 333d 3a09 9e3d 9a36 b03d
000000a0: 6fcc 60bd 7544 2ebd 7564 a7bd a370 9fbd
000000b0: fb60 ca3c 49f5 16bc af38 69bc e33f 273d
000000c0: d341 c6bc 9227 803d 4776 96bd 1f12 823c
000000d0: 84c5 8a3d 7b10 55bd 6b24 833d b00d aa3d
000000e0: e98d 583d 5ea4 883d 287e d1bb fc39 023d
000000f0: b217 adbd 1fe2 25bd 06ea 88bd 905c 55bd
00000100: aafe 8bbd e9a7 e23c 1857 583d 55a8 ea3b
00000110: 5c4f a83d a643 7fbd 447b 60bd cb1a a83d
00000120: 76d7 f03b 4af0 173d bff7 49bd 3c62 8f3d
00000130: 64fb c73c 69e6 81bc bad9 70bd c1f5 6bbd
00000140: 18ba 2d3d 5ec7 a63d 10d7 e8bc fd37 9cbd
00000150: 91d7 a3bc 5fae 42bc b12c a63d a3fa 793a
00000160: 744d 4f3d 94d8 6fbd ef14 7d3d ea87 963d
00000170: 03cd 383d 0b55 8bbd 5865 72bd f492 04bd
00000180: 6d08 fb3c fca9 c13c 10ce 1b3d e9fd 553d
00000190: e272 f53c ca29 a23d ba36 263d 51c9 273d
000001a0: 1819 5e3d 4c5f 00bd 472f a2bd df06 5e3d
000001b0: dc6d 733d 0e1f 3f3d 3173 8e3d 3e5c 7e3c
000001c0: f473 e8bc 1738 2bbc 919b 23bd 3513 b33d
000001d0: 3b56 18bd 2b73 363d e3a2 743d da1b 7bbd
000001e0: f3ca 6abb d41e 94bd eaa6 4cbd 91f8 a8bd
000001f0: c824 3a3a 94cc 86bd 07a1 a5bc 772e 8dbd
00000200: 3b48 17bd deef 2abd 73c5 053d 6152 ee3b
00000210: 6d83 a53c a923 d93b cbb9 eebc a97b 4dbd
00000220: fe03 cebc aa4b a8bd e26b 893c 0940 d7bc
00000230: 6901 f7bc c737 debc 38a2 7d3d 293a 363d
00000240: 2c7e b2bd 131b 823c 7da7 8d3d d7cb 8d3d
00000250: 7f36 a0bd 9da9 0d3c 9aa4 b23d 6a7c 193d
00000260: 9abf f1bc 2ec8 ab3c 5c8a 663d 1ce8 7abd
00000270: 13f1 863c c752 833d d11c b0bc fd3f 66bd
00000280: 76e2 15bd 571f 85bc cd8f d33c 37e0 4b3d
00000290: f42c 8b3d 1c63 8fbb 5038 ae3d d7e8 5e3d
000002a0: 52d1 1abd fa99 893d d199 263d 2d08 313c
000002b0: 6374 a5bd 86a0 6bbc ffab aebd 9f10 923d
000002c0: ecce 23bd 0b90 923d 3292 9c3c 9593 29bc
000002d0: 9749 40bd 9dfe 20bd 728a 3e3d 0391 0c3b
000002e0: c36f 093d beb0 803d 7726 7d3b 5869 c23c
000002f0: 2010 aa3d 54e9 483b 18d3 00bd 2903 3dbd
00000300: 3eff 37bd e9ea b1bd de25 503c 588f c1bc
00000310: cb56 a4bb 6601 81bd c441 adbc 114f 3e3d
00000320: 66f9 7d3d 27cc b0bd 9439 8bbd 7422 be3c
00000330: a6df 1bbc 2c38 3d3c 22a4 86bd 7f99 a43d
00000340: 27dc 893b 1a8f 2cba 0bb4 733b 8fa0 39bd
00000350: 91ac 8abd 200b acbb b424 f43c d219 2dbd
00000360: 5910 163d 7544 44bc e415 b0bd ab6a 2f3d
00000370: f590 4f3d 047f 823c 05ca b53d e8a1 87bc
00000380: 0c96 4d3d 0b60 8e3d ad1f 1a3d 7476 5bbc
00000390: 0d94 8f3d 115c 353d 75b2 9c3d dec0 9bbd
000003a0: 5a4d 86bd 0f39 41bd c846 00bd 5fcb a0bd
000003b0: 6d39 b53d 3072 88bd f0fe 583d 1167 d1bb
000003c0: 0ed0 e33c e584 8f3d c726 7b3c 3cfd 98bd
000003d0: 9cbc 5ebd ab7b a63d 20e8 7f3d 38ed d3bc
000003e0: 4d48 0fbd 7b7a 57bd 51e4 3e3d 92bb 48bd
000003f0: db11 adbd 721a adbb 535e 133c 3ea3 d03c

branch_p.fc2.bias f4 [16]
-0.080999255 -0.038378417 -0.024253324 0.083880775 0.001619299 -0.011903094 0.06259673 0.063700676
-0.041683223 -0.08414762 -0.03922527 -0.042103574 0.049191587 0.05268712 -0.006087589 -0.033771906
00000000: f0e2 a5bd b032 1dbd e8ae c6bc afc9 ab3d
00000010: a83e d43a 3205 43bc b732 803d 8075 823d
00000020: 07bc 2abd 9655 acbd adaa 20bd cc74 2cbd
00000030: 1e7d 493d 73ce 573d 667a c7bb 6954 0abd

branch_h.fc1.weight f4 [128, 34]
0.1183663 -0.07956772 -0.1325546 -0.052718487 -0.046458647 0.102889575 0.14230117 -0.01555455
0.13783595 -0.020051483 -0.1510974 -0.099119134 0.03197207 0.16090208 0.024309916 0.16840596
-0.08817575 -0.008399828 -0.13283144 -0.07229616 0.113340326 -0.13465017 0.101445444 0.15680225
0.12726368 0.09536704 0.05978092 0.0686489 0.043502584 -0.15840319 -0.025781488 0.085269496
-0.038749784 -0.16939762 -0.027378919 0.032843124 0.021663433 -0.008837501 -0.10521361 0.0047589946
-0.06370503 0.005846366 0.07642962 -0.12828892 -0.15401284 -0.10510959 0.09731439 -0.02977424
0.042206418 -0.10952622 0.024508689 -0.10160551 0.15204412 0.039514225 0.023876559 -0.06507145
-0.04538213 -0.10377476 0.09207446 -0.15562478 -0.071489215 0.053074222 -0.12580904 0.09097567
-0.11060971 0.049319085 -0.16141358 0.16415544 0.088722736 -0.10829185 0.040968217 -0.12879956
-0.08344888 0.15586884 -0.051940687 -0.062976085 0.06732375 0.1330481 -0.085138015 -0.055538274
0.063761264 0.004335346 -0.031028183 -0.028578697 -0.028993413 -0.019899175 0.020648934 0.0018281088
0.0396481 -0.0024909324 0.16865422 0.03894755 0.14479877 0.09161374 0.033402506 0.070043534
0.12330032 0.09216977 0.15384974 0.13376464 -0.02141449 0.06666866 -0.02816062 -0.098119766
0.017080711 0.04020699 0.035975546 0.0865817 0.07383053 0.14827581 -0.1534615 0.12685113
-0.030357772 0.15368019 -0.11130025 0.1162228 0.14207341 -0.11588243 0.035313535 0.059401285
0.039610486 0.11466146 -0.0046338243 -0.0337115 -0.013117013 -0.1445222 -0.09699353 -0.11824465
0.105550095 -0.11888388 0.0025521868 -0.129037 -0.10417623 -0.06559229 -0.013305805 0.015602947
-0.07571351 0.09801426 -0.0011247058 0.15678163 0.14583935 0.08274207 -0.058008786 -0.0055482173
0.09428039 0.02426583 0.100042425 -0.11327757 -0.061169047 0.11683916 -0.1687904 -0.080998376
-0.13227221 0.15557282 0.13415052 0.092895746 -0.067202635 0.1292334 0.057361644 -0.020006843
-0.018915381 -0.070689686 -0.11194576 -0.11879413 0.039502643 -0.030589033 0.10178902 -0.09427496
0.062421516 0.087705426 -0.17034432 -0.08373332 -0.04969454 0.12124318 0.13648584 -0.06260667
0.047714543 -0.12954022 0.12611562 0.093847595 0.00097427145 0.05712725 -0.16863905 0.10209233
-0.07763714 -0.043606527 0.104862355 0.09876746 0.16035041 -0.02533597 -0.045146912 -0.07902281
-0.08959321 0.101638205 0.111133136 -0.09603263 -0.15770975 -0.15744239 -0.046646062 0.083883405
0.109992914 -0.05624371 0.04770609 -0.11357962 0.028147243 -0.12516546 -0.010265861 -0.04904655
-0.007123453 0.011493958 -0.12849674 -0.162397 0.1493506 -0.0015029883 0.04510555 -0.15189007
0.16423962 0.049119268 -0.09162235 0.0051130326 -0.02989863 -0.0039508594 0.1319048 -0.02906544
-0.06754302 0.0067830784 -0.020218428 0.13722076 0.1083101 -0.056394186 -0.070374966 -0.122613855
0.06492265 0.103299744 -0.023084596 -0.046726633 0.07980515 -0.09237384 0.12547733 -0.05401559
-0.13386114 -0.11252346 0.08390356 0.118632525 0.0002063829 0.06936862 -0.0076519013 0.03800442
0.05349274 0.12531939 -0.05958375 -0.00034705558 -0.10703313 -0.0143101765 0.07392724 0.098079875
00000000: 086a f23d 67f4 a2bd 65bc 07be 57ef 57bd
00000010: 6c4b 3ebd c5b7 d23d 66b7 113e 83d8 7ebc
00000020: de24 0d3e 0243 a4bc 47b9 1abe f9fe cabd
00000030: 25f5 023d 84c3 243e 9725 c73c 9d72 2c3e
00000040: 7d95 b4bd 6f9f 09bc f704 08be 0210 94bd
00000050: f91e e83d bce1 09be a1c2 cf3d c590 203e
00000060: 6951 023e cb4f c33d d7dc 743d cb97 8c3d
00000070: c42f 323d 7234 22be b333 d3bc c6a1 ae3d
00000080: 18b8 1ebd 9276 2dbe c149 e0bc 8386 063d
00000090: 8377 b13c 2acb 10bc 3c7a d7bd 57f1 9b3b
000000a0: c877 82bd df92 bf3b 2287 9c3d 2c5e 03be
000000b0: 8bb5 1dbe b243 d7bd c44c c73d 1be9 f3bc
000000c0: a3e0 2c3d 484f e0bd 72c6 c83c 8d16 d0bd
000000d0: 74b1 1b3e abd9 213d c698 c33c 2e44 85bd
000000e0: 9de2 39bd dd87 d4bd 8991 bc3d 1a5c 1fbe
000000f0: f068 92bd 5b64 593d 16d4 00be 7451 ba3d
00000100: 5887 e2bd cf02 4a3d 9a49 25be 5d18 283e
00000110: 44b4 b53d 1ec8 ddbd 4ace 273d 08e4 03be
00000120: 3fe7 aabd 159c 1f3e c2bf 54bd 9bf9 80bd
00000130: 09e1 893d c33d 083e d75c aebd 1a7c 63bd
00000140: 4495 823d 850f 8e3b d12e febc df1d eabc
00000150: 9883 edbc 9803 a3bc f427 a93c 279d ef3a
00000160: 0c66 223d e93e 23bb b1b3 2c3e 7787 1f3d
00000170: 2146 143e fc9f bb3d 11d1 083d fc72 8f3d
00000180: e184 fc3d 81c3 bc3d c98a 1d3e 99f9 083e
00000190: 716d afbc 9489 883d 1ab1 e6bc 04f3 c8bd
000001a0: d9ec 8b3c 16b0 243d 185b 133d bf51 b13d
000001b0: 7634 973d 9dd5 173e 0325 1dbe 43e5 013e
000001c0: ddb0 f8bc 575e 1d3e 63f1 e3bd 3806 ee3d
000001d0: b17b 113e c453 edbd eda4 103d c34e 733d
000001e0: 9b3e 223d a1d3 ea3d 56d7 97bb 1215 0abd
000001f0: bde8 56bc a1fd 13be 8ba4 c6bd 402a f2bd
00000200: a62a d83d 6479 f3bd 9742 273b 4622 04be
00000210: 595a d5bd 4055 86bd 9700 5abc 81a3 7f3c
00000220: af0f 9bbd b3bb c83d dd6a 93ba 5d8b 203e
00000230: e956 153e ad74 a93d 9f9a 6dbd d2cd b5bb
00000240: 1416 c13d 22c9 c63c 0be3 cc3d 12fe e7bd
00000250: 658c 7abd 5f49 ef3d 64d7 2cbe 7ae2 a5bd
00000260: 5e72 07be 7b4e 1f3e c15e 093e 2040 be3d
00000270: 89a1 89bd c355 043e 0bf4 6a3d 64e5 a3bc
00000280: 6ef4 9abc c1c5 90bd d243 e5bd 564a f3bd
00000290: 86cd 213d da95 fabc c376 d03d 3b13 c1bd
000002a0: b4ad 7f3d e79e b33d be6e 2ebe 607c abbd
000002b0: 818c 4bbd 584e f83d f2c2 0b3e ed37 80bd
000002c0: 5370 433d 31a6 04be 7424 013e 2b33 c03d
000002d0: 4066 7f3a 43fe 693d b7af 2cbe c915 d13d
000002e0: 3900 9fbd c29c 32bd 13c2 d63d 9846 ca3d
000002f0: e632 243e 618d cfbc f8eb 38bd b6d6 a1bd
00000300: a57c b7bd b127 d03d c599 e33d c1ac c4bd
00000310: aa7e 21be 9438 21be f10f 3fbd 10cb ab3d
00000320: f743 e13d ce5f 66bd 7667 433d 6f9c e8bd
00000330: 0c95 e63c 602b 00be 2432 28bc 09e5 48bd
00000340: db6b e9bb 2751 3c3c a694 03be 664b 26be
00000350: 5def 183e ebff c4ba 99c0 383d 1289 1bbe
00000360: 6e2e 283e 4931 493d 80a4 bbbd 3a8b a73b
00000370: f9ed f4bc 3676 81bb 0d12 073e a51a eebc
00000380: ff53 8abd 9644 de3b 1ea1 a5bc 9983 0c3e
00000390: b0d1 dd3d 97fd 66bd c020 90bd f91c fbbd
000003a0: 2bf6 843d d18e d33d e81b bdbc 6d64 3fbd
000003b0: e270 a33d 7f2e bdbd 217d 003e 743f 5dbd
000003c0: e512 09be b372 e6bd a1d5 ab3d 9cf5 f23d
000003d0: 7d68 5839 2311 8e3d cdbc fabb 86aa 1b3d
000003e0: 341b 5b3d ba53 003e 170e 74bd 03f5 b5b9
000003f0: 3034 dbbd 3b75 6abc 2a67 973d 1ade c83d

branch_h.fc1.bias f4 [128]
0.034635816 -0.122515246 -0.15406623 0.08307098 -0.11084977 -0.09084556 0.017603278 -0.055477165
0.042576868 0.051107563 0.16397999 -0.07882523 0.051615663 0.00859203 -0.15113568 0.16570862
0.015923625 0.105574615 -0.15877238 -0.11452361 0.14133517 -0.14798479 -0.018672647 -0.15529366
-0.15406136 0.076857604 0.052591607 0.09681096 -0.027328135 0.08129327 -0.0068745366 0.07994244
0.034218602 -0.036445096 0.026945615 -0.13186626 -0.016302137 0.07164747 -0.12884769 0.0015200055
-0.09276255 0.04981127 -0.1417879 0.05565347 -0.029512139 0.0889616 -0.032321986 0.017588751
0.009092435 0.16857524 -0.110804975 0.053125855 -0.023623588 0.15361574 0.05013278 -0.037860263
-0.121554986 -0.15211593 0.035681635 -0.084315985 0.07000052 -0.12491327 -0.1440824 -0.013327966
0.08394196 0.12792037 -0.1453053 -0.099747136 -0.039197557 -0.08698698 0.06298599 -0.0133320885
-0.03905162 -0.1161353 -0.011431702 0.017067334 0.1486124 -0.1711436 0.09197169 -0.09560668
0.12350168 0.041952815 0.015639799 -0.15461129 -0.0064747394 0.08677925 -0.056965835 -0.116293214
0.06455506 0.09493899 -0.09707141 -0.046615917 0.14371543 -0.08392397 0.07735064 0.049366966
0.067656994 0.051602222 -0.14560676 0.15994282 0.0064552054 -0.13692974 0.109036155 -0.008998713
-0.113625705 -0.041192148 -0.07219861 -0.16080801 0.035063703 0.06790415 0.04448746 0.050220516
0.16818772 -0.013397293 0.12768151 0.11003304 -0.10854703 0.14937648 0.054079194 0.10741393
0.057658963 -0.16464195 -0.099872775 -0.045850255 -0.043763008 -0.09820072 -0.090062864 -0.10742616
00000000: 49de 0d3d 46e9 fabd 8ac3 1dbe 1e21 aa3d
00000010: 3405 e3bd 3d0d babd c034 903c 063c 63bd
00000020: 1565 2e3d 2a56 513d 5fea 273e 1f6f a1bd
00000030: f26a 533d 96c5 0c3c 50c3 1abe 85af 293e
00000040: 4372 823c 8137 d83d 3a95 22be 5b8b eabd
00000050: 2bba 103e 5389 17be 61f7 98bc 4d05 1fbe
00000060: 43c2 1dbe 8567 9d3d 4c6a 573d d344 c63d
00000070: 41df dfbc 167d a63d cb43 e1bb ddb8 a33d
00000080: ce28 0c3d 7447 15bd 0dbd dc3c f307 07be
00000090: 0f8c 85bc e9bb 923d a6f0 03be ec3a c73a
000000a0: 4bfa bdbd e706 4c3d d930 11be e5f4 633d
000000b0: 71c3 f1bc 8031 b63d 0f64 04bd 4916 903c
000000c0: 70f8 143c fd9e 2c3e b8ed e2bd 7f9a 593d
000000d0: 4186 c1bc 724d 1d3e 0858 4d3d 5d13 1bbd
000000e0: d2f1 f8bd 47c4 1bbe e826 123d dcad acbd
000000f0: 6f5c 8f3d 87d2 ffbd 568a 13be 8b5d 5abc
00000100: c3e9 ab3d 8ffd 023e eaca 14be 3a48 ccbd
00000110: 9e8d 20bd 3b26 b2bd ccfe 803d d56e 5abc
00000120: 97f4 1fbd 58d8 edbd 094c 3bbc cbd0 8b3c
00000130: d92d 183e 4540 2fbe a75b bc3d 6fcd c3bd
00000140: 73ee fc3d b7d6 2b3d 091f 803c 6c52 1ebe
00000150: 0d2a d4bb 52b9 b13d 0255 69bd 232b eebd
00000160: 7135 843d 606f c23d 60cd c6bd 55f0 3ebd
00000170: 232a 133e 55e0 abbd 036a 9e3d 0435 4a3d
00000180: c08f 8a3d da5c 533d f019 15be 0dc8 233e
00000190: 3086 d33b 4f37 0cbe 594e df3d 576f 13bc
000001a0: 98b4 e8bd 19b9 28bd dddc 93bd dbaa 24be
000001b0: f59e 0f3d 5511 8b3d 7c38 363d 07b4 4d3d
000001c0: 6739 2c3e 5280 5bbc f1be 023e 0159 e13d
000001d0: e84d debd 26f6 183e 2582 5d3d d6fb db3d
000001e0: ce2b 6c3d e697 28be 198a ccbd 7acd 3bbd
000001f0: d740 33bd 761d c9bd e172 b8bd 3f02 dcbd

branch_h.fc2.weight f4 [16, 128]
-0.08009317 0.0130053 0.064346045 0.086713314 0.039264698 0.05944736 -0.05951306 0.021385252
0.018857248 0.0139784245 0.07996175 -0.05848702 0.031387445 0.08582756 0.07670294 0.0636
0.085677475 -0.02719152 0.032533552 0.051460236 -0.03090194 -0.031785958 -0.05156357 0.07018675
0.039444506 -0.0037431326 -0.08566659 -0.00715265 0.058911014 0.005082924 0.03614877 0.05261161
0.06772315 -0.043481685 0.085515864 -0.07668925 -0.08875623 -0.074494794 -0.06756176 0.03879663
0.040025845 -0.02698557 0.024945408 0.067342855 0.058336195 0.029746952 -0.059950776 0.046601973
-0.032426454 0.0058414936 0.072931945 -0.06878071 -0.084651925 -0.058441915 -0.02490468 -0.08245811
0.041445274 0.054377258 0.06466854 -0.07667668 -0.07223384 -0.044982675 -0.003725256 -0.06142401
0.069411054 0.009146195 0.006985166 0.035045877 0.05312989 0.04168465 -0.019911522 -0.009749769
0.07297445 0.04890779 -0.04667144 0.06358223 -0.029348418 0.060880598 0.05079047 0.044064462
0.07233791 -0.016837506 -0.0028405003 0.038864788 -0.06610591 0.078446455 0.040043768 0.030657424
0.06624502 -0.026982538 -0.047742397 -0.054926533 -0.016169734 0.0012668967 0.010468345 -0.023518277
0.07496505 -0.01853089 -0.047987517 -0.07357338 0.0369407 -0.0052344664 -0.051648278 -0.05299646
0.05817774 0.03955552 0.08553413 0.018289033 0.0231817 0.06607728 -0.04791824 -0.036534272
0.021542022 0.0796059 0.011573843 -0.017978692 -0.05816189 -0.076946475 -0.05883509 -0.06298314
-0.0686401 -0.024351748 -0.030979253 0.016777273 -0.08254619 0.0006085966 0.041651055 -0.04244398
0.018880868 0.027662868 0.06710662 -0.025168087 -0.03179254 0.019935094 0.08271133 -0.00080337195
-0.073189646 -0.06139292 0.024651451 -0.053297736 0.042750794 0.013185997 0.06352404 -0.042250298
0.050958708 -0.03238569 0.07953616 0.047893245 0.07397669 -0.08545433 0.06769861 -0.039609477
-0.02450985 -0.06097632 -0.07746457 0.0027290846 -0.05946879 -0.009824186 -0.0145670865 -0.08781601
-0.0025115965 -0.047612827 0.07436715 -0.019414306 -0.057620004 -0.07543829 0.020888083 0.07710893
-0.06231393 -0.008578788 0.010454038 -0.005208316 0.035706043 -0.084019855 -0.07510778 0.063921064
-0.065395534 0.0038292257 -0.035365574 0.042291764 0.035653405 0.052496295 0.079229146 -0.076169424
-0.026438972 0.024387483 0.005710975 0.008992552 -0.05699775 -0.013986507 -0.07996059 0.07616085
0.07086374 0.051473167 -0.02311986 0.019265253 -0.010396586 0.00408325 -0.07996455 0.058817808
0.08790189 -0.06789786 -0.047850464 0.079597116 0.051991615 0.029216005 -0.025951805 0.0606109
0.023520825 -0.030254398 0.05047661 0.0028395087 -0.010607594 0.037866972 0.048604988 -0.0076452694
0.007248634 -0.064742096 0.06578813 -0.08411533 -0.08044285 -0.05729068 0.0587076 0.0450552
0.046958238 0.02733248 -0.04516554 -0.036765825 -0.06519456 0.03394584 0.04501977 -0.05049776
-0.027896447 0.053007066 0.06379696 -0.019103358 0.014978713 -0.08063802 -0.012663639 0.020647326
0.04933773 0.06359042 -0.007438016 -0.07811047 -0.0025794895 0.073721714 -0.0003520176 0.036391746
-0.026619056 -0.05509388 -0.022786807 0.043001276 -0.013019609 -0.00051221537 -0.050988387 0.05977614
00000000: e307 a4bd 2f14 553c dcc7 833d c096 b13d
00000010: 05d4 203d 137f 733d f7c3 73bd 2030 af3c
00000020: 847a 9a3c c305 653c fcc2 a33d 1690 6fbd
00000030: 1f90 003d 5cc6 af3d 6e16 9d3d b840 823d
00000040: ac77 af3d c0c0 debc e741 053d f8c7 523d
00000050: 1126 fdbc fe31 02bd 5234 53bd 12be 8f3d
00000060: 9090 213d 584f 75bb f771 afbd c760 eabb
00000070: ad4c 713d a88e a63b bc10 143d 467f 573d
00000080: 6fb2 8a3d da19 32bd f122 af3d 410f 9dbd
00000090: d4c5 b5bd ba90 98bd d25d 8abd 37e9 1e3d
000000a0: 24f2 233d d810 ddbc 505a cc3c 0deb 893d
000000b0: eff1 6e3d e1af f33c f28e 75bd b6e1 3e3d
000000c0: 9ad1 04bd 006a bf3b 585d 953d e7dc 8cbd
000000d0: fd5d adbd ca60 6fbd e604 ccbc ccdf a8bd
000000e0: 85c2 293d b0ba 5e3d f170 843d aa08 9dbd
000000f0: 56ef 93bd c13f 38bd 6d23 74bb be97 7bbd
00000100: 6227 8e3d ecd9 153c d2e3 e43b 448c 0f3d
00000110: ba9e 593d 86bd 2a3d 7d1d a3bc 7fbd 1fbc
00000120: a173 953d 8953 483d 8d2a 3fbd 6637 823d
00000130: 186c f0bc ef5d 793d ab09 503d f07c 343d
00000140: e625 943d cfee 89bc b027 3abb af30 1f3d
00000150: 8962 87bd 89a8 a03d ef04 243d 4725 fb3c
00000160: 78ab 873d 7c0a ddbc 888d 43bd a5fa 60bd
00000170: 6476 84bc 000e a63a 6c83 2b3c 67a9 c0bc
00000180: 4787 993d 18ce 97bc 8f8e 44bd a4ad 96bd
00000190: 224f 173d e385 abbb 258d 53bd d112 59bd
000001a0: c84b 6e3d f804 223d 852c af3d e2d2 953c
000001b0: 8ce7 bd3c 8653 873d eb45 44bd f6a4 15bd
000001c0: e578 b03c 6b08 a33d 37a0 3d3c 0d48 93bc
000001d0: 293b 6ebd 1d96 9dbd 10fd 70bd 4efd 80bd
000001e0: 2e93 8cbd 517d c7bc 34c8 fdbc 7e70 893c
000001f0: fa0d a9bd 3a8a 1f3a 4c9a 2a3d bdd9 2dbd
00000200: 0dac 9a3c 3d9d e23c 326f 893d 4e2d cebc
00000210: e538 02bd ec4e a33c 8f64 a93d 6199 52ba
00000220: 74e4 95bd 2477 7bbd d7f1 c93c ba4e 5abd
00000230: 751b 2f3d 140a 583c e418 823d a60e 2dbd
00000240: 14ba 503d dba6 04bd dbe3 a23d b52b 443d
00000250: 1781 973d ae02 afbd 92a5 8a3d 8c3d 22bd
00000260: e2c8 c8bc 4ec2 79bd bfa5 9ebd 71da 323b
00000270: 8c95 73bd 9ff5 20bc caaa 6ebc e1d8 b3bd
00000280: 9999 24bb ab05 43bd ce4d 983d c00a 9fbc
00000290: f402 6cbd 647f 9abd 7c1d ab3c 49eb 9d3d
000002a0: e43c 7fbd 0b8e 0cbc 6a47 2b3c 85aa aabb
000002b0: 8040 123d 9a12 acbd 1cd2 99bd 0ce9 823d
000002c0: 18ee 85bd bff3 7a3b 7edb 10bd 213a 2d3d
000002d0: 4e09 123d 5b06 573d e442 a23d b7fe 9bbd
000002e0: 8b96 d8bc 42c8 c73c 2123 bb3b 7f55 133c
000002f0: 7976 69bd aa27 65bc 61c2 a3bd 38fa 9b3d
00000300: 0221 913d 87d5 523d dc65 bdbc 2ad2 9d3c
00000310: 7156 2abc c9cc 853b 74c4 a3bd f1ea 703d
00000320: e805 b43d 090e 8bbd d9fe 43bd d003 a33d
00000330: 29f5 543d 6756 ef3c e198 d4bc 2343 783d
00000340: bfae c03c 12d8 f7bc 90c0 4e3d 0d17 3a3b
00000350: 79cb 2dbc 661a 1b3d 0616 473d 2b85 fabb
00000360: f385 ed3b 8197 84bd edbb 863d a844 acbd
00000370: 39bf a4bd a2a9 6abd 6177 703d cd8b 383d
00000380: 4857 403d 5de8 df3c 80ff 38bd c397 16bd
00000390: ba84 85bd cb0a 0b3d a666 383d bdd6 4ebd
000003a0: 1787 e4bc f01d 593d fba7 823d a57e 9cbc
000003b0: 4769 753c 8c25 a5bd 277b 4fbc 9524 a93c
000003c0: 5c16 4a3d b23b 823d 9aba f3bb 62f8 9fbd
000003d0: a70c 29bb 69fb 963d 018f b8b9 830f 153d
000003e0: 3510 dabc 1faa 61bd 66ab babc 1b22 303d
000003f0: 3350 55bc 3146 06ba 33d9 50bd d3d7 743d

branch_h.fc2.bias f4 [16]
-0.008726982 0.012934307 0.0083613815 0.04122447 0.07412863 -0.05293524 0.07095724 -0.07987515
-0.024037309 0.03147316 -0.06251042 -0.017454674 -0.00072765833 -0.026762754 0.07999064 0.059427656
00000000: 9efb 0ebc 6aea 533c 2dfe 083c fdda 283d
00000010: c0d0 973d 9fd2 58bd 0852 913d 9595 a3bd
00000020: e4e9 c4bc 00ea 003d 7705 80bd 1bfd 8ebc
00000030: 53c0 3eba 903d dbbc 22d2 a33d 6a6a 733d
