d2calcbot/main/calc_bot/dota_model_ver6.pth (torch, 426084 bytes, 21 tensors)

branch_t.fc1.weight f4 [128, 35]
00000000: 8c6f 933d ebe0 013e 3dcd 3c3d 19c1 52bd
00000010: 5288 0ebd 434a f5bd df51 213d 495c ec3d
00000020: de7d ac3d 6035 61bc e021 193e 7cd4 94bd
00000030: 826b bc3d 509a 8dbd d47f 6b3c b7fb abbd
00000040: 71fc a9bd e3c6 10be 8628 e8bc 43c6 b0bd
00000050: 4ca6 e9bd 1744 a4bd 0e37 07bd b6bb 15bd
00000060: 3103 eb3d ebe8 2a3e dabe f3bd c586 5abd
00000070: 47c6 76bd e173 803d 4e1e c53c a1d3 9b3d
00000080: 7d6d 3f3d 6cc7 a8bc a35b 9abb 03fa cc3d
00000090: 8c70 373d a599 07be 169b 4f3c 6ab4 9f3d
000000a0: 2a72 203e 7e61 d63d dfb6 2fbd 7683 113e
000000b0: ffe3 563d b407 e53c a015 2abb 57f4 91bd
000000c0: 17d3 b2bc 8a39 00be 8630 123e c6d6 0f3e
000000d0: b2e6 88bd 1e18 6fbc 2f18 91bd 836d b63d
000000e0: e47c 02be b99b 123e c71f dc3d 5836 9d3d
000000f0: 4f8b 28be d0ce 92bc 786e b03d 06ed fb3d
00000100: ac8e 18be cdb7 0cbe dc10 bfbd 088f eebd
00000110: 3bd8 9b39 95a6 75bd 217e 243e 8920 2bbe
00000120: 69f7 bf3c 6036 803c 5493 8abd b58f 283e
00000130: 4d18 13bd b944 01be c3a5 edbd 2032 403d
00000140: fa6b 23be e5ad 1fbe 57c1 d63d 6113 2c3e
00000150: 2396 26bd 87ff 0abe 3dfc 55bc 8b9e 1c3e
00000160: 95c8 623c e72b 77bd 785d 20be 813e 2a3e
00000170: 4e1f 09bd d657 233e dd1c 293e bfa6 753d
00000180: dc26 1b3e 5c5c ec3d 7843 05be 7be7 ac3d
00000190: 9aeb 0d3e fc27 07bb 474a 663c 908d e6bc
000001a0: 1971 2f3d 9903 c73d d476 f23d f26f 22be
000001b0: 791a b43d eb51 9bbd 7469 d2bd 2d98 dcbd
000001c0: 6e91 ddbd 57c8 bf3d e35a 333d 032f 773d
000001d0: 3742 c9bc 4fb3 febd 60eb e5bd d36d 1a3e
000001e0: cedc 28be 67cf 533d cbe6 7f3d aaf5 e33d
000001f0: 2b64 bc3d cc3a 383b 4216 163e 0b6b 093e
00000200: 077b 1abd 614d a0bd 2f98 153e 8cdc 16be
00000210: 26d9 96bd f264 0f3e bdc4 6dbd 5172 983d
00000220: fc51 1b3d f367 9d3d ae79 f5bd 6fe2 12bc
00000230: ad36 bbbd bbc4 ce3c f911 043e ce75 223e
00000240: 0f67 0b3e e880 66bd e745 9f3c 60e5 b93d
00000250: 34f9 293e 7514 643d 8696 c93d cca5 733d
00000260: 3e1b 9b3d aa90 a0bd d4ac 843c a9aa 023e
00000270: 11ce 2c3e 4be9 0abd 3e24 283e 0571 3f3d
00000280: e447 86bc 6ed0 143e 9e4a ff3d 9982 b5bd
00000290: 8e09 21be fdd4 e4bc d8e1 f8bb e75b 2d3d
000002a0: a2e9 b4bd a956 b2bc 4c9e 253e f6ac 783b
000002b0: de07 ecbd 0117 26be edf0 c13d 361e f9bc
000002c0: f5fb eabd 4639 013e daee ed3c 3833 b1bd
000002d0: ef56 1dbe 6309 2bbd 2030 fbbc 04ca 90bd
000002e0: 5b3b 803d 198e 65bd b180 ae3d 30a4 a23d
000002f0: fbc2 cdbd dadc 1dbe e8ce 59bd 3b50 b9bc
00000300: 84b7 3fbd 0a46 17be 7b5d 08be d980 98bd
00000310: c60d 98bb 7878 6f3d f11b 983d 8068 16be
00000320: c25d ce3c a421 0abd 5773 cd3d 7515 abbc
00000330: 5824 20be ec28 83bd e468 e3bc 3f3d 2dbd
00000340: 2d87 68bc 04e9 80bd 41fd 213e c469 45bb
00000350: b147 283e 8582 ddbd 1fbf 83bd f233 0ebc
00000360: 6e0c 3abd 246b 11be decf 553d aad5 263d
00000370: 4776 e33d 3cba bbbd 0c1f 053e 687a 123e
00000380: aad2 363c dcbb ecbd e345 08be fdd8 823a
00000390: d7f6 0bbe 7cdf 0abe 76b2 7d3c 2685 2bbe
000003a0: 3e7e 3d3d 0d63 b23c ef75 22be d993 ffbc
000003b0: 29f5 26be 2633 01bd 32b0 153e a1a6 0ebe
000003c0: 7952 aebd 02ea edbd 1caa c2bc 54ee f63d
000003d0: 49ef 92bc 2bad 993d f3a8 233e d2f6 c8bd
000003e0: c08c 8cbd 6cb8 b23d 235b 18be ba03 a9bd
000003f0: 5b45 b3bb ae3c 53bd c336 a3bd 8e61 8b3d
0.0719901 0.12683456 0.046094168 -0.051453684 -0.034797974 -0.11977055 0.03938472 0.115410395
0.08422445 -0.013745636 0.14954329 -0.07267091 0.09200193 -0.069141984 0.014373738 -0.0839762
-0.083001025 -0.1413837 -0.028339636 -0.086315654 -0.11408672 -0.080207996 -0.03301149 -0.03655597
0.11475218 0.16690414 -0.119016364 -0.053351182 -0.060247686 0.06272102 0.024062302 0.076087244
0.046735276 -0.020602904 -0.004710631 0.100086235 0.044785067 -0.13242204 0.012671253 0.07798083
0.1566855 0.10467814 -0.04289901 0.14210305 0.052463528 0.027957775 -0.002595283 -0.07126682
-0.021829171 -0.1252195 0.14276323 0.14046773 -0.06684627 -0.014593152 -0.07084691 0.089076065
-0.12742954 0.14317216 0.107482485 0.07676381 -0.16459392 -0.017920882 0.0861482 0.12301068
-0.14898175 -0.1374199 -0.093293875 -0.11648375 0.00029725008 -0.059973318 0.1606374 -0.1671163
0.023433404 0.015650928 -0.06766382 0.1646107 -0.035911847 -0.12623872 -0.11603882 0.046922803
-0.15959159 -0.15593679 0.104860954 0.16804267 -0.040670525 -0.13574038 -0.013060627 0.15294854
0.013841768 -0.060344603 -0.15660655 0.16625406 -0.03347712 0.15951476 0.16514917 0.059973475
0.15151542 0.11541054 -0.13014019 0.08442589 0.13859406 -0.0020623198 0.014055795 -0.028143674
0.042832468 0.09717483 0.11839071 -0.15863016 0.08794112 -0.07583984 -0.1027402 -0.10771213
-0.10818754 0.09364384 0.04378785 0.06034757 -0.024567707 -0.12436544 -0.11226535 0.15080957
-0.1649048 0.051711466 0.06247596 0.11130841 0.09198793 0.0028111218 0.14656928 0.1341974
-0.037714984 -0.07827259 0.14608835 -0.1473257 -0.073656365 0.14003351 -0.058048952 0.07443679
0.037919983 0.07685842 -0.11986099 -0.008965119 -0.09141288 0.025240293 0.12897481 0.15865251
0.13613532 -0.05627528 0.019442512 0.09076953 0.1659897 0.05568357 0.09843163 0.059484288
0.075735554 -0.078400925 0.016195692 0.12760414 0.16875483 -0.03391389 0.16420075 0.046738643
-0.016391702 0.14532635 0.12465404 -0.088628 -0.15726301 -0.027933592 -0.007595282 0.042323973
-0.088336244 -0.021769838 0.16173667 0.003794489 -0.11524938 -0.16219713 0.09469781 -0.030409914
-0.11473838 0.12619504 0.029044557 -0.08652347 -0.15365194 -0.041757 -0.030662596 -0.070697814
0.06261321 -0.056043718 0.0852064 0.079414725 -0.10046955 -0.1541628 -0.053175837 -0.022621265
-0.046805874 -0.14772812 -0.1331691 -0.07446451 -0.004640314 0.058464497 0.074272044 -0.14688301
0.025191192 -0.03372349 0.10031765 -0.020884255 -0.15638864 -0.064042896 -0.027759977 -0.042294737
-0.014192385 -0.06294444 0.15819265 -0.0030122856 0.16433598 -0.1081591 -0.06432938 -0.008679377
-0.04542201 -0.14201027 0.05220019 0.04073111 0.11106544 -0.09166381 0.13000125 0.14304507
0.011158625 -0.11559269 -0.1330791 0.000998288 -0.1366838 -0.13561815 0.015484443 -0.16750011
0.046262972 0.021775747 -0.158653 -0.031198429 -0.16304459 -0.03154292 0.14617994 -0.13930751
-0.08511824 -0.11616899 -0.023762755 0.12057176 -0.017936366 0.07503732 0.15982418 -0.09812702
-0.068627834 0.08726582 -0.14878516 -0.08252664 -0.0054709143 -0.05157154 -0.07969429 0.068057165

branch_t.fc1.bias f4 [128]
00000000: dc46 88bd 44a6 46bc f7e3 7cbd c823 413d
00000010: 9f02 053e ebbb cbbb 634e f6bd c84a d03d
00000020: f482 b03d db17 243e 6cea 1c3e 4dab 0f3e
00000030: cedf ebbd de5e 903d 4100 e3bd ae9d 08be
00000040: ab31 10be 13cf da3c 8845 b83d c222 e53b
00000050: c6fb 59bd e6e8 acbd a216 0ebe f76b dcbd
00000060: 209e 383d e9c9 993d a5ec 823d d865 ab3d
00000070: 1683 27be 16a5 e0bd 3438 193e 4f48 8fbd
00000080: 44fc 89bd 70e1 ce3d e04e f6bd 139c 113e
00000090: 1f70 a5bd 3b98 103e fa51 2a3e e6b3 543d
000000a0: 30bf fe3d 22ea ec3d 3ec0 33bd 1d44 02be
000000b0: 70eb 0d3e 3dc8 b7bd aade 0ebe b2a3 213e
000000c0: 97bb f8bd f04f 27be 1a2e debc ebdc 263e
000000d0: 1c93 f53d 40ce 953d eee7 cabb dca0 03be
000000e0: 0434 aa3d 7128 cb3d 25b7 043e f386 673d
000000f0: 0ff4 0b3c e0c2 debd 2931 9e3d 0a3c a33c
00000100: 5bdb 973d 5089 80bb 1002 da3d e4b6 093e
00000110: 1dc8 7d3d a1cc 10be e115 0bbe 61cb 2abc
00000120: fdfd 283e a648 84bd 04c3 133e 9efd babd
00000130: 7d7d df3d 7d30 213e 098c fe3d f52b 5fbc
00000140: 2f1a 01be 16e9 a53d 0cfa de39 faf3 1bbd
00000150: 5fc4 13bd 6490 bdbd 4976 ca3d 0f6f 8d3d
00000160: 6297 e33d 2367 2abe 6024 cabc 154c a1bd
00000170: d01b 9fbd 5174 f4bc e79d 063d d4b7 123e
00000180: 36c6 303d 6a2a 263d e3d8 aabd 7d6f 4cbd
00000190: 3e61 60bd c191 afbd 428b 0ebe 66e7 d73d
000001a0: 7a1d 82bc 6775 9abc d018 1ebe 3c86 b73d
000001b0: f892 f73d 1d3c 983d f1fb b53d 18ab 003e
000001c0: 2834 4e3d e4d4 123c acac 7f3d eb73 053e
000001d0: edc1 68bd 0c6f adbd b0f1 d23d 0da8 2a3e
000001e0: cb52 09be 58b5 5abd b0dc 4e3b 615c 87bc
000001f0: 5ad1 273e d84b 04be 61f4 fabd 145a 2abe
-0.0665414 -0.012124602 -0.06174084 0.047153264 0.12989281 -0.00621747 -0.1202667 0.101705134
0.08618727 0.16024725 0.153238 0.1403019 -0.11517297 0.070493445 -0.11084033 -0.133414
-0.14081447 0.026710069 0.08997637 0.006992669 -0.053218625 -0.08442859 -0.13875821 -0.1076278
0.045072675 0.075092144 0.063927926 0.083690345 -0.16358599 -0.10968988 0.14962846 -0.06996214
-0.06737569 0.101015925 -0.12026763 0.14219694 -0.08078026 0.14120571 0.16632834 0.051929377
0.1243881 0.11568095 -0.04388451 -0.12721296 0.13859344 -0.08973739 -0.13952127 0.15785101
-0.12145155 -0.16339087 -0.027121592 0.16295211 0.119909495 0.0731473 -0.006192199 -0.12854332
0.083107024 0.09919823 0.12960489 0.056525182 0.008542075 -0.10877013 0.0772422 0.01992609
0.074148856 -0.003922619 0.10644925 0.13448673 0.06195842 -0.1414056 -0.13582565 -0.010424466
0.16503139 -0.06459169 0.14429861 -0.09130405 0.10912607 0.15741153 0.12429053 -0.01362132
-0.12607644 0.08101098 0.0004252944 -0.03807447 -0.036075946 -0.09256056 0.09885842 0.06905948
0.11112858 -0.16640906 -0.024675548 -0.078758396 -0.07768977 -0.02984062 0.03286543 0.14327937
0.04315778 0.040567793 -0.08342149 -0.04991101 -0.054780237 -0.08572722 -0.1392031 0.105421826
-0.015883196 -0.01885481 -0.15439153 0.0896115 0.12088579 0.07433341 0.08885945 0.12565267
0.05034271 0.00896189 0.062420532 0.130325 -0.056825567 -0.08468446 0.103000045 0.16665669
-0.1341049 -0.0533956 0.0031564645 -0.016523542 0.16388455 -0.12919557 -0.12253643 -0.16635925

branch_t.fc2.weight f4 [64, 128]
00000000: a71e 34bb 1d4d da3c fba0 8bbd d3e9 b2bb
00000010: 492c a0bd 17e2 803c 2673 41bd d297 2ebc
00000020: 45bb 18bd 29e6 863d ff34 1bbb 5a2b 89bd
00000030: 8aad 5a37 4ec2 183d f9a4 4a3d 357c a1bd
00000040: 245e 8d3d 93be a13d dde6 fb3c 8a89 ac3c
00000050: f369 8c3d 74e4 333d d541 643d 92e0 a4bd
00000060: f5e7 2ebd d557 89bc 28d6 98bd 842b 633c
00000070: f76b 913d b036 8bbd 560a 90bb da62 31bd
00000080: 7a90 8dbd a80f 9fbd 75d3 013c 377d 89bd
00000090: 63ed 8c3d 65fc 21ba 631f 873d 2cff 0e3d
000000a0: dfd5 873d 4fb5 0c3c 3456 a13d f55c 8f3d
000000b0: 588e a5bb 5650 433c 5346 333d 28ef b03d
000000c0: a479 93bd 57c4 5cbc 722b adbc a3a3 ecbc
000000d0: 7d77 34bd c67f 77bd 9bb5 473d 1b1d 2c3d
000000e0: 409e 05bd 8025 aa3d b5a6 503d cfa9 8d3d
000000f0: 0b80 81bd 49cd a63d dac0 5bbc 63c4 af3d
00000100: 1dee 813d d8eb 183d 2e97 8d3c 0848 7e3d
00000110: 7b72 a0bd e4fa 16bc 8d8a 23bc 4af6 933c
00000120: d518 52bc fa3b 67bd 08d0 dc3c f332 bc3c
00000130: 9f03 33bb 6ace 263d 6056 9c3c 5e97 773d
00000140: 6d06 00bc d6ff 3e3c 38a7 873d b341 90bd
00000150: 26a1 29bc 8043 5b3c f8ed 41bc aac7 ab3d
00000160: 041f b1bd 80ef 1f3c eaf1 c6bc 42d9 d33c
00000170: bfac 80bd e68e 81bd e153 133d b2c3 343d
00000180: fba5 94bc fe37 913d 7686 81bd fbde 233d
00000190: 8200 a2bd 4d09 a03d a289 22bd c3c4 a1bd
000001a0: 37c1 cf3a 9e6c a03c 651f 68bc 5144 973c
000001b0: c851 0bbb 2dbb 713d 05ed 82bd 4d5b 9c3d
000001c0: bac3 783d 39a2 9e3d 71fd 4cbd 856d 93bd
000001d0: a0e5 9f3d 4710 41bd c461 a03d 3d87 4cbd
000001e0: 6f39 55bd a86c a5bd a7f5 10bd 6947 3d3c
000001f0: ebda af3d e8af a83d f02a bbbc c76e 383d
00000200: 28b1 87bd 5371 8b3d 28b7 133c 1ecb 423d
00000210: fb1f b4bd 80d6 41bd 4c2c b0bd 7c26 39bd
00000220: 889b 163c e8e1 8d3c 3275 373d d9c1 3bbd
00000230: 0058 ccbb 50c1 a9bd 1260 1b3d 5822 9c3c
00000240: bd02 8d3d 104d a33c 720a b2bd 8024 5fbc
00000250: 4899 893c e05b c6bc fda3 983d 9a9e 453d
00000260: a72e 66bd 7a32 40bd 6b61 8abd 20cd 1a3c
00000270: 09ab acbd bda6 9abd 9c0d 09bd b021 2ebc
00000280: af75 9a3d 380d afbc fc4c d33c a8f9 8b3c
00000290: 0064 8539 6eee 783d bbb0 01bd 30d2 423c
000002a0: 6e8f 9ebd 7a1f 1a3d 183c 6f3c b4a3 7dbd
000002b0: a4ae 93bc 7a9f acbd 5ae2 20bd 15d3 ac3d
000002c0: 63c9 943d 2670 90bd ee42 44bd 2026 a33b
000002d0: 9022 9fbb 96d3 273d 702d 9c3b 9049 ff3c
000002e0: 0c43 f23c b1b2 7ebd d2a1 aabd 4f83 57bd
000002f0: e0d3 dc3b 0788 913d 77da 43bd e9c5 29bd
00000300: fe4e 393d 65c2 943d 48b2 debc 9804 66bc
00000310: 00e4 abbc 81ec 11bd b031 7dbc 3a9e 453d
00000320: 3db0 b0bd 97ec 86bd 2daa 5cbd f40f 1ebd
00000330: 38c4 7ebc ea8e 323d 7cfc a9bd ad69 14bd
00000340: 39cc 0fbd b273 0c3d 28c0 83bc c20b 773d
00000350: 245b 02bd 1eac 4f3d b5b0 b43d ca41 173d
00000360: ea37 77bd 4d57 8fbd e038 d23c b14a 9a3d
00000370: 405f dcbb 12df dabc 72b8 0dbd 84ad 8cbd
00000380: 005a e9b9 7034 c9bc cccb 84bd 21b0 08bd
00000390: 94a5 4dbd 902d dd3b 8829 54bc 8804 923c
000003a0: 9a28 2b3d e03a 973b dcb4 ee3c e4f2 d83c
000003b0: 9877 e13c befc 85bd 90d3 5abc 0538 9abd
000003c0: 6d37 acbd 5090 3e3c b4b1 8fbc 32fa 633d
000003d0: 3376 983d 007e 6f3b dde8 a63d 2b1a 803d
000003e0: b835 6ebc 6e7e 593d f0f1 d03c e739 2bbd
000003f0: 90aa a23b 293f a53d 802b 603a 8431 75bd
-0.002748409 0.026648099 -0.06817814 -0.005460003 -0.07820947 0.015732808 -0.047228955 -0.010656314
-0.03728797 0.06586868 -0.0023682711 -0.06697722 1.3034218e-05 0.03729468 0.049473736 -0.07885019
0.069027215 0.07897677 0.030749733 0.021061677 0.06856146 0.04391904 0.055726845 -0.08050646
-0.04270168 -0.016765514 -0.07462722 0.013865355 0.07100671 -0.0679754 -0.0043957634 -0.043307163
-0.06912322 -0.07766658 0.00792395 -0.06713336 0.068812154 -0.00061792723 0.065977834 0.03491132
0.066325895 0.008588149 0.0787777 0.07000152 -0.005052369 0.011921009 0.04376824 0.086393654
-0.072009355 -0.013474545 -0.02113888 -0.028886622 -0.044059265 -0.06042459 0.048757177 0.042019945
-0.032621622 0.08307934 0.050940234 0.06917154 -0.063232504 0.08144624 -0.013412679 0.0858238
0.06344245 0.037334293 0.017284002 0.062080413 -0.078343354 -0.00921509 -0.009981764 0.018061776
-0.012823303 -0.056453682 0.026954666 0.022973513 -0.002731539 0.040724196 0.019084156 0.06044709
-0.007814032 0.011657676 0.06623691 -0.07043781 -0.010353362 0.0133827925 -0.011836521 0.08387692
-0.08648494 0.009761691 -0.024285275 0.025860433 -0.06282949 -0.06326084 0.035968665 0.044131942
-0.018145552 0.07090758 -0.063244745 0.040007573 -0.07910253 0.07814274 -0.039682038 -0.078988574
0.0015850429 0.019583043 -0.014167641 0.018465193 -0.0021258462 0.059016395 -0.06392864 0.07634602
0.060733534 0.07745785 -0.050046388 -0.071986236 0.07807469 -0.047134664 0.07831147 -0.04993366
-0.052056726 -0.08077365 -0.035390522 0.01155267 0.08586677 0.082366765 -0.022847623 0.04502752
-0.06625587 0.06808724 0.009015836 0.04755699 -0.08795162 -0.047323704 -0.08602199 -0.045202717
0.009192355 0.017319635 0.0447895 -0.045839164 -0.0062360764 -0.082888246 0.037933417 0.019059345
0.06885288 0.019934207 -0.086933985 -0.013619542 0.016796723 -0.024213731 0.07453153 0.048246957
-0.056196835 -0.04692314 -0.06756862 0.00944832 -0.0843106 -0.07551334 -0.033460245 -0.010628149
0.075419776 -0.021368608 0.025793545 0.017086819 0.00025442243 0.06077426 -0.031662684 0.011890933
-0.07742201 0.037627675 0.01460173 -0.061923698 -0.018027611 -0.08428855 -0.039278366 0.08438698
0.07264974 -0.070526406 -0.04791539 0.00497891 -0.004856415 0.04097327 0.0047661588 0.031163007
0.029572986 -0.062182132 -0.08331646 -0.05261546 0.0067391247 0.07106023 -0.047815766 -0.041448507
0.04524135 0.0726364 -0.02718462 -0.014039181 -0.020982742 -0.03562594 -0.015453741 0.0482466
-0.08627365 -0.06588095 -0.05387323 -0.038589433 -0.015549712 0.043593325 -0.08300111 -0.036233593
-0.03510687 0.034290023 -0.016082838 0.060313947 -0.0318252 0.050701253 0.08822767 0.036927976
-0.06035606 -0.06999073 0.025661886 0.075337775 -0.006725222 -0.026717696 -0.03459973 -0.06869033
-0.00044508278 -0.024561137 -0.06484184 -0.033371095 -0.050206736 0.0067498162 -0.012949355 0.017824426
0.041786768 0.0046151727 0.029138975 0.026483007 0.027522847 -0.06542347 -0.0133561045 -0.07530216
-0.08409009 0.0116310865 -0.01754079 0.055658527 0.0744442 0.0036543608 0.08149884 0.06254991
-0.014539175 0.05309909 0.02550599 -0.041803267 0.0049641803 0.080686875 0.0008551404 -0.059861675

branch_t.fc2.bias f4 [64]
00000000: 27d5 83bd 6cb1 2cbd 417a a83c 1886 243d
00000010: 5720 503d 8853 8bbc e00f d43c 40ce 2e3d
00000020: 6b63 cbbc 873b 97bc fc5b 673d c597 acbc
00000030: 533b 983d a0a9 c13c 9ec4 0abd d590 48bd
00000040: 332d 99bd 3ed0 3dbd 3ecc edbc 33fe 983d
00000050: facf 8ebd d27c 213d 45f2 63bc 59f3 933d
00000060: ff05 203c 9a3d 15bc a0c4 47bd 5cf1 88bd
00000070: e3dc febc ab57 70bd 2c09 a9bd 44f3 a0bd
00000080: 462b 8abd b2f1 893d 7e2b ad3d 0c77 473d
00000090: 4923 183d f0b3 503c 7155 8e3d d140 9fbd
000000a0: ee04 d23c baaf 683d e6e4 4a3d 396e 223c
000000b0: 6153 e9bc b6f4 233d 5ead 493d 738a eabc
000000c0: 581c 6fbd cf26 66bd f9cf a7bd e12f 003d
000000d0: 2eb2 193d d2a9 55bc e49d 5a3d 407a 363b
000000e0: 9ab9 0a3d 9d60 af3c 2e51 b9bc f153 423d
000000f0: 7ca9 5dbd d4cb 983d 0e2b 35bd 65ac 8b3c
-0.0643714 -0.04216139 0.020566108 0.040166944 0.05081209 -0.017007604 0.025886476 0.042677164
-0.02482768 -0.018461002 0.056484208 -0.021068463 0.0743319 0.023640454 -0.033878915 -0.048966248
-0.07479324 -0.046341173 -0.029028054 0.0747036 -0.06973262 0.03942568 -0.013912742 0.07224149
0.009767055 -0.009108925 -0.0487715 -0.06686661 -0.031111186 -0.058677357 -0.082537025 -0.07858899
-0.06746535 0.06735553 0.08455561 0.048697516 0.037143026 0.012738213 0.069498904 -0.077760346
0.025637116 0.05680821 0.0495347 0.009913974 -0.028482141 0.040028296 0.0492376 -0.02863047
-0.05837664 -0.056189355 -0.081939645 0.03129566 0.03752344 -0.013040977 0.053373232 0.0027843863
0.03386841 0.021408373 -0.022621717 0.047443334 -0.05411671 0.07460752 -0.044230513 0.017049978

branch_t.fc3.weight f4 [16, 64]
00000000: e47f af3d d84c c9bd ef21 b4b9 6fc1 febd
00000010: 11f1 c13d 5ec3 e7bd 8040 c43d cdf2 efbd
00000020: a425 a93b 50b7 513d 921e 6f3d d8e1 fbbd
00000030: 001f 4b3c b01f 37bc a37a 8b3c 13d8 e33d
00000040: f38f 603d 3a62 963d 44b0 52bd a4a7 b03d
00000050: c368 c8bd 30d6 163d 125f bfbd 80d9 88bd
00000060: 2d60 63bd 9b73 7cbd 8d9e 77bc 9655 973c
00000070: a732 57bc 001a 89bd b07b e8bd 470b 4a3d
00000080: 9507 f8bd 4fed ec3d f89c f4bd 2664 c93d
00000090: 7994 d73d 0aa1 da3d 1c3b ebbd ca15 2abd
000000a0: 1e0a b7bc 4d2b 983d b8a6 bbbb c833 aabd
000000b0: 5150 64bd 60c5 ccbb 00a1 1fbc a2af bf3d
000000c0: 2099 9cbc 1444 bebd e2ab db3d b74c bb3c
000000d0: 3455 863d f724 78bd 07dc c83d 7087 80bd
000000e0: 14cc f9bd b1d1 893d 5b99 65bd 7143 cbbd
000000f0: 04ed c5bd 6233 8c3d 3023 5d3d 67d8 4dbd
00000100: d1ac 763d e8e0 febd b785 7f3d 63b4 4c3d
00000110: b055 10bd 6067 72bd deca b0bd 262d dfbc
00000120: 892a 223b 9ae7 933c 6220 c0bd 5677 183b
00000130: dc56 e03d 723b 83bd 13c2 ed3d ed90 dc3d
00000140: c0e1 aabd f349 a9bd 8e52 c53d 80ca 4abb
00000150: f00a dbbd 32a8 c8bd 7baf ffbc 30d4 4d3c
00000160: de89 cdbd ef60 3d3d 848a 853d f5ba fa3d
00000170: 6870 2c3d b53e 8ebd 3c07 8a3d 1a3d 3cbc
00000180: 085c 95bd 832e 0bbd c229 803d c3cd f93d
00000190: fd63 9cbc fabe aebd bcd8 27bd d995 b93c
000001a0: 6062 b8bd 5d2d 96bc 8dcf ae3d 5f7c 46bd
000001b0: 3b85 cabd ae7a b0bd 8829 383d fee0 ee3b
000001c0: 7623 c8bd e29f 873d 2a6b b03d 1418 333d
000001d0: 7cbd d0bd 55be 22bc 238f 7abd d49f a3bd
000001e0: 8039 8f3d 90e6 2c3d c1ac 833d bf61 dc3d
000001f0: b4df 963d fa75 b43d 420a dc3d cd47 66bc
00000200: f7c7 16bd 602a b6bb cc16 f33d e24f eebd
00000210: dc7f c53d 701c b1bc 0059 89bb 3332 60bc
00000220: 17e7 12bd a6e3 eabd d93a 673d 6c3f c03c
00000230: 7090 8cbb c031 5ebb 93e8 d03b 4947 9c3d
00000240: dcfd c03c f71a 8fbd 651e f73c 9872 863d
00000250: e9dc a4bd b0c3 233d eba0 1e3d 58af 3dbd
00000260: 001c 6f3d 28ab a43d b05d 97bd 458e f63c
00000270: c8c3 e5bc a29b 8a3d 4a8b 7c3d 062a 893d
00000280: 574f 913d eea3 63bd 0e38 a8bd b378 c33c
00000290: 0c6e 36bc c8e1 80bd 8877 2ebd c8be 603d
000002a0: 277c 68bd 30b1 e3bc 6ef7 303d 5410 943d
000002b0: d8d5 9e3b c846 e9bc d0c8 0f3c 9f31 8fbb
000002c0: 584c 67bd 85a4 0f3d 2849 7d3d 16a6 f83c
000002d0: 4250 cb3d a0b9 5abd 4bc4 e53d 7013 d13d
000002e0: c213 f43d 86af ebbd b279 13bc 009d d03d
000002f0: 76de d9bd a25a 6bbd 96cf a8bd b2c1 95bd
00000300: 50f5 53bc 3872 993d ce41 c2bd 60db 813b
00000310: ba37 88bd 68b6 91bc 40db b7bd acd8 e1bd
00000320: 704a 9abd 6289 a9bd 9005 e7bc c637 a43d
00000330: e87b c93d 8cf5 cb3d 2099 91bc 4c6a 5ebd
00000340: b8b7 84bc c0e9 71bc 3069 413c 8495 8abd
00000350: 9043 753d 041e 32bd ccde 5bbd 105f 893c
00000360: e8bc 8ebd 0213 90bd 8272 bfbd 6084 f5bc
00000370: acc8 c83d 40cb 4a3b 200c 59bc 88aa fcbd
00000380: b640 c73d 2a69 e63d 8004 5bbc 049f ebbd
00000390: 085f d63c 522d ed3d e428 f8bd c822 98bd
000003a0: 309c d93d 3c13 15bd 041e d23d 08a1 a8bd
000003b0: 9033 4e3c 8c5d 513d 32ff fabd 24b1 d13d
000003c0: 40df ca3d f0e3 debd a085 07bd 4e15 d1bd
000003d0: f051 dfbd 2033 673d 7020 cf3c 3c91 d0bd
000003e0: f8ea f4bc 0045 96bc 3c6e 4e3d 74e9 94bd
000003f0: c0b1 63bd 4c78 f5bd 689a b53c e8cb a43d
0.08569315 -0.0982911 -0.00034357558 -0.12439238 0.09469808 -0.1131656 0.09582615 -0.117162324
0.005161958 0.05120021 0.058378763 -0.12298936 0.012397528 -0.0111769885 0.017026251 0.11125197
0.05482478 0.07342954 -0.05143763 0.08625725 -0.09785607 0.03682536 -0.09344305 -0.0668211
-0.055511642 -0.061633687 -0.015113485 0.018473428 -0.013134635 -0.06694412 -0.113517165 0.04932716
-0.12110821 0.115687005 -0.11944002 0.09833555 0.10526366 0.10675247 -0.114858836 -0.041524686
-0.022343691 0.07430134 -0.0057266615 -0.08310658 -0.05574066 -0.006249115 -0.009742975 0.09359671
-0.019115984 -0.092903286 0.107261434 0.022863729 0.0655922 -0.060582127 0.09807592 -0.06275833
-0.12197128 0.067294486 -0.056054454 -0.09924973 -0.09664348 0.06845738 0.053988636 -0.050255205
0.060223404 -0.12445241 0.06238338 0.049976718 -0.035237968 -0.059180617 -0.08632444 -0.027243208
0.0024744591 0.018054772 -0.093811765 0.002326449 0.10954067 -0.06407823 0.11609282 0.1076983
-0.0834384 -0.08266058 0.09634887 -0.0030943453 -0.106954455 -0.09797706 -0.031211605 0.0125627965
-0.10036062 0.04623502 0.065205604 0.122426905 0.042099386 -0.06945554 0.06739661 -0.011489177
-0.07292944 -0.033979904 0.06257965 0.12197449 -0.019090647 -0.0853252 -0.04097818 0.02265446
-0.090031385 -0.018332178 0.08535681 -0.048458453 -0.09888693 -0.08617149 0.044961482 0.0072900048
-0.09772389 0.06622292 0.0861419 0.043724135 -0.10192391 -0.009933074 -0.061171662 -0.07989469
0.06993389 0.04221207 0.064294346 0.10760831 0.07366887 0.08811565 0.10744144 -0.014055205
-0.036811795 -0.0055592507 0.118695825 -0.1163633 0.09643528 -0.021620005 -0.004191518 -0.013683843
-0.035864916 -0.11469202 0.056452606 0.023467742 -0.004289679 -0.0033904165 0.0063753813 0.07630784
0.02355855 -0.06987565 0.03016586 0.06564826 -0.08049948 0.039981544 0.038727682 -0.0463098
0.058376312 0.08040458 -0.07390916 0.030097136 -0.028047457 0.06767966 0.061656274 0.066974685
0.07095211 -0.055576257 -0.082138166 0.023861265 -0.011134636 -0.06293064 -0.042594463 0.054869443
-0.056759026 -0.02779445 0.043204717 0.07229677 0.0048472695 -0.028476134 0.008775905 -0.004369929
-0.05646929 0.035069007 0.061837345 0.030352633 0.09927417 -0.053399682 0.112190805 0.102087855
0.11917831 -0.11508088 -0.009001182 0.101861954 -0.10638134 -0.05745948 -0.08242719 -0.07312335
-0.012936905 0.074924886 -0.094852075 0.003962919 -0.06651254 -0.017787173 -0.089773655 -0.11027655
-0.07533729 -0.08278157 -0.028200895 0.080184504 0.09838086 0.09958944 -0.017773211 -0.05430059
-0.016200885 -0.014765203 0.011804864 -0.06766799 0.059878886 -0.043485656 -0.053679273 0.016768962
-0.06969625 -0.070348755 -0.093480125 -0.029970348 0.098039 0.00309439 -0.01324752 -0.12337214
0.097291395 0.11250527 -0.013367772 -0.11504939 0.026168361 0.1158091 -0.12117174 -0.07428509
0.106254935 -0.036395296 0.10259631 -0.08233839 0.012585536 0.051114604 -0.12255706 0.10238865
0.09905863 -0.108833194 -0.03308642 -0.10209142 -0.109043 0.05644524 0.025284022 -0.10183951
-0.029897198 -0.018343449 0.050398096 -0.0727109 -0.055589437 -0.119858354 0.022168353 0.080467045

branch_t.fc3.bias f4 [16]
00000000: 8e7b 02bd 80ee 9ebd 53f5 2cbd f83a 853d
00000010: e063 613d 9086 ed3c 5f28 88bd 42df fd3d
00000020: bf1d eb3d e1c7 06bc c3ff e9bc a59f 93bc
00000030: a2e1 c4bd d847 dfbc cc79 7a3d 7f5d 07bd
-0.031856112 -0.07760334 -0.042226147 0.06505388 0.05502689 0.028994828 -0.06648325 0.12396099
0.11480283 -0.008226366 -0.02856434 -0.01802046 -0.096133485 -0.027255937 0.06115131 -0.03304815

branch_p.fc1.weight f4 [256, 34]
00000000: 3d7f 3fbd 889b 3f3d 9378 d93d 54ba ecbc
00000010: c30f 163e 7be1 dbbd 3fe2 ea3d 50f1 403d
00000020: a450 1e3d 3c58 603d 9020 213e 262e 2c3e
00000030: fab9 c63c 6364 1d3e b3e1 023e 6b6b 303e
00000040: c521 db3c a220 913d 3f2a 2dbe d8b9 c43d
00000050: 0746 ce3b cb7d 87bc 5fbc 8fbd 151e 513d
00000060: 2a3c 133e 7029 2b3e 4141 e8bd ca98 8a3d
00000070: 19ef 493b 7634 58bd 044d a7bc 062b 55bd
00000080: 22b6 d43c 6c11 fc3d a37a ef3d 8082 c2bd
00000090: 781c e8bd c7b4 ea3d 9f0b a63c d3e8 eabd
000000a0: af08 a23d cf4f d93c 8e57 1d3e 2172 9c3d
000000b0: 74e7 823c 35b6 86bb 942b a83d b3b8 13be
000000c0: e7b8 a0bd ca6d 393d bcb5 ff3d 2e5b 59bd
000000d0: a72c 2a3e 4bd0 b63d 31f3 11be 20e1 1d3e
000000e0: 2592 203e 94fd 4d3b e981 253e eb8f 10be
000000f0: be11 08be 8815 c13b e4ce 13bd c1b6 243e
00000100: 7b55 063d 4af7 1b3e 6d3f de3d 6cbf 0fbe
00000110: 6d19 29be 77c0 2e3e d0f3 66bd 6865 823d
00000120: baf6 fa3d dc3c 1c3d 9b9d a3ba 3610 ca3d
00000130: cc45 04be 1235 b0bc 094a 0dbd 68c2 25be
00000140: aadb 7f3d fa7f 913d 4512 273e 77c6 27bd
00000150: 1947 efbd 25fc 1c3e abe6 113e 7fe0 293d
00000160: bd5e 1abd 5229 f2bd 1afd d53c d5ae 1a3e
00000170: 2042 f8bd 94a2 9f3d 23a0 293e 64f7 ccbd
00000180: 7191 e23d 7103 be3d cb4a ec3d dd86 1d3c
00000190: e463 af3d 6a8e 233e fb4b c23d 5fd6 c03d
000001a0: ec70 a6bc ca93 c73a cc86 0dbe ce40 d03d
000001b0: 3f35 97bd 61e1 91bd 1783 173e c778 dd3d
000001c0: 5412 163e 1d3a 88bc 0444 14bd feed 02be
000001d0: ecf1 a6bd 47d9 1b3d e59b abbd 04fa 013d
000001e0: b1f6 e0bd 7a73 18bd ddee cfba e9a3 083e
000001f0: 250a 613d 8c2a 0abd fc4c b2bd b4d9 c03d
00000200: 6903 3f3d 6dd2 afbd 4c89 de3d b100 e63d
00000210: 8052 9f39 549e 3f3d 5024 babd 228b 0fbe
00000220: c754 393b 1c34 bd3b d72c 043e 3299 a4bc
00000230: b8e1 dfbd ee2f 02be ea41 efbd a802 1a3e
00000240: 784d 063d bde2 003e 26e8 113e 8b3d 273e
00000250: 0218 ddbd 7477 e4bc c737 27be fb93 63bd
00000260: e1bf f1bd cab5 d5bd e440 a43d cc84 79bd
00000270: f27f 07be a5e6 ebbc 1a42 2b3e e525 43bb
00000280: 85ed ea3d 758f d63c 93d3 09be 24a8 43bd
00000290: 52c2 4f3d 4d13 8fbd cded bbbd dfab 2c3e
000002a0: c198 a3bd 03ec 2d3e bc16 80bd f066 09be
000002b0: b141 0fbe 1aeb b93d b575 26be ca8a 013d
000002c0: 4269 b4bd c215 5fbd 2c42 d63d 79ef d1bb
000002d0: 7f75 d6bd 285d e9bd a3ad 2ebd cf5d c93c
000002e0: 0655 023e ed3a 753d f657 13bd af8e 0cbe
000002f0: 5d37 84bd c5f8 e93d 30f9 613d ca28 41bb
00000300: a929 1f3e 7cfb e7bd e306 17be 33e5 95bd
00000310: 28ce d53d aa7a 6d3d aeec edbd a6f4 5bbd
00000320: 226d 77bd 834f 7a3d c39d 05be b942 193e
00000330: 964b 03be 5f8b 793a 6e88 28bd 2a33 b9bc
00000340: 7c1c 9e3d f1e2 c63c 0aed bf3d 9ba7 923d
00000350: 92c2 ecbd a7a8 89b9 c943 303e 672f 3abd
00000360: e364 13be f07d b0bd fbc4 9b3d 7d1e 1fbe
00000370: 5a79 1bbe 4b62 4e3d c71e 0ebe d748 1c3e
00000380: 9fee 2d3e d6e9 d4bd 6cfa f9bc ab5e 453d
00000390: ca08 103e 7798 edbd a580 293d 60aa f23c
000003a0: ccce 873d e160 3bbd cd2d 263d 40d3 98bd
000003b0: a7f1 5bbd 6720 89bd 85b1 95bd 9603 0a3e
000003c0: fe04 db3d 504e 233d 07ae 703d 6489 bebd
000003d0: ec63 b1bd baae 2cbe cd02 193e 62c7 e73d
000003e0: 485f aa3d 5415 a73d a80f 22be acd3 b43d
000003f0: d251 19be e2fc e63d 4d75 a73d 2ec5 13be
-0.046752203 0.046779186 0.10618701 -0.028897442 0.1465445 -0.10736366 0.11468934 0.047105134
0.038651124 0.054771647 0.15735078 0.16814479 0.024258602 0.15370326 0.1278141 0.17228477
0.026749501 0.07086302 -0.16910647 0.096057594 0.006294969 -0.016539475 -0.07018351 0.05105408
0.1437842 0.16715026 -0.11340571 0.067674235 0.003081268 -0.052784406 -0.020422466 -0.052042983
0.025965754 0.123080105 0.11693313 -0.09497547 -0.11333555 0.11460262 0.020269213 -0.11470189
0.079118125 0.026527314 0.1536543 0.07638956 0.015979506 -0.0041110762 0.08211437 -0.14425926
-0.07847767 0.04527072 0.12485835 -0.05306547 0.16618596 0.089264475 -0.14252926 0.1541791
0.1568075 0.0031431662 0.16162838 -0.141174 -0.13288018 0.0058924593 -0.03608598 0.1608534
0.032796364 0.15231052 0.10851941 -0.14037865 -0.16513605 0.17065607 -0.05638486 0.06366998
0.122540906 0.038143978 -0.0012482883 0.09866373 -0.1291725 -0.02150968 -0.034494434 -0.16187441
0.062465347 0.07104488 0.16315563 -0.040960755 -0.11683483 0.1533056 0.14248149 0.04147386
-0.037688006 -0.118242875 0.026121665 0.15105756 -0.12121987 0.07794681 0.16564994 -0.100081235
0.11062897 0.09278 0.11537703 0.009614673 0.085639745 0.15972295 0.094871484 0.09415888
-0.020317517 0.001522654 -0.13820952 0.101686105 -0.07383203 -0.07123066 0.147961 0.10814052
0.14655429 -0.016629273 -0.036197677 -0.127861 -0.08151612 0.03804901 -0.08379344 0.031732574
-0.10984553 -0.037219502 -0.0015864033 0.13343777 0.054941315 -0.033731982 -0.0870609 0.094165236
0.04663411 -0.085850574 0.10866031 0.112306006 0.0003038831 0.046781853 -0.09088957 -0.14017919
0.002827929 0.005774034 0.1290773 -0.02009258 -0.10931724 -0.12713596 -0.11682494 0.15040076
0.032788724 0.12586494 0.14248714 0.1633207 -0.10795595 -0.027888991 -0.16329871 -0.055561047
-0.11804176 -0.10435064 0.080201894 -0.06091766 -0.13232401 -0.028796503 0.16724434 -0.0029777226
0.114710845 0.026191453 -0.13459615 -0.047767773 0.050722428 -0.06986103 -0.09176216 0.16862439
-0.0798812 0.16984563 -0.06254336 -0.13418174 -0.13989903 0.09078045 -0.16255839 0.0316265
-0.08809139 -0.05446411 0.1046184 -0.006406721 -0.10471629 -0.11394721 -0.04264606 0.024580864
0.12727746 0.05987065 -0.035972558 -0.13726304 -0.06455872 0.11424402 0.055169284 -0.0029473775
0.15543236 -0.11327264 -0.14748721 -0.07319107 0.10439712 0.05797831 -0.11617409 -0.05370011
-0.06040681 0.061110985 -0.13048463 0.14966859 -0.12821802 0.0009519364 -0.041145734 -0.022607405
0.07720277 0.024278136 0.093713835 0.071608745 -0.11560549 -0.00026256332 0.17213358 -0.045455363
-0.14393954 -0.08617771 0.076059304 -0.15538974 -0.1518301 0.05038671 -0.13878928 0.15262161
0.16985558 -0.10396163 -0.030514918 0.048185986 0.14065853 -0.11601346 0.04138245 0.029622257
0.0663124 -0.045746688 0.040571023 -0.07462168 -0.053697255 -0.066956334 -0.0730925 0.1347793
0.106943116 0.039869606 0.058759715 -0.09303549 -0.08661637 -0.16863528 0.14942475 0.11317326
0.08318955 0.08158365 -0.15826285 0.08829436 -0.14972618 0.11278702 0.0817667 -0.14430687

branch_p.fc1.bias f4 [256]
00000000: 29e5 21be ed8f 723d 3588 bebd 2565 2bbd
00000010: 408b 9b3d 1e88 9aba 8a6c b23d 8047 c43c
00000020: 8e42 14bb e23a 08be f4a5 51bd c75c f93c
00000030: d4d0 093e 7b5e 84bc 89b0 13be f2d8 063e
00000040: e784 223e 0306 6c3d dd86 d9bd 576b ac3d
00000050: 78d7 44bd fd52 d3bd ce9d 51bd 1924 103e
00000060: a17f 89bd d258 23be e924 ac3d ac0e b1bd
00000070: 21fb 2e3e a153 28be 01fa a13c 630c 2f3e
00000080: 595c 133d baa7 3fbd 997a 1ebe cf82 db3d
00000090: 6361 89bd 9a0d 0ebe 9f3c d13d 9635 8fbd
000000a0: fa62 2f3e e3db 68bd 64fe 273e 69e4 c7bd
000000b0: a3f8 5f3c c1b1 f13d c117 f8bd a728 353d
000000c0: 82f3 11be 685a 8ab9 02bc 1f3e ef49 0abe
000000d0: 74d4 6dbd 4dd9 193e f1c7 173e f6da 963d
000000e0: 62c1 2abe 7447 7bbd f276 1ebe ebd8 d93d
000000f0: 42ef 1d3d 8bb5 76bd f453 803c 0d7b 413d
00000100: 2880 073d 1b18 f43d febf 1f3d d503 18be
00000110: 016d dcbb 69b4 08be ea1c e3bd 515b f7bd
00000120: dbe9 acbd 9517 29be 9ffc 0a3e c951 88bd
00000130: 0494 fcbd b2b0 cbbd cbe1 ed3d e6c8 0d3e
00000140: 3af0 de3d 0d32 b2bd 8363 2d3e 2a65 7fbd
00000150: c6c7 60bd 9f88 39bd df0d a73c 3fe9 d63d
00000160: 13fe 243e ec84 78bc 5d7c 113e 2d90 7b3d
00000170: 5b2b c43d ca32 063d 40aa 0b3e a776 21bd
00000180: a2ec fd3d 857f 183e 6544 b13d 1c1b 8c3d
00000190: 962d e9bc 2060 b43d fcee c93d 7b69 fdbd
000001a0: 0cbf 753d 5586 593d f054 de3d 01ef 95bd
000001b0: f887 7d3c e0fc 533c 2286 1cbb ae1b 54bc
000001c0: e8d8 dcbd 742d 8f3d 7f98 9abb 4c86 2cbe
000001d0: 387b 01be 0043 f63d a91a e83d 4f1d 83bd
000001e0: 9dc5 2fbd 2ff4 1c3e 5aa4 01be 92a4 d03d
000001f0: 00b6 c03d 900f c2bd cc30 f0bd 87ca d2bd
00000200: f1be 053d 4cf4 0abd d75b 2cbe ad7c 2b3b
00000210: 63c2 cd3d 98d2 643d 3c2e 9cbd 73df 23bd
00000220: 4f57 61bd d4ce 96bd 0111 5ebd d523 bfbd
00000230: c4e1 193e 5b17 afbd 21bf 0c3e 2451 a33d
00000240: d8d6 a8bc b6a8 153e 9b4c 17be a6cf 11be
00000250: e99b 0bbe 0e8f 623c 6d1b 78bd c38f 29bd
00000260: 5e45 003e 8b99 36bd 2051 223c cf90 25bc
00000270: 1247 fa3d 95b6 ac3d 4cdc 0f3e b50a debd
00000280: b3e5 afbd 3648 29be 448b 25be 5b43 d6bd
00000290: 057b c8bd c7cf 003e e876 e5bb 0644 0d3e
000002a0: 4d28 1ebe 4d73 c3bc 7314 923d 5edb 163c
000002b0: 7ffc 2fbd 6292 5bbd cea7 20be 5433 243e
000002c0: 3bcd f4bd 1b1b 073e c4c0 8e3c 8307 1dbe
000002d0: fb4e a23d a73d 053e 76c2 10be dc42 2bbe
000002e0: a2ec 19be e55f 71bd 5b47 0d3e d383 8abc
000002f0: 4220 89bd d062 cf3d 5a46 a03d 4b2f e53d
00000300: 9ae8 07be e9a6 fabd 5e5e 993d 6bf5 2abd
00000310: 5c0c b4bd 6164 0e3d 9872 07bd a598 1b3e
00000320: b306 833b 88dc 11be 0724 d8bd fcce 103e
00000330: dd26 b83d 1d00 1a3d 056c c23d 5af5 11be
00000340: e5e9 25be 4050 053e a53e ad3d e6fe 913d
00000350: d995 dbbc 98b5 883d 6e2d 2abe 39ec 4f3d
00000360: 97e7 063e 872d 5a3d 1443 083e 9de3 81bd
00000370: b889 e4bb 820e 00be 2942 5dbd c5e8 d8bd
00000380: c80b 233d 3bae 023e 42bc d1bc bd13 02be
00000390: 53e9 25be b0a5 01be 8c86 25bd 306c 70bd
000003a0: 005a 6b3d e55b 873d 28f0 223e c58f bdbd
000003b0: f839 9b3c 02b5 9d3d 5444 e63d 44ea b33d
000003c0: f426 8f3d 02c8 dd3c 0d28 69bc ad6a 37bd
000003d0: 3416 043c 00de e2bd a9cd 113e 17e8 9f3d
000003e0: 91fa 2c3d d0b5 91bc 5553 07be 45ba cb3d
000003f0: dfd6 e8bc 959f 21bd 185c a6bd 2064 753d
-0.15810074 0.05921929 -0.09303323 -0.041844506 0.07594919 -0.0011789834 0.087121084 0.023959875
-0.0022622677 -0.13303712 -0.051183656 0.030439747 0.13458568 -0.016158333 -0.14422812 0.13168696
0.1587101 0.05762292 -0.10621426 0.08418911 -0.04805705 -0.10318563 -0.051175885 0.1407627
-0.067137964 -0.15951851 0.084054776 -0.086453766 0.17087986 -0.16438152 0.019772531 0.17094569
0.03597674 -0.046790816 -0.15476455 0.10718309 -0.06708028 -0.13872376 0.10216641 -0.069926426
0.171276 -0.056850325 0.16405636 -0.09760363 0.013670119 0.11801482 -0.12113906 0.044228222
-0.14253047 -0.0002638877 0.15599063 -0.13504766 -0.05806394 0.150243 0.14822365 0.07365982
-0.16675332 -0.06134744 -0.15475062 0.10637077 0.038558252 -0.060231727 0.015665032 0.04723649
0.033081204 0.1191866 0.039001457 -0.14845212 -0.0067268615 -0.13350071 -0.11089499 -0.12077964
-0.08443042 -0.16512902 0.1357293 -0.06656224 -0.12332919 -0.09945811 0.11615332 0.13846168
0.10885663 -0.08700953 0.16932492 -0.062352337 -0.05487802 -0.045296308 0.020392356 0.10493707
0.16112547 -0.01516841 0.14207597 0.061416794 0.09578582 0.03276328 0.13639164 -0.039419796
0.1239865 0.14892395 0.08655623 0.06841108 -0.02846412 0.08807397 0.09860036 -0.123736344
0.05999665 0.053106625 0.10856044 -0.07320977 0.015474312 0.012938708 -0.002388366 -0.0129460525
-0.10783559 0.06991091 -0.004717886 -0.16848105 -0.1264466 0.12024498 0.1133321 -0.064020745
-0.042913068 0.15327524 -0.12660351 0.10187639 0.09409714 -0.094756246 -0.11728057 -0.10292535
0.0326528 -0.033924386 -0.16831909 0.0026166842 0.10046842 0.0558649 -0.07626006 -0.04000802
-0.055014905 -0.07363668 -0.054215435 -0.09333006 0.15027529 -0.085493766 0.13744785 0.07974461
-0.020610258 0.1461514 -0.14775316 -0.14239368 -0.13633694 0.013828052 -0.06057303 -0.041396867
0.12526461 -0.044580024 0.009907037 -0.010105326 0.12220587 0.08433262 0.1404888 -0.10841886
-0.085887335 -0.16531453 -0.16166407 -0.10462066 -0.09789089 0.12579261 -0.0070027 0.1379548
-0.15445061 -0.02385869 0.07132807 0.009207575 -0.04296541 -0.0536064 -0.15689012 0.16035205
-0.11953207 0.13193934 0.017425902 -0.15334897 0.079252206 0.130118 -0.14136681 -0.16724724
-0.15031675 -0.058929343 0.13796751 -0.016908562 -0.06695606 0.10126269 0.078259185 0.11190661
-0.13272324 -0.12238867 0.07488702 -0.041737955 -0.0879142 0.034763698 -0.03306827 0.15194948
0.0039986013 -0.14244282 -0.10553747 0.14141458 0.089917876 0.037597764 0.09493259 -0.1425375
-0.16202505 0.13018894 0.08459214 0.07128696 -0.026804851 0.06675261 -0.16618893 0.05076239
0.13174282 0.053266075 0.13306838 -0.06342242 -0.006974425 -0.12505534 -0.054018173 -0.10591272
0.039806157 0.12761776 -0.025602464 -0.12702842 -0.16202287 -0.12660861 -0.040411517 -0.058696926
0.057458878 0.06609324 0.15911925 -0.092559375 0.01894854 0.0770054 0.11243501 0.08784917
0.069898516 0.02707291 -0.01423074 -0.04477947 0.008061934 -0.110774994 0.1423861 0.078079395
0.042231146 -0.01778689 -0.13215382 0.099476375 -0.028422771 -0.03945883 -0.08123034 0.05990994

branch_p.fc2.weight f4 [128, 256]
00000000: deed 57bd a4f4 ef3c b272 4abd 80e7 3fbc
00000010: c4f8 60bd 3c41 82bc 5695 5c3d 468b 19bd
00000020: 7c5a 2c3d e863 31bc aec5 1ebd a8d8 c03c
00000030: a228 02bd 86a3 263d 9c52 9cbc ec14 43bd
00000040: 9424 6c3d 3694 123d 38f6 64bc b6d6 563d
00000050: 7e9d 12bd c0c7 54bc 18a7 8cbc c0e6 26bb
00000060: 1ca6 0b3d 2c48 ebbc a07e 67bd 4e1e 303d
00000070: 0297 113d 6423 853c a042 173b 4c3a 8d3c
00000080: 7006 c6bc cca9 48bd 86fa 6f3d e875 5abc
00000090: 8008 28bb a414 ecbc a461 0cbd 78a9 11bd
000000a0: b47c 0ebd 8827 233d c4ca 423d b2f4 793d
000000b0: bc95 bfbc 9626 2b3d a298 183d aaf9 143d
000000c0: 3035 8abb f83c ebbc e048 683b cc55 683d
000000d0: 603f a83b a8df de3c 540d 783d 6a93 33bd
000000e0: 08f1 183d 2833 79bc 00bc 3dbc f8ef c03c
000000f0: 1cf6 d13c 3896 3e3c 08bf 0c3d 2c99 ea3c
00000100: acc6 963c 1ea6 2a3d a462 153d 7ce3 64bd
00000110: ec1c d2bc 2008 103b 9895 a2bc 20be e4bb
00000120: 5811 d33c 4009 8fbc e203 7f3d 465f 693d
00000130: 4e2a 633d a059 57bb 906a 123c 8817 f13c
00000140: 7013 8b3b e0f0 303c 2c6b 15bd 2aeb 7e3d
00000150: 60f9 0fbd 981d 4b3d 5e5f 1abd 64bd 91bc
00000160: 5806 c13c 3e19 00bd dc7a acbc 2097 85bc
00000170: 08fc 0ebd 3c9b 27bd e241 0e3d 5478 7a3d
00000180: 4065 793b a401 d03c 20a7 16bc 869b 1abd
00000190: dc5d bbbc 28e6 553d f227 1b3d 4ac5 333d
000001a0: ec3c 93bc 0054 8f3a a6dc 523d 348f 0bbd
000001b0: a25d 43bd 08f0 293d 304b 7d3d 3447 b73c
000001c0: 4e59 793d d0df 013c b66a 15bd ac5d bfbc
000001d0: e449 15bd 8007 baba e801 57bd 5884 f1bc
000001e0: 2265 29bd 8c5e bfbc f8f5 0abc 0003 1b3d
000001f0: b0b2 12bd 005a 73bb 7aeb 333d a0dd 59bd
00000200: 10d7 5dbc 0a63 693d 8e4d 3abd bc27 e7bc
00000210: 6c1a 33bd a829 26bc 60ce b6bc bc5e cf3c
00000220: 3273 12bd 78c2 7abd 6038 6d3c a0eb dc3c
00000230: d4b7 59bd 6026 363c 8057 3d3a 8ce7 e5bc
00000240: 505a 65bd 8094 62ba 902c 65bc 804c 01bb
00000250: e26b 223d fea4 5bbd 666d 113d cc34 a93c
00000260: c2af 14bd 9691 713d 5414 523d c8c2 1fbc
00000270: 9888 123d e0fb 31bb 6027 63bd 185d 553c
00000280: c8a9 babc 66ec 753d 4455 543d 1678 4ebd
00000290: f01b 5a3c 4073 993c 7c2d 8cbc d088 0b3d
000002a0: d471 66bd 88c6 463c 3055 f83b 3e40 7dbd
000002b0: f20b 353d 60e5 003d d849 e7bc 48f2 093d
000002c0: 60b6 02bc e06d 60bb 6cf7 b8bc ca93 7bbd
000002d0: b410 233d b031 94bb 0cd5 5a3d 14ef 31bd
000002e0: 5285 55bd e6eb 43bd a4b5 7bbd a02e 41bd
000002f0: 007c d9b9 4a92 4a3d 9c01 debc 3cd6 fc3c
00000300: c0b0 533b f26e 663d 10a3 27bc c883 d33c
00000310: bc87 0b3d 2840 0d3d b08c 8ebc 203f 083c
00000320: b446 f73c 2434 b23c beb2 6f3d 4ca6 25bd
00000330: 80cb 143a 40bb 3abb 02a2 55bd d66d 323d
00000340: 000e 323a b44e 513d c855 d2bc b67e 0abd
00000350: 1429 61bd e4cd ecbc 0029 383b d860 11bc
00000360: 146b 5a3d aacd 3e3d 809a 64ba c8c5 053c
00000370: 7060 a83b b8a5 503c 0e49 223d 9026 fb3b
00000380: dcc3 48bd 2826 c63c 6841 ba3c 4499 aa3c
00000390: caeb 4abd 383e 2ebc a0a8 58bd 4c60 e9bc
000003a0: dc5e 173d 3cd2 1abd cc0d fdbc 52c2 273d
000003b0: 6ce8 c33c d07a 1cbc dc39 683d 1851 b93c
000003c0: fab7 5abd 386d 1b3d 50cb 3bbc c4e4 1abd
000003d0: 285d 3dbc 6681 403d 24c4 87bc 3017 ff3c
000003e0: 70b6 633d e885 56bd 26ac 263d c666 323d
000003f0: 98a4 7a3c 04ef c3bc 0029 41ba c455 0ebd
-0.052717082 0.029291458 -0.04942579 -0.011712909 -0.05492474 -0.015900247 0.053853355 -0.037486337
0.04207848 -0.010827042 -0.03876274 0.02354081 -0.03177703 0.04068329 -0.01908236 -0.047627375
0.05765207 0.035785876 -0.013974719 0.052450858 -0.035794728 -0.012987077 -0.01716952 -0.0025467128
0.03409396 -0.028720938 -0.056517243 0.04299765 0.035544403 0.016252227 0.0023080483 0.017239712
-0.024172992 -0.048990056 0.058588527 -0.013333775 -0.0025639832 -0.028818436 -0.034272805 -0.03556201
-0.034786895 0.03983262 0.047556654 0.061024375 -0.023386829 0.041784845 0.037254937 0.03637091
-0.004217766 -0.028715596 0.0035443828 0.056722447 0.005134508 0.027206257 0.060559586 -0.043841757
0.03733924 -0.0152099505 -0.011580467 0.023551926 0.02563005 0.011632495 0.03436187 0.028637491
0.018405281 0.041662328 0.036471024 -0.05588101 -0.025648557 0.00219775 -0.019846722 -0.0069806725
0.025765106 -0.017460465 0.062259562 0.056975625 0.055460267 -0.0032859817 0.008936539 0.029430166
0.0042442605 0.010799617 -0.03647916 0.06223599 -0.035149932 0.04958877 -0.037688605 -0.017790504
0.023562595 -0.031274073 -0.021054678 -0.016307414 -0.034908324 -0.040919527 0.0347308 0.06114991
0.0038054734 0.025391407 -0.009195119 -0.037745975 -0.022871904 0.052221447 0.03787989 0.04388932
-0.017973386 0.0010935068 0.051479958 -0.034072116 -0.047696717 0.041488677 0.061839283 0.02237282
0.060876183 0.007926896 -0.03647872 -0.023360096 -0.03644742 -0.0014192909 -0.052492052 -0.029482052
-0.041356213 -0.023360513 -0.008481495 0.037844658 -0.03581494 -0.0037132502 0.04392574 -0.053189874
-0.013540044 0.056979217 -0.04548412 -0.028217189 -0.04372637 -0.010141768 -0.022315204 0.025313728
-0.03575439 -0.061220616 0.014478773 0.026967824 -0.053153828 0.011117548 0.00072228163 -0.028064512
-0.05599433 -0.0008643344 -0.013987675 -0.0019729435 0.039653666 -0.053624146 0.03550472 0.020655058
-0.03630043 0.058976732 0.051288918 -0.009751029 0.035774797 -0.0027158186 -0.055457473 0.013022684
-0.022786036 0.0600399 0.051839128 -0.05040749 0.013312325 0.018731713 -0.017111532 0.03406602
-0.0562609 0.0121322945 0.0075785145 -0.061828844 0.044200845 0.03146875 -0.028233454 0.033678323
-0.007978052 -0.0034245178 -0.022578917 -0.06142024 0.03981085 -0.004522525 0.053425834 -0.043440893
-0.052129097 -0.047832392 -0.061452523 -0.047163606 -0.00041481853 0.04945592 -0.027100377 0.030863874
0.0032301396 0.05625815 -0.010231748 0.025819674 0.034064993 0.034485012 -0.01740107 0.008315831
0.030185081 0.021753378 0.05852007 -0.040441796 0.0005676076 -0.0028492957 -0.052156456 0.04356178
0.00067922473 0.051100448 -0.02567567 -0.033812247 -0.054970816 -0.02890677 0.002810061 -0.008873187
0.053324774 0.046582855 -0.0008720532 0.0081648305 0.0051384494 0.012734823 0.03962045 0.007664509
-0.04901491 0.024188116 0.022736266 0.020825036 -0.049541272 -0.010634951 -0.05289519 -0.0284883
0.0369557 -0.03779815 -0.030890368 0.040956803 0.023914538 -0.009550765 0.056695804 0.022621676
-0.05339811 0.037945956 -0.011462048 -0.037815824 -0.011557855 0.046998404 -0.01657302 0.031138986
0.055593908 -0.052373797 0.040691517 0.043555044 0.015298031 -0.023917682 -0.0007368475 -0.03474976

branch_p.fc2.bias f4 [128]
00000000: 506e 17bc de11 793d c4ad 513d f0b5 52bd
00000010: 3075 2dbd 6b6f e2bc 60f8 c5bb 414a c7bc
00000020: 5525 123d 0e42 e7bc 1841 23bc 4f7e db3b
00000030: c170 97bc b886 5e3d 24a8 adbc 9f17 46bd
00000040: 9e07 d3bc c5ae a83c 9b40 8d3b 6022 06bd
00000050: 2036 6c3c 2a06 0ebd cb50 22bd 8617 74bd
00000060: 407d 90bb 5072 563d 208e f43c a84a 1dbc
00000070: e84e 9f3c 8875 a9bc 98a1 543d 7c45 60bd
00000080: 012c 54bd c773 18bd 27b8 143d 30c5 743c
00000090: 176f 6e3d f63f 323d 8096 19bc 7038 09bc
000000a0: 250a a33c d145 0f3d bc0d 67bd 90eb e73b
000000b0: 0e05 e6bc 2aec 7a3d 6609 66bd a489 e7bb
000000c0: 5e82 c4bb b4da fdbc 5829 02bd 2080 77bd
000000d0: 5fd2 2d3b 7bd4 983a 6821 63bc 4483 2dbc
000000e0: 49c6 a63b ee84 87bb 349f fb3c 1185 d5bc
000000f0: 40d1 01bc b9eb 3ebd f1ba 23bc 9b65 173a
00000100: 903a f8bb 0aca 1bbd 25e6 5a3d 1baa 24bd
00000110: f2be 633d 20c0 01bb 1cd8 b4bc 1871 8139
00000120: 46bd 6dbd c047 3fbd 979a 783d b97e 60bd
00000130: 19b0 fcbc 4aa6 e73b 228b 243c 2630 fdbc
00000140: 5863 1c3d 2599 823c b93e 0abc 32e6 5cbd
00000150: 343d 003c 94c3 e23c 0452 b9bc dc0b 09bd
00000160: fc79 afbc a01f ef3c 6abc a03c 66c4 37bd
00000170: d85c b83c 87ac 3fbd 9f30 5c3d a6a1 60bd
00000180: 0c98 723d cec6 0b3d aff9 f63c 5491 a13c
00000190: 58c4 173c bd9b 4ebd 283c 70bd c448 0e3c
000001a0: 5cd2 b43c 80eb 11ba 82d4 1e3d 23e7 233d
000001b0: 35a8 c3bb 8e81 e5bc 5e4f 2dbd ee04 3dbd
000001c0: e63c 91bc 745f 7ebc e245 b8bc ed8a 4dbd
000001d0: d0fa f7bb f807 13bd 6987 ec3c 79fe 4fbb
000001e0: a1d8 86bb f28b 43bc 2028 0cbb d405 363d
000001f0: 7071 e9bc 233b a6bb b1a6 2ebd 5a81 323d
-0.009242609 0.060808055 0.051191106 -0.05144304 -0.042348087 -0.027641019 -0.0060415715 -0.0243274
0.035680134 -0.02822974 -0.00996425 0.0066984068 -0.018486382 0.054327697 -0.02119834 -0.04836237
-0.025760468 0.02059115 0.00431068 -0.032747626 0.014417201 -0.034673847 -0.03962783 -0.059592746
-0.004409462 0.05235511 0.029852927 -0.009600319 0.019446805 -0.020685926 0.05191192 -0.054753765
-0.051799778 -0.03721979 0.036308434 0.014939591 0.058211412 0.04351803 -0.009374261 -0.008375272
0.019902298 0.03497869 -0.056409582 0.007077642 -0.028078582 0.06126038 -0.056161307 -0.0070659686
-0.0059969863 -0.030988075 -0.03177771 -0.060424924 0.0026523096 0.0011660004 -0.013862945 -0.010590378
0.0050895554 -0.0041357195 0.030715562 -0.026064428 -0.007923424 -0.04661152 -0.009993301 0.0005775333
-0.0075753406 -0.038034476 0.05344214 -0.040201288 0.05560202 -0.0019798353 -0.022075705 0.0002468906
-0.058041833 -0.046699286 0.060694303 -0.054808352 -0.030845689 0.0070693837 0.0100429375 -0.030906748
0.03818068 0.015942166 -0.008437806 -0.05393047 0.007827092 0.02768115 -0.022622116 -0.033458576
-0.021420471 0.029189885 0.019621093 -0.044865035 0.022505209 -0.046795394 0.053757306 -0.05484166
0.059227034 0.03412514 0.030148355 0.019722618 0.009263121 -0.050441492 -0.05865112 0.008684341
0.022072963 -0.0005566403 0.038776882 0.04001535 -0.0059709796 -0.028015878 -0.04231202 -0.04614728
-0.017729234 -0.0155256875 -0.02249426 -0.050181318 -0.007567741 -0.03589627 0.028873162 -0.003173737
-0.0041151796 -0.011935221 -0.002138622 0.044439152 -0.028496474 -0.0050729676 -0.042639438 0.04358039
