d2calcbot/main/calc_bot/dota_model_ver3.pth (torch, 426084 bytes, 21 tensors)

branch_t.fc1.weight f4 [128, 35]
000000 68 a3 00 3d 3e 0a 0b 3e a4 d2 c7 bd 46 b5 bb 3d
       0.031405836 0.13578126 -0.097569734 0.091654345
000010 50 96 c7 3d 6a 7b 2b 3e d2 af 35 3b 3f 4c 16 3e
       0.09745467 0.16746297 0.0027723205 0.14677523
000020 ed 52 07 be 3f 4b 03 3e f8 e9 2a be c1 34 ff bd
       -0.13215227 0.12821673 -0.16690814 -0.12461234
000030 ed 14 2a 3e 4a a9 63 3d 3c 29 b1 bd f5 3a 83 bc
       0.16609545 0.05558137 -0.08650443 -0.016019324
000040 df 0f a7 3d 49 16 cd bd 6b f2 87 3d 47 f8 e1 bd
       0.08157324 -0.10014016 0.066380344 -0.11033683
000050 ff ea 17 3e 18 03 cc 3d db 16 2a 3e f6 67 64 3d
       0.14835738 0.099615276 0.16610281 0.055763207
000060 61 21 17 3e c0 62 2a 3e ef 68 ae bd 75 ce 88 bc
       0.14758827 0.16639233 -0.08516108 -0.016700009
000070 18 36 06 be 31 87 6a 3c 6a b5 19 be 87 da 85 3b
       -0.13106573 0.014314459 -0.1501061 0.0040848884
000080 78 0b 2c be 94 ae 29 3e 53 bc 9f 3d 85 06 05 be
       -0.1680125 0.16570503 0.07799592 -0.12990768
000090 25 ae 6a 3b e2 c3 e3 3d db 93 3d 3d b1 9e 90 bc
       0.0035809365 0.11121346 0.046283584 -0.017653795
0000a0 ef 49 30 be f6 2a 2b 3c 92 1e 2a be 2c 11 d3 bb
       -0.17215703 0.010447254 -0.16613224 -0.006441256
0000b0 2d 04 1b bd 75 bf a6 bd ac a1 59 bc 2d 26 be 3d
       -0.03784578 -0.08141986 -0.0132831745 0.09284625
0000c0 e8 81 a4 bd 96 46 a9 3d 58 8f ad bd e0 fc ce 3d
       -0.0803259 0.08265416 -0.08474606 0.10106826
0000d0 c3 91 bb bc 94 cc 48 bd c7 6f db 3d be e1 9e 3c
       -0.022896653 -0.049023226 0.10714679 0.019394752
0000e0 fe 62 1a 3e 75 78 09 3e 97 07 20 3e 75 38 33 3c
       0.15076825 0.13424857 0.15627895 0.010938753
0000f0 16 48 2f 3d 24 3c 13 3d c8 a2 12 3e 60 74 12 3e
       0.042793356 0.035946026 0.14319909 0.14302206
000100 e5 93 12 bd 84 81 22 bd 38 13 e1 3d 4a 8e b0 39
       -0.035785574 -0.039674297 0.10989994 0.0003367535
000110 23 95 89 bd e5 cb 20 bd b3 a5 7c bc 29 eb 3b 3c
       -0.06717899 -0.03925695 -0.015420365 0.011469641
000120 48 f2 d8 bd fc 73 20 3e 50 b2 d0 bd 2a d9 00 3e
       -0.105930865 0.15669245 -0.101902604 0.12582842
000130 aa 08 57 bc 57 2e 10 be 53 61 83 3d b7 52 00 be
       -0.013124624 -0.14080177 0.064150475 -0.12531553
000140 56 56 96 bc 36 16 0e be 34 83 ed 3d 15 58 8c bd
       -0.018351715 -0.1387566 0.11597291 -0.06852738
000150 28 f5 0a 3e fd e9 0f 3e c4 0d 2f bd 6a be ff 3d
       0.13570082 0.14054103 -0.042737737 0.124874905
000160 a1 94 fb bd da 06 8d 3d 09 7e f7 3d fe ad b3 bc
       -0.12284208 0.068860725 0.12084586 -0.021933552
000170 70 b1 e8 bc 8a 92 d3 bd fc f1 f3 bd e7 9b 9d 3d
       -0.028404921 -0.103306845 -0.11911389 0.07695752
000180 7f 6b 56 bd 92 15 a5 bd 25 09 19 be e4 f8 17 3c
       -0.05234861 -0.08060755 -0.14944895 0.009275649
000190 0d 1d 86 3b 13 96 11 be 1a f7 95 3d b0 65 0e 3e
       0.0040928186 -0.14217405 0.073225215 0.13905978
0001a0 57 8b 1d 3d f0 75 4b bd b8 ab 08 3e b5 4c 05 bc
       0.038462963 -0.04967302 0.13346756 -0.008135964
0001b0 2f f3 28 3e a2 5b 6e bd fe 83 9d bd af b6 5e bd
       0.16499017 -0.058192857 -0.07691191 -0.05437344
0001c0 ac de 11 3e f7 db 29 bd 15 68 c9 bd ca 71 4e 3d
       0.14245099 -0.04146954 -0.09834305 0.050401486
0001d0 f0 59 79 3d 46 18 e2 3b 34 84 95 3d ea b1 db bd
       0.060876787 0.0068998663 0.07300606 -0.10727294
0001e0 b8 b8 04 be 9b 75 17 3e 08 f8 a9 3d 5a 7c 39 3d
       -0.1296109 0.14790957 0.08299261 0.045284607
0001f0 04 5f 01 be af 02 e9 3d af af 36 3d ca b8 42 3c
       -0.12633902 0.11377465 0.04460114 0.011884877
000200 05 3b 52 3d 91 1d f8 bd 6a 4c 21 bd 62 10 16 bd
       0.051325817 -0.12115014 -0.039379515 -0.036636718
000210 d5 37 94 bc 30 f0 01 3e b4 3b 16 be 3e f3 20 be
       -0.018093029 0.1268928 -0.14671212 -0.1571779
000220 96 b3 f8 3d d6 cf 6f bd 0a 3f db bd cf 34 49 bd
       0.12143628 -0.058547817 -0.10705383 -0.049122628
000230 89 31 0c 3d b5 7f 1b be 90 b1 90 bd 76 dd f8 3d
       0.034226928 -0.15185435 -0.07065117 0.12151615
000240 f1 e8 d5 bd ec 96 a5 3d 8e d1 32 3d 0e bf 1a 3e
       -0.10444821 0.08085427 0.04365688 0.15111944
000250 ba 28 a8 bd ee 23 80 bc 97 6a 7f bd 85 61 ae 3d
       -0.08210893 -0.015642133 -0.06235751 0.08514694
000260 ec 2a a5 3d 10 cd 05 be c0 62 fe bc b5 d5 10 be
       0.08064827 -0.13066506 -0.031052947 -0.14144023
000270 29 f9 34 3d da 9c b4 bd e1 3c 67 bd 33 1b 1d 3e
       0.04418293 -0.088189796 -0.056454543 0.15342407
000280 f5 b1 3b bd 8f 7b 0f 3e 22 08 2b be 4f 4b 06 3e
       -0.04582401 0.14011978 -0.16702321 0.13114665
000290 bf 5e d1 3c 24 94 ae 3d 02 a6 5a bd fa a7 1e 3d
       0.025557874 0.08524349 -0.053380974 0.038734414
0002a0 97 f4 ea bd 8f a9 a1 3d af 57 04 3e 5a d5 8d 3d
       -0.11472433 0.07893669 0.12924074 0.06925459
0002b0 a4 5d 06 be 8f c1 0d 3e 29 b6 bb bb 48 e2 0e bd
       -0.13121659 0.13843368 -0.0057285023 -0.034883767
0002c0 80 72 f3 bc 28 89 29 bd b0 55 b2 bb 3d ac 34 bd
       -0.029717684 -0.041390568 -0.0054423437 -0.04410957
0002d0 56 84 b3 3d 2c 98 f0 bd 87 4b f1 bd 0a a3 9d bd
       0.087654755 -0.117477745 -0.11781984 -0.07697113
0002e0 21 23 95 bd 23 70 08 be ad 9f 88 3d e6 a9 d5 3c
       -0.07282091 -0.13324027 0.06671081 0.02608199
0002f0 f0 13 05 3e ee 6e 28 be 20 e6 5a 3d 9b 5e 35 3d
       0.12995887 -0.16448566 0.05344212 0.044279676
000300 a4 be 23 3e b2 81 ce bd 38 00 c7 3c b8 9c 98 bd
       0.15990692 -0.10083331 0.024292096 -0.07451767
000310 59 49 0f be e0 da fe bc 56 51 7d bc 6a f5 8e 3c
       -0.13992824 -0.031110227 -0.0154612865 0.017451007
000320 db 93 04 3d b1 cb 17 bd 9b 54 71 bd 26 20 0e be
       0.03236757 -0.03705949 -0.058918577 -0.13879451
000330 b0 08 a2 bd be 2e 2c be f6 e1 1c be d4 fd cf bc
       -0.07911813 -0.16814706 -0.15320572 -0.02538959
000340 3f f5 ab bd b0 9c 71 3d 3c a7 a9 bd 83 e3 05 bc
       -0.08396386 0.05898732 -0.082838506 -0.008171919
000350 8d cf 14 be 18 f2 10 bd c3 f9 18 be 5f 4b ae 3c
       -0.145323 -0.03538713 -0.14939027 0.021276174
000360 dc df ff bd 30 7e 3b 3c eb 78 fc 3d 0a 78 fb 3d
       -0.1249387 0.01144366 0.12327751 0.12278755
000370 85 9c 29 3c 59 fd 19 3e 64 14 ee 3d 27 13 eb 3d
       0.010352259 0.1503805 0.11624983 0.114782624
000380 5b 70 f3 3c d4 bd f9 bd 24 5d 04 bc 10 b5 a0 bd
       0.029716661 -0.1219441 -0.008078847 -0.07847035
000390 af 18 2b 3e 4a 33 9d 3c 5e 18 9f 3d b5 0c 1f 3e
       0.16708635 0.019189496 0.077683195 0.15532191
0003a0 00 33 bf bd 89 0b ac bc 74 73 f6 bd d7 1b 4a 3d
       -0.09335899 -0.021001594 -0.1203374 0.049342956
0003b0 1f 00 e9 3d 40 97 f9 bd 62 97 1c be f6 30 13 3e
       0.11376976 -0.12187052 -0.15292123 0.14374146
0003c0 d2 19 0b bc 55 3a 23 be 3e a4 fa bd fb ca 0e 3e
       -0.008490043 -0.1594022 -0.12238358 0.13944618
0003d0 52 33 20 3e c7 ab bf bb e5 b3 0e 3d ce ec cc bd
       0.15644577 -0.005849335 0.03483953 -0.100061044
0003e0 5c 76 c9 bd b2 84 eb 3d 1b fe 25 3d 85 fc 19 be
       -0.098370284 0.11499919 0.040525537 -0.15037735
0003f0 ff 70 c7 bd 13 02 c7 3d d0 27 1c 3e 8d 0d 06 be
       -0.09738349 0.097171925 0.15249562 -0.13091107

branch_t.fc1.bias f4 [128]
000000 70 de 21 bc 82 d3 7e bc a9 cd 89 bc cf c7 35 3d
       -0.009879693 -0.015553357 -0.0168217 0.044380005
000010 66 3a 45 3d d4 a7 19 3e 99 57 fa 3d fb 0c 57 bc
       0.048151396 0.15005428 0.12223739 -0.013125653
000020 98 2b 25 be 5e da 84 3d 1e 1a 2d bd 7d da 82 bb
       -0.16129911 0.06486963 -0.042261235 -0.003993331
000030 b4 4d 13 3d bd 22 2e 3d 50 f5 78 bd 37 e9 25 3d
       0.035962775 0.042513598 -0.060780823 0.040505614
000040 22 35 e3 bd f2 2d 3e bd 9f 38 91 bd b0 62 7d 3d
       -0.11094119 -0.046430536 -0.07090878 0.061861694
000050 e2 65 03 be 3a 2f 0b be 20 36 a2 bd 2b 01 d6 3d
       -0.12831834 -0.13592234 -0.0792048 0.104494415
000060 4d 90 b1 3d dc 78 8c 3c 80 28 81 bd f5 bb 18 be
       0.08670101 0.017147474 -0.06306553 -0.1491545
000070 46 6a 1a be 77 28 59 bd b1 e1 38 bd 58 c2 78 3c
       -0.15079603 -0.053017106 -0.04513711 0.015183054
000080 e9 fb 8f bb a4 ce 0d 3d 29 81 9a 3d 05 7b 17 3e
       -0.0043940437 0.034620896 0.075441666 0.14793022
000090 85 15 a9 3d 29 75 5a 39 85 4e 14 3e bd b2 27 3e
       0.08256058 0.00020833746 0.14483078 0.16376777
0000a0 a3 78 a6 3d 7b 21 f4 bc 98 ca 0f be e0 a5 3b bd
       0.081284784 -0.029801121 -0.14042127 -0.045812488
0000b0 49 fe e3 bd 7a ed 49 bc 6f cc fa bd e8 cd aa bd
       -0.111324854 -0.012324685 -0.12246024 -0.08340055
0000c0 6d 9b 13 3e f7 1c 6f bb 50 1f d6 bb 7e 36 83 bd
       0.14414759 -0.003648577 -0.0065344945 -0.06406878
0000d0 8a e9 99 bd dc c3 d8 3d 09 52 57 bc 96 51 82 bd
       -0.07515247 0.10584232 -0.013142117 -0.063632175
0000e0 58 b3 a6 3d 11 41 a7 3c 99 ea e3 bd 9a 7c 83 3b
       0.08139676 0.020416768 -0.1112873 0.0040126564
0000f0 97 11 7f bd f6 40 f7 3d 83 ca a0 3d b1 c4 e8 3b
       -0.062272634 0.12072937 0.07851126 0.0071035256
000100 91 f1 e9 bd 52 71 69 bd 22 12 12 be 96 12 04 3e
       -0.11423028 -0.056992836 -0.1426473 0.12897715
000110 9c ea e7 bb ca 44 cf 3d f5 ff d0 bb 84 28 30 3d
       -0.007077528 0.10120542 -0.0063781687 0.04300739
000120 fe 16 02 3e 27 98 ca bd 5c b6 a3 bd a7 c5 e2 3c
       0.12704083 -0.09892302 -0.07993767 0.027682139
000130 e1 f2 98 3d 14 12 f4 bd 6a b8 0c 3e a8 2d 7b bd
       0.074682005 -0.11917511 0.13742223 -0.061322838
000140 78 1a bd 3d 78 8c b6 bd 45 d5 f9 bd f2 79 53 bd
       0.09233564 -0.08913511 -0.12198881 -0.051629968
000150 b5 1c 9a 3d 3c 36 c1 bc 8d 98 a6 bd ad dd ca 3d
       0.07525007 -0.023585431 -0.081345655 0.099055625
000160 10 cb 6f bd bf 34 09 be 07 70 ba 3d f5 ef 7b bd
       -0.058543265 -0.13399027 0.09103399 -0.061508138
000170 ca 1a 84 bb 28 f0 1b be da 7f 00 be 30 b5 6f 3d
       -0.004031514 -0.15228331 -0.12548772 0.058522403
000180 d3 48 e5 3d a7 be 26 3d 1c d3 b9 3c d4 29 e8 bd
       0.11195531 0.040709164 0.022683673 -0.11336103
000190 c6 1e ce bd 75 de 08 be d5 6f fa 3c b9 b7 db bd
       -0.10064463 -0.1336611 0.030570904 -0.10728402
0001a0 c8 09 29 3e 14 85 e1 bb f2 68 a0 bd 95 9d a9 bc
       0.16507638 -0.006882319 -0.07832517 -0.020705024
0001b0 20 a8 1d be eb 5f 14 be af eb 09 be 60 a8 1b be
       -0.15396166 -0.14489715 -0.13468812 -0.15200949
0001c0 c0 c7 0e 3e a1 73 86 3d 6a b7 51 3d dd ec aa 3d
       0.13943386 0.06565023 0.051200308 0.08345959
0001d0 39 b0 c9 bc e5 76 96 ba 0a 8c c9 bd 0d 27 0c be
       -0.024620162 -0.0011479525 -0.098411635 -0.13686772
0001e0 1c a9 c8 bd 62 fa 95 bb 5b 2b 99 bd 88 8c af 3c
       -0.0979788 -0.004576967 -0.074789725 0.021429315
0001f0 79 ed 25 be f5 63 06 3c 64 2c a6 bd 56 f9 32 3d
       -0.1620387 0.008202543 -0.081139356 0.043694817

branch_t.fc2.weight f4 [64, 128]
000000 52 80 76 bd 48 63 92 bc 88 9f ea 3c a1 58 96 bd
       -0.06018097 -0.017869607 0.028640524 -0.07341123
000010 eb d8 8f 3d ae 74 25 bd c2 7e 97 bd a1 b0 9b bd
       0.07023796 -0.040394478 -0.07397224 -0.07602049
000020 31 7f cf bc ef 84 4c bd b2 59 8e bd 96 e9 82 bd
       -0.025329204 -0.049931463 -0.06950702 -0.06392209
000030 74 5e 01 b9 3b 7f af 3d 2a 54 37 bd 20 e3 b4 3d
       -0.00012337585 0.08569189 -0.044758 0.08832383
000040 de 3f ae bd 6f d1 04 bd 40 11 4c bb 34 34 8f bd
       -0.085082754 -0.032426294 -0.0031138211 -0.06992379
000050 17 a5 0c bd 64 ef 09 3d 47 2c 6e 3d aa 3d 8f bd
       -0.03433713 0.033675566 0.058147695 -0.06994183
000060 78 d3 a6 bd c9 8d 81 3d fe dc 21 bc 53 a9 aa 3c
       -0.08145803 0.063258715 -0.009879349 0.020832693
000070 93 53 5f bd 84 e9 31 bd d5 c4 95 bd 3a 18 5c bd
       -0.054523062 -0.04343559 -0.07312933 -0.05373404
000080 47 94 35 3d 3b 76 55 bd 9a d4 95 3d cd a4 8c bd
       0.04433086 -0.052114706 0.07315941 -0.06867371
000090 dc 25 a5 3d 32 94 84 3d 2c ba b2 bd 11 b5 98 bd
       0.08063862 0.064735785 -0.08726916 -0.07456411
0000a0 2a c5 a6 3d 74 2b 48 bb af 2c a9 3d b7 61 97 bd
       0.08143075 -0.0030543478 0.08260476 -0.073916845
0000b0 b3 d6 99 3a 56 a4 6d 3c 91 2f 29 3b 53 2e 94 ba
       0.0011736959 0.014504513 0.0025815705 -0.001130531
0000c0 ab 3e 5d 3d 2d 3e b7 3c ae a5 88 bd 41 69 be bc
       0.054014843 0.022368515 -0.06672226 -0.023243548
0000d0 e1 48 30 3b ee eb 6e 3d 86 9d 20 3d 3c d2 f6 3b
       0.0026898908 0.05833047 0.039212726 0.007532386
0000e0 32 19 39 3c 26 f7 52 bd b6 8e a6 bd 7d b6 61 bd
       0.011297511 -0.05150523 -0.08132689 -0.055105675
0000f0 e2 66 78 3b fe 6e 42 bd 22 e1 b7 bc 75 7a 88 bd
       0.003790312 -0.04746913 -0.022446219 -0.06663982
000100 a5 b2 8a bc ba 47 9e 3d 2c 4f 2b 3d fa 27 57 bc
       -0.016930887 0.077285245 0.04182355 -0.01313209
000110 24 65 2a 3b 5e 83 94 bc 59 13 af bd 9a 41 17 bd
       0.0026000226 -0.018129047 -0.08548612 -0.036927797
000120 7d da 02 3d 26 56 b4 3d e6 93 91 3d b8 ec 45 3d
       0.031946648 0.08805494 0.071082875 0.048321456
000130 cc 2b 27 bd 5c 9a c6 bc 5c 25 98 3d d2 dc 56 bd
       -0.040813252 -0.024243526 0.07429001 -0.052456684
000140 29 0a 10 3d 71 c8 8c bd 49 97 6f 3d da 0f a6 bc
       0.03516594 -0.06874169 0.058493886 -0.02027123
000150 cf 1b 9e 3d 1a 2a 96 3d e6 14 81 bd 18 9a 96 3c
       0.07720148 0.07332249 -0.06302814 0.018384025
000160 59 de 65 bd 8f 40 8f 3d 99 45 8e bd 44 3a ab 3d
       -0.05612025 0.069947354 -0.069468684 0.08360723
000170 2e 47 33 3d 0c a9 6b 3c d1 07 1d 3d 49 00 99 bc
       0.043769054 0.014383566 0.038337532 -0.018676894
000180 51 d8 90 3d 26 76 2b 3d b7 56 ae 3d 00 02 4e 3d
       0.07072509 0.041860722 0.08512633 0.050294876
000190 10 73 f9 bc 51 3f aa 3d 74 8e 4b bd 66 dc b1 3d
       -0.030450374 0.08312858 -0.0496964 0.08684616
0001a0 5a 76 af 3d c4 92 79 bd 9b 70 4f 3c 55 50 72 3d
       0.08567496 -0.060930982 0.012661125 0.05915864
0001b0 29 07 8c 3c ac ee 9c bc a0 fa 6f 3d 47 f5 81 3d
       0.017093258 -0.019156776 0.058588624 0.06345611
0001c0 e9 4b a7 3d 29 7e a2 bd 52 8a a2 bb b3 1f 85 3d
       0.081687756 -0.079342194 -0.0049603367 0.06500187
0001d0 68 7d 7e 3d 73 2d 56 3d 61 59 8f 3d 01 8a ce bc
       0.062131315 0.052289438 0.069994695 -0.02521229
0001e0 16 ee f1 3a 5a ca 91 3d 56 ba b2 bd 59 cd 5e bd
       0.0018457796 0.071186736 -0.08726947 -0.054395054
0001f0 3c 61 87 3d be 8f 8d 3d e5 9c e7 3c f6 7e a2 3d
       0.06610343 0.06912182 0.028273055 0.07934372
000200 76 f0 6a 3d 57 2b 6a bd d0 e0 a5 3c 50 46 9f bb
       0.057358228 -0.05717024 0.0202488 -0.004860677
000210 64 64 8e bc 56 81 af bd 10 a5 01 3c 1e 34 26 3d
       -0.017381854 -0.08569591 0.007912889 0.040577047
000220 ba 42 6e 3d 00 01 ad ba ea 02 37 3d 0a 2d 28 3d
       0.058169104 -0.001319915 0.044680513 0.041058578
000230 80 c6 30 bb 7a 45 30 bd 3f fb a4 3d ce 77 1a 3d
       -0.0026973784 -0.043035008 0.08055734 0.03771191
000240 40 e7 15 3d 80 e0 ce ba 41 71 84 3d f6 a4 35 3d
       0.03659749 -0.0015783459 0.06466914 0.044346772
000250 b0 83 31 3c 46 80 1b 3d 77 13 b0 bd 43 06 8f 3d
       0.010834619 0.037964128 -0.085974626 0.06983616
000260 a0 61 8f bd bc ba 19 bd a7 d1 9b 3d 06 ee 43 bd
       -0.07001042 -0.0375316 0.076083474 -0.04783442
000270 30 ac 62 bd 00 d6 e0 39 c2 29 86 bd 02 f3 26 3d
       -0.055339992 0.00042884052 -0.065509334 0.040759094
000280 86 4f 65 3d 28 2b 73 3c 39 67 7b bd 1f ca 48 bd
       0.055984043 0.014841832 -0.061377738 -0.049020883
000290 db db 9e 3d 80 82 c2 3c 34 e8 9a 3c fc 47 56 bd
       0.07756778 0.023743868 0.018909551 -0.052314743
0002a0 51 23 a8 3d d8 9d 41 3c e5 5e 8c bd 34 44 a9 3c
       0.08209861 0.011817418 -0.06854037 0.020662405
0002b0 51 8a a6 bd 48 ce 1c 3c a0 a8 5c bb 80 1e 81 bd
       -0.081318505 0.009570666 -0.0033669844 -0.063046455
0002c0 fc c1 98 bc 6c 4d 9a bd 20 2c ef 3c 27 cb 96 3d
       -0.018647186 -0.07534298 0.029195845 0.07362967
0002d0 6d cd a7 3d d4 03 f4 3c e0 c1 f4 3c 00 bb fb ba
       0.08193479 0.029786982 0.029877603 -0.0019205511
0002e0 60 30 23 bb 57 32 8f 3d c2 1d 99 bd b5 17 05 bd
       -0.002490066 0.069920234 -0.07476379 -0.032493312
0002f0 68 da 01 3d 90 37 bb bc 55 70 a0 3d 1c 0d fc bc
       0.03170243 -0.022853643 0.07833926 -0.03076797
000300 10 35 e4 3b 10 c3 84 3c 80 4e 62 bc 3b 42 9c 3d
       0.0069643334 0.016206294 -0.013812661 0.0762982
000310 22 9a 55 3d 2c 8f bb bc 46 da 62 3d bc 0d bc 3c
       0.052148946 -0.022895418 0.055383943 0.022955768
000320 a8 ee f2 bc 7b 1c 97 bd e0 33 ed bb ac e6 0d bd
       -0.029654816 -0.07378479 -0.00723885 -0.034643814
000330 fb 96 11 bd 2e 94 16 3d 81 3f 05 bd 00 93 c2 39
       -0.035544377 0.03676241 -0.032531265 0.00037112087
000340 f8 aa 27 3c 35 36 5a bd cb 39 33 bd 22 30 04 3d
       0.010233633 -0.053274352 -0.043756288 0.032272466
000350 df 21 a7 3d 43 a9 a8 3d f4 29 aa bd 90 0c a8 3b
       0.08160757 0.08235409 -0.08308783 0.0051284507
000360 b3 33 97 3d e0 c8 11 3d 00 d4 89 3a e0 51 2f 3c
       0.07382908 0.03559196 0.0010515451 0.010700673
000370 cd 1e 8b 3d 2a 82 0d bd b0 87 da 3c 56 71 20 3d
       0.06792984 -0.034547962 0.026676029 0.039170586
000380 90 fa ac bb 28 b4 22 3c 8c f8 a5 3c f0 97 e5 3b
       -0.005278893 0.009930648 0.020260118 0.0070066378
000390 3f 8e 87 3d d6 a0 8f bd 32 6e 03 3d cf 54 ab 3d
       0.06618928 -0.07013099 0.032087512 0.08365785
0003a0 88 ee a1 bd f0 60 73 3c 80 2d 9e ba 91 1e ab bd
       -0.07906824 0.014854655 -0.0012068003 -0.083554395
0003b0 73 9a b2 3d d0 fc 66 3c 69 1b 97 3d 1a 4d 6a 3d
       0.08720865 0.014098361 0.07378275 0.057202436
0003c0 ec 68 ae bd 24 11 ae bd 28 c6 e5 bc ae e2 84 bd
       -0.08516106 -0.08499363 -0.02804859 -0.06488548
0003d0 6c bd df 3c 93 5c 53 bd 60 e9 ea 3c a6 88 88 bd
       0.027312003 -0.051601958 0.028675735 -0.066666886
0003e0 cc 0b ac 3c 1a 01 0f 3d 20 7c 67 bb 2e 78 1a 3d
       0.021001719 0.03491316 -0.0035321787 0.03771227
0003f0 5e f5 4c 3d ce 42 36 bd c7 60 2c bd 5e 89 6b bd
       0.050038688 -0.044497304 -0.04208448 -0.05750405

branch_t.fc2.bias f4 [64]
000000 3b 66 0e 3d e0 43 b8 bb c3 d5 5b 3d ae fb b9 bc
       0.034765463 -0.0056233257 0.053670656 -0.022703018
000010 da 82 71 3d 63 de 31 3d 2d 12 81 bd 4f dd 09 bd
       0.05896268 0.043424975 -0.06302295 -0.033658322
000020 a4 7d ba bc 0e 8e 58 3d 6e bb 14 3d 35 60 2d bd
       -0.022764988 0.05286985 0.03631156 -0.04232808
000030 0c 46 94 bd 33 f5 20 3d b7 84 44 3b a8 de 23 bc
       -0.07239923 0.03929634 0.002998633 -0.010001816
000040 b3 4b 80 3d 1a 6f a0 3d bd 7f 2e bc 70 60 de bc
       0.062644385 0.07833691 -0.010650572 -0.027145594
000050 ab 36 30 3d d7 89 04 3d 4a 3f bb bc e0 0a 68 3c
       0.043020885 0.032358017 -0.022857327 0.014162749
000060 50 38 a6 3d db 37 b0 bd 7c e0 c6 3c 25 be 3e 3a
       0.081162095 -0.086044036 0.024276964 0.00072762585
000070 e6 fc 7e bd 1f c0 83 3d e2 88 6b 3d bc 31 1c 3d
       -0.0622529 0.064331286 0.05750359 0.038133368
000080 fe a5 a5 3d e1 22 87 bd 63 9f 14 3c e8 16 b4 3d
       0.08088301 -0.065984495 0.009071204 0.087934315
000090 ca 93 55 3d 56 72 50 3d e9 82 a4 bc 6a 42 ae 3d
       0.052142896 0.05089029 -0.020081954 0.08508761
0000a0 b6 a0 31 3d d5 79 81 3d 3a 8b 02 3d c8 0f e7 3c
       0.043366157 0.06322066 0.031871058 0.028205767
0000b0 3e 66 70 bd 90 c6 99 bd aa 48 09 3d 39 69 4a 3c
       -0.058691256 -0.07508576 0.033516563 0.012354189
0000c0 6a ad 7c 3d 5d e7 5c 3b 3f c9 ad bd bb cf af 3d
       0.061688818 0.003370724 -0.0848565 0.08584543
0000d0 80 78 28 ba 9b 23 44 bc 03 2d 0f 3a fe a9 47 3d
       -0.00064266473 -0.01197138 0.00054617244 0.0487461
0000e0 c5 ec 63 3c 16 32 92 3a 20 3a e1 bc 7a 7d 90 bd
       0.013911431 0.0011153843 -0.027493536 -0.07055183
0000f0 a8 2a ff 3c 22 06 dc 3c fa b9 90 bd 37 31 74 bd
       0.03114827 0.026858393 -0.07066722 -0.059617247

branch_t.fc3.weight f4 [16, 64]
000000 44 61 54 bd a0 07 e3 bd ec 02 68 3d 46 ff 98 bd
       -0.051850572 -0.11085439 0.05664341 -0.074705645
000010 c0 94 9c 3d a0 a9 ad 3b 2c 23 a0 bd f6 b4 ea bd
       0.07645559 0.005299762 -0.078192085 -0.11460297
000020 b0 88 cf 3d ac 91 63 bd 50 dc 65 bd e4 01 75 bd
       0.10133493 -0.055558845 -0.05611831 -0.059816256
000030 8e ab 90 bd c8 6c 2b 3d 10 82 76 3d 60 d6 91 3d
       -0.070639715 0.04185179 0.06018263 0.07120967
000040 6c e0 10 3d 30 4d 07 3c a2 43 87 bd c0 31 93 3b
       0.035370275 0.008258149 -0.06604697 0.0044920146
000050 b6 ae 97 bd 04 25 84 3d 50 a9 ff bd 88 23 1c bd
       -0.0740637 0.06452373 -0.12483466 -0.038119823
000060 14 43 7c bd be 57 ac bd ba dc f2 bd 40 82 09 3b
       -0.06158741 -0.08415173 -0.118585065 0.0020982176
000070 d4 a9 75 bd 4c f2 6e bd e0 da c2 bc 70 c9 d9 3c
       -0.059976414 -0.05833654 -0.023786008 0.02658531
000080 1e 65 f8 3d 7c 72 6f bd be 37 f6 3d 9e df e1 bd
       0.121286616 -0.05845879 0.12022351 -0.1102898
000090 fc 17 70 3d 28 68 80 bc 68 ca 99 3d 00 b6 3f bc
       0.058616623 -0.015674666 0.07509309 -0.011701107
0000a0 f2 75 a1 bd 70 5a 34 bc 1a 4a 93 bd 36 0d f4 bd
       -0.078838244 -0.01100789 -0.07191868 -0.11916582
0000b0 78 76 f3 bd 08 ac d2 bc b0 28 fa 3c 1c 0f 3b 3d
       -0.118878305 -0.025716797 0.03053698 0.045668706
0000c0 3e 2a db 3d 90 92 6d bc 6c 5c 96 3d d8 d9 09 bd
       0.107014164 -0.014500275 0.07341847 -0.033655018
0000d0 6e f1 af 3d 90 86 c9 3c e8 98 50 3d 28 89 e2 3d
       0.08590971 0.024600297 0.050927073 0.11061317
0000e0 78 a4 c6 bd 80 a8 4e bd f8 54 16 3d 14 0d 37 3d
       -0.09699339 -0.050453663 0.036702126 0.044690207
0000f0 c0 19 04 bb e0 01 02 bd 16 8b b4 bd 7a 60 ea 3d
       -0.002015695 -0.03174007 -0.08815591 0.11444183
000100 5c 16 a8 bd 1c 78 e5 bd c0 41 b9 bd cc 42 13 3d
       -0.0820739 -0.1120455 -0.09045744 0.035952374
000110 34 fa e4 3d 5d 16 0a bd c0 fd b9 bd 7e e2 e8 3b
       0.11180535 -0.033712734 -0.09081602 0.007107078
000120 b6 f2 ef 3d 40 37 6c bc f5 c4 c6 3d 2c e6 d2 bd
       0.11716215 -0.0144174695 0.09705535 -0.10297808
000130 20 fc 45 bc d2 56 c4 bc e0 3e 40 3b be f5 d8 bd
       -0.012084037 -0.02396718 0.0029334351 -0.105937466
000140 97 56 1c bd fb 9f 63 bb 39 39 fe bc 31 46 e8 3d
       -0.038168516 -0.0034732807 -0.031033145 0.11341513
000150 ea 0a 08 bd b8 2f 57 3d f2 62 b5 3d 30 76 57 bc
       -0.033213533 0.052535743 0.08856763 -0.013150737
000160 94 a1 03 bd 87 43 28 3d 65 f8 af 3d 24 9c 39 bd
       -0.032136515 0.041080024 0.08592299 -0.045314923
000170 a9 3d 77 3d 28 06 37 bd 86 21 84 bd d9 c3 99 bc
       0.060361538 -0.044683605 -0.064517066 -0.018770145
000180 b9 e3 61 bd 39 4a c4 bb 83 11 d9 bd 7d 0e 16 bb
       -0.055148814 -0.0059902933 -0.10599043 -0.002289682
000190 aa 89 a4 bd 0a f1 d3 3d 73 3b 00 3e 4c c0 f0 3d
       -0.0803407 0.10348709 0.12522678 0.11755428
0001a0 b3 5f c9 bd ca f9 43 bd db 17 6d bd 50 24 e6 bc
       -0.09832706 -0.04784564 -0.05788408 -0.028093487
0001b0 b0 d7 c2 3d c9 2a d0 bd dc f4 95 bd 39 60 27 bc
       0.095137954 -0.101644106 -0.07322094 -0.010215812
0001c0 f0 35 c6 bc 98 c8 12 3d e0 58 7d bc 5d c9 c9 3d
       -0.024195641 0.035835832 -0.015463084 0.0985286
0001d0 90 80 ea bc 9f bf 52 3d 2b 4d d9 bd 40 c1 90 3d
       -0.028625757 0.051452275 -0.10610422 0.070681095
0001e0 6b de ec bd 61 8a 33 3d 19 b5 a4 bd 73 18 aa 3d
       -0.1156586 0.04383314 -0.08042354 0.083054446
0001f0 e8 97 ad 3d c2 5e 9b bd 74 7f f3 bd fd 02 06 3d
       0.084762394 -0.07586433 -0.11889544 0.032717694
000200 c8 66 9c bc 70 94 42 bc 81 14 0c bc cb 10 66 bd
       -0.019091979 -0.011876211 -0.00854981 -0.05616836
000210 3c b4 19 3d 77 85 9a 3c 5f 48 07 3d fc 84 72 3d
       0.0375254 0.01886247 0.033028003 0.059208855
000220 e8 93 b3 3c 0c af 04 3d ae ac 60 3d 45 fd e6 3d
       0.021921113 0.0323935 0.05485218 0.11278776
000230 f2 6a 8b bd ec 76 e3 bd 35 e1 a2 3b 48 b1 d5 bd
       -0.068075076 -0.11106667 0.0049706944 -0.10434204
000240 e0 e4 b9 3d 6b 78 cb 3d 42 05 9a bd b7 99 96 bd
       0.090768576 0.09935077 -0.07520534 -0.073535375
000250 f5 fd d1 bd 4a 15 e3 3d b7 02 8d 3c 7c 87 49 3d
       -0.102535166 0.11088045 0.017213209 0.049201474
000260 18 49 7b 3c 01 72 c7 3c d6 16 5e 3c 14 95 f9 bd
       0.015337251 0.024346353 0.013555249 -0.121866375
000270 a4 79 b4 bc b6 4a e2 3d 9e 74 89 3d 1c 17 5a 3d
       -0.022030659 0.11049406 0.06711696 0.053244695
000280 3d 9e ee bd 92 85 b9 3d 7b db 9c 3d bf 7a 02 bd
       -0.11651275 0.0905868 0.0765905 -0.03185534
000290 f2 45 b6 3d da 86 cd 3d ab 76 e3 bd 18 0d 5c bd
       0.0890006 0.100354865 -0.111066185 -0.053723425
0002a0 f8 be f8 bd ba 3e f6 3d dc cd bf 3c 92 c4 27 bb
       -0.121457994 0.12023683 0.023413591 -0.0025599343
0002b0 b0 7c 66 3d 38 75 89 3d f4 dc c0 bd ea 88 68 3b
       0.056271255 0.06711811 -0.094171435 0.0035481998
0002c0 c0 13 5b 3b b3 1e 8d 3d b2 c6 88 3d c8 b6 94 3c
       0.003342852 0.06890621 0.06678523 0.018153563
0002d0 70 b2 7f bc 71 40 89 3d 08 99 e4 3d 3e 62 b2 bd
       -0.015606508 0.06701744 0.11162001 -0.087101445
0002e0 e8 f8 ac b9 f4 88 98 bd 9c a4 84 3d 53 84 04 3c
       -0.00032991846 -0.07447997 0.06476709 0.008088189
0002f0 58 8d cf 3d c4 9b e8 bd 64 ba 61 3d bd 65 8f 3d
       0.10134381 -0.11357835 0.055109397 0.07001827
000300 e9 b0 d7 3c 8c 36 b7 bd 00 86 a6 3d 80 b2 8e 3d
       0.026329475 -0.08945951 0.08131027 0.0696764
000310 ee 19 d2 bd 3b 9e a0 bd d1 d5 be 3d 92 c5 37 3d
       -0.10258852 -0.0784268 0.09318126 0.044866152
000320 b2 75 b0 bd 38 f6 32 3d 78 30 b8 3c a8 18 9f 3d
       -0.086161986 0.043691844 0.02248405 0.07768375
000330 d9 03 ac bd 99 b0 b7 3d f2 d6 7d bc dc cf 67 3d
       -0.083991714 0.0896923 -0.0154931415 0.056594715
000340 58 dc 54 3d 64 86 6f 3d b9 b3 95 bd 6d f7 51 3d
       0.05196795 0.058477774 -0.0730967 0.051261354
000350 2e 3e 81 bd 13 58 48 bd 61 b8 c3 3c 5c da 29 bd
       -0.06310688 -0.04891212 0.02389163 -0.04146801
000360 a9 cf ee bd e6 4c 89 bd b8 02 76 3d e9 10 71 3c
       -0.11660702 -0.0670412 0.060061187 0.014713504
000370 b1 67 a6 3c d9 6e f8 bc 98 b3 5c 3d ab 6f c2 3d
       0.020313116 -0.030326294 0.05388221 0.09493955
000380 b0 91 55 bc 32 a0 d9 3d 24 04 97 3c 81 90 ba bd
       -0.013035223 0.10626258 0.018434592 -0.09109593
000390 10 6f c7 bd 06 c3 8b 3d ad b1 8e bc 11 a1 f2 bd
       -0.0973798 0.06824307 -0.017418707 -0.11847127
0003a0 d8 e8 c6 bd 02 d9 d1 3d b6 5a d5 bd 81 cd a3 3d
       -0.0971238 0.10246469 -0.10417692 0.07998181
0003b0 90 31 c1 bd 06 ef 98 3d 92 87 e7 bd 0b ac ed 3d
       -0.094332814 0.07467465 -0.11305155 0.1160508
0003c0 ea f8 9a 3d d6 25 cb 3d 30 74 b8 3c 3a a3 dd bd
       0.07567008 0.09919326 0.02251634 -0.108221486
0003d0 28 7e 93 3d 68 77 f0 bc a2 a4 8c bc ec 9f 2d bd
       0.07201797 -0.029353812 -0.017168347 -0.04238884
0003e0 74 be f5 3c aa 5b 11 3d 66 8c 18 bd 40 aa 32 b9
       0.029998042 0.03548781 -0.03724327 -0.00017038826
0003f0 a8 b2 b6 3c 97 ae b5 3d 60 ab cd 3d 16 c8 ef bd
       0.022301987 0.08871191 0.10042453 -0.11708085

branch_t.fc3.bias f4 [16]
000000 f8 d1 83 bc 35 d9 4c 3d 4d 2f 93 bd e1 06 ad bd
       -0.016091332 0.050011832 -0.07186756 -0.08448578
000010 4a b9 21 3d d4 bd b7 bc 3e db 3c 3d 49 76 25 3c
       0.039483346 -0.022429384 0.046107523 0.010099002
000020 e9 a8 cf 3d a0 ee 67 bc 89 93 f6 3d 8b e8 a0 3d
       0.10139639 -0.014156014 0.12039859 0.07856854
000030 0a ab c2 3d b8 ee ee bd 10 da 4e bd d4 5c af bc
       0.09505279 -0.11666626 -0.05050093 -0.021406569

branch_p.fc1.weight f4 [256, 34]
000000 44 90 02 3e a5 a4 ab bc 54 d5 52 bd 75 8d 16 3e
       0.12750345 -0.020952532 -0.051472977 0.14702399
000010 f2 bf 3c 3d 3f 35 a1 bd 0c 12 4e 3d 35 0a fd 3c
       0.04608149 -0.07871484 0.05031018 0.030888656
000020 0a 86 20 3e cd 6a 01 bd 99 7e 1a bd 61 68 ba 3d
       0.15676132 -0.031595994 -0.03771839 0.0910194
000030 4f a5 4d bc db 94 70 3d 58 3f 05 3e e3 cb ee bd
       -0.01255162 0.05873571 0.13012445 -0.11659982
000040 57 19 cc 3d ee ba 0b be 64 ad 79 3d 19 79 16 3e
       0.09965771 -0.13645527 0.060956374 0.14694633
000050 cf 1a bf 3c ce 8c 0f be 71 8f 27 3d 24 f5 8f bd
       0.023328213 -0.14018556 0.04090828 -0.07029179
000060 54 de 04 3e 42 22 c2 3d 15 c5 4e bd 90 ee 22 bd
       0.12975436 0.094791904 -0.05048092 -0.039778292
000070 9a 8c 95 bd 9b d2 2e be ae d4 1f be 07 8b 88 bd
       -0.07302208 -0.17072527 -0.15608475 -0.06667142
000080 b4 13 07 3e 64 dd c9 3c b0 a6 01 3e 51 df cc 3d
       0.1319111 0.0246417 0.12661242 0.10003532
000090 02 10 1f be 59 3b b1 3a 6a f1 85 3d 48 53 40 bb
       -0.1553345 0.0013521715 0.06540187 -0.0029346514
0000a0 4b 60 19 3d e7 c5 ec 3d b5 41 83 bd 55 36 cb 3d
       0.037445348 0.115611844 -0.06409017 0.099224724
0000b0 06 4b 30 3e 8f 08 8b 3d e5 89 99 bc e1 7a 09 be
       0.17216119 0.06788742 -0.018742511 -0.13425781
0000c0 f7 92 e2 3c 8b 10 cb 3d 85 84 af 3d 21 14 11 be
       0.027657969 0.09915265 0.08570198 -0.14167835
0000d0 6d 97 f7 bd 4a 9f bd 3d 4d 16 bf 3c f2 77 6d bc
       -0.12089429 0.092588976 0.023326064 -0.014493929
0000e0 48 ff 1a be 25 c2 e2 3d ab f8 98 bd 39 c1 84 3d
       -0.15136445 0.110721864 -0.07469305 0.06482167
0000f0 47 98 cf bd 23 89 16 3e bc 86 0f be 4c ca 04 be
       -0.101364665 0.14700751 -0.14016241 -0.12967795
000100 14 41 1a bc 43 b8 fb 3d de 5a f6 3c 65 e2 d8 bd
       -0.00941493 0.122910045 0.030072626 -0.10590056
000110 a2 7e db 3d fc cf 0f 3e 03 c7 06 3e 9b d5 25 3e
       0.10717513 0.14044183 0.13161854 0.16194765
000120 61 dd 03 be 0f f6 4d bd af 79 01 3e 5f 84 27 be
       -0.12877418 -0.050283488 0.12644075 -0.1635909
000130 b9 be 93 bd d2 c9 f7 3c 6b fa 74 3d 5e fa bf bd
       -0.07214112 0.030247603 0.05980913 -0.093739256
000140 56 e1 04 bd e2 ed 19 be 3d 11 a8 bc 27 6b 13 be
       -0.03244146 -0.15032151 -0.020516032 -0.14396344
000150 11 fa 16 bd fe 75 13 3e 8a 57 1f be e9 c2 9f 3d
       -0.036859576 0.14400479 -0.15560737 0.07800848
000160 f8 f0 1c 3e fa d0 e2 bd 9c 6a b4 3d 2a 97 18 be
       0.15326297 -0.11075015 0.088093966 -0.14901415
000170 cb 7c 02 3e 9b 12 fd 3c a5 51 7f 3b e1 18 07 3e
       0.12742917 0.03089266 0.0038958576 0.13193084
000180 43 04 a9 bd c0 a7 1b 3e 8f 57 8a 3d 61 b5 ba bc
       -0.08252766 0.1520071 0.06754982 -0.022791566
000190 ec 17 8a 3c 5e 7c 9a 3d d3 7c 01 bd 52 3e 28 3e
       0.01685711 0.075432524 -0.031613182 0.16430023
0001a0 3e c2 77 bb 82 37 8e 3d f8 cb cd 3d cc 9c d9 bd
       -0.0037804986 0.06944181 0.100486696 -0.1062561
0001b0 2d a6 07 be 38 89 bc bd d9 cf 00 3e 6a 45 0c be
       -0.13246985 -0.0920586 0.12579288 -0.13698354
0001c0 7b a1 0b 3e d4 be 0d bd 18 64 fe 3d 6f 0f 62 bb
       0.13635819 -0.034605816 0.12421435 -0.0034494062
0001d0 c7 48 73 3d ca 6c 1b 3e 38 44 c3 3d a2 9a 08 be
       0.059395578 0.15178218 0.09534496 -0.13340238
0001e0 e9 2b c7 3c 9d 8b e7 3d 1a 7b 74 3c b7 01 bd bd
       0.02431293 0.11305926 0.014921928 -0.09228843
0001f0 c6 bd 23 be d3 d5 0c be 84 a3 9c 3d 5c fc e7 3d
       -0.15990362 -0.13753442 0.07648376 0.113274306
000200 af 30 b2 3d 84 7f 13 be 40 b5 05 3e c0 e2 e5 3d
       0.08700692 -0.14404112 0.13057423 0.1122489
000210 55 8c 18 be a8 be e3 bd a7 a5 8d 3c 7b 3e 24 3e
       -0.14897282 -0.11120349 0.017290903 0.1603946
000220 b0 5c 6a 3d 0c 42 15 3e 61 0d fb 3d 6e bb 09 be
       0.0572173 0.14575976 0.12258411 -0.13450405
000230 bd ab 09 3d 8f 76 f3 3c f0 16 94 3d e8 92 0c 3e
       0.033611048 0.02971962 0.072309375 0.13727915
000240 95 67 eb bd 3d 0a b2 3d f1 ba 0d 3e 0a ab 68 bd
       -0.11494366 0.08693359 0.13840844 -0.05680374
000250 30 9c 80 bd c8 5e 92 bd 88 da a5 3d 31 7a 2b 3e
       -0.062797904 -0.07146984 0.08098322 0.16745831
000260 7b 4e c8 bd 1b 1d b5 bb f2 5e 1c be 04 0f 21 be
       -0.09780594 -0.0055271513 -0.15270594 -0.15728384
000270 78 25 b7 bc 14 44 0d be 2b 1c 07 be 66 45 7c 3d
       -0.022356734 -0.13795501 -0.13194339 0.06158962
000280 fd 24 c1 3d 11 92 0a be d1 28 83 bd b7 07 58 bd
       0.09430883 -0.13532282 -0.064042695 -0.052741732
000290 c4 d3 ed 3d 17 a1 f0 bd 7a 8a 0d be a0 15 1a 3e
       0.11612657 -0.117494754 -0.13822356 0.15047312
0002a0 20 7e 67 3d 11 dc 09 3e f2 07 e4 bd a4 3b 06 be
       0.056516767 0.13462855 -0.11134328 -0.13108689
0002b0 16 8c 76 bd cb 9f 50 bd d5 6d ed 3d be 6e ad bd
       -0.06019219 -0.05093364 0.115932144 -0.08468388
0002c0 9a 20 d0 3b 77 bb ef bd 48 70 a0 3c bd 80 09 be
       0.0063515427 -0.11705678 0.01958479 -0.13428016
0002d0 94 03 29 be ac 39 a0 bd cb 7f 0d 3e a9 08 59 bd
       -0.16505271 -0.078235 0.1381828 -0.052986775
0002e0 40 e4 1c be 89 a7 f8 bd 26 27 58 3d ff 7e 4e bc
       -0.15321445 -0.1214133 0.05277171 -0.01260352
0002f0 69 25 26 3c d7 45 23 be 13 d7 2a 3b 53 d2 3e bd
       0.010140755 -0.1594461 0.0026068136 -0.0465873
000300 81 52 a2 3d 15 aa df bc 33 31 2c be 7e 82 d6 3d
       0.079258926 -0.027302781 -0.16815643 0.10474108
000310 03 25 11 be d6 3d 23 3e 76 65 4e bd e2 49 d3 bd
       -0.14174275 0.15941557 -0.05038973 -0.103168264
000320 cf 70 d8 bd 8f 31 23 be 9a 97 4f bd 2f 16 2a bd
       -0.105683915 -0.15936874 -0.050681688 -0.041525062
000330 45 a7 ba 3c 48 28 5f 3c 0b 6e 07 be d0 72 07 be
       0.022784838 0.013620444 -0.13225572 -0.13227391
000340 3e f7 92 3d 3b eb 87 3d a3 fc 8f bd 6a f8 27 be
       0.07176064 0.066366635 -0.070306085 -0.16403356
000350 7f f0 7c bd d9 cc a3 bd ff 27 d6 bd 13 d0 66 bd
       -0.061752792 -0.07998056 -0.104568474 -0.05635078
000360 31 d1 3a bd a8 39 dd 3d 97 3c f6 bd 5a 79 17 3e
       -0.045609657 0.10802013 -0.12023275 0.14792386
000370 8e 08 ff bd 3b d9 28 be e3 1a e2 3a c3 52 ed bc
       -0.124528036 -0.16489117 0.0017250445 -0.028970128
000380 40 d3 13 3d ad a1 d6 3c cd 83 14 be bd 38 21 3d
       0.036090136 0.02620014 -0.14503403 0.03936075
000390 de 95 94 3d 94 8e e9 bd 59 09 a3 bd c2 4b 16 bd
       0.072551474 -0.11404148 -0.07960767 -0.036693342
0003a0 6a 03 b1 3d 3e 7f 5e bc 05 ce 14 be 4b 4f ee 3d
       0.08643229 -0.013580142 -0.14531715 0.11636218
0003b0 ae b5 c0 bd 4d 9c e8 3d fd 9b 42 bd c6 78 58 3d
       -0.09409653 0.11357937 -0.047512043 0.052849554
0003c0 de f4 58 3d c4 89 dd ba 38 50 01 3e 86 83 af bd
       0.0529679 -0.0016902019 0.12628257 -0.08570008
0003d0 65 05 5b bc 6a 4f cf bc 0a 30 0d 3e 12 e1 c7 3a
       -0.013367985 -0.025306422 0.13787857 0.0015249571
0003e0 62 59 7d 3d 01 19 e1 bd 6b 2d fd 3d 3c 5e 94 bc
       0.06185282 -0.10991097 0.123621784 -0.01811134
0003f0 c2 62 7d 3d 27 a2 15 3d 1e 09 2c 3e 7a eb d3 3d
       0.06186176 0.036531594 0.16800353 0.10347648

branch_p.fc1.bias f4 [256]
000000 20 bf 16 be 32 bb ed 3d 00 d6 00 3e df ff 8a 3d
       -0.14721346 0.1160797 0.12581635 0.06787085
000010 e6 00 ca bd 36 e9 0b be f0 89 aa 3d e8 8b a5 bb
       -0.098634526 -0.13663182 0.08327091 -0.0050520785
000020 91 8c 3e 3c 97 4d 89 bd cb 1d eb bd be b0 18 3e
       0.011630193 -0.06704252 -0.11480292 0.14911172
000030 a2 90 4c bd d1 91 69 3d 52 d7 6a 3d 2f d3 12 be
       -0.04994262 0.057023827 0.05733425 -0.14338373
000040 d9 8b 7f bc 30 0d 02 3e ea cd 8e bd b3 7e cb bc
       -0.015597307 0.12700343 -0.06972869 -0.024840688
000050 e5 f8 34 3d 44 36 42 bd d3 dd fd bc 3c fe b2 bd
       0.044182677 -0.047415033 -0.030989563 -0.087398976
000060 11 4d 0c be b9 43 27 be 47 57 08 be c6 b0 9a bd
       -0.13701274 -0.16334428 -0.13314544 -0.07553248
000070 4f 00 20 be e3 2c f5 3d d2 4d d3 bc 82 ea 48 bd
       -0.15625118 0.11971452 -0.025793944 -0.04905177
000080 65 1c 07 3e f9 07 18 3e a7 e6 26 3e bc bf bd 39
       0.13194425 0.14846791 0.16298924 0.00036191742
000090 62 26 eb bd 42 f2 25 3e d6 7a a8 bd 68 03 63 bd
       -0.1148193 0.16205695 -0.08226554 -0.05542317
0000a0 8a 39 1d be fd a3 14 be 40 4f b7 3d 32 1a b0 bd
       -0.1535398 -0.14515682 0.089506626 -0.08598746
0000b0 ae a2 98 bd d9 81 bc bc df fd cc 3d 1f 2e 1a 3d
       -0.07452904 -0.023011135 0.100093596 0.03764164
0000c0 36 e6 0e 3e 30 29 a9 3d 2c f1 30 3e 64 50 35 bd
       0.13955006 0.08259809 0.172795 -0.04426612
0000d0 7f d1 81 3c 28 70 1c 3e 2b e1 89 3d ab 93 91 3d
       0.015846966 0.15277159 0.067324005 0.071082436
0000e0 09 0a d0 3d 6e 9b fd 3d 11 02 19 3e 31 38 14 3e
       0.10158164 0.123831615 0.14942195 0.1447456
0000f0 d9 ed 0c bd 12 82 45 bc fd ff ad 3d 2e a7 d6 bb
       -0.034406517 -0.012054937 0.084960915 -0.006550691
000100 4d 03 6d 3d 80 85 30 3e a1 70 ab bd 4e 77 8d 3d
       0.057864476 0.17238426 -0.08371092 0.06907521
000110 be c3 42 bd 34 91 34 bd 67 ab 1c bd d9 a7 13 3e
       -0.047549956 -0.04408379 -0.0382494 0.14419498
000120 4a 96 12 3e 20 62 51 3c 43 b2 25 bc 38 23 f3 3d
       0.14315143 0.0127797425 -0.010113302 0.11871952
000130 e9 88 11 be 46 dc 97 bd 89 73 d0 bd bd a6 8f 3d
       -0.14212383 -0.07415061 -0.101782866 0.07014225
000140 54 c1 d6 3c b1 7d 12 3e 05 54 24 3e 7b ea bd bd
       0.026215233 0.1430576 0.16047676 -0.09273239
000150 26 7f 3d 3d 03 09 52 3c 22 e8 5b 3d 95 ac c7 bc
       0.046263836 0.012819531 0.053688176 -0.024374286
000160 28 66 18 bd db 19 b7 3c db 18 2b be 19 36 1c 3e
       -0.0372068 0.022351196 -0.167087 0.15255012
000170 57 a5 9a 3d 5e 07 d9 3d 26 87 a5 bd 87 5a 24 be
       0.07551067 0.10597108 -0.08082418 -0.16050158
000180 e8 fa 93 3d b2 b6 8b bd f3 a8 09 be 09 fe b3 bd
       0.07225591 -0.06821956 -0.13443355 -0.08788688
000190 77 45 b3 bd c3 1e 07 3d 67 cd 9d 3d 11 c3 bb bd
       -0.08753484 0.03298832 0.07705193 -0.09168065
0001a0 68 0b ec bd 5d 39 83 3d 33 34 f4 3c 34 67 85 bd
       -0.11525613 0.064074256 0.029810047 -0.06513825
0001b0 5b 82 6f bb 69 9e ba bd c2 79 ea bc 99 5e a4 bd
       -0.0036546204 -0.091122456 -0.028622512 -0.080258556
0001c0 8f 26 b1 3b 80 f4 05 3e 5f f7 c3 3d af 9e 1e be
       0.005406208 0.1308155 0.09568667 -0.1549022
0001d0 1a 95 24 3e ad b7 89 bc 60 b4 21 3e 6a 07 8a bd
       0.16072503 -0.016811216 0.15791464 -0.06739695
0001e0 01 9b a5 bd b4 8d b0 3d 80 2c b1 3d f7 df 94 3d
       -0.08086205 0.08620778 0.08651066 0.072692804
0001f0 c4 68 ad 3d b7 e8 65 bd 0f 97 5e 3d 0b 4d 33 3c
       0.08467248 -0.056130137 0.05434328 0.010943661
000200 cb d5 12 bc e9 69 5d bd 89 81 f3 bd ab ae da 3d
       -0.008962105 -0.054056082 -0.11889941 0.106778465
000210 5f c7 2b be cc 7e a2 ba aa a5 fd 3d 8f cc 49 bd
       -0.16775273 -0.0012397408 0.123851135 -0.049267348
000220 d2 69 2d 3e 8a 59 1d 3e 1a 9d cb bd e8 00 14 be
       0.16934898 0.15366188 -0.09942074 -0.1445347
000230 3f 15 e9 bc 26 dd 93 3d 23 fb 53 3d bb 96 29 3e
       -0.028452514 0.07219915 0.051753175 0.16561405
000240 8e 3e 99 3d b9 45 a0 3d 1f d8 21 bd 29 a6 44 bd
       0.074826345 0.078257985 -0.03951275 -0.048010025
000250 f0 ef c9 bd 0b 2c 71 bb 0a 76 8a 3d fb 09 76 bd
       -0.098602176 -0.0036799933 0.067607954 -0.060068112
000260 e1 90 35 3c f1 f2 1d 3d 33 78 08 be 12 a0 ca bd
       0.011081905 0.038561765 -0.13327102 -0.09893812
000270 54 b0 a7 3a 0f a1 19 3d cb 39 f2 3b 4e 7e d7 3c
       0.0012793639 0.037507113 0.0073921434 0.026305344
000280 6c 0d cb 3d 2b e7 3a 3d 6a 58 82 bd 57 af 60 bd
       0.099146694 0.045630615 -0.0636452 -0.054854717
000290 95 8d fe bd d1 fa ce 3d 4c 7b bc 3d cf 19 d1 bd
       -0.124293484 0.10106433 0.092032045 -0.10210001
0002a0 58 33 c6 bd ff f2 f5 bd 0c af 8f 3d d0 84 da 3d
       -0.09677762 -0.120092385 0.070158094 0.10669863
0002b0 57 61 38 bd 0d 1d bc bc 44 c5 1f be d4 4b 1d be
       -0.045014706 -0.022963071 -0.15602595 -0.15360957
0002c0 67 8e ea 3d c7 b5 c6 3c af 5d b8 3d 30 7d a2 3d
       0.11452942 0.0242566 0.09002244 0.07934034
0002d0 f3 a8 2c bd fd c9 b3 3c 18 af 8a bd 2b 57 8a bc
       -0.04215331 0.021946901 -0.06771678 -0.016887268
0002e0 23 04 f3 bb 89 44 18 bd 79 4b a1 bd d0 f0 cb 3d
       -0.0074162646 -0.037174735 -0.078757234 0.09958041
0002f0 59 a4 ab 3d 4c 42 27 bd 04 c9 1f 3e 55 ce b7 3d
       0.08380956 -0.04083471 0.15604025 0.089749016
000300 11 00 31 3c e0 50 31 3d 8b 7c 3c 3d 88 1e 17 be
       0.0108032385 0.04329002 0.04601721 -0.1475774
000310 b8 bf 80 bd 85 b1 fc bc 6f 0b 07 3e f0 30 77 bd
       -0.062865674 -0.030846367 0.13187955 -0.060349405
000320 7d 5c 6a 3d 31 78 f8 3a 51 5f 7b bd 47 62 da bd
       0.05721711 0.0018956718 -0.061370198 -0.10663276
000330 70 83 da bd 9d 20 21 be 4a a1 6b bd 39 8b b2 bd
       -0.10669601 -0.15735097 -0.057526864 -0.08717961
000340 8f 92 a1 bd 39 c5 45 bc 43 a1 16 be 7a 95 22 bd
       -0.07889282 -0.012070947 -0.14709954 -0.039693333
000350 4f 4f f7 bc 9b 03 24 be 58 44 ac 3d f6 ee 09 3e
       -0.030189184 -0.16017 0.08411473 0.13470063
000360 0b 2b ce bc 3c 04 d7 bd c4 35 07 3e 0d 53 58 bd
       -0.025167009 -0.104988545 0.13204104 -0.05281358
000370 81 1c ff 3c e5 4c 94 bd b0 bd 34 3d 60 f0 8c 3c
       0.031141521 -0.07241229 0.044126213 0.017204463
000380 33 16 83 3d f8 0a 90 3d 02 24 0e 3e 71 30 f7 bd
       0.064007185 0.07033342 0.13880923 -0.12069786
000390 09 b4 9e bd 38 a1 30 be 9d 65 d3 bd 95 b6 8c 3d
       -0.07749183 -0.17249 -0.103221156 0.06870762
0003a0 d3 b4 c4 3d b6 a5 c5 bd 8a 7a b9 3d 33 5a 26 3d
       0.09604802 -0.096507475 0.090565756 0.040613364
0003b0 a4 97 07 3e ae 49 10 be 48 a5 60 3d 52 52 3c bd
       0.1324144 -0.14090607 0.054845124 -0.045976944
0003c0 d5 ee a3 bd 60 34 2f 3d c8 82 cb 3c 3b 6e 75 3d
       -0.08004538 0.042774558 0.024842635 0.059919577
0003d0 ee 36 04 3e 23 15 0d 3e 9e f7 e9 3b 4d e2 73 3d
       0.12911579 0.13777594 0.007140114 0.05954199
0003e0 15 0b 0b 3e b2 6c 81 3d 01 76 26 3d 18 7f 8d bb
       0.13578446 0.0631956 0.04063988 -0.0043181293
0003f0 da c0 c7 bd 3f e1 e9 bd e1 b5 90 3d 90 0f 49 bd
       -0.097535804 -0.114199154 0.07065941 -0.049087107

branch_p.fc2.weight f4 [128, 256]
000000 84 ef c9 bc 80 1f b5 bb 78 11 8f 3c d8 33 0a 3d
       -0.024650343 -0.0055274367 0.017464384 0.03374085
000010 92 b6 5e 3d b8 a3 3b bd 30 39 1e bc 60 5b c7 3c
       0.05437333 -0.04581043 -0.009657189 0.024335563
000020 1e 33 3e bd 98 58 bf 3c 36 61 3d bd fc 92 78 bd
       -0.046435468 0.023357674 -0.046235286 -0.06068705
000030 58 0f c0 3c 10 44 a7 bc 0c 7e 1e 3d c0 06 6b bc
       0.023444816 -0.020418197 0.038694426 -0.014344871
000040 80 0e 3a 3a a4 9e 0d bd 18 06 36 bc 8a bb 1d 3d
       0.00070974976 -0.03457512 -0.011109851 0.03850893
000050 84 19 b1 3c 5c 20 06 3d 80 3e 29 bb c4 0a a7 bc
       0.021618612 0.032745704 -0.0025824606 -0.020390876
000060 e8 5d 7f bc 50 e5 b9 bb 30 57 05 3c 20 0c 52 3c
       -0.015586354 -0.005673088 0.008138463 0.012820274
000070 80 5c 6d ba 10 16 f5 3b 08 f9 85 3c 52 98 2f bd
       -0.0009054616 0.0074794367 0.016354099 -0.042869873
000080 ea 1b 22 3d 90 85 9f 3c 30 31 e0 3c 02 d3 34 3d
       0.039577402 0.019472867 0.027367204 0.044146545
000090 b4 69 fc 3c c8 28 55 3c a8 ff 70 bc c6 fe 61 bd
       0.030812122 0.013010211 -0.014709391 -0.05517461
0000a0 ea 12 6d 3d ac 29 58 bd 42 46 64 3d 98 ae b6 3c
       0.057879366 -0.052774116 0.055731066 0.02230005
0000b0 38 ad 15 bd e0 0c 2e bc 6c 8f 39 3d 04 ea c4 3c
       -0.036542147 -0.010623187 0.045302793 0.024037369
0000c0 38 32 59 bc c6 08 37 3d f0 95 ad bc 00 0e d9 39
       -0.013256602 0.0446861 -0.02118966 0.00041399896
0000d0 16 37 31 bd 5c d0 e4 bc 34 97 e7 bc d0 c1 73 bc
       -0.043265425 -0.027931385 -0.028270341 -0.0148777515
0000e0 8c d0 eb 3c 42 28 42 3d e6 70 38 3d 58 21 3b 3d
       0.028785966 0.047401674 0.045029543 0.045686096
0000f0 0c 46 b4 bc 70 46 54 bd 68 a0 40 3d 40 c3 0b 3b
       -0.022006057 -0.051824987 0.047027975 0.0021326095
000100 1a 6a 76 bd 10 35 05 3c c2 4e 04 3d aa eb 32 bd
       -0.06015978 0.008130327 0.03230167 -0.043681778
000110 a8 98 66 3d 22 2f 41 bd 10 9d 58 3d 74 39 a4 bc
       0.056297928 -0.04716409 0.05288416 -0.020046927
000120 60 c1 6a bb b0 68 a2 3c c0 ba d2 3b fe 80 54 bd
       -0.0035820827 0.01982531 0.0064309537 -0.05188083
000130 fe f8 07 3d b8 76 dc bc a0 3e 3d bc 28 f2 6e bd
       0.03319644 -0.026912078 -0.0115505755 -0.058336407
000140 e0 00 1c bc 92 97 3a 3d 08 2a 67 bd f8 4a 3f 3d
       -0.009521693 0.045554705 -0.05643657 0.046702355
000150 e2 d0 77 bd 1c 08 1a bd 42 b9 63 bd c2 f4 47 3d
       -0.06050194 -0.03760539 -0.055596597 0.048817404
000160 74 53 8d bc a8 6c 5e 3c d0 50 38 3d 00 e4 40 3a
       -0.017251708 0.01357571 0.044998944 0.00073581934
000170 24 51 c8 3c 54 8b fe bc ca 0b 56 bd a0 5c b9 3b
       0.024452753 -0.031072296 -0.052257337 0.0056567937
000180 0c 7f 81 bc 22 04 17 3d 9e ee 79 bd d8 95 0c bd
       -0.015807651 0.036869176 -0.06101858 -0.03432259
000190 ae cd 0e bd 80 c4 c2 bc 4a 2d 08 3d 90 7f 50 3d
       -0.03486412 -0.02377534 0.033246316 0.050902903
0001a0 da 8b 36 3d 8c 52 25 bd 8a 77 1a bd 30 16 ee 3b
       0.044566967 -0.040361926 -0.037711658 0.0072658285
0001b0 18 2c 09 bc 00 c8 d8 3a 20 56 3e bd 6c 0e 83 3c
       -0.008372329 0.0016539097 -0.046468854 0.015998088
0001c0 d8 0a 75 3d 70 34 2e bc cc 6e f8 3c 5e ed 48 bd
       0.059824795 -0.010632619 0.03032627 -0.049054496
0001d0 cc 74 a3 3c 28 8a e1 bc e0 44 07 bd 5e 7c 3a 3d
       0.019953154 -0.027531698 -0.03302467 0.045528762
0001e0 6c 99 0e 3d f8 e2 d9 bc d8 c6 e8 3c e0 0f 27 bd
       0.034814283 -0.026597485 0.028415129 -0.040786624
0001f0 0a 33 6e 3d 50 6f 7a 3d 80 72 02 ba cc 6d dc bc
       0.058154143 0.061141312 -0.0004976168 -0.026907824
000200 1e bd 6b bd 30 00 e3 3c 6c 77 d7 bc a4 17 2a 3d
       -0.057553403 0.02771005 -0.026302062 0.04152645
000210 68 80 fb bc a0 0c 8f bb a8 08 34 3c 04 53 63 3d
       -0.030700877 -0.0043655187 0.010988392 0.05549909
000220 18 c2 7c 3d 10 da 60 bc ea 6c 7e 3d 16 f3 45 bd
       0.06170854 -0.013723865 0.062115587 -0.048327528
000230 18 c8 f5 3c 8a e0 00 bd 9a 47 3a 3d 4c 08 30 bd
       0.030002639 -0.031464137 0.04547844 -0.042976663
000240 24 73 c5 bc 1e 28 62 bd c0 54 ea ba 38 47 ec bc
       -0.024102755 -0.05521404 -0.0017878041 -0.028842553
000250 98 46 47 bc 0c eb fa bc 40 cc 84 bb 36 87 5d bd
       -0.012162827 -0.030629657 -0.004052669 -0.054084025
000260 b0 48 76 3c f0 30 ea 3c 2a 7b 64 bd c0 fa 4a 3c
       0.0150319785 0.028587788 -0.05578152 0.012388885
000270 60 31 b9 3b dc 1d 97 bc 70 f5 6e 3d f8 2d c4 3c
       0.005651638 -0.018446855 0.058339536 0.0239477
000280 b8 ef 50 3d 50 62 76 bd 30 0d eb bb 1a ef 29 3d
       0.051009864 -0.06015235 -0.007173203 0.04148779
000290 80 36 2f bc c0 08 b4 3a 60 e5 2f bc 32 af 4d 3d
       -0.010694146 0.0013735518 -0.01073584 0.050215907
0002a0 40 d9 1d 3b 44 2c de bc 06 2b 16 3d 00 8c 04 bb
       0.002408579 -0.027120717 0.036662124 -0.0020225048
0002b0 b4 31 f4 3c 48 ef 1f 3d bc 96 5c 3d 98 b7 4a 3c
       0.029808857 0.039046556 0.05385469 0.012372874
0002c0 80 2e 01 3c e4 77 65 3d 18 6a ca bc ac 4e e7 bc
       0.007884622 0.05602254 -0.024708793 -0.028235756
0002d0 8e 5e 35 3d 60 a7 1e bc 14 89 fe 3c 80 6f 20 bd
       0.044279628 -0.00968346 0.031071223 -0.039168835
0002e0 60 ed a0 bb 60 99 c3 bb 9a f1 0b 3d 18 65 70 3d
       -0.00491111 -0.0059692115 0.034165956 0.05869016
0002f0 1a 9d 18 3d 60 4a df 3b 28 1f 7d bd b8 eb 3d bd
       0.0372592 0.006814286 -0.06179729 -0.046367377
000300 a0 0a 6f bc ca e8 77 bd 86 56 2b bd b0 ef 03 bd
       -0.014589936 -0.06052474 -0.041830562 -0.032211006
000310 8c d3 88 3c 12 d9 1d bd 00 ac b8 38 ac 72 a2 3c
       0.016702436 -0.038537093 8.805841e-05 0.01983007
000320 88 bb fa bc f4 b2 85 bc 08 e4 47 bd 90 be ee 3c
       -0.030607 -0.016320683 -0.048801452 0.029143602
000330 52 7a 2e 3d 80 98 ad bc 70 17 b2 3b 68 56 7b bd
       0.042597122 -0.021190882 0.005434923 -0.0613617
000340 76 ab 09 bd 40 ca 41 bc 68 0f 35 bc 88 58 47 3c
       -0.033610784 -0.011828005 -0.011051036 0.012167104
000350 ee 36 35 bd c0 9f f3 bc 20 ae d1 bb 18 12 4e bd
       -0.04424184 -0.02973926 -0.006398931 -0.050310224
000360 00 6e 28 bb f8 1e 66 bd 18 ae 5a bc dc 33 60 3d
       -0.002570033 -0.056181878 -0.013347171 0.054736957
000370 9e 67 09 3d d8 a5 17 3d 8a e1 11 3d ec 01 33 3d
       0.033546083 0.037023395 0.03561548 0.043703005
000380 5c cd 15 bd a2 1b 0a bd e0 1c 23 3b 74 dd 23 bd
       -0.0365728 -0.03371776 0.0024889037 -0.040006116
000390 6a 30 58 bd 3c 49 7e 3d 08 b5 d5 3c 48 f8 75 3c
       -0.052780546 0.06208156 0.026087299 0.015012808
0003a0 24 f6 ff 3c 4e 8a 60 bd 0c 39 01 3d 14 39 85 3c
       0.031245299 -0.054819398 0.031548545 0.016262569
0003b0 ce 43 27 3d 16 c9 56 bd 84 8d 78 bd 28 60 02 3c
       0.040836148 -0.052437864 -0.060681835 0.007957496
0003c0 de b2 78 bd a0 6e 98 bc ac b2 ca 3c 42 3e 4f bd
       -0.060717456 -0.018607438 0.0247434 -0.050596483
0003d0 00 98 7e 3a 4c 62 af bc 80 3c 7f 3a 6a 9a 4e bd
       0.0009711981 -0.021409176 0.0009736493 -0.05044023
0003e0 fc a5 bd bc e2 67 5c bd 7a 2b 44 bd 68 fb 5e bd
       -0.023150437 -0.053810008 -0.047893025 -0.05443898
0003f0 c8 e0 40 bc 00 82 ae 3c b0 11 ad bb 34 04 ee bc
       -0.011772342 0.021302223 -0.0052816495 -0.029054739
