d2calcbot/main/calc_bot/dota_model.pth (torch, 489058 bytes, 28 tensors)

branch_t.fc1.weight f4 [128, 35]
00000000: 6af6 233b 1c94 05be 0986 5abd edec 4c3d
00000010: 9fbf e93d a185 b43d ed8f a63d 81d5 95bd
00000020: 5e1d 5bbc 2a97 07be c2f4 c4bd 7fcd 0a3e
00000030: 4509 643d 9dea 483c 797e 01be bb8a 15be
00000040: 2e9d e3bd d6c3 073e 12c1 ab3c 3467 3abd
00000050: 4dde f4bc c264 13bc 081a 773d 777e b2bb
00000060: dbd1 a53c 5d11 b33c e64b bbbd bc35 e8bc
00000070: 045d 0b3e 79e1 6cbd 22a9 71b8 ac6d ce3d
00000080: ba19 943d cc49 a73b 36ef 83bd 176c d7bc
00000090: d14f 91bd 63f6 fe3d 3622 a2bd e330 213e
000000a0: 4385 26be 905a e6bd bf53 b03d 58fd 2e3d
000000b0: 5ebb febd 7d3d 2ebe fd10 9fbc 678c 0f3e
000000c0: 2a04 583d bdd2 bc3c 557d afbd bff6 a83b
000000d0: 77a1 07be c570 8e3d 3ca9 e1bd 9754 a73d
000000e0: b10f bb3d 4027 203e 2b08 953d 043e 1b3e
000000f0: 699c 57bc a70d c43d f93c cbbd 25e8 a7b8
00000100: f4e6 0bbe b74a aabd 6728 e73d dc34 a53d
00000110: e8b9 033e a3f7 e03d fc40 01be 41de d0bc
00000120: 5a42 27be 7faa fc3d 6f49 d1bd dbad 3c3d
00000130: 80ed 4b3d 5690 e3bd e678 8abd 5edf 183e
00000140: 5ed9 e93d 96f8 eebc 4ea8 ccbd 6904 273e
00000150: ada1 393d 2972 0dbd 484c 753d c4f3 093e
00000160: 2d0a 023e daa3 26be e3cc 063e dd78 053e
00000170: d05a 89bc f471 35bd 8e7c 493d 0cb4 23be
00000180: dbbe 03be 0435 263d c7c5 1f3d e541 44bd
00000190: 0ed0 1cbe ab2e 093e ffe0 92bd be09 163e
000001a0: 0109 d63c b1c4 053d d559 703c 98cc 2cbe
000001b0: 3bc9 fbbd b728 e33d 9648 1a3e 33b8 35bc
000001c0: d8a7 97bd 884c e93d 060b de3d 75aa d5bd
000001d0: f02e 0ebe 4069 fa3d 7e4d 14be 0af0 f3bc
000001e0: 9dd6 c6bd f1dc e5bd 3303 9abd df08 94bd
000001f0: 1e76 f5bc 210b 8dbb 0542 19be 7ffe 09be
00000200: 6540 383c 92a3 143e a1a8 953d 4a47 023e
00000210: ae2d db3d 7c6b aebd 82ba c6bd d86b 62bd
00000220: f257 2f3e ee00 e63d ec48 4b3d 95be a43d
00000230: 5be3 053e 0f38 233d 8531 9dbd a12c 32bd
00000240: debf 88bd a6de 1b3d 1ae0 ca3c 3bb6 10be
00000250: 9022 92bd 1994 2a3e 3103 22be 6868 0dbe
00000260: 05cc b63c 33c5 95bd a5c0 4fbc 9911 debd
00000270: 5ff0 c4bd 40c0 b8bd 3b1d 05bd 50ae e43d
00000280: 6f52 0abe bb52 cfbc c941 21be d9bf dc3a
00000290: bb5d c53c 9984 dabc 5b10 cabd 06df 013e
000002a0: b0e4 5dbd a8a1 8cbc f3a5 f9bd eef4 90bd
000002b0: d2ce f53d b835 b23c f334 19be 95cc 283e
000002c0: 52b6 a03d 18da 20be 08ee a9ba 7c68 423d
000002d0: 98db e8bc 495b d43d 4b9a 9abd fa1a 25be
000002e0: a377 e53d 03a6 2a3e 8618 1c3e 1670 23be
000002f0: 8995 133e 1784 1dbe 2e61 08ba 98cf 763d
00000300: 6148 843d 704a ca3d 4665 17be 94a9 c13d
00000310: a683 97bd 3ce9 12bd 43b5 eebc 59f9 863b
00000320: 9bc5 03be 8c54 f33d 3013 0a3e ee0a 9d3c
00000330: 2e7d c33d ccb7 fb3d 0795 863c f063 693c
00000340: 3602 0c3d c35e 573d 5d84 2bbe b213 5e3b
00000350: 9ce0 27bd 532d 703d 86ed 6f3d bdfd 6b3d
00000360: 33c3 77bd 3267 2abd ac7b 0c3d 4b23 1dbe
00000370: c860 903d 8eaf c13d 5590 02be db90 663d
00000380: 3876 263e a877 173e dd4b 643d d378 54bd
00000390: d509 b43d ca76 0e3d 8673 743d c7ad a43c
000003a0: 3901 cdbd 6757 023e f2ab 0a3e 402d 3e3d
000003b0: 8e84 223d 3769 d6ba 1dbf bf3d a72a fbbd
000003c0: 69f0 0abe d123 07be 61dc 723d e0b7 53bd
000003d0: 727d b9bd a842 213e 3dae 0cbe fec6 31bd
000003e0: f974 1f3d 0bb9 29be 747d 053e ad96 a2bb
000003f0: da47 833d 99f2 28bd 1e2b 843d e117 5d3d
0.00250187 -0.1304478 -0.053350482 0.050030638 0.11413502 0.0881455 0.081329204 -0.07316113
-0.013373701 -0.13241258 -0.09616996 0.13554953 0.055672903 0.012262967 -0.12645902 -0.14603703
-0.11113964 0.13258299 0.020966087 -0.04550858 -0.029891158 -0.0089961905 0.06032756 -0.0054472047
0.020241668 0.021858865 -0.09145336 -0.028345935 0.13609701 -0.057832215 -5.7616395e-05 0.10079512
0.072314695 0.005105233 -0.0644211 -0.026296658 -0.07095302 0.12449338 -0.079166815 0.15741305
-0.16261773 -0.11247742 0.08609723 0.042722076 -0.12438081 -0.17015643 -0.01941728 0.14018403
0.052738346 0.023049707 -0.08568827 0.0051563676 -0.13245188 0.06955103 -0.11018607 0.08170431
0.09133852 0.15639973 0.072769485 0.15160376 -0.01315985 0.095729165 -0.09923739 -8.006421e-05
-0.1366232 -0.08315032 0.11287003 0.08066723 0.12863886 0.10984733 -0.12622446 -0.025496604
-0.16333905 0.12337207 -0.102190845 0.04606424 0.049787045 -0.11111514 -0.06761341 0.14928958
0.114184126 -0.02917127 -0.09993039 0.16310276 0.0453202 -0.0345327 0.0598872 0.13471895
0.12699194 -0.16273442 0.13164096 0.13034387 -0.016766936 -0.044298127 0.04919105 -0.15986651
-0.12865774 0.040577903 0.039006975 -0.047914404 -0.15313742 0.13396709 -0.07171821 0.14652154
0.02612734 0.032658283 0.014669855 -0.16874921 -0.12294241 0.1109175 0.15066752 -0.01109128
-0.074050605 0.1139155 0.10841946 -0.10432903 -0.13885093 0.12227106 -0.14482686 -0.029777545
-0.09708903 -0.11223782 -0.075201415 -0.072282545 -0.02996355 -0.004304305 -0.1496659 -0.13475989
0.011245822 0.14515522 0.07307554 0.12722507 0.10702072 -0.08516595 -0.09703542 -0.05527863
0.17123392 0.11230646 0.04963009 0.08044163 0.1307501 0.039848384 -0.07675461 -0.043499593
-0.06677221 0.03805413 0.024765063 -0.14132015 -0.071354985 0.16658057 -0.1582153 -0.13809359
0.022314081 -0.073130034 -0.012680207 -0.108432 -0.0961616 -0.09021044 -0.03249858 0.1116606
-0.13508008 -0.025308004 -0.15747751 0.0016841843 0.024092546 -0.026674556 -0.09866401 0.12682733
-0.05417317 -0.017166927 -0.121898554 -0.07077967 0.120023385 0.02175413 -0.14961605 0.16484292
0.07847275 -0.15708196 -0.0012964616 0.047462925 -0.028425023 0.10368974 -0.0754896 -0.16123572
0.112044595 0.16664891 0.1524373 -0.15960726 0.14412512 -0.1538242 -0.0005202469 0.06025657
0.06459118 0.09877479 -0.14784727 0.094561726 -0.07398157 -0.03586696 -0.029139167 0.00411908
-0.12868349 0.118813604 0.13483882 0.01917025 0.095453605 0.12290916 0.016428484 0.014245018
0.034181796 0.052580606 -0.16749711 0.003388625 -0.04098569 0.058636975 0.05857613 0.05761503
-0.06048889 -0.04160232 0.03429763 -0.15345494 0.070497096 0.094573125 -0.12750371 0.05629049
0.16256034 0.14791739 0.05573641 -0.05187304 0.08790938 0.034781255 0.059680484 0.020102395
-0.10009999 0.12728654 0.13542154 0.046429873 0.039677195 -0.0016358261 0.09362624 -0.12263995
-0.13568272 -0.13197257 0.0592922 -0.05168903 -0.0905713 0.15748084 -0.13738342 -0.043402664
0.038929913 -0.16574495 0.13036138 -0.0049618096 0.06410189 -0.041246984 0.064535365 0.05397785

branch_t.fc1.bias f4 [128]
00000000: 80cb c2bd a6c9 b9bc e189 2b3e b92a 163e
00000010: 8f83 13be c6b8 143e 8c64 b53d 3169 24be
00000020: e6ad 073d da4b 293e b217 75bd 4be3 bf3c
00000030: a32c aa3d 8276 2b3e 6b2f 55bc e428 233d
00000040: d32f 11be c0d1 06be 0fd5 763d 0db5 293d
00000050: 1b75 05be 5a6b 29be 47bd 933d 70eb 893d
00000060: b778 253e f096 a5bd 3905 143e 3b04 803d
00000070: 01ff e0bd 3355 193e a3fb 833c 946b 0ebd
00000080: a899 333c d4e5 e8ba 9c49 84bd fa6c 2bbe
00000090: aafa 9bbd 782e 70bd 3c56 bc3d dbea 1d3e
000000a0: 62c3 143e ff9e 98bc 3402 2a3e f8c4 f4bd
000000b0: a959 263e d2f9 2b3d c01b 1cbe 0248 bfbd
000000c0: 4225 133e bdba ac3d 3e33 aebd c356 a5bd
000000d0: dcc6 053e 9f48 d7bd 350b fcbd 41b5 cc3c
000000e0: f7a5 063e 0993 1b3d d37a af3d f2b3 323c
000000f0: 2e44 01bc 4c86 203e c35c 17be 3db1 603d
00000100: 3bea 46bc fb33 a3bd 80e7 d63d 5396 c73d
00000110: c60e 953d 9eb3 993d e381 163b 9514 713d
00000120: bb2a 3dbd 1a16 29be 472d 343d 2b94 de3d
00000130: 3221 113e 289a 743d 6c35 203e cfb5 ae3c
00000140: ee66 1cbe 8675 afbc dcc8 e939 9af4 ba3d
00000150: 7d64 e83c 0499 18be 4409 26be aee7 d13d
00000160: c283 89bd d0ae 0dbe 88ef e83b 9c7a 8cbd
00000170: c9f1 bcbd 734f 2fbd 7b57 99bc 0e47 f3bd
00000180: 99c7 25be 651b dbbd 7576 a73d aab3 7e3d
00000190: ca00 3abd c01f f9bd 291d 1ebe 236d 0dbe
000001a0: 82bd 3c3c 5be4 e9bd f356 4dbd 7c73 a0bc
000001b0: 559c 843d 35f8 f73c 2efc 063e d347 c23d
000001c0: ef57 603d 4a24 82bd 4a5c 093e f507 7abc
000001d0: b39e 8fbd 89c1 d13d 47ae c43d 0fcb 77bd
000001e0: 5b02 9dbd 568e c63d c3c1 85bd 9091 15be
000001f0: 2c27 253e 075f 17bc bea7 0dbe b246 9bbd
-0.09511471 -0.022679161 0.16751815 0.14664735 -0.14405654 0.1452361 0.088570684 -0.16055752
0.033124827 0.16532841 -0.05983705 0.023423811 0.08309295 0.16744426 -0.013011794 0.03983392
-0.141784 -0.13165951 0.060261782 0.04143243 -0.13032953 -0.16544858 0.07213836 0.06734359
0.1615933 -0.0808543 0.14455117 0.06250807 -0.10986138 0.14973907 0.0161112 -0.034770563
0.0109619275 -0.001776869 -0.064593524 -0.1674079 -0.0761617 -0.058638066 0.091961354 0.15421622
0.14527658 -0.018630503 0.16602403 -0.11951631 0.1624514 0.041986294 -0.15244961 -0.09339906
0.14369681 0.08434055 -0.085058674 -0.08073189 0.1306414 -0.10511898 -0.12306825 0.024988772
0.13149248 0.03798202 0.08568349 0.01090716 -0.00788979 0.1567623 -0.1478148 0.054856528
-0.012140806 -0.07968899 0.10493374 0.09745469 0.072782084 0.075049624 0.0022965602 0.05885752
-0.04618333 -0.16512337 0.043988492 0.108681045 0.1417282 0.059717327 0.15645379 0.021326927
-0.1527364 -0.021418344 0.00044590875 0.09128685 0.028368229 -0.14902121 -0.16214472 0.102492675
-0.06714584 -0.13836217 0.0071086325 -0.068593234 -0.09225804 -0.042800378 -0.018718472 -0.11878787
-0.16189422 -0.106985845 0.08176891 0.06218306 -0.04541091 -0.12164259 -0.15440811 -0.13811164
0.011519792 -0.114205085 -0.05013175 -0.019586317 0.064751305 0.030269722 0.13182136 0.09486356
0.05477136 -0.06354578 0.13414112 -0.015260686 -0.07012691 0.10241992 0.09603553 -0.060496386
-0.07666465 0.09695117 -0.06531098 -0.14606309 0.16128224 -0.009238965 -0.1383352 -0.075818434

branch_t.fc2.weight f4 [64, 128]
00000000: bb3c d0bc cd3a 8b3c 94ef 4c3c 3a51 783c
00000010: c85d b13d 048d afbb 0a20 8c3d 77d7 e1bc
00000020: a5e4 eebc bd9d 5bbc 874f c0bc 5da8 f4bb
00000030: 2bb1 993d 758c 10bd 26f6 91b9 0246 82bd
00000040: c70c 9d3c 0c04 0dbd da21 b0bb 13ef 10bd
00000050: 1b31 6dbd 9011 a7bd 41bc 2b3c af68 8cbd
00000060: 0499 6ebd 2378 53bc a42f 15bd 67b2 41bd
00000070: c786 943c 8cf7 3d3d 52ba 103b 290e 9bbd
00000080: 7174 423c b8c0 78bc 1445 873d 655f 93bc
00000090: fa57 953c bd61 003c b04d 253c 68dd 83bd
000000a0: 7895 223c 4460 3f3c fc35 5f3c c9b6 26bd
000000b0: 9c71 73bd 8cd5 3e3d 0354 993d efd1 99bb
000000c0: 3891 32bd ec60 3cbd 9cda 303d 305c acbc
000000d0: bb27 abbc 3fcd 0e3d 7987 e9bb 8daa a83d
000000e0: bf51 85bd 9e10 49bd a5a0 88bd 9a94 a5bd
000000f0: f641 aebd beeb 9abd 77cd 19bb f389 46bd
00000100: 21e1 0139 57b7 5dbd 8d42 9b3d fc1f a5bd
00000110: 641e 0d3d 61bc 943d 337d 4fbd eb86 853d
00000120: e8bf 27bc 3d46 89bb a0fc 7bbd 5c1a da3c
00000130: c168 42bd ce37 bbbd 8a76 473d 86b7 a3bd
00000140: 62ec a83d fa83 83bd 316e 593d f8a5 40bd
00000150: 2eb9 a9bc 1df0 803d a89e 57bc 31b3 f63c
00000160: c022 ad3d 5fe3 b53d 5857 a83d 79ac a53d
00000170: d8d4 d3bc 798c b2bd 3fff a0bc b100 b43d
00000180: c35e 923d 0c81 803d afe3 8f3d 9dc7 233d
00000190: 8a90 b1bc 116e 013d bd0f 093d 0358 773d
000001a0: 6552 6bbd d421 213c ff4b 903d bbcf dabc
000001b0: 5acf 883d f742 d3bc ba3d 8fbd d35a 0cbd
000001c0: 96da 763d ff39 7cbd 349b 323d f639 7c3c
000001d0: e485 9d3d ca18 68bd d5ec fdbc 92e4 fcbb
000001e0: 4d2a 82bd 8a0f aa3c c8b6 56bd 1510 193d
000001f0: c769 adbb 379b 8fbd 177c ad3c 4032 743d
00000200: 2109 75bd 7f0e 94bc 7c1d 9c3d 0f63 953d
00000210: 8de5 42bd 4f64 81bd ff6a 173d 14ec 003d
00000220: dd2a 8d3d 4f81 d93c 8eaf 523d e282 633d
00000230: 46a6 b63d eefa b03d fbf2 86bd a18c 71bd
00000240: 32fe 633d fee7 013d 11f5 77bd a8b2 98bd
00000250: ed1d 643d b7e1 02bd 6d59 8c3d 078a 04bd
00000260: fa77 03bd 8e99 403d 6624 afbd 35f2 c43c
00000270: 5bce 5b3c ed35 4c3d 457a 42bd 8eee b63d
00000280: 18ed 993c 8ae8 53bd 474a 89bd bfae 23bd
00000290: bf6a 203d 9b13 0cbd 341b c8bc ec2c e13b
000002a0: 5485 adb9 d1e5 44bc 815d 943d 3555 a93d
000002b0: 3ff5 b8bc ef83 b03d ef21 55bd ecfc b7bd
000002c0: 5119 2bbd d83c 1abd e4af 163c 3d85 3a3d
000002d0: f2f1 a7bd d9c9 723d 4abd ecbc 48f6 0c3b
000002e0: 53ed 8a3d 5784 36bd 5b29 db3c 1fee a23d
000002f0: edb3 3c3d bafe 5a3d aaad f4bc a8de 823d
00000300: 1843 64bc 33ff 9e3c df6a a43d 2cce 8bbd
00000310: ef23 71bc aa6d 3fbd 8630 b13d 3baa 12bd
00000320: 6741 8e3d d983 04bb a198 923d 4dfc 82bd
00000330: 74ef 1a3d 71ed 9e3d 2896 5dbc a750 253d
00000340: a634 3cbd e45b 9cbc 2db2 9abd 2e73 a4bd
00000350: 3be6 4bbd 716c 93bc 922a c039 edcb c93c
00000360: 1604 1fbc 9083 953d e262 ba3a b021 9b3c
00000370: 8f2d 8e3d 1396 b2bd 580f bc3c 7641 a53d
00000380: 68a3 b0bc 9c25 303d 8898 25bc 11b3 f93c
00000390: abe1 a53d 32a6 4cbd 70a4 f03c c0c6 293c
000003a0: 476f 5b3c c7f4 953d 49f3 aebd 96a0 1b3c
000003b0: d297 4bbc 88c4 3c3d 1309 f6bc 8c9c 2fbd
000003c0: 215a 423d 593b ba3c b1eb a9bd 4192 c1bd
000003d0: 6886 d13c 3c12 743d 8c86 933c 3506 a53d
000003e0: ae71 393d ba75 b4bd 3f0c ee3c 3d64 02bd
000003f0: ee86 89bd f406 8f39 1f36 46bd 9fa3 693d
-0.025419584 0.016995812 0.012508292 0.015156085 0.086604655 -0.0053573865 0.068420485 -0.027568562
-0.02916176 -0.013404307 -0.023475422 -0.0074663595 0.07504495 -0.0352902 -0.0002783995 -0.06361009
0.019171132 -0.034427688 -0.005375129 -0.03538425 -0.05790816 -0.08157647 0.010481895 -0.06855904
-0.058251396 -0.012907061 -0.036422387 -0.04728928 0.018130673 0.046378657 0.0022083712 -0.0757106
0.011868582 -0.0151826665 0.066049725 -0.017989824 0.018230427 0.007835803 0.010089323 -0.06438714
0.009923331 0.011680666 0.013623711 -0.04070166 -0.05943452 0.046590373 0.07486727 -0.0046942155
-0.043595523 -0.04599087 0.043177232 -0.021040052 -0.020892968 0.034863707 -0.0071267453 0.08235655
-0.065097325 -0.049088113 -0.066712655 -0.08084984 -0.08508675 -0.075644955 -0.0023468414 -0.048471402
0.00012386266 -0.054129925 0.07581053 -0.08062741 0.03445281 0.07262493 -0.05065651 0.06519874
-0.010238625 -0.0041892813 -0.06152022 0.026623897 -0.047463182 -0.09141503 0.048697032 -0.07993989
0.082482114 -0.06421657 0.053083602 -0.04703328 -0.020718183 0.06295798 -0.013160385 0.030114742
0.08453894 0.08881258 0.082197845 0.08089537 -0.025858328 -0.08718199 -0.01965296 0.087891944
0.071469806 0.06274614 0.07025849 0.039985288 -0.021675367 0.031599108 0.033462275 0.06038667
-0.057451624 0.009834725 0.07045745 -0.026710382 0.06680174 -0.025788767 -0.06994195 -0.034266304
0.060267054 -0.061578747 0.043605044 0.015394678 0.07691553 -0.056664266 -0.03099672 -0.0077176774
-0.063557245 0.020759363 -0.052420408 0.037368853 -0.0052921507 -0.07012027 0.021177335 0.059618235
-0.05982316 -0.018073319 0.07622811 0.072942846 -0.047582198 -0.063179605 0.036967274 0.03147514
0.06892941 0.026550917 0.051436953 0.05554474 0.08918433 0.08641611 -0.065893136 -0.058972005
0.05566234 0.031715386 -0.060536448 -0.07455951 0.055692602 -0.03195354 0.06852994 -0.032358196
-0.03209684 0.04702144 -0.08551864 0.024041275 0.013415898 0.049856115 -0.047479887 0.089322194
0.018789813 -0.05173544 -0.067036204 -0.039961573 0.0391643 -0.034198385 -0.024427034 0.00687181
-0.00033096469 -0.012017683 0.07244397 0.08268205 -0.02257788 0.08618914 -0.052034315 -0.08983788
-0.04177219 -0.03765568 0.009197209 0.045537222 -0.08200444 0.05927453 -0.028898854 0.00215091
0.06783547 -0.044559803 0.026753118 0.07955574 0.046070028 0.053465582 -0.029867966 0.063901246
-0.013932012 0.019408798 0.080281965 -0.068264335 -0.01471804 -0.046735443 0.08651833 -0.035806876
0.06946068 -0.002022019 0.07158018 -0.06395779 0.037826017 0.07760132 -0.01352457 0.04036012
-0.045948647 -0.019086786 -0.075535156 -0.08029781 -0.04978011 -0.017996045 0.0003665281 0.024633372
-0.009705564 0.07300484 0.0014220143 0.018936962 0.06942283 -0.08720031 0.022956535 0.08069126
-0.021562293 0.043004617 -0.010107167 0.030480893 0.080996834 -0.049963184 0.029375285 0.010362327
0.01339323 0.07322078 -0.08542497 0.009498736 -0.0124263335 0.046085864 -0.030033624 -0.042873904
0.047449235 0.022733377 -0.08296908 -0.09451724 0.025576785 0.059587702 0.018008493 0.080578245
0.04527443 -0.08811517 0.029058574 -0.031833876 -0.06715189 0.00027280266 -0.048391458 0.057040807

branch_t.fc2.bias f4 [64]
00000000: dc47 463d e24e e43b f763 163d fe0f 78bd
00000010: 9a3d b7bd db77 9b3b 3261 a1bc 3983 52bb
00000020: 0d0d 913c 363e 1abd 3a15 89bd 8110 1fbc
00000030: 3466 c1bc ed20 0a3d 2f4d 5d3c 1fda 993d
00000040: a4f8 073d c3de 87bd 21c6 b4bc 3bad 96bc
00000050: d7a8 a9bd bed0 5bbd f8ee 1ebd 154b 893c
00000060: a9da 3b3b ff2d a83d bd8a 06bd 8de7 a43d
00000070: fcaa 92bd ce30 04bd 2ae5 abbd 4d0e 573d
00000080: 3ee7 af3d 1394 4e3c 9a36 8a3c 6207 b53d
00000090: 3ca5 803c 07aa a9bd 6657 8f3d a791 97bd
000000a0: 05b8 e4bc c571 993b c75c 47bd 4e6a 2d3d
000000b0: b80a 9cbd c10f 553b 495e ec3c 243a 8dbd
000000c0: 866e 823d 1017 8dbd 9302 543d 29a0 353b
000000d0: 289f a4bd 4686 58ba 854b 303c 71e6 383d
000000e0: 4213 513d 698d 963d fe2e 763d f866 32bd
000000f0: dbf6 0d3d fc05 86bd e36d 9a3d af24 74bd
0.048408374 0.0069674114 0.036716428 -0.060562126 -0.089472964 0.0047445125 -0.019699667 -0.0032121672
0.017706418 -0.037656985 -0.06693502 -0.009708525 -0.023608305 0.033722807 0.0135071715 0.075123064
0.033196107 -0.06634285 -0.022067131 -0.01839315 -0.08284157 -0.05366587 -0.038802117 0.016759435
0.0028664267 0.08211898 -0.032847155 0.08051977 -0.07161519 -0.032273106 -0.08393319 0.052503873
0.08589028 0.012608546 0.01687174 0.08839299 0.01570379 -0.08284383 0.06999092 -0.07400828
-0.027919779 0.004682752 -0.048672464 0.04233771 -0.07619232 0.003251061 0.028853552 -0.06895855
0.06368737 -0.068891644 0.051760267 0.002771387 -0.08038169 -0.00082597544 0.010760193 0.04514164
0.051043756 0.073511906 0.06010341 -0.04355523 0.034659248 -0.0654411 0.075404905 -0.059605297

branch_t.fc3.weight f4 [32, 64]
00000000: f226 d43d f89f 333d e2df c4bd b16c 98bd
00000010: 852b 52bd 2bc1 a1bb 2333 b53d a615 9c3d
00000020: da19 653d 2ec6 12bd aacf 583d 5a58 923d
00000030: 1a8c 9d3d 6442 cbbd d996 923d 218c e73d
00000040: a0a3 35bd 64f6 77bd 5395 3cbd a454 203d
00000050: 7a66 fa3d 69ff 21bd 64ac c73c 701f ab3d
00000060: 50c6 f6bd 5aab 1e3d fa1d be3d 4c4e f23c
00000070: 4885 06bd a2ff 253d ecfe 9fbd 905c c4bd
00000080: f97c f13d b0ff fcbd 7b68 52bd 3a06 c13d
00000090: 9617 8a3d 2093 3cbd cf18 f1bd bd63 e8bd
000000a0: 1375 9d3c 401b 59bc 86c2 d63d 1417 b63d
000000b0: 0316 643d 08bb 903d 6f95 dc3d ed4c 88bd
000000c0: 5748 02bc 0a4f 9c3d be5f bc3c c545 c9bd
000000d0: 7911 5abd 5339 b83c a4fd 713d 596c 253d
000000e0: f29a 943c 2b81 bfbd c1f8 663c 433a c2bb
000000f0: d7a1 93bd 649a 1b3a 5b39 cf3d 4335 263d
00000100: 3ad7 943d ca3e a73d 01ec bf3d 01af d33d
00000110: 49b2 11bd 9aaf dbbd c5aa 643d 39b7 edbd
00000120: 26a4 783d befe 67bd e735 083c 8172 6f3b
00000130: 001b 22bd f177 6a3d 3794 e2bd a8d6 9d3d
00000140: a86b 4a3d 6b18 fb3d a22f e8bd 9c8f 9d3d
00000150: ca6a e4bd 1922 003d 75bd 3cbd bba7 4c3d
00000160: 93c1 d23d 0ddb c8bd 6025 093d 29f4 c63d
00000170: 8cd8 bebd dc19 ad3d 80f2 a93d ba13 183d
00000180: 7023 c5bc ed84 00be 83d4 17bc a1ff b6bc
00000190: 52ee f73d 4be6 80bd 837a bbbd e5b4 c8bd
000001a0: 7c94 e1bd 0c87 f6bd 22bf afbd e33b a3bd
000001b0: 69eb a0bb 8758 03be a31f 313d 5078 693b
000001c0: b94d 0fbb b25f e73d 06c5 41bd 9f3a 883d
000001d0: 0196 8a3d 438a 8bbd 3966 4dbc 807c fbbd
000001e0: e3a7 fbbc 3ef5 8f3d e143 713d 8828 a03d
000001f0: 2958 ff3c 6388 96bd fc65 9abd 793a adbc
00000200: 4200 1bbc aded 94bd d1b0 e2bd e66c 7d3d
00000210: 30ca 593d 31f1 683d ced6 533d b3e8 dbbd
00000220: 4de1 dd3d 55ac 90bd 58f1 4cbd ded8 97bd
00000230: 113e f4bd 29f6 1a3c 204b 7a3d cee6 853d
00000240: 2b5b dc3d 41eb f4bc 6914 bd3d caf9 ee3c
00000250: bafa f0bd bc0e 9fbd 68da 923d a8a4 b63d
00000260: 6687 a8bd a21c 183b 8b6d b83d 1279 a03d
00000270: 401f c2bd c100 82bb aaf6 e43c 89a0 7d3d
00000280: 7748 a73d cea9 b8bc 6729 ff3d 1177 513d
00000290: f4e5 72bd 22f9 ca3c 098d b3bd a024 c43d
000002a0: defa 693c 695f 6abd 54ae 65bd 6bf6 e9ba
000002b0: f94a f9bb 482a 05bd 38e1 ef3d 8f1f abbc
000002c0: 1b47 9fbd ea0d d9bd 6286 fc3d f7ec 843b
000002d0: 1ad6 c2ba ed11 dd3c a4c9 90bd 9931 51bd
000002e0: e6a1 d6ba 7650 083d 425c bdbc ca57 313c
000002f0: 7bc3 ad3d a4be 0a3d f71e dabd 3813 f2bd
00000300: d068 583c f4bf d73c 2e3f ed3d 8c13 83bc
00000310: 7984 753c 8f97 b93d 8a8f cf3d 0a25 2e3b
00000320: d87d 95bc e377 f43d c68b 02bd 6982 f33d
00000330: 240c 223d d134 353d 8216 b93d 24b9 ce3c
00000340: f1a0 7a3d c342 9bbd 7e5d bcbd a53c 85bc
00000350: 0830 53bd 57a7 bcbb a4e5 ef3d 706e 13bd
00000360: ecf8 43bd f35f 53bc d1f8 d1bd 0ede d53d
00000370: e69e b6bd 7073 133b 6f03 f83d 3ea6 643d
00000380: 3108 afbc 3a4d a23c d432 aabd a0ca 693d
00000390: dfe4 b1bc 78bc 703d 6649 b53d f592 373d
000003a0: cb6a b93d 1743 a83d df75 abbd 5bae bfbc
000003b0: ffd3 a73d f95a 7b3d a5d8 573d 87a3 443c
000003c0: 3716 663d 1a20 fdbd 5ade f6bd 59e1 833d
000003d0: 248d 34bd 0db2 e83d 328b eb3d a11c 1dbb
000003e0: 8b1a db3d ab6d e2bd 00ea a43d c617 cb3c
000003f0: b289 023c 3d08 94bd 7c50 4f3c a637 c83c
0.10358991 0.04385373 -0.09613015 -0.07442606 -0.051311035 -0.0049363575 0.08847644 0.076213166
0.055932857 -0.03583353 0.05293242 0.07145758 0.07692738 -0.099247724 0.07157678 0.11306024
-0.044345498 -0.06053771 -0.046040844 0.03914322 0.12226577 -0.03955022 0.024374194 0.083556056
-0.12049544 0.038737632 0.09283061 0.02957835 -0.03284195 0.040526994 -0.07812294 -0.095879674
0.11791415 -0.12353456 -0.05136917 0.09425016 0.0674278 -0.046038747 -0.1177231 -0.113471486
0.019220864 -0.013251126 0.10486321 0.088911206 0.055685055 0.070669234 0.1077069 -0.066552974
-0.0079518175 0.07632263 0.022994872 -0.098277606 -0.05323932 0.022488272 0.05907978 0.04038653
0.01814029 -0.09350809 0.0140973935 -0.0059273555 -0.07208603 0.0005935787 0.101183616 0.040578138
0.07267614 0.08166273 0.09371186 0.10336114 -0.035570417 -0.10726853 0.05582692 -0.116072126
0.06070342 -0.056639425 0.008313633 0.0036536756 -0.03957653 0.05724329 -0.11063426 0.07706958
0.049419075 0.12260517 -0.1133721 0.07693407 -0.11153181 0.031282518 -0.046079118 0.049964648
0.102908276 -0.098074056 0.03348291 0.097145386 -0.09318647 0.08452198 0.08298206 0.037128188
-0.02406475 -0.12550707 -0.009266975 -0.02233869 0.12106003 -0.06293925 -0.09154227 -0.09800128
-0.11014649 -0.12037477 -0.085813776 -0.07970407 -0.0049108756 -0.12826739 0.04324306 0.003562469
-0.0021866395 0.11297549 -0.047307037 0.06651806 0.06766892 -0.06813481 -0.012536579 -0.12279606
-0.030719703 0.07029198 0.058902625 0.07820231 0.031169968 -0.073502325 -0.07538983 -0.021146046
-0.009460511 -0.072718956 -0.11068881 0.06187143 0.053171337 0.056870643 0.051718526 -0.10737743
0.10833988 -0.0706412 -0.05003485 -0.07414411 -0.11925901 0.009458103 0.0611068 0.06538163
0.107595764 -0.029897334 0.092324086 0.029171843 -0.11766572 -0.07766482 0.07170564 0.089181244
-0.0822895 0.0023210426 0.09005269 0.07835592 -0.09478617 -0.003967375 0.02794965 0.061920676
0.081681184 -0.022541907 0.12459069 0.05113894 -0.05930133 0.024776999 -0.08767135 0.09577298
0.014281003 -0.057219896 -0.056074455 -0.0017849928 -0.0076078144 -0.032511026 0.11712879 -0.020889072
-0.07777234 -0.10598357 0.12330319 0.0040565687 -0.0014864833 0.026986087 -0.0706971 -0.05107269
-0.0016375154 0.03327986 -0.023115281 0.010824153 0.084845506 0.033873215 -0.10650437 -0.11820072
0.013208583 0.026336648 0.11584316 -0.016000532 0.014985197 0.09062111 0.101348 0.002657237
-0.018248484 0.11936929 -0.03187158 0.11890108 0.03956236 0.044239823 0.09037496 0.025234766
0.061188642 -0.07581093 -0.0919752 -0.01626427 -0.051559478 -0.005757253 0.11713722 -0.035993993
-0.047844812 -0.012901294 -0.10252536 0.10442744 -0.08917026 0.0022499226 0.1211003 0.055822603
-0.02136621 0.019812215 -0.08310476 0.057078004 -0.02171558 0.058773488 0.0885189 0.044817884
0.09053572 0.08215921 -0.083720915 -0.023398569 0.08194732 0.061366055 0.052696843 0.012001879
0.05617353 -0.123596385 -0.12054129 0.06439466 -0.044079915 0.113620855 0.11501159 -0.0023973363
0.10698422 -0.11056074 0.080524445 0.02479161 0.007967399 -0.07228134 0.012653466 0.024440598

branch_t.fc3.bias f4 [32]
00000000: 33aa 8ebc 3e73 bebd 1761 a1bd 9161 9f3d
00000010: 8546 acbd 4609 c13c 708c 563d b618 c93d
00000020: c760 b4bd 3269 66bd 17db dbbd 0b51 ccbd
00000030: eae8 9b3d 7689 c2bb 7626 54bb 64f6 b23d
00000040: 1451 ab3d 5451 80bd 86ce 223d f19b 993d
00000050: f6c2 18bb 16ea 8fbd fd64 ca3d 5278 7f3c
00000060: 459a 003d c313 c1bd 288a 9bbd 1a2a efbc
00000070: bc16 f23d e042 c53d f3b9 1a3d 3be7 abbd
-0.017415142 -0.092993245 -0.078798465 0.07782281 -0.08411888 0.023563992 0.052380025 0.09819166
-0.08807521 -0.056252666 -0.107351474 -0.09976395 0.07612784 -0.005936797 -0.0032371557 0.087384015
0.08365074 -0.06265512 0.039747737 0.075004466 -0.0023309565 -0.0702707 0.09882543 0.015592651
0.031397123 -0.094275974 -0.075947106 -0.02919488 0.118207425 0.09631896 0.03777499 -0.08393713

branch_t.fc4.weight f4 [1, 32]
00000000: 905a 273e 6180 4d3d b0a9 123e 99d0 b4bd
00000010: 4e7b ffbd 3160 963d 9dfe 803d d28e 1fbe
00000020: 371a 30be fc1d c93d cb8d d8bc e5a9 41bc
00000030: f947 95bc 0005 78bd 12bb c63d 1c98 163e
00000040: 0586 b83b ad00 b8bd 0ba1 433d 3e39 6f3d
00000050: a97b 013e f28f 9dbd 7a0a d6bc e979 74bd
00000060: 0f03 d3bd 58f6 b13d bbf1 e23d 2c8f 25be
00000070: bc1b e63c dcf8 92bd 55b6 33be b3d0 9a3b
0.1634314 0.05017126 0.14322543 -0.08828849 -0.124746904 0.07342566 0.06298564 -0.15581825
-0.171975 0.09820172 -0.0264348 -0.011820291 -0.018222796 -0.060551643 0.097036496 0.14706463
0.0056312107 -0.08984504 0.047761004 0.0584042 0.12644829 -0.07693471 -0.026128042 -0.059686575
-0.10303318 0.086895645 0.11081263 -0.16167897 0.028089397 -0.071763724 -0.17550023 0.004724586

branch_p.fc1.weight f4 [256, 34]
00000000: b8fb b6bd f9c0 2bbe 1657 cc3d 8b5a 983d
00000010: 94c9 2f3e d2bd 563d f066 9c3c ef21 bebd
00000020: 6476 89bd 219f e0bb f0b9 35bc 20c4 16bd
00000030: bb49 133e c53d 193d 8ef9 a8bd b777 f7bd
00000040: e36d 863d 2117 d63d 6edf 8abc 62de 07be
00000050: 5d14 9d3d 6dd1 bcbd 93dd e9bd f77b 24bd
00000060: 344c d3bd e2f1 38be b72b 003e b763 0c3e
00000070: ed74 0abe 489a 343e 0bec e23d 1587 d43c
00000080: 4d97 09be f59d 9f3c a5a0 89be d3b3 283e
00000090: 4a2c 7b3c 1676 ec3d fd09 0ebc 49fc 413d
000000a0: 6408 f73b fb0c 47be b509 a5bd 89e4 843d
000000b0: 4854 e63d d8c1 38be fdea 153e 299a c93d
000000c0: b8ab 8abd e9ea 4fbe 7f66 31be 0cdc c5bc
000000d0: 0ba0 513e edf7 023e 99ae 373d eced 883d
000000e0: dcc1 083e f2e7 9abd 2041 50bd e6df a23d
000000f0: 628a 913d 6ba9 edbd 156a 03be 1808 d5bd
00000100: 3cea fd3d 70ba 70be c331 6f3d ee03 12be
00000110: 190e 84be 5a64 eebc cad0 1abe 5fb5 463e
00000120: e74a c93d 8f60 acbc 8124 3d3d f92d 883c
00000130: dc8d 823d 5e59 81bd fc22 6fbd 1f12 263d
00000140: a422 6d3d a5dd e2bb 84ae c23d 475b 45be
00000150: 4ce9 0f3d de0c dbbc b883 0b3e 4954 86bd
00000160: c8d7 c83d 4737 e63d 524c 1bbb 4def bc3c
00000170: 4c41 2a3e 802c 1b3c a6a0 7abe 2db2 9abd
00000180: c220 53be c1bc 373c 3993 063e 23a0 82be
00000190: 7f8f 0a3d 1e87 cebd 1887 f93d 2b70 12bd
000001a0: c820 6c3d 8ac4 c73d 2155 05be 864a 543e
000001b0: e6ae d9bd e5ba 913d a693 ba3d 407c b33c
000001c0: 98ea 023e 16fe 313d 0291 773d 06b9 c3bd
000001d0: 1e5f 373e 4114 5f3e f17e 0bbe b864 49be
000001e0: 73d0 2bbb de81 d8bd 2220 47bc b840 0f3e
000001f0: 131e 153e 58cd 5d3c 2b94 cd3d c350 f5bd
00000200: 58ad 833d 4529 d53d fc57 81be d763 4bbe
00000210: c0ff ddbc 47ad 233e 6a3c 73bd dc0a 94bd
00000220: d7a1 91bd 9666 8c3b f47f 99bc fe39 be3d
00000230: 3f16 c9bc 6be0 7c3c 071c 6fbc 23a8 0bbd
00000240: 9a45 8abc aaa9 983d 3193 dcbd f5ea 89be
00000250: 6b1b 983c d35c bd3d cfb6 e33d dafa 89be
00000260: 4c63 54be 48f7 13be 3f27 003e 5fec 9b3d
00000270: 0ad6 f83d 0954 e83c b508 e5bc 8dfc 13bd
00000280: 26cd 2a3d c94a e8bc ed6f b2bd 0798 1fbd
00000290: 23f8 2b3e a169 d8bd f596 8cbd e08f e0bd
000002a0: e161 973d 8654 8f3a eee0 e9bd 6c14 d4bd
000002b0: 1dfe 31bd 7ec6 f43c 323c 72bc 6135 62bc
000002c0: 63d4 1abe 3dec adbd 30a0 d1bd 03e1 ab3c
000002d0: 0308 c23d 3601 3dbe db44 913d 488b 7fbc
000002e0: f65a e33d de15 49be 681e d6bd a8ab 2fbd
000002f0: a51b c9bd 5527 053c 525c 4a3e 70ab 0f3c
00000300: fe1c 84bd 0341 d5bd 7c35 0b3e 1cc9 25bd
00000310: b0a9 c53d f8c3 143e 4252 58bc 1d91 f5bd
00000320: 0fa7 243d a8f7 21be dfb2 f03d 5b5c fdbc
00000330: 7c7f 74bd 4ca4 39be ab0d b6bd d28e 0fbd
00000340: 2555 28be c8d3 153e 5e73 a13d 5024 fb3d
00000350: 5973 ddbd 4b0c db3d 5d0c a13d 511a 3d3e
00000360: 9f06 0e3e 630c 1cbd 6eb6 4ebe 45fd ee3d
00000370: 6680 c2bd 4e26 8bbb 872d 34be 5d27 04be
00000380: c797 2ebe 91c5 5ebd 7796 2cbd aa46 453e
00000390: 83d7 c8bd 2dc4 a9bc cd52 e53c 3cfa 603d
000003a0: 0cec 333d 54ce fabd 3226 b73d 7ff6 343d
000003b0: 34cf 033e 78d2 e83d be5f 2ebd 85b3 eebd
000003c0: 3f52 da3d ae65 c9bd 11b1 3bbd 9d57 47bd
000003d0: 29b7 e4bd eaa2 df3c e7e4 8ebd c1ab 0a3e
000003e0: 8b60 28bd 66e5 1abb f82e 703c 9bdd f9bd
000003f0: 940e 1cbe 4fd4 24be 1759 9e3d 93e5 1b3c
-0.0893473 -0.16772832 0.09977548 0.07439145 0.1716674 0.05242712 0.019092053 -0.09283816
-0.06712034 -0.006854907 -0.011091694 -0.036808133 0.14383595 0.037412424 -0.08250724 -0.12083381
0.06563928 0.1045363 -0.016952243 -0.13268426 0.076698996 -0.09219632 -0.11419215 -0.040157285
-0.10317269 -0.18061021 0.12516676 0.13709913 -0.13521166 0.17636979 0.11080178 0.025943318
-0.13436623 0.0194845 -0.26880375 0.16474847 0.015330384 0.115459606 -0.008669374 0.04735974
0.007538842 -0.19438545 -0.08058492 0.06488902 0.11246544 -0.18042696 0.14640422 0.09843857
-0.06771034 -0.20304455 -0.17324255 -0.024152778 0.20471208 0.12789889 0.044844244 0.06686005
0.13355201 -0.07563771 -0.050843358 0.079528615 0.071064726 -0.116045795 -0.12833436 -0.104019344
0.12398192 -0.2350862 0.058397066 -0.14259312 -0.25792006 -0.029100586 -0.15118709 0.19405125
0.098287396 -0.021042136 0.04617739 0.016623484 0.06374714 -0.063158736 -0.058382973 0.040544625
0.057894364 -0.0069233947 0.095059425 -0.19273101 0.0351346 -0.026739534 0.13624465 -0.06559045
0.09806782 0.11241012 -0.0023696613 0.023063326 0.16626471 0.009471059 -0.24475345 -0.075535156
-0.20617965 0.011214436 0.13142098 -0.255128 0.033828255 -0.10084365 0.1218397 -0.035751503
0.05764845 0.09754284 -0.13020755 0.20731553 -0.10629062 0.071157254 0.09110193 0.021909833
0.12784803 0.043455206 0.060441025 -0.09556775 0.17907378 0.2178507 -0.13622643 -0.19667327
-0.0026216775 -0.10571645 -0.012153657 0.13989532 0.14562254 0.013537727 0.100380264 -0.11978295
0.06429547 0.10408262 -0.2526244 -0.19862305 -0.02709949 0.15984069 -0.059383787 -0.07228634
-0.071109466 0.00428469 -0.01873777 0.09288405 -0.02454674 0.015434365 -0.014594085 -0.034095895
-0.016878892 0.07454236 -0.10770262 -0.2693707 0.018567761 0.092462204 0.11118852 -0.26949197
-0.20741004 -0.14449799 0.12514971 0.076134436 0.121502 0.028360384 -0.027958253 -0.036129523
0.04169955 -0.028355973 -0.087127544 -0.038963344 0.16793875 -0.10567022 -0.0686473 -0.10964942
0.07391716 0.0010935224 -0.11419855 -0.10355458 -0.043455232 0.029879805 -0.0147848595 -0.013806672
-0.15120082 -0.084923245 -0.102356315 0.020981317 0.09474184 -0.18457493 0.07093211 -0.015597172
0.11101334 -0.19637248 -0.10455018 -0.042888314 -0.09819726 0.008127053 0.1976178 0.008768901
-0.06450842 -0.104127906 0.13594621 -0.040474996 0.09651506 0.14527881 -0.013203206 -0.11990569
0.040198382 -0.1581713 0.11752867 -0.030927828 -0.05969189 -0.1812908 -0.08889326 -0.035048313
-0.1643873 0.1463157 0.07883333 0.122627854 -0.108130164 0.10695704 0.07863686 0.1846707
0.13869713 -0.03809775 -0.20186779 0.11669401 -0.09497146 -0.0042465096 -0.17595492 -0.12905641
-0.17050086 -0.054387633 -0.042135682 0.19265237 -0.098067306 -0.020723427 0.027993584 0.054926142
0.043926284 -0.12246385 0.08942832 0.04418039 0.1287201 0.11368269 -0.042571776 -0.116553344
0.106602184 -0.09833847 -0.04582316 -0.04866754 -0.111677475 0.027299363 -0.069772534 0.13542081
-0.041107696 -0.0023635267 0.014659636 -0.12200471 -0.15239936 -0.16096614 0.07731836 0.009515184

branch_p.fc1.bias f4 [256]
00000000: e1f3 953d 2ac2 2bbe 570c 143d b979 0d3e
00000010: 5060 923d c36b 01be b80d 2dbe be04 003e
00000020: a3d1 01be 3532 8dbd 6484 303e 53a6 2a3e
00000030: d480 d8bd 7448 cfbd 047b db3d 52b7 bf3d
00000040: 7a72 153e 3a0d 243e 5ab7 11be 79db 123e
00000050: e78d babd 3434 193d ebfc c83d e73a 13be
00000060: 99fc 733d 3dd9 9a3d 6ac2 18be 6568 0c3e
00000070: 6504 2dbe 5c1c 35bd 2542 aa3d 25d5 12be
00000080: 8378 c7bc 0e8d 1f3e 01de ad3d 282a 333e
00000090: 3027 573c 4dad 2abe 8dd7 cfbc 1104 a8bd
000000a0: 26e7 e93d e5b9 923d a40a 34be 5168 e43c
000000b0: cc99 90bc d962 e73d 727d b83d a73c 643d
000000c0: 1198 b1bc fcf8 ea3d 73f2 e23d 4418 b7bd
000000d0: 5ba6 153e 01fe 2e3c 0d36 f43c d9b9 01be
000000e0: 397d 1c3e f010 04be 1e85 da3d 4d95 cabc
000000f0: 7607 0f3e 4420 20bd de39 a13d 4968 983d
00000100: 7fb4 11be 75a0 683d c87b c4bd 9187 9a3d
00000110: 5a0a 04be 0f49 ed3c 61d4 00be b617 68bd
00000120: d9eb 8f3d dd80 33be 211b c33d 8ea1 993d
00000130: be4c 8dbd 2db2 a4bd ef0e 5dbd cdc7 0ebe
00000140: 7833 b3bc 4895 5c3c 9bd4 11bd b200 12be
00000150: 2623 773d 6a6c febd 9a62 8d39 570a 0abe
00000160: ab84 f93d d19c 153e 2bf3 03be 75db aa3d
00000170: 85c8 04be 17a2 b3bd 50d2 18be 93f3 173e
00000180: 1f2f e8bd a55f babd 2ba9 16be 8702 823c
00000190: fa98 0a3e d38a f2bc 0074 823d b8c1 133e
000001a0: 48ba cfbc 444a 30be f910 b23d cb9b fcbd
000001b0: a298 c8bd 0611 d8bd 50b5 babd 7e2d eebd
000001c0: 0074 e8bd 046b b73d 07d7 afbd 1c80 d93d
000001d0: cda6 fd3c 44e3 cb3d 222e a2ba e163 383e
000001e0: c367 febd 956a 39bd 56e4 b93d 8967 69bd
000001f0: a2f5 27bc ebf7 4ebd b3ae 57bd d58b b2bd
00000200: 95f9 0b3e 29cc 363e bec1 14be c99d 0c3e
00000210: afcd 0abe 1a03 22be 6dd6 a6bc 8440 053e
00000220: 519b 263e 5bb6 fe3c 760e 0e3e 4a29 df3c
00000230: 06c2 363e e856 b23d 952a debd b664 ddbc
00000240: deee 4c3d 060e 1dbe 42ef 7f3d 80cb 863d
00000250: 9510 0dbe d3bf f53d 5807 143d 3b9f 223e
00000260: 7bd3 0d3e 7b72 2c3e c39f 153e 6097 dfbd
00000270: eeb3 1e3e 4eab 1bbe b501 1c3d b54d 973c
00000280: dcd1 cfbd 768b be3d 9026 19bd bfd5 0f3e
00000290: b800 723d b6fa 3ebe 4425 3dbc 5c1a e0bd
000002a0: a732 0fbe f9c9 ca3c 504b 313e 438f 20be
000002b0: 121a 133e 1aab 243e 25f2 31bd 369e 80bc
000002c0: 34c1 a1bd 23ea 3cbe 35ab d93c e5d8 133e
000002d0: 07e7 7e3d 94e2 c6bc 4a61 0cbd 2dd1 21be
000002e0: c9bb 363e 7591 0ebe 2cbe fd3d aa5e 8dbd
000002f0: 5dad fbbd 61a5 2ebe a4c2 1b3e 37d2 37bd
00000300: d329 01be bff7 febc 8615 d63d 121d 2dbd
00000310: dd7c ccbd 628f c93d d96b e63d 2aff 6e3c
00000320: 652e 94bd fcea c2bd f7f1 07be 30b5 223d
00000330: aca6 8a3d 67fb f7bd 8af1 d9bd ef18 c73d
00000340: 24a8 12be f346 3abd 5044 ad3b 38ec 0a3e
00000350: 3d5b 83bd 9528 353d d60d 033e fb7c 4c3d
00000360: ece8 bb3d 96b6 c8bd 57c8 ccbd f30e 0abd
00000370: 3d9f 37be a59e 913d c0ba 373e a44f 2abd
00000380: 4f73 2abe 76d0 a63d 650e d13c d232 5d3d
00000390: 2857 06be af6f 183d 967b 873c 713a 0ebe
000003a0: 6101 633d 13ff 8a3d 0417 983d a272 223e
000003b0: cdbc 20be 35c2 61bd 8c46 ea3d 7d9a 24be
000003c0: 0d68 acbd a52e 6d3d dabe 6d3d 567d 26be
000003d0: afcf cbbd 112a 1c3e 9d41 9f3d d01b 0abe
000003e0: 4cdb 0ebe d4e2 ddbd f0e9 01bd 439c 0cbd
000003f0: 648f 863d f31e 24be 3c0a 09be e4d1 2b3e
0.07321907 -0.16773286 0.03614458 0.13815965 0.071472764 -0.12638764 -0.16899765 0.12501809
-0.12677626 -0.06894342 0.17238003 0.1666501 -0.10571447 -0.10121241 0.10716823 0.093611374
0.1459445 0.1602067 -0.142301 0.14341535 -0.09109097 0.0374033 0.09813865 -0.14377938
0.059567068 0.07560966 -0.14917913 0.13711698 -0.16896208 -0.0442165 0.08313397 -0.1433912
-0.024349457 0.15581152 0.084896095 0.1749655 0.013131902 -0.16667672 -0.025371337 -0.082039006
0.11421041 0.07164363 -0.17582184 0.027881773 -0.017651461 0.112981506 0.09008302 0.055721905
-0.021678956 0.11473271 0.110814 -0.08940175 0.14614241 0.010680676 0.02981093 -0.12668552
0.15282144 -0.12897086 0.10669921 -0.024729395 0.1396769 -0.03909327 0.078723654 0.07441766
-0.1422901 0.05679365 -0.09593922 0.075453885 -0.12894574 0.028965501 -0.12581016 -0.056663238
0.07027406 -0.17529626 0.09526659 0.07501517 -0.06899403 -0.08041797 -0.05396932 -0.13943405
-0.021875128 0.013463326 -0.035603147 -0.14258078 0.060336255 -0.12423022 0.0002696708 -0.13480507
0.121835075 0.14610602 -0.1288573 0.08342639 -0.12967117 -0.087711506 -0.14923978 0.1483901
-0.11337113 -0.09100274 -0.1471297 0.015870346 0.13534918 -0.029607212 0.063697815 0.14429367
-0.02535738 -0.1721583 0.086946435 -0.12334403 -0.097947374 -0.10550122 -0.09116614 -0.11629771
-0.1135025 0.089559585 -0.08585935 0.10620138 0.030963326 0.09955457 -0.0012373368 0.18006851
-0.12422135 -0.04526766 0.09076755 -0.056983504 -0.0102514345 -0.0505294 -0.05265684 -0.08718077
0.13669427 0.17851318 -0.14527032 0.13732065 -0.13555025 -0.15821496 -0.020365918 0.13012892
0.16270186 0.031092813 0.13872704 0.027241368 0.17847452 0.08707982 -0.10847966 -0.027025562
0.05003249 -0.15337381 0.062484033 0.06581783 -0.13775857 0.11999478 0.036139816 0.15881054
0.13850205 0.16840546 0.14611726 -0.10917544 0.15498325 -0.15202066 0.038087565 0.01846967
-0.101474494 0.09303944 -0.03739029 0.14046381 0.059082717 -0.18650326 -0.011544529 -0.10942528
-0.13984166 0.024754511 0.17313886 -0.1567965 0.14365414 0.16080895 -0.043443818 -0.01570044
-0.07898179 -0.18448691 0.026570896 0.14438207 0.062232044 -0.024277963 -0.03427247 -0.1580245
0.17845072 -0.13922675 0.12389788 -0.06902821 -0.12288926 -0.17055275 0.15210968 -0.04487821
-0.12613611 -0.031123994 0.10453324 -0.04226405 -0.09984753 0.09841801 0.11251039 0.014587203
-0.072354116 -0.09517476 -0.13275896 0.039723575 0.067700714 -0.12108498 -0.10641773 0.097215526
-0.14321953 -0.04547782 0.0052876845 0.13566673 -0.06413887 0.044228155 0.12798247 0.04992388
0.09175286 -0.098004505 -0.09999149 -0.033705663 -0.17931838 0.07110337 0.17942333 -0.041579857
-0.16645549 0.081452295 0.02551956 0.054003544 -0.13119185 0.037215885 0.016538423 -0.13889481
0.055421237 0.06786933 0.07426265 0.15864041 -0.15697022 -0.05511685 0.11439237 -0.16074558
-0.084182836 0.05790581 0.05804334 -0.1625875 -0.09951722 0.15250422 0.077761866 -0.13487172
-0.13950843 -0.1083428 -0.03171724 -0.03432871 0.06570318 -0.16027431 -0.1338281 0.16779286

branch_p.fc2.weight f4 [128, 256]
00000000: e11f 23bc 111b 803d 330a 5a3d 54e4 833d
00000010: 73e2 a6bc 5d57 f73b f67b 77bb 97dd 733d
00000020: c4d1 6c3b 4717 203c d0ba 55bc 7b7c 033d
00000030: f7c5 afbc 3507 fb3c 3b89 8b3b 142a 0ebd
00000040: 2214 8e3c 5ff4 523d 5048 983c 5df6 bebc
00000050: 39ba 213d 7a0d bb3b 0701 16bd 98d1 0f3d
00000060: 1820 823d 0092 3a3d 59ec 453d 6fe0 073d
00000070: a100 28bd 4789 653d af4f 3a3d 0134 c23c
00000080: ddf2 8ebc 5aec a3bc 1cce c0bc 5878 24bc
00000090: 7df2 4fbd 7c3d 303d 5a37 493d 7bea 08bd
000000a0: 80ab c93c 0586 2e3d 6c35 07bd 037e 923c
000000b0: 369b 00bd 04ae 893d c65d 813d 4832 623d
000000c0: 76cd 723d 98ce e63b dc99 743b bd9e 88bd
000000d0: 0b89 403d 4914 0e3d c6bf 03bd 8142 0ebd
000000e0: 52da c3bb 464e b7bc e9ab a3bc 6ceb ad3b
000000f0: 2b8a 953b 0d64 9dbc 235c 12be 2401 47bd
00000100: 00b6 44bd 7412 153d d2a9 1f3d f8a3 40bd
00000110: b7b3 1f3d 624d 603d 7a05 81bd 0bd9 9dbc
00000120: 40a3 d43b e6d5 273d c546 8e3d a884 acbb
00000130: f852 08bd d915 633d 0564 b7bc 8b3c ee3c
00000140: 67ea 473d 7947 aebc 78b4 16bd 0c33 483d
00000150: 60c6 d33c 865c 82bd c580 013c 4ec5 41bd
00000160: de11 503d fe26 f43c 98dc 74bd bb8e 07bd
00000170: bcc7 733d 5786 5d3d 4c70 353d fcea c03c
00000180: c1be dc3c 1275 2bbc fe71 b0bc b447 5fbd
00000190: 13d1 32bd 9f06 043d ab24 32bd 4e44 43bd
000001a0: 23fd aabc 3714 fbbc 6aec 263d 9dd8 e4bb
000001b0: 241a fd3c bf76 f039 61ee 57bc eba6 2a3d
000001c0: d6ad 52bd 43a3 6b3d c7d7 70bc 5e7c 313d
000001d0: cdc5 30ba f041 f0bc e77c 913c 68a1 a5bb
000001e0: 128d 3fbd 887b 413d e4c4 a33c b9fb 82bc
000001f0: f7d0 2b3d 1960 f2bc 24b9 6c3b d15e 243c
00000200: ca63 df3c a8c5 8dbc 94e4 413d 6992 c53d
00000210: 4414 6d3d 4799 853b 879f 37bd 04ce 4b3d
00000220: 5cf0 16bd a7ab 143d c405 d63b 27a1 3dbc
00000230: 76f4 cd3c af23 cf3d f78b 59bd 1f8b 9f3d
00000240: 2242 aa3c 65b6 283d e555 083d b05f 75bc
00000250: 11dc 18bd 5836 333d aad0 59bc eb42 f8bb
00000260: b3c5 8ebc 8785 603b 60bf 313d f82f 563d
00000270: bc74 15bd 2d38 843c ce3f 7dbc 834e 333d
00000280: 2efa 4fbd 5304 673d 950b 703d 35bd 693d
00000290: 8a2d f9bc 0caf b03c 4f8c e73c 6087 b03d
000002a0: 5759 7cbc 601e 3bbd 7c80 51bd 9832 46bc
000002b0: 8170 cc3b a14b 6a3d be30 653d 6cf1 eebc
000002c0: 27cd 54bd 799e 653d 4b3e 03bd 7c92 a1bc
000002d0: 7d00 41bd 7bcc 2abd 1433 12bd 06e0 b3ba
000002e0: e0e3 debc 8e0b 09bd c095 323d 8e81 2abd
000002f0: 4362 543d 6d0c ffbb 5c23 24bd 9fd5 6d3c
00000300: 3906 17bd 4721 05bd 4dfe d4bc b5ce 163d
00000310: cfb3 323d 5f3f 49bd 208d 85bd b929 cd3c
00000320: 136a a93c 081e 0e3c 990e 13bc 8730 d53c
00000330: 38b1 d2bc 06f9 463d 17e3 8bbd d42e 703d
00000340: 6ac0 d4bc d2c4 56bc 7421 60bd 798b 36bd
00000350: 9d79 323d b9d9 8cbd 213d 0ebc 4439 173d
00000360: 4960 bbbc 3058 1c3d 895f b4bc 6faa 0fbc
00000370: 1a1b 6dbc f271 673d 5ae0 94bc 672f c53c
00000380: 78ac 353c 8009 b03b 1f1a 8abd d8f3 4a3c
00000390: 3c41 6a3d 773a a1bd 2937 f63c 8d7e 413c
000003a0: c548 133a 0b61 babc d729 7e39 389e 4dbd
000003b0: 6444 8abd d857 58bc 2b12 5ebd 0517 32bd
000003c0: c51f 7fbd 91c7 11bd 50ee b03d 2c2e 0a3d
000003d0: badd 0bbd 8033 543d 7e6f f33c c47b ecbc
000003e0: 492f 7cbd 2a27 233d f2d8 07bd 4b39 42bd
000003f0: cc65 06bd a129 b4bb 5cd7 c7bc 9eec 96bd
-0.009956331 0.062551625 0.053232383 0.064400345 -0.020371651 0.0075482563 -0.0037763095 0.059537496
0.0036135772 0.009771175 -0.013045028 0.032101136 -0.021456702 0.030643085 0.0042583025 -0.034708098
0.017343584 0.05150258 0.018589169 -0.023310835 0.039484236 0.0057083936 -0.036622074 0.035111994
0.06353778 0.045549393 0.0483211 0.03317302 -0.041016225 0.05603912 0.04548615 0.023706438
-0.01744979 -0.020010162 -0.02353578 -0.010038458 -0.050768364 0.043027386 0.049125053 -0.033426743
0.02461791 0.04260828 -0.03300993 0.017882353 -0.03139802 0.06722644 0.06316714 0.055223733
0.059277974 0.007043671 0.0037323153 -0.06670902 0.047005694 0.034687314 -0.03216531 -0.03473139
-0.0059769535 -0.02237619 -0.019979434 0.0053076055 0.00456359 -0.019212747 -0.1429296 -0.048585072
-0.04802513 0.03639455 0.038980313 -0.047031373 0.03898975 0.054761298 -0.06299873 -0.019268533
0.0064891875 0.040975474 0.06947092 -0.0052648373 -0.03328225 0.055440757 -0.02238656 0.029081604
0.048807528 -0.021274315 -0.036793202 0.048876807 0.025851429 -0.06365304 0.007904236 -0.047307305
0.05079829 0.02980375 -0.059780687 -0.033095103 0.059516653 0.054083195 0.044296548 0.02354955
0.026946427 -0.010464923 -0.02153873 -0.05451174 -0.04365642 0.032232877 -0.043492 -0.047672562
-0.020872658 -0.030649288 0.040752806 -0.00698383 0.030896254 0.0004586484 -0.013179393 0.04166309
-0.051435314 0.057528745 -0.014699883 0.043331496 -0.0006743342 -0.029328316 0.017759753 -0.0050546415
-0.046765395 0.04723695 0.019991346 -0.015989171 0.04194733 -0.029586839 0.0036121095 0.010032372
0.027269263 -0.017306164 0.04733713 0.09647066 0.057880655 0.00407711 -0.04482987 0.04975702
-0.03685032 0.036296513 0.006531449 -0.011574066 0.025140982 0.10114228 -0.053111997 0.07790207
0.020783488 0.04118957 0.03328504 -0.014976427 -0.037319247 0.043752998 -0.013294378 -0.0075763366
-0.017428255 0.0034259276 0.0433954 0.05229184 -0.03648828 0.016140068 -0.015457107 0.043776046
-0.0507757 0.05640061 0.058604795 0.057065208 -0.030417223 0.021567844 0.028265147 0.08619571
-0.01540216 -0.045683265 -0.051147923 -0.012097023 0.0062389974 0.05720103 0.055954687 -0.029167853
-0.05195346 0.056059334 -0.03204183 -0.01972317 -0.047119606 -0.041698914 -0.035693243 -0.001372338
-0.027208269 -0.033458285 0.043599844 -0.04162746 0.051851522 -0.0077834637 -0.040072784 0.014516263
-0.03687117 -0.03250244 -0.026000166 0.036818225 0.04362851 -0.0491327 -0.06521058 0.025044309
0.020680463 0.008674152 -0.008975648 0.026024116 -0.02571927 0.04857733 -0.06830423 0.05863841
-0.025970656 -0.013108449 -0.054719403 -0.044566605 0.04357301 -0.06877465 -0.008681566 0.036919847
-0.02287306 0.03817004 -0.022018211 -0.008768662 -0.014471794 0.05650515 -0.018173385 0.024070455
0.011088483 0.0053722262 -0.067432635 0.012387238 0.05719112 -0.078724794 0.0300556 0.011809957
0.00056184485 -0.022751352 0.00024238914 -0.050199717 -0.06751326 -0.013204537 -0.054216545 -0.043478984
-0.062286157 -0.035590712 0.086392045 0.03373544 -0.034147 0.051806927 0.02971625 -0.02886761
-0.061568532 0.03983227 -0.03316588 -0.04741792 -0.032811925 -0.0054981266 -0.024394684 -0.0736935

branch_p.fc2.bias f4 [128]
00000000: 18fa 0fb9 6d42 dcbc f57f 65bc 4699 8fbd
00000010: 877d f2bc 5b4a a8bd b587 343d 2358 4d3d
00000020: eb65 773c 4909 aa3c 1c90 3abc 8788 813c
00000030: e651 5d3d c75a eb3c 17e9 bebc a470 7b3d
00000040: 3b02 febb 89eb b63c d1c9 73ba a8c1 81bd
00000050: 47df a33a 9a58 1a3d 8444 96bc ce3f 8ebd
00000060: 768f 4e3d ec07 753d 79c1 21bc 2523 5fbb
00000070: c78d b03c 4292 423d b63f 0c3d 12db 383d
00000080: 15c5 9fbb 0b3a 6dbb ed04 31bd 3302 873c
00000090: 5452 c43d 92ca 92bc fa3b 36bd 56df 35bc
000000a0: 7a42 d8bb 5438 043d fb68 f1bc ebac 363c
000000b0: 9bf0 95bd 3d8b 38bd cb9c a33c 03b0 243d
000000c0: 4471 1dbd 7731 b6bc 471a 67bc 2b24 c3bc
000000d0: eba0 04bd ad63 3fbc cf71 0dbd 24dc 4fbd
000000e0: ab64 07bd 236d df3c 6fda 4cbc 18a5 313d
000000f0: 78d4 9ebd 622d 593d 9a52 363d 3823 953d
00000100: b4c9 87bb 9fae 3fbd 1f11 d1bc 0f6d 84bd
00000110: 25f7 3a3d 74be 063d 299b 723d ff51 9abc
00000120: 7cab 113c 3b6d e03c 6bcf 8b3d c49f a83d
00000130: df94 8fbb 971a 393c 62b2 89bc aec0 b93b
00000140: 9660 a1bc 8c00 13bc 9ee7 e8bc 4107 703d
00000150: 0dd9 f5bc 389f 1ebd 8be1 ebbc 5659 893b
00000160: fef9 37bd de67 6f3d 81db 853d b2f9 dd39
00000170: 532e 833d e2e8 023d 7084 dd3c 0e08 833b
00000180: 90b6 4c3d 7438 2dbd 0a5e 4fbd 95b9 ed3c
00000190: 0e2e 02bd 6133 2ebd 954f 34bd 2d13 24bc
000001a0: e534 0ebd 84cf e4bc fd24 87bd 7913 5c3c
000001b0: 3356 9e3c b282 ca3b 7c6d 55bc 0a22 34bd
000001c0: 9a2b 37bd 1c3b 313d 6f5c 123d f0d8 11bd
000001d0: d40e 9dbd 9455 9c3c 5c34 30bd 7d1b 67bd
000001e0: a3ab 1dbb 5f40 81bd 2f7f 6e3c ed2e 6bbd
000001f0: c35a 333d e503 94bc c0d5 30bc 225e babc
-0.0001373071 -0.026887143 -0.014007558 -0.070116565 -0.029600872 -0.08217307 0.044074733 0.05013288
0.015099983 0.02075638 -0.011386897 0.015812172 0.054033183 0.02872981 -0.023304505 0.06138672
-0.0077517307 0.022329109 -0.00092997873 -0.06335765 0.0012502455 0.037682153 -0.018343218 -0.069457635
0.050429784 0.059822008 -0.009872788 -0.0034048047 0.02155198 0.047502764 0.034240447 0.045130797
-0.004875789 -0.0036197926 -0.04321759 0.01648054 0.09586015 -0.017918859 -0.04449079 -0.011100611
-0.0065997215 0.03228028 -0.029469004 0.011149625 -0.073212825 -0.045054663 0.019972226 0.04020692
-0.038438097 -0.022240384 -0.014105386 -0.023820957 -0.032380026 -0.011681479 -0.034532364 -0.05074705
-0.03305499 0.02727372 -0.0125032505 0.043370336 -0.07755369 0.053021796 0.04451237 0.07282108
-0.004143918 -0.04679739 -0.02552086 -0.06466114 0.04564585 0.032896474 0.059230004 -0.018837927
0.008890983 0.027395835 0.06826671 0.08233598 -0.0043817605 0.011297843 -0.016808692 0.005668721
-0.019699376 -0.008972298 -0.028430756 0.058600668 -0.030010724 -0.03872606 -0.02879407 0.004191558
-0.044916146 0.058448665 0.06536008 0.00042338442 0.0640532 0.031960376 0.02704069 0.003998763
0.049978793 -0.042290166 -0.050626792 0.029019156 -0.031782202 -0.042529467 -0.044021208 -0.0100143375
-0.034718413 -0.027930982 -0.06598852 0.013432377 0.019328212 0.006180131 -0.013026591 -0.043977775
-0.044719316 0.04326926 0.035732683 -0.03560728 -0.07668844 0.019083776 -0.043018684 -0.0564227
-0.0024058602 -0.06311106 0.01455669 -0.0574178 0.04378773 -0.018068263 -0.0107931495 -0.022749964
