d2calcbot/main/calc_bot/dota_model_ver4.pth (torch, 426084 bytes, 21 tensors)

branch_t.fc1.weight f4 [128, 35]
000000 52 21 ea 3d de d3 d5 3d e7 dd 1b 3e a6 5f b0 bc
       0.114321366 0.10440801 0.15221368 -0.021529984
000010 94 27 f3 3d 60 c8 27 be 7e a2 f5 3d 6c a1 fb 3d
       0.11872783 -0.16385031 0.119938836 0.12286648
000020 c3 26 1a 3e 38 fa ed bd c9 8f 57 bd e6 c7 eb bd
       0.15053849 -0.11619991 -0.05262736 -0.11512737
000030 31 7e 2b be 29 f2 18 be 34 1e 02 be 52 9a d5 bd
       -0.16747357 -0.14936127 -0.12706834 -0.10429825
000040 59 78 4b 3d 76 e9 e3 3d 00 16 08 3e 85 a6 a2 bd
       0.04967532 0.111285135 0.13289642 -0.07941917
000050 19 53 27 3e 45 a6 1e 3e 09 5b de 3d 56 ff ff 3d
       0.16340293 0.15493114 0.10857207 0.12499873
000060 99 bc e9 3d d6 ab ce 3d c5 f0 80 3d 43 1b 8b bb
       0.11412925 0.10091369 0.06295923 -0.004245193
000070 5d b7 75 bd 6a 5c b6 3d 12 71 da bd 0f ac 8e bd
       -0.059989322 0.08904345 -0.10666098 -0.06966411
000080 7c 6b d8 bd 37 66 bc 3d d5 34 b4 bc 96 a9 d1 3d
       -0.10567376 0.091991834 -0.021997849 0.10237424
000090 85 88 85 bd 7d be bb bd ba e4 99 bc 04 a7 6c 3c
       -0.0652018 -0.09167192 -0.018785823 0.0144441165
0000a0 12 34 84 bd 16 5a 95 3d 8c d4 9d bd f9 45 41 3d
       -0.06455244 0.07292573 -0.07706556 0.04718587
0000b0 de c6 b9 3d b7 fb 5e bd 9c 00 83 bc 08 66 da bd
       0.09071134 -0.054439273 -0.015991502 -0.10663992
0000c0 9a b4 68 3d 44 c7 14 3c 8f 8d d0 bd 13 b4 f0 bc
       0.05681286 0.009080712 -0.1018325 -0.029382741
0000d0 a8 45 0d 3e 08 69 76 3d 80 27 23 bd 4c 54 ef 3d
       0.13796103 0.06015876 -0.039832592 0.11686
0000e0 90 e4 6c 3d aa 0b eb bc 3b b4 26 3e 06 ab c5 3b
       0.05783516 -0.028692085 0.1627969 0.0060323505
0000f0 26 0e 06 3e 66 a3 29 bd c0 ec fa bd 48 a9 ea bd
       0.13091335 -0.041415595 -0.12252188 -0.11458069
000100 0d 23 e2 3d 59 53 f3 3d 42 86 20 be c8 cd be bd
       0.11041842 0.11881132 -0.15676215 -0.093165934
000110 da 4f c4 3d 9c 7e 80 bd 71 af 15 3e 86 1d 0f be
       0.09585543 -0.06274149 0.14617707 -0.13976106
000120 39 c2 3c 3c 78 77 13 be 9a c6 c6 3d 6d 5c 23 3d
       0.011520916 -0.14401042 0.09705849 0.039883066
000130 fa 46 be bd c2 8c 53 3d bc 27 d0 bd 91 ec 97 bc
       -0.092908815 0.05164791 -0.10163829 -0.01854542
000140 7d 78 04 be d3 b7 11 3e 16 da c7 bd 7b 3d a6 3d
       -0.12936588 0.1423028 -0.097583935 0.08117195
000150 82 e6 0e 3e 8a de 23 3e 65 f8 4a bd f2 15 00 be
       0.13955119 0.1600286 -0.049553294 -0.12508371
000160 f1 54 15 3e 5d 77 22 be f2 68 7b bc fb 43 16 be
       0.14583184 -0.15865846 -0.015344845 -0.1467437
000170 b0 98 b0 3d b0 78 5d bd 98 3b 7e bd a0 02 b3 bd
       0.08622873 -0.054070175 -0.06206855 -0.08740735
000180 95 9a 0a be c2 c8 0b 3e 4c 2d d9 3c f2 0c fa 3d
       -0.13535531 0.13650802 0.026510857 0.122095
000190 c2 35 16 bd bf f4 35 3d e1 9a fd bd 1b 8d 06 be
       -0.03667236 0.04442286 -0.123830564 -0.13139765
0001a0 af e1 04 3e 96 30 a7 3d 19 5f b0 bd e3 75 14 3e
       0.12976716 0.08163564 -0.086118884 0.14498095
0001b0 49 e1 32 bd d9 27 8a 3c 62 cc bf 3d e6 88 23 be
       -0.04367188 0.016864704 0.09365155 -0.15970191
0001c0 e2 29 18 be 21 30 23 3e a7 67 bf 3d d6 8d a8 bc
       -0.14859727 0.15936328 0.09345942 -0.020575445
0001d0 1b 74 be bd 98 b4 4f 3d e6 f5 93 3c ba ab 0b 3d
       -0.09299489 0.050709337 0.01806159 0.034099318
0001e0 ba f1 a4 bd db f9 b7 bd 37 81 d6 bd 87 1c 3e bb
       -0.08053918 -0.08983203 -0.104738645 -0.0029008703
0001f0 d6 30 8e bc 64 fe 33 bc bb a1 9f 3c 79 c9 0d be
       -0.017357271 -0.010985944 0.019486299 -0.13846387
000200 bc 75 26 be db e5 25 3d 9f 3b fd bd 28 8f 20 be
       -0.1625585 0.04050241 -0.123648874 -0.1567961
000210 d3 45 66 bd 44 33 d8 3d 4b 62 fa bd bb 6f 7b 3d
       -0.056218933 0.10556653 -0.12225779 0.06138585
000220 4e 99 7d 3c c7 96 68 bd 37 d4 74 bd 66 b7 d6 bd
       0.015478445 -0.056784417 -0.059772696 -0.10484199
000230 34 aa d3 3d 64 e0 25 be 3e 04 54 bd a0 b3 27 3c
       0.10335198 -0.1619888 -0.05176186 0.010235697
000240 9b 5b 2b be 2e bf 79 3d 4b e3 4c bd 9e e7 09 be
       -0.16734163 0.06097334 -0.05002145 -0.13467261
000250 43 1c 82 3d b2 bd 22 3e ee fa c9 3d a8 9a 07 3e
       0.06353047 0.15892676 0.09862314 0.1324259
000260 bc b7 0b be f4 71 da bd a5 6b e0 bd 11 b4 10 be
       -0.13644308 -0.10666266 -0.109580316 -0.1413119
000270 85 ad 25 bc 62 a9 ec bd c0 0e 1b 3e cb 74 9d 3d
       -0.010112171 -0.11555745 0.15142345 0.07688292
000280 e7 64 24 3e 83 bb 1c be ce ed 51 3d 4f 18 c4 bd
       0.16054116 -0.15305905 0.05125218 -0.09574949
000290 c2 da e9 3d e2 39 b7 3d 51 93 62 3c 4f 38 1a 3e
       0.11418678 0.08946587 0.013829068 0.15060543
0002a0 29 b9 a0 3c 48 a5 06 be d1 37 79 bd 55 87 1e 3e
       0.019619541 -0.13148987 -0.060844246 0.15481313
0002b0 f3 05 da bd 56 08 dc 3a 35 c8 49 bc 39 01 1b 3d
       -0.10645666 0.0016787152 -0.0123157995 0.037842963
0002c0 a1 ee e0 3c 09 ae 4f 3d 67 da af bd e1 a7 ed 3d
       0.027457537 0.050703082 -0.08586579 0.11604286
0002d0 32 23 2a be 07 e4 04 3e 71 f7 17 be 59 be 24 3d
       -0.16614988 0.1297761 -0.14840485 0.040220592
0002e0 15 4b 54 bd b5 a4 22 3d b7 be 91 bd 83 77 ec 3c
       -0.051829416 0.039707858 -0.07116454 0.028865581
0002f0 0d 3e 72 bd 2d a5 c4 3d 27 65 07 be 0b 50 d3 3d
       -0.059141207 0.09601817 -0.1322218 0.10318001
000300 1e dd 25 be 77 c7 af 3d 15 9c 1f 3e fe 3f 18 be
       -0.16197631 0.08582967 0.15586884 -0.14868161
000310 17 70 0a be 1a f2 ac 3d 6d 7c 0e 3e 77 b3 01 3d
       -0.13519321 0.08444615 0.13914652 0.03166529
000320 04 48 10 3e 37 a4 a6 bd 72 95 16 be 9e d0 ad 3d
       0.14089972 -0.0813679 -0.14705446 0.08487056
000330 e2 6b 31 bb 97 9b 6f bd 01 89 4d 3d ac 7b 2b bd
       -0.002707236 -0.05849799 0.050179485 -0.04186599
000340 3f a6 a6 bc 11 36 07 3e 61 09 93 bd 71 e1 2c bd
       -0.020342944 0.13204218 -0.07179523 -0.042207185
000350 db dd e4 bd 31 eb 07 be 07 6b b5 3c 2b 5b 22 be
       -0.11175128 -0.13273312 0.022145761 -0.1585509
000360 95 9b dc 3c 1c 4b 1b be ef c2 c6 3d 7c 3b b2 bd
       0.026929656 -0.1516537 0.097051494 -0.08702752
000370 a9 a4 ec 3d f9 a6 f9 bd 95 55 2b be 71 28 bd bd
       0.11554844 -0.12190051 -0.16731866 -0.09236229
000380 30 f0 f2 bc dc 01 0f be e0 58 01 3e 43 6e 29 3e
       -0.029655546 -0.13965553 0.1263156 0.16545968
000390 ff 14 6f bd ef 71 fe 3b 2b e5 a4 bd 3c f3 39 3d
       -0.058369633 0.007765047 -0.08051523 0.045397982
0003a0 1c c3 8d 3d f3 8e a3 3d 99 73 a3 bb 71 c0 12 be
       0.0692198 0.0798625 -0.0049881455 -0.14331223
0003b0 e1 1b 48 3a 6a 0c f1 bc fd d1 b7 bd 03 b1 24 3e
       0.0007633549 -0.029424865 -0.08975599 0.1608315
0003c0 a9 ff a5 3d 29 03 bf 3d 4e 2d a5 3d b7 cb 43 bd
       0.08105404 0.093267746 0.08065282 -0.0478017
0003d0 b5 5e 07 be 74 ef 1d bd ca 24 e2 bd e1 1b 2c be
       -0.13219722 -0.03855844 -0.11042173 -0.1680751
0003e0 ba ae 4f 3d 1f 61 bf 3d 11 b7 16 bd 7f c1 64 3d
       0.05070374 0.09344696 -0.03679568 0.055848595
0003f0 93 b7 ce bb ff 37 f1 bd 07 8f 9e bd dc b6 60 bd
       -0.006308505 -0.117782585 -0.07742124 -0.05486189

branch_t.fc1.bias f4 [128]
000000 c3 5f 83 3d 2d 03 25 be 3f 6b 9a 3d d2 c2 85 3b
       0.064147495 -0.16114493 0.07539987 0.0040820623
000010 f4 c1 8d 3b 0d 5f d3 3b 85 bf 68 bd d1 bd a6 3b
       0.0043260995 0.00645054 -0.056823272 0.005088546
000020 7b 22 0c 3e 3f 35 bb 3b 13 37 05 3e 1d b8 0f 3e
       0.13685028 0.0057131345 0.1300929 0.14035077
000030 36 f6 fb bd df bb ee bd fd 66 82 3d 5c 00 7e 3c
       -0.123028204 -0.11656927 0.063673 0.015503015
000040 33 9b 50 3d b7 8a 95 3d 35 60 8c 3d b2 2e 8d bd
       0.05092926 0.073018484 0.068542875 -0.06893672
000050 9f 4e fd bd 9e 86 12 3e 0d d4 9a 3d 3e 78 cd bb
       -0.123685114 0.14309165 0.07559977 -0.0062704375
000060 7f 55 ae bc d4 0e dd 3c d1 11 02 3e eb 03 35 bd
       -0.021281002 0.02698461 0.12702109 -0.04419319
000070 3f b9 93 bd d1 66 f9 3d a0 a0 d3 3d 31 34 26 be
       -0.07213067 0.12177814 0.10333371 -0.16230847
000080 4a 7b 26 3e 31 4e fa 3d f6 f1 d4 3d 9c da d6 3d
       0.16257969 0.12221945 0.10397713 0.10490915
000090 f5 05 af 3d 9f 14 8a 3c 2a 2f 28 be e3 54 ba bd
       0.08546058 0.016855536 -0.16424242 -0.09098222
0000a0 51 a8 4b 3c 70 e2 da bd 13 91 9a bd c9 d9 1b be
       0.0124302665 -0.10687721 -0.07547202 -0.15219797
0000b0 7d 9c 00 3e 15 47 1d bc a7 a3 b9 3d 44 53 00 3e
       0.12559696 -0.009599467 0.09064417 0.12531763
0000c0 a9 ef 8e bb ef cd c9 bd bb 8b 8e bd dd 94 00 be
       -0.004362066 -0.09853732 -0.06960245 -0.12556787
0000d0 51 23 ec bc ee af e6 bd c0 4d ab 3d 86 8c b1 bd
       -0.028825434 -0.11264025 0.08364439 -0.08669381
0000e0 d6 ec 0b 3e c8 0e 2b be 3f 83 1a be b1 5f c0 3d
       0.13664564 -0.16704857 -0.15089129 0.09393252
0000f0 ad e0 e4 bc 27 af 28 bd fa b6 27 bd 0e ae da bd
       -0.027939165 -0.041182663 -0.040945984 -0.106777295
000100 39 d7 0c 3e 4a ee 22 be 25 33 09 3d 20 83 d1 bd
       0.13753976 -0.15911213 0.03349604 -0.10230088
000110 f1 4f 10 be f8 9a e1 3d 67 df 04 3e c7 44 20 be
       -0.14092995 0.11015886 0.12975846 -0.15651236
000120 24 12 1b 3e 6e eb 3b 3d 48 30 eb 3d 7b f5 01 3e
       0.15143639 0.04587882 0.11483818 0.126913
000130 d5 35 c8 bc d9 db bc bc 82 ef 1b be ea f8 69 bd
       -0.024439732 -0.02305405 -0.15228084 -0.05712215
000140 8d 98 65 3d c5 1c 36 bd 0c 46 e9 3d 4a ba c2 bd
       0.056053687 -0.04446103 0.113903135 -0.09508188
000150 05 94 37 bd fd 62 ce 3d 1c 07 ab 3c c4 52 ce bd
       -0.044818897 0.10077474 0.020877413 -0.1007438
000160 bc d3 10 3e 6c b8 9f 3c 1f 19 d2 3b 93 f4 84 bd
       0.1414327 0.019497119 0.006411686 -0.06491961
000170 6e 74 d1 3d d2 85 c6 bc 50 c0 6c bd 78 84 27 3e
       0.10227285 -0.024233732 -0.05780059 0.16359127
000180 ad 48 d2 bd 72 9e 18 be a2 53 df 3d bc 1a d3 bd
       -0.10267768 -0.14904192 0.109046236 -0.103078336
000190 31 9b be bd 1d d6 2b be 27 f9 b7 bd 9c 09 bc bd
       -0.09306944 -0.16780896 -0.08983069 -0.0918152
0001a0 b2 10 48 bd 23 0f a7 3d f0 77 97 bd 80 ba 59 3c
       -0.048844047 0.08157184 -0.07395923 0.013289094
0001b0 a5 c4 04 bb b6 9b 27 3e 4c b6 f2 bd 59 27 bb bd
       -0.002025881 0.16367993 -0.118511766 -0.09138364
0001c0 bc 59 0e be d5 08 60 bd 34 6a 05 3e ef ef e6 3d
       -0.13901418 -0.054695923 0.13028795 0.112762325
0001d0 2e 4b 81 bd a8 bd 2a be 12 c5 e2 bd c7 f3 f4 3d
       -0.063131675 -0.1667391 -0.110727444 0.11960559
0001e0 75 48 cf bc d3 3d d2 bd 1b dc 78 3c 15 9e c8 ba
       -0.025303105 -0.10265698 0.015189196 -0.0015305901
0001f0 0e dd fb bd c2 7b fc bd 37 42 01 3e 59 ee 9a 3d
       -0.12298022 -0.123282924 0.12622915 0.075649925

branch_t.fc2.weight f4 [64, 128]
000000 42 6f 32 3d 08 74 c1 3c f0 ba 1b 3c 4a 42 2a 3d
       0.043563135 0.023614898 0.009505019 0.041567124
000010 d4 ad 84 3c 50 7a 86 bd 0e ae ac bd c0 f4 72 bb
       0.016196169 -0.06566298 -0.08431636 -0.0037072152
000020 68 f3 ef 3c 18 dc 32 bc a0 b2 94 bd dd 60 a4 3d
       0.02929087 -0.010916732 -0.072606325 0.08026288
000030 75 38 9c 3d 98 36 04 3c 44 07 a1 bd 13 d5 8d 3d
       0.07627956 0.008069657 -0.07862714 0.06925406
000040 28 71 a8 bd 91 21 9a 3d 90 57 0c bc 78 1e 49 3c
       -0.08224708 0.075259335 -0.008565798 0.012275331
000050 ea cb 18 3d 33 68 8a 3d ac 0c f2 3c d5 0a 84 3d
       0.037303843 0.06758156 0.029547058 0.064473785
000060 3f 60 30 bd 60 20 0c bc 89 76 4b bd 2e 73 73 3d
       -0.043060537 -0.008552641 -0.04967359 0.059436016
000070 10 f9 8e bb b1 65 8a 3d 47 91 22 bd ed f5 82 bd
       -0.0043631867 0.06757677 -0.03968933 -0.06394563
000080 40 e3 f0 3b 93 4b 85 bd 92 b6 2d 3d a2 3d 6a 3d
       0.007351309 -0.06508555 0.04241044 0.057187684
000090 3d 0a a6 bd 2c fe 6e bd 63 ff a3 3d f5 76 33 bd
       -0.081074215 -0.058347866 0.080076955 -0.04381462
0000a0 e4 9d 87 bd 10 f2 9b bc b6 ca 2d 3d 96 77 a8 bd
       -0.06621912 -0.019036323 0.04242965 -0.08225934
0000b0 7e 31 38 bd 4c b9 92 3c a4 59 c4 3c c8 40 3a 3c
       -0.044969074 0.017910622 0.023968525 0.011367984
0000c0 47 77 96 bd 60 be 48 bb c1 fe 2b bd d0 30 8c bd
       -0.07346969 -0.003063105 -0.041991 -0.06845248
0000d0 e2 46 45 3d 45 63 91 3d f0 90 9c bb 2c 2a 92 bc
       0.048163302 0.07099012 -0.00477802 -0.017842375
0000e0 81 83 80 3d c4 34 83 bc d0 17 e8 3c e0 18 34 bc
       0.062750824 -0.016016372 0.028331667 -0.010992259
0000f0 b4 08 09 3d 41 b5 87 bd 80 2d 59 bb 4d 4f 1b bd
       0.033455566 -0.06626368 -0.0033138692 -0.037917424
000100 e3 14 a9 3d 7c f7 b5 3c 78 ff 9a bd 58 d5 8c bc
       0.08255937 0.022212736 -0.07568258 -0.017191574
000110 7e db 16 3d 32 0a 78 3d 00 cc ec 3b 15 f3 a8 3d
       0.036830418 0.060556598 0.007226467 0.08249489
000120 b3 19 80 bd 08 c4 00 bc 67 a3 36 bd 18 12 5e bc
       -0.06254902 -0.0078592375 -0.044589426 -0.013554119
000130 a2 54 5c 3d 6b de 59 bd 79 55 a0 3d 59 f0 96 3d
       0.05379165 -0.05319063 0.078288026 0.073700614
000140 49 d3 82 3d f0 de df bc ff 79 5d bd 60 38 d1 bc
       0.06387956 -0.027327985 -0.054071423 -0.025539577
000150 10 dc ed 3c 2c d0 94 bc 80 2c f1 bc 41 d4 11 bd
       0.029035598 -0.01816567 -0.029440165 -0.03560281
000160 80 9a 3f bc b6 b5 a1 bd e0 a5 c9 bb 36 5a fe bc
       -0.0116945505 -0.07895987 -0.006153807 -0.031048875
000170 2a 5e 2c 3d b4 c5 d1 3c 7c 85 2b bd e0 81 6c bd
       0.04208199 0.025606968 -0.041875347 -0.057741046
000180 7a 5f 2d 3d e3 0a 54 bd 3a 2e a1 bd 37 5e a1 bd
       0.04232738 -0.051768195 -0.07870145 -0.07879298
000190 63 4a 85 bd 98 cb 7c bc c8 ee a5 3c 35 fc 8d 3d
       -0.06508329 -0.0154294 0.020255461 0.0693287
0001a0 00 15 99 3b a8 09 00 bc c4 7b ce 3c a9 5f 7e bd
       0.004671693 -0.007814802 0.0252055 -0.062102947
0001b0 65 d2 12 bd 20 2a 9d bc d0 64 69 3c 80 bd 1d 3c
       -0.03584518 -0.019185126 0.014245227 0.0096277
0001c0 84 3d b2 bd 2c 3e f2 3c f2 15 fc bc a0 c1 3a 3c
       -0.087031394 0.029570661 -0.030772183 0.011398703
0001d0 ae 97 36 3d 10 f9 56 bc 73 72 40 bd 24 cb 6f bd
       0.044578247 -0.013120905 -0.046984147 -0.05854334
0001e0 94 55 f1 bc e0 45 4a 3c 03 87 b4 bd 9c 63 ad bd
       -0.029459752 0.012345761 -0.08814814 -0.084662646
0001f0 33 66 78 bd 7a 19 48 3d fc da c0 bc 20 d1 16 bb
       -0.06064434 0.04885242 -0.02354192 -0.0023012832
000200 09 cb 54 bd df 42 a3 3c 30 5e f0 3c bd 89 87 bd
       -0.051951442 0.019929348 0.029341787 -0.06618068
000210 fe 2a 1c 3d 09 3e 9e 3d ab 9e 5e bb cc af 20 bd
       0.038126938 0.07726676 -0.0033969085 -0.039230153
000220 79 f3 2f bd fa 2c a0 bd e1 5e 2d 3d 45 7c 4e 3d
       -0.042956803 -0.078210786 0.04232681 0.05041148
000230 95 93 f0 3b e1 76 66 bd 4e 87 42 3d cd 81 85 3d
       0.007341812 -0.056265716 0.047492318 0.06518898
000240 54 3d 28 bc f0 e3 0f 3d 0f aa 74 3a b4 4c a3 3d
       -0.010268528 0.035129488 0.0009333202 0.07973614
000250 6a dc 13 bd de f2 8f 3d af c0 e2 3c 22 ef af 3c
       -0.036098875 0.07028745 0.02767977 0.021476332
000260 82 fd 8d 3d e5 c2 12 3d cf 16 4e bd 4f 3a 1c 3b
       0.069331184 0.035830397 -0.05031472 0.0023838466
000270 6e 9f 89 bc fa 6c 87 bd a7 ec e8 bc 8d f8 0a 3d
       -0.016799655 -0.066125825 -0.028433157 0.033928443
000280 22 ba 07 3c 4b 57 16 3d 88 8d 93 3d a8 dd 5f bc
       0.008284124 0.036704343 0.07204729 -0.013663687
000290 01 c6 81 3d d1 e7 87 3d fe 83 16 bd da b8 44 bd
       0.063365944 0.06636012 -0.03674697 -0.04802785
0002a0 32 f2 e2 bc bb c4 55 3c 82 63 81 bc b4 ad 7f 3d
       -0.027703378 0.0130473925 -0.01579452 0.062421516
0002b0 eb bd aa 3d 34 ef 97 3c 99 ff 60 bd 0c 08 85 bd
       0.08337005 0.018546678 -0.054931257 -0.064956754
0002c0 89 28 45 3c 66 8d 97 3d cd 9c 80 3d e7 86 9a 3d
       0.01203359 0.074000165 0.062799074 0.07545262
0002d0 05 5a 8c 3c bf 31 70 bd b5 c3 d1 3c f5 48 21 bd
       0.017132768 -0.05864119 0.025606016 -0.039376218
0002e0 fb da af 3b 4d cb 9f 3d c3 98 1c bd 77 c6 4e bd
       0.0053666807 0.078024484 -0.038231622 -0.05048224
0002f0 7a 2e 98 bd 11 ef 8e 3b 67 55 0e 3d a3 22 0c bd
       -0.0743074 0.004361995 0.034749415 -0.03421272
000300 8a de 17 bc a8 df c3 bb 8b 47 b4 bd c1 95 9c 3d
       -0.009269366 -0.0059775896 -0.08802708 0.07645751
000310 32 97 13 3d f1 4d d7 3c 81 be 8c bd 12 72 4f bb
       0.036032863 0.026282283 -0.06872273 -0.0031653685
000320 50 9c 2e 3d f3 b7 23 3d 12 c8 df 3b fb d6 68 bd
       0.04262954 0.03997035 0.00682927 -0.056845646
000330 6b 43 e3 3c d3 f5 90 bc 2a 22 5f 3d 05 46 72 bc
       0.027742108 -0.017695343 0.05447594 -0.014787202
000340 44 2a 11 bc 0d 7e e1 3c 1d 85 ce 3c 2c fa 9f bd
       -0.008860175 0.027525926 0.025209958 -0.078113884
000350 e4 13 b5 bd 16 1b 80 3d a3 67 a5 3d 51 b7 ae 3d
       -0.088416845 0.06255166 0.08076408 0.085310586
000360 c4 78 33 3c a0 b3 08 3d 79 de a9 bd 92 19 33 3c
       0.010954086 0.03337443 -0.082943864 0.010931389
000370 c5 40 14 3d d4 bf 86 3c f2 e5 90 3d 1d c6 06 3d
       0.03619458 0.016448893 0.070751086 0.03290378
000380 42 06 3d 3d b0 16 0e bd bd ce 9f bd 06 1b cd bc
       0.046148546 -0.034689605 -0.07803104 -0.0250373
000390 b0 8d 5e 3d ee fe 7f 3c 85 b9 16 3d dd 88 0a 3d
       0.054334342 0.015624745 0.03679802 0.03382193
0003a0 51 30 b1 bd 9d bd a7 bd 50 5c 8c 3d fb 94 60 3d
       -0.08651794 -0.08190463 0.06853545 0.05482958
0003b0 d4 bf 87 3d 8b 03 6f bd 55 21 93 3c 4e ed a3 bd
       0.06628385 -0.05835299 0.01796023 -0.08004247
0003c0 4b 63 19 3d c8 a7 78 bd 13 1e 0d 3c e7 21 3d 3d
       0.03744821 -0.060706884 0.008613127 0.04617491
0003d0 bf 19 2f bd 44 61 9b 3c 50 cb 40 bd 24 1c 99 bd
       -0.042749163 0.018967278 -0.047068894 -0.074760705
0003e0 ff ad 9f 3c 49 0d 53 bd 35 e3 6e 3d f3 bf af bd
       0.019492147 -0.05152634 0.05832215 -0.08581533
0003f0 c3 2c 9e bc e9 d9 41 3d 4a 6d 18 bc 23 b1 86 3c
       -0.019308453 0.047326956 -0.0093034 0.016441887

branch_t.fc2.bias f4 [64]
000000 c0 8f 83 bb e4 74 7f bd ce fb 14 3d e3 9b 06 bd
       -0.004014939 -0.062367335 0.036372952 -0.03286351
000010 54 08 85 3d e0 31 81 bb f8 9b 06 3c 3c 00 d4 3c
       0.06495729 -0.003942713 0.008215897 0.025879018
000020 a2 de 82 bd 34 ee 82 bb a0 17 47 bc f3 92 a9 3d
       -0.0639012 -0.003995681 -0.012151629 0.082799815
000030 5e bf 8f bd 05 0c 8d 3d 86 8a 30 3d 65 f3 5c bd
       -0.07018922 0.06887058 0.043100856 -0.053943057
000040 91 80 af 3d 67 11 67 bb 62 b1 aa 3d 92 fb a9 3d
       0.08569444 -0.0035258175 0.08334614 0.08299936
000050 ed db fe bc 54 6e 97 3c 10 ac e3 bb c4 48 46 3d
       -0.031110728 0.018485226 -0.0069480017 0.04840924
000060 ab 81 d1 3c 24 bd 9e 3c 42 1a 38 bd 0a 16 3a bd
       0.025574526 0.019377299 -0.044946916 -0.045431174
000070 a2 bf 0d bc ca 84 2c 3d 50 e5 23 bd dd fe 8d 3d
       -0.008651646 0.042118825 -0.04001361 0.06933377
000080 cd be b9 3c af d4 9d bc b4 c7 83 3c 71 d3 54 bc
       0.022673989 -0.019266455 0.016086437 -0.012989865
000090 a6 8a af bd e6 41 e9 bc e4 9c 35 3c 05 23 5e bd
       -0.08571367 -0.028473806 0.011084769 -0.054232616
0000a0 ae c4 85 3c f3 ef 8e 3d 5f aa dd 3a a6 f3 7f bc
       0.016329136 0.069793604 0.0016911736 -0.015622055
0000b0 4b 2c 9f 3d 8f 48 15 bc 7d 97 0e 3d a3 fc 00 bd
       0.0777212 -0.009111538 0.03481244 -0.031490933
0000c0 69 98 99 3d 69 b9 77 bd e1 b0 37 3d 81 4f ab 3d
       0.07499773 -0.060479555 0.04484642 0.083647735
0000d0 d6 92 91 3d dd 88 96 3d f7 9c ac bd d4 07 ae 3d
       0.07108085 0.07350323 -0.08428376 0.08497587
0000e0 9e d3 ed bc ce e7 48 3c 8a 87 02 3d 87 d8 64 3c
       -0.029031571 0.012262298 0.03186754 0.01396764
0000f0 1e 79 a8 bd f7 6b 30 bd 2f b6 8b 3d 20 44 a9 bd
       -0.08226226 -0.043071713 0.06821858 -0.08264947

branch_t.fc3.weight f4 [16, 64]
000000 d4 dd e0 3d c8 2d b8 bc 00 6a fb b9 ac b4 4c 3d
       0.1097981 -0.022482768 -0.00047953427 0.04997699
000010 38 51 30 bd ac 95 e6 bd 90 43 f5 bd 78 2f bc bc
       -0.043046206 -0.112590164 -0.11975777 -0.022971854
000020 60 41 67 bc 22 77 bf bd 90 df 38 bd 64 64 f6 bd
       -0.014114708 -0.09348895 -0.04513508 -0.12030867
000030 c0 76 e9 bc b4 a2 1b 3d 0c 2b 7d bd 74 30 2e bd
       -0.028499007 0.037996963 -0.06180863 -0.042526677
000040 1a 0b d1 3d 20 0c 1b 3c 98 f6 f6 3c 52 8b b1 bd
       0.102071956 0.00946334 0.030146882 -0.08669151
000050 a0 ee ee bd 68 79 fe 3c 9e d3 fe bd 00 e5 d8 3b
       -0.11666608 0.03106375 -0.124427065 0.006619096
000060 b8 92 78 3d be 37 ed bd 5c 83 ae 3d 92 cc d5 3d
       0.060686797 -0.115828976 0.085211486 0.10439409
000070 84 79 2f 3d 60 6d fe 3c d4 5e 40 bd e0 1d 31 3d
       0.042840496 0.031058013 -0.046965435 0.04324138
000080 66 a2 80 3d 2e 25 fa 3d 7a 60 ae 3d 0e 62 a5 bd
       0.06280975 0.12214123 0.08514495 -0.08075343
000090 b0 47 b1 bc ec 44 1a 3d 76 57 e2 3d ac 6f 4b bd
       -0.021640629 0.037663385 0.11051838 -0.049667045
0000a0 60 17 d9 bd a8 55 ad bd 18 1f 9e bd ec 4b ea bd
       -0.106001616 -0.08463603 -0.077207744 -0.11440262
0000b0 70 c5 21 3d 00 ef 2f ba 50 33 a9 bc fc ed c2 3d
       0.03949493 -0.0006711334 -0.02065435 0.09518048
0000c0 dc 22 79 3d dc 0e 18 bd ac 4f 7e bd 4c 05 34 bd
       0.06082426 -0.037123546 -0.0620877 -0.043950364
0000d0 88 e3 a6 3c ec 21 78 3d a0 4c 04 3c f0 11 5f 3d
       0.020372167 0.060579225 0.008074909 0.054460466
0000e0 0e c9 e3 bd d6 2b ea bd 52 c2 92 bd 56 e5 c7 3d
       -0.111223325 -0.11434142 -0.0716597 0.09760539
0000f0 aa 6b f6 bd 7e 14 8f 3d b8 51 f3 3c 00 87 5b ba
       -0.12032254 0.069863304 0.029702052 -0.00083743036
000100 40 67 14 3b a0 59 f3 bb 80 84 f3 3b 36 1a 85 3d
       0.002264455 -0.0074264556 0.0074315667 0.0649914
000110 f0 a0 cb bd 24 6e b5 bd 10 1d 0e bc 44 10 2a 3d
       -0.09942806 -0.08858898 -0.008673921 0.04151942
000120 58 8e e9 bc b8 f2 ca bd 24 1f 65 bd 00 dd 4e bc
       -0.028510258 -0.09909576 -0.0559379 -0.012625933
000130 be e8 8a 3d 5e 3b c4 3d a8 06 b2 3c 0e 79 f0 bd
       0.06782673 0.09581636 0.02173169 -0.11741839
000140 aa ea 9a bd 00 2c bb bb cc 34 71 bd be 4c ba 3d
       -0.0756429 -0.0057120323 -0.05888824 0.09096669
000150 a0 a1 6a 3c f0 5a ae bc ae 9b f9 3d 64 1e ae bd
       0.014320761 -0.021283597 0.12187897 -0.0850189
000160 a4 db 9e bd 0c 6e 2c bd 10 33 6f bd 9c e6 ca bd
       -0.07756737 -0.042097136 -0.058398306 -0.099072665
000170 60 5f f6 3b c4 e3 a7 bd dc 07 91 bd 28 d1 e8 3c
       0.007518694 -0.0819774 -0.07081577 0.028420046
000180 6c 8b 44 bd b0 b7 35 3d 38 70 fc 3c b4 3a 52 bd
       -0.047984526 0.04436463 0.030815229 -0.051325515
000190 06 75 97 3d fa 7f d8 3d 14 7b 39 3d 20 2b 10 3d
       0.07395367 0.105712846 0.045283392 0.035197377
0001a0 5e ce e0 bd 18 4d 41 3d 90 eb fa 3c 00 ed e5 bd
       -0.109768614 0.047192663 0.030629903 -0.11226845
0001b0 40 12 51 3c 24 40 e4 3d c0 e7 f9 3b 9c 8e 18 3d
       0.012760699 0.11145046 0.0076265037 0.037245378
0001c0 00 3e d3 ba 88 de 7d bd 9c 1f 0f 3d b8 00 3c bd
       -0.00161165 -0.0619798 0.034942254 -0.045899123
0001d0 a0 6e c7 bb d0 a9 c4 bc c4 58 01 3d 60 51 ee 3c
       -0.0060861856 -0.024006754 0.031578794 0.029091537
0001e0 fc d6 93 bd b8 0b 1d bd c8 04 55 bd be 56 90 3d
       -0.072187394 -0.038341254 -0.052006513 0.07047795
0001f0 aa a4 86 3d 08 1e 43 bd 14 05 ee bd 40 64 48 3b
       0.06574376 -0.047636062 -0.11622062 0.0030577332
000200 9a b2 de bd 3c 78 3d 3d 00 8f e6 3d bf 5e d7 bd
       -0.10873909 0.046257243 0.11257744 -0.10516118
000210 41 a1 60 3d e0 61 50 bc c2 8f d0 bd dc 53 2c bd
       0.054841284 -0.012718648 -0.101836696 -0.042072162
000220 44 d7 58 bd 25 b0 9b 3d c2 a1 a2 3d 88 39 8f bd
       -0.05293967 0.07601956 0.07941009 -0.06993395
000230 de b0 c4 bd a4 82 f3 b9 ee 2b b9 bd 81 6e 53 bc
       -0.09604047 -0.00046445907 -0.09041582 -0.012904764
000240 88 0f ae bc b6 f1 a2 3d 45 aa 87 bd 99 df 03 bd
       -0.02124764 0.07956259 -0.06624273 -0.03219566
000250 9f b3 af bc 0f ca d9 bd 40 f9 30 bb 1b 02 f5 bb
       -0.021447955 -0.10634243 -0.0027004033 -0.0074770576
000260 e3 13 45 3d eb 30 be 3c 4b a7 39 bc 48 eb c1 bc
       0.04811467 0.023216685 -0.01133139 -0.023671761
000270 63 ff 8f 3d fe 38 94 3d 42 f2 ea 3c 4e 03 e8 bd
       0.07031133 0.07237433 0.02867997 -0.11328755
000280 39 9b ba bc a7 e3 9a bd e0 de 3c 3d 46 a7 d1 bc
       -0.022779094 -0.075629525 0.046110988 -0.025592458
000290 1f 83 75 bd f5 f3 18 3d 7e 4d 4f 3d 52 04 e7 bd
       -0.0599395 0.03734203 0.05061101 -0.11280121
0002a0 57 3d 1a bd c4 c4 c7 bd 00 8b e3 3d f7 23 11 bc
       -0.037656154 -0.09754327 0.111104965 -0.008858672
0002b0 33 cb 57 bd 64 24 4e 3d 30 f3 03 3c b8 03 ac bd
       -0.05268402 0.050327674 0.008053586 -0.08399147
0002c0 34 ca 5c 3d ca 8e dd 3d 9f e9 ed bc 89 46 cd bc
       0.053903773 0.108182505 -0.029042063 -0.025058048
0002d0 84 01 31 bc 16 7f 41 bc 30 04 55 3c b4 8c 07 bc
       -0.010803584 -0.011810085 0.013001487 -0.008273292
0002e0 e0 fe cf bb 93 2e 72 3d 03 df 9d 3d ec 7e 12 bd
       -0.006347522 0.059126448 0.07708552 -0.035765573
0002f0 14 9e 7f 3d c0 d1 80 bc 74 6f 0a bd e1 8b e4 3d
       0.062406614 -0.015725017 -0.033797696 0.11159492
000300 9a bd bf bd a7 25 8f ba 80 ca 5b bd bc 2e 3b bc
       -0.093623355 -0.0010921255 -0.053659916 -0.011424717
000310 30 78 5f 3d 6e 6d 8d bd fa eb fa 3d f4 6c a4 3d
       0.05455798 -0.06905638 0.1225204 0.08028594
000320 4b af c9 3d f0 74 f9 3d e5 ee 08 bd d0 5f 74 3c
       0.098478876 0.12180507 -0.033430953 0.014915422
000330 c6 b3 eb 3d d1 4f 06 3d 50 45 4e 3c 41 67 3b 3d
       0.115088984 0.032790963 0.012589768 0.045752767
000340 44 c2 0b 3d 20 64 61 bc 5c 31 02 3d 21 59 9c 3d
       0.034120813 -0.013756782 0.031785354 0.076341875
000350 ba 3d 1d 3d fc d5 fe 3d 62 22 f0 bd 2d 18 4d bd
       0.038388945 0.12443158 -0.11725308 -0.050071884
000360 c6 3b b1 3c ed e0 b5 3d b8 d5 fe bd 30 7f 37 bc
       0.021634948 0.08880792 -0.12443107 -0.011199757
000370 b4 74 a0 3d 05 dc 59 bd f2 e1 82 3d 6b d3 c4 3b
       0.07834759 -0.053188343 0.06390752 0.0060066483
000380 aa 85 cf 3d dd 50 c5 3d 14 ef 15 3d 7f 02 35 3b
       0.10132916 0.09634564 0.036604956 0.0027619896
000390 42 3d 01 39 75 2c d2 bd e1 a8 94 bd 20 0f 13 3c
       0.00012325219 -0.10262386 -0.072587736 0.008975774
0003a0 0b 18 de 3d 60 5f c0 bc 5e 98 b9 3d a9 55 a3 bd
       0.108444296 -0.023482978 0.09062265 -0.07975323
0003b0 9c 86 98 3d 20 41 af bc fa d6 c5 bd 2a 12 1b bd
       0.0744755 -0.021393359 -0.09660144 -0.03785912
0003c0 ec 7a 36 3d ba 76 e6 3d d0 9f ce bd cf 49 94 bd
       0.04455082 0.11253114 -0.100890756 -0.0724064
0003d0 61 7a 88 bd 5f 0d aa bd 04 0f 76 bd 93 7a fa 3d
       -0.06663967 -0.083033316 -0.060072914 0.122304104
0003e0 c0 03 15 3c 1d 73 e5 bb ec 19 e0 3d 54 26 d0 3d
       0.009095132 -0.007002248 0.10942444 0.101635605
0003f0 a0 71 3c bd b1 55 db 3d d0 04 77 bc 98 fc e4 bd
       -0.0460068 0.10709704 -0.015076831 -0.11180991

branch_t.fc3.bias f4 [16]
000000 56 66 e7 bd 80 51 cd 3c 0a 1d c7 3d b5 3b a7 bd
       -0.11298816 0.025063276 0.09722336 -0.08165685
000010 10 45 87 bc 40 17 6d 3d ae b6 94 3d 59 8b 95 3d
       -0.016512424 0.0578835 0.07261406 0.07301969
000020 a0 ca 74 bc d9 46 ae bc 3a e3 9c 3c 6d 2c 9e bd
       -0.014940888 -0.021274017 0.019151319 -0.07723317
000030 34 28 84 bd c0 84 5d 3b 54 73 af 3d 83 84 62 3c
       -0.06452981 0.003380105 0.08566919 0.013825539

branch_p.fc1.weight f4 [256, 34]
000000 9e de 7a bd 42 76 33 bd 08 51 3b bd 3c 17 aa bc
       -0.06124746 -0.04381395 -0.045731574 -0.020763032
000010 28 06 06 be e2 a8 88 bd ff 80 02 3e 55 18 27 be
       -0.13088286 -0.06672837 0.1274452 -0.16317876
000020 05 00 00 3e 35 22 11 be 07 d9 d7 3d d1 ff b2 bd
       0.12500007 -0.14173205 0.105394416 -0.08740199
000030 03 61 7a bd 52 47 1f be 98 ce 85 bd ee ee 9f b9
       -0.061127674 -0.1555455 -0.06533545 -0.0003050486
000040 eb 27 06 be 13 c4 14 be 00 b2 14 3e db b7 f3 3d
       -0.13101165 -0.14527921 0.14521027 0.11900302
000050 e5 b8 2a bd 9e 2b 15 3e 52 d3 b6 bd f0 e4 d4 bd
       -0.041680235 0.1456742 -0.08927025 -0.10395229
000060 bc af 47 bd 73 46 1f be 03 c4 e6 bd 7a c6 2a 3e
       -0.048751578 -0.15554218 -0.11267855 0.16677275
000070 63 75 ea 3d 3d 7d e0 bc d9 65 e7 3c 17 c0 08 be
       0.11448171 -0.027403468 0.028246807 -0.13354526
000080 1d 45 04 3e 36 5e 8b bd 53 f9 b9 3d 43 da 92 bd
       0.1291699 -0.06805079 0.09080758 -0.07170536
000090 e2 ec 1a 3e aa 69 24 be b1 a5 3f bd 56 49 c1 bd
       0.15129426 -0.16055933 -0.046788875 -0.09437816
0000a0 2e 05 fe ba 2d b6 0a be 5d b4 1e be c8 54 7a 3d
       -0.0019380206 -0.13546057 -0.1549849 0.06111601
0000b0 81 93 06 3e 73 55 e2 3d 41 e3 b0 bd fc d4 bb 3d
       0.13142206 0.110514544 -0.08637095 0.09171483
0000c0 09 3f 02 3e a9 c4 29 be be c1 db bd 70 77 d2 bd
       0.12719359 -0.16578926 -0.10730313 -0.10276687
0000d0 8f 6b 0b be 86 7a a6 bd db d2 96 bd 62 af 78 3d
       -0.13615249 -0.08128838 -0.07364436 0.060714133
0000e0 f6 08 67 3c 7d ed fa bd 15 94 f3 bd 97 cb a2 bd
       0.014101258 -0.122523285 -0.11893479 -0.07948988
0000f0 20 25 0d 3e b7 59 03 3e 5d af b1 3d 43 68 19 3e
       0.13783693 0.12827192 0.08676026 0.14981179
000100 01 6a 90 bd 87 d5 38 3d 9b 61 bc 3c 4b 50 ff 3d
       -0.07051469 0.04512551 0.02299576 0.124664865
000110 19 09 22 3e 77 77 23 be 59 0c 17 3c 45 ab 25 3e
       0.15823783 -0.15963541 0.0092192525 0.16178615
000120 67 3e 55 3d 9e d6 1c be 9b a1 ce 3d cb 3f ce 3d
       0.052061465 -0.15316245 0.100894175 0.10070761
000130 ca 06 14 3e f7 9b 4c bd c4 7b 27 be 01 0a d7 bd
       0.14455715 -0.049953427 -0.16355807 -0.10499955
000140 9d f1 4f bd 1d 37 a2 3a b8 b7 4c bd a6 3e 1b 3e
       -0.05076753 0.0012376044 -0.049979895 0.15160617
000150 1b 93 9d 3d d0 49 c3 3d 95 25 0f 3e 72 0b 46 bc
       0.07694074 0.09535563 0.1397918 -0.01208769
000160 63 c0 01 3e 28 7c ab bd 44 6a d0 bd bf 80 cc bc
       0.12671046 -0.0837329 -0.101765186 -0.024963735
000170 ac f2 33 bd f3 11 c2 bd 41 73 fb bd 1e 05 9e bd
       -0.0439326 -0.0947608 -0.12277842 -0.0771582
000180 88 51 fc bc d7 5c 2f 3a 21 b7 8a bd e2 8b f1 bc
       -0.030800596 0.00066895544 -0.0677321 -0.029485647
000190 16 51 e9 bd 20 75 87 3d 05 67 0c 3d 5a f1 6d bc
       -0.11392419 0.06614137 0.034277935 -0.014522875
0001a0 24 6e 0b bd 06 c4 f3 3b 43 cc fe 3d d1 c2 e5 3a
       -0.034040585 0.0074391393 0.124413036 0.0017529373
0001b0 c2 de c4 3c 8e 34 1c bc 28 27 6a bd 5e 3f d0 3d
       0.024032 -0.009534014 -0.05716625 0.10168336
0001c0 7e e5 cf 3d 6d 5b 5d 3d c2 c6 13 bd 8c 8c 40 bd
       0.10151194 0.05404227 -0.036078222 -0.047009036
0001d0 a7 87 04 3e 54 db b8 bc c1 9c 1e 3e 76 de 8f 3c
       0.12942372 -0.022565521 0.15489484 0.017562132
0001e0 6c 6b a3 bd b4 cb 13 3c 52 c2 0b 3e 0c 3d 9c 3c
       -0.079794735 0.009020735 0.13648346 0.019072078
0001f0 0a e9 c2 3d ce 8c 0a 3d 37 4d d7 3d 17 64 1b 3c
       0.09517105 0.033825688 0.105127744 0.0094843125
000200 0c 9c 92 bd 68 f5 a7 bd 28 f9 54 3d ca 04 90 bd
       -0.0715867 -0.082011044 0.051995426 -0.070321634
000210 01 8b 01 3e 41 c5 b9 ba c6 a4 0f 3e cd 42 0c be
       0.12650682 -0.0014173166 0.140277 -0.13697357
000220 d2 3d 0f 3e 62 51 e2 bd 09 f8 4c 3d 23 63 d0 bd
       0.13988426 -0.11050679 0.050041232 -0.10175159
000230 fa 66 9d bd 68 90 02 be 22 69 ed bd 9d 35 64 3d
       -0.07685657 -0.12750399 -0.11592318 0.055715192
000240 5a 96 2b 3e 08 c4 1c 3e 6d 71 7c 3d 3d 79 ea bd
       0.16756573 0.15309155 0.06163161 -0.114489056
000250 00 d6 68 bb a5 7b d8 bd 37 8e df bd 2f 03 0e be
       -0.0035527945 -0.10570458 -0.10915797 -0.13868402
000260 aa 4f 67 bc af ab 1a be 6a 02 d6 3b bf ac 2c be
       -0.0141181145 -0.15104555 0.0065310495 -0.16862772
000270 96 95 f1 3d 5b 91 0d 3d bc 4a 9d 3d 13 01 d7 3d
       0.117961094 0.03456245 0.0768027 0.10498252
000280 2c d2 07 3e a4 9f 21 bc 4a 29 5b 3d 42 97 0f 3e
       0.13263768 -0.009864721 0.053506173 0.14022544
000290 8a a5 17 3d 30 bf 23 be 8d 4b 71 3d 18 2a 9e 3d
       0.037023105 -0.15990901 0.05890994 0.077228725
0002a0 4e 53 ab 3d 63 3d 0e be dd ad 00 3e 10 6f 2b 3e
       0.083654985 -0.13890605 0.12566324 0.16741586
0002b0 45 18 97 3d 4f 06 11 3e 98 33 2b bd 9e 6b 21 be
       0.07377676 0.14162563 -0.04179725 -0.15763709
0002c0 9b ea de 3d c6 31 80 bd b5 7f 82 bd 43 ae e2 bd
       0.10884591 -0.062594935 -0.063720144 -0.11068394
0002d0 94 07 0c 3d 6f ed 64 bc 15 9c 14 bd c7 aa ad 3d
       0.034186915 -0.013972624 -0.036281664 0.08479839
0002e0 ed 99 18 be 90 57 ed 3d bc e2 ff bd 09 24 0e be
       -0.14902468 0.11588967 -0.12494418 -0.13880934
0002f0 fe d7 68 bd 42 32 20 3d 04 10 7b 3d 50 50 23 be
       -0.05684661 0.03911043 0.06129457 -0.15948606
000300 43 6c c2 bb e1 b1 e4 bd b8 41 0b 3e f8 f0 26 3e
       -0.005933316 -0.1116674 0.13599288 0.1630286
000310 c7 bc b0 3d 2e 06 96 bc 8b ad 16 3e cd e8 00 3e
       0.086297564 -0.018313494 0.14714639 0.12588806
000320 53 17 74 bc 76 a7 02 3e 09 28 2a 3d a5 52 ac 3d
       -0.014898139 0.12759194 0.041542087 0.08414201
000330 b4 49 31 3c 3c 68 e4 3d b6 18 01 be 6b d5 e5 bd
       0.010820795 0.11152694 -0.12607083 -0.11222347
000340 1c 4e 37 3d 18 6f c7 bc bb 4f ea 3c bd 4c af bd
       0.044752225 -0.024344966 0.028602472 -0.085595585
000350 37 bd 20 3d 8a 09 bb 3d 15 d5 cc 3d 08 64 e0 bd
       0.03924295 0.09132679 0.1000158 -0.109565794
000360 ff b5 bb 3c d7 9c bf 3d f6 6d b7 3d c1 25 69 3d
       0.022913931 0.09356087 0.0895652 0.05692077
000370 c5 cf a8 bd 2b b8 10 be 9b b9 95 3d bf 37 6b bd
       -0.08242754 -0.14132755 0.07310792 -0.05742621
000380 f1 d1 16 be 72 ad 50 bd 17 cb dc 3d 60 12 50 3d
       -0.14728524 -0.05094666 0.10780924 0.050798774
000390 a1 1d a0 3d f2 9c 22 be 6d 90 06 bd 07 4b 0f 3c
       0.07818151 -0.15880182 -0.03285258 0.008745915
0003a0 79 d1 fd bd 61 70 ea bd 27 6a a4 3d d8 82 51 bc
       -0.12393469 -0.11447216 0.080280595 -0.012787543
0003b0 5f 30 ec 3d 34 8b 1b be d5 01 ac 3c bc 06 e0 bd
       0.115326636 -0.1518982 0.020996967 -0.109387845
0003c0 56 df 41 3c 08 28 b5 3d 59 3b d5 bc 04 6d 83 3c
       0.011833033 0.08845526 -0.026029276 0.016043194
0003d0 67 11 0a be ad e8 1a bd 4f 32 bf bd 34 dd 92 3c
       -0.13483201 -0.037819553 -0.093357675 0.017927743
0003e0 43 c2 ad bc 5a 24 c9 bd 8d 2d 2d 3e be 37 ab bb
       -0.021210795 -0.09821387 0.16911907 -0.005225151
0003f0 2e e4 13 be ed bf 22 be 5e ea 07 3e 26 09 63 ba
       -0.14442512 -0.15893526 0.13272998 -0.0008660726

branch_p.fc1.bias f4 [256]
000000 e4 02 ac bd b2 9a 09 3e a5 36 07 be 8f 21 1a 3e
       -0.08398989 0.13437918 -0.13204439 0.15051864
000010 74 e3 90 3d 48 b4 be bd ee 4b 08 be 26 02 cd 3c
       0.07074633 -0.0931173 -0.13310215 0.025025439
000020 a4 9f 25 be 76 17 17 be 46 d5 12 3e 16 62 bd 3d
       -0.1617418 -0.14755043 0.1433917 0.09247224
000030 6c 01 22 3c f9 d4 24 3d 1c 5d 14 be 29 d8 cb 3d
       0.009888034 0.04024217 -0.14488643 0.09953339
000040 1a d0 08 3d 60 a1 8b 3d 2f 6c 12 be 25 ad db 3c
       0.033401586 0.06817889 -0.14299081 0.02681596
000050 a3 d8 76 3d e3 50 83 3d a2 ac f1 bd 9c a0 29 3d
       0.060265195 0.06411912 -0.11800505 0.041412935
000060 36 c7 0b be a8 b3 6f 3d 0c 91 ef bc d2 72 cd bd
       -0.13650212 0.058520943 -0.029243968 -0.10031666
000070 bb ba d2 bd d7 c7 01 be 30 4b 42 bd 5b 39 26 be
       -0.10289522 -0.12673889 -0.047434986 -0.16232817
000080 f9 18 ee 3d 30 25 11 3e c6 3c 18 bd cf 93 20 3d
       0.11625857 0.14174342 -0.037167333 0.03920346
000090 e6 cb 1d 3e 2d 37 a4 bc f4 33 e2 3d 7f aa a1 bd
       0.15409812 -0.020045841 0.110450655 -0.07893848
0000a0 7a 7f 11 be a3 71 eb bc 55 66 07 3e 45 46 df 3c
       -0.14208785 -0.02874071 0.1322263 0.027255187
0000b0 07 be 78 bc ce 19 39 bd 61 20 56 bd f7 6e 34 bc
       -0.015182025 -0.045190625 -0.052276973 -0.011012784
0000c0 fd fc 1f be a4 9a c0 3c 61 c3 c2 bc 73 c5 02 be
       -0.15623851 0.023511238 -0.023774805 -0.12770633
0000d0 b1 29 ce 3c 2a 39 91 3d 89 f8 9d 3d bf db 20 bd
       0.025166364 0.07090981 0.0771342 -0.039272066
0000e0 90 af 1d be 9f 7b f8 bd 1a 76 25 3e 6e e3 1d 3e
       -0.15399003 -0.12132954 0.16158333 0.15418789
0000f0 24 d5 26 3d a2 5d 08 bb 3f 14 08 bd 3b 96 ba ba
       0.04073061 -0.0020807763 -0.033222433 -0.0014235446
000100 e4 8f 2b be 7e cc 93 3c da ba 7d 3d 14 a2 79 3c
       -0.16754109 0.018041845 0.061945774 0.015236396
000110 25 8b ae bd 2c 82 03 be b1 61 96 3c a5 2a 2e 3c
       -0.085226335 -0.12842625 0.01835713 0.010630284
000120 9a f9 0d be 1d d3 16 be 74 96 80 3b 7d 45 13 3e
       -0.13864747 -0.14728971 0.0039241854 0.14381976
000130 38 a5 66 3d 10 18 e0 3d a0 4c c3 bd f3 b2 04 be
       0.05630991 0.109420896 -0.095360994 -0.12958889
000140 fd 6a 5f bd 4b 02 0f 3e 00 bc aa 3d dd 15 dc 3d
       -0.05454539 0.13965718 0.083366394 0.107463576
000150 3f 3c 24 bc 8b da 6a bd 52 f8 99 bc bd be e2 3d
       -0.010024129 -0.057337325 -0.018795166 0.11071537
000160 a4 6e 5c 3d db ae 55 3d a0 e9 b0 bd 91 ab cc 3c
       0.053816453 0.05216871 -0.086383104 0.024984153
000170 32 af cf 3d 6e 24 e4 bd 85 53 4b 3d f1 61 a6 bb
       0.10140838 -0.11139761 0.049640197 -0.0050775935
000180 24 eb a4 3d 99 37 24 be 85 70 ba 3d 95 e3 27 be
       0.08052662 -0.16036834 0.09103493 -0.1639541
000190 32 40 b1 bb bd 9f c3 bd 9e 16 18 bd d9 4b ce 3d
       -0.005409264 -0.09551952 -0.037130944 0.100730605
0001a0 19 b9 5d bd 15 c0 07 3e e2 df 34 3d cd fd fe 3d
       -0.0541316 0.13256867 0.044158824 0.124507524
0001b0 5d ac 10 3e 2d ab d4 bd 84 3d ed bd d8 10 19 be
       0.14128251 -0.10384212 -0.11583999 -0.14947832
0001c0 a4 31 19 3e d1 a7 4e 3d d8 b8 fb 3d 31 6e 28 bd
       0.14960343 0.05045301 0.122911155 -0.04112071
0001d0 c9 7f 81 3c cb 46 0c 3e 30 12 a6 3d d2 88 24 be
       0.015808003 0.1369888 0.08108938 -0.16067818
0001e0 1e 07 e9 bd d5 a4 f2 3d 3f 6b 24 bc 9f ca e6 3d
       -0.113783106 0.118478455 -0.010035335 0.11269116
0001f0 b9 79 19 be 79 d4 1f 3e 0e 6a c7 bb 06 ad f2 bd
       -0.1498784 0.15608396 -0.0060856408 -0.11849408
000200 12 36 6e bd c7 25 17 be 79 f8 16 be 23 69 e4 ba
       -0.058157034 -0.14760505 -0.14743222 -0.0017426353
000210 eb 5e 8b 3c 1d 1d c3 3c 41 78 0e bd 00 b2 d3 3d
       0.017013034 0.023817593 -0.03478265 0.10336685
000220 7a e2 ac 3d f3 7d 69 3d c0 07 c2 3c 09 a1 c5 3d
       0.084416345 0.05700488 0.023685336 0.09649856
000230 aa 61 17 3e 3f a9 d5 bd e0 53 27 3c 19 d8 12 3e
       0.1478335 -0.10432672 0.010212868 0.14340247
000240 71 d6 57 3a 31 90 61 3d 29 a8 23 3d 74 1d f4 3d
       0.00082335534 0.055069152 0.039955292 0.1191968
000250 df 1d 09 3d bc f4 48 3d f4 68 b4 bd 6d 69 e7 bd
       0.033475753 0.049061522 -0.08809081 -0.11299405
000260 2c 15 dc bb 2d e9 26 be f3 73 0a 3d f3 87 22 3e
       -0.006716391 -0.16299887 0.033801984 0.15872173
000270 84 d9 ff 3d 77 2c 05 be 55 e9 1e 3e f5 88 e9 3c
       0.1249266 -0.13005243 0.15518697 0.028507689
000280 9e a7 cc bd 06 71 2f 3e ba 11 8b bd 7e cc e5 bd
       -0.09992908 0.17132959 -0.067904904 -0.112206444
000290 7c 5a 02 3e 54 f9 48 bd b5 41 f8 3d b6 6d 01 bd
       0.1272983 -0.049065903 0.121219076 -0.03159877
0002a0 38 73 d1 bd 56 39 8f b9 2b 1d d9 3c 06 9c 8d bd
       -0.10227054 -0.00027317804 0.026503166 -0.06914525
0002b0 0f 0e cf bc 02 4d a0 bb d8 02 3c 3c 89 63 1e 3e
       -0.025275258 -0.0048919925 0.011475287 0.15467657
0002c0 85 8e 86 3d 98 6f 8a bc 9f 96 c2 3d 82 8a b1 bd
       0.06570152 -0.016898915 0.09501385 -0.086689964
0002d0 0a 9b 27 3b 6b 79 1b be f2 c1 9e ba c2 5d f8 bd
       0.0025574588 -0.15183036 -0.0012112244 -0.12127258
0002e0 b1 8c 27 3e 20 07 86 bd c3 1e 78 bd f0 40 0c ba
       0.16362263 -0.06544328 -0.06057621 -0.00053502526
0002f0 88 8f d8 bb 10 b5 8f bd 62 9a 97 bd 4f 0f a1 bd
       -0.006608907 -0.07016957 -0.07402493 -0.07864248
000300 44 ec 00 3d 49 42 9c 3d 0b 7c 28 be cd 0c 8e 3d
       0.03147532 0.076298304 -0.16453569 0.06936035
000310 8c 65 cb bc 06 34 00 3e fa 7c 6d bc fd 02 0c 3e
       -0.024828695 0.12519845 -0.014495129 0.13673015
000320 87 a8 22 3e 47 d6 30 3d ce 12 57 bb a9 38 0d bc
       0.158846 0.0431731 -0.0032817605 -0.008619466
000330 1d 7c c1 3d c3 0c e6 3d 4a 47 93 3d 70 02 ae 3b
       0.09447501 0.11232903 0.07191332 0.005310349
000340 2b 67 b7 bd 32 1f df 3d 7a 43 e6 3d 48 be 8d 3d
       -0.089552246 0.10894622 0.11243339 0.06921059
000350 44 0b 86 bc 7b 46 fc bd 55 14 32 bd b6 d7 5a 3d
       -0.016362794 -0.123181306 -0.04347642 0.053428374
000360 13 69 0e 3d 1b fc c8 3d a6 c4 01 bd 01 ef 9c bd
       0.034768175 0.0981371 -0.03168168 -0.07662774
000370 92 b7 c1 bc e0 60 0d be a0 77 25 3d bd 9e 97 3d
       -0.023647103 -0.13806486 0.040397286 0.07403324
000380 db 41 71 3d fb db 2b 3e 6a b5 d7 bd 78 ac 19 bd
       0.058900695 0.16783135 -0.10532649 -0.037517995
000390 2e de 92 3d 19 ba 0f be 05 c8 e2 bd 8c 48 0a 3d
       0.07171284 -0.14035834 -0.11073307 0.033760592
0003a0 ec 21 91 bd 75 f7 d6 3d bf 82 a2 3d 24 fa c2 bd
       -0.07086548 0.104964174 0.07935094 -0.09520367
0003b0 7e 85 07 bd 87 93 e7 3c 05 90 23 3e 08 a7 c2 bd
       -0.033086292 0.028268589 0.15972908 -0.09504515
0003c0 cd b4 40 bd 4b 1d 14 3d ac 93 14 3e 3f e9 6b bd
       -0.047047425 0.03616075 0.14509457 -0.057595488
0003d0 91 cf 7e 3d 40 94 da bc 78 c3 a4 3d 47 5e dc 3d
       0.06220967 -0.02668202 0.08045095 0.107601695
0003e0 69 ea 23 be 65 97 2d bb 36 01 41 bd 6b 91 cb 3d
       -0.16007389 -0.0026487943 -0.047120295 0.09939846
0003f0 ac d5 66 3d b9 dc 1c be 8a 9d ba 3b 63 1f c8 bd
       0.056356117 -0.15318574 0.0056950497 -0.097716115

branch_p.fc2.weight f4 [128, 256]
000000 c6 a2 41 3d 62 c9 19 bd 4c c0 5d 3d d0 7b 62 bc
       0.047274373 -0.03754557 0.054138467 -0.0138234645
000010 36 35 38 3d d0 7b d0 bc a2 c1 19 bd 0e 61 00 bd
       0.04497262 -0.025449663 -0.03753818 -0.03134256
000020 58 5f ca bc dc 04 12 bd 2a a5 7f bd 26 23 1d bd
       -0.024703667 -0.035649166 -0.062413372 -0.0383636
000030 68 f7 6c 3c 80 09 1d bd a4 6f 4d 3d 76 30 7f bd
       0.014463283 -0.038339138 0.050155297 -0.062302075
000040 88 47 5c 3c bc 89 81 3c 4a 2d 0f 3d d4 d5 5e 3d
       0.013444789 0.015812747 0.0349553 0.05440314
000050 d4 72 56 bd 6c ff 52 3d ca e9 6c bd 00 57 98 3a
       -0.052355602 0.05151312 -0.057840146 0.0011622608
000060 c4 c7 fb 3c 18 77 25 bd 80 8b 09 bc 2c 04 5d 3d
       0.030734904 -0.04039678 -0.008395076 0.053959057
000070 c2 ad 4d 3d d4 c2 57 bd 84 0a 5f 3d 0c d6 6f bd
       0.050214536 -0.052676037 0.054453388 -0.05855374
000080 b0 fb 47 3d 70 2e 62 3c 18 a5 35 3d 1c 71 75 3d
       0.048824012 0.013805017 0.0443469 0.059922323
000090 a4 95 ec 3c c0 2b f2 3c 88 05 25 3d 68 b3 3b 3c
       0.028879948 0.029561877 0.040288478 0.011456348
0000a0 68 96 69 3d 50 e8 ab 3b 52 c2 51 bd 38 95 c3 3c
       0.057028204 0.0052461997 -0.05121071 0.023874864
0000b0 ae 46 39 3d 0c c1 5a 3d 30 bc 08 3c b0 dc fc bc
       0.04523342 0.05340676 0.008345649 -0.03086695
0000c0 cc cb 42 bd c2 c7 2d bd a2 ce 79 3d d0 4e c9 3c
       -0.047557637 -0.042426832 0.060988076 0.024573714
0000d0 24 c5 9a bc 30 d7 25 bd f8 f5 61 3d 70 25 41 bc
       -0.018892832 -0.040488422 0.055166215 -0.011788711
0000e0 80 f2 3d 3a 3a 2a 64 3d b8 fe 51 bc a8 da e1 bc
       0.0007245913 0.055704333 -0.012817077 -0.027570084
0000f0 d4 72 a1 3c 4a 70 65 3d 78 94 d9 3c 96 d4 02 bd
       0.019708075 0.05601529 0.026560053 -0.03194102
000100 1e 01 5f bd ce 8d 63 3d ac 29 22 bd 70 ba 3d bd
       -0.054444425 0.055555157 -0.039590523 -0.04632038
000110 5a fa 64 bd e0 72 7a bd f8 4e 4f 3d 88 88 9b 3c
       -0.055902816 -0.06114471 0.05061242 0.018986002
000120 78 a9 77 bd c8 8d 6b bc a0 45 6f 3c 40 db 70 3d
       -0.060464352 -0.014377065 0.014604002 0.058802843
000130 4e 22 24 3d e0 59 37 bc 0c 6e 10 3d 9c b6 6f 3d
       0.040071778 -0.011190861 0.0352612 0.05852376
000140 38 71 f1 3c fa 45 0d bd 18 1d 39 bc f0 02 f2 bb
       0.029472932 -0.034490563 -0.01129844 -0.007385604
000150 80 b2 91 3c c6 e3 76 3d a0 7b 78 3d 54 78 20 bd
       0.01778531 0.060275815 0.060664773 -0.039177254
000160 7c da c7 3c fc b0 32 3d 84 2a b3 bc e4 4a b5 bc
       0.024396174 0.043625817 -0.021870859 -0.022130437
000170 74 cc d9 bc 4a f4 77 bd 78 b9 15 3c c6 83 6e 3d
       -0.026586749 -0.060535707 0.0091384575 0.058231138
000180 10 bf de bb f0 49 83 bb d0 cb c0 bc 1c b6 4a bd
       -0.006797679 -0.004006617 -0.023534685 -0.04949008
000190 6c ea 84 bc 20 ba 92 3b 50 db d4 3b 40 f6 44 3d
       -0.016225062 0.0044777542 0.0064958706 0.048086405
0001a0 b0 9a a3 bb 46 cb 3d bd 80 21 2d 3d 80 54 e2 bb
       -0.0049928054 -0.046336435 0.042268276 -0.006907046
0001b0 6c 1a e3 bc ae 55 3c bd b6 53 2c bd 4a 9b 79 3d
       -0.02772256 -0.045980148 -0.04207202 0.06093911
0001c0 40 02 3a 3c 8a 3d 50 bd a6 74 3f bd 00 fe 7f bb
       0.0113530755 -0.05083994 -0.046742104 -0.0039061308
0001d0 00 d9 5f bc 40 8c 8b bb 90 90 c6 3c 7c 3d fc 3c
       -0.013662577 -0.0042586625 0.024238855 0.030791037
0001e0 38 65 ef 3c 62 c3 04 3d d8 ee 0e 3d a8 d6 c0 bc
       0.02922307 0.032412894 0.034895748 -0.023539856
0001f0 08 54 1e 3d fe 89 3c bd 88 1d 75 bd 94 2e a3 bc
       0.038654357 -0.046030037 -0.059842616 -0.019919671
000200 ac bd 9b bc 0a 1f 0a bd 2e f0 5b 3d a6 ef 35 3d
       -0.019011341 -0.033721007 0.05369585 0.044418
000210 32 6e 14 bd 84 fb e1 3c d8 9c 84 bc b4 12 59 3d
       -0.036237903 0.027585752 -0.01618807 0.052996352
000220 ae a5 37 3d b2 6b 09 bd c0 17 ed ba a0 a3 65 3c
       0.04483574 -0.033549972 -0.0018088743 0.014016062
000230 c8 d7 3b bc 0c 7b 50 bd 00 2a 54 3b 20 5e 7a bd
       -0.0114650205 -0.050898597 0.0032373667 -0.06112492
000240 c8 fd 40 bd c8 df 4b 3c 4e 57 63 3d ec 96 6e bd
       -0.047117025 0.01244349 0.055503182 -0.0582494
000250 84 d5 c3 3c 36 e2 4a bd e6 e3 73 3d 00 38 d3 b8
       0.023905523 -0.049532138 0.059543513 -0.00010071695
000260 70 ef b4 3b 9a 7d 49 bd f0 3e 2c 3c 24 7b a4 bc
       0.0055217072 -0.04919205 0.010513052 -0.02007825
000270 74 c2 40 3d 00 68 8f 3c c0 13 e7 3c b0 82 31 3c
       0.047060445 0.017505646 0.02820766 0.010834381
000280 1a 36 1b bd 30 42 0c 3c 5c 7f 44 3d 10 78 37 bd
       -0.037893392 0.008560702 0.047973022 -0.044792235
000290 50 34 22 bc 42 7f 2d bd 3c 6f 07 bd 50 d5 0e 3c
       -0.009900168 -0.04235769 -0.033065066 0.00871785
0002a0 70 f7 7d 3c 0c 52 4a 3d 60 b3 9d 3b 90 08 47 bd
       0.015500888 0.049394652 0.004812643 -0.04859215
0002b0 c2 50 56 bd 7c 1d 64 bd 6c 4e bc 3c 4e 47 08 bd
       -0.05232311 -0.05569218 0.022986613 -0.033271126
0002c0 76 ee 7f bd 68 18 36 bd 44 b0 9c 3c b8 c7 f2 bc
       -0.062483273 -0.04445687 0.019127019 -0.029636249
0002d0 20 5d 46 3d 3a b7 23 3d 70 08 66 3c c4 6d 1e 3d
       0.048428655 0.03996966 0.014040098 0.0386789
0002e0 18 ef 1b 3c 6e ed 41 3d 04 de ba bc 78 d9 08 bd
       0.009517454 0.04734557 -0.022810943 -0.03341052
0002f0 5c 40 91 bc c8 67 76 bd f6 aa 4e 3d d2 09 28 3d
       -0.017730884 -0.060157567 0.05045601 0.04102499
000300 fc 18 02 3d dc ca 10 bd 40 fa 83 bb d0 b5 90 3c
       0.03176211 -0.03534971 -0.004027635 0.01766482
000310 06 91 36 3d 00 78 d8 38 50 3c 3d bc c0 77 4d bc
       0.0445719 0.00010322034 -0.011550024 -0.012540758
000320 da 73 6f bd b2 65 52 bd d0 0d ef bc 00 64 6b b9
       -0.058460094 -0.051366515 -0.029181391 -0.000224486
000330 38 23 6a 3d b8 96 5a 3d c0 17 71 bd 50 b5 75 3c
       0.057162493 0.053366393 -0.05886054 0.014996842
000340 3a 8c 61 3d 98 97 22 bd a6 e6 2f bd ac 5f 59 3d
       0.05506537 -0.039695352 -0.042944573 0.053069755
000350 80 52 20 ba 40 b6 ae 3b 18 05 a8 bc c0 47 de bc
       -0.0006115809 0.0053317845 -0.020510241 -0.027133822
000360 5c 75 94 bc c4 13 97 3c f0 c5 09 3c 30 da 8f 3c
       -0.018122368 0.018442042 0.008409008 0.017560095
000370 a0 c0 f6 bc a0 a7 4d 3d 52 18 6d 3d 12 b7 4f 3d
       -0.030121148 0.050208688 0.05788452 0.0507117
000380 70 80 95 3c 40 65 28 bb e6 31 6d bd d6 67 3f bd
       0.01824972 -0.0025695115 -0.057908915 -0.046729885
000390 50 81 c2 bc cc e6 ab bc a0 be c2 bc 78 c1 52 bc
       -0.023743302 -0.020984076 -0.023772538 -0.012863509
0003a0 d8 1e 33 bc 8c 56 bd 3c 04 5c 0c 3d bc 53 30 3d
       -0.010932647 0.023112558 0.03426744 0.043048605
0003b0 50 03 50 bd d8 0f 25 3d 18 77 7a 3c 34 2f 6a bd
       -0.05078441 0.040298313 0.015287183 -0.057173923
0003c0 3a 4b 05 bd 0a e9 5b bd 3c c9 e5 bc c0 43 74 bd
       -0.032542445 -0.05368904 -0.028050058 -0.059634924
0003d0 72 7e 6f bd 18 e9 a3 3c 78 80 28 bc a2 ca 14 bd
       -0.058470197 0.020008609 -0.010284536 -0.03632606
0003e0 20 b8 0d 3c c0 c0 93 bc 88 f6 0d bc 9c 20 38 3d
       0.008649856 -0.018036246 -0.008664735 0.044952974
0003f0 a6 25 5f bd 80 2e 22 bc 9c 2d 0f 3d 74 37 2e 3d
       -0.054479264 -0.009898782 0.034955606 0.042533353
